src/saved_models/grid_world_seed125_8_7_15_42_成了/125_34_model.pt (torch, 702727 bytes, 11 tensors)

FC1.weight f4 [256, 36]
00000000: 9e03 dbbd 4c85 8b3c 8463 833d a1b3 c43d
00000010: 8c3d 073c 09ce 45be 77e6 28be cf70 e83d
00000020: b194 1a3e dad0 0bbe 2e0c 0a3d 09d7 c9bd
00000030: 5843 913e 88b1 25be 8ab8 1cbe 79e7 af3d
00000040: 6d59 093d 0d76 42be fac4 53be 0a02 68be
00000050: aed8 f13d 168c 18be 6ee9 27be b32a 0fbe
00000060: 9238 08be 4008 623e 8811 c93d c1db b83d
00000070: 16b7 433e 5549 acbd 67d2 a33c 5b19 32be
00000080: 2b8c 0dbf c796 0d3e 2631 3c3e c52a b8be
00000090: 464f 27bc efbe 67be d4ca de3d ce25 56bc
000000a0: 20fb 53be e3f7 a4be 25e1 22be f3f6 d1be
000000b0: d4ba 843d cbca 34bd 20de 373e 3355 56bd
000000c0: f8a3 0ebc 1288 c7be b17f 6cbe d1ed c8be
000000d0: 42e9 8ebd ffed 9dbe 69b3 533e 00b8 fcbe
000000e0: c13a a2bc ace2 123d e3de e5bc cc19 9fbe
000000f0: 28f1 b93d b9f9 dfbb 8e34 e2be a29c 293e
00000100: fc1f 413e 5e08 ef3d d4f4 8d3e 965f 863d
00000110: f054 843e f984 29bf a0a6 d5bb 7fa4 91bd
00000120: bf83 b43d cee1 8dbd f090 d8be 7141 713d
00000130: 978d e1be 359e 973d 1b8f 18bf 2373 fe3c
00000140: e860 bdbe b1b9 4b3e 5733 43be ed8c f4bd
00000150: f15c b33e fe5e fabd 53a0 00bf c0de af3d
00000160: cc8d 7fbe 22d0 38be 3204 febe 72ed 95be
00000170: d655 c63d b3af 3ebe 1c0e dbbe 1d9f 37be
00000180: ef18 9ebe 7cef c33e 9a9d 73be f52c 97bd
00000190: bddc 04bd ab43 d0bd fe8a a5bd 1c76 99bc
000001a0: 0cf6 1bbe 93de 81be 8180 92be 1e04 fdbd
000001b0: ff89 e13d e3f2 3bbe 3d2e af3c 6adb 22be
000001c0: e721 87bd 8bc0 62bd a934 f3bd 873c 79be
000001d0: 91e5 043e 77f9 96be 2e03 1e3e 23c7 b1bd
000001e0: 0635 693e 0c18 d83b b3ff dabe acb7 25be
000001f0: 3221 623d 8d3f 7abe 9305 e83d 62fe fabd
00000200: d5d5 54bd fb74 673d a32c 75be b7a5 36be
00000210: 7901 4e3e f24d 51be 31ac aebe 82fd 283d
00000220: 5117 843e d3e2 eb3d 6384 5dbd bf67 ae3d
00000230: c4ff 2cbb 8c31 8cbe cdf1 c73d 7e56 1a3e
00000240: c26d a53d e0c7 ecbd 5d69 093e 0916 683e
00000250: f2c8 643e 96af 8d3d 37c2 69be f9a3 73bd
00000260: 6880 7e3b cc74 3bbe 377f ebbd 17a8 0a3d
00000270: 94db 693e 4da3 acbc fa01 00be 7f42 2cbd
00000280: 7d47 22bd 999c 293d d5e5 91be 9fa2 9c3d
00000290: 22ff 3b3d f088 893e 3f71 d0bd 1ca2 153e
000002a0: a5a1 d63d a44c e13c 4e9f 873e 29dc 713d
000002b0: 38cb 843e 406d 34be b9c2 6abe b3e2 c6bd
000002c0: 0d27 91be 0e19 453e c0aa 7f3d 6cc4 2f3c
000002d0: 5d66 5b3e d7af 50be 246b 0e3e a9b4 6dbd
000002e0: fd41 af3d f7b1 0c3e 4f21 39be b8f9 f0bd
000002f0: cae9 0fbc 82ec 9dbe 5797 e63c ed3e d23d
00000300: ef1f a53c d7b8 4a3c 406d fbbe 3769 19be
00000310: 1c54 903d f7f9 89be 8f5a 8c3d 01d4 1ebc
00000320: cf33 a1bd 0394 633e 5b9e a3be 678e 06be
00000330: 85b0 2fbd 156e e5be 0bcb c63e 7aa4 6c3d
00000340: 534c 613e 1bb8 133c 6d96 343d 6458 87be
00000350: d2c6 ecbb 2ac4 54be 07f4 64bd b95e 02bd
00000360: e5e2 783e f585 2f3d 91b1 0f3e 36e8 483d
00000370: 29eb d53d 88f8 833e 522c 7dbe 3387 a73a
00000380: 7c50 863d d866 7bbe f07d 4cbd 499c 273e
00000390: 3b9f bb3d a5a3 e63d 38b0 bdbd 0692 5d3d
000003a0: 0878 973c 8551 a0be 082e 78be 4938 313e
000003b0: 1ddc 423d 6c9c b03c e635 34be 7cd5 31be
000003c0: 9ede b1bc ecc2 2ebe a52f 363e 0ce0 fbbd
000003d0: 1ae0 a43e 7efe 01be 1917 0c3c 320a 62bd
000003e0: da9b 97be 5451 2fbd 118a 87bc af00 6dbe
000003f0: 0c08 7cbe c746 41bd 555e e1bd f582 87bd
-0.10694049 0.017031334 0.064154655 0.09604574 0.00825442 -0.19316877 -0.16494165 0.113496415
0.15095784 -0.1365389 0.03370302 -0.09855468 0.28371692 -0.16181004 -0.15304771 0.08589072
0.03353255 -0.18990345 -0.2068061 -0.22657028 0.118089065 -0.14897189 -0.1639764 -0.13981132
-0.1330283 0.2207346 0.09817797 0.0902629 0.1911281 -0.084124245 0.019997789 -0.17392485
-0.55292004 0.13827048 0.18378124 -0.3597013 -0.010211771 -0.22631429 0.1087853 -0.013070537
-0.20701265 -0.32220373 -0.15906198 -0.4100872 0.06480947 -0.04413871 0.17955828 -0.052327346
-0.008706085 -0.38971 -0.23095585 -0.3924394 -0.06978084 -0.3084564 0.20673908 -0.4935913
-0.019803407 0.035860702 -0.028060382 -0.3107437 0.090792 -0.006835189 -0.4418072 0.16563657
0.18859857 0.11671518 0.27725852 0.065612 0.25846052 -0.66218525 -0.0065201074 -0.07111453
0.08814191 -0.069278345 -0.4229808 0.0589003 -0.44053337 0.074032225 -0.5959336 0.03106076
-0.36987996 0.19895054 -0.19062553 -0.11940942 0.35031846 -0.122251496 -0.50244635 0.08587408
-0.24956435 -0.18048146 -0.49612576 -0.2928272 0.09684341 -0.18621711 -0.42784202 -0.1793179
-0.30878398 0.3826865 -0.23790589 -0.07381622 -0.032437075 -0.10169157 -0.08083151 -0.018733077
-0.15230578 -0.25365123 -0.28613666 -0.12354301 0.11012649 -0.18354373 0.021384353 -0.15904012
-0.06598263 -0.055359405 -0.118752785 -0.24339496 0.12978198 -0.29487202 0.154309 -0.086805604
0.22774133 0.0065946635 -0.42773208 -0.16183347 0.05520744 -0.24438305 0.11329188 -0.12255551
-0.05196174 0.056508046 -0.23942809 -0.17836653 0.2011775 -0.2043989 -0.34115747 0.04125739
0.2579904 0.11517873 -0.054081332 0.08515882 -0.0026397565 -0.2738155 0.09762917 0.15072057
0.08077575 -0.11561561 0.13419099 0.22664656 0.2234228 0.06918256 -0.22827993 -0.05948255
0.003883386 -0.18306273 -0.11498874 0.03385171 0.22837669 -0.021073962 -0.12500754 -0.042055603
-0.039618958 0.04140911 -0.2849566 0.07648205 0.04589761 0.26862288 -0.1017785 0.14612621
0.1048005 0.027502365 0.26488727 0.05904785 0.25936294 -0.176198 -0.22925843 -0.09711208
-0.28350106 0.19247839 0.0624187 0.010727983 0.21425767 -0.20379578 0.13908058 -0.05803362
0.08557508 0.13739763 -0.18079112 -0.1176638 -0.008783767 -0.30844504 0.028148336 0.102659084
0.020156829 0.012373171 -0.4910679 -0.14981543 0.070472926 -0.2694852 0.0685321 -0.0096941
-0.0787121 0.2222443 -0.31956753 -0.1314026 -0.04289295 -0.44810548 0.38826784 0.057774045
0.22001772 0.009016062 0.04408877 -0.26434624 -0.0072258497 -0.20777956 -0.055896785 -0.031828616
0.24305303 0.04285236 0.1403258 0.04904958 0.10445244 0.25775552 -0.24723938 0.0012781381
0.0655832 -0.2455095 -0.04992479 0.16368212 0.0916123 0.112616815 -0.09262127 0.054094337
0.018489853 -0.31312194 -0.2423631 0.17306627 0.047573198 0.021558963 -0.17598686 -0.17366594
-0.021712597 -0.17066544 0.17791612 -0.12298593 0.32202226 -0.12694737 0.008550429 -0.055185504
-0.29611093 -0.04280217 -0.016545327 -0.23144792 -0.24612445 -0.04718664 -0.110043205 -0.06616775

FC1.bias f4 [256]
00000000: 66d8 b5bd 7abd 8ebc 74e2 103c ac2a d03d
00000010: 3962 f53c 9164 993b 3923 30be 065b b93c
00000020: 183c 803d d259 debd 4579 203e 2faf 9dbd
00000030: a097 c6bd fe73 b7bd ce47 1dbe d4c5 6c3d
00000040: 4f9c 1e3d 2e39 95bd e93c ccbd 6bec d63c
00000050: 1510 41be 9623 313e 244f 22be a0ed 42bd
00000060: 3ce7 5e3c e3a3 89bd b8db b737 068f 5bbc
00000070: 83fe 12be aa59 b9bb ca04 453d 4259 a8bd
00000080: 251d 0cbe e879 193e 3a89 fbbd 6ead c7bd
00000090: 6c81 6fbd 06b3 d53d d833 213e 7fff 993d
000000a0: 21ae 053e a00f f93c 3255 e03d a259 383c
000000b0: b3bd 2b3e 927b 253e aacf 193d 62e8 d2bd
000000c0: e0f2 81bd 79c1 2d3e ba0f 73bd 1c8e 16be
000000d0: 2bd6 0cbe 74dc 433d 717b 753d 5b43 273e
000000e0: c45b 0c3e 410b 103d fecf b7bb f97c cc3c
000000f0: 5301 af3c c83f fdbd 72da 3dbe fd6b 023e
00000100: 4f9d 95bd 112b 4d3d d528 153e d419 763d
00000110: bb0d 72be 9790 73bd 12e6 043e ba90 e63b
00000120: 1b89 c9bd 148f f33d e60e a83d d4d0 34bd
00000130: 0bbe 8abd 0960 c83c bd40 fabd 12ce 43be
00000140: 8b6f 64bd fccf 74bd 6a1f 173d e78c 8a3b
00000150: b72f 523d 4c67 543d 14c5 393d 537e edbd
00000160: 87ac ccbd 23a6 60bd 3f38 0a3d a7fb 15be
00000170: 82d6 89bc 3865 0dbd 0435 9e3d 61a1 633d
00000180: b91d e53d 55d0 2a3e 5551 c63d 6c3e 99bd
00000190: ea1f 3c3e bf0b 0d3e d62f 52bb 2ac3 cdba
000001a0: 77b0 33be c5b9 eebd 962e db3d 14df 8ebd
000001b0: f9d3 82bd 51af d2bd 0089 c0bd a6ac f33d
000001c0: 435c 8c3d deda fcbc 2dc6 80be a37c 5bbd
000001d0: 1204 22be 9486 103d 3dbf 133c 68d4 40bc
000001e0: 778d a2bd 66b7 3abe c8e4 68bd 327c c93d
000001f0: d8ae bc3d 37ab 62bd 040a c63d 4b9c 283d
00000200: fd9c 093e 2e2c 003c 9acf 5cbd 08b4 b1bd
00000210: a33d 99bc 3c98 2cbe ef40 f9bd bbdd 3abd
00000220: 63d4 27be a111 5e3b 56df 933c 24bc 46bd
00000230: a74f 09bd 4709 f2bc ac3e 0cbe a692 de3c
00000240: bf49 cabd b506 f83d cb7e c73c 78ff 2dbc
00000250: f9b9 073c 6729 083d 1e2e 623d 6a3f d5bd
00000260: 812c cbbd ae2f 8fbd 8b40 9ebd e389 56bd
00000270: 1aae ed3d a70f 1d3d 4efa a6bd ca63 4d3d
00000280: cae7 12be 8e04 0cbd f99c a73d 757c 31be
00000290: 3ab1 4ebd 0c96 4dbd b0a1 97bd cc0b 12be
000002a0: 94e2 6dbd ba21 c5bd 0022 17bd 88d2 3dbd
000002b0: f548 983d 657e 143e 103a ffbd ce87 a2b9
000002c0: 8b89 1b3e 17aa f83d 7b2c 23be 80bf f7bd
000002d0: f88a 893b 4e53 05be 0bc2 a73d db55 f33d
000002e0: 3101 fe3d 4568 ac3c 77eb dabd 9242 d5bc
000002f0: 8f3c b13d de6a 6d3d 89d4 23bd 4fca 9e3c
00000300: 5329 77bd 57a6 2a3e 05a8 e7bd c7f5 0e3e
00000310: 5a7b d43b 0076 db3c 0ef7 d7bd 4827 c43c
00000320: e616 6b3d 2800 383d fcbd 33be f0f4 193d
00000330: 2552 29be be07 79bc 9c0b 0abd 4308 b6bd
00000340: 79eb 203e be2a f1bd ca04 bd3c 0c28 5e3d
00000350: ca61 3e3d c601 c5bd 249d d83b d3c4 58bd
00000360: 4683 92bc 69db 1cbe cc8e 48bd a95f e23c
00000370: a2c3 ac3d d4a5 b33d b920 19be 40b1 8fbc
00000380: 213e a4bd 83f2 983d c9fb 15be cca0 373d
00000390: 6382 1f3e 6ede bc3d 7761 05bd e530 a43d
000003a0: 62ee b63d 57da 16be 6020 923d 6c21 3a3d
000003b0: 2c24 01be c430 58be 8efc 4f3d a610 43bd
000003c0: d0a9 91bd a2e9 20be 0861 39be ef51 a13c
000003d0: 4768 23be 3cac 083e 4551 d6bc 3cf1 f53b
000003e0: cf57 5ebc 82a1 273d 9ad7 90bc c025 58ba
000003f0: a654 8abd 0448 3f3e fc65 07be a0ce 783d
-0.08879165 -0.017424334 0.008843053 0.10164389 0.029954063 0.004681178 -0.17200936 0.022626411
0.06261462 -0.108569756 0.1567126 -0.07699429 -0.09696889 -0.08957671 -0.15359423 0.05780585
0.038723286 -0.07286297 -0.09972555 0.02623578 -0.18853791 0.17298731 -0.15850502 -0.047589898
0.013604935 -0.06720712 2.1917615e-05 -0.013400799 -0.14354901 -0.0056564407 0.04810027 -0.082201496
-0.13682993 0.1498791 -0.12282033 -0.09749876 -0.058473036 0.10434537 0.15742433 0.07519435
0.13054706 0.030402958 0.1095375 0.011251839 0.16771583 0.1616042 0.03755156 -0.1029823
-0.06345153 0.16968335 -0.05934117 -0.14702648 -0.13753574 0.047817662 0.059932176 0.16334288
0.13706881 0.035166983 -0.0056095114 0.024961935 0.021362936 -0.12365681 -0.18540362 0.12736507
-0.07305395 0.0500899 0.14566357 0.060083225 -0.2363805 -0.059464063 0.1297839 0.0070362957
-0.09840604 0.11892524 0.08205967 -0.044144467 -0.06774529 0.024459856 -0.12219379 -0.19121578
-0.05577044 -0.05976866 0.036895193 0.0042282226 0.051315036 0.051856324 0.045353964 -0.1159636
-0.099938445 -0.05484594 0.033745047 -0.14646779 -0.016825918 -0.034520358 0.07724956 0.055573825
0.1118731 0.16681035 0.096834816 -0.07482609 0.18371549 0.13774012 -0.003207197 -0.0015698422
-0.17547785 -0.116565265 0.10702245 -0.069761425 -0.06388087 -0.10287345 -0.09401131 0.118981645
0.06853535 -0.030866083 -0.25151196 -0.05358566 -0.15821865 0.035284594 0.009017763 -0.011769392
-0.079371385 -0.18234023 -0.056858808 0.098381415 0.09213036 -0.055339064 0.09669879 0.041164678
0.13438793 0.007823033 -0.05390892 -0.08676916 -0.018706148 -0.16854948 -0.12170588 -0.045621615
-0.16389613 0.003388502 0.01805083 -0.04851927 -0.033523228 -0.02954544 -0.13695782 0.027169537
-0.09877347 0.12110654 0.024352452 -0.0106199905 0.008284085 0.03324261 0.055219762 -0.10412486
-0.09920598 -0.06991516 -0.07727154 -0.052377593 0.11605473 0.038345005 -0.081532106 0.050143994
-0.14346233 -0.03418403 0.08184237 -0.17332633 -0.050461985 -0.050191924 -0.07403886 -0.14262313
-0.05807741 -0.096255735 -0.03689766 -0.046343356 0.074357904 0.1450134 -0.124622464 -0.0003100023
0.15189187 0.12141817 -0.15934937 -0.120970726 0.0041974746 -0.1302006 0.08191308 0.1188161
0.12402571 0.021045813 -0.106894426 -0.02603272 0.08654129 0.057963245 -0.03999761 0.019383578
-0.060342144 0.16665016 -0.11311344 0.13960944 0.006484431 0.026789665 -0.10545169 0.023944512
0.057394885 0.044922024 -0.17552942 0.037587106 -0.16535242 -0.0151996 -0.033702478 -0.088882945
0.15714826 -0.117757306 0.023073573 0.05423741 0.046479978 -0.09619479 0.0066105295 -0.05292208
-0.017884862 -0.15318073 -0.048964307 0.027633505 0.084357515 0.087718636 -0.14953889 -0.017540574
-0.08019663 0.074681304 -0.1464683 0.044831082 0.15577082 0.092221126 -0.032563653 0.080171384
0.08932187 -0.14731728 0.07135081 0.04544203 -0.12611455 -0.21112353 0.050777964 -0.0476233
-0.07112467 -0.15714124 -0.1810342 0.01969239 -0.15957747 0.13346952 -0.0261618 0.007505564
-0.01357074 0.04092551 -0.017680932 -0.0008245371 -0.06754427 0.18679816 -0.13222498 0.060743928

FC2.weight f4 [256, 256]
00000000: 4f76 37be 266e babc f825 53be dde4 10be
00000010: 21ec 56be 8843 b1bd ae01 be3d 3528 803d
00000020: 1adc 5fbd ef33 7e3d b6c6 3b3d 5712 30be
00000030: aa08 2fbd c01d bf3b 1b30 3dbe 0639 0bbe
00000040: ae9e f23d 76d6 f4bd dbb8 4bbb aee8 213e
00000050: 77a8 f6bd e7a7 d23d 58b6 033c f9c5 1ebd
00000060: bfbd 2b3e e981 603b 35e8 e93c 93c9 38bd
00000070: 0f9d 5ebe 0b96 20bd 8a99 043e ef70 093d
00000080: 1742 4c3c 49db fa3c cb16 17bd d5b8 edbd
00000090: 4c7e ebbc 9686 31be f15a 67bd d4c3 06bd
000000a0: 5887 50bd e0a2 43bd 6d46 3bbe 7693 b33d
000000b0: c2ed 083c 418a 34bd cc8c 80ba b4f9 cd3d
000000c0: 2b1e 3a3d a8ff 96bc d6e2 82be 0047 86bc
000000d0: a0cc 40bd 732f 043e f95c af3d a007 a13d
000000e0: 13f1 2dbc e6cf dbbd ab25 07be 107a c3bd
000000f0: e0f9 e6bd 13c7 55ba 1aed 57bd d303 33bc
00000100: 0b12 d4bd 18bd 82bd 4ac8 d23c 0462 9fbe
00000110: 3eed 42bc d9a5 083d c24f 4cbe 9aed 00be
00000120: d981 0ebd bcf5 89bb ab55 eebd 4fee 053e
00000130: a066 5c3d 68fb be3a 909f f2be 316f eb3d
00000140: 0326 f1bc be6a 403e e684 7f3d 5402 bdbd
00000150: ad00 263d 4300 fabd 69ab 74bd 5e8b 443e
00000160: 83ec 9b3d d0a6 92be e2fc 4dbd a576 adbd
00000170: 692b 353d c60d 803d 363f e1bd cca8 aabd
00000180: 3a87 a1bc a5a9 103c 14f8 3b3d ce88 4e3d
00000190: dc47 dabd 05fa 3cbe b834 3cbd 5f62 ca3c
000001a0: b91c c6bd 275b dabd 4259 9cba 4f02 20be
000001b0: 9c16 75be b689 9bbc 34a0 c5bd 1247 4cbd
000001c0: 1352 abbc 3868 50be 4982 f43c c425 b73b
000001d0: 0a8c 52bd c9c6 aabc 83d9 a9bd 1bd6 163e
000001e0: 040a 99bc 14e7 adbc 9dce bfbd 77a2 85bd
000001f0: 5135 4d3d f638 b23c d914 0cbd 6019 10be
00000200: e7d3 2d3c d130 db3d 2ee7 a8bd 5a77 80bd
00000210: 816d 523d e246 6dbc d6d6 2bbe 8af4 bc3c
00000220: 2f72 dabd ed6b 283d bff5 fdbb a2e5 f1bd
00000230: 6103 913d 030c 96bd 867d 59be cc06 8cbc
00000240: 2e9d bebd 9681 19bd f2a3 503c 2835 0bbe
00000250: 2863 70bd c8b0 0abe acc3 a1bd faf2 c13c
00000260: d378 ce3b 7af2 7abd 2021 0bbe 947b b5bc
00000270: d3ee d3bd b6e9 09be e221 dcbd 5aff acbe
00000280: 792f 883c 9a8a 06bd 7fc8 4cbe e039 d53b
00000290: 713f 5ebd 261a 22bd 34d0 b7be 766b a9bd
000002a0: cab9 b53c 34fc 6b3c 3875 653c d43d abbd
000002b0: 7d75 85be da32 b73d 34a4 f8bc 0395 b13d
000002c0: f973 5b3e 3e9e 89bc bcff a03d 7b91 1f3b
000002d0: a9d2 14bd f4e2 3bbe a64e d0bd a5bc 34bd
000002e0: 5bfd 64be 5211 81bd b024 ee3d 00d5 1abe
000002f0: 4f87 803e d7a1 243c 00c8 40b8 5c4e 373d
00000300: 2a12 08be ee9d 57be 314d bdbd 9dec bbbd
00000310: 778b 8ebd b13c 56be e52a 42be fbcc dfbd
00000320: f0a8 a13d f79b 8a3d 6f37 c6bc 443e 94bd
00000330: 47b0 28bd 4442 13bd d3c4 213d 516f ac3c
00000340: 7dca 6938 886c e2bd 9140 9ebd 929d 3e3b
00000350: e477 dd3c 5f36 0a3d cd70 94bd d6c3 debd
00000360: e231 a1bd bb44 b43d a43c e13c 2eee d43c
00000370: d559 8d3d 61a0 6abb 93ef bdbc 64e9 913e
00000380: 7533 033d cc8e 27bd 688b 9ebd 0fa9 0c3d
00000390: b5e8 983d 8f71 053b e898 5fbd b58e 7fbd
000003a0: 6cdd 65bd f620 453d d52b 93bd c035 86bd
000003b0: fd1b 97be b936 e2bd d45c 243d 4840 27bd
000003c0: 8e1b 84be 4e5b 56bd e63a 23bd e8d5 063d
000003d0: 0a76 95bd a07e 6e3c eefc 8fbd 3c3a 103d
000003e0: a9e3 49be 694c e63c fb79 6cbc 9bf5 f1bc
000003f0: 8f8a 5bbe f407 8c3d d65e 293d 30f7 b73c
-0.17916225 -0.022757601 -0.20619953 -0.14149804 -0.20988514 -0.08655459 0.09277664 0.06257669
-0.054653265 0.062061246 0.045843802 -0.17194496 -0.042732872 0.005832404 -0.18475382 -0.13595971
0.11846672 -0.11954968 -0.0031085524 0.15811417 -0.12043851 0.10285931 0.00803908 -0.03876302
0.16771601 0.003425712 0.028553108 -0.04511411 -0.217396 -0.039205592 0.12949196 0.033554967
0.012466929 0.030622141 -0.03688697 -0.116075195 -0.028746746 -0.17336497 -0.056483213 -0.0329016
-0.050910324 -0.04776275 -0.18288584 0.0876836 0.008357467 -0.04407716 -0.0009807586 0.10057393
0.045438927 -0.018432453 -0.25563687 -0.016391277 -0.047070146 0.12908725 0.08562655 0.078627825
-0.010616559 -0.10733013 -0.13197963 -0.09544766 -0.112781286 -0.00081549695 -0.052716352 -0.010926205
-0.10355004 -0.06383723 0.02573027 -0.31129467 -0.011897383 0.03336129 -0.199523 -0.12590638
-0.0347918 -0.004210202 -0.116374336 0.13079189 0.05380881 0.0014570775 -0.47387362 0.114958175
-0.02943707 0.18790719 0.0623826 -0.0922896 0.04052799 -0.12207081 -0.059733782 0.1919379
0.076134704 -0.28642893 -0.050289996 -0.08469895 0.044230852 0.06252627 -0.10998385 -0.08332977
-0.019717801 0.008829509 0.045890883 0.050423436 -0.10658237 -0.1845475 -0.045948714 0.02470511
-0.09673447 -0.10661917 -0.0011928456 -0.1562588 -0.23934406 -0.018986564 -0.09649697 -0.049872465
-0.02091316 -0.20352256 0.029847281 0.005589219 -0.051403083 -0.020846741 -0.0829344 0.14730112
-0.018681534 -0.02122835 -0.0936558 -0.06525128 0.050099675 0.021755677 -0.03419957 -0.1407218
0.0106096035 0.1070267 -0.08247219 -0.062727645 0.051373962 -0.014482232 -0.16781172 0.023065824
-0.1066631 0.04111855 -0.0077502425 -0.11811377 0.070807226 -0.0732651 -0.2123929 -0.017093085
-0.093073234 -0.0374771 0.0127344 -0.13594496 -0.058688313 -0.13543999 -0.078986496 0.02367543
0.0063010245 -0.0612664 -0.13586855 -0.022153653 -0.103482865 -0.1346806 -0.1074865 -0.33788568
0.0166242 -0.032847025 -0.19998358 0.0065071434 -0.05425972 -0.03957572 -0.35901034 -0.0827245
0.022183318 0.014403392 0.014004998 -0.08361402 -0.260662 0.08945246 -0.030351736 0.08671
0.21430959 -0.016799089 0.078612775 0.0024348188 -0.036333714 -0.18348294 -0.10171251 -0.044125218
-0.22362272 -0.06302132 0.11628091 -0.15120316 0.25103232 0.010048351 -4.596263e-05 0.044752464
-0.13288179 -0.21056339 -0.09243239 -0.0917599 -0.069601946 -0.2092159 -0.18961675 -0.10927769
0.078935504 0.06768029 -0.024196355 -0.07238439 -0.041183736 -0.035951868 0.039494347 0.021049174
5.574011e-05 -0.11055857 -0.07727159 0.0029085618 0.027034707 0.03374326 -0.072480775 -0.108771965
-0.078708425 0.08802172 0.027494736 0.02599248 0.069019 -0.003580116 -0.023185527 0.28498375
0.032031495 -0.040907666 -0.077414334 0.034340914 0.0746626 0.0020361876 -0.054589182 -0.062391955
-0.056119367 0.048127137 -0.07186095 -0.06553221 -0.2951354 -0.11045594 0.04012759 -0.040832788
-0.25802273 -0.05233317 -0.03985109 0.03291884 -0.07297905 0.014556557 -0.070306644 0.035211787
-0.19715752 0.028112607 -0.014433379 -0.02953606 -0.21439575 0.068374544 0.04135021 0.022456735

FC2.bias f4 [256]
00000000: d7e1 3ebd 83d6 8b3d 0f3c 8d3d 864c 803d
00000010: ce1e cfbb 4108 9bbd 9c92 5cbd f8cf 9ebd
00000020: 393d d0bc 1b96 cdbc 2034 f1bc d8a9 a63c
00000030: 115c 0d3d 4433 053e 5cbf 613d bcea 623c
00000040: f764 10bd d062 c5bc 7c9e 3cbd b728 cd3d
00000050: 67da 143d 1a9d 543d 572c c73b 5649 5c3c
00000060: 7921 523d b0bf 583c 858a ea3d be8f 3fbd
00000070: 3a84 35bc f4c8 41bd e4ed ff3c b923 d73c
00000080: edca 333c 4012 6c3d 381a 523c 4a0d 0f3d
00000090: d3f6 13bd ddf6 893c b0a8 6d3d 9b4a 7fbd
000000a0: 6b57 d83a 8dec 853c a9e0 20bd 2685 29bd
000000b0: 9eb7 0a3c ad35 123d 8e67 5abd 6996 2dbd
000000c0: 343f 1dbd 2433 3abd 76e8 393d b7e0 bd3c
000000d0: 440f 453d c139 653c 56c3 153e a348 a0bd
000000e0: 1fa1 863d 54b8 453d fd0e bc3c a584 a03d
000000f0: 97f5 dfbc dae5 9f3a 1dbf d23c 54fe 25bd
00000100: 7ac5 063c faad 913c 4f2f 313d 6115 9d3c
00000110: f86b 50bd 9802 54bc a52b 8ebd 1e83 a23d
00000120: 7343 f13c 2da2 a13d d8c4 993d a645 bd3b
00000130: 73cc 1bbd abdf 993d c2c3 be38 8835 743c
00000140: 12c2 7bbc d93d 1ebc a0b6 8ebd b7fb 08bd
00000150: fb53 b13b 5b27 80bd 33f3 2b3c ee15 403b
00000160: ba7d 653d 4180 8f3d 2e82 c53d 4004 febc
00000170: c9df 8fbd e740 a4bd 8d19 2ebd a1d8 093d
00000180: f877 bb3c 2bd7 963d a19e 8cba 346a 863d
00000190: e5e7 38bd b766 f2bc b115 01bd 7220 b53b
000001a0: 21e6 7f3d 545c e73b d9d6 af3d 22d6 b23b
000001b0: 6717 36bd c751 2dbc 1b26 71bc ca92 51bd
000001c0: 8341 23bd 1836 643d 34d3 cfbc ac6d 5bbd
000001d0: 160e 233d 4d7e 4bbd abe4 ad3c 1fb3 d73a
000001e0: 145c 8dbc 6a00 83bd 9126 f13b 3be2 693d
000001f0: 9f1f 3ebc b28a 34bd a4f4 b43a 2dc7 56bd
00000200: 29f2 82bd 5247 f4bc bee8 b2bc f5e5 933d
00000210: f5e5 62bd 45fb f13c 5d1c 933c 1563 94bb
00000220: 5c28 823d e3d5 073d a693 4ebd 11f9 a13c
00000230: 6247 293d a9e5 aebb f0f7 24bc c258 f7ba
00000240: ad33 3839 260a 863d d07c bdbc ce54 16bd
00000250: 0356 423d 65de 29bd d270 1cbd adb5 eb3c
00000260: 66b8 4abd 435c 823c b9f0 22bd 02db 3c3b
00000270: 3dd0 48bd d38a cd3c c99c 693d 95df d3bc
00000280: e9b0 9fbd f703 983d 5f39 cf3c d5f4 22bd
00000290: 9b3c 943d 2251 923b dd21 88bb d278 603d
000002a0: 922b c13c 07b5 2d3c 3657 673d 6dd0 783a
000002b0: 498f 003e ad59 99bc 7689 063e 4c66 e5bd
000002c0: 47a4 943a c48f 8abd d4eb 91bc 2a82 2e3d
000002d0: 1f31 52bd bd99 123d 461f 4bbd 5be2 ed3b
000002e0: 6018 c13d 0f59 0bbc fa98 b13d 999a 61bd
000002f0: c1a3 ddbc c67f b93d 2893 803d 02ee 8239
00000300: 5ff9 50bd adb7 723d 1989 0c3c 3cff a13a
00000310: 3b9b 5e3d ee21 d03d ec9a 363c 7984 8abd
00000320: 6345 7c3d a63a 513c 38c7 dd3c 32e4 34bc
00000330: bb87 93bc 71b7 10bd 435a ba3c 80d3 693d
00000340: 141a 89bd b128 cd3d 4b30 663d c537 283d
00000350: 2c25 bd3d 0716 003e a4b7 b6bc d98b 613d
00000360: 880e 70bd f468 373d 4d23 afb9 8e77 ef3d
00000370: 0f2e a53d e05d 2ebd 34c1 a6bd ad60 623c
00000380: b726 07bd 36a9 983d 4043 1abc 6d02 893d
00000390: 16b7 81bb 5cd1 62bd e551 b93d 59bc cebc
000003a0: 2109 a7bd e626 7f3c 6bf2 0d3c b835 fa3a
000003b0: 51f4 4e3c fc6f 033d 78dc 23bd cb14 a33d
000003c0: 8855 2e3d 140f 98bc d292 93bd 3324 6f3d
000003d0: 8ac2 f8bc 18cb 053c e36f d33c 5cc7 d03a
000003e0: 5925 df3b c0a1 3cbd 1953 1bbd 46eb 943d
000003f0: 3673 05bd 823d 833a 0cee 3f3d eb9e d63c
-0.046602096 0.06828024 0.06896221 0.06264596 -0.006320811 -0.07569934 -0.053850755 -0.07754511
-0.025419818 -0.02509599 -0.0294438 0.02034466 0.03451163 0.13007838 0.055114135 0.01384991
-0.035252538 -0.024094969 -0.04604958 0.10017531 0.036341097 0.051907636 0.006078284 0.013445219
0.051301453 0.013229296 0.11452202 -0.046767943 -0.011078889 -0.047310784 0.031241365 0.026262151
0.010973674 0.057634592 0.012823634 0.034924783 -0.03612406 0.016841346 0.0580222 -0.06232701
0.0016505545 0.016348148 -0.039276753 -0.041386746 0.008466629 0.03569572 -0.053321414 -0.04237977
-0.038390353 -0.045458928 0.045387708 0.023178441 0.04811026 0.01399082 0.14625296 -0.07826354
0.065737 0.048271492 0.022956366 0.078378 -0.027338786 0.0012199238 0.025725896 -0.04052575
0.008225793 0.017783154 0.043258008 0.019175233 -0.050884217 -0.0129400715 -0.06941918 0.07935165
0.029451108 0.07892261 0.07508248 0.005776125 -0.038036775 0.075133644 9.096369e-05 0.014905341
-0.015366094 -0.0096583 -0.06968427 -0.03344318 0.0054116226 -0.062575065 0.010494995 0.0029309946
0.056028105 0.07006884 0.096439704 -0.031007886 -0.070251055 -0.08020192 -0.042504836 0.03365386
0.022884354 0.07365259 -0.0010728427 0.065632254 -0.045143027 -0.029589994 -0.031514827 0.0055275494
0.062475327 0.007060567 0.08585901 0.0054576555 -0.044455912 -0.010578579 -0.014718558 -0.05116538
-0.0398574 0.05571565 -0.025369264 -0.053571388 0.039808355 -0.049680997 0.021227201 0.001645658
-0.01725582 -0.06396563 0.007359334 0.057100516 -0.011604219 -0.044077583 0.0013805819 -0.052436043
-0.06393845 -0.029819164 -0.021839496 0.07221595 -0.055395085 0.02953876 0.01795786 -0.004528413
0.06355354 0.033162963 -0.050433777 0.019772084 0.04132784 -0.005337436 -0.0100688785 -0.0018871056
0.00017566858 0.065449044 -0.023130804 -0.03670197 0.04744531 -0.041471858 -0.03819353 0.028773153
-0.049492262 0.015913134 -0.039780352 0.0028817062 -0.049026717 0.02509061 0.057034288 -0.025863448
-0.07797415 0.07422631 0.025295911 -0.03978427 0.07238122 0.004465238 -0.0041544274 0.054802723
0.023580346 0.010602242 0.056479655 0.0009491507 0.12554659 -0.018719519 0.13138375 -0.11201152
0.0011340462 -0.06765702 -0.017812647 0.042604603 -0.051316377 0.035791148 -0.04959037 0.0072596497
0.09428477 -0.00850512 0.08671756 -0.055079076 -0.027055623 0.09057574 0.06278068 0.00024972862
-0.05101907 0.059257198 0.0085776085 0.0012359391 0.054347258 0.101627216 0.011145335 -0.067635484
0.06158961 0.0127703305 0.027072534 -0.011040734 -0.018009057 -0.035331193 0.022748118 0.057086468
-0.06694427 0.10017527 0.0561984 0.04106881 0.092356056 0.12508403 -0.022304364 0.05506501
-0.058607608 0.044777825 -0.00033404902 0.11692725 0.080654256 -0.042569995 -0.08142319 0.013816995
-0.032995906 0.074541494 -0.009415448 0.06689916 -0.003958593 -0.055375442 0.09048823 -0.025236296
-0.08156038 0.015573239 0.008663754 0.0019089496 0.012631492 0.03208922 -0.040005177 0.0796295
0.042562038 -0.018561877 -0.07205738 0.05838413 -0.030366201 0.008166097 0.025810188 0.0015928554
0.006809872 -0.046052694 -0.037921045 0.07271437 -0.032580577 0.0010012838 0.04685788 0.026198825

action_out.weight f4 [5, 256]
00000000: 261c 043c d84d 90bd f23c 16bd 06db f9bd
00000010: ab53 11be 0f9f 6abd ad65 06bd 4de2 9bbb
00000020: 7dfe 48bd 804f 2bbe f3fe beb9 63e6 c4bd
00000030: 8418 15be 83d2 38be 5f6c 38be b589 90bd
00000040: 0be7 973c 518e 3eba 196a 30bd 5401 8e3c
00000050: 4b54 90bd 75a8 a0bd bc6e c03a 42ac 8abd
00000060: 40f1 55be 19c3 4ebd 0f91 0abe aee0 473c
00000070: dab8 88bd 37ab d3be 18af 6bbd a3a0 52bd
00000080: c39b 8fbf 01d4 e7bd 247e d9bd 9725 89bd
00000090: a562 623c 8af0 e4bd f3e2 e5bd 5d68 84be
000000a0: 93eb 34be 78c9 86bc 1aae 7bbc 1d41 c4bd
000000b0: 912b fabe 6940 8dbd 7c08 62bd d567 2f3c
000000c0: 1c33 433d 3588 23bb b819 f6bd b773 bfbd
000000d0: aea0 bcbd 1716 2b3d a4af f6be f48c 563d
000000e0: 1d10 3abd 2ed3 b6bd 4dd9 c6be 795d a4bd
000000f0: 68f4 7bbd 48d2 40bd 7252 34be 906d 1bbd
00000100: f042 e53c 1287 193d f81f 2cbe 84a1 28be
00000110: 3201 093d a99d 49bd 66cd 263c 0035 31be
00000120: 9ff0 d3bd 8394 11be 2cd1 6cbd af4d 96bd
00000130: 59f1 943c 08ae cbbc ab6d 1bbe 1229 84bd
00000140: 0dd6 49bd 3bfa 0a3d 3338 923b 77a8 81be
00000150: 3ae4 c6bd 29bf 27bd dfea b9bd d9c6 ebbd
00000160: bf3e e4bd 5d07 3fbe b034 53bc 914f 673d
00000170: 246e 213d bb2a ab3a afc9 d2bc 8627 56bd
00000180: 545a 60be 86a4 aabd ebc6 d63a 8117 00bf
00000190: a30e a4bd 271e 8bbc 97d9 21be 739a 243d
000001a0: 2e7e 6cbe ade0 23bd ed04 79bd 7e36 c9bd
000001b0: a23d 5cbe f605 6dbe f759 c4bd 140b 0d3d
000001c0: 311b 563d 30eb 51be fbce 9bbd 58a1 20bd
000001d0: d9b1 b3bd 1916 cbbc 6ee8 ddbd c0ec 27bc
000001e0: f0cf d4bd 6cb7 8d3c e386 b1bd 7885 81bd
000001f0: fc1f 19bd 861e 3f3d e5bc 94be 4a39 473d
00000200: da72 76bd 7ae2 a8bd 4a20 e7bd f512 81bd
00000210: 63fa c8bc 9516 9cbd 68dd bbbd 5bf3 71bd
00000220: 8e8f b4bd cc0e d8bd ba19 e1bc f73b 1cbd
00000230: a0f1 58bd b91d ea3b 14f3 babd e611 e1bd
00000240: da94 09be 08c8 fcbd a9f4 9bbd 6a84 373c
00000250: 2bbd 7cbe ec54 53bd f3c7 90bc 9c7f b4bc
00000260: fbe6 f93c f116 67bb 9bad a13c 6964 e5bd
00000270: 3703 5b3c 8d88 0cbe 600b 04be ba21 223d
00000280: 4583 51bd 1edd b83b 8de3 d6bd 3079 5abe
00000290: 853e 91bd eb50 26bd 9ce5 8fbd 20e0 9dbd
000002a0: daed e03b ada3 19bd 4f75 c9bd 7662 b0bd
000002b0: c099 6dbd 94ec d4bd 03bf 1ebe 1a0d a9bd
000002c0: 2c95 243c ac06 6d3b 963c 91bd b5ef 78bc
000002d0: ae20 b1bd 885b 42bd 060e f2bd c57e 81bd
000002e0: 93e2 18be f37f 9bbc 9bec ccbd 5023 54bd
000002f0: 0b5b 25bd 94e8 18be cab3 74be 5a90 43be
00000300: eeed cb3b 54ff 5abd 4ba2 fcbc 0c8b 653c
00000310: 0377 84be e7ba 37be ba30 05be c3c9 07bd
00000320: d2a4 aabe d442 66bd 422f 09be 614d fbbd
00000330: a2c5 f3be 573b fe3b 014e 7abd dc1b 70bd
00000340: 2c58 bdbd 2210 54be ca2c 9dbd 2879 92bd
00000350: 2b26 31be 6ed8 05be 2cd2 143d ae5b 61be
00000360: 09b4 1bbd f3aa d73b cab9 60be 9a84 46be
00000370: 86c1 41be 46dc a5bd 2a2a c7bc 26b5 533d
00000380: 0a09 23be 46ab 95bd cf5d 18be 6525 c5bd
00000390: 8b45 943c 6600 3abd 2af0 c3bd a396 8ebd
000003a0: 1fff 33bd 49c2 1abe 93c9 953b 3c74 4b3d
000003b0: 4697 99bd 0bc8 e1bd b84f d1bd c8d3 1bbd
000003c0: 4602 ffbd 0e0f 84bf 9c62 8ebc 24f7 d5bd
000003d0: 8008 893c bf3e 21bd b69a bdbd d1fd 92bd
000003e0: 1450 09bd 444b 4d3d 1b5b 8fbd 60bb 77bd
000003f0: 1ec1 5ebe 5110 debd d323 8cbd eea7 2cbf
0.008063352 -0.070460975 -0.036679216 -0.121999785 -0.14192073 -0.057280596 -0.03281181 -0.0047572018
-0.049070824 -0.16729546 -0.00036429576 -0.09614255 -0.14560133 -0.18049054 -0.1801009 -0.070575155
0.018542787 -0.00072691316 -0.043069933 0.017334618 -0.070473276 -0.07844631 0.0014681439 -0.06771137
-0.20892811 -0.05047903 -0.13531898 0.012199564 -0.06675883 -0.41341564 -0.05754003 -0.051422726
-1.121941 -0.113197334 -0.106197625 -0.06696623 0.013817464 -0.11178692 -0.11224928 -0.25860873
-0.1766799 -0.01645349 -0.015361333 -0.09582732 -0.48861364 -0.06897051 -0.055183873 0.010705908
0.047656164 -0.0024953012 -0.12016624 -0.09348243 -0.09210335 0.041769113 -0.48180878 0.052380517
-0.045425523 -0.08926998 -0.38837662 -0.08025641 -0.06151238 -0.04707554 -0.17609575 -0.037946284
0.02798602 0.03748233 -0.1680907 -0.16467863 0.033448406 -0.049222622 0.010180807 -0.17305374
-0.10348629 -0.14216809 -0.05781667 -0.07339036 0.01818149 -0.024863258 -0.15178554 -0.06453146
-0.0492764 0.033930045 0.004462266 -0.2532384 -0.097114995 -0.04095379 -0.09078001 -0.115125366
-0.1114478 -0.18655153 -0.01289098 0.056472365 0.03941168 0.0013058999 -0.025730936 -0.052283786
-0.21909457 -0.083321616 0.0016386186 -0.50035864 -0.08010604 -0.016982151 -0.1580566 0.040186357
-0.23095009 -0.04000919 -0.060795713 -0.09824847 -0.21507886 -0.23146805 -0.09587472 0.034434393
0.052272025 -0.20499873 -0.07607838 -0.03921637 -0.08774156 -0.02479081 -0.10835348 -0.010249317
-0.103912234 0.017299376 -0.08668306 -0.06324285 -0.03738402 0.04665997 -0.29050365 0.04863862
-0.060168125 -0.08246322 -0.112854555 -0.06302444 -0.024533456 -0.07621495 -0.09173089 -0.059069972
-0.088164434 -0.10549697 -0.027478088 -0.038143124 -0.052964807 0.0071446565 -0.09128395 -0.10989742
-0.13435689 -0.123428404 -0.076150246 0.011201004 -0.24681537 -0.05159466 -0.017673468 -0.022033505
0.030505648 -0.0035261477 0.019736102 -0.11200792 0.013367466 -0.13723965 -0.12894964 0.039582945
-0.05115058 0.0056415936 -0.104926206 -0.21335292 -0.07092003 -0.040604513 -0.070262164 -0.07708764
0.0068642916 -0.03750961 -0.09836828 -0.0861253 -0.058007956 -0.10396686 -0.15502553 -0.08254452
0.010045331 0.0036167307 -0.07091634 -0.015193869 -0.08648811 -0.047450572 -0.11819081 -0.063230075
-0.14930181 -0.01898191 -0.100060664 -0.05179149 -0.04037003 -0.14932472 -0.23896709 -0.19098035
0.006223432 -0.053466156 -0.030839106 0.014010202 -0.2587205 -0.17942391 -0.13006869 -0.0331514
-0.33328873 -0.056216076 -0.13396934 -0.12270618 -0.4761172 0.0077585387 -0.061109547 -0.05862032
-0.09245333 -0.20709279 -0.076745585 -0.07152015 -0.17299716 -0.13070843 0.036333248 -0.2200763
-0.03801349 0.006581658 -0.21945873 -0.19386521 -0.1892148 -0.080986544 -0.024312098 0.05168643
-0.15921417 -0.073080584 -0.14879535 -0.09626273 0.018099567 -0.045410536 -0.09567292 -0.069623254
-0.043944474 -0.15113176 0.0045711487 0.049671397 -0.07499556 -0.11024483 -0.10220283 -0.038043767
-0.124516055 -1.0317094 -0.017381005 -0.10447529 0.016727686 -0.03936648 -0.092580244 -0.07177318
-0.033523634 0.050120607 -0.06999799 -0.06048143 -0.21753356 -0.10842956 -0.068427704 -0.6744374

action_out.bias f4 [5]
00000000: afb1 76bc ffe7 04be a993 ac3c ea22 533d
00000010: e3e2 cabd
-0.0150570115 -0.12979124 0.021066504 0.05154697 -0.099065565

weight f4 [256, 123]
00000000: c8a5 f73c 7c32 c4bd 6904 8f3d c263 01bd
00000010: bc87 a43d 2ed7 2abe c1bf 193d a335 6bbd
00000020: 3260 c4bd 26d7 483d 68fa c0bc d507 d33b
00000030: 66f9 00be acdf b4bc 3863 033d 53fe d4bd
00000040: 9db5 36bd 2588 033d 1068 c13d c49a 933b
00000050: fc95 a1bc a239 29bc 06d1 d03c 70fe a53c
00000060: 6ec8 e23c 449f 40bd 73d1 da3d 7e1f b2bc
00000070: 1f87 1f3d 092b c1bd 9f3a 8ebd ab84 173d
00000080: 1f71 1c3c 5416 96bd f067 ce3c 4f2c 92bd
00000090: 8745 4b3d 017c 70bc 7cc9 6fbd 1454 d03b
000000a0: 26ac 663d 6964 7cbe ce3d 843d 857d e5bb
000000b0: 08dc 4abe d95f d3bc b8d0 bebd fff9 92bd
000000c0: d79e 91bc a81f 26be 3a90 97bd 3fce 9e3c
000000d0: d295 4abd 31f3 8c3d a572 23bd 298c 3f3d
000000e0: f3d5 7dbd f120 7e3d 4197 8bbc 8562 7fbd
000000f0: c0f9 bebd ca44 cfbd 8df0 3fbd f1b5 cfba
00000100: 99f7 913d 5a9e 32bd 6046 a0bc 788f 7dbc
00000110: fc56 9bbd ba2c aabd 7fa6 b53d ffa2 c43d
00000120: 5178 8e3c 4629 c8bd 5635 03be 08ba 093d
00000130: 3056 afbd 8948 53be 956f 18bd 4210 f0bb
00000140: e643 80bd f1bf b73d 1f29 1a3b b911 2c3c
00000150: 0f5b dabc 77a1 c5bd 9691 b1bd 3efa 043d
00000160: d158 3d3d 16de ed3d 0d35 e93c 9500 bdbd
00000170: 0e42 d3bb 55d2 84bd 1910 88bc 77c0 b2bd
00000180: cb82 fabb 408c b8bc d4d7 8ebc 7553 9ebd
00000190: a7d9 f4bd 0b64 22bd 01a3 873d 3074 823c
000001a0: 156a aebd 4e22 453d 358a 2bbd ddb0 a43d
000001b0: 9870 0ebe 0b8d 88bd 30aa edbd 2f52 9ebc
000001c0: 159e 3abe 1453 2bbe afbb ddbd 0281 bc3d
000001d0: 0672 03be 30b1 773d b0cd 4e3d d120 86bd
000001e0: 548a 97bd f854 8fbd eaf7 73bd 7ab5 cebc
000001f0: 466c b5bd 73ab 8cbd 58bb 01bd 7d17 9fbd
00000200: 01f2 813d f89a abbc cd72 d6bc e25a 423d
00000210: 280c 87bc d5aa 94bd 5f29 8f3c 9101 b739
00000220: d82a 78bc e68c 8fbd ddd9 fabd 2967 203d
00000230: 8777 ad3d fb7d 19bd 67aa 11bd 8b55 51bd
00000240: a873 17bc 1784 17bd 62a4 683c 1793 b73c
00000250: a4c4 c6bd 8060 883d ac36 1cbd 4b86 cfbd
00000260: eb72 b1bd 9359 6ebc 627b 433d 3f15 9bbc
00000270: 6838 3fbc ac49 b3bc 0a85 733d 2abf a8bd
00000280: fdf0 a2bd 2e4f 8ebc 9eb8 8a3b 4bc5 0cbd
00000290: e565 863d f9a6 a33d bf0b 823c 0c75 40bc
000002a0: 7e5a 74bd ea32 ab3d 9c65 bebc 0766 58bd
000002b0: 4c08 54bd ee6d 0e3d e44e b4bb ac03 453d
000002c0: e0ef d43b 56ce 5a3d 8f82 f9bd 5312 1e3d
000002d0: 215d 8a3d d688 0a3d bd2b f3bd e0c0 4dbd
000002e0: bef3 b9bd 2bdd 2bbc b34f 293d 81e9 5f3d
000002f0: d62d 9cbd 2b27 69bd 08da f6bd d441 5abd
00000300: eaaa 1bbd 1441 a5bc fc91 d93c 5e3b adbd
00000310: 1cb4 9e3c 8765 42bb 557c f1bc dfe5 6b3b
00000320: 30bf 6bbc 1cb0 a33c dc9a e4bd cecc 94bd
00000330: f81a bd3d 090b 803d 592d 043d 280c 81bd
00000340: aac5 77bd 7fca 30bd 176f 9fbb 324c d7ba
00000350: 89ec 23bb 006e 813d 05ca f9bb 9f6e 40bd
00000360: c599 a23d 6a9d e9bc b3be babd 6376 9b3d
00000370: f021 11bc 241c 93bd d5cf 98bd 9d15 44bc
00000380: 36d2 05bd 7f38 8abc 6580 133c e1a4 913d
00000390: 0fdc adbd 8acb d9bd 8e93 5e3d d287 213b
000003a0: 7405 b7bd 033e 263c e40f f53b cfb0 19bc
000003b0: 707e 83bd 6cdb a7bd 9417 563d 3305 40bc
000003c0: 1cfd c7bd ba85 74bd fb3f d33b 94db af3c
000003d0: c368 e7bc 8a10 eebd 7417 973d cb73 da3b
000003e0: 926f 603e d2ce e6bd 4ebf 413e 807a 7bbd
000003f0: 0a72 febe bd51 7f3d f878 2f3e 4d92 a33d
0.030230418 -0.09579942 0.06983263 -0.031589277 0.08033702 -0.16683647 0.037536386 -0.0574242
-0.0958866 0.049033307 -0.023556903 0.0064401426 -0.12595138 -0.022079311 0.032077044 -0.10400071
-0.044606794 0.03211226 0.094436765 0.0045045335 -0.019724838 -0.010328682 0.025490295 0.020262927
0.027683463 -0.047026888 0.106844805 -0.021743532 0.03894722 -0.094320364 -0.06944775 0.036991756
0.009548455 -0.073284775 0.025196046 -0.071373574 0.049626853 -0.014678002 -0.05854176 0.006357679
0.056316517 -0.24647678 0.06457101 -0.0070034885 -0.19810498 -0.02580254 -0.09317154 -0.07176589
-0.017775936 -0.16223013 -0.07400556 0.019385455 -0.049459286 0.068823226 -0.039904255 0.046764527
-0.061971616 0.062043134 -0.017039897 -0.062349815 -0.0932498 -0.10120542 -0.046860266 -0.001584707
0.07127304 -0.043608047 -0.019564807 -0.0154761 -0.0758495 -0.08309312 0.08869647 0.096014015
0.017391356 -0.09773497 -0.12813315 0.03362468 -0.08561361 -0.20633139 -0.037215788 -0.007326157
-0.062629506 0.08972157 0.0023523045 0.010502272 -0.026654748 -0.096499376 -0.086703464 0.032465212
0.04622728 0.11614625 0.02846768 -0.09228627 -0.0064470833 -0.0648543 -0.016609238 -0.08728116
-0.0076449863 -0.022527814 -0.0174369 -0.07730762 -0.119555764 -0.03964619 0.066228874 0.015924543
-0.08516327 0.04812842 -0.04187985 0.080415465 -0.13910139 -0.06667527 -0.11604726 -0.019326298
-0.18224366 -0.1673091 -0.108268134 0.09204294 -0.12836465 0.060471714 0.050489128 -0.06549228
-0.07399431 -0.069986284 -0.0595626 -0.02523302 -0.08858542 -0.06868639 -0.031672806 -0.07768152
0.06344987 -0.020947918 -0.026177788 0.047449954 -0.016485289 -0.07259146 0.017475782 0.00034905647
-0.0151469335 -0.07009296 -0.122485854 0.03916088 0.08470064 -0.03747366 -0.0355629 -0.05110697
-0.009243883 -0.036991205 0.014199348 0.022409005 -0.09705475 0.06659031 -0.038138077 -0.10133036
-0.08664497 -0.014547723 0.04772509 -0.01893103 -0.011671163 -0.021885715 0.059453048 -0.08239587
-0.07956121 -0.01737174 0.004233434 -0.03436784 0.065624036 0.07990832 0.015874742 -0.011746656
-0.059656613 0.083593205 -0.02324181 -0.052831676 -0.051765725 0.034772806 -0.0055025686 0.048099205
0.006498322 0.053419434 -0.12183105 0.038591694 0.06756044 0.033821903 -0.11873577 -0.050232768
-0.09079693 -0.010489742 0.041335773 0.054666046 -0.0762593 -0.05692212 -0.12053305 -0.053285435
-0.038004793 -0.020172633 0.026558869 -0.08458589 0.019372992 -0.0029662566 -0.029478231 0.0035995168
-0.014388844 0.019981436 -0.111623496 -0.07265626 0.092336595 0.06252105 0.03226981 -0.06301147
-0.06049124 -0.043161865 -0.004865538 -0.0016425906 -0.0025012812 0.06319809 -0.0076229596 -0.046980496
0.079394855 -0.028517444 -0.09118404 0.0759094 -0.008858189 -0.07183102 -0.07461516 -0.011968044
-0.032671176 -0.016872643 0.00900278 0.07111526 -0.084892385 -0.10634525 0.054339938 0.0024647606
-0.08936587 0.010146621 0.007478701 -0.009380533 -0.064206004 -0.08196148 0.05226858 -0.01171999
-0.09765074 -0.059697844 0.006446836 0.021467008 -0.028248196 -0.11624248 0.0737752 0.0066666356
0.2191756 -0.112699166 0.18920633 -0.061396122 -0.4969638 0.06233381 0.1713599 0.07986889

bias f4 [256]
00000000: 14c9 7bbd 069b d63c b3d9 89bd b1bd 89bd
00000010: 04a6 083e cb4d 133e fdbc d73c 8a9f 39bd
00000020: 8000 3abd 2fcd 88bc d2af 10bd 1773 fa3d
00000030: b640 603d eb5b 8b3d 3336 603d 9e9a e63c
00000040: 5d09 033c db65 61bd 3c65 fa3d 63c3 d0bd
00000050: e6e1 8d3d b96c 883c eb0f 243e 1906 083c
00000060: bcb4 f43c 2340 bbbd 5515 783d 3c8b d0bd
00000070: 050f d4bc 6cca 0d3d fbee d63d 1665 d63c
00000080: 49d0 d53c 8bf6 173d e447 223e 1b53 8abc
00000090: 0de5 b53d a5b3 2d3e 24dd f83d b432 733d
000000a0: f30d 263e ce30 b4bd 4373 073e e6b4 e93c
000000b0: 7c48 b63b db45 32bd f9a4 0b3d fe5a 6b3c
000000c0: fe36 22bd 0ba4 1dbb 402c 573d 6063 74bd
000000d0: fde0 8c3d eabb 9bbd 1ecf 573d 20fe d03c
000000e0: 5551 aabc 2f2b b1bd f1a6 bc3c 56eb 4dbd
000000f0: 1195 d2bd b795 9e3c e7d0 ffbd 8e89 123e
00000100: bf11 dd3d bbf6 9dbd 6423 323d 5329 303d
00000110: b8a9 9e3d d40e 28be 98a8 a53d c862 1f3e
00000120: 5ef9 afbd d4d5 53bd f9fc 413e 5f6a 1cbd
00000130: d805 fe3b 4704 933d 809c 24bd 58a4 0c3e
00000140: 0323 dfbc 608e 7abd 5e5f f0bd 6557 89bd
00000150: 442a 31bd 5bc7 fb3d 2c19 9e3d cb0c 8a3d
00000160: 9392 173d fa26 3a3d 0876 1b3c 3f11 383e
00000170: f1cc 143c 6401 e0bb f02e 88bd 99da 243e
00000180: 1b11 97bd 1ec7 823d c547 823d 00fa a53d
00000190: 6d94 aa3c a403 e63d 6364 e93d 147f 12bd
000001a0: 9ec7 f33c 7c06 22bc a91d 2c3e b7a2 eabd
000001b0: d7ba 373e f2a6 193e 6a35 483d 2b86 a93d
000001c0: 20f2 e0bc cdae c6bd 6b35 87bd f51e a83d
000001d0: 8265 69bd 3494 8c3c 8fc2 42bd 0ea3 b53d
000001e0: 977d 52bd 96e1 c13d 2839 0bbc eef7 0b3a
000001f0: 8bd1 883d a49b 7bbc 4d32 d8bc c181 e6bc
00000200: 28b9 a4bd 1ded 2e3e 8e25 093d 63c1 c8bc
00000210: e32f 8abd 7b8e dcbd 3647 f43d d39a 93bd
00000220: cbf1 3c3d 38f3 c53c 3913 c33d ffdc 0b3e
00000230: 7645 6bbc 1ca8 5e3d 85d5 cc3d 26c0 353e
00000240: 048e ddbb 2d6b 9bbc 6d18 bcbc df55 0dbd
00000250: faf0 67bd e818 9b3c 0ae7 0cbd 1d70 cdbd
00000260: 9149 243d 3e46 91bd 8ecd 123e 5b9a 153e
00000270: 002e 6b3d 0a8a 5ebd ba24 71bd 8fa2 40bd
00000280: 6b00 773d b793 f1bc 3154 bbbd b38f c63d
00000290: 6c3e a3bd 7af0 c0bd 623a 05bc 4ee7 a43d
000002a0: 388e 89bd bd35 bb3d 1317 4cbd 6c16 823c
000002b0: 8f99 1fbd 22b0 4d3c 67b6 9c3d 7365 853d
000002c0: 80f8 dcbd 0119 403e fa40 9a3d acd0 6ebc
000002d0: 6673 323e a903 b93d 852d dfbd 403a a03d
000002e0: 2ec4 fc3d 5e8c 1a3d 82a3 293e b867 093c
000002f0: 69bf fbbc d897 75bd 310e 2f3d 8976 343e
00000300: be7c e23c 0163 d3bc a9fd 98bd 2001 933d
00000310: f4b9 f93d 0671 ffbc f4c0 99bd adb0 ed3d
00000320: 2ea8 093e 4893 72bd ded5 92bd 6a78 bfbd
00000330: 3c5f a03d 10cd 12bd aecd a0bd e7c5 293d
00000340: fd58 07bd 40b0 fd3c fa37 073e 07ea 57bc
00000350: 9333 153e b1e8 cc3b 2201 243e 6940 1e3e
00000360: 682e c13d bb3b 133d 21c8 8bbd 7916 02be
00000370: 7738 a4bd ad10 b3bd 0be3 d8bc e510 a23d
00000380: 2375 84bd d85c 3a3d ad1f e63d b34f 6ebd
00000390: 376b 88bd b589 9ebd 11c8 a93d 0b06 a2bc
000003a0: fa1a 193d 763a 0c3e bfae b73d 6b5c 893b
000003b0: 698a d6bd 72a4 373d 98a8 133e 7aa4 273e
000003c0: bd19 c43d a60e 8cbd f578 993d 8da9 7a3d
000003d0: 013b 8b3d c539 803d 9ed9 babd ed37 db3d
000003e0: 6aeb 303e 871b c63d 5b68 f23d d280 953c
000003f0: dcc9 8e3d 236f 453c f1fc 90bd 31bb 3c3d
-0.06147106 0.026196968 -0.06730976 -0.06725634 0.1334458 0.14385144 0.026335234 -0.045318164
-0.045410633 -0.016699402 -0.035323925 0.12228983 0.054749213 0.06804641 0.05473919 0.0281499
0.007997838 -0.055028778 0.1222634 -0.10193517 0.06927852 0.016653406 0.16021697 0.008302235
0.029871337 -0.091430925 0.06056722 -0.10182807 -0.025886068 0.034616873 0.10494801 0.026171248
0.026100295 0.037100356 0.15847737 -0.01688533 0.088815786 0.1696306 0.12151554 0.059374526
0.16216259 -0.08798371 0.13227563 0.028528642 0.00556284 -0.04352365 0.034092877 0.014364956
-0.039603226 -0.0024054076 0.052532434 -0.059665084 0.068788506 -0.07604201 0.052687757 0.025511801
-0.020790735 -0.08650815 0.023028823 -0.050273262 -0.102823384 0.019358499 -0.12491017 0.14310285
0.107944004 -0.07713076 0.043490782 0.04300816 0.07747215 -0.16411906 0.08088797 0.15565026
-0.08592485 -0.051717594 0.18944158 -0.03818738 0.0077521615 0.0717855 -0.040188313 0.13734567
-0.027238375 -0.061170936 -0.1173694 -0.06706122 -0.0432532 0.122938834 0.07719645 0.06740721
0.03700502 0.045447327 0.00948859 0.17975329 0.009082065 -0.0068361033 -0.066495776 0.16099013
-0.073763095 0.06385635 0.06361345 0.08104324 0.020822728 0.11231163 0.113961 -0.035765722
0.02975827 -0.009889241 0.1680819 -0.11456817 0.17942367 0.15005091 0.048879065 0.08277544
-0.027459204 -0.09701309 -0.066019855 0.082090296 -0.05698157 0.017160513 -0.047548827 0.08868991
-0.051389303 0.09466855 -0.008497514 0.00053393736 0.06680592 -0.015356932 -0.026391173 -0.028138043
-0.08043128 0.17082639 0.03348308 -0.024506276 -0.06747415 -0.107693635 0.11927645 -0.07207265
0.04612903 0.024163827 0.09525151 0.13658522 -0.0143598225 0.05435954 0.10001663 0.1774908
-0.0067613143 -0.018972004 -0.022960866 -0.03450572 -0.056626298 0.018932775 -0.034400024 -0.100311495
0.04010922 -0.07093476 0.14336225 0.14609663 0.057416916 -0.054330863 -0.058872916 -0.047030028
0.060303133 -0.029489381 -0.091469176 0.09695377 -0.079708904 -0.09420867 -0.008131595 0.0805193
-0.06716579 0.09141109 -0.049826693 0.015879832 -0.038964804 0.0125542 0.07651978 0.065134905
-0.10789585 0.18759538 0.075319245 -0.014576118 0.17426834 0.09033901 -0.10897354 0.0782361
0.12342106 0.03773152 0.1656628 0.008386545 -0.03073092 -0.059959263 0.042738143 0.17623343
0.027647372 -0.025804045 -0.07470257 0.07177949 0.12193671 -0.031181823 -0.07507506 0.11605964
0.13443062 -0.05922249 -0.07169698 -0.09349139 0.078306645 -0.035840094 -0.0785173 0.0414485
-0.03304385 0.030967832 0.13204947 -0.013178355 0.14570455 0.006253325 0.16016057 0.15454258
0.094326794 0.035945635 -0.06825281 -0.12703885 -0.08018582 -0.08743415 -0.02647545 0.079133786
-0.064676546 0.0454987 0.112365104 -0.058181476 -0.066610746 -0.07741109 0.08290113 -0.019778272
0.037379242 0.13694176 0.08968877 0.0041919253 -0.104756184 0.04483456 0.14419782 0.16371337
0.09575222 -0.068387315 0.07493774 0.061196852 0.067983635 0.06261019 -0.091235384 0.10704026
0.17277303 0.09673219 0.118363105 0.018249903 0.06972095 0.012050423 -0.07079495 0.046076957
