src/saved_models/grid_world_seed125_8_7_15_42_成了/125_156_model.pt (torch, 702741 bytes, 11 tensors)

FC1.weight f4 [256, 36]
000000 04 86 bd be db 5a 1d be 42 88 e9 3d e5 f2 ef 3c
       -0.37016308 -0.1536669 0.11402942 0.029290626
000010 9c 61 3d be 70 7f d4 bd dd 03 0b 3e a1 4d 5b bd
       -0.18494266 -0.10375869 0.13575692 -0.05354083
000020 a5 89 12 3e a7 5c 8d be d9 3c b3 3e e3 a6 63 be
       0.1431032 -0.2760975 0.3500736 -0.22231631
000030 2f 95 cb 3e 00 ed 9e bd 39 99 96 3e 81 45 aa bd
       0.39762256 -0.07760048 0.29413775 -0.08314038
000040 a3 78 83 bc d7 64 79 be b2 12 87 be de 95 b7 be
       -0.016048735 -0.24354874 -0.2638145 -0.35856527
000050 bd 0b 45 3e 1a 51 41 be 6f ca 79 3e 98 bc 9a be
       0.19242759 -0.18878594 0.24393629 -0.3022201
000060 c7 d7 8c be 04 6e 5e 3e d4 55 23 3c 43 ba 1c bd
       -0.27508375 0.21721655 0.0099691935 -0.03826357
000070 4f 7b 2c 3e 98 8e c0 be 75 3e e4 bc 3d f0 9b be
       0.16843913 -0.3760879 -0.027861813 -0.30456725
000080 4d 76 02 bf a9 9e 88 3e 43 83 6e bc b9 fa a4 be
       -0.5096176 0.26683548 -0.014557662 -0.32222536
000090 20 61 23 bd 1d 8c 8d be fa e3 df 3c 38 1b e2 bd
       -0.039887547 -0.2764596 0.027330387 -0.11040348
0000a0 dd 9f e2 be e7 57 47 bf 9a e2 31 bd f8 d9 da be
       -0.4426259 -0.77868503 -0.043428995 -0.42744422
0000b0 bb 99 c9 bd 50 68 c2 3d 24 fe d5 3e 1a 78 c0 3c
       -0.09843775 0.09492552 0.41795456 0.023494769
0000c0 1d 08 93 bd 1b 2c 82 bf 2c f1 90 3c db 00 c2 be
       -0.07179282 -1.016971 0.017693125 -0.37891278
0000d0 fb 39 8e be 0a a7 03 bf 15 f7 b1 3d f1 38 5e bf
       -0.2777861 -0.51426756 0.08689705 -0.86805636
0000e0 3b 9b 71 3c fe b7 fa be 91 15 91 3e 7d 91 9c be
       0.0147464825 -0.489685 0.28336766 -0.3057975
0000f0 ca 7f 3c be a7 c5 ad 3e 65 93 31 bf a7 67 79 3e
       -0.18408123 0.3393986 -0.6936553 0.24355946
000100 e7 03 36 3e ef f7 05 3e 06 74 1b 3e 23 bf 6c bb
       0.17774926 0.1308286 0.15180978 -0.0036124669
000110 e4 17 ad 3e 5c f7 85 bf ba 58 62 3d 61 47 20 be
       0.3380729 -1.0466113 0.055260397 -0.15652229
000120 c9 55 e0 3d ca 8c c8 bd 3b b9 01 bf 2e 47 8b 3d
       0.10953862 -0.097924784 -0.50673264 0.06800686
000130 45 3c 36 bf 9e cc 26 3e 68 5f 07 bf a1 61 4c 3c
       -0.71185714 0.16288993 -0.52879953 0.012474448
000140 94 6e d9 be ad b6 b7 be 74 2d d1 3e 72 b4 84 be
       -0.42467177 -0.35881558 0.4085499 -0.2591892
000150 be a2 67 3f 25 0d 9b bd 69 1c f7 be a6 67 97 3d
       0.904827 -0.075708665 -0.48263863 0.07392816
000160 f4 37 8d be 23 62 c7 bc 9e a5 87 bf 9e a9 a7 be
       -0.2758175 -0.024338787 -1.0597417 -0.32746595
000170 9d df a3 3e b9 0c 53 be 96 b5 c6 be d5 15 3b be
       0.3200654 -0.20610322 -0.38810414 -0.18270047
000180 a2 a1 b3 be c0 88 be 3e 93 22 f2 be ae dd e5 bd
       -0.35084254 0.37213707 -0.47292003 -0.11223923
000190 95 12 5b bd b7 1b b7 bc a0 f4 af be 98 a1 b0 bc
       -0.053484518 -0.022352083 -0.34366322 -0.021561429
0001a0 22 ec 49 bd 51 a4 3a bf 59 22 23 bf ce 2c de bd
       -0.04929746 -0.72906977 -0.63724285 -0.108483896
0001b0 08 59 06 3d 53 44 04 be f9 7b 6a bc 90 f4 67 be
       0.03279975 -0.12916689 -0.014311784 -0.22651887
0001c0 9f df 18 be bc ce d3 be d3 96 54 bf 11 fa 36 be
       -0.14929055 -0.41368663 -0.8304264 -0.1786883
0001d0 29 e8 22 3e 80 d2 2f 3d 41 01 83 3e 77 bb e5 bd
       0.15908875 0.042925358 0.25586894 -0.11217397
0001e0 62 d8 f7 3e c2 71 0e bf f1 da 13 bf e0 66 a6 bd
       0.48407274 -0.5564233 -0.57755953 -0.081250906
0001f0 ea a9 12 3d 03 15 d5 bd d3 c4 19 bd 42 ba bf 3d
       0.035806574 -0.10404398 -0.03754122 0.09361698
000200 26 9c 94 3d c5 e6 d1 be 2c 6b 7c be 68 59 ca bd
       0.072563455 -0.40996376 -0.24650258 -0.09880334
000210 89 50 1e 3e 2f d1 12 bf 28 6b 4d bf 7b 30 a3 3d
       0.15460409 -0.5735044 -0.8024163 0.07968231
000220 67 02 e3 3e 94 b7 36 3e 88 2c 44 bd 6b 5c 60 3d
       0.4433777 0.17843467 -0.04789403 0.054775637
000230 b8 4f 03 3d 37 7f f3 be a9 49 56 3e 0e 23 4a bc
       0.032058448 -0.47557995 0.20926537 -0.012337459
000240 25 95 75 be 03 e2 f4 bc 3c b7 3a 3e 1f 79 ee 3d
       -0.23982675 -0.029892927 0.18233961 0.11644196
000250 2a 58 b1 3e 5a 32 a3 3d 32 75 ba bf df 67 d1 3c
       0.34637576 0.07968588 -1.4567015 0.025562225
000260 bc 76 e1 3d 04 ef 3e 3e c1 a6 d4 be 32 6a b2 3c
       0.11008975 0.18645865 -0.41533473 0.021779153
000270 da 18 00 3f 74 b3 15 be 35 f8 a8 be 71 4f 47 3d
       0.5003792 -0.14619237 -0.33001867 0.048659746
000280 e3 74 1e 3d 9d f0 6d 3e 62 dc ac be 2a e8 c3 3e
       0.03868569 0.23236318 -0.3376189 0.38263065
000290 81 c5 f3 3d 80 12 5a 3e f7 15 b0 be 0c 76 70 3e
       0.11902905 0.2129612 -0.34391758 0.23482531
0002a0 67 f9 63 3e 78 b2 48 bf 32 91 96 3e 0b 17 19 be
       0.22263108 -0.7839732 0.2940765 -0.14950196
0002b0 e3 4f c6 3d c4 28 68 be a5 1b a5 be d1 27 3b be
       0.09683206 -0.22671801 -0.32247654 -0.18276908
0002c0 31 5f 67 bf 8b af 11 be c0 4b 14 3e 5c b8 19 be
       -0.90379626 -0.1422712 0.14482021 -0.15011734
0002d0 de 22 48 be 23 b3 45 be 28 03 8e 3e 66 ec 67 bd
       -0.19544551 -0.19306616 0.27736783 -0.05662193
0002e0 bf 4b 98 3e c4 ea 0e bd de fd 0b bf 80 0e d4 bd
       0.2974529 -0.03489186 -0.54684246 -0.10354328
0002f0 4e 76 2d 3e 55 ee a6 be 9c 89 21 be 1b 75 39 3d
       0.16939661 -0.32603708 -0.1577515 0.045277696
000300 85 7b c1 be 8b 40 52 be e7 34 f6 be 36 9b f4 bd
       -0.3778955 -0.20532434 -0.48087236 -0.11943667
000310 be 86 5f 3e 10 a1 01 be 92 52 c4 3e 97 31 65 bd
       0.21828744 -0.12659097 0.38344246 -0.055955496
000320 75 cb 2b be d5 6f b1 bd d0 9a 97 be c3 c0 c8 bd
       -0.16776831 -0.086639084 -0.296103 -0.098023914
000330 a9 70 eb 3d 38 dd d9 be 18 e5 57 3f cb 27 01 3d
       0.114960976 -0.4255159 0.84333944 0.03153209
000340 d2 8f bc 3e 04 c9 fe bd 12 3f 9a bd a8 6f ec be
       0.36828476 -0.124406844 -0.07531561 -0.46178937
000350 5e 26 0f 3e 8d ae 2d bf 2e 66 52 be be 6b 04 3e
       0.1397948 -0.6784447 -0.20546791 0.12931725
000360 39 e5 9f 3e 88 03 0b 3e 96 e2 1e 3e c4 d5 18 3e
       0.3122957 0.13575566 0.15516123 0.14925295
000370 39 43 33 3d ec eb 80 3e 6a d3 06 bf 83 34 ca 3d
       0.04376528 0.25179994 -0.5266634 0.09873297
000380 36 83 09 3e db bc 90 be 4d fd e9 3d e5 16 c3 3e
       0.13428959 -0.28269085 0.114252664 0.38103405
000390 a2 e0 98 3e e1 1e fa 3d 49 ef 01 be 2c 7f 1c 3e
       0.2985888 0.12212921 -0.12688936 0.15282887
0003a0 07 b6 47 3d fe e8 35 bf 3a c2 c9 be 59 23 36 3e
       0.04875758 -0.7105864 -0.39405996 0.17786922
0003b0 09 78 5d bd 31 28 7e 3c 03 3d 8b be 5a a1 89 bd
       -0.054069553 0.015512512 -0.27194986 -0.067202285
0003c0 ea 51 42 3d 89 a8 04 bd 68 42 f8 3e 32 5d 34 be
       0.0474414 -0.03238729 0.48488164 -0.17613676
0003d0 ec 5f a3 3e 1f c8 72 bd a3 62 87 bd af 5d cb bd
       0.3190912 -0.05927288 -0.0661061 -0.09929978
0003e0 b0 48 ea bd ec 4f c0 b8 d9 b5 b4 be 45 b5 e7 be
       -0.11439645 -9.17016e-05 -0.3529499 -0.45255485
0003f0 2a 32 12 3e a5 7b a7 3c bd 45 0a 3e af d8 3e be
       0.14276949 0.0204447 0.13503166 -0.18637346

FC1.bias f4 [256]
000000 a4 88 5e be bf cf 77 3d b7 54 f2 bc 2a 6e 0f 3e
       -0.21731812 0.060500856 -0.02958141 0.14006868
000010 d8 e1 36 be 6b a0 b0 bc 5a 90 66 be 44 b3 6c bd
       -0.1785959 -0.021560868 -0.22516003 -0.05778815
000020 eb 7b 8a 3c 5e 7f 41 be 54 9d 48 3e 24 22 43 be
       0.016904792 -0.18896243 0.19591266 -0.19055992
000030 dd 84 8e bd bf 5d f6 bd 6d 25 3d be 33 10 46 bc
       -0.069589354 -0.120295994 -0.18471308 -0.012088823
000040 80 cf ae 3c 83 18 d3 bd 6b 1a 91 bd 12 4d c3 bd
       0.021339178 -0.103074096 -0.07085117 -0.09536184
000050 2b a0 6b bd 77 17 19 3e 24 4f 22 be ca 0a 7c be
       -0.057525795 0.14950357 -0.15850502 -0.2461349
000060 0f 81 5a bd 39 87 cf bd 91 a8 70 3e cb f1 97 bd
       -0.053345736 -0.101332135 0.23501803 -0.07419165
000070 c6 6b 1f be f5 de 29 3d 0f 79 22 3d 38 35 36 be
       -0.15568456 0.041472394 0.03966623 -0.17793739
000080 af ba 2a be 6b c3 cf 3d d9 1b 91 bd 28 e7 d1 bd
       -0.16672777 0.10144695 -0.0708539 -0.10249168
000090 db a0 df bd ec b2 d2 bc 85 29 cd 3e 85 d9 90 3d
       -0.109193526 -0.025720082 0.4007074 0.070727386
0000a0 84 e1 a5 3e 03 55 a6 bc fa 01 5f 3c 07 e5 19 3c
       0.32398617 -0.020304209 0.013611311 0.009392983
0000b0 86 87 62 3e fb df c5 3d 36 c4 f9 bd fa f1 4a be
       0.2212201 0.096618615 -0.121956274 -0.19818869
0000c0 88 b2 9c be b8 4e 80 3e 21 35 85 be ac 66 88 be
       -0.3060496 0.25060058 -0.26017097 -0.26640832
0000d0 16 23 3c be e9 db e9 3d 45 61 71 3d ba 2e 4f 3e
       -0.18372759 0.11418898 0.058930654 0.20232669
0000e0 0c 63 d2 3d 22 6c 0b bd 10 8d 14 3e 88 92 c5 bd
       0.10272798 -0.03403867 0.14506936 -0.09647089
0000f0 98 ec b6 bd 3c 39 a6 be 9c 20 38 3d 82 61 07 3e
       -0.089318454 -0.3246554 0.044952974 0.1322079
000100 c2 e7 c6 bd 8b 14 2a 3d 6e 26 4a 3e 3f 64 31 3e
       -0.09712173 0.041523498 0.19741222 0.17323397
000110 15 5e b0 be a8 dc b2 bd b8 36 b9 3d 76 64 8a bd
       -0.3444678 -0.08733493 0.0904364 -0.06757443
000120 20 6c fa bc ab 75 1d 3d 88 5a 85 3e ea f5 b5 bc
       -0.030569136 0.038442295 0.26045632 -0.022211988
000130 78 f1 c7 bd c4 8a 89 bd aa 4d 8b bd dd 86 a2 be
       -0.097628534 -0.067159206 -0.068019226 -0.31743518
000140 c3 14 23 bd 02 4a 06 be ff ab ee bd b3 00 39 3e
       -0.03981472 -0.13114169 -0.116538994 0.18066673
000150 d2 c4 a7 3d b2 45 91 3d cd 66 fb 3c ee e5 36 be
       0.08191837 0.070933715 0.030688668 -0.17861149
000160 0c e6 a3 bd 7a b1 21 be 25 70 91 bd 06 27 83 be
       -0.08002862 -0.15790358 -0.07101468 -0.2561571
000170 21 8d 16 bd cc 8a 93 be df 5b 45 3e ca 9b a3 3d
       -0.036755685 -0.2881683 0.19273327 0.07988699
000180 98 e7 85 3e 21 1c 86 bb a3 62 fe 3c b6 54 bf bd
       0.26153255 -0.0040927087 0.031052893 -0.09342329
000190 96 60 a2 3e 46 3d 1a 3e 2b eb 23 3e 17 c8 35 3e
       0.31714314 0.15062436 0.16007678 0.1775211
0001a0 96 59 7d be 11 fe ca bd 2d f4 c2 3d 31 5e 39 be
       -0.24741206 -0.099117406 0.09519229 -0.18102337
0001b0 e7 84 8c bd b2 38 5a bd 5f 68 52 be c7 b6 26 3d
       -0.068612866 -0.053276725 -0.20547627 0.040701654
0001c0 d5 6a e4 3d c0 05 2d be 46 ba d0 be 60 e5 89 bd
       0.11153189 -0.16896725 -0.40767115 -0.06733203
0001d0 8d f7 4e be c5 e8 8b 3d 21 86 37 3c 42 79 94 bd
       -0.2021162 0.06831507 0.011201412 -0.072496906
0001e0 a5 14 ab bd 46 ec 47 be 10 fb a6 bd 8e 92 3e 3e
       -0.08353547 -0.19523725 -0.08153355 0.18610594
0001f0 96 8e 05 bc 5a d6 38 be 1c b6 db 3c b1 e8 79 3c
       -0.008151671 -0.18050519 0.026820235 0.015253232
000200 ba c0 51 3e d8 bb c5 bd d0 92 00 be 13 c6 e2 bd
       0.20483676 -0.09654969 -0.12556005 -0.11072936
000210 ab bf 13 be de 5e a1 be 2e 8c 34 be e2 a2 6b be
       -0.14428584 -0.3151769 -0.176316 -0.23011354
000220 41 7a f9 bd b4 97 09 3e 1a d9 c5 3d 94 86 de bd
       -0.12181521 0.13436776 0.096605495 -0.108655125
000230 dd c5 66 be fc 21 f2 3d 4f a7 8d be ea 05 9f bb
       -0.22536416 0.11822888 -0.2766671 -0.004853
000240 53 6a d2 3d 76 46 e9 bc 1b bc 9f bb 38 40 a4 3b
       0.10274186 -0.028475981 -0.004874719 0.0050125383
000250 7f 40 03 be e8 ca 97 3d c4 19 85 bd e2 5b 57 3b
       -0.12817572 0.07411748 -0.06499055 0.0032861163
000260 e1 d5 c2 bd 0b f4 0a bd b3 e5 f0 bd 9e 75 17 be
       -0.095134504 -0.033924144 -0.11762562 -0.14790961
000270 92 7c 2e 3e 40 87 53 bd 3f c7 d8 bd ad c5 1f 3d
       0.17039707 -0.051642656 -0.10584878 0.039006878
000280 b2 f2 6f be c8 92 0f be ef 1c 60 3d 67 10 93 be
       -0.23432425 -0.14020836 0.054715093 -0.28723451
000290 7d d1 34 3e b1 85 a4 3d 5e b0 a5 bb 6d 68 3d 3d
       0.17658038 0.08033312 -0.005056425 0.046242166
0002a0 2a 39 2c be f7 7b 30 be a0 26 56 3d 33 9f 9e be
       -0.16818681 -0.17234789 0.05228293 -0.30980834
0002b0 42 14 47 3e 17 e5 9e 3e 62 48 0a be 55 4b 04 3d
       0.19441321 0.31034157 -0.13504174 0.032298405
0002c0 a0 ef 0b 3e 81 2a 3a 3d 0b a7 68 be bf 9d 09 bd
       0.13665628 0.04545069 -0.22719972 -0.033597704
0002d0 10 50 09 be 35 2a 89 be bf c9 91 3e 38 91 84 3e
       -0.13409448 -0.26790014 0.28474233 0.25892043
0002e0 6d b4 d9 3b e0 1e e8 bc 48 79 8b be 01 5c 20 be
       0.006643823 -0.028335035 -0.27240968 -0.15660097
0002f0 ae 53 87 3c 22 84 35 bd 20 43 01 3a 7c 22 e5 bd
       0.016519394 -0.044315465 0.0004930962 -0.11188218
000300 64 7f 80 be 4c 22 3c 3e 05 d3 4f be 76 ba 8e bd
       -0.2509719 0.18372458 -0.20295341 -0.06969158
000310 c5 80 0f bd ed 2c c0 3d 54 75 2c bd 0e 09 31 3e
       -0.035034914 0.09383569 -0.04210408 0.1728861
000320 2f ad b0 3d 86 64 f4 3d fc bd 33 be 79 f5 2d 3e
       0.08626782 0.11933236 -0.17552942 0.16988172
000330 22 14 f7 bd 5c aa d6 3d 6c 18 00 bd 37 46 e7 bd
       -0.12064387 0.10481712 -0.03127329 -0.11292689
000340 3e 85 1d 3e 01 5c 9f be a3 74 94 bd b6 d3 ac bd
       0.15382859 -0.3112488 -0.07248809 -0.08438818
000350 f7 82 cf 3d 67 5e 81 be a2 89 96 bd 6f 80 b5 bd
       0.101324014 -0.25267336 -0.0735047 -0.088623874
000360 e7 a4 4d bd 47 46 9b be 18 b1 8a bd a1 74 80 3d
       -0.05020609 -0.30327055 -0.06772059 0.06272245
000370 be 41 58 3e 9c 8a 21 bd d0 fe 44 be 9a a7 11 bc
       0.21118829 -0.03943883 -0.19237828 -0.008890057
000380 0d 5d c0 3b 28 a8 0a 3e 27 27 03 be 4b 20 2e bc
       0.0058704675 0.13540709 -0.12807904 -0.010627816
000390 8c b6 6e 3e 3c eb 9a 3e 88 86 21 bd 0d ba 1f be
       0.23311824 0.30257595 -0.03943494 -0.15598316
0003a0 2c bb 27 3e 76 59 0d be 8f f8 9e 3e 61 ad e3 3d
       0.16379994 -0.13803658 0.3104901 0.11117054
0003b0 76 93 32 be b1 bf 27 be ba 25 1d be a6 10 43 bd
       -0.17439064 -0.16381718 -0.15346423 -0.0476233
0003c0 63 76 6f bd c4 25 68 be be ad 2e bd fb cc b0 bd
       -0.05846251 -0.22670656 -0.042646162 -0.08632847
0003d0 ea f0 aa bd 08 38 99 3e 2b 54 a1 bc b8 5a b1 3a
       -0.08346732 0.2992556 -0.019693455 0.0013531065
0003e0 c9 00 11 be 71 c4 13 be 31 3e 9b 3d ca 37 34 3e
       -0.14160456 -0.14430405 0.075802214 0.17599407
0003f0 0f 8d 1c be 3a aa 73 3e a2 76 8c be 8a 1c 38 3d
       -0.15288185 0.23795405 -0.2743426 0.044949092

FC2.weight f4 [256, 256]
000000 5d 0b d5 3e f4 8c c0 3e b7 15 4d bc d2 31 9d be
       0.41610232 0.3760754 -0.012517384 -0.30702072
000010 06 d3 68 bf 02 d0 07 3f ae 00 f8 bd 1a ab 9a 3f
       -0.90946996 0.5305177 -0.12109505 1.2083466
000020 03 d1 0e 3f 4d c1 04 3e 71 d5 1b 3e 69 c1 0d be
       0.55787677 0.12964363 0.1521814 -0.13843311
000030 46 e5 0f 3f d1 1d bf 3b 33 16 e1 be 3a 3a 42 bf
       0.5620922 0.005832412 -0.4396225 -0.75870097
000040 56 14 22 3f 19 d3 b2 3e 00 1a a4 3e 93 13 74 3e
       0.6331228 0.3492668 0.32051086 0.23835592
000050 51 3b a0 be 80 a8 06 3f 58 b6 03 3c 6c 19 7a 3d
       -0.31295255 0.5260086 0.00803908 0.0610594
000060 11 4a 0a 3f cf f3 46 bd 74 d0 ed 3d b4 a0 66 be
       0.54019266 -0.048572358 0.11612025 -0.22522241
000070 82 ba 30 3e 9e 55 30 be a6 79 9b 3e 24 78 d8 3d
       0.17258647 -0.1722016 0.30366248 0.1056979
000080 e1 1f ec bd 3a 84 17 be 15 9b 55 bf 9e 94 01 bf
       -0.11529518 -0.14796534 -0.8343976 -0.50617397
000090 a2 97 ec bc 61 d1 2b bf 93 06 1e be 2f 8a 8c 3e
       -0.028880898 -0.6711636 -0.15432195 0.27449176
0000a0 53 54 03 3e 4c 1e ad be 62 a7 62 3e b6 c3 06 3f
       0.12825136 -0.33812177 0.22134164 0.5264238
0000b0 c5 26 b8 3c 03 22 21 3e 84 07 9b be 19 57 e0 3d
       0.022479424 0.1573563 -0.3027917 0.109541126
0000c0 67 fe 99 3e bc 1a 9b 3c 18 45 3b 3f 02 1e f2 bd
       0.30076906 0.018933646 0.73152304 -0.1182213
0000d0 0d 39 8c be 6d ad 92 3e 0b 57 ce 3e 1c e5 c5 3e
       -0.27387276 0.28647938 0.40300784 0.3865136
0000e0 36 6b b8 be 30 b3 ff 3b 42 5a 51 3e be fa f9 bd
       -0.36019295 0.0078033432 0.20444587 -0.122060284
0000f0 47 28 d6 be cd e7 1d 3f 98 44 84 bf 64 5d 08 3e
       -0.41827604 0.61681825 -1.0333433 0.13316876
000100 6c 4f e9 bd 90 8b df be 86 51 09 be 41 e4 dd 3e
       -0.11392102 -0.43661165 -0.13410005 0.43338206
000110 56 7f 4d 3e d9 a5 08 3d 84 7d 31 bc 0e f7 9f 3e
       0.20068106 0.03336129 -0.010833148 0.31243175
000120 5d 68 bc 3b a4 00 93 3e 08 a5 76 3d ba 89 44 3e
       0.0057497458 0.28711426 0.06021598 0.19193164
000130 a0 66 5c 3d e7 7f 3e bd 1d c3 f4 be 6c 7e ea 3e
       0.05380881 -0.046508696 -0.4780511 0.45799577
000140 d8 66 a7 bc a1 ed d3 bd 4a 34 8e bd 85 71 e0 bd
       -0.020434782 -0.103480585 -0.06943567 -0.10959152
000150 2a 7e ba be f9 dd 0d be 97 f8 0c 3f 42 bb 8a 3f
       -0.3642438 -0.13854207 0.5506682 1.0838397
000160 cd 69 be 3e 58 5e a3 3d a8 7c 63 3e 75 b4 35 be
       0.37190095 0.07976979 0.22215521 -0.1774462
000170 2e ec 71 3e 02 0e 20 3e 58 e8 83 3e 85 0a e2 bd
       0.23625252 0.15630344 0.25763202 -0.11037163
000180 ef 25 48 be 18 aa 62 3f 5f 7c 5f 3d 81 5b 44 3d
       -0.1954572 0.8854079 0.05456197 0.047938827
000190 c2 3b 64 3e 87 25 b2 be 30 dc 16 3c 03 38 bf be
       0.22288421 -0.34794256 0.00920777 -0.3734742
0001a0 64 2c f5 be 71 b2 12 3f be 35 d3 be d8 10 cb be
       -0.4788543 0.5730353 -0.4125194 -0.39661288
0001b0 6f e1 43 be 51 cf 2d 3c 6b 8c f1 3d ba 50 6b 3e
       -0.19128965 0.01060851 0.11794361 0.22980013
0001c0 85 0f a9 3e 8c 46 2f 3d 5d af 9f 3e 2d eb 73 3c
       0.33019653 0.042791888 0.3118848 0.014887613
0001d0 22 e7 7c be 7d 70 06 3f 2e 1e 5a 3d c3 c6 95 3e
       -0.24697545 0.52515393 0.053251438 0.29253206
0001e0 80 01 60 3e 39 bf b1 bd 39 b9 62 be 9b 3a d6 3e
       0.21875572 -0.08679051 -0.2214097 0.41841587
0001f0 86 4e 16 3f 87 52 55 bd 8f f2 99 3e bb 2f b5 3c
       0.5871357 -0.052080657 0.3006787 0.022117486
000200 21 2c d7 3c be 82 31 3f cd fd 40 3e bd d7 29 3e
       0.02626616 0.6934012 0.18846817 0.16586204
000210 35 87 59 be 06 43 ff 3e 73 4b 24 3f 6f b0 d5 3e
       -0.21242984 0.49855822 0.64177626 0.4173617
000220 96 f2 0a be ea 3b 91 be 33 ad 63 be 5b fe 98 be
       -0.13569102 -0.28366023 -0.22234039 -0.29881558
000230 9a d7 07 3e 55 66 09 be bb f5 87 be 97 45 08 3e
       0.13265839 -0.13417943 -0.26554665 0.13307796
000240 8c 2f 79 3d d0 c7 df 3e f5 50 0a 3c 0f ed 11 be
       0.06083636 0.43707132 0.008442153 -0.14250587
000250 50 1e 9c be 6a 37 a1 3b 18 73 cf bd 00 4e d4 3c
       -0.30491877 0.004919936 -0.10129374 0.0259161
000260 5a 6a 44 3f 79 23 8d be c6 a2 a7 3c c6 70 ae be
       0.7672478 -0.27566126 0.020463359 -0.34070414
000270 3f f6 71 3e 85 57 6e be 75 02 01 3e 6d 31 d1 be
       0.23629092 -0.23275574 0.12598594 -0.4085802
000280 c8 79 7a bf d8 3e 57 be a2 e9 5a bd 33 6c 55 be
       -0.97842073 -0.21020067 -0.053445466 -0.20842056
000290 36 79 05 bf 57 64 02 be a9 16 19 bf b5 6b e1 bf
       -0.5213808 -0.12733589 -0.598002 -1.7610995
0002a0 ff f4 05 3e 6b fa c2 3e bb 18 2c 3f 79 9d 83 3d
       0.1308174 0.3808168 0.67225236 0.0642652
0002b0 f1 84 80 bf bd 2f 91 3f 9d a7 a0 be 49 37 bf 3e
       -1.004057 1.1342694 -0.3137788 0.37346867
0002c0 45 6f c7 3e 77 4e 36 3d 0f d1 c4 be b4 65 77 3e
       0.3895208 0.044508424 -0.3844075 0.2415989
0002d0 be 9f c0 3b 87 55 b3 be 3a 96 a3 bd a4 dd 45 bd
       0.0058784178 -0.3502619 -0.07987638 -0.048307076
0002e0 50 fd f2 bd 5d 5c 8b 3d 3a 95 b7 3d fb e7 2b be
       -0.11864722 0.06804726 0.089640096 -0.16787712
0002f0 23 e9 3e 3e 56 82 01 bf 5d 13 5e 3e 65 e8 41 3f
       0.18643622 -0.505895 0.21687074 0.7574523
000300 28 28 14 be dd e4 28 be 34 2f 2c bf 1c 6c 51 be
       -0.14468443 -0.16493554 -0.67259526 -0.20451397
000310 2c 69 46 3e 50 0e 3d bf 84 11 f8 be 57 11 d0 bc
       0.19376057 -0.73849964 -0.48450863 -0.025398893
000320 d7 57 11 3e 9c 02 65 3f 6f 37 c6 bc 80 00 e3 be
       0.14193664 0.89457107 -0.024196355 -0.4433632
000330 3e 72 ac be ed c7 d1 3d cd a8 c9 3e c8 e4 49 3e
       -0.3368091 0.10243211 0.39386597 0.1971618
000340 6e e2 d5 3d b1 1f 7e be 71 f2 7f 3d 98 6d a1 be
       0.10443579 -0.24816777 0.06248707 -0.31528926
000350 df ed 84 3f 92 82 4b be 8d 26 eb 3e 36 8f a0 3e
       1.0385092 -0.19874027 0.4592785 0.3135926
000360 4f f9 41 3e dc 36 10 3f a4 3c e1 3c 85 cc 46 be
       0.1894276 0.5633371 0.027494736 -0.19413956
000370 90 ca 1a 3f 35 2a da bd 40 b3 f2 be 0b 0b 4d 3e
       0.60465336 -0.106525816 -0.47402382 0.20023744
000380 0d e3 36 3e 12 12 9d 3e bd a8 99 3e 4c e0 1a bf
       0.1786005 0.3067785 0.3001155 -0.604985
000390 a4 1c 85 3e d6 08 f8 3d 35 ed f2 3e 79 c5 04 be
       0.25998414 0.1211106 0.474466 -0.12965955
0003a0 55 0e 30 3e b3 f4 ca 3e 41 f6 4a 3e b1 17 bd be
       0.17192967 0.39639816 0.19820501 -0.36932138
0003b0 2d 88 a6 bf ad 24 59 bf fa 26 dd 3b 48 40 27 bd
       -1.3010308 -0.8482159 0.006749031 -0.040832788
0003c0 86 45 70 be 2e 2c a4 bd 5f e9 d8 3d 9d e5 ca 3e
       -0.23464021 -0.08016239 0.10591387 0.39628306
0003d0 ae bc ec be ef 9d 25 be e5 2a cb 3d 37 d5 68 3c
       -0.462377 -0.16173528 0.09920291 0.014210991
0003e0 54 cd 2d bf d7 0e 8e 3d 5d 82 56 3e 21 a3 1a 3f
       -0.6789143 0.06936424 0.20948167 0.60405165
0003f0 19 0f 0b bf e0 59 45 3e 2c 3d 21 3e 54 36 c3 bb
       -0.5431991 0.19272566 0.15745991 -0.005957404

FC2.bias f4 [256]
000000 ee 96 78 bd 3d 40 e5 bc c2 8c 47 bd 64 9e 45 3e
       -0.060690813 -0.027984733 -0.04871822 0.19298702
000010 f7 cd 2d be 41 08 9b bd 93 01 a7 bd bf 78 49 be
       -0.169731 -0.07569934 -0.08154597 -0.19674967
000020 35 3d 17 3d 95 85 0b be 20 34 f1 bc b0 96 26 3c
       0.036923606 -0.13625176 -0.0294438 0.010167763
000030 e1 53 fa 3d 2c 0d 85 3e d2 cd 0e 3e 69 bb 8c bd
       0.1222303 0.25986612 0.13945702 -0.06871683
000040 3f 0c 80 bd 00 88 16 bd 82 d2 1c be 95 60 60 3c
       -0.06252336 -0.036750793 -0.15314677 0.013694902
000050 b4 63 6b bb cf 27 83 3c e0 d8 91 3d 93 4b 90 3d
       -0.0035917582 0.016010193 0.07121444 0.07045665
000060 c7 b7 41 3e b0 bf 58 3c aa af 95 3e be 8f 3f bd
       0.18917762 0.013229296 0.29235584 -0.046767943
000070 54 fb 34 bd e2 e7 08 be 33 1d ba 3a 69 1b 54 3e
       -0.044184998 -0.13369706 0.0014199376 0.20713581
000080 7c b8 5a 3d 0a 0a 9d 3e c6 ba 18 3e 19 de 32 3e
       0.053398594 0.30671722 0.14914998 0.17467536
000090 8c 01 89 bd 9a ae 16 3e 66 85 a0 3d 57 08 7b be
       -0.06689748 0.14715043 0.07837944 -0.245149
0000a0 7b 82 8d bd 2e 91 39 3d bc 44 99 3c 26 46 01 be
       -0.06909653 0.04530447 0.018709533 -0.12624416
0000b0 b3 b0 2e be 9e 8d cd 3c 0c 5f a3 bd 9e 9c 93 bd
       -0.17059593 0.025091942 -0.07977113 -0.07207607
0000c0 e2 9c 87 bd 24 33 3a bd d7 46 67 bd 31 4d e7 3d
       -0.0662172 -0.045458928 -0.056464043 0.1129402
0000d0 e7 da 5c 3e 3e 8b 22 bc ad 89 ab 3d 1b d5 92 be
       0.2156788 -0.009920893 0.08375869 -0.28678212
0000e0 00 ed e5 3c c2 93 93 bd 44 2b 70 3d 6e a8 49 3e
       0.028067112 -0.07205917 0.05863501 0.19693157
0000f0 12 13 7c bd 9d 87 76 bd 1a 91 84 3e 43 7e a5 bd
       -0.061541624 -0.060187925 0.25891954 -0.08080723
000100 76 80 5a bd 90 51 9b bc f8 76 ff 3d 17 87 0e 3d
       -0.053345166 -0.01895979 0.12473863 0.0347968
000110 f8 6b 50 bd 98 02 54 bc 41 e8 ad 3d 54 5e 28 3e
       -0.050884217 -0.0129400715 0.084915645 0.16442233
000120 3d 48 c5 bd 79 44 08 3d 0e 89 c1 3d a6 45 bd 3b
       -0.09632919 0.033268426 0.09449969 0.005776125
000130 4d 94 c4 bc 32 de c1 3d 67 aa 0e bd 40 d9 4d 3e
       -0.023996497 0.094662085 -0.034830477 0.20102406
000140 b7 12 fd bc d9 3d 1e bc 48 47 99 bd dd ed b3 3d
       -0.030892713 -0.0096583 -0.07484299 0.08785603
000150 c9 93 3b 3d cb 3a a6 be 03 8c 05 be 5b 94 1d 3e
       0.045795236 -0.3246673 -0.13041691 0.15388624
000160 5b ca bc 3d 5e f6 25 3e 48 16 f6 3c 70 fe 9d bd
       0.09218284 0.16207263 0.030039921 -0.07714546
000170 34 60 28 3d e7 40 a4 bd 2a b9 0c bd f7 a3 6f 3c
       0.04110737 -0.08020192 -0.034356274 0.014626495
000180 32 0b be bd 18 13 0b bc 06 71 34 3d 02 01 64 3e
       -0.09279479 -0.008488439 0.0440531 0.2226601
000190 35 4d 92 bd 81 50 67 bd 78 6a e2 3d 7b 91 9a bd
       -0.07143632 -0.05647326 0.110554636 -0.075472794
0001a0 df 59 91 bd 90 db a7 bc da 51 8c bd 1d a1 b9 3d
       -0.0709722 -0.020490438 -0.068515494 0.09063933
0001b0 25 7c 4f be 2d e1 3b 3e e5 5b 3b 3e f9 94 1a be
       -0.20262201 0.18347616 0.18296774 -0.15095891
0001c0 23 36 85 bd f1 ac 6a 3e 34 d3 cf bc bd 46 c7 bd
       -0.065044664 0.22917534 -0.025369264 -0.09730289
0001d0 66 b7 a0 3b 4d 7e 4b bd ca 0c 18 3d 74 a3 99 bc
       0.0049046753 -0.049680997 0.03712157 -0.018754698
0001e0 d6 49 be 3b 31 d7 aa bd 9d 8f b1 3d ae 74 99 3c
       0.005807142 -0.08341826 0.0866997 0.018732395
0001f0 7f 66 36 3c b3 14 b6 bd ef c1 13 be 2d c7 56 bd
       0.011132835 -0.08890667 -0.14429449 -0.052436043
000200 31 b6 30 bd 2e 64 cd 3d 60 2a e8 3a bc cd a9 bc
       -0.0431425 0.100288734 0.0017712824 -0.020727985
000210 f5 e5 62 bd 49 c9 9d 3d 9a 1b ed bd f9 3a 29 3c
       -0.055395085 0.07704408 -0.1157753 0.010329002
000220 d7 d9 97 3d 9b 86 86 3d b3 3a 89 3d ac d1 60 be
       0.074145965 0.06568643 0.06700649 -0.21954983
000230 1a a2 02 3e f2 30 59 bd 68 12 47 3d b1 0a d3 3b
       0.1275715 -0.053025194 0.048601538 0.0064404835
000240 e0 23 33 3d 60 03 6e 3d e8 67 43 bd 1d 37 61 3d
       0.043735385 0.058108687 -0.047706515 0.0549842
000250 0b fa 0f be 91 66 a5 be 63 96 44 3e f7 c3 5c 3c
       -0.14060228 -0.32304814 0.19197993 0.013474456
000260 c5 ac 98 bd 0d 66 ba bb 03 fa a2 bd 1a 99 04 be
       -0.07454828 -0.005688435 -0.07957842 -0.12949029
000270 c1 bd ac bd b8 4e 37 3e e7 b7 df 3d 0b 8f f6 bc
       -0.0843463 0.17901123 0.109237485 -0.030097505
000280 36 6b e7 bd 6d 16 8c 3e c4 bb a2 3c d0 45 9f bd
       -0.11299746 0.2736086 0.019864924 -0.077769876
000290 e3 0d 35 3d 22 51 92 3b 79 27 20 bd ff 58 af bd
       0.044202697 0.004465238 -0.039100144 -0.085618965
0002a0 3a f8 73 3a 6a a4 3a 3e a7 66 25 3e b3 fb 65 3e
       0.0009306703 0.18226781 0.1615244 0.22459297
0002b0 8f 43 49 3e 08 b8 30 3d b9 e5 96 3e f1 cc 29 bd
       0.19654678 0.043144256 0.2947214 -0.041455213
0002c0 47 a4 94 3a c4 8f 8a bd d3 ff 99 bc bb c3 31 3e
       0.0011340462 -0.06765702 -0.018798744 0.17359821
0002d0 dc cf 06 bd 8b 9a 30 3e da e8 87 bd 38 8d ce bc
       -0.032913074 0.17246453 -0.0663621 -0.025213823
0002e0 06 45 72 3e 2c aa b2 3d bf e9 29 3e 3c 90 b3 bd
       0.23659143 0.08723864 0.16593073 -0.08767745
0002f0 00 58 83 bc 8f e2 8f 3e 59 5b 8a 3e 64 3c 04 3d
       -0.016033173 0.28102538 0.27022818 0.032284155
000300 5f f9 50 bd 75 e3 4a 3d 75 09 30 bd 59 2c fc 3d
       -0.05101907 0.049533326 -0.04297777 0.12313146
000310 4b 85 f8 3d 0f d5 a4 3e 15 fb 88 bd 28 0b 9f bd
       0.121347986 0.321938 -0.06688515 -0.077658
000320 a9 87 84 3d 47 34 5b 3b 9b 92 ee bb 17 b5 e0 3d
       0.064711876 0.0033447908 -0.0072806603 0.1097204
000330 f3 3e 08 3e 0c 3d d9 bd 43 5a ba 3c 80 0d 01 3d
       0.13305263 -0.10607347 0.022748118 0.031507015
000340 77 f1 a0 bc 68 72 ad 3e f4 9c dc 3d d7 3a af 3d
       -0.01964639 0.33876348 0.10772124 0.08556145
000350 e3 a4 ed 3d c0 41 bf 3e da bc 2d bd f4 d4 0b 3e
       0.11603715 0.3735485 -0.04241643 0.13655454
000360 38 8b b6 bd 95 66 07 bd e0 2b c7 bd e3 f7 c6 3e
       -0.089132726 -0.033056814 -0.09725165 0.38860998
000370 ac 35 e2 3d eb de 22 3e 72 28 0e be b2 89 4c 3d
       0.11045393 0.15905349 -0.13882616 0.049936004
000380 df aa 7b 3d b5 98 b3 3d 0e 36 92 bd c2 c1 a1 3d
       0.061442252 0.08769361 -0.07139216 0.078982845
000390 12 ca ef bc 36 f3 28 3d 60 36 12 3d e0 b8 de be
       -0.02927116 0.04124757 0.035696387 -0.43500423
0003a0 22 98 79 be bf fa 64 3e 0b 03 c5 bd 42 96 a4 bc
       -0.2437444 0.22361277 -0.09619721 -0.02009118
0003b0 36 f7 c4 bd 43 24 27 3d 81 76 0c 3d 8a 26 e8 bd
       -0.09617464 0.040806066 0.0342927 -0.11335476
0003c0 d1 49 32 3e 73 f3 69 be 9d 28 d4 bd b0 ae d6 3d
       0.17410971 -0.22846775 -0.10359309 0.10482538
0003d0 01 13 06 bd 7a ce 04 bc 7c b9 d6 3c 63 c1 a8 3d
       -0.032732967 -0.0081058685 0.026211493 0.082400106
0003e0 59 25 df 3b f6 8f 9c bd 5c a6 99 3c 98 01 01 3e
       0.006809872 -0.07644646 0.018756084 0.12598264
0003f0 72 84 0f bd 19 6a 82 3d da e3 47 3e 47 f9 3b 3e
       -0.03503842 0.06367893 0.19520512 0.1835681

action_out.weight f4 [5, 256]
000000 cb 39 fc 3e db 8a 4f 3d 96 66 53 bf f9 c9 ae bf
       0.49262843 0.050669532 -0.8257841 -1.3655387
000010 75 a6 35 be 0f 9f 6a bd ad 65 06 bd fa 9b 87 be
       -0.1773928 -0.057280596 -0.03281181 -0.26486188
000020 b0 28 f8 be 6b 07 40 be f3 fe be b9 db 09 25 bf
       -0.48468542 -0.1875283 -0.00036429576 -0.64468163
000030 7c 26 78 3e b2 66 e2 bf b1 f3 93 3d 66 a4 00 3f
       0.2423343 -1.768759 0.07224215 0.5025085
000040 0b e7 97 3c ab 85 9a 3b 6c 70 21 bf e5 6b 4e bb
       0.018542787 0.0047156415 -0.6306217 -0.0031497416
000050 bd 9a d1 be 75 a8 a0 bd 48 e5 cd be f8 8e 72 3e
       -0.40938368 -0.07844631 -0.4021399 0.23687351
000060 38 d8 4b bd 19 c3 4e bd 16 d5 23 bf ae e0 47 3c
       -0.04976675 -0.05047903 -0.6399702 0.012199564
000070 1b e1 5b bf 3d f3 77 bf 73 56 ce bf 38 fd 4f 3e
       -0.8589036 -0.9685553 -1.6120132 0.20311439
000080 8d 43 82 bf 2d 97 23 3f c6 54 f2 3e ea e4 18 3e
       -1.0176865 0.6390255 0.47330302 0.14931074
000090 a5 62 62 3c a6 e8 f8 3d da ea 01 3f d9 32 d4 bd
       0.013817464 0.12153749 0.5074898 -0.10361261
0000a0 c9 a8 95 3e 7c 23 be be d2 0f 10 3f 39 05 0c bd
       0.29230335 -0.37136447 0.5627414 -0.03418467
0000b0 b4 40 37 bf 85 72 e4 bd 84 08 62 bd d5 67 2f 3c
       -0.71583104 -0.11154655 -0.055183902 0.010705908
0000c0 1c 33 43 3d 35 88 23 bb f0 93 45 bf 27 e0 86 3e
       0.047656164 -0.0024953012 -0.7717886 0.2634289
0000d0 7e 8b d9 3d 17 16 2b 3d 45 c1 77 3e 68 a8 9e 3e
       0.10622309 0.041769113 0.2419482 0.3098786
0000e0 da 00 f2 be fa 8c 09 bf 2c 61 26 bf 53 a2 33 be
       -0.47266275 -0.5373074 -0.6499202 -0.1754239
0000f0 5a 9e 7e bd 94 26 26 bd 00 f6 9c bf 90 6d 1b bd
       -0.062162735 -0.040564135 -1.2262573 -0.037946284
000100 ef 32 22 3e 12 87 19 3d 1e 66 62 bf 01 aa 06 bf
       0.15839742 0.03748233 -0.8843707 -0.52603155
000110 32 01 09 3d a9 9d 49 bd cf 64 3b 3f af e8 0a bd
       0.033448406 -0.049222622 0.73200697 -0.03391331
000120 6b e5 ea be 49 5b fc be ea f1 aa bf af 4d 96 bd
       -0.45878157 -0.49288395 -1.3355076 -0.07339036
000130 99 00 23 3f 46 f0 2b bf 38 9f 83 bf d5 8c 5a bd
       0.63672787 -0.67163503 -1.0282965 -0.053356964
000140 0d d6 49 bd 3b fa 0a 3d 33 38 92 3b 99 73 56 be
       -0.0492764 0.033930045 0.004462266 -0.20942535
000150 f5 01 12 3f 46 e9 3e bf ba 60 9a bd 23 1a 2e bc
       0.57034236 -0.74574697 -0.075379804 -0.010626349
000160 4c 3c 36 bf 92 2f 35 bf 9f 01 89 3e 8a 4f 67 3d
       -0.71185756 -0.7077571 0.2675905 0.05647234
000170 5f 1a 30 3f bb 2a ab 3a aa 30 14 3e 6e ca c6 bd
       0.6879024 0.0013058999 0.14471689 -0.09706579
000180 7b 6c 67 be a3 19 18 3f f7 f5 cf bd 50 d0 a1 be
       -0.22599976 0.5941412 -0.10154336 -0.31604242
000190 8b 15 29 be 27 1e 8b bc ed 85 ba be 46 ca 53 3d
       -0.16512124 -0.016982151 -0.36430302 0.051706575
0001a0 d9 84 a1 bf 2a 8a 8e bc ea db 20 3f 1a 18 69 bf
       -1.2618667 -0.017399866 0.6283556 -0.910524
0001b0 3e 2c d1 3e 5d f2 5a 3f f1 39 83 3e 5c eb 5b bd
       0.40854067 0.85526067 0.25630143 -0.053691253
0001c0 31 1b 56 3d d3 ba 7b bc fb ce 9b bd 92 f4 2d bd
       0.052272025 -0.015364367 -0.07607838 -0.04246957
0001d0 d9 b1 b3 bd 19 16 cb bc 94 8e 1b bf c0 ec 27 bc
       -0.08774156 -0.02479081 -0.6076443 -0.010249317
0001e0 60 83 56 3e 6c b7 8d 3c 18 c5 21 bf bf 7a 4b bf
       0.20948553 0.017299376 -0.63191366 -0.7948417
0001f0 d0 22 c9 3e a2 0e 04 3d 15 93 86 bf 4a 39 47 3d
       0.39284372 0.032240517 -1.0513636 0.04863862
000200 f2 80 a3 3e 80 d5 94 be b9 90 99 be c3 3d d8 be
       0.31934315 -0.29069138 -0.29993227 -0.4223462
000210 63 fa c8 bc 83 25 29 be ed 2c 45 3c 38 14 ac 3e
       -0.024533456 -0.16518216 0.012034637 0.33609176
000220 42 af a1 bf ff 84 48 bf d9 b9 2e bf 21 68 8a bf
       -1.263161 -0.78327936 -0.6825233 -1.0813028
000230 43 c8 10 3e 3d 1c 92 bb ee 4d ac be 55 cf d7 be
       0.14138894 -0.0044589327 -0.33653206 -0.4215037
000240 34 e5 35 bf 9e 84 44 be 54 1d fc be 68 1b 0f 3e
       -0.7105286 -0.19191214 -0.49241126 0.13975298
000250 0e 71 d8 be 28 39 36 be f6 66 f2 3e 9c 7f b4 bc
       -0.42273754 -0.17795241 0.47344178 -0.022033505
000260 fb e6 f9 3c f1 16 67 bb d7 0c 20 bc d6 49 87 bf
       0.030505648 -0.0035261477 -0.009768686 -1.0569408
000270 5e d7 46 3c d6 3c 18 3f 68 99 73 bf ba 21 22 3d
       0.0121363085 0.5946783 -0.95155954 0.039582945
000280 1f 3f dc bd 9d 97 8d bf b9 9b b5 bf 60 a0 e1 3e
       -0.10754227 -1.1061894 -1.4188148 0.4406767
000290 a1 d8 10 be eb 50 26 bd 60 cd 6a 3c 9c 65 21 3f
       -0.14145137 -0.040604513 0.014331192 0.6304567
0002a0 da ed e0 3b 5b e4 76 3f aa 67 3c bf 06 2d 1d 3f
       0.0068642916 0.9644219 -0.7359568 0.61396825
0002b0 49 49 b1 3d fb d1 13 3f 2b 46 ab be 09 95 53 3d
       0.08656556 0.5774228 -0.3345197 0.051655803
0002c0 2c 95 24 3c ac 06 6d 3b 16 2e 60 bf ee b9 74 3d
       0.010045331 0.0036167307 -0.8757032 0.05974763
0002d0 94 10 31 3e 20 fb 39 3d dd 15 80 3e fb da 18 bf
       0.1729148 0.045405507 0.2501668 -0.5970914
0002e0 4b 3a 40 be 75 92 ed 3e 65 1e 08 3f 50 23 54 bd
       -0.18772237 0.464008 0.5317138 -0.05179149
0002f0 4a 28 a6 3e 64 05 b7 bf 3e be 8b be ef 3d 4d bf
       0.32452613 -1.429852 -0.2729358 -0.8017263
000300 ee ed cb 3b 3f 3e d6 3d 17 29 8f be c4 ee 0e 3e
       0.006223432 0.10461091 -0.27961037 0.1395827
000310 e2 36 7b bf 2e b5 0d bf 3c b5 c0 bd 11 37 d0 bd
       -0.9813062 -0.55354583 -0.09409568 -0.10166753
000320 fc 0e 72 3e 29 10 99 bd df e7 83 bd a8 0d 8d bc
       0.23638529 -0.074737854 -0.0644071 -0.017218426
000330 04 11 eb be 09 64 53 3e 01 4e 7a bd 00 f1 97 3d
       -0.4591142 0.20643629 -0.061109547 0.07419014
000340 e2 63 db bb 9f 4a 0f bf ec c5 fc bd 3b de 8e 3e
       -0.0066952566 -0.5597324 -0.12342438 0.27903923
000350 c4 1e 90 be 3c ec d4 be 2c d2 14 3d 58 01 77 bf
       -0.28148472 -0.41586483 0.036333248 -0.96486425
000360 09 b4 1b bd fc 0f c4 be 36 db 54 bf ab d5 fb be
       -0.03801349 -0.38293445 -0.8314699 -0.49186453
000370 ee 4b ea be 29 88 b4 3d 64 d0 97 3e 21 33 ff be
       -0.45761055 0.08815033 0.29651177 -0.49843696
000380 7f f0 2c bf df c6 7b be 71 da a6 be c5 37 da 3d
       -0.6755447 -0.24587582 -0.32588533 0.106551684
000390 34 1f 94 3c 5d bc b8 3d 16 f3 82 bf 2a 8f ad 3d
       0.018081285 0.090203024 -1.0230434 0.08474572
0003a0 f6 3e 86 be 2a a7 67 bd 1b 8d 02 3e 3c 74 4b 3d
       -0.2621991 -0.056555904 0.1274914 0.049671397
0003b0 d7 1a 95 3e 79 4d 50 3e 3e fe 95 3e 29 26 37 bd
       0.2912204 0.20342053 0.29295534 -0.044714127
0003c0 08 12 ea be 44 ed 92 bf 9c 62 8e bc 4d 42 23 bd
       -0.45716882 -1.1478658 -0.017381005 -0.03985815
0003d0 80 08 89 3c bf 3e 21 bd 09 1a 7a bf 7b b5 8f 3e
       0.016727686 -0.03936648 -0.97695976 0.28068146
0003e0 14 50 09 bd 44 4b 4d 3d a2 c3 a9 3d b7 cc 70 bf
       -0.033523634 0.050120607 0.08289267 -0.9406237
0003f0 26 0c 80 3e f1 a5 66 bf 21 20 66 3f 96 fe 21 bf
       0.2500927 -0.90096956 0.89892775 -0.6327909

action_out.bias f4 [5]
000000 9b fc c4 3e af ce 83 3c 08 92 b4 bc ca 1b 61 3e
       0.38473973 0.016089765 -0.02204229 0.21983257
000010 fd d8 58 be
       -0.21176524

weight f4 [256, 123]
000000 52 f5 19 3d 87 7a fc bd 7d d5 92 3d ef f3 71 bd
       0.03758747 -0.12328058 0.07169626 -0.059070524
000010 d0 58 a8 3d 2e d7 2a be 5b e4 1e 3d 59 43 ae bd
       0.08220065 -0.16683647 0.038791995 -0.08508939
000020 f0 e2 ce bd 26 d7 48 3d 68 fa c0 bc bb f1 a7 bc
       -0.10101879 0.049033307 -0.023556903 -0.020501008
000030 5f 8d e4 bd eb 62 28 bc d8 fa cd 3c da a4 0a be
       -0.11159777 -0.01027749 0.025144026 -0.13539448
000040 c5 6b 23 bd 9f 14 3c 3d 88 22 be 3d cb e1 29 bd
       -0.0398977 0.045918103 0.0928393 -0.0414751
000050 73 75 89 bc e5 19 32 bb 8b fc ef 3c 5b 73 32 bc
       -0.016779637 -0.002717608 0.029295227 -0.010891761
000060 b5 42 77 3c 99 3a f3 bc b9 7c d1 3d 51 a5 27 bd
       0.015091588 -0.029691027 0.10228867 -0.040929142
000070 da e4 d2 3c 4a f9 ef bd 76 8b b6 bd 96 ee 8f 3c
       0.02574389 -0.1171747 -0.08913319 0.017569821
000080 5d e5 1d bc 54 16 96 bd f0 67 ce 3c 4f 2c 92 bd
       -0.009637204 -0.073284775 0.025196046 -0.071373574
000090 f9 67 69 3d de 78 2a bd b7 fe 34 bd 26 0b ad bc
       0.05698392 -0.041619174 -0.044188228 -0.02112348
0000a0 44 4e 6e 3d 69 64 7c be 20 d0 86 3d 33 82 0b bd
       0.05818011 -0.24647678 0.065826654 -0.034059715
0000b0 0f eb 47 be 6a 3c 22 bd 30 8b bb bd f0 26 ca bd
       -0.19523261 -0.039608397 -0.09157407 -0.09870708
0000c0 e6 4a 60 bb df 09 1a be 0f c3 a5 bd 10 59 30 bc
       -0.003422433 -0.15042828 -0.08093845 -0.010763422
0000d0 96 c4 15 bd 31 f3 8c 3d a5 72 23 bd 23 c1 4d 3a
       -0.036564432 0.068823226 -0.039904255 0.0007848909
0000e0 b2 c5 71 bd df a6 8e 3d 55 d7 58 bc 0e da be bd
       -0.059026428 0.06965422 -0.013234933 -0.093189344
0000f0 10 13 c0 bd 18 41 ca bd 16 06 3b bd 8f 26 aa bc
       -0.09378636 -0.09875697 -0.0456601 -0.02077034
000100 33 d6 73 3d 03 b3 8f bd 8c 26 c4 bc af cb 00 bd
       0.05953045 -0.07016566 -0.023944162 -0.031444248
000110 fc 56 9b bd 74 77 d1 bd 7f a6 b5 3d b5 09 cc 3d
       -0.0758495 -0.10227862 0.08869647 0.09962789
000120 2a bd ca 3c e0 29 13 be 3e 31 00 be 2f 4f c9 3b
       0.024748404 -0.14371443 -0.12518784 0.0061434726
000130 1e 85 ab bd 89 48 53 be f3 4a 13 bd a7 6d 5b bd
       -0.083749995 -0.20633139 -0.03596015 -0.05357137
000140 a0 b4 50 bd 02 3f 94 3d d1 5f e2 3b da aa 86 bc
       -0.050953507 0.0723858 0.006908395 -0.01643889
000150 1a 8b 49 bc d7 75 ad bd 6c c4 bf bd 3c be ab bc
       -0.012301231 -0.08469742 -0.093636364 -0.020964734
000160 72 ef 89 3d 6f da e8 3d fe 5f df 3c 88 95 0d be
       0.06735124 0.11369788 0.027267452 -0.13826573
000170 40 80 65 bb da 77 6a bd 0c c9 51 bc 31 e1 10 be
       -0.003501907 -0.057243206 -0.012804281 -0.14148404
000180 41 44 3a 39 40 8c b8 bc d4 d7 8e bc 2f 9e c5 bd
       0.00017763769 -0.022527814 -0.0174369 -0.09649312
000190 f9 e0 2c be 01 46 34 bd af 27 81 3d a2 05 51 bb
       -0.16882695 -0.044012073 0.06306397 -0.0031894227
0001a0 15 6a ae bd 4e 22 45 3d d9 1f 7a bd dd b0 a4 3d
       -0.08516327 0.04812842 -0.06106553 0.080415465
0001b0 29 e4 21 be 51 6c c9 bd 42 d8 01 be fd 76 0d bd
       -0.15809692 -0.09835113 -0.12680152 -0.034537304
0001c0 0a 8e 3a be c7 54 2c be 95 ea 08 be 22 26 93 3d
       -0.18218246 -0.16829215 -0.13370736 0.07185008
0001d0 49 0b 05 be 4d 9d 9c 3d 20 02 a2 3d f4 91 5a bd
       -0.12992586 0.0764719 0.079105616 -0.053361848
0001e0 90 0f ea bd 0c e4 82 bd 40 3f 85 bd 7a b5 ce bc
       -0.114287496 -0.06391153 -0.065062046 -0.02523302
0001f0 46 6c b5 bd 73 ab 8c bd 58 bb 01 bd 7d 17 9f bd
       -0.08858542 -0.06868639 -0.031672806 -0.07768152
000200 01 f2 81 3d f8 9a ab bc cd 72 d6 bc e2 5a 42 3d
       0.06344987 -0.020947918 -0.026177788 0.047449954
000210 28 0c 87 bc d5 aa 94 bd 5f 29 8f 3c 91 01 b7 39
       -0.016485289 -0.07259146 0.017475782 0.00034905647
000220 d8 2a 78 bc e6 8c 8f bd dd d9 fa bd 29 67 20 3d
       -0.0151469335 -0.07009296 -0.122485854 0.03916088
000230 87 77 ad 3d fb 7d 19 bd 67 aa 11 bd 8b 55 51 bd
       0.08470064 -0.03747366 -0.0355629 -0.05110697
000240 a8 73 17 bc 17 84 17 bd 62 a4 68 3c 17 93 b7 3c
       -0.009243883 -0.036991205 0.014199348 0.022409005
000250 a4 c4 c6 bd 80 60 88 3d ac 36 1c bd 4b 86 cf bd
       -0.09705475 0.06659031 -0.038138077 -0.10133036
000260 eb 72 b1 bd 93 59 6e bc 62 7b 43 3d 3f 15 9b bc
       -0.08664497 -0.014547723 0.04772509 -0.01893103
000270 68 38 3f bc ac 49 b3 bc 0a 85 73 3d 2a bf a8 bd
       -0.011671163 -0.021885715 0.059453048 -0.08239587
000280 fd f0 a2 bd 2e 4f 8e bc 9e b8 8a 3b 4b c5 0c bd
       -0.07956121 -0.01737174 0.004233434 -0.03436784
000290 e5 65 86 3d f9 a6 a3 3d bf 0b 82 3c 0c 75 40 bc
       0.065624036 0.07990832 0.015874742 -0.011746656
0002a0 7e 5a 74 bd ea 32 ab 3d 9c 65 be bc 07 66 58 bd
       -0.059656613 0.083593205 -0.02324181 -0.052831676
0002b0 4c 08 54 bd ee 6d 0e 3d e4 4e b4 bb ac 03 45 3d
       -0.051765725 0.034772806 -0.0055025686 0.048099205
0002c0 e0 ef d4 3b 56 ce 5a 3d 8f 82 f9 bd 53 12 1e 3d
       0.006498322 0.053419434 -0.12183105 0.038591694
0002d0 21 5d 8a 3d d6 88 0a 3d bd 2b f3 bd e0 c0 4d bd
       0.06756044 0.033821903 -0.11873577 -0.050232768
0002e0 be f3 b9 bd 2b dd 2b bc b3 4f 29 3d 81 e9 5f 3d
       -0.09079693 -0.010489742 0.041335773 0.054666046
0002f0 d6 2d 9c bd 2b 27 69 bd 08 da f6 bd d4 41 5a bd
       -0.0762593 -0.05692212 -0.12053305 -0.053285435
000300 ea aa 1b bd 14 41 a5 bc fc 91 d9 3c 5e 3b ad bd
       -0.038004793 -0.020172633 0.026558869 -0.08458589
000310 1c b4 9e 3c 87 65 42 bb 55 7c f1 bc df e5 6b 3b
       0.019372992 -0.0029662566 -0.029478231 0.0035995168
000320 30 bf 6b bc 1c b0 a3 3c dc 9a e4 bd ce cc 94 bd
       -0.014388844 0.019981436 -0.111623496 -0.07265626
000330 f8 1a bd 3d 09 0b 80 3d 59 2d 04 3d 28 0c 81 bd
       0.092336595 0.06252105 0.03226981 -0.06301147
000340 aa c5 77 bd 7f ca 30 bd 17 6f 9f bb 32 4c d7 ba
       -0.06049124 -0.043161865 -0.004865538 -0.0016425906
000350 89 ec 23 bb 00 6e 81 3d 05 ca f9 bb 9f 6e 40 bd
       -0.0025012812 0.06319809 -0.0076229596 -0.046980496
000360 c5 99 a2 3d 6a 9d e9 bc b3 be ba bd 63 76 9b 3d
       0.079394855 -0.028517444 -0.09118404 0.0759094
000370 f0 21 11 bc 24 1c 93 bd d5 cf 98 bd 9d 15 44 bc
       -0.008858189 -0.07183102 -0.07461516 -0.011968044
000380 36 d2 05 bd 7f 38 8a bc 65 80 13 3c e1 a4 91 3d
       -0.032671176 -0.016872643 0.00900278 0.07111526
000390 0f dc ad bd 8a cb d9 bd 8e 93 5e 3d d2 87 21 3b
       -0.084892385 -0.10634525 0.054339938 0.0024647606
0003a0 74 05 b7 bd 03 3e 26 3c e4 0f f5 3b cf b0 19 bc
       -0.08936587 0.010146621 0.007478701 -0.009380533
0003b0 70 7e 83 bd 6c db a7 bd 94 17 56 3d 33 05 40 bc
       -0.064206004 -0.08196148 0.05226858 -0.01171999
0003c0 1c fd c7 bd ba 85 74 bd fb 3f d3 3b 94 db af 3c
       -0.09765074 -0.059697844 0.006446836 0.021467008
0003d0 c3 68 e7 bc 8a 10 ee bd 1a 06 b5 3d d1 6a c1 bc
       -0.028248196 -0.11624248 0.088390544 -0.023610504
0003e0 4c f9 66 3e 7d 68 12 be 08 49 48 3e 09 35 a6 be
       0.22556037 -0.14297672 0.19559109 -0.32462338
0003f0 d8 48 84 bf 8a 85 0d 3d 2a 1d 4e 3e 4d 92 a3 3d
       -1.033473 0.03455118 0.20128313 0.07986889

bias f4 [256]
000000 4f 2f a5 bd 06 9b d6 3c 53 89 1e be 96 a9 b3 bd
       -0.08065664 0.026196968 -0.15482073 -0.0877258
000010 1a 6a 6f 3e 3e 94 86 3e f6 69 92 bd 1d d6 9d bd
       0.23380318 0.26284975 -0.07149117 -0.077068545
000020 f9 5e a0 3d 17 31 77 bd cd d3 87 bd fd a9 46 3e
       0.078306146 -0.06034955 -0.06632195 0.19400783
000030 c5 f2 15 3e eb 5b 8b 3d fd bf bc 3c d8 fc 90 bb
       0.1464339 0.06804641 0.023040766 -0.0044246726
000040 aa 13 a4 3d db 65 61 bd 01 3f 59 3e 63 c3 d0 bd
       0.08011563 -0.055028778 0.2121544 -0.10193517
000050 08 56 8d 3d 82 53 db 3d 9f fe 91 3e ed c7 2f bd
       0.06901175 0.10709287 0.28514573 -0.042915273
000060 38 8b 09 3e d2 0c e7 bd 55 15 78 3d 72 f1 f5 bd
       0.13432014 -0.11281742 0.06056722 -0.12008943
000070 05 0f d4 bc 6c ca 0d 3d 39 2b 6b 3e a8 5e d6 3c
       -0.025886068 0.034616873 0.22965707 0.026168182
000080 13 82 33 3d 8f 7f 39 3d 8d 8a 8a 3e a4 83 29 bd
       0.04382522 0.045287665 0.2705883 -0.041385308
000090 ed 90 35 3e 5f 2d 94 3e 19 86 0c 3b 11 b1 13 3e
       0.17731066 0.28940865 0.0021442233 0.14423014
0000a0 4f 5f 8f 3e b8 67 01 be 42 5b 86 3e 14 48 e4 3b
       0.28002402 -0.12637222 0.262415 0.0069666
0000b0 81 7f fb bc b9 59 98 bd 58 5f b9 3d 94 83 41 3a
       -0.030700447 -0.07438988 0.090513885 0.00073819724
0000c0 fe 36 22 bd 7a 2e d2 3c 84 31 aa 3c 70 3c bb bd
       -0.039603226 0.025656927 0.020775564 -0.09142387
0000d0 5c cf 30 3d ea bb 9b bd c8 92 30 3e cd 75 b5 bd
       0.043166503 -0.07604201 0.17243493 -0.08860359
0000e0 b3 c6 3e bd 1b a2 eb bd af b1 04 3d 56 eb 4d bd
       -0.046576213 -0.115055285 0.032396015 -0.050273262
0000f0 32 b6 3f be 80 bd b1 3d 09 2a 67 be c3 03 70 3e
       -0.18721846 0.086787224 -0.22574629 0.23438935
000100 91 c3 50 3e 52 0f b8 bb 5a 2a 08 3e 31 b3 cd 3c
       0.20387103 -0.0056170607 0.13297406 0.02510986
000110 9f 44 30 3e bf 68 8e be 66 0a 48 3e 8a 89 71 3e
       0.17213677 -0.2781429 0.19535217 0.23587623
000120 9d fa c8 bd 94 7a 03 3e a2 7e a4 3e b2 18 a4 3b
       -0.09813426 0.12839729 0.32127863 0.0050078267
000130 32 4b 34 bb 2e 10 c3 3d 06 87 72 bd 42 92 5f 3e
       -0.002751064 0.095245704 -0.0592108 0.21833137
000140 f7 ed c9 bc 60 8e 7a bd fe 74 f6 bd 65 57 89 bd
       -0.024649603 -0.061170936 -0.12034033 -0.06706122
000150 44 2a 31 bd 44 84 49 3e 65 b8 36 3e 84 ee 07 3e
       -0.0432532 0.19679362 0.17843778 0.1327458
000160 93 92 17 3d 1e ad 04 bd 5b ce cf bc 2f f0 80 3e
       0.03700502 -0.03239166 -0.025366953 0.25183246
000170 f1 cc 14 3c 6b f4 ee bd f4 3b 7d 3d 02 58 8f 3e
       0.009082065 -0.11667713 0.061824754 0.27996832
000180 e9 93 fe bd 51 05 17 3d f2 71 c9 3c 55 50 85 3d
       -0.124305554 0.036870304 0.024590466 0.06509463
000190 3d 3b 33 bc ce 31 05 3e 87 28 75 3e 17 90 1b be
       -0.0109394165 0.1300728 0.23941241 -0.15191685
0001a0 b1 06 5c 3d 7c 06 22 bc e0 17 6a 3e cb 87 0e be
       0.05371732 -0.009889241 0.2286067 -0.13918988
0001b0 7e cb 91 3e ea a8 6f 3e 5a 7e 8c 3c ed 5a 0e 3c
       0.28475565 0.2340428 0.017150093 0.008688671
0001c0 0a 3d 91 bd 27 5e dc bd d7 3a eb bd 0c db 2b 3e
       -0.070917204 -0.10760146 -0.11485832 0.16782779
0001d0 2c 28 25 3d 11 79 62 3b 47 3a 14 be f8 f9 88 3d
       0.040321514 0.0034557024 -0.14475356 0.06688303
0001e0 a8 e8 07 be 98 78 3b 3e a8 75 19 bd 22 74 df bc
       -0.13272345 0.18307722 -0.03746572 -0.027277056
0001f0 94 4c 65 3d 83 2c 13 bd e7 8d 13 bd 52 8a 68 3d
       0.055981234 -0.03593112 -0.036024 0.056772538
000200 5e 24 cf bd 02 f1 98 3e bd 33 92 bb 71 6e 66 bd
       -0.10114358 0.29871374 -0.004461734 -0.05625767
000210 87 fd 83 3b 7b 8e dc bd 08 7b 46 3e d3 9a 93 bd
       0.0040280255 -0.107693635 0.1938287 -0.07207265
000220 d5 62 21 3e 36 90 b7 3d f1 cd 35 3e 6a 19 60 3e
       0.15760358 0.08963053 0.17754342 0.21884695
000230 da 09 8c 3d 3c 86 35 3d 4e a5 cf 3d ad ab a2 3e
       0.068378165 0.04431747 0.10138951 0.31771603
000240 04 8e dd bb c0 21 05 be 9e 6e dd 3d df 55 0d bd
       -0.0067613143 -0.13001156 0.10812114 -0.03450572
000250 50 16 bb bd 1f 70 a0 3d 0c ac 38 bd 03 f9 f4 bd
       -0.09135115 0.078338854 -0.04508595 -0.11961558
000260 08 cf 1a 3c 3e 46 91 bd 69 25 74 3e 48 8e 83 3e
       0.009448774 -0.07093476 0.23842396 0.2569449
000270 5e 4c 08 3e 54 08 81 3d ba 24 71 bd b6 07 a3 bd
       0.13310382 0.063004166 -0.058872916 -0.07960455
000280 1b 09 08 3d 2e 65 7a bd 31 54 bb bd e8 44 8f 3d
       0.03321181 -0.06113165 -0.091469176 0.06995565
000290 63 9c b4 bd 7a f0 c0 bd 2c 59 b3 bd 88 14 36 3d
       -0.08818891 -0.09420867 -0.087572426 0.044453174
0002a0 af 3d 91 bd 4f 56 04 3e 47 13 8e bd b6 d9 69 3b
       -0.07091843 0.12923549 -0.069372706 0.0035682744
0002b0 8f 99 1f bd c2 5f 82 bd 70 37 e0 3d ba 44 18 3c
       -0.038964804 -0.063659206 0.10948074 0.009293729
0002c0 75 e4 43 be 0c 12 a0 3e 24 93 03 3e d2 49 2a bd
       -0.19130118 0.3126377 0.12849098 -0.041574307
0002d0 96 a6 91 3e 13 ec 51 3d 61 32 7c 3d 1d 13 a3 3d
       0.28447407 0.05125053 0.061571483 0.0796263
0002e0 7e 51 61 3e 0d 4b e4 3b bd e2 91 3e 7b b3 cb 3b
       0.22003743 0.0069669546 0.284933 0.006216464
0002f0 d7 af ac bd 62 20 21 be 75 ba 89 3d fe d3 8c 3e
       -0.08431976 -0.1573501 0.06725017 0.27505487
000300 be 7c e2 3c 65 42 da bc a9 fd 98 bd 23 d8 18 3e
       0.027647372 -0.026642988 -0.07470257 0.149262
000310 3f d8 30 3e 79 ea 80 bd db e0 e8 bd bf ea 49 3e
       0.17269991 -0.06294722 -0.11371013 0.19718455
000320 63 b2 84 3e a4 80 6f bd 24 a8 d9 bc 6a 78 bf bd
       0.25917348 -0.05847229 -0.026569434 -0.09349139
000330 7a c6 8f 3d 21 5c 8a bd ae cd a0 bd b9 c4 6f 3c
       0.07020278 -0.067558534 -0.0785173 0.014634305
000340 fd 58 07 bd eb 6c b1 38 31 55 7a 3e 32 6e cf bd
       -0.03304385 8.460305e-05 0.2444656 -0.1012844
000350 ee 43 6b 3e 2f 43 52 bc 4b a3 84 3e fd 2b 89 3e
       0.22975132 -0.012833401 0.25905833 0.26791373
000360 4e 34 91 3d 9b 95 0e 3e 5c ae cc bd a9 5d 6e be
       0.070900545 0.13924257 -0.09994194 -0.23277916
000370 77 38 a4 bd ad 10 b3 bd 9b 23 54 bd e8 24 03 3e
       -0.08018582 -0.08743415 -0.05179177 0.12807047
000380 ed 82 c5 bd 3b fd d1 3c c7 97 94 3e a6 6d 17 3d
       -0.09644113 0.025633445 0.29022047 0.036969803
000390 37 6b 88 bd f7 58 29 be 1c d6 f4 3d 76 dc 0d be
       -0.066610746 -0.16537844 0.119549006 -0.1385363
0003a0 5e ee 25 3c f7 cb 5e 3e 63 77 31 3e fc 6f b0 bd
       0.010127632 0.21757494 0.17330699 -0.08615109
0003b0 4c 7f 35 be 6b 89 0b 3e c7 6a 73 3e 4f 35 8f 3e
       -0.17724341 0.1362664 0.23771201 0.2797036
0003c0 ee a2 b3 3d a6 0e 8c bd 3d a1 a2 3c 1c af a8 3d
       0.08771311 -0.068387315 0.019852275 0.082365245
0003d0 b0 fe 32 3e ea 36 c6 3d 76 e3 fb bd 95 71 19 3e
       0.17479968 0.09678443 -0.12299244 0.14984734
0003e0 7c b8 94 3e 6f 5c fa 3d 5c 50 60 3e fc 9f d2 3d
       0.29047 0.122246616 0.21905655 0.10284421
0003f0 7f e9 1e 3e 19 08 bc 3d 36 e2 2a bc 44 e4 0c 3e
       0.15518759 0.09181232 -0.010429909 0.13758951
