src/saved_models/grid_world_seed125_8_7_15_42_成了/125_36_model.pt (torch, 702727 bytes, 11 tensors)

FC1.weight f4 [256, 36]
0	0xbe0117e3	-0.12606768
1	0x3c9cb88b	0.019130966
2	0x3da58717	0.08082407
3	0x3db84f8e	0.08999549
4	0x3cdbf5aa	0.02685054
5	0xbe48a269	-0.19593205
6	0xbe05e569	-0.13075794
7	0x3deceb94	0.115683705
8	0x3e295d6e	0.16539547
9	0xbde64af9	-0.11244769
10	0x3d0c4d25	0.03425326
11	0xbd9cc854	-0.07655397
12	0x3e9324e4	0.28739083
13	0xbe2683dd	-0.1626124
14	0xbe0603d3	-0.13087396
15	0x3db44df2	0.088039294
16	0x3d492f3d	0.049117316
17	0xbe75045b	-0.23927443
18	0xbe4116b8	-0.18856323
19	0xbe68394e	-0.2267811
20	0x3e0ad42d	0.13557501
21	0xbe0babd9	-0.13639773
22	0xbe134bbd	-0.1438436
23	0xbe0d783d	-0.13815399
24	0xbdf0a8cb	-0.11750945
25	0x3e6f5abe	0.23374459
26	0x3db44287	0.088017516
27	0x3dc9a35c	0.098456115
28	0x3e5d16c4	0.21590716
29	0xbdb124a2	-0.08649565
30	0x3cce2cee	0.025167909
31	0xbe235dfc	-0.15953821
32	0xbf0ca919	-0.5494552
33	0x3dfc823c	0.12329528
34	0x3e481d1d	0.19542356
35	0xbeb7146a	-0.35757762
36	0xbc3476b1	-0.011014626
37	0xbe7f3547	-0.24922667
38	0x3defa67e	0.11701678
39	0xbd142ad7	-0.036173668
40	0xbe46f1d4	-0.19428188
41	0xbe952f8a	-0.29137832
42	0xbe2934e9	-0.1652409
43	0xbededbae	-0.43526977
44	0x3d992738	0.074781835
45	0xbd06bb25	-0.03289332
46	0x3e374562	0.17897561
47	0xbd675b4b	-0.056483548
48	0x3babc58d	0.0052420557
49	0xbebd4c45	-0.36972252
50	0xbe6352cd	-0.22199555
51	0xbed5bf8a	-0.41747695
52	0xbd801b21	-0.062551744
53	0xbea7780b	-0.32708773
54	0x3e596f20	0.21233797
55	0xbf009470	-0.502265
56	0xbbef4af6	-0.007302637
57	0x3d62333b	0.05522464
58	0xbc2e7f54	-0.010650475
59	0xbeac034a	-0.3359626
60	0x3dc34140	0.0953393
61	0xbd1ec9ae	-0.038766555
62	0xbee97bc9	-0.45602253
63	0x3e28d037	0.16485678
64	0x3e47a0d7	0.1949495
65	0x3dd04d14	0.101709515
66	0x3e9095b9	0.2823923
67	0x3d61f1c2	0.0551622
68	0x3e825f1e	0.25463194
69	0xbf1f1f43	-0.62157077
70	0xbb651164	-0.0034952993
71	0xbc16fd79	-0.009215706
72	0x3d9346f7	0.0719127
73	0xbd93bbd8	-0.07213563
74	0xbee9e1e0	-0.4568014
75	0x3d657fa6	0.05602994
76	0xbef2ea14	-0.47444212
77	0x3dd6ac30	0.10482061
78	0xbf138220	-0.5762043
79	0x3cdd38a7	0.027004553
80	0xbed24f4d	-0.41076127
81	0x3e4ee60e	0.20204946
82	0xbe433357	-0.19062553
83	0xbe07c728	-0.13259566
84	0x3eb0a927	0.34504053
85	0xbdb75cb6	-0.0895323
86	0xbefe4b2a	-0.4966672
87	0x3da6e6d5	0.081494965
88	0xbe8fb010	-0.28064013
89	0xbe225b7e	-0.15855214
90	0xbeff1288	-0.49818826
91	0xbeb83b4d	-0.35982743
92	0x3db71c87	0.08940988
93	0xbe188d45	-0.1489764
94	0xbed94603	-0.42436227
95	0xbe3ca47c	-0.18422121
96	0xbea9277c	-0.33037937
97	0x3ed1bd00	0.40964508
98	0xbe6f0201	-0.23340608
99	0xbd9aee05	-0.0756493
100	0xbd3c3714	-0.045950964
101	0xbd97502b	-0.07388338
102	0xbda21aca	-0.07915266
103	0xbcb3d0be	-0.021950122
104	0xbe1e07b5	-0.15432627
105	0xbe81de93	-0.25365123
106	0xbe83eadc	-0.2576512
107	0xbdfd041e	-0.12354301
108	0x3ddf605b	0.1090705
109	0xbe40ba39	-0.18821038
110	0x3cf668a8	0.0300792
111	0xbe29a0e1	-0.16565277
112	0xbd2a37e3	-0.041557204
113	0xbd248d44	-0.040173784
114	0xbe020ff0	-0.12701392
115	0xbe7f8f8d	-0.24957104
116	0x3e0ee27c	0.13953584
117	0xbe92f4c9	-0.2870238
118	0x3e0d398a	0.1379148
119	0xbd8c6f62	-0.06857182
120	0x3e567a9d	0.20945211
121	0x3c86be04	0.016448028
122	0xbed05ccb	-0.40695795
123	0xbe2c09a6	-0.16800556
124	0x3d79918c	0.06092982
125	0xbe9205cb	-0.28520045
126	0x3e049938	0.12949073
127	0xbde43688	-0.111432135
128	0xbd17690a	-0.036965407
129	0x3d848a84	0.06471732
130	0xbe547aa3	-0.20749907
131	0xbe3d1362	-0.18464425
132	0x3e5030c2	0.203311
133	0xbe8b7a3e	-0.272417
134	0xbebfe931	-0.37482598
135	0x3d580b22	0.052744992
136	0x3e8e0a8c	0.27742422
137	0x3deb9249	0.11502511
138	0xbcf73121	-0.030174794
139	0x3dcf4384	0.101202995
140	0xba836d4c	-0.001002708
141	0xbea90f7d	-0.3301963
142	0x3dea9dd2	0.11455883
143	0x3e0030cf	0.12518619
144	0x3da61924	0.08110264
145	0xbde3b4c9	-0.111184664
146	0x3e099957	0.13437401
147	0x3e6b21d2	0.2296212
148	0x3e796fd2	0.24359062
149	0x3d9d3166	0.07675438
150	0xbe687ffc	-0.22705072
151	0xbd628cc2	-0.05531002
152	0x3b830803	0.003998758
153	0xbe3733a3	-0.17890792
154	0xbe22f98e	-0.1591551
155	0x3d32105b	0.04347263
156	0x3e671a62	0.22568658
157	0xbc78e8c6	-0.015192216
158	0xbdf046c7	-0.1173225
159	0xbd1afdf3	-0.03783984
160	0xbd2570d2	-0.040390797
161	0x3ccb2875	0.024799565
162	0xbe90e3c9	-0.28298786
163	0x3da4a31e	0.08038925
164	0x3d2ee43b	0.042698126
165	0x3e8ce8ae	0.2752127
166	0xbdc653f0	-0.096839786
167	0x3e19e3cc	0.15028304
168	0x3dd4a9a6	0.1038392
169	0x3d0175fb	0.031606656
170	0x3e8f2f17	0.27965614
171	0x3d7bca4a	0.061472215
172	0x3e85f09f	0.26160142
173	0xbe337e2f	-0.17528604
174	0xbe6b1241	-0.22956182
175	0xbdb1b013	-0.086761616
176	0xbe946c3d	-0.2898883
177	0x3e370425	0.17872675
178	0x3d92711e	0.07150482
179	0xbc90f769	-0.0176961
180	0x3e5eb27e	0.21747777
181	0xbe666644	-0.22499949
182	0x3e130834	0.14358598
183	0xbdaeaf67	-0.08529549
184	0x3dbf9f32	0.09356536
185	0x3e30e57c	0.17275041
186	0xbe497ad4	-0.19675761
187	0xbe128553	-0.14308672
188	0xba5fd239	-0.00085381005
189	0xbe91b8ed	-0.284614
190	0x3cd68035	0.02618418
191	0x3ddbe6d1	0.10737384
192	0xbcf858f5	-0.030315856
193	0x3d1bcc98	0.038036913
194	0xbef75402	-0.4830628
195	0xbe33343e	-0.17500398
196	0x3d96d7f7	0.07365411
197	0xbe97ff96	-0.29687184
198	0x3db25eb1	0.08709467
199	0xbc6cfdce	-0.014464809
200	0xbda0d124	-0.078523904
201	0x3e7ba793	0.24575643
202	0xbe99c64a	-0.30034095
203	0xbe2092e2	-0.15681031
204	0xbd2f2dbc	-0.042768225
205	0xbf0100ff	-0.50392145
206	0x3ecd9f84	0.40160763
207	0x3d740ed0	0.05958444
208	0x3e5fdaad	0.21860762
209	0x3ca14859	0.019687818
210	0x3d620039	0.055175994
211	0xbe7dfc60	-0.24803305
212	0x3c94fae9	0.01818605
213	0xbe6cb23e	-0.23114869
214	0xbd87bc6b	-0.06627735
215	0xbbe8bdc6	-0.007102701
216	0x3e73f416	0.2382358
217	0x3d2418e8	0.040062815
218	0x3e182591	0.1485808
219	0x3d373430	0.044727504
220	0x3e0a4948	0.13504517
221	0x3e8ff95a	0.28119928
222	0xbe680bce	-0.22660753
223	0xbb33b4c1	-0.002742097
224	0x3d932064	0.071839124
225	0xbe766daf	-0.24065278
226	0xbdb9c046	-0.090698764
227	0x3e2ff540	0.17183399
228	0x3db035c7	0.08604007
229	0x3e0e0ee0	0.13872862
230	0xbdaf71d6	-0.08566634
231	0x3d4b4ad4	0.04963191
232	0x3cd8f8b8	0.026485786
233	0xbeac5936	-0.33661813
234	0xbe6a8214	-0.22901183
235	0x3e33568f	0.17513488
236	0x3d09c24a	0.033632554
237	0x3d56c93f	0.052438017
238	0xbe306129	-0.17224564
239	0xbe36ec3e	-0.17863557
240	0xbc4f97c5	-0.012670462
241	0xbe3f93f6	-0.18708786
242	0x3e801f4d	0.2502388
243	0xbe0018ee	-0.1250951
244	0x3e9dd143	0.30823717
245	0xbdeee4ac	-0.116647094
246	0x3b54b6ae	0.0032457518
247	0xbd5eeab1	-0.054423038
248	0xbea3e497	-0.32010338
249	0xbd820131	-0.063478835
250	0x3a1392bc	0.000562947
251	0xbe863ac9	-0.26216725
252	0xbe891ae2	-0.26778322
253	0xbd760b3e	-0.060069315
254	0xbde90de7	-0.11379605
255	0xbd969b74	-0.07353869

FC1.bias f4 [256]
0	0xbda510cb	-0.08059844
1	0xbc9520ce	-0.018204119
2	0x3be5b3a5	0.0070099407
3	0x3de7b172	0.11313142
4	0x3d049f3e	0.032378428
5	0x3bd4b728	0.0064915605
6	0xbe324c14	-0.17411834
7	0x3abc0f1b	0.0014347763
8	0x3d8ec436	0.06971018
9	0xbde04e19	-0.10952396
10	0x3e20653b	0.15663616
11	0xbdcc8332	-0.09985961
12	0xbdc697a0	-0.09696889
13	0xbdb773fe	-0.08957671
14	0xbe17df90	-0.14831376
15	0x3d483bb7	0.048885074
16	0x3d56fada	0.052485324
17	0xbd98c2e3	-0.07459047
18	0xbdc551e9	-0.09634764
19	0x3d24e3df	0.040256377
20	0xbe441282	-0.19147685
21	0x3e264580	0.1623745
22	0xbe224f24	-0.15850502
23	0xbd5ecd47	-0.054394986
24	0xbb9a2114	-0.0047036503
25	0xbd879706	-0.06620602
26	0x3c95183a	0.018200029
27	0xbc02383e	-0.0079479795
28	0xbe1e9f1d	-0.15490384
29	0x3cb46138	0.022019014
30	0x3d215a48	0.03939274
31	0xbd60fce8	-0.05492869
32	0xbe068890	-0.13138032
33	0x3e1adaec	0.15122575
34	0xbe0307aa	-0.12795892
35	0xbdd15302	-0.102209106
36	0xbd6f816c	-0.058473036
37	0x3dd704e2	0.10498978
38	0x3e0cc540	0.1374712
39	0x3d83a1ab	0.0642732
40	0x3e05ae21	0.13054706
41	0x3c887f1e	0.016662177
42	0x3dfc5007	0.123199515
43	0xbc142fd3	-0.009044605
44	0x3e219a3c	0.15781492
45	0x3e2a1a60	0.16611624
46	0x3d4360a7	0.047699597
47	0xbdc03d2e	-0.09386669
48	0xbd94dc66	-0.072686
49	0x3e26750e	0.1625559
50	0xbd39ba7c	-0.04534386
51	0xbe16d58c	-0.14729899
52	0xbdff7709	-0.12473876
53	0x3d7cd2bd	0.061724413
54	0x3d66275a	0.056189872
55	0x3e25102e	0.16119453
56	0x3e0a68f7	0.13516603
57	0x3d030d44	0.031995073
58	0xbbbc5a38	-0.0057480596
59	0x3cae1607	0.021250738
60	0x3c73b8e7	0.014875627
61	0xbdf9837b	-0.12183281
62	0xbe2f7b7e	-0.17136952
63	0x3e0aea4b	0.13565938
64	0xbd9a1164	-0.07522848
65	0x3d550cf1	0.052014295
66	0x3e2b61e5	0.16736563
67	0x3d591260	0.05299604
68	0xbe7f60d6	-0.24939284
69	0xbd7391eb	-0.05946533
70	0x3e00e28a	0.12586418
71	0xbaf568af	-0.0018723215
72	0xbdbdba8c	-0.092640966
73	0x3de92f94	0.11386028
74	0x3da0721c	0.07834265
75	0xbd16096a	-0.03663007
76	0xbd8abe0b	-0.06774529
77	0x3caa3952	0.020779286
78	0xbde00727	-0.10938864
79	0xbe362abf	-0.17789744
80	0xbd92ae28	-0.07162124
81	0xbd72d8f5	-0.059288938
82	0x3d2bb6d5	0.04192241
83	0xbc5a62bd	-0.013329205
84	0x3d414065	0.047180552
85	0x3cfb494c	0.0306746
86	0x3d2ad56c	0.04170744
87	0xbdcda1cf	-0.10040628
88	0xbdb91c7d	-0.09038637
89	0xbd1ef5ae	-0.038808517
90	0x3cec5a2d	0.028851593
91	0xbe15dd29	-0.14635147
92	0xbc90bc15	-0.01766781
93	0xbd04923f	-0.032366034
94	0x3d895a0f	0.067066304
95	0x3d7b1819	0.06130228
96	0x3ddefa86	0.10887627
97	0x3e356173	0.17712955
98	0x3dad8ff7	0.08474725
99	0xbd993e6c	-0.07482609
100	0x3e41bbaa	0.18919244
101	0x3e117429	0.14204468
102	0x3a353c25	0.0006913564
103	0x3c06c316	0.008225223
104	0xbe3a601c	-0.18200725
105	0xbdba70bb	-0.09103533
106	0x3dd24971	0.10267914
107	0xbdb7ff00	-0.08984184
108	0xbd546a11	-0.051858965
109	0xbdf2dac7	-0.11858135
110	0xbdd5623b	-0.104191266
111	0x3dbcc96d	0.092181064
112	0x3d7eb20e	0.062181525
113	0xbcf289d6	-0.02960674
114	0xbe6f82bc	-0.23389715
115	0xbd5b7ca3	-0.05358566
116	0xbe1822a8	-0.1485697
117	0x3d188d9b	0.03724442
118	0x3c54b7b2	0.0129832495
119	0xba1fb5ea	-0.0006092476
120	0xbd9577be	-0.0729823
121	0xbe3ab766	-0.18234023
122	0xbd5ac05b	-0.0534061
123	0x3dc631d6	0.09677474
124	0x3dc77e73	0.09740915
125	0xbd860f05	-0.065458335
126	0x3dde49e9	0.10853941
127	0x3d2a4995	0.04157408
128	0x3e072d0d	0.1320078
129	0x3c923570	0.017847747
130	0xbd621734	-0.05519791
131	0xbdaabe34	-0.083370596
132	0xbc9334a3	-0.017969435
133	0xbe3758d7	-0.17904983
134	0xbe0db2c7	-0.1383773
135	0xbd3cf5b6	-0.046132766
136	0xbe27a544	-0.16371638
137	0x3b5e11a1	0.003388502
138	0x3a13f04f	0.0005643414
139	0xbd7010a0	-0.058609605
140	0xbd08cb24	-0.033396855
141	0xbd0e40ef	-0.034729894
142	0xbdf5fcc3	-0.12011101
143	0x3cb51124	0.0221029
144	0xbde814f3	-0.11332121
145	0x3e00f55d	0.12593599
146	0x3cc77ecb	0.024352452
147	0x3cb2e86f	0.021839349
148	0x3c2d8dbd	0.010592875
149	0x3d3f2927	0.046670105
150	0x3d70fc49	0.058834348
151	0xbdd7b852	-0.10533203
152	0xbde31623	-0.110882066
153	0xbd94afe1	-0.07260109
154	0xbda03cb9	-0.07824082
155	0xbd6d43bb	-0.05792592
156	0x3de2d619	0.11075992
157	0x3d28b60b	0.041189235
158	0xbda06774	-0.07832232
159	0x3d610764	0.05493869
160	0xbe116ddf	-0.14202069
161	0xbd255c0d	-0.04037099
162	0x3da9421f	0.08264565
163	0xbe297da9	-0.16551842
164	0xbd05cf1c	-0.032668218
165	0xbd465c82	-0.048428066
166	0xbd4f6ab1	-0.05063886
167	0xbe073f98	-0.13207853
168	0xbd8b6700	-0.06806755
169	0xbdbd5c29	-0.09246094
170	0xbd172200	-0.03689766
171	0xbd31997d	-0.04335927
172	0x3da115b0	0.07865465
173	0x3e0e048d	0.13868923
174	0xbde2f9c4	-0.11082795
175	0xbb42dcef	-0.0029733737
176	0x3e27770f	0.16354011
177	0x3dfd12f1	0.123571284
178	0xbe2440bc	-0.16040319
179	0xbe0015b2	-0.12508276
180	0x3c389706	0.011266476
181	0xbe1326ea	-0.14370313
182	0x3d95784b	0.07298335
183	0x3e0261de	0.12732646
184	0x3deac685	0.11463646
185	0x3ced24f0	0.028948277
186	0xbde1ad02	-0.11019327
187	0xbd2f5bc3	-0.04281212
188	0x3dabdc2e	0.08391605
189	0x3d660b31	0.056163017
190	0xbd23d489	-0.03999761
191	0x3ce7ec24	0.028310843
192	0xbd7adeec	-0.06124775
193	0x3e1f6de3	0.15569262
194	0xbddca469	-0.10773546
195	0x3e0d89ec	0.13822144
196	0x3cb843be	0.02249324
197	0x3c805228	0.015664175
198	0xbdda308a	-0.10653789
199	0x3c93f1a7	0.018059565
200	0x3d45e44a	0.048313417
201	0x3d75a4d1	0.059971634
202	0xbe33bdfc	-0.17552942
203	0x3d049ed2	0.032378025
204	0xbe219573	-0.15779667
205	0xbcce9ec1	-0.025222184
206	0xbd0a12ea	-0.033709444
207	0xbd9e38ae	-0.077256545
208	0x3e1bb0af	0.15204118
209	0xbdea2037	-0.11431926
210	0x3d365131	0.044511024
211	0x3d3ed852	0.046593018
212	0x3d7136e1	0.058890227
213	0xbdc5e471	-0.09662712
214	0x3bc5de4c	0.0060384627
215	0xbd58d2b8	-0.052935332
216	0xbc8ca48a	-0.017168302
217	0xbe2120b4	-0.15735132
218	0xbd488ecc	-0.048964307
219	0x3d27cb5f	0.040965434
220	0x3dd3eafd	0.10347555
221	0x3db8ec27	0.090294175
222	0xbe16d077	-0.1472796
223	0xbc496f86	-0.012294656
224	0xbdb2d4f8	-0.08732027
225	0x3d94c4c0	0.072640896
226	0xbe2593d9	-0.1616968
227	0x3d355397	0.04426917
228	0x3e1511f1	0.14557625
229	0x3da12525	0.07868413
230	0xbd231cdb	-0.03982244
231	0x3d90d8fd	0.07072637
232	0x3dbb01cf	0.09131204
233	0xbdf32527	-0.118723206
234	0x3d9118b2	0.070847884
235	0x3d583a2f	0.052789863
236	0xbdfdd9ad	-0.12395034
237	0xbe5ead30	-0.21745753
238	0x3d457c7a	0.048214413
239	0xbd4310a6	-0.0476233
240	0xbd81a9bb	-0.06331202
241	0xbe1f5196	-0.15558466
242	0xbe396108	-0.1810342
243	0x3cc3636a	0.023851115
244	0xbe20d55f	-0.15706395
245	0x3e1195b3	0.14217262
246	0xbd1475ad	-0.036245037
247	0x3c3f0ab0	0.011660263
248	0xbd4b9d25	-0.04971041
249	0x3cf5e4cb	0.030016324
250	0xbcb0bc89	-0.021574276
251	0xbc34c183	-0.011032465
252	0xbd77a8b0	-0.060463607
253	0x3e3ef222	0.18647054
254	0xbe046137	-0.1292771
255	0x3d78cea0	0.060743928

FC2.weight f4 [256, 256]
0	0xbe30bf7f	-0.1726055
1	0xbd961195	-0.07327572
2	0xbe83c742	-0.2573796
3	0xbe440a20	-0.19144487
4	0xbe851df0	-0.25999403
5	0xbd47821a	-0.04870806
6	0x3cffc342	0.031221036
7	0x3da6194f	0.08110296
8	0xbd232b00	-0.03983593
9	0x3d7b6a59	0.061380718
10	0x3dd87e70	0.10570991
11	0xbe0c9497	-0.13728558
12	0xbd2f08aa	-0.042732872
13	0x3bbf1dc0	0.005832404
14	0xbe5f68a7	-0.21817265
15	0xbe0c2663	-0.13686518
16	0x3e4701fe	0.19434354
17	0xbe196171	-0.14978577
18	0x3d0a4d20	0.03376496
19	0x3e2aed21	0.1669202
20	0xbe0b7ae1	-0.13621093
21	0x3dc5804a	0.0964361
22	0x3c03b658	0.00803908
23	0xbc7897e9	-0.015172937
24	0x3e38e80d	0.1805727
25	0x3c30ae0d	0.010783684
26	0x3d11edea	0.035627283
27	0xbd800c23	-0.06252315
28	0xbe640b16	-0.22269854
29	0xbd22f515	-0.03978451
30	0x3e3625d7	0.17787872
31	0x3d02ba46	0.031915925
32	0xbd4f843f	-0.05066323
33	0x3d68aaf6	0.056803666
34	0xbd1716cb	-0.03688697
35	0xbe17ba4f	-0.14817165
36	0xbceb7e4c	-0.028746746
37	0xbe31f770	-0.17379546
38	0xbddb3b77	-0.107047014
39	0xbcbb5c81	-0.022871258
40	0xbd508758	-0.050910324
41	0xbc896920	-0.01677376
42	0xbe352c76	-0.17692742
43	0x3dfcdfd7	0.123473816
44	0x3d13529e	0.03596746
45	0xbd43567d	-0.047689904
46	0x3c9772f0	0.018487424
47	0x3ddae2e1	0.10687805
48	0x3d47cc8b	0.04877905
49	0x3bc1a3f0	0.0059094355
50	0xbea0d82e	-0.31414932
51	0xbae6b16d	-0.0017600484
52	0xbd40cca0	-0.047070146
53	0x3e5143f1	0.20436074
54	0x3dbe3612	0.09287657
55	0x3da8af0e	0.08236514
56	0x3d217c6b	0.039425295
57	0xbdffe328	-0.124944985
58	0xbe4dd389	-0.20100226
59	0xbdfae59a	-0.12250824
60	0xbe3f8a53	-0.1870511
61	0xbd622a1e	-0.055215947
62	0xbd57ed1a	-0.052716352
63	0x3c061341	0.008183301
64	0xbe34fa79	-0.17673673
65	0xbd97915c	-0.07400772
66	0xbd5ced64	-0.05393733
67	0xbe96e139	-0.29468706
68	0xbc9b59d2	-0.018963728
69	0x3d08a5d9	0.03336129
70	0xbe825756	-0.25457257
71	0xbdfcd2d6	-0.12344901
72	0xbd6ae116	-0.057343565
73	0x3d104b8f	0.03522831
74	0xbe269828	-0.1626898
75	0x3e0a0314	0.13477737
76	0x3d5c66a0	0.05380881
77	0x3ce32ff9	0.027732836
78	0xbf15788f	-0.5838708
79	0x3e01daf6	0.12681183
80	0xbcf2cdf5	-0.029639224
81	0x3e52a64e	0.20571253
82	0x3d165b94	0.03670843
83	0xbd9caba7	-0.076499276
84	0x3d517bf5	0.051143605
85	0xbe1ae837	-0.15127645
86	0xbcdd3188	-0.027001157
87	0x3e463d39	0.19359292
88	0x3db7293b	0.08943411
89	0xbea59a11	-0.32344106
90	0xbd06b842	-0.032890566
91	0xbe1ca27c	-0.15296358
92	0x3d24c93d	0.04023098
93	0x3da5f80d	0.081039526
94	0xbda421a2	-0.080142274
95	0xbe1a91f2	-0.15094736
96	0xbc9c0122	-0.019043509
97	0x3d7a4a3b	0.061105948
98	0x3d2bcb57	0.041941967
99	0x3d4e88ce	0.050423436
100	0xbdef43ce	-0.116828546
101	0xbe3dd06f	-0.18536542
102	0xbd3c34b8	-0.045948714
103	0x3a460433	0.00075537263
104	0xbe140ef6	-0.14458832
105	0xbe0cd53b	-0.13753216
106	0xbd51ace3	-0.05119027
107	0xbe47f358	-0.19526422
108	0xbe86b58c	-0.26310384
109	0xbd3d0729	-0.046149407
110	0xbd7f2d5b	-0.062299114
111	0xbd65447e	-0.055973522
112	0x3b77c057	0.0037803852
113	0xbe7f22e2	-0.2491565
114	0x3d548944	0.05188872
115	0x3bb725c4	0.005589219
116	0xbd52406e	-0.051330976
117	0xbc938654	-0.018008389
118	0xbd93bed3	-0.07214131
119	0x3e391902	0.18075946
120	0xbbbf8d1c	-0.005845679
121	0xbcade714	-0.02122835
122	0xbe5d2d2d	-0.21599264
123	0xbdb306c7	-0.08741527
124	0x3d7de255	0.061983425
125	0x3cd21cfa	0.025648583
126	0xbd2b1f6a	-0.041778006
127	0xbe325b1e	-0.17417571
128	0x3c4f880c	0.012666713
129	0x3e35ad3d	0.17741866
130	0xbda0461b	-0.078258716
131	0xbd751b41	-0.059840444
132	0x3d978c5d	0.07399819
133	0x3cda84d5	0.026674667
134	0xbe47e9e2	-0.19522813
135	0x3d4ca237	0.049959388
136	0xbdf6e43e	-0.120552525
137	0x3d286bed	0.04111855
138	0xbc950994	-0.018193044
139	0xbdf3d837	-0.11906474
140	0x3daf02f8	0.08545488
141	0xbd960c03	-0.0732651
142	0xbea93914	-0.3305136
143	0x3c7a832f	0.015290066
144	0xbe02c97d	-0.12772174
145	0xbcd74db0	-0.026282161
146	0x3c50a3f2	0.0127344
147	0xbe627393	-0.221144
148	0xbda00b03	-0.078146
149	0xbe31fd08	-0.1738168
150	0xbdbdca5a	-0.09267111
151	0xbc8e8359	-0.017396616
152	0x3cfcd33c	0.030862443
153	0xbcf28e80	-0.029608965
154	0xbe099878	-0.13437068
155	0xbd77986f	-0.060448106
156	0xbdd0b042	-0.101898685
157	0xbe0a5a42	-0.13510993
158	0xbdcac40f	-0.099006765
159	0xbed12fb9	-0.40856722
160	0x3d235c0c	0.039882705
161	0xbd068a9a	-0.032847025
162	0xbe434c3e	-0.19072053
163	0x3bd55c98	0.006511282
164	0xbd5c8cb1	-0.05384511
165	0xbdc48db7	-0.095973425
166	0xbeed992c	-0.46405923
167	0xbda5fd8e	-0.08105002
168	0x3d977153	0.07394662
169	0x3c56d95e	0.013113348
170	0x3c657538	0.014004998
171	0xbdacc099	-0.084351726
172	0xbec7ea12	-0.3904577
173	0x3e44c189	0.19214453
174	0xbdb46109	-0.088075705
175	0x3deddb3e	0.11614083
176	0x3e9defc8	0.30847
177	0x3c8731b0	0.016503185
178	0x3d754ebd	0.059889544
179	0x3bbeba60	0.0058205575
180	0xbd11c211	-0.035585467
181	0xbe2a51d5	-0.16632779
182	0xbdaab927	-0.08336096
183	0xbd1df62c	-0.038564846
184	0xbe3c91c7	-0.18414985
185	0xbd3f5a22	-0.046716817
186	0x3e2240ad	0.15844984
187	0xbe1daf1f	-0.15398835
188	0x3ea15344	0.3150884
189	0xbd7b27a1	-0.06131709
190	0xb840c800	-4.596263e-05
191	0x3dbda696	0.09260289
192	0xbe14a4dc	-0.14516014
193	0xbe61a076	-0.22033867
194	0xbcfa64df	-0.030565677
195	0xbd88c1f4	-0.066776186
196	0xbd4aefec	-0.049545214
197	0xbe74800b	-0.2387697
198	0xbe632af7	-0.22184359
199	0xbe03b1ce	-0.12860796
200	0x3d34adec	0.044111177
201	0x3e07f6fb	0.1327781
202	0xbcc6376f	-0.024196355
203	0xbd91dd39	-0.07122273
204	0xbd28b047	-0.041183736
205	0xbd4c9c7e	-0.04995393
206	0x3d21c4d3	0.039494347
207	0x3d99fc25	0.07518796
208	0x3c4c80f9	0.012481921
209	0xbd9d1284	-0.07669547
210	0xbddb9a74	-0.10722819
211	0x3c82761e	0.015925463
212	0x3dd893ab	0.105750404
213	0x3d7d0bad	0.061778713
214	0xbd52e4bd	-0.051487673
215	0xbdd4a695	-0.103833355
216	0xbd723604	-0.059133545
217	0x3dd8ec16	0.10591905
218	0x3ce13ca4	0.027494736
219	0x3d0ba88c	0.034096286
220	0x3dfa9f85	0.12237457
221	0xbb3b9afc	-0.0028626313
222	0x3be9f70c	0.007140046
223	0x3e667a9b	0.22507708
224	0x3d6ccf6b	0.057814997
225	0x3c87ef12	0.01659349
226	0xbda8316d	-0.08212552
227	0x3d23d8fd	0.040001858
228	0x3da1aa61	0.07893825
229	0x3c9a0733	0.018802261
230	0xbd1cf3b5	-0.038318355
231	0xbdacf9bc	-0.084460706
232	0xbd7d5195	-0.06184538
233	0x3d8d50be	0.06900166
234	0xbd9ed7fb	-0.07756039
235	0xbdd760c7	-0.10516506
236	0xbeb7ec3c	-0.3592242
237	0xbe274dd7	-0.16338287
238	0x3d6aaeca	0.057295598
239	0xbd274048	-0.040832788
240	0xbeac1128	-0.3360684
241	0xbe051d33	-0.1299942
242	0xbd233ae6	-0.03985109
243	0x3d82b7cf	0.06382715
244	0xbd95760a	-0.07297905
245	0x3d5f2297	0.054476347
246	0xbdb23917	-0.08702295
247	0x3d24c0b4	0.04022284
248	0xbe4cd4f4	-0.2000311
249	0x3d0c89de	0.034311168
250	0xbd98e439	-0.07465405
251	0x3bc0f0a7	0.005888063
252	0xbe690870	-0.22757125
253	0x3dfbbae9	0.1229151
254	0x3d42f4e5	0.04759683
255	0x3cb7f730	0.022456735

FC2.bias f4 [256]
0	0xbd602a5b	-0.054727893
1	0x3d97fa1e	0.07420753
2	0x3da8be60	0.08239436
3	0x3d9a094e	0.07521306
4	0x3c3c5671	0.011495219
5	0xbd9b0841	-0.07569934
6	0xbd5c929c	-0.053850755
7	0xbd804598	-0.06263274
8	0xbcdc48a3	-0.026890105
9	0xbca95529	-0.02067049
10	0xbcf13420	-0.0294438
11	0x3d20a148	0.03921631
12	0x3d8d10b7	0.06887954
13	0x3e0d1d81	0.13780786
14	0x3d5676f5	0.05235954
15	0xbc191511	-0.0093434015
16	0xbd1064f7	-0.035252538
17	0xbcc562d0	-0.024094969
18	0xbd277abc	-0.040888533
19	0x3dd7c978	0.10536474
20	0x3d3b91e2	0.04579342
21	0x3d549d1a	0.051907636
22	0x3c0c9a98	0.00858178
23	0x3c14b261	0.009075732
24	0x3d8b753b	0.06809469
25	0x3c58bfb0	0.013229296
26	0x3de85406	0.11344151
27	0xbd3f8fbe	-0.046767943
28	0xbb8f50d8	-0.004373651
29	0xbdcd433b	-0.10022589
30	0x3d1c6f11	0.03819186
31	0x3ce24ee3	0.027625507
32	0x3b0828a5	0.002077618
33	0x3d7a7813	0.061149668
34	0x3c0b1757	0.008489451
35	0x3d330143	0.043702375
36	0xbd13f6d3	-0.03612406
37	0x3cc10f30	0.023566812
38	0x3d82fe49	0.06396157
39	0xbd3335b0	-0.043752372
40	0x3bb1b859	0.0054235873
41	0x3cc3ae90	0.023886949
42	0xbd063470	-0.032764852
43	0xbd26b29d	-0.040697683
44	0x3cb408ff	0.021976946
45	0x3c181572	0.009282457
46	0xbda35efc	-0.07977101
47	0xbd2d9669	-0.04237977
48	0xbd1d3f34	-0.038390353
49	0xbd3a3324	-0.045458928
50	0x3d7cb4fc	0.061696038
51	0x3d270e76	0.040785275
52	0x3d9b8139	0.07593007
53	0x3c6539c1	0.01399082
54	0x3de8ff95	0.113768734
55	0xbda048a3	-0.07826354
56	0x3d6dbbe4	0.058040515
57	0x3dbe0f55	0.09280268
58	0x3cc7e66e	0.02440187
59	0x3d98722b	0.07443651
60	0xbcdff597	-0.027338786
61	0xba63d302	-0.00086908054
62	0x3d5b3b24	0.053523198
63	0xbd25fe54	-0.04052575
64	0x3d1c5020	0.03816235
65	0x3c91adfa	0.017783154
66	0x3d440baa	0.047862686
67	0x3d894cf2	0.06704129
68	0xbd506bf8	-0.050884217
69	0xbc540298	-0.0129400715
70	0xbdab03e8	-0.083503544
71	0x3dce5274	0.100743204
72	0x3c9b4c4a	0.018957276
73	0x3dbba788	0.091628134
74	0x3da5926c	0.080845684
75	0x3bbd45a6	0.005776125
76	0xbd1bcc73	-0.038036775
77	0x3da07aba	0.07835908
78	0x3b3d5a0c	0.0028892783
79	0x3d2fe55c	0.042943344
80	0xbc7bc212	-0.015366094
81	0xbc1e3dd9	-0.0096583
82	0xbd8eb6a0	-0.06968427
83	0x3d8b7927	0.06810217
84	0xbc754b4b	-0.0149715645
85	0xbd702006	-0.05862429
86	0xbbf97998	-0.007613372
87	0x3d1a59b6	0.03768321
88	0x3da26dd8	0.07931107
89	0x3dc9dba2	0.09856345
90	0x3dce2987	0.100665145
91	0xbcfe0440	-0.031007886
92	0xbd8fdfc9	-0.070251055
93	0xbda440e7	-0.08020192
94	0xbd424856	-0.047432266
95	0x3d09d8a1	0.03365386
96	0x3cc85c3a	0.02445804
97	0x3da194cd	0.078897096
98	0xba8c9ea1	-0.0010728427
99	0x3d6df949	0.058099065
100	0xbd5aaa62	-0.053385146
101	0xbcf1b33b	-0.029504409
102	0xbcd708d4	-0.026249327
103	0x3bb52072	0.0055275494
104	0x3da63c65	0.08116988
105	0x3be75c54	0.007060567
106	0x3db50d0c	0.08840379
107	0x3c58cb5a	0.013232077
108	0xbcb9e14b	-0.022690436
109	0xbaf08e08	-0.0018352875
110	0xbbc07fb7	-0.0058746
111	0xbd5192ca	-0.05116538
112	0xbd234183	-0.0398574
113	0x3dc86eb1	0.09786738
114	0xbccfd334	-0.025369264
115	0xbdc746bd	-0.09730289
116	0x3d230e16	0.039808355
117	0xbd4b7e4d	-0.049680997
118	0x3d18892c	0.037240192
119	0x3ad7bd17	0.0016459551
120	0xbc6110da	-0.013736928
121	0xbd83006a	-0.06396563
122	0xbbb81b38	-0.005618479
123	0x3d86b49f	0.065774195
124	0xbc3f501d	-0.011676815
125	0xbd348ab2	-0.044077583
126	0xba8fbd85	-0.0010966515
127	0xbd56c72d	-0.052436043
128	0xbd99ecce	-0.0751587
129	0xbd043f1a	-0.03228674
130	0xbd2db25e	-0.042406432
131	0x3ddfd298	0.109288394
132	0xbd62e5f5	-0.055395085
133	0x3d1db78d	0.038505126
134	0x3cf9ee5d	0.030509168
135	0xbb5b63bc	-0.0033476194
136	0x3d9dcfdb	0.07705661
137	0x3ca0a126	0.019608092
138	0xbd4e93a6	-0.050433777
139	0x3cd4d705	0.025981436
140	0x3d4b0efd	0.04957484
141	0xbd09c4aa	-0.03363482
142	0x3c1ff093	0.009761947
143	0xbbdfb3ea	-0.0068268673
144	0x3aeb2159	0.0017939016
145	0x3db9d01a	0.09072895
146	0xbcd15894	-0.025554933
147	0xbd264f75	-0.04060312
148	0x3ccc2047	0.024917735
149	0xbd282f78	-0.041060895
150	0xbd6ea1b2	-0.058259673
151	0x3cebb5ad	0.028773153
152	0xbd4ab866	-0.049492262
153	0x3c825c43	0.015913134
154	0xbd22f0b9	-0.039780352
155	0x3d263aaf	0.04058331
156	0xbd48d03d	-0.049026717
157	0x3d4d822b	0.050172966
158	0x3d7a8854	0.06116517
159	0xbcd3df95	-0.025863448
160	0xbd9fb0e9	-0.07797415
161	0x3da78ab0	0.081807494
162	0x3cb43c84	0.022001512
163	0xbd377585	-0.04478981
164	0x3da6bc6e	0.08141409
165	0x3b925122	0.004465238
166	0xbac4c539	-0.001501239
167	0x3d7669fa	0.06015966
168	0x3cc12b92	0.023580346
169	0x3c814c78	0.015783533
170	0x3d8a862f	0.06763875
171	0x3b364157	0.0027809942
172	0x3e059598	0.13045347
173	0xbcb9d66b	-0.02268525
174	0x3e123d02	0.14281085
175	0xbda602d3	-0.081060074
176	0x3a94a447	0.0011340462
177	0xbd8a8fc4	-0.06765702
178	0xbc15e186	-0.009148007
179	0x3cd66c78	0.026174769
180	0xbd4fe756	-0.05075773
181	0x3c59dad5	0.0132968025
182	0xbd50a617	-0.050939646
183	0x3c88c22d	0.016694153
184	0x3e039d19	0.12852897
185	0x3a4f206a	0.00079012534
186	0x3dc1bc17	0.094597034
187	0xbd619a99	-0.055079076
188	0x3ca4fd36	0.020140272
189	0x3dc9f447	0.09861045
190	0x3da30998	0.07960814
191	0x3c446778	0.0119875595
192	0xbd50f95f	-0.05101907
193	0x3d672635	0.05643292
194	0x3c5d0d03	0.013491872
195	0xbc04e448	-0.008111067
196	0x3d948044	0.07251027
197	0x3dd3f236	0.103489324
198	0x3c8a71e5	0.016900012
199	0xbd8a8479	-0.067635484
200	0x3d912931	0.07087935
201	0x3d79fea8	0.061033875
202	0x3d26439d	0.040591825
203	0xbb8703a2	-0.004120306
204	0xbb8cdf70	-0.0042990968
205	0xbcd542e5	-0.026032874
206	0x3cba5a43	0.022748118
207	0x3d5eed5a	0.054425575
208	0x3cdb1826	0.026744913
209	0x3dd4143c	0.10355422
210	0x3d5cfc80	0.05395174
211	0x3d18ef46	0.037337564
212	0x3e0a2bfc	0.13493341
213	0x3e13db13	0.14439039
214	0xbcb6b7a4	-0.022304364
215	0x3d9e02b5	0.0771536
216	0xbd700e88	-0.058607608
217	0x3d3509c4	0.044198766
218	0x3c25e1e4	0.010124657
219	0x3e01d532	0.12678984
220	0x3dd8e059	0.10589666
221	0xbd6057c3	-0.054771196
222	0xbd95a6d5	-0.07307211
223	0x3c6260ad	0.013816995
224	0xbb4a1c35	-0.0030839567
225	0x3d97210d	0.07379351
226	0x3c659cde	0.014014451
227	0x3d9503c8	0.07276112
228	0xbb81b716	-0.003958593
229	0xbd53a013	-0.05166633
230	0x3dcc3954	0.09971872
231	0xbd55b3ab	-0.052173298
232	0xbddc4de6	-0.107570454
233	0x3bfe3fb3	0.0077590584
234	0x3ca06bab	0.01958259
235	0x3afa35b8	0.0019089496
236	0x3bda344b	0.006659066
237	0x3d15ec73	0.03660245
238	0xbd0f4b24	-0.03498377
239	0x3dab8de8	0.08376676
240	0x3d81f51a	0.063455775
241	0xbc82057e	-0.01587176
242	0xbd9392d2	-0.07205738
243	0x3d92186e	0.07133566
244	0xbcf8c28a	-0.030366201
245	0x3c05cb18	0.008166097
246	0x3d8b6b8d	0.06807623
247	0xbb0601fb	-0.0020447958
248	0x3bdf2559	0.006809872
249	0xbd3ca1c0	-0.046052694
250	0xbd51ada3	-0.051190984
251	0x3da7eace	0.08199082
252	0xbda06931	-0.07832564
253	0x3ce2cf81	0.027686836
254	0x3d65c984	0.056100383
255	0x3cfde7bb	0.030994287

action_out.weight f4 [5, 256]
0	0x3c04e714	0.008111734
1	0xbd952947	-0.07283264
2	0xbd1e3087	-0.038620498
3	0xbdfd1153	-0.1235682
4	0xbe17d91e	-0.14828917
5	0xbd6a9f0f	-0.057280596
6	0xbd0665ad	-0.03281181
7	0xbc145448	-0.009053297
8	0xbd4dc2ce	-0.05023461
9	0xbe2d8ae7	-0.16947518
10	0xb9befef3	-0.00036429576
11	0xbdc58426	-0.09644346
12	0xbe1538c9	-0.14572443
13	0xbe395e1a	-0.18102303
14	0xbe3fefab	-0.1874377
15	0xbd90d91c	-0.0707266
16	0x3c97e70b	0.018542787
17	0xba3e8e51	-0.00072691316
18	0xbd308cde	-0.04310309
19	0x3c88b20b	0.01668646
20	0xbd920988	-0.07130724
21	0xbda0a875	-0.07844631
22	0x3a961a01	0.0011451842
23	0xbd96528e	-0.07339965
24	0xbe5d811d	-0.21631284
25	0xbd4ec319	-0.05047903
26	0xbe0cf976	-0.13767037
27	0x3c47e0ae	0.012199564
28	0xbd8bb8b6	-0.0682234
29	0xbed46ec3	-0.41490754
30	0xbd6c8ff9	-0.05775449
31	0xbd60c8ed	-0.054879118
32	0xbf90b5a1	-1.1305429
33	0xbdf198c9	-0.117967196
34	0xbde203b3	-0.11035862
35	0xbd8a1cf5	-0.06743804
36	0x3c6262a5	0.013817464
37	0xbdeaaa04	-0.11458209
38	0xbdebba48	-0.1151014
39	0xbe8cbbce	-0.27487034
40	0xbe3c33de	-0.18379161
41	0xbc874f17	-0.016517205
42	0xbc8c85a2	-0.017153565
43	0xbdcb50f3	-0.09927549
44	0xbf06444d	-0.5244797
45	0xbd8ddb14	-0.069265515
46	0xbd620884	-0.055183902
47	0x3c2f67d5	0.010705908
48	0x3d43331c	0.047656164
49	0xbb238835	-0.0024953012
50	0xbdf6ffa2	-0.12060477
51	0xbdc5b118	-0.096529186
52	0xbdbcb86a	-0.09214862
53	0x3d2b1617	0.041769113
54	0xbef816cf	-0.48454902
55	0x3d568cf4	0.052380517
56	0xbd48d5a7	-0.04903188
57	0xbdbaf08f	-0.09127914
58	0xbec801ad	-0.3906378
59	0xbdaaf92e	-0.083483085
60	0xbd7bf468	-0.06151238
61	0xbd52f329	-0.051501427
62	0xbe3f44c6	-0.18678579
63	0xbd1b6d90	-0.037946284
64	0x3ce53c3a	0.02798282
65	0x3d198712	0.03748233
66	0xbe2d192d	-0.16904135
67	0xbe375767	-0.17904435
68	0x3d090132	0.033448406
69	0xbd499da9	-0.049222622
70	0x3c23b253	0.009991246
71	0xbe35f974	-0.1777094
72	0xbdd4665e	-0.103710875
73	0xbe131bb5	-0.14366038
74	0xbd7276ae	-0.059195213
75	0xbd964daf	-0.07339036
76	0x3c94f159	0.01818149
77	0xbcceb6b6	-0.025233608
78	0xbe1bf525	-0.15230234
79	0xbd88d4f7	-0.06681245
80	0xbd49d60d	-0.0492764
81	0x3d0afa3b	0.033930045
82	0x3b923833	0.004462266
83	0xbe952f5e	-0.291377
84	0xbdc75d71	-0.097346194
85	0xbd313828	-0.043266445
86	0xbdba31e7	-0.09091549
87	0xbdec3725	-0.115339555
88	0xbdecaf81	-0.11556912
89	0xbe4b9477	-0.19880854
90	0xbc5a6a63	-0.013331029
91	0x3d674f91	0.056472365
92	0x3d216e24	0.03941168
93	0x3aab2abb	0.0013058999
94	0xbcdcd3f2	-0.026956532
95	0xbd562786	-0.052283786
96	0xbe62ff60	-0.2216773
97	0xbdadc9b9	-0.08485741
98	0x3ad6c6eb	0.0016386186
99	0xbf071e12	-0.5278026
100	0xbdb10f17	-0.08645456
101	0xbc8b1e27	-0.016982151
102	0xbe221070	-0.15826583
103	0x3d249a73	0.040186357
104	0xbe729fad	-0.23693724
105	0xbd23e0ad	-0.04000919
106	0xbd807da2	-0.062739626
107	0xbdcb9911	-0.099413045
108	0xbe73d16a	-0.23810354
109	0xbe6d70f9	-0.23187627
110	0xbdcb577b	-0.09928795
111	0x3d0d0b14	0.034434393
112	0x3d561b31	0.052272025
113	0xbe628854	-0.22122318
114	0xbd9bcefb	-0.07607838
115	0xbd2df492	-0.04246957
116	0xbdb3b1d9	-0.08774156
117	0xbccb1619	-0.02479081
118	0xbde02d7c	-0.109461755
119	0xbc27ecc0	-0.010249317
120	0xbdd4f47b	-0.103981934
121	0x3c8db76c	0.017299376
122	0xbdb83931	-0.089952834
123	0xbd827834	-0.06370583
124	0xbd2232e0	-0.0395993
125	0x3d3f1e86	0.04665997
126	0xbe962d5b	-0.29331478
127	0x3d47394a	0.04863862
128	0xbd7672df	-0.060168143
129	0xbdacea05	-0.08443073
130	0xbdf2666d	-0.118359424
131	0xbd8854c9	-0.066567965
132	0xbcc8fa63	-0.024533456
133	0xbd9e5e71	-0.07732857
134	0xbdbc0902	-0.091814056
135	0xbd7f2c79	-0.06229827
136	0xbdba2113	-0.0908834
137	0xbde77c9e	-0.11303066
138	0xbce119ba	-0.027478088
139	0xbd2251ba	-0.03962872
140	0xbd60f37e	-0.054919712
141	0x3bea1db9	0.0071446565
142	0xbdbd0579	-0.092295595
143	0xbde7dc1a	-0.11321278
144	0xbe0a365d	-0.134973
145	0xbe0256d0	-0.12728429
146	0xbd9c6754	-0.07636896
147	0x3bcdd744	0.006281765
148	0xbe822921	-0.25422004
149	0xbd5cef4b	-0.053939145
150	0xbc910cd8	-0.01770632
151	0xbcb47f9c	-0.022033505
152	0x3cf9e6fb	0.030505648
153	0xbb6716f1	-0.0035261477
154	0x3ca1ad9b	0.019736102
155	0xbdeb9788	-0.11503512
156	0x3c5b0337	0.013367466
157	0xbe0e6332	-0.13905028
158	0xbe0728ae	-0.13199112
159	0x3d2221ba	0.039582945
160	0xbd518345	-0.05115058
161	0x3ba39c8c	0.004993027
162	0xbdd9bc0e	-0.10631572
163	0xbe61cc97	-0.22050701
164	0xbd947a67	-0.07249909
165	0xbd2650eb	-0.040604513
166	0xbd923eaf	-0.07140862
167	0xbd9ff50d	-0.078104116
168	0x3be0edda	0.0068642916
169	0xbd24ca6d	-0.04023211
170	0xbdcc0efd	-0.09963796
171	0xbdb1b058	-0.08676213
172	0xbd6ec0f3	-0.05828948
173	0xbdd891dc	-0.105746955
174	0xbe2622ff	-0.16224287
175	0xbdec4993	-0.11537471
176	0x3c24952c	0.010045331
177	0x3b6d06ac	0.0036167307
178	0xbd91a3d3	-0.07111325
179	0xbc82493a	-0.015904058
180	0xbdbdbc97	-0.09264486
181	0xbd44b677	-0.048025575
182	0xbdf5080e	-0.11964427
183	0xbd838295	-0.06421391
184	0xbe1e6801	-0.15469362
185	0xbca496f1	-0.020091506
186	0xbdd3527f	-0.10318469
187	0xbd542350	-0.05179149
188	0xbd255b87	-0.04037049
189	0xbe1bf4cf	-0.15230106
190	0xbe7d7613	-0.24752073
191	0xbe450587	-0.1924039
192	0x3bcbedee	0.006223432
193	0xbd6713ff	-0.056415554
194	0xbd01b73b	-0.031668883
195	0x3c59f343	0.013302627
196	0xbe9fbfbe	-0.31200975
197	0xbe3e32ca	-0.18574062
198	0xbe082b48	-0.1329776
199	0xbd07c9c3	-0.0331514
200	0xbeac2546	-0.33622187
201	0xbd77394f	-0.060357388
202	0xbe0a51f2	-0.13507822
203	0xbdfbf12d	-0.1230186
204	0xbf0165b0	-0.5054579
205	0x3b95fda7	0.004577357
206	0xbd7a4e01	-0.061109547
207	0xbd79b2ca	-0.060961522
208	0xbe0ad4e0	-0.13557768
209	0xbe5afa6c	-0.21384591
210	0xbda882af	-0.08228051
211	0xbd9b2a9a	-0.07576485
212	0xbe3c7393	-0.18403463
213	0xbe0d029b	-0.13770525
214	0x3d14d22c	0.036333248
215	0xbe6b72ec	-0.22993058
216	0xbd1bb409	-0.03801349
217	0x3ba16ed3	0.0049265414
218	0xbe6431db	-0.22284643
219	0xbe4bf032	-0.19915846
220	0xbe4e6a1e	-0.20157668
221	0xbda769a9	-0.0817445
222	0xbce0718e	-0.027397897
223	0x3d53b526	0.05168643
224	0xbe27d1a0	-0.1638856
225	0xbd97c3f3	-0.07410421
226	0xbe1a6adb	-0.15079825
227	0xbdc7ca98	-0.097554386
228	0x3c94458b	0.018099567
229	0xbd468335	-0.048464973
230	0xbdc4c17f	-0.09607219
231	0xbd8f30fd	-0.06991766
232	0xbd346c7a	-0.044048764
233	0xbe280388	-0.16407597
234	0x3b354d4e	0.0027664485
235	0x3d4b743c	0.049671397
236	0xbd9a2435	-0.07526437
237	0xbdeb9e57	-0.1150481
238	0xbdd3d26a	-0.10342868
239	0xbd1d8901	-0.038460735
240	0xbe03a36b	-0.12855308
241	0xbf850b99	-1.0394164
242	0xbc8e629c	-0.017381005
243	0xbdd75da0	-0.105159044
244	0x3c890880	0.016727686
245	0xbd213ebf	-0.03936648
246	0xbdd48e8c	-0.10378751
247	0xbd96849e	-0.073495135
248	0xbd095014	-0.033523634
249	0x3d4d4b44	0.050120607
250	0xbd94c120	-0.07263398
251	0xbd7e9709	-0.062155757
252	0xbe80bc20	-0.25143528
253	0xbddea40e	-0.10871135
254	0xbd93347c	-0.07187745
255	0xbf2d41b3	-0.67678374

action_out.bias f4 [5]
0	0xbc865cc6	-0.01640166
1	0x3da45f1e	0.08025955
2	0x3d1b91fb	0.037981015
3	0x3d03010b	0.031983417
4	0xbe0640c5	-0.13110645

weight f4 [256, 123]
0	0x3cf5cd56	0.030005138
1	0xbdc442dc	-0.09583065
2	0x3d8e7c97	0.069573574
3	0xbd018484	-0.031620517
4	0x3da3ffea	0.08007796
5	0xbe2ad72e	-0.16683647
6	0x3d18dda2	0.03732074
7	0xbd6b56cc	-0.057455823
8	0xbdc44e5f	-0.095852606
9	0x3d48d726	0.049033307
10	0xbcc0fa68	-0.023556903
11	0x3bd216e3	0.0064114197
12	0xbe011768	-0.12606585
13	0xbcb6bfd2	-0.022308264
14	0x3d032be3	0.032024276
15	0xbdd4f3c1	-0.10398055
16	0xbd3761d8	-0.044771045
17	0x3d03918f	0.032121237
18	0x3dc0e2cc	0.09418258
19	0x3b939ac4	0.0045045335
20	0xbca24bfe	-0.019811627
21	0xbc2cb75f	-0.010541766
22	0x3ccf034d	0.025270129
23	0x3ca6310f	0.020287065
24	0x3ce315c6	0.027720343
25	0xbd40ca6e	-0.047068052
26	0x3ddaa4ef	0.1067599
27	0xbcb3260e	-0.021868732
28	0x3d1ee9d1	0.038797203
29	0xbdc12b09	-0.094320364
30	0xbd8e86db	-0.069593154
31	0x3d16ff43	0.03686453
32	0x3c1a6406	0.0094232615
33	0xbd961654	-0.073284775
34	0x3cce67f0	0.025196046
35	0xbd922c4f	-0.071373574
36	0x3d4a594e	0.049401574
37	0xbc70f47b	-0.014706726
38	0xbd70418f	-0.05865627
39	0x3bcf4def	0.006326429
40	0x3d659c7b	0.056057435
41	0xbe7c6469	-0.24647678
42	0x3d83ccc3	0.064355396
43	0xbbe67230	-0.007032655
44	0xbe4aa440	-0.19789219
45	0xbcd372b8	-0.025811538
46	0xbdbe4b74	-0.09291735
47	0xbd93090c	-0.0717946
48	0xbc928efd	-0.017890448
49	0xbe265ba9	-0.16245903
50	0xbd97abe5	-0.07405833
51	0x3c9ee27f	0.019395111
52	0xbd4a8553	-0.049443554
53	0x3d8cf331	0.068823226
54	0xbd2372a5	-0.039904255
55	0x3d3f8c29	0.046764527
56	0xbd7e30f3	-0.0620584
57	0x3d7d4186	0.061830066
58	0xbc8d64fa	-0.017260063
59	0xbd7f5509	-0.062336955
60	0xbdbe8702	-0.093030944
61	0xbdcf5c36	-0.1012501
62	0xbd3fab90	-0.046794474
63	0xbae01ed5	-0.0017099032
64	0x3d91b062	0.071137205
65	0xbd3330c5	-0.043747682
66	0xbca18cef	-0.019720523
67	0xbc7fb974	-0.01560818
68	0xbd9b56fc	-0.0758495
69	0xbdaa6e59	-0.083218284
70	0x3db5a67f	0.08869647
71	0x3dc4a2fa	0.09601398
72	0x3c8c9fdf	0.017166076
73	0xbdc82946	-0.09773497
74	0xbe034c11	-0.12821986
75	0x3d099946	0.03359344
76	0xbdafde02	-0.085872665
77	0xbe534889	-0.20633139
78	0xbd1951b4	-0.037431434
79	0xbbf01042	-0.007326157
80	0xbd8010fa	-0.06253238
81	0x3db7d586	0.08976273
82	0x3b1fba67	0.002437258
83	0x3c2b993f	0.010473548
84	0xbcdb4b35	-0.02676926
85	0xbdc6197c	-0.096728295
86	0xbdb1ad41	-0.08675624
87	0x3d054d29	0.03254429
88	0x3d3d1e98	0.046171755
89	0x3dedf582	0.116190925
90	0x3ce8ab0d	0.028401876
91	0xbdbd0095	-0.09228627
92	0xbbd61a1d	-0.0065338747
93	0xbd854209	-0.06506736
94	0xbc89ddd2	-0.016829405
95	0xbdb29388	-0.087195456
96	0xbbf700f5	-0.007537956
97	0xbcb88c40	-0.022527814
98	0xbc8ed7d4	-0.0174369
99	0xbd9e9514	-0.07743278
100	0xbdf4d9a7	-0.119555764
101	0xbd22ef29	-0.039778862
102	0x3d875fd9	0.06610078
103	0x3c814c7b	0.015783539
104	0xbdae6a15	-0.08516327
105	0x3d45224e	0.04812842
106	0xbd2c0d7b	-0.042005043
107	0x3da4b0dd	0.080415465
108	0xbe0e8e48	-0.13921463
109	0xbd88cc32	-0.06679572
110	0xbdede3ed	-0.11615739
111	0xbc9f3a31	-0.019436928
112	0xbe3abe97	-0.18236767
113	0xbe2b7337	-0.1674317
114	0xbdddfb40	-0.10838938
115	0x3dbc4958	0.09193677
116	0xbe0394a7	-0.12849675
117	0x3d774836	0.0603716
118	0x3d4e5101	0.05037022
119	0xbd865c6a	-0.06560595
120	0xbd97cb5a	-0.07411833
121	0xbd8f98b2	-0.07011546
122	0xbd74653d	-0.05966686
123	0xbcceb57a	-0.02523302
124	0xbdb56c46	-0.08858542
125	0xbd8cab73	-0.06868639
126	0xbd01bb58	-0.031672806
127	0xbd9f177d	-0.07768152
128	0x3d81f201	0.06344987
129	0xbcab9af8	-0.020947918
130	0xbcd672cd	-0.026177788
131	0x3d425ae2	0.047449954
132	0xbc870c28	-0.016485289
133	0xbd94aad5	-0.07259146
134	0x3c8f295f	0.017475782
135	0x39b70191	0.00034905647
136	0xbc782ad8	-0.0151469335
137	0xbd8f8ce6	-0.07009296
138	0xbdfad9dd	-0.122485854
139	0x3d206729	0.03916088
140	0x3dad7787	0.08470064
141	0xbd197dfb	-0.03747366
142	0xbd11aa67	-0.0355629
143	0xbd51558b	-0.05110697
144	0xbc1773a8	-0.009243883
145	0xbd178417	-0.036991205
146	0x3c68a462	0.014199348
147	0x3cb79317	0.022409005
148	0xbdc6c4a4	-0.09705475
149	0x3d886080	0.06659031
150	0xbd1c36ac	-0.038138077
151	0xbdcf864b	-0.10133036
152	0xbdb172eb	-0.08664497
153	0xbc6e5993	-0.014547723
154	0x3d437b62	0.04772509
155	0xbc9b153f	-0.01893103
156	0xbc3f3868	-0.011671163
157	0xbcb349ac	-0.021885715
158	0x3d73850a	0.059453048
159	0xbda8bf2a	-0.08239587
160	0xbda2f0fd	-0.07956121
161	0xbc8e4f2e	-0.01737174
162	0x3b8ab89e	0.004233434
163	0xbd0cc54b	-0.03436784
164	0x3d8665e5	0.065624036
165	0x3da3a6f9	0.07990832
166	0x3c820bbf	0.015874742
167	0xbc40750c	-0.011746656
168	0xbd745a7e	-0.059656613
169	0x3dab32ea	0.083593205
170	0xbcbe659c	-0.02324181
171	0xbd586607	-0.052831676
172	0xbd54084c	-0.051765725
173	0x3d0e6dee	0.034772806
174	0xbbb44ee4	-0.0055025686
175	0x3d4503ac	0.048099205
176	0x3bd4efe0	0.006498322
177	0x3d5ace56	0.053419434
178	0xbdf9828f	-0.12183105
179	0x3d1e1253	0.038591694
180	0x3d8a5d21	0.06756044
181	0x3d0a88d6	0.033821903
182	0xbdf32bbd	-0.11873577
183	0xbd4dc0e0	-0.050232768
184	0xbdb9f3be	-0.09079693
185	0xbc2bdd2b	-0.010489742
186	0x3d294fb3	0.041335773
187	0x3d5fe981	0.054666046
188	0xbd9c2dd6	-0.0762593
189	0xbd69272b	-0.05692212
190	0xbdf6da08	-0.12053305
191	0xbd5a41d4	-0.053285435
192	0xbd1baaea	-0.038004793
193	0xbca54114	-0.020172633
194	0x3cd991fc	0.026558869
195	0xbdad3b5e	-0.08458589
196	0x3c9eb41c	0.019372992
197	0xbb426587	-0.0029662566
198	0xbcf17c55	-0.029478231
199	0x3b6be5df	0.0035995168
200	0xbc6bbf30	-0.014388844
201	0x3ca3b01c	0.019981436
202	0xbde49adc	-0.111623496
203	0xbd94ccce	-0.07265626
204	0x3dbd1af8	0.092336595
205	0x3d800b09	0.06252105
206	0x3d042d59	0.03226981
207	0xbd810c28	-0.06301147
208	0xbd77c5aa	-0.06049124
209	0xbd30ca7f	-0.043161865
210	0xbb9f6f17	-0.004865538
211	0xbad74c32	-0.0016425906
212	0xbb23ec89	-0.0025012812
213	0x3d816e00	0.06319809
214	0xbbf9ca05	-0.0076229596
215	0xbd406e9f	-0.046980496
216	0x3da299c5	0.079394855
217	0xbce99d6a	-0.028517444
218	0xbdbabeb3	-0.09118404
219	0x3d9b7663	0.0759094
220	0xbc1121f0	-0.008858189
221	0xbd931c24	-0.07183102
222	0xbd98cfd5	-0.07461516
223	0xbc44159d	-0.011968044
224	0xbd05d236	-0.032671176
225	0xbc8a387f	-0.016872643
226	0x3c138065	0.00900278
227	0x3d91a4e1	0.07111526
228	0xbdaddc0f	-0.084892385
229	0xbdd9cb8a	-0.10634525
230	0x3d5e938e	0.054339938
231	0x3b2187d2	0.0024647606
232	0xbdb70574	-0.08936587
233	0x3c263e03	0.010146621
234	0x3bf50fe4	0.007478701
235	0xbc19b0cf	-0.009380533
236	0xbd837e70	-0.064206004
237	0xbda7db6c	-0.08196148
238	0x3d561794	0.05226858
239	0xbc400533	-0.01171999
240	0xbdc7fd1c	-0.09765074
241	0xbd7485ba	-0.059697844
242	0x3bd33ffb	0.006446836
243	0x3cafdb94	0.021467008
244	0xbce768c3	-0.028248196
245	0xbdee108a	-0.11624248
246	0x3da1f9af	0.079089515
247	0x3b58ed1a	0.0033100308
248	0x3e612829	0.21987976
249	0xbdedaea4	-0.11605576
250	0x3e4277e5	0.18991049
251	0xbdafec43	-0.08589985
252	0xbeed1eb2	-0.4631248
253	0x3d7271bb	0.059190493
254	0x3e2fd6fa	0.17171851
255	0x3da3924d	0.07986889

bias f4 [256]
0	0xbd7c4c5a	-0.061596252
1	0x3cd69b06	0.026196968
2	0xbd8d685b	-0.0690467
3	0xbd89bdb1	-0.06725634
4	0x3e0c53b1	0.137038
5	0x3e1a5276	0.15070519
6	0x3cbd6c4d	0.02312293
7	0xbd399f8a	-0.045318164
8	0xbd2600cb	-0.0405281
9	0xbc88cd2f	-0.016699402
10	0xbd10afd2	-0.035323925
11	0x3dfe6211	0.124210484
12	0x3d66dff9	0.05636594
13	0x3d8b5beb	0.06804641
14	0x3d603633	0.05473919
15	0x3d0b3bea	0.033992685
16	0x3c5a924c	0.013340544
17	0xbd6165db	-0.055028778
18	0x3e00d81e	0.12582442
19	0xbdd0c363	-0.10193517
20	0x3d9110e2	0.07083298
21	0x3c87bdc7	0.016569985
22	0x3e28557c	0.1643886
23	0x3c07a4e4	0.008279059
24	0x3d0842bf	0.03326678
25	0xbdbb4023	-0.091430925
26	0x3d781555	0.06056722
27	0xbdd08b3c	-0.10182807
28	0xbcd40f05	-0.025886068
29	0x3d0dca6c	0.034616873
30	0x3ddfbacf	0.10924303
31	0x3cd65ea8	0.026168182
32	0x3cdc2647	0.02687372
33	0x3d25b189	0.040452514
34	0x3e2594e5	0.1617008
35	0xbc8a531b	-0.01688533
36	0x3db81182	0.08987714
37	0x3e323477	0.17402826
38	0x3deca218	0.115543544
39	0x3d80afd5	0.06283537
40	0x3e2a5403	0.1663361
41	0xbdb430ce	-0.08798371
42	0x3e0c028b	0.13672845
43	0x3ce9b4e6	0.028528642
44	0x3bb6487c	0.00556284
45	0xbd33baeb	-0.04387943
46	0x3d17eb8e	0.037089877
47	0x3c58d244	0.013233725
48	0xbd2236fe	-0.039603226
49	0xbb2ae039	-0.0026073589
50	0x3d572c40	0.052532434
51	0xbd746360	-0.059665084
52	0x3d72dafc	0.05929087
53	0xbd9bbbea	-0.07604201
54	0x3d62cd29	0.055371437
55	0x3cccc249	0.024994986
56	0xbcaa5155	-0.020790735
57	0xbdb12b2f	-0.08650815
58	0x3cc44489	0.023958461
59	0xbd4deb56	-0.050273262
60	0xbdd5d245	-0.10440496
61	0x3cb47b62	0.02203149
62	0xbe005035	-0.12530597
63	0x3e130c5f	0.14360188
64	0x3de2e94d	0.11079655
65	0xbdb6d711	-0.089277394
66	0x3d300301	0.042971615
67	0x3d302953	0.04300816
68	0x3da977ff	0.082748406
69	0xbe2a6dcd	-0.16643448
70	0x3da3c5a9	0.07996685
71	0x3e2025c4	0.15639406
72	0xbdc190fc	-0.09451482
73	0xbd58335f	-0.052783366
74	0x3e44d4be	0.1922178
75	0xbd145211	-0.036211077
76	0x3bfe05d8	0.0077521615
77	0x3d97a0af	0.07403695
78	0xbd34a08d	-0.044098426
79	0x3e106365	0.14100416
80	0xbce84999	-0.028355407
81	0xbd7a8e60	-0.061170936
82	0xbdfccd90	-0.123438954
83	0xbd895765	-0.06706122
84	0xbd312a44	-0.0432532
85	0x3e000605	0.12502296
86	0x3da9eb8a	0.08296879
87	0x3d8b5d89	0.0680495
88	0x3d179293	0.03700502
89	0x3d2e6ee1	0.04258621
90	0x3c1b7608	0.00948859
91	0x3e3c3ba5	0.18382128
92	0x3c14ccf1	0.009082065
93	0xbc766a65	-0.015040015
94	0xbd8d6628	-0.069042504
95	0x3e297042	0.16546729
96	0xbd8c4213	-0.0684854
97	0x3d82c71e	0.06385635
98	0x3d817a36	0.06322138
99	0x3da1cc53	0.079003
100	0x3caa946d	0.020822728
101	0x3de1d425	0.110267915
102	0x3df1c1f1	0.118045695
103	0xbd1c3fc1	-0.038146738
104	0x3cefef24	0.029288836
105	0xbc22067c	-0.009889241
106	0x3e2d63b3	0.16932563
107	0xbdeaa2b7	-0.11456817
108	0x3e3b0e31	0.18267132
109	0x3e1bd84f	0.15219234
110	0x3d48356a	0.048879065
111	0x3d998ffa	0.074981645
112	0xbd03e026	-0.032196186
113	0xbdca6f5d	-0.09884522
114	0xbd87356b	-0.066019855
115	0x3dac8a1f	0.08424782
116	0xbd5fb025	-0.054611344
117	0x3c8c9434	0.017160513
118	0xbd64f640	-0.055898905
119	0x3db6082a	0.08888276
120	0xbd596f18	-0.053084463
121	0x3dc5bc3c	0.096550435
122	0xbc15e6a0	-0.009149224
123	0x3a0bf7ee	0.00053393736
124	0x3d88d18b	0.06680592
125	0xbc7b9ba4	-0.015356932
126	0xbcd8324d	-0.026391173
127	0xbcb03b78	-0.021512732
128	0xbda4b928	-0.08043128
129	0x3e33a81c	0.17544597
130	0x3d09258e	0.03348308
131	0xbcc8c163	-0.024506276
132	0xbd90d201	-0.07071305
133	0xbddc8e7b	-0.107693635
134	0x3df97ed4	0.12182394
135	0xbd939ad3	-0.07207265
136	0x3d4b90ec	0.049698755
137	0x3cd71cd4	0.026258864
138	0x3dc69864	0.09697035
139	0x3e0d74fa	0.13814154
140	0xbc03d975	-0.008047451
141	0x3d5ea81c	0.05435954
142	0x3dc3af14	0.09554878
143	0x3e3a3735	0.18185122
144	0xbbdd8e04	-0.0067613143
145	0xbcba7075	-0.022758702
146	0xbcb92ebe	-0.022605296
147	0xbd0d55df	-0.03450572
148	0xbd6f151f	-0.058369752
149	0x3ccd1664	0.02503509
150	0xbd0ce70a	-0.034400024
151	0xbdcd701d	-0.100311495
152	0x3d244991	0.04010922
153	0xbd91463e	-0.07093476
154	0x3e169a31	0.14707257
155	0x3e1988cc	0.1499359
156	0x3d781f74	0.06057687
157	0xbd61be5f	-0.055113193
158	0xbd7124ba	-0.058872916
159	0xbd4815c2	-0.048848875
160	0x3d626a02	0.05527688
161	0xbcf193b7	-0.029489381
162	0xbdbb5431	-0.091469176
163	0x3dbbf60a	0.091777876
164	0xbda33e6c	-0.079708904
165	0xbdc0f07a	-0.09420867
166	0x39b422e9	0.00034358285
167	0x3daa4a1f	0.08314919
168	0xbd8a9e38	-0.06768459
169	0x3dab0cf8	0.08352083
170	0xbd4c1713	-0.049826693
171	0x3c821b3b	0.015882125
172	0xbd1f998f	-0.038964804
173	0x3c9e2d2d	0.01930865
174	0x3da0c2ed	0.07849679
175	0x3d7a91e5	0.061174292
176	0xbde167b6	-0.110061094
177	0x3e44a086	0.1920186
178	0x3d9edae6	0.07756595
179	0xbc99c175	-0.018769005
180	0x3e358354	0.17725879
181	0x3db63988	0.08897692
182	0xbddef6e4	-0.108869344
183	0x3da088ea	0.07838614
184	0x3e012ed6	0.12615523
185	0x3d1a8c5e	0.03773152
186	0x3e2d6baf	0.1693561
187	0x3c18306d	0.009288889
188	0xbd07faaf	-0.033198055
189	0xbd7d4cfc	-0.061840996
190	0x3d2ff6d2	0.042959996
191	0x3e37afae	0.1793811
192	0x3ce27cbe	0.027647372
193	0xbcf053f5	-0.029336909
194	0xbd98fda9	-0.07470257
195	0x3d986e3c	0.074429005
196	0x3dfda139	0.123842664
197	0xbcff7106	-0.031181823
198	0xbd934ad3	-0.07192006
199	0x3ded6835	0.115921415
200	0x3e0d62be	0.13807198
201	0xbd76f278	-0.06028983
202	0xbd90691e	-0.070512995
203	0xbdbf786a	-0.09349139
204	0x3da05f3c	0.078306645
205	0xbd12cd10	-0.035840094
206	0xbda0cdae	-0.0785173
207	0x3d29c5e7	0.0414485
208	0xbd0758fd	-0.03304385
209	0x3cfdb040	0.030967832
210	0x3e0b550d	0.13606663
211	0xbca0d515	-0.019632855
212	0x3e135fdd	0.14392038
213	0x3bf8a75f	0.0075883116
214	0x3e268458	0.16261423
215	0x3e223baf	0.1584308
216	0x3de5b805	0.112167396
217	0x3d14f46c	0.03636591
218	0xbd8bc821	-0.06825281
219	0xbe06d3ba	-0.13166705
220	0xbda43877	-0.08018582
221	0xbdb310ad	-0.08743415
222	0xbcea5072	-0.028602812
223	0x3daf3d20	0.085565805
224	0xbd847523	-0.064676546
225	0x3d4609cf	0.048349198
226	0x3ddfeb33	0.109335326
227	0xbd7d3a2a	-0.061823048
228	0xbd886b37	-0.066610746
229	0xbd9ec703	-0.07752802
230	0x3db0e3c2	0.08637191
231	0xbca9297d	-0.020649666
232	0x3d191afa	0.037379242
233	0x3e0f5506	0.13997278
234	0x3db65ee8	0.08904821
235	0x3b400eea	0.0029305764
236	0xbdddf3c0	-0.10837507
237	0x3d37a472	0.04483456
238	0x3e169016	0.14703402
239	0x3e2c1194	0.1680358
240	0x3dcc58f0	0.09977901
241	0xbd8c0ea6	-0.068387315
242	0x3d8a6af8	0.06758684
243	0x3d7c6df2	0.06162829
244	0x3d8e335d	0.069433905
245	0x3d8cd087	0.06875711
246	0xbdbad99e	-0.091235384
247	0x3ddea35a	0.108710006
248	0x3e3542b8	0.17701232
249	0x3dde6636	0.10859339
250	0x3dfa9a27	0.122364335
251	0x3cb29cd6	0.0218033
252	0x3d8b47dc	0.068008155
253	0x3c87be92	0.016570363
254	0xbd9294e6	-0.071573064
255	0x3d3d872b	0.046271484
