src/saved_models/grid_world_seed125_8_7_15_42_成了/125_113_model.pt (torch, 702741 bytes, 11 tensors)

FC1.weight f4 [256, 36]
-0.30825812 -0.03639223 0.11832903 0.108123146 -0.12885156 -0.07503867 0.1639624 0.05647469
0.14238174 -0.25327668 0.31055793 -0.1087521 0.34889382 -0.028163264 0.39008436 0.026217053
-0.052985713 -0.2759633 -0.16715182 -0.2161184 0.16282943 -0.10660486 0.40640962 -0.1980414
-0.35244608 0.22232021 0.12038568 0.03919008 0.2348934 -0.3649611 0.028401285 -0.10512875
-0.6574522 0.27472 0.07929777 -0.2969315 0.007836588 -0.29599938 0.061567165 -0.07065613
-0.3351519 -0.7837881 -0.30441198 -0.4452002 0.022078166 -0.010066743 0.35773557 -0.0418857
-0.21603775 -0.9464553 -0.062075015 -0.40110493 -0.19002451 -0.4075217 0.18671873 -0.7708636
0.05411065 -0.50237036 0.13734488 -0.31618318 -0.047588907 0.27151078 -0.70547956 0.24226904
0.16396795 0.086821094 0.23387963 0.043150917 0.3289155 -0.9405995 0.074754864 -0.12343223
0.16470002 -0.099989586 -0.37008494 0.060505915 -0.5585441 0.010812985 -0.39836526 0.01996596
-0.5345635 -0.04814086 0.31355488 -0.097884834 0.5451412 -0.17852372 -0.2954629 0.07978442
-0.4494401 -0.40092975 -0.6741907 -0.35158446 0.25921333 -0.2749314 -0.24655488 -0.1836258
-0.4806762 0.3794657 -0.40451008 -0.12246815 -0.085005544 -0.11714261 -0.13424191 -0.050363045
-0.07754123 -0.69958895 -0.28567526 -0.108483896 0.0120572895 -0.1819678 0.0064297696 -0.14761811
-0.022277681 -0.28843608 -0.7960747 -0.235315 0.1748162 -0.29379106 0.08250532 -0.1713521
0.41711935 -0.41414043 -0.6853015 -0.13973095 0.076678224 -0.047150906 0.030987186 -0.05052593
0.106957346 -0.39668617 -0.27063057 -0.15170655 0.19055614 -0.39184907 -0.8262445 0.078503795
0.34459567 0.13113187 -0.038571093 0.10318768 0.038041398 -0.3500939 0.15543433 0.049394917
-0.17001961 -0.12229568 0.11838451 0.2234247 0.37916237 0.029813297 -0.74836314 -0.0669393
0.015080922 -0.2231842 -0.57856715 0.03431079 0.45893085 -0.16028121 -0.33313 -0.04422608
-0.030547533 0.016982103 -0.37589964 0.28817204 0.07451668 0.17169835 -0.3609837 0.14195451
0.15111986 -0.78353834 0.21245378 -0.053543784 0.2612977 -0.12343816 -0.3375221 -0.11554127
-0.40682948 -0.27080685 0.13948506 -0.0024104605 -0.004352244 -0.24324624 0.16154808 -0.06322069
0.15260331 -0.04720937 -0.26703972 -0.1560602 0.037808526 -0.40757328 -0.13482903 0.0031020495
-0.40642682 -0.27616116 -0.41807723 -0.17165866 0.083934754 -0.10578269 0.21451113 -0.04096977
-0.10965595 -0.093174845 -0.23076746 -0.15211502 -0.038703483 -0.5574259 0.5458442 0.008769654
0.19524643 -0.13054267 -0.040649723 -0.44288585 0.09925211 -0.76324946 -0.16088605 0.15651391
0.30602378 0.08197638 0.14493406 0.1397247 0.078985155 0.3714572 -0.42515075 0.039199617
0.09529825 -0.4019331 0.019225616 0.31139103 0.20811407 0.24651441 -0.1387871 0.09205149
0.032598294 -0.64821166 -0.32320774 0.22395773 -0.033100057 0.28636864 -0.30903813 -0.1413078
0.038110837 -0.18533708 0.44254503 -0.17722262 0.27986133 -0.041085683 0.024682077 -0.06865333
-0.13776785 -0.0095934775 -0.31633517 -0.37152347 0.11055213 -0.042729527 0.21866356 -0.19123584
00000000: 02d4 9dbe 0510 15bd 7e56 f23d ab6f dd3d
00000010: aaf1 03be e0ad 99bd c2e5 273e 0152 673d
00000020: 85cc 113e 7bad 81be 7301 9f3e 6cb9 debd
00000030: 36a2 b23e a5b6 e6bc 23b9 c73e 25c5 d63c
00000040: 8c07 59bd 104b 8dbe d929 2bbe 244e 5dbe
00000050: c2bc 263e a653 dabd ec14 d03e 5dcb 4abe
00000060: d073 b4be e9a7 633e c48c f63d c785 203d
00000070: e587 703e 2edc babe d0a9 e83c be4d d7bd
00000080: ca4e 28bf 1aa8 8c3e df66 a23d 6807 98be
00000090: 0865 003c 3b8d 97be da2d 7c3d 29b4 90bd
000000a0: 0899 abbe 56a6 48bf e3db 9bbe 48f1 e3be
000000b0: 45dd b43c fbee 24bc 1e29 b73e 5790 2bbd
000000c0: 0039 5dbe e54a 72bf 5f42 7ebd a05d cdbe
000000d0: c995 42be afa6 d0be 3233 3f3e 5157 45bf
000000e0: 21a3 5d3d 589b 00bf 23a4 0c3e c3e2 a1be
000000f0: 96ec 42bd 7603 8b3e 4f9a 34bf 6015 783e
00000100: 37e7 273e 42cf b13d 247e 6f3e 04bf 303d
00000110: 9d67 a83e 21cb 70bf 1419 993d 09ca fcbd
00000120: 1fa7 283e 57c7 ccbd c67b bdbe 0dd5 773d
00000130: bffc 0ebf f228 313c 88f6 cbbe a78f a33c
00000140: 27d9 08bf 5a2f 45bd 448a a03e d877 c8bd
00000150: 608e 0b3f ecce 36be ea46 97be 0466 a33d
00000160: 031d e6be aa46 cdbe c397 2cbf e102 b4be
00000170: 9cb7 843e cfc3 8cbe e278 7cbe 6708 3cbe
00000180: 311b f6be 5449 c23e f21b cfbe 95d0 fabd
00000190: 6317 aebd 77e8 efbd b676 09be 7b49 4ebd
000001a0: f0cd 9ebd 4318 33bf 0744 92be ce2c debd
000001b0: f08b 453c c455 3abe d1b0 d23b 3429 17be
000001c0: af7f b6bc e5ad 93be 8dcb 4bbf 6af6 70be
000001d0: 0503 333e c86b 96be 8df8 a83d ed76 2fbe
000001e0: ab90 d53e 370a d4be eb6f 2fbf a115 0fbe
000001f0: 7909 9d3d 4f21 41bd d7d8 fd3c 47f4 4ebd
00000200: 740c db3d 731a cbbe 1790 8abe f658 1bbe
00000210: 2621 433e 71a0 c8be c284 53bf 99c6 a03d
00000220: d86e b03e 6f47 063e b9fc 1dbd 1054 d33d
00000230: 4cd1 1b3d 823f b3be 2d2a 1f3e 5352 4a3d
00000240: 9f19 2ebe 2876 fabd 9473 f23d 72c9 643e
00000250: 9221 c23e 043b f43c ba94 3fbf 7917 89bd
00000260: f915 773c 668a 64be fa1c 14bf 7989 0c3d
00000270: fcf8 ea3e c220 24be 0490 aabe 6826 35bd
00000280: d23e fabc 0d1e 8b3c eb75 c0be 498b 933e
00000290: 339c 983d b1d1 2f3e dbd2 b8be 865c 113e
000002a0: 2abf 1a3e f895 48bf 7c8d 593e ba50 5bbd
000002b0: d0c8 853e 25cd fcbd b2cf acbe e7a0 ecbd
000002c0: f44b d0be 32a7 8abe 2cd5 0e3e d1f8 1dbb
000002d0: 459d 8ebb 8b15 79be dc6c 253e d979 81bd
000002e0: 0b44 1c3e 9d5e 41bd 6eb9 88be 3fce 1fbe
000002f0: 1ddd 1a3d 72ad d0be 9f10 0abe c14b 4b3b
00000300: 2d17 d0be ff64 8dbe 380e d6be 4ac7 2fbe
00000310: fce5 ab3d 98a4 d8bd cea8 5b3e ebcf 27bd
00000320: 4c93 e0bd 74d2 bebd 4e4e 6cbe 0ac4 1bbe
00000330: 8b87 1ebd 77b3 0ebf 72bc 0b3f 98ae 0f3c
00000340: aeee 473e faac 05be 5380 26bd efc1 e2be
00000350: b144 cb3d 5164 43bf 50bf 24be 2f45 203e
00000360: 26af 9c3e 3be3 a73d 9869 143e fe13 0f3e
00000370: f8c2 a13d a32f be3e 5cad d9be c78f 203d
00000380: bb2b c33d 2dca cdbe 0a7f 9d3c a56e 9f3e
00000390: db1b 553e 466e 7c3e 351e 0ebe 7e85 bc3d
000003a0: ca85 053d 33f1 25bf 7c7b a5be 2d55 653e
000003b0: ed93 07bd e99e 923e 3f3a 9ebe feb2 10be
000003c0: 1c1a 1c3d 01c9 3dbe 4395 e23e d979 35be
000003d0: fc49 8f3e 7649 28bd 1132 ca3c 1e9a 8cbd
000003e0: 0413 0dbe f62d 1dbc aff6 a1be 5338 bebe
000003f0: 2869 e23d 2805 2fbd 57e9 5f3e 54d3 43be

FC1.bias f4 [256]
-0.13986428 0.05920957 -0.03980926 0.13889022 -0.08263744 -0.044323232 -0.22624591 -0.086297885
0.04008958 -0.16273248 0.18514381 -0.19036657 -0.111404926 -0.120295994 -0.24289615 0.017225465
0.058207035 -0.093638 -0.09792283 -0.06691357 0.00039684272 0.10093107 -0.15850502 -0.16699833
0.045905698 -0.09654702 0.1595646 -0.02382482 -0.1553905 0.073855564 0.056308437 -0.12734976
-0.14439538 0.13691528 -0.1364565 -0.08784899 -0.109193526 0.0033999206 0.32100073 0.05064072
0.28146452 0.018140573 0.08811974 -0.023123985 0.17403027 0.09791876 -0.11234086 -0.15346119
-0.246421 0.1970153 -0.22414993 -0.26500598 -0.19336165 0.08499078 0.05862249 0.22441205
0.12076047 0.0027195176 0.12245197 -0.02518877 0.02193065 -0.22527729 0.013954034 0.11521991
-0.0670741 0.07508031 0.21131271 0.114578344 -0.2815881 -0.08733493 0.14625818 -0.009516903
-0.14269567 0.07290091 0.1650287 -0.045194484 -0.097628534 -0.01254399 -0.115124546 -0.32888824
0.04277192 -0.11675713 -0.08549078 0.124933966 0.11577497 0.070418805 0.02630045 -0.22235198
-0.04328043 -0.11160839 -0.066019215 -0.17803766 0.00047216588 -0.2679937 0.12418691 0.08357988
0.20890944 0.05336159 0.035745237 -0.07482609 0.29026848 0.13737534 0.16864416 0.09256882
-0.27733868 -0.10195891 0.10352294 -0.18663105 -0.07185657 -0.08412551 -0.13890801 0.1116674
0.037073556 -0.09547325 -0.36070937 -0.05358566 -0.18384442 0.03146228 -0.012942225 -0.006026679
-0.069558755 -0.19523725 -0.046090167 0.16678344 0.022843609 -0.17832986 0.044183236 0.019422742
0.1852243 -0.124122426 -0.085317805 -0.021157334 -0.058729064 -0.2482261 -0.05141717 -0.18388084
-0.19014527 0.118739784 0.081122786 -0.0966171 -0.12279022 0.09172858 -0.2259724 0.08830844
0.022762202 -0.014589567 -0.004874719 0.026375879 -0.06296401 0.06653014 -0.045888815 -0.07538252
-0.049728803 -0.009349914 -0.07892674 -0.11105237 0.13918692 0.0006213761 -0.12419694 0.022168074
-0.1507356 -0.12405955 0.0598646 -0.28723451 0.09418357 0.0150778135 -0.013338119 -0.02893679
-0.14061254 -0.17148408 0.070891105 -0.20318313 0.15523954 0.29954058 -0.12631392 0.097201206
0.09058607 0.071793444 -0.19191447 -0.06271534 -0.13409448 -0.24137144 0.17980987 0.2150206
0.04887781 0.015894942 -0.22353435 -0.15019009 0.024776 0.06561268 0.057394113 -0.046612564
-0.1902036 0.16850176 -0.23553647 0.0045916378 0.02379362 0.075141564 -0.056597073 0.13781844
0.10946293 0.07790236 -0.17552942 0.12511028 -0.113622405 0.03138588 -0.018272374 -0.12234538
0.124344796 -0.22228515 -0.039257 -0.020090057 0.116393335 -0.16783783 0.066095375 -0.10366759
-0.011807871 -0.30581754 -0.06772059 0.08261301 0.12876157 -0.050206006 -0.18034486 0.036183465
-0.03565214 0.10273257 -0.12419812 0.032183573 0.25231162 0.224343 -0.08817435 -0.013686565
0.11110136 -0.1533985 0.2603831 0.055601697 -0.20392561 -0.1823297 -0.03835467 -0.0476233
-0.07962973 -0.2270774 -0.0785385 4.6211728e-05 -0.09891316 0.23244464 -0.018359598 0.01233387
-0.13002314 -0.09194837 0.03173832 0.15194176 -0.13548233 0.23219232 -0.21120247 0.044949092
00000000: 9538 0fbe bc85 723d 090f 23bd 3d39 0e3e
00000010: d13d a9bd 478c 35bd 02ad 67be f2bc b0bd
00000020: f934 243d 58a3 26be 5796 3d3e 74ef 42be
00000030: 4428 e4bd bf5d f6bd c5b9 78be 6b1c 8d3c
00000040: 806a 6e3d 48c5 bfbd c48b c8bd fb09 89bd
00000050: 540f d039 f3b4 ce3d 244f 22be 9c01 2bbe
00000060: 9d07 3c3d 72ba c5bd e764 233e 452c c3bc
00000070: b01e 1fbe 9641 973d ada3 663d fa67 02be
00000080: 62dc 13be 8533 0c3e 41bb 0bbe 2cea b3bd
00000090: dba0 dfbd 34d1 5e3b 355a a43e a56c 4f3d
000000a0: 1e1c 903e 8a9b 943c 1f78 b43d 836e bdbc
000000b0: fe34 323e a189 c83d f712 e6bd ee24 1dbe
000000c0: c955 7cbe 61be 493e 8f87 65be ddae 87be
000000d0: 9900 46be a50f ae3d 231e 703d 46cc 653e
000000e0: 4451 f73d ef39 323b 19c8 fa3d ae58 cebc
000000f0: e8a7 b33c 17af 66be 769f 643c 6bf8 eb3d
00000100: 255e 89bd b5c3 993d 5c62 583e 0da8 ea3d
00000110: 512c 90be a8dc b2bd b4c4 153e c9ec 1bbc
00000120: d01e 12be 134d 953d 49fd 283e da1d 39bd
00000130: 78f1 c7bd 4f85 4dbc 6bc6 ebbd 0a64 a8be
00000140: 9c31 2f3d 5d1e efbd ca15 afbd 61dd ff3d
00000150: 6d1b ed3d bc37 903d 0b74 d73c 3db0 63be
00000160: d246 31bd f192 e4bd 1535 87bd 814f 36be
00000170: 088d f739 7836 89be b555 fe3d ee2b ab3d
00000180: 5bec 553e af91 5a3d 9969 123d 6c3e 99bd
00000190: 129e 943e 1fac 0c3e 0eb1 2c3e b994 bd3d
000001a0: 56ff 8dbe d5cf d0bd d603 d43d 361c 3fbe
000001b0: 8a29 93bd ff49 acbd e73d 0ebe e1b1 e43d
000001c0: 71da 173d 7b87 c3bd e6ae b8be a37c 5bbd
000001d0: b641 3cbe 97de 003d a00b 54bc 737b c5bb
000001e0: d274 8ebd 46ec 47be 0bc9 3cbd 47c9 2a3e
000001f0: 8522 bb3c 1a9c 36be 7bf9 343d 711c 9f3c
00000200: 70ab 3d3e e633 febd 1abb aebd 2552 adbc
00000210: e38d 70bd fc2e 7ebe cf9a 52bd 424b 3cbe
00000220: 71b5 42be d82d f33d b423 a63d 30df c5bd
00000230: 7079 fbbd 32dc bb3d 4f65 67be 0edb b43d
00000240: cc77 ba3c 1409 6fbc 1bbc 9fbb 3a12 d83c
00000250: 46f3 80bd f440 883d e9f5 3bbd 2762 9abd
00000260: 6eb0 4bbd 6230 19bc 58a4 a1bd 6d6f e3bd
00000270: 0487 0e3e d8e3 223a f75a febd d299 b53c
00000280: 6f5a 1abe ef12 febd 9534 753d 6710 93be
00000290: 51e3 c03d ef08 773c 2088 5abc d90c edbc
000002a0: bcfc 0fbe 8699 2fbe 5b2f 913d 3d0f 50be
000002b0: 1df7 1e3e 625d 993e 7058 01be 6d11 c73d
000002c0: 3185 b93d 7108 933d 3a85 44be e670 80bd
000002d0: 1050 09be 132a 77be 1420 383e 5c2e 5c3e
000002e0: 1934 483d 1c36 823c 30e6 64be 6ecb 19be
000002f0: 0af7 ca3c f15f 863d 1716 6b3d d1ec 3ebd
00000300: bcc4 42be ba8b 2c3e 7930 71be 7375 963b
00000310: d6ea c23c d2e3 993d 55d2 67bd 4720 0d3e
00000320: 1a2e e03d 468b 9f3d fcbd 33be e91c 003e
00000330: ddb2 e8bd 7b8e 003d f2af 95bc 3790 fabd
00000340: 7ca8 fe3d b89e 63be f3cb 20bd e793 a4bc
00000350: a15f ee3d aedd 2bbe 035d 873d ac4f d4bd
00000360: cd75 41bc 1e94 9cbe 18b1 8abd 0331 a93d
00000370: 13da 033e d0a4 4dbd 53ac 38be 1d35 143d
00000380: fa07 12bd 7465 d23d 955b febd ecd2 033d
00000390: fd2e 813e 2cba 653e c194 b4bd 9d3d 60bc
000003a0: 1c89 e33d 7f14 1dbe ef50 853e 9bbe 633d
000003b0: e0d1 50be a3b4 3abe c919 1dbd a610 43bd
000003c0: e914 a3bd fa86 68be cbd8 a0bd 77d3 4138
000003d0: fc92 cabd f805 6e3e de66 96bc 0014 4a3c
000003e0: c924 05be 6d4f bcbd 0a00 023d 9f96 1b3e
000003f0: e1bb 0abe d3c3 6d3e 7645 58be 8a1c 383d

FC2.weight f4 [256, 256]
0.41273987 0.4663598 -0.074553624 -0.16194399 -0.66655225 0.2651619 -0.046581253 1.0630904
0.15190989 -0.06338145 0.38131878 -0.07935017 0.5273578 0.005832412 -0.32385382 -0.54798347
0.73395187 0.20584954 0.22457968 0.21296725 -0.3602228 0.26384878 0.00803908 0.18212889
0.50157243 -0.15709163 0.05587113 -0.06894299 0.17539391 0.094384894 0.342678 0.061090305
0.0570257 0.09177311 -0.46703136 -0.45241797 -0.028880898 -0.70573866 -0.0658737 0.13296087
0.30203295 -0.06408275 0.28349555 0.53806317 -0.009799206 -0.031080564 -0.14697234 0.164904
0.3712219 0.1292636 0.47722223 -0.059133414 0.016658075 0.24263354 0.45793694 0.584924
-0.5466617 0.18043488 0.11097833 0.029434258 -0.33507848 0.63505 -0.8400797 0.19637214
-0.0610108 -0.25833085 -0.19215433 0.25478292 0.3107969 0.03336129 0.14468874 0.24620774
-0.16559075 0.17670754 -0.12829198 0.3334829 0.05380881 0.017474005 -0.4964053 0.4292285
0.038096208 -0.08194869 0.011004407 -0.06506129 -0.27242598 -0.29018492 0.3566598 1.1746519
0.29153496 0.2666476 0.13147695 -0.27983904 0.27809915 0.18463069 0.3285207 -0.03621248
-0.089343816 0.9645262 0.00013053164 0.050423436 0.053550165 -0.3122723 0.0120317135 -0.49336863
-0.38868007 0.4022312 -0.53121036 -0.14178152 -0.2369606 -0.009138039 0.23005417 0.17534743
0.3266599 0.119942695 0.37004536 0.005589219 -0.10324708 0.49160147 0.0061789816 0.283738
0.12014488 -0.08679051 -0.1054273 0.43095666 0.34729064 0.23963547 0.36247563 -0.047038604
0.029980142 0.6325085 0.008242913 0.15236948 0.08960755 0.22952464 0.551121 0.01563076
0.04016333 -0.33719462 -0.2755806 -0.18749413 0.17773435 -0.1416008 -0.23915976 0.05546878
-0.026314184 0.40176645 0.008442153 0.082428634 -0.271224 -0.013505158 -0.039264586 0.06268436
0.5498941 -0.08509646 0.056234743 -0.07684365 0.19876769 -0.22536433 0.10357944 -0.36826548
-0.64006865 -0.18953976 0.18822506 -0.20842056 -0.44038573 -0.2793376 -0.5238245 -1.2046773
0.34932733 0.10533798 0.7112362 0.14519104 -0.9580339 1.1729468 -0.34044307 0.36840123
0.39206183 -0.100196294 -0.1270438 0.5875996 0.0058784178 -0.3424512 0.047006153 0.052915115
-0.10814742 0.0060256077 0.091839805 -0.21501882 0.45623937 -0.3022391 0.2862101 0.7056072
-0.17596959 -0.040676434 -0.518695 -0.19904618 0.24997629 -0.7028363 -0.5925162 -0.11119923
0.07107643 1.154623 -0.024196355 -0.44357678 -0.15457308 0.18283962 0.23990342 0.27774522
0.049357656 -0.06606286 0.04340977 -0.3317348 1.0440937 -0.1141067 0.43957922 0.2916855
0.09646101 0.28607363 0.027494736 -0.085053615 0.6162059 0.13568795 -0.39667004 0.117272176
0.058548793 0.32217097 0.14920713 -0.5429348 0.36304206 0.20337525 0.0942834 0.07713071
0.050608333 0.63516337 0.018414333 -0.32283255 -1.0302827 -0.856811 0.17977439 -0.040832788
-0.24748607 -0.0074044303 0.049348973 0.28335357 -0.23694699 -0.13780303 -0.14069873 0.09891055
-0.6521005 0.2373143 0.094010085 0.5031676 -0.38456014 0.20947391 0.17573033 -0.005957404
00000000: a452 d33e b6c6 ee3e 92af 98bd a5d4 25be
00000010: 2ba3 2abf 4dc3 873e fccb 3ebd 5913 883f
00000020: 448e 1b3e 22ce 81bd 373c c33e 5882 a2bd
00000030: ec00 073f d11d bf3b 2bd0 a5be a548 0cbf
00000040: 45e4 3b3f 39ca 523e 37f8 653e 1614 5a3e
00000050: 1f6f b8be 3017 873e 58b6 033c ff7f 3a3e
00000060: 0d67 003f a1dc 20be 20d9 643d fb31 8dbd
00000070: 769a 333e de4c c13d 7e73 af3e d439 7a3d
00000080: c893 693d 8af3 bb3d bc1e efbe 54a3 e7be
00000090: a297 ecbc 4aab 34bf cae8 86bd e526 083e
000000a0: 10a4 9a3e d13d 83bd 5426 913e 82be 093f
000000b0: d98c 20bc ab9c febc eb7f 16be 98dc 283e
000000c0: cc10 be3e ad5d 043e 7956 f43e e135 72bd
000000d0: 8476 883c ed74 783e b676 ea3e 94bd 153f
000000e0: 05f2 0bbf ecc3 383e 9b48 e33d 1d20 f13c
000000f0: 688f abbe a392 223f 770f 57bf c715 493e
00000100: 76e6 79bd f143 84be 1bc4 44be e872 823e
00000110: c520 9f3e d9a5 083d 4929 143e e21d 7c3e
00000120: 9f90 29be d2f2 343e f95e 03be 45be aa3e
00000130: a066 5c3d a525 8f3c d628 febe d7c3 db3e
00000140: c50a 1c3d b7d4 a7bd d44b 343c db3e 85bd
00000150: 6b7b 8bbe 1e93 94be 1d9c b63e fe5a 963f
00000160: 1244 953e 0986 883e e5a1 063e 1047 8fbe
00000170: 0363 8e3e d40f 3d3e dd33 a83e 8a53 14bd
00000180: e4f9 b6bd 30eb 763f 52df 0839 ce88 4e3d
00000190: 6b57 5b3d 28e2 9fbe aa20 453c d09a fcbe
000001a0: 1301 c7be 3ff1 cd3e 67fd 07bf 2d2f 11be
000001b0: cda5 72be b7b7 15bc 5293 6b3e 478e 333e
000001c0: f73f a73e 84a4 f53d 9676 bd3e c425 b73b
000001d0: 3573 d3bd 30b3 fb3e 0e79 ca3b 1b46 913e
000001e0: 850e f63d 39bf b1bd 45ea d7bd 5aa6 dc3e
000001f0: 14d0 b13e 0063 753e 6896 b93e 8dab 40bd
00000200: ea98 f53c 14ec 213f 480d 073c bf06 1c3e
00000210: 2a84 b73d 8208 6b3e 4416 0d3f 140c 803c
00000220: 4e82 243d c6a4 acbe e718 8dbe 76fe 3fbe
00000230: feff 353e cdff 10be 4ce6 74be 3b33 633d
00000240: d890 d7bc 55b4 cd3e f550 0a3c 58d0 a83d
00000250: dfdd 8abe bd44 5dbc e7d3 20bd a860 803d
00000260: dcc5 0c3f 0e47 aebd 6756 663d 3460 9dbd
00000270: c289 4b3e e8c5 66be 7521 d43d 4b8d bcbe
00000280: 8adb 23bf b616 42be 12be 403e 336c 55be
00000290: 3d7a e1be 5705 8fbe 5d19 06bf de32 9abf
000002a0: 08db b23e 70bb d73d 9313 363f f6ac 143e
000002b0: b641 75bf 1f23 963f 8e4e aebe 169f bc3e
000002c0: 54bc c83e b733 cdbd c517 02be ed6c 163f
000002d0: be9f c03b c455 afbe 8689 403d 85bd 583d
000002e0: 657c ddbd 7672 c53b 8216 bc3d e52d 5cbe
000002f0: 3598 e93e 15bf 9abe 218a 923e aca2 343f
00000300: 5f31 34be 559c 26bd 32c9 04bf c3d2 4bbe
00000310: c9f9 7f3e 14ed 33bf 24af 17bf 6cbc e3bd
00000320: 8590 913d b0ca 933f 6f37 c6bc 7f1c e3be
00000330: 6848 1ebe 4f3a 3b3e 3ea9 753e 9f34 8e3e
00000340: 412b 4a3d f74b 87bd 71ce 313d 25d9 a9be
00000350: dda4 853f c6b0 e9bd 8710 e13e cd57 953e
00000360: 5a8d c53d 3e78 923e a43c e13c 9730 aebd
00000370: abbf 1d3f c8f1 0a3e 5618 cbbe 652c f03d
00000380: dcd0 6f3d 98f3 a43e c1c9 183e c6fd 0abf
00000390: a6e0 b93e 9a41 503e a817 c13d b5f6 9d3d
000003a0: af4a 4f3d 119a 223f a8d9 963c 4f4a a5be
000003b0: 4ee0 83bf f757 5bbf c716 383e 4840 27bd
000003c0: fd6c 7dbe dda0 f2bb 2622 4a3d b813 913e
000003d0: 3ba2 72be 3d1c 0dbe 5413 10be 9d91 ca3d
000003e0: 0ff0 26bf 8502 733e 5c88 c03d 98cf 003f
000003f0: 11e5 c4be 5480 563e a7f2 333e 5436 c3bb

FC2.bias f4 [256]
-0.07927717 -0.026773097 0.08137505 0.15018195 -0.013681012 -0.07569934 -0.08154597 -0.03806919
0.006572924 -0.06299444 -0.0294438 0.09797992 0.15014209 0.24211968 0.06924189 -0.096774764
-0.06252336 -0.024094969 -0.14681908 0.11518014 0.081034996 0.016010193 -0.0068841083 0.02201891
0.2168623 0.013229296 0.3104358 -0.046767943 -0.055169426 -0.1123217 0.10062682 0.06932739
0.0073871915 0.17496948 0.005025422 0.10661302 -0.066860095 0.06240863 0.07681762 -0.23574448
0.008000839 0.012306779 0.035408027 -0.11632336 -0.0077132084 -0.071851775 -0.07977113 -0.07207607
-0.0662172 -0.045458928 0.086130396 0.042368412 0.20144384 -0.009920893 0.12950495 -0.214016
-0.047751747 0.0056348154 0.019466143 0.17399834 -0.061541624 0.029349264 0.21806854 -0.08080723
-0.0112438025 0.011642867 0.009166796 0.1351433 -0.050884217 -0.0129400715 -0.11567634 0.23813576
-0.114123 0.06520356 0.13143952 0.005776125 -0.054643687 0.15806364 -0.139518 0.22135924
-0.030892713 -0.0096583 -0.07484299 0.044814967 -0.0024893153 -0.23547451 0.014822738 0.21699664
0.13591161 0.19012438 0.13439508 -0.03642229 0.07096104 -0.08020192 0.039231576 0.05590798
-0.07050573 0.08210624 -0.0010728427 0.21185252 -0.01904887 -0.05647326 0.092262626 0.0055275494
0.060514253 -0.020470284 0.015119912 -0.054738153 -0.12079424 0.11482977 0.11736767 -0.17249443
-0.065044664 0.13477948 -0.025369264 -0.09730289 0.0049046753 -0.049680997 0.086734705 -0.018754698
-0.03066292 -0.08341826 0.060760584 0.05809745 -0.04247703 -0.08859361 -0.12504505 -0.052436043
0.01709878 0.071135245 0.014702586 0.0683295 -0.055395085 0.071097605 0.026074003 0.022855867
0.053504113 -0.052609835 -0.050435316 -0.03751486 0.10616364 -0.03363482 0.00830041 0.052615557
0.09115198 0.1250282 -0.10968901 0.040469505 -0.10360554 -0.17719865 0.20643209 0.028773153
-0.06421424 -0.005688435 -0.07957842 -0.03906743 -0.06916913 0.19762392 0.024108589 -0.030097505
-0.07797415 0.21053718 0.04109958 0.0522954 0.08981009 0.004465238 -0.06493837 -0.07273094
0.0009306703 0.16211279 0.1794037 0.17276287 0.2055814 -0.04313673 0.31231198 -0.052043073
0.0011340462 -0.06765702 -0.05256102 0.16473776 -0.041936126 0.08504497 -0.06926015 0.080408126
0.3139653 0.08652421 0.13684122 -0.08767745 -0.030904893 0.23917656 0.25658023 0.090520255
-0.05101907 0.17971502 -0.020636734 0.1432918 0.106122226 0.31355464 0.018403238 -0.06914802
0.0973173 0.106781945 0.046769258 0.09240632 0.11756752 -0.10257159 0.022748118 0.1291981
0.058371134 0.31091487 0.090714015 0.06674896 0.1757861 0.34333774 -0.04241643 0.20104736
-0.089132726 0.031735092 0.035414662 0.29824772 0.23134878 0.111753106 -0.1353833 -0.0395379
0.119940646 0.09753316 0.015713418 0.07094672 -0.02927116 0.07796498 0.065631025 -0.3382444
-0.32754332 0.16654053 0.05772507 -0.02009118 0.008574062 -0.059412997 0.009327698 -0.025353694
0.20564672 -0.19266151 -0.10359309 0.1509375 -0.032732967 -0.0081058685 0.04963824 0.0009024628
0.006809872 -0.07644646 -0.042738225 0.18634392 -0.008758666 0.04432459 0.17474732 0.17337853
00000000: 125c a2bd 4153 dbbc f6a7 a63d 4cc9 193e
00000010: 5326 60bc 4108 9bbd 9301 a7bd 70ee 1bbd
00000020: af61 d73b 3b03 81bd 2034 f1bc b2a9 c83d
00000030: d9be 193e 39ee 773e b1ce 8d3d d931 c6bd
00000040: 3f0c 80bd d062 c5bc be57 16be 91e3 eb3d
00000050: adf5 a53d cf27 833c 1694 e1bb 0061 b43c
00000060: 2711 5e3e b0bf 583c 71f1 9e3e be8f 3fbd
00000070: 56f9 61bd eb08 e6bd 6f15 ce3d 85fb 8d3d
00000080: 4110 f23b 332b 333e 4cac a43b ed57 da3d
00000090: f2ed 88bd 31a0 7f3d 8e52 9d3d 0067 71be
000000a0: f315 033c 5fa2 493c 0208 113d f13a eebd
000000b0: 15bf fcbb 0627 93bd 0c5f a3bd 9e9c 93bd
000000c0: e29c 87bd 2433 3abd 2265 b03d 808a 2d3d
000000d0: 4b47 4e3e 3e8b 22bc f29c 043e 0327 5bbe
000000e0: 5697 43bd 42a4 b83b 7677 9f3c 9f2c 323e
000000f0: 1213 7cbd de6d f03c 5c4d 5f3e 437e a5bd
00000100: ed37 38bc b9c1 3e3c 5430 163c 0163 0a3e
00000110: f86b 50bd 9802 54bc b8e7 ecbd dcd9 733e
00000120: 52b9 e9bd 7289 853d 1598 063e a645 bd3b
00000130: 0fd2 5fbd 6fdb 213e cedd 0ebe ffab 623e
00000140: b712 fdbc d93d 1ebc 4847 99bd e68f 373d
00000150: c823 23bb 3b20 71be 12db 723c 5e34 5e3e
00000160: 6a2c 0b3e f7af 423e dd9e 093e 8a2f 15bd
00000170: 0654 913d e740 a4bd 4ab1 203d c4ff 643d
00000180: 4f65 90bd 5127 a83d a19e 8cba deef 583e
00000190: 600c 9cbc 8150 67bd 30f4 bc3d 7220 b53b
000001a0: cbdd 773d 4cb1 a7bc 82b9 773c 1d35 60bd
000001b0: f862 f7bd df2b eb3d 765e f03d 61a2 30be
000001c0: 2336 85bd a203 0a3e 34d3 cfbc bd46 c7bd
000001d0: 66b7 a03b 4d7e 4bbd f7a1 b13d 74a3 99bc
000001e0: ce30 fbbc 31d7 aabd 17e0 783d 97f7 6d3d
000001f0: 65fc 2dbd 9170 b5bd cf0b 00be 2dc7 56bd
00000200: be12 8c3c 5baf 913d 1ee3 703c 56f0 8b3d
00000210: f5e5 62bd 9f9b 913d 2699 d53c 3a3c bb3c
00000220: 2127 5b3d 697d 57bd 4395 4ebd 2fa9 19bd
00000230: 536c d93d aac4 09bd 71fe 073c 6983 573d
00000240: e4ad ba3d 6407 003e a2a4 e0bd 5ac3 253d
00000250: 242f d4bd 9073 35be ef62 533e adb5 eb3c
00000260: c182 83bd 0d66 babb 03fa a2bd 2b05 20bd
00000270: 8ba8 8dbd ed5d 4a3e 607f c53c 0b8f f6bc
00000280: e9b0 9fbd 0f97 573e 0858 283d b433 563d
00000290: 5aee b73d 2251 923b 68fe 84bd f6f3 94bd
000002a0: 3af8 733a e500 263e 9bb5 373e c0e8 303e
000002b0: ee83 523e 24b0 30bd 5be7 9f3e 1e2b 55bd
000002c0: 47a4 943a c48f 8abd 394a 57bd 04b1 283e
000002d0: 37c5 2bbd 0f2c ae3d 44d8 8dbd 04ad a43d
000002e0: 0fc0 a03e 9b33 b13d 1b20 0c3e 3c90 b3bd
000002f0: 422c fdbc b3ea 743e 7c5e 833e af62 b93d
00000300: 5ff9 50bd 3707 383e 5e0e a9bc 16bb 123e
00000310: 9c56 d93d 3c8a a03e 63c2 963c 7a9d 8dbd
00000320: 4b4e c73d 7eb0 da3d 1f91 3f3d 863f bd3d
00000330: 3dc7 f03d 0e11 d2bd 435a ba3c 824c 043e
00000340: 9216 6f3d 3c30 9f3e 45c8 b93d aeb3 883d
00000350: 4501 343e f7c9 af3e dabc 2dbd 5cdf 4d3e
00000360: 388b b6bd a8fc 013d f70e 113d edb3 983e
00000370: b2e6 6c3e d0de e43d eba1 0abe 7ef2 21bd
00000380: 71a3 f53d 77bf c73d 6db9 803c 844c 913d
00000390: 12ca efbc 1aac 9f3d 8f69 863d 5f2e adbe
000003a0: c2b3 a7be 9a89 2a3e 1f71 6c3d 4296 a4bc
000003b0: 397a 0c3c 0b5b 73bd 33d3 183c 8db2 cfbc
000003c0: 0e95 523e 0f49 45be 9d28 d4bd 5c8f 1a3e
000003d0: 0113 06bd 7ace 04bc 7851 4b3d 4193 6c3a
000003e0: 5925 df3b f68f 9cbd 470e 2fbd f1d0 3e3e
000003f0: 8280 0fbc b48d 353d f6f0 323e 248a 313e

action_out.weight f4 [5, 256]
0.26137525 -0.009062657 -0.46436387 -0.7479591 -0.1966793 -0.057280596 -0.03281181 0.030915093
-0.30864036 -0.09715486 -0.00036429576 -0.03922112 0.30628347 -1.2404225 -0.027538756 0.5418101
0.018542787 -0.00072691316 -0.49909025 -0.17425859 -0.40442207 -0.07844631 0.0032016514 -0.018497754
-0.23959546 -0.05047903 -0.6143279 0.012199564 -0.41151905 -0.74413127 -1.0663105 0.5563942
-0.88130796 0.69073576 0.3809637 -0.01714843 0.013817464 0.122121476 0.5173 0.04641855
0.22784775 -0.39698493 0.40396628 -0.09415543 -0.49351147 0.039229847 -0.055183902 0.010705908
0.047656164 -0.0024953012 -0.60911673 0.23162615 0.16702794 0.041769113 0.066096544 0.22065438
-0.17998913 -0.18548766 -0.6290833 -0.084251 -0.062162735 -0.06695716 -1.1281784 -0.037946284
0.19190383 0.03748233 -0.356016 -0.12959899 0.033448406 -0.049222622 0.6536565 0.037498336
-0.2715192 -0.442183 -0.9098525 -0.07339036 0.49990875 -0.6100907 -0.49354953 0.1679868
-0.0492764 0.033930045 0.004462266 -0.41281384 0.60347056 -0.56635356 -0.002453343 0.0813396
-0.27944145 -0.32072318 0.3256855 0.05647234 0.536043 0.0013058999 0.09601202 0.2684256
-0.124605216 0.66412014 0.0016386186 -0.17840043 -0.17854898 -0.016982151 0.0010585433 0.040186357
-0.80562514 -0.017399866 0.24367379 -0.35991544 0.371582 0.23203193 0.28581104 -0.05382419
0.052272025 -0.17326665 -0.07607838 -0.04246957 -0.08774156 -0.02479081 -0.29676718 -0.010249317
0.06910163 0.017299376 -0.40623108 -0.6736211 0.32556838 0.032240517 -0.65121657 0.04863862
0.13470723 -0.115397945 -0.23644212 -0.30504283 -0.024533456 -0.16264981 -0.09580733 0.114266425
-0.62672085 -0.4353686 -0.027478088 -0.84613615 0.062262338 0.0071446565 -0.25857532 -0.04494253
-0.787305 0.03386123 -0.050053682 0.11114284 -0.3240687 -0.30443537 0.5281615 -0.022033505
0.030505648 -0.0035261477 -0.009768686 -0.73584175 0.013367466 0.27957034 -0.24796918 0.039582945
-0.05115058 -0.6571751 -0.8595683 0.2626246 -0.10364469 -0.040604513 0.05583475 0.37335798
0.0068642916 0.9548548 -0.185016 0.66185707 0.30411783 0.3549129 -0.46122298 0.09221344
0.010045331 0.0036167307 -0.5390654 0.121735945 -0.03663787 0.316246 0.19751546 -0.27951524
-0.01690159 0.32797042 0.44496387 -0.05179149 0.24440588 -0.96308804 -0.42383242 -0.75583494
0.006223432 0.20690912 -0.25556973 0.27351448 -0.59229785 -0.560167 -0.1307972 -0.0331514
0.2925048 0.037455674 -0.03662176 0.15665859 -0.48056036 -0.033878166 -0.061109547 0.12235879
0.025152022 -0.560661 -0.11855524 0.08638933 -0.23553395 -0.34286106 0.036333248 -0.483654
-0.03801349 -0.36809638 -1.0142827 -0.5398225 -0.34272036 0.2518575 0.10948766 -0.066138744
-0.51751596 -0.101665 -0.12496439 -0.13806674 0.018081285 0.12188231 -0.49442917 -0.008561546
-0.06414538 0.008519929 0.23663296 0.049671397 0.24324012 0.2936406 0.19139896 -0.21932447
-0.24776624 -1.2673532 -0.017381005 -0.08050212 0.016727686 -0.03936648 -0.447667 0.25433692
-0.033523634 0.050120607 -0.13675478 -0.74358 0.21926664 -0.40188965 0.86988205 -0.45247373
00000000: fad2 853e 8a7b 14bc 1ac1 edbe 3f7a 3fbf
00000010: 4c66 49be 0f9f 6abd ad65 06bd a641 fd3c
00000020: 1c06 9ebe 21f9 c6bd f3fe beb9 53a6 20bd
00000030: 30d1 9c3e 2ac6 9ebf f598 e1bc 11b4 0a3f
00000040: 0be7 973c 518e 3eba c288 ffbe d870 32be
00000050: 6910 cfbe 75a8 a0bd ccd2 513b 9a88 97bc
00000060: 8358 75be 19c3 4ebd 9844 1dbf aee0 473c
00000070: a0b2 d2be 637f 3ebf dd7c 88bf da6f 0e3f
00000080: 669d 61bf 0fd4 303f ad0d c33e dd7a 8cbc
00000090: a562 623c d31a fa3d c66d 043f 6121 3e3d
000000a0: ec50 693e 9c41 cbbe abd4 ce3e 90d4 c0bd
000000b0: 89ad fcbe 7aaf 203d 8408 62bd d567 2f3c
000000c0: 1c33 433d 3588 23bb 13ef 1bbf 682f 6d3e
000000d0: 5f09 2b3e 1716 2b3d a05d 873d 39f3 613e
000000e0: 124f 38be 7af0 3dbe 9a0b 21bf ca8b acbd
000000f0: 5a9e 7ebd d620 89bd 2668 90bf 906d 1bbd
00000100: 7082 443e 1287 193d bb47 b6be 99b5 04be
00000110: 3201 093d a99d 49bd 0856 273f db97 193d
00000120: 9104 8bbe cf65 e2be 18ec 68bf af4d 96bd
00000130: 0af4 ff3e e72e 1cbf 86b2 fcbe bb04 2c3e
00000140: 0dd6 49bd 3bfa 0a3d 3338 923b 565c d3be
00000150: 0c7d 1a3f 8cfc 10bf 44c8 20bb 6095 a63d
00000160: f312 8fbe d435 a4be 40c0 a63e 8a4f 673d
00000170: 1d3a 093f bb2a ab3a f3a1 c43d 156f 893e
00000180: 0531 ffbd c703 2a3f ebc6 d63a 9aae 36be
00000190: 8bd5 36be 271e 8bbc d2be 8a3a 739a 243d
000001a0: 733d 4ebf 2a8a 8ebc 9f85 793e d646 b8be
000001b0: ff3f be3e c799 6d3e d355 923e c176 5cbd
000001c0: 311b 563d d06c 31be fbce 9bbd 92f4 2dbd
000001d0: d9b1 b3bd 1916 cbbc def1 97be c0ec 27bc
000001e0: 2885 8d3d 6cb7 8d3c 85fd cfbe 6f72 2cbf
000001f0: e6b0 a63e a20e 043d 21b6 26bf 4a39 473d
00000200: b1f0 093e c255 ecbd e21d 72be 932e 9cbe
00000210: 63fa c8bc ac8d 26be a236 c4bd 8404 ea3d
00000220: c770 20bf a2e8 debe ba19 e1bc 619c 58bf
00000230: cb06 7f3d b91d ea3b fc63 84be a915 38bd
00000240: d28c 49bf 13b2 0a3d 1705 4dbd db9e e33d
00000250: 55ec a5be f4de 9bbe 9835 073f 9c7f b4bc
00000260: fbe6 f93c f116 67bb d70c 20bc 2060 3cbf
00000270: 3703 5b3c d823 8f3e a2eb 7dbe ba21 223d
00000280: 4583 51bd a13c 28bf ab0c 5cbf bb76 863e
00000290: ab43 d4bd eb50 26bd fbb2 643d c728 bf3e
000002a0: daed e03b 5d71 743f d674 3dbe 776f 293f
000002b0: 55b5 9b3e 25b7 b53e 6b25 ecbe 66da bc3d
000002c0: 2c95 243c ac06 6d3b 3100 0abf b250 f93d
000002d0: 9711 16bd ffea a13e 7e41 4a3e 9f1c 8fbe
000002e0: 3475 8abc bdeb a73e 4ed2 e33e 5023 54bd
000002f0: 8945 7a3e f08c 76bf 9000 d9be 667e 41bf
00000300: eeed cb3b fcdf 533e 09da 82be 170a 8c3e
00000310: d5a0 17bf 1b67 0fbf b4ef 05be c3c9 07bd
00000320: 30c3 953e 1f6b 193d b300 16bd 1c6b 203e
00000330: 020c f6be d5c3 0abd 014e 7abd 3f97 fa3d
00000340: 9d0b ce3c 7b87 0fbf 17cd f2bd e4ec b03d
00000350: d02f 71be 7c8b afbe 2cd2 143d 7fa1 f7be
00000360: 09b4 1bbd 2177 bcbe 04d4 81bf cf31 0abf
00000370: 0b79 afbe 77f3 803e 113b e03d c073 87bd
00000380: ed7b 04bf bd35 d0bd 55ed ffbd 5e61 0dbe
00000390: 341f 943c 6f9d f93d d225 fdbe ba45 0cbc
000003a0: a75e 83bd 2c97 0b3c e94f 723e 3c74 4b3d
000003b0: f013 793e 1058 963e 17fe 433e 9896 60be
000003c0: 6fb6 7dbe a138 a2bf 9c62 8ebc 4cde a4bd
000003d0: 8008 893c bf3e 21bd 9c34 e5be 7338 823e
000003e0: 1450 09bd 444b 4d3d 7209 0cbe 425b 3ebf
000003f0: 6f87 603e 7bc4 cdbe 97b0 5e3f a3aa e7be

action_out.bias f4 [5]
0.45067987 0.038393505 0.00841731 0.15863979 -0.26970467
00000000: 83bf e63e 8242 1d3d c2e8 093c 7872 223e
00000010: bb16 8abe

weight f4 [256, 123]
0.03758747 -0.12328058 0.07169626 -0.059070524 0.08220065 -0.16683647 0.038791995 -0.08508939
-0.10101879 0.049033307 -0.023556903 -0.020501008 -0.11159777 -0.01027749 0.025144026 -0.13539448
-0.0398977 0.045918103 0.0928393 -0.0414751 -0.016779637 -0.002717608 0.029295227 -0.010891761
0.015091588 -0.029691027 0.10228867 -0.040929142 0.02574389 -0.1171747 -0.08913319 0.017569821
-0.009637204 -0.073284775 0.025196046 -0.071373574 0.05698392 -0.041619174 -0.044188228 -0.02112348
0.05818011 -0.24647678 0.065826654 -0.034059715 -0.19523261 -0.039608397 -0.09157407 -0.09870708
-0.003422433 -0.15042828 -0.08093845 -0.010763422 -0.036564432 0.068823226 -0.039904255 0.0007848909
-0.059026428 0.06965422 -0.013234933 -0.093189344 -0.09378636 -0.09875697 -0.0456601 -0.02077034
0.05953045 -0.07016566 -0.023944162 -0.031444248 -0.0758495 -0.10227862 0.08869647 0.09962789
0.024748404 -0.14371443 -0.12518784 0.0061434726 -0.083749995 -0.20633139 -0.03596015 -0.05357137
-0.050953507 0.0723858 0.006908395 -0.01643889 -0.012301231 -0.08469742 -0.093636364 -0.020964734
0.06735124 0.11369788 0.027267452 -0.13826573 -0.003501907 -0.057243206 -0.012804281 -0.14148404
0.00017763769 -0.022527814 -0.0174369 -0.09649312 -0.16882695 -0.044012073 0.06306397 -0.0031894227
-0.08516327 0.04812842 -0.06106553 0.080415465 -0.15809692 -0.09835113 -0.12680152 -0.034537304
-0.18218246 -0.16829215 -0.13370736 0.07185008 -0.12992586 0.0764719 0.079105616 -0.053361848
-0.114287496 -0.06391153 -0.065062046 -0.02523302 -0.08858542 -0.06868639 -0.031672806 -0.07768152
0.06344987 -0.020947918 -0.026177788 0.047449954 -0.016485289 -0.07259146 0.017475782 0.00034905647
-0.0151469335 -0.07009296 -0.122485854 0.03916088 0.08470064 -0.03747366 -0.0355629 -0.05110697
-0.009243883 -0.036991205 0.014199348 0.022409005 -0.09705475 0.06659031 -0.038138077 -0.10133036
-0.08664497 -0.014547723 0.04772509 -0.01893103 -0.011671163 -0.021885715 0.059453048 -0.08239587
-0.07956121 -0.01737174 0.004233434 -0.03436784 0.065624036 0.07990832 0.015874742 -0.011746656
-0.059656613 0.083593205 -0.02324181 -0.052831676 -0.051765725 0.034772806 -0.0055025686 0.048099205
0.006498322 0.053419434 -0.12183105 0.038591694 0.06756044 0.033821903 -0.11873577 -0.050232768
-0.09079693 -0.010489742 0.041335773 0.054666046 -0.0762593 -0.05692212 -0.12053305 -0.053285435
-0.038004793 -0.020172633 0.026558869 -0.08458589 0.019372992 -0.0029662566 -0.029478231 0.0035995168
-0.014388844 0.019981436 -0.111623496 -0.07265626 0.092336595 0.06252105 0.03226981 -0.06301147
-0.06049124 -0.043161865 -0.004865538 -0.0016425906 -0.0025012812 0.06319809 -0.0076229596 -0.046980496
0.079394855 -0.028517444 -0.09118404 0.0759094 -0.008858189 -0.07183102 -0.07461516 -0.011968044
-0.032671176 -0.016872643 0.00900278 0.07111526 -0.084892385 -0.10634525 0.054339938 0.0024647606
-0.08936587 0.010146621 0.007478701 -0.009380533 -0.064206004 -0.08196148 0.05226858 -0.01171999
-0.09765074 -0.059697844 0.006446836 0.021467008 -0.028248196 -0.11624248 0.09892178 -0.022955403
0.23043066 -0.14232168 0.20046139 -0.2878047 -0.64353126 0.034507643 0.19272952 0.07986889
00000000: 52f5 193d 877a fcbd 7dd5 923d eff3 71bd
00000010: d058 a83d 2ed7 2abe 5be4 1e3d 5943 aebd
00000020: f0e2 cebd 26d7 483d 68fa c0bc bbf1 a7bc
00000030: 5f8d e4bd eb62 28bc d8fa cd3c daa4 0abe
00000040: c56b 23bd 9f14 3c3d 8822 be3d cbe1 29bd
00000050: 7375 89bc e519 32bb 8bfc ef3c 5b73 32bc
00000060: b542 773c 993a f3bc b97c d13d 51a5 27bd
00000070: dae4 d23c 4af9 efbd 768b b6bd 96ee 8f3c
00000080: 5de5 1dbc 5416 96bd f067 ce3c 4f2c 92bd
00000090: f967 693d de78 2abd b7fe 34bd 260b adbc
000000a0: 444e 6e3d 6964 7cbe 20d0 863d 3382 0bbd
000000b0: 0feb 47be 6a3c 22bd 308b bbbd f026 cabd
000000c0: e64a 60bb df09 1abe 0fc3 a5bd 1059 30bc
000000d0: 96c4 15bd 31f3 8c3d a572 23bd 23c1 4d3a
000000e0: b2c5 71bd dfa6 8e3d 55d7 58bc 0eda bebd
000000f0: 1013 c0bd 1841 cabd 1606 3bbd 8f26 aabc
00000100: 33d6 733d 03b3 8fbd 8c26 c4bc afcb 00bd
00000110: fc56 9bbd 7477 d1bd 7fa6 b53d b509 cc3d
00000120: 2abd ca3c e029 13be 3e31 00be 2f4f c93b
00000130: 1e85 abbd 8948 53be f34a 13bd a76d 5bbd
00000140: a0b4 50bd 023f 943d d15f e23b daaa 86bc
00000150: 1a8b 49bc d775 adbd 6cc4 bfbd 3cbe abbc
00000160: 72ef 893d 6fda e83d fe5f df3c 8895 0dbe
00000170: 4080 65bb da77 6abd 0cc9 51bc 31e1 10be
00000180: 4144 3a39 408c b8bc d4d7 8ebc 2f9e c5bd
00000190: f9e0 2cbe 0146 34bd af27 813d a205 51bb
000001a0: 156a aebd 4e22 453d d91f 7abd ddb0 a43d
000001b0: 29e4 21be 516c c9bd 42d8 01be fd76 0dbd
000001c0: 0a8e 3abe c754 2cbe 95ea 08be 2226 933d
000001d0: 490b 05be 4d9d 9c3d 2002 a23d f491 5abd
000001e0: 900f eabd 0ce4 82bd 403f 85bd 7ab5 cebc
000001f0: 466c b5bd 73ab 8cbd 58bb 01bd 7d17 9fbd
00000200: 01f2 813d f89a abbc cd72 d6bc e25a 423d
00000210: 280c 87bc d5aa 94bd 5f29 8f3c 9101 b739
00000220: d82a 78bc e68c 8fbd ddd9 fabd 2967 203d
00000230: 8777 ad3d fb7d 19bd 67aa 11bd 8b55 51bd
00000240: a873 17bc 1784 17bd 62a4 683c 1793 b73c
00000250: a4c4 c6bd 8060 883d ac36 1cbd 4b86 cfbd
00000260: eb72 b1bd 9359 6ebc 627b 433d 3f15 9bbc
00000270: 6838 3fbc ac49 b3bc 0a85 733d 2abf a8bd
00000280: fdf0 a2bd 2e4f 8ebc 9eb8 8a3b 4bc5 0cbd
00000290: e565 863d f9a6 a33d bf0b 823c 0c75 40bc
000002a0: 7e5a 74bd ea32 ab3d 9c65 bebc 0766 58bd
000002b0: 4c08 54bd ee6d 0e3d e44e b4bb ac03 453d
000002c0: e0ef d43b 56ce 5a3d 8f82 f9bd 5312 1e3d
000002d0: 215d 8a3d d688 0a3d bd2b f3bd e0c0 4dbd
000002e0: bef3 b9bd 2bdd 2bbc b34f 293d 81e9 5f3d
000002f0: d62d 9cbd 2b27 69bd 08da f6bd d441 5abd
00000300: eaaa 1bbd 1441 a5bc fc91 d93c 5e3b adbd
00000310: 1cb4 9e3c 8765 42bb 557c f1bc dfe5 6b3b
00000320: 30bf 6bbc 1cb0 a33c dc9a e4bd cecc 94bd
00000330: f81a bd3d 090b 803d 592d 043d 280c 81bd
00000340: aac5 77bd 7fca 30bd 176f 9fbb 324c d7ba
00000350: 89ec 23bb 006e 813d 05ca f9bb 9f6e 40bd
00000360: c599 a23d 6a9d e9bc b3be babd 6376 9b3d
00000370: f021 11bc 241c 93bd d5cf 98bd 9d15 44bc
00000380: 36d2 05bd 7f38 8abc 6580 133c e1a4 913d
00000390: 0fdc adbd 8acb d9bd 8e93 5e3d d287 213b
000003a0: 7405 b7bd 033e 263c e40f f53b cfb0 19bc
000003b0: 707e 83bd 6cdb a7bd 9417 563d 3305 40bc
000003c0: 1cfd c7bd ba85 74bd fb3f d33b 94db af3c
000003d0: c368 e7bc 8a10 eebd 8197 ca3d f80c bcbc
000003e0: 04f6 6b3e c6bc 11be c045 4d3e 235b 93be
000003f0: 77be 24bf e357 0d3d e35a 453e 4d92 a33d

bias f4 [256]
-0.08065664 0.026196968 -0.1325995 -0.0877258 0.21105425 0.2397511 -0.047815483 -0.077068545
0.051938623 -0.06509851 -0.06632195 0.17034937 0.10840077 0.06804641 0.023040766 -0.017346036
0.055429474 -0.055028778 0.18883388 -0.10193517 0.09112218 0.101329476 0.25569174 -0.01707172
0.110634655 -0.11281742 0.06056722 -0.12008943 -0.025886068 0.034616873 0.19960554 0.026168182
0.045412663 0.040861867 0.24506356 -0.041385308 0.15313849 0.26253372 0.041111838 0.112666026
0.2530597 -0.12637222 0.2318109 0.017803213 -0.030700447 -0.019232808 0.08573833 -0.003468741
-0.039603226 0.038048714 0.020775564 -0.09142387 0.043166503 -0.07604201 0.14050746 -0.051986832
-0.046576213 -0.115055285 0.030578097 -0.050273262 -0.16770782 0.07300947 -0.20387377 0.22309737
0.18074064 -0.045896504 0.108984955 0.02510986 0.13507783 -0.22365034 0.15527119 0.20289624
-0.118498646 0.07297222 0.29173863 -0.015439978 -0.002751064 0.081862345 -0.038731728 0.2081743
-0.01863331 -0.061170936 -0.12904344 -0.06706122 -0.0432532 0.18532984 0.15376481 0.11923098
0.03700502 -0.008172136 -0.025366953 0.23871419 0.009082065 -0.084091604 0.004879633 0.25299215
-0.124305554 0.036870304 0.024590466 0.071769446 -0.0109394165 0.09633027 0.20275714 -0.12868851
0.08430103 -0.009889241 0.21668334 -0.13918988 0.26046512 0.21464452 0.017150093 0.011765997
-0.070917204 -0.09433725 -0.11485832 0.15807176 -0.013579625 0.0034557024 -0.102933235 0.09651643
-0.10853781 0.1762773 -0.029818688 -0.027277056 0.055981234 -0.03593112 -0.036024 0.03312575
-0.10114358 0.2694404 0.005778205 -0.024506276 -0.018581446 -0.107693635 0.17988113 -0.07207265
0.13079967 0.07931076 0.15430665 0.19766545 0.044895723 0.04431747 0.09381191 0.28997603
-0.0067613143 -0.08369803 0.07283664 -0.03450572 -0.0719653 0.057299916 -0.03699292 -0.11961558
0.009448774 -0.07093476 0.21891178 0.23124771 0.11911788 0.0460875 -0.058872916 -0.07960455
0.022573447 -0.06113165 -0.091469176 0.057438757 -0.08818891 -0.09420867 -0.072198465 0.06523526
-0.060189646 0.102584675 -0.069372706 0.043764275 -0.038964804 -0.027062485 0.107974716 0.030529449
-0.1698994 0.28369302 0.10624152 -0.041574307 0.2587863 0.025501113 0.019286664 0.061750233
0.19851908 0.0069669546 0.25604403 -0.030653555 -0.087559104 -0.11343635 0.040831786 0.24924101
0.027647372 -0.03156318 -0.07470257 0.12576278 0.18030798 -0.06294722 -0.09344729 0.14414078
0.23041642 -0.06557844 -0.029726153 -0.09349139 0.07020278 -0.067558534 -0.0785173 0.014634305
-0.03304385 8.460305e-05 0.21991123 -0.07237481 0.2002899 -0.043520503 0.2384351 0.2424912
0.070900545 0.101532996 -0.09994194 -0.19262768 -0.08018582 -0.08743415 -0.048386097 0.1021592
-0.09644113 0.033189125 0.26047733 0.028172316 -0.066610746 -0.15272313 0.12975945 -0.08536777
0.010127632 0.2035216 0.18276362 -0.040335037 -0.16249469 0.10412931 0.21409492 0.25399134
0.07736435 -0.068387315 0.019852275 0.0608436 0.13764666 0.090695105 -0.12299244 0.15304205
0.26275694 0.12074113 0.18654177 0.08375743 0.1367317 0.07703656 -0.036127336 0.11687314
00000000: 4f2f a5bd 069b d63c 2ac8 07be 96a9 b3bd
00000010: 9b1e 583e 5081 753e 2bda 43bd 1dd6 9dbd
00000020: 98bd 543d 5e52 85bd cdd3 87bd 1170 2e3e
00000030: 3901 de3d eb5b 8b3d fdbf bc3c 4619 8ebc
00000040: 040a 633d db65 61bd ab5d 413e 63c3 d0bd
00000050: 449e ba3d d485 cf3d 07ea 823e fed9 8bbc
00000060: 6c94 e23d d20c e7bd 5515 783d 72f1 f5bd
00000070: 050f d4bc 6cca 0d3d 6565 4c3e a85e d63c
00000080: a102 3a3d c65e 273d f1f1 7a3e a483 29bd
00000090: 56d0 1c3e d26a 863e e364 283d 72bd e63d
000000a0: 0a91 813e b867 01be d65f 6d3e 0bd8 913c
000000b0: 817f fbbc 1f8e 9dbc 9497 af3d d153 63bb
000000c0: fe36 22bd f8d8 1b3d 8431 aa3c 703c bbbd
000000d0: 5ccf 303d eabb 9bbd 30e1 0f3e 25f0 54bd
000000e0: b3c6 3ebd 1ba2 ebbd eb7e fa3c 56eb 4dbd
000000f0: 99bb 2bbe fd85 953d 49c4 50be a373 643e
00000100: 1314 393e f9fd 3bbd 8133 df3d 31b3 cd3c
00000110: d851 0a3e 9804 65be 69ff 1e3e 08c4 4f3e
00000120: 6baf f2bd 7672 953d c45e 953e f6f7 7cbc
00000130: 324b 34bb 72a7 a73d 29a5 1ebd a52b 553e
00000140: e2a4 98bc 608e 7abd f723 04be 6557 89bd
00000150: 442a 31bd 1bc7 3d3e 8674 1d3e 5f2f f43d
00000160: 9392 173d 6ce4 05bc 5bce cfbc 7e71 743e
00000170: f1cc 143c 3838 acbd 54e5 9f3b 3088 813e
00000180: e993 febd 5105 173d f271 c93c dcfb 923d
00000190: 3d3b 33bc ce48 c53d 919f 4f3e ecc6 03be
000001a0: 05a6 ac3d 7c06 22bc 3de2 5d3e cb87 0ebe
000001b0: af5b 853e c6cb 5b3e 5a7e 8c3c 2bc6 403c
000001c0: 0a3d 91bd e333 c1bd d73a ebbd 90dd 213e
000001d0: 137d 5ebc 1179 623b a9ce d2bd 68aa c53d
000001e0: 1249 debd 0982 343e 5246 f4bc 2274 dfbc
000001f0: 944c 653d 832c 13bd e78d 13bd deae 073d
00000200: 5e24 cfbd 18f4 893e 1957 bd3b 63c1 c8bc
00000210: 1e38 98bc 7b8e dcbd c232 383e d39a 93bd
00000220: 59f0 053e ae6d a23d 9002 1e3e d068 4a3e
00000230: 94e4 373d 3c86 353d 7520 c03d bd77 943e
00000240: 048e ddbb df69 abbd 602b 953d df55 0dbd
00000250: 8b62 93bd 51b3 6a3d e385 17bd 03f9 f4bd
00000260: 08cf 1a3c 3e46 91bd 692a 603e 33cc 6c3e
00000270: 13f4 f33d 3fc6 3c3d ba24 71bd b607 a3bd
00000280: f3eb b83c 2e65 7abd 3154 bbbd e744 6b3d
00000290: 639c b4bd 7af0 c0bd cadc 93bd 109a 853d
000002a0: 6b89 76bd ea17 d23d 4713 8ebd 2b42 333d
000002b0: 8f99 1fbd 25b2 ddbc d921 dd3d e518 fa3c
000002c0: 1cfa 2dbe 3640 913e 2795 d93d d249 2abd
000002d0: a37f 843e b6e7 d03c 11ff 9d3c d0ed 7c3d
000002e0: 9648 4b3e 0d4b e43b 3418 833e 2a1d fbbc
000002f0: 3052 b3bd 5151 e8bd 3b3f 273d 0939 7f3e
00000300: be7c e23c 6548 01bd a9fd 98bd f5c7 003e
00000310: a8a2 383e 79ea 80bd 4b61 bfbd a499 133e
00000320: 48f2 6b3e fd4d 86bd 4384 f3bc 6a78 bfbd
00000330: 7ac6 8f3d 215c 8abd aecd a0bd b9c4 6f3c
00000340: fd58 07bd eb6c b138 6930 613e 3f39 94bd
00000350: cc18 4d3e 8e42 32bd 5528 743e 9d4f 783e
00000360: 4e34 913d 88f0 cf3d 5cae ccbd 3140 45be
00000370: 7738 a4bd ad10 b3bd 8030 46bd d838 d13d
00000380: ed82 c5bd 52f1 073d 495d 853e a1c9 e63c
00000390: 376b 88bd 7463 1cbe a9df 043e 4cd5 aebd
000003a0: 5eee 253c f767 503e 6326 3b3e 5a36 25bd
000003b0: 0265 26be bf41 d53d b33b 5b3e 270b 823e
000003c0: 3371 9e3d a60e 8cbd 3da1 a23c 2437 793d
000003d0: 3ff3 0c3e 5bbe b93d 76e3 fbbd 0eb7 1c3e
000003e0: 1488 863e 2047 f73d ce04 3f3e 0489 ab3d
000003f0: 6503 0c3e 58c5 9d3d 42fa 13bd 2f5b ef3d

weight f4 [256, 256]
0.012994866 -0.0026843399 -0.030609025 -0.043110706 -0.09816603 -0.0003898534 0.036482617 -0.020038325
0.038713004 0.00651408 0.03005775 -0.027783941 -0.08122793 0.023448382 0.0059270933 0.021561686
-0.060880877 0.0703788 -0.034054525 0.039350674 0.058867835 0.012457499 -0.03302402 -0.056851644
-0.056118626 -0.031797335 0.010863811 -0.02794592 0.055707403 -0.039987303 -0.0070025795 -0.025485829
-0.037460633 -0.00071021705 -0.0228587 0.012579982 -0.06885826 -0.09404272 0.042491823 0.03241098
-0.014579332 -0.020045921 -0.062030036 -0.013965564 0.023931488 0.01584319 0.02510568 0.030499304
-0.027422868 -0.08461265 -0.022819348 -0.0007957816 0.035753034 -0.0071024 -0.028501282 -0.08757353
0.020345999 0.008611575 -0.05641448 -0.03805569 0.05123029 -0.031677432 0.035057146 -0.012464491
-0.081053615 -0.06330872 0.0052328855 -0.0049844235 -0.0007857291 -0.049399152 -0.0116155185 0.009203191
-0.012558565 -0.047883507 -0.0343503 -0.05043251 -0.050466627 0.0155551 0.01796902 -0.037248224
-0.04889764 0.007816561 -0.055256795 -0.060104623 0.049982846 -0.0360485 0.009655408 -0.060730755
0.037820574 0.05658212 0.0024111941 -0.07951711 -0.026413575 -0.018944427 -0.010495624 0.0001307693
-0.024660595 -0.05368113 -0.009699821 -0.0013554172 0.055941567 -0.009168238 -0.029955389 -0.0340861
-0.042967718 0.044735834 0.009701401 0.024526944 0.01108352 -0.0035400642 -0.0019778162 -0.007434278
-0.051537976 0.028948925 0.053516887 0.025018975 -0.04660954 0.024381632 0.04972394 0.028003681
-0.009099047 -0.03522222 0.00598842 -0.045564465 0.003361733 0.023421692 0.015898526 0.00026709962
-0.007352774 -0.057245366 0.016185224 -0.008947594 0.020089464 -0.04835089 -0.024574783 -0.040676296
0.0233633 -0.09922035 -0.02333 -0.015971217 -0.0010296912 -0.04009332 -0.05670772 -0.037306707
-0.00036607392 -0.031858157 -0.040222075 -0.008640658 -0.08631645 -0.03315125 -0.033277888 0.033177726
0.006115812 0.02282545 -0.011754809 -0.08869302 -0.085096374 -0.05396378 -0.003967561 0.048032813
0.03395941 -0.011767551 -0.034822322 -0.026256679 0.051510535 -0.013163678 -0.04740792 -0.07385383
-0.08544886 -0.06533922 -0.054112785 -0.023821857 0.0058419406 -0.0087023685 0.0073781195 -0.019945638
7.094158e-05 -0.0016899877 -0.015590282 0.028529204 -0.06296846 0.019558704 -0.026393663 0.0204084
-0.011296455 0.005178757 -0.0079283295 -0.007389964 0.018342713 -0.055574935 -0.06512232 0.0054685315
0.045163326 -0.048129894 0.026127126 0.010873076 0.0036761463 -0.013599953 -0.020691127 0.0011492223
-0.0595829 -0.039392427 0.008557693 0.058776014 0.0050394144 -0.05701804 0.009138223 0.0056404322
0.021574572 -0.030445227 -0.020925783 -0.055779245 -0.024426 0.06352452 -0.068857074 -0.005234828
0.03805414 -0.03975429 0.017231263 0.041435406 0.050958306 0.007477939 -0.040316924 0.040239267
-0.057170954 0.0067393444 -0.02183804 -0.044344526 0.043704532 -0.0049312836 -0.024933312 0.033415783
0.020085424 -0.09456606 -0.004385799 -0.061897762 -0.011403636 -0.032606162 -0.060132626 0.0002246895
-0.0125368 0.010573119 -0.008550189 -0.056032505 0.032259807 0.007712098 0.020290658 -0.025895094
-0.03536052 -0.054903153 -0.029208288 -0.06425572 -0.02660416 -0.046225432 -0.024708167 -0.093121424
00000000: 6be8 543c c0eb 2fbb c7bf fabc da94 30bd
00000010: 460b c9bd 3d65 ccb9 cc6e 153d 6a27 a4bc
00000020: 8791 1e3d 1074 d53b ac3b f63c 269b e3bc
00000030: d45a a6bd d216 c03c 1038 c23b 22a2 b03c
00000040: 3a5e 79bd c322 903d c27c 0bbd 2c2e 213d
00000050: 661f 713d 8a1a 4c3c 3244 07bd 45dd 68bd
00000060: a5dc 65bd ec3d 02bd 20fe 313c d8ee e4bc
00000070: 722d 643d bac9 23bd e575 e5bb a8c7 d0bc
00000080: 5270 19bd dc2d 3aba 2b42 bbbc 451c 4e3c
00000090: 8f05 8dbd 7899 c0bd e80b 2e3d 60c1 043d
000000a0: 27de 6ebc 5837 a4bc 3513 7ebd d2cf 64bc
000000b0: f80b c43c 94c9 813c 6daa cd3c add9 f93c
000000c0: eca5 e0bc 6649 adbd a4ef babc 009c 50ba
000000d0: c671 123d 40bb e8bb 857b e9bc c059 b3bd
000000e0: a7ac a63c 9017 0d3c df12 67bd 48e0 1bbd
000000f0: dad6 513d 32c0 01bd 1598 0f3d dd37 4cbc
00000100: 70ff a5bd 01a8 81bd a078 ab3b 6054 a3bb
00000110: 63f9 4dba c456 4abd 044f 3ebc fbc8 163c
00000120: 70c2 4dbc 7f21 44bd e6b2 0cbd 5292 4ebd
00000130: 18b6 4ebd d1da 7e3c c433 933c 9891 18bd
00000140: e448 48bd 0811 003c f354 62bd 4430 76bd
00000150: d0ba 4c3d 98a7 13bd b731 1e3c d0c0 78bd
00000160: bfe9 1a3d a7c2 673d 2005 1e3b ded9 a2bd
00000170: 4861 d8bc 5831 9bbc d6f5 2bbc 1e1f 0939
00000180: 0405 cabc bfe0 5bbd ffeb 1ebc 41a8 b1ba
00000190: fc22 653d 6136 16bc 0165 f5bc de9d 0bbd
000001a0: ebfe 2fbd ec3c 373d a0f2 1e3c bbec c83c
000001b0: a797 353c 6c00 68bb 409e 01bb 3e9b f3bb
000001c0: 7c19 53bd 4c26 ed3c 8634 5b3d 98f4 cc3c
000001d0: a5e9 3ebd fdbb c73c 55ab 4b3d fa67 e53c
000001e0: 2b14 15bc 2d45 10bd 823a c43b cea1 3abd
000001f0: 8550 5c3b d9de bf3c a03d 823c 8109 8c39
00000200: 8aef f0bb 1e7a 6abd e096 843c ee98 12bc
00000210: a992 a43c 950b 46bd 0e51 c9bc 309c 26bd
00000220: 6464 bf3c 0a34 cbbd 8e1e bfbc 12d6 82bc
00000230: b4f6 86ba e538 24bd 5b46 68bd ebce 18bd
00000240: 9ced bfb9 b37d 02bd e7bf 24bd 8c91 0dbc
00000250: aec6 b0bd 9bc9 07bd 654e 08bd 5ee5 073d
00000260: 2667 c83b 70fc ba3c 3e97 40bc b0a4 b5bd
00000270: 0247 aebd 2009 5dbd 5002 82bb 0ebe 443d
00000280: 0619 0b3d b0cc 40bc daa1 0ebd 3f18 d7bc
00000290: b6fc 523d 78ac 57bc cf2e 42bd ad40 97bd
000002a0: d0ff aebd 92d0 85bd 5ea5 5dbd 0e26 c3bc
000002b0: c06d bf3b 6194 0ebc 27c4 f13b 0965 a3bc
000002c0: 79c6 9438 9482 ddba 626e 7fbc 14b6 e93c
000002d0: 9cf5 80bd 9339 a03c 8637 d8bc 842f a73c
000002e0: c414 39bc 90b2 a93b d3e5 01bc 8327 f2bb
000002f0: 7543 963c 8ba2 63bd da5e 85bd 5e31 b33b
00000300: 2efd 383d da23 45bd 8e08 d63c fc24 323c
00000310: 80eb 703b 56d2 5ebc 7080 a9bc 80a1 963a
00000320: 330d 74bd f459 21bd 9135 0c3c 1ebf 703d
00000330: ac21 a53b c08b 69bd 7cb8 153c 60d3 b83b
00000340: 28bd b03c 4568 f9bc 8c6c abbc c778 64bd
00000350: 0919 c8bc 2519 823d f004 8dbd ec88 abbb
00000360: a8de 1b3d 65d5 22bd 9428 8d3c 2cb8 293d
00000370: a8b9 503d 8009 f53b 5c23 25bd eed1 243d
00000380: 172c 6abd b8d5 dc3b b0e5 b2bc 9ba2 35bd
00000390: 8603 333d 9b96 a1bb f240 ccbc fdde 083d
000003a0: 308a a43c daab c1bd c0b6 8fbb 8288 7dbd
000003b0: 51d6 3abc 0a8e 05bd a14d 76bd a19a 6b39
000003c0: 2667 4dbc e03a 2d3c 1816 0cbc 5782 65bd
000003d0: dc22 043d c4b5 fc3b 9838 a63c f321 d4bc
000003e0: 31d6 10bd 21e2 60bd 3846 efbc 8198 83bd
000003f0: f8f0 d9bc e156 3dbd c868 cabc 72b6 bebd
