src/saved_models/grid_world_seed125_8_7_15_42_成了/125_187_model.pt (torch, 702741 bytes, 11 tensors)

FC1.weight f4 [256, 36]
-0.17533836 -0.16496176 0.24558178 0.12006751 -0.3900485 -0.53654134 0.15360582 -0.034023073
0.25705662 -0.4132907 0.58739763 -0.20366296 0.4472098 -0.36691973 0.33777854 -0.066808544
0.09336343 -0.2690088 -0.14994198 -0.6589924 0.28673428 -0.13310003 0.2461226 -0.3325564
-0.14437576 0.5294201 -0.030218976 0.07256853 0.42799407 -0.57315373 0.016699808 -0.19375236
-0.71286565 0.27997056 0.12639526 -0.38302574 0.042212754 -0.26908162 0.086186 -0.1094904
-0.45584422 -0.8148116 -0.07988666 -0.41644275 -0.0610438 0.20249902 0.5640709 0.08626828
-0.07243602 -1.348114 0.077159025 -0.35907197 -0.29370332 -0.6202132 0.15083742 -0.757082
0.027882459 -0.8326277 0.32115656 -0.27560866 -0.18923523 0.27111194 -0.67242384 0.31081346
0.09323838 0.3628653 0.29060885 0.08893845 0.26224786 -1.187321 0.19636081 -0.0074755806
-0.009694617 -0.11074379 -0.43135118 0.05097774 -0.64365673 0.10086153 -0.48970887 0.015350746
-0.44292453 -0.18915994 0.44648194 -0.40723804 0.98123014 -0.17986889 -0.447626 0.07999989
-0.2902023 0.27758405 -1.1315205 -0.5337991 0.30769205 -0.28709298 -0.4240479 -0.1767307
-0.29436266 0.4704844 -0.45301157 -0.20606433 -0.03281589 -0.15457156 -0.20443112 -0.04902516
-0.12540397 -0.76958734 -0.8761966 -0.108483896 -0.011421564 -0.13706234 -0.034774307 -0.28630581
-0.25960565 -0.44231147 -0.83321375 -0.18570098 0.14475124 0.14431272 0.41796738 -0.13025431
0.5460673 -0.64675474 -0.58965373 -0.0870573 0.020653792 -0.06937251 -0.11136086 0.12721649
-0.01198071 -0.6702102 -0.29553482 -0.09760847 0.15102297 -0.69694954 -0.6464442 0.040980667
0.50553507 0.15351085 -0.020298913 0.012531387 -0.036385275 -0.4167739 0.1870721 0.006798576
0.011878994 0.041108888 0.20569296 0.13416107 0.3659964 -0.09710719 -1.1746308 0.09658889
0.12592897 0.29738763 -0.42514744 0.032344896 0.47339982 -0.33464918 -0.22283179 0.11982906
0.05200629 0.35598636 -0.23535348 0.48347303 0.1314461 0.15824834 -0.3093088 0.30433178
0.24267314 -0.9009219 0.37548938 -0.19253473 0.29568467 -0.1102922 -0.23226677 -0.19300656
-1.1638362 -0.20805323 0.13825615 0.0018580693 -0.22919011 -0.17753804 0.26370206 -0.019766448
0.33126846 0.1291294 -0.92346776 -0.09134221 0.17190866 -0.43686014 -0.24367855 0.019567173
-0.38864976 -0.044084705 -0.66763425 -0.107829556 0.2243526 -0.044367656 0.3741685 -0.078213446
-0.2854042 -0.007928246 -0.44195837 -0.08500716 0.13046259 -0.32196894 0.9884807 -0.021968849
0.3119784 -0.12832814 -0.13081603 -0.51151013 0.15477057 -0.51578784 -0.35459977 0.25124726
0.2819391 0.09848882 0.16380228 0.19135106 0.043336134 0.33807456 -0.40665177 0.0573756
0.10316196 -0.48353392 0.11629257 0.42346913 0.36782706 0.21784654 0.07313585 0.109615505
-0.028705634 -0.88454163 -0.4367328 0.082310334 -0.0026342792 0.16583548 -0.13305248 -0.11811637
-0.020422807 0.034574978 0.42543966 -0.22391872 0.35597146 0.008342482 -0.025917843 -0.07988499
-0.12488567 -0.060947254 -0.3614324 -0.5934276 -0.038281526 -0.04950092 0.066541046 -0.4159067
00000000: e68b 33be bceb 28be ca79 7b3e f4e5 f53d
00000010: 70b4 c7be c65a 09bf d84a 1d3e c75b 0bbd
00000020: ed9c 833e d79a d3be b15f 163f 068d 50be
00000030: aff8 e43e e7dc bbbe 4ff1 ac3e ebd2 88bd
00000040: 5335 bf3d 85bb 89be 648a 19be bab3 28bf
00000050: d6ce 923e 604b 08be 9007 7c3e d544 aabe
00000060: 3dd7 13be 1388 073f c98d f7bc cf9e 943d
00000070: 0a22 db3e 34ba 12bf 09ce 883c 0567 46be
00000080: 5d7e 36bf 4d58 8f3e c26d 013e f31b c4be
00000090: 48e7 2c3d 11c5 89be 4982 b03d 813c e0bd
000000a0: 6a64 e9be 7e97 50bf 9e9b a3bd fc37 d5be
000000b0: 1009 7abd e75b 4f3e f366 103f 6dad b03d
000000c0: 5659 94bd 008f acbf 8d05 9e3d 48d8 b7be
000000d0: 4860 96be 4bc6 1ebf 2075 1a3e 20d0 41bf
000000e0: c169 e43c 1727 55bf a26e a43e 941c 8dbe
000000f0: e1c6 41be 2fcf 8a3e f823 2cbf f122 9f3e
00000100: c4f3 be3d 7bc9 b93e afca 943e 5d25 b63d
00000110: 5a45 863e 22fa 97bf cf12 493e b7f5 f4bb
00000120: 2cd6 1ebc a4cd e2bd 10da dcbe 09ce 503d
00000130: b0c6 24bf 7d90 ce3d 1fbb fabe b281 7b3c
00000140: 01c7 e2be 25b3 41be 4899 e43e 8181 d0be
00000150: e631 7b3f 8d2f 38be 3c2f e5be fbd6 a33d
00000160: 6595 94be 7f1f 8e3e aad5 90bf 0fa7 08bf
00000170: d089 9d3e dafd 92be ce1c d9be e5f8 34be
00000180: b4b6 96be 55e3 f03e 22f1 e7be 8702 53be
00000190: f469 06bd 0248 1ebe 6456 51be 9bce 48bd
000001a0: e669 00be ad03 45bf 6c4e 60bf ce2c debd
000001b0: 8321 3bbc 125a 0cbe 816f 0ebd ad96 92be
000001c0: 08eb 84be a676 e2be 7f4d 55bf 6628 3ebe
000001d0: ab39 143e b7c6 133e d2ff d53e 6361 05be
000001e0: 11cb 0b3f b891 25bf 8cf3 16bf 194b b2bd
000001f0: 2432 a93c 2d13 8ebd 2a11 e4bd 0a45 023e
00000200: bd4a 44bc e592 2bbf 5750 97be f3e6 c7bd
00000210: c4a5 1a3e 496b 32bf 5e7d 25bf 58db 273d
00000220: bf6a 013f f331 1d3e e849 a6bc 7250 4d3c
00000230: ba08 15bd 6363 d5be d48f 3f3e 97c6 de3b
00000240: 1da0 423c cb61 283d 2da1 523e 8561 093e
00000250: e163 bb3e 22e0 c6bd 4d5a 96bf 65d0 c53d
00000260: 86f3 003e 3143 983e edac d9be 157c 043d
00000270: 7661 f23e 2357 abbe 042e 64be f068 f53d
00000280: 8c04 553d d843 b63e 8100 71be c789 f73e
00000290: ce99 063e da0b 223e b95d 9ebe 60d1 9b3e
000002a0: 4f7f 783e d1a2 66bf 2540 c03e d327 45be
000002b0: fb63 973e e1e0 e1bd 57d7 6dbe 83a3 45be
000002c0: 96f8 94bf e80b 55be 0593 0d3e 768a f33a
000002d0: d0b0 6abe 88cc 35be f503 873e 3fed a1bc
000002e0: 059c a93e 7f3a 043e 6268 6cbf a011 bbbd
000002f0: d308 303e 22ac dfbe df86 79be 564b a03c
00000300: 1afd c6be 2a92 34bd 14ea 2abf bed5 dcbd
00000310: b0bc 653e dcba 35bd 0393 bf3e 5f2e a0bd
00000320: 8020 92be 79e5 01bc 5e48 e2be 3c18 aebd
00000330: fc97 053e 1dd9 a4be 120d 7d3f 04f8 b3bc
00000340: a2bb 9f3e 7468 03be a3f4 05be 54f2 02bf
00000350: 2d7c 1e3e ac0a 04bf 1a8e b5be 7ba3 803e
00000360: 525a 903e 82b4 c93d c9bb 273e 88f1 433e
00000370: 3b81 313d 1c18 ad3e a934 d0be ad02 6b3d
00000380: 9446 d33d c291 f7be cd2a ee3d f2d0 d83e
00000390: d453 bc3e 2a13 5f3e 40c8 953d 187e e03d
000003a0: 1428 ebbc 5271 62bf 719b dfbe 5292 a83d
000003b0: dfa3 2cbb c7d0 293e e93e 08be ffe6 f1bd
000003c0: bb4d a7bc 7e9e 0d3d 3ad3 d93e f34a 65be
000003d0: e441 b63e e8ae 083c a851 d4bc be9a a3bd
000003e0: 0fc4 ffbd d4a3 79bd ab0d b9be dfea 17bf
000003f0: 17cd 1cbd 7ac1 4abd ac46 883d b9f1 d4be

FC1.bias f4 [256]
-0.10648603 0.12775365 -0.12340623 0.101366505 -0.22162873 -0.075061806 -0.27294222 -0.11624145
0.009427533 -0.23471019 0.2411829 -0.1747323 -0.03898029 -0.120295994 -0.19994508 -0.05513309
0.0077012707 -0.085894644 -0.067911 -0.15777841 -0.07329445 0.16981387 -0.1694983 -0.34220415
-0.010461194 -0.17758478 0.24909875 -0.03439238 -0.14445993 0.009327746 0.114583224 -0.18215021
-0.21817513 0.08837987 -0.079850875 -0.10418554 -0.109193526 -0.058647778 0.42353854 0.052076604
0.34068635 -0.08288822 0.009329135 0.05771036 0.21077618 0.17556794 -0.09625674 -0.15323234
-0.3378752 0.37503517 -0.31066024 -0.27729404 -0.19514388 0.1925671 0.008092039 0.27688244
0.14240518 -0.11610382 0.10754845 -0.17946133 -0.09448967 -0.26862887 0.049408365 0.14659262
-0.1436069 0.073316365 0.19738162 0.31471002 -0.3348637 -0.08733493 0.087605245 -0.08831413
-0.083478466 0.06820353 0.16121837 0.0057450836 -0.097628534 -0.055002738 -0.096109666 -0.33086845
0.057197735 -0.22766483 -0.11521796 0.15153722 0.11100754 0.039658584 0.033286434 -0.17020105
-0.10505228 -0.10195318 -0.11556615 -0.29090223 0.011293455 -0.2881683 0.18716274 0.044222374
0.2755525 -0.03400406 0.025029436 -0.09342329 0.2666306 0.17482702 0.13742836 0.12028535
-0.2497964 -0.10882279 0.18558231 -0.22865067 -0.103524886 -0.042236928 -0.27387488 0.0007931352
0.16416082 -0.22346938 -0.2869395 -0.06733203 -0.24735914 0.11478863 0.007666196 -0.08063385
-0.0833555 -0.19523725 -0.021676874 0.20510909 0.01831501 -0.20257711 0.0005867693 0.051188473
0.22044976 -0.08599117 -0.14727892 -0.076865606 -0.13773938 -0.3546991 -0.27056035 -0.27808455
-0.13156666 0.23473543 0.1361861 -0.053004205 -0.20492381 -0.018870408 -0.25701913 -0.020017652
0.19311541 -0.09753531 -0.004874719 0.026297545 -0.22085984 0.09672966 -0.063241094 0.05834699
-0.12772503 -0.028587949 -0.07680066 -0.19325143 0.19545364 -0.06189604 -0.100078724 0.029162617
-0.227001 -0.17178367 0.041694753 -0.28723451 0.17697221 0.088436894 -0.044382676 0.0067883595
-0.20580982 -0.15234388 0.073344834 -0.32749283 0.21246126 0.33687064 -0.25515985 0.080409504
0.13237679 0.06001671 -0.2346115 -0.116041705 -0.13409448 -0.2500492 0.28676754 0.18933748
0.008728965 0.016857423 -0.2995361 -0.22609791 -0.019943453 -0.10715101 -0.0336892 -0.14540766
-0.30374792 0.22585706 -0.13714275 -0.0323454 0.03340277 0.077767216 -0.04747599 0.13194022
0.026701538 0.06149511 -0.17552942 0.049040146 -0.2334935 0.16218716 -0.060464803 -0.16063781
0.17603445 -0.22648048 -0.10141093 0.01143546 0.051761046 -0.26593366 0.00198493 -0.061689503
-0.07902954 -0.27325976 -0.06772059 0.0702481 0.2924559 -0.011963215 -0.17383392 -0.00038026166
0.044644106 0.12414944 -0.09494156 -0.029363498 0.30706733 0.16624182 -0.07543761 -0.158634
0.27047706 -0.114855744 0.30480865 0.16024628 -0.2315559 -0.12230637 -0.12962706 -0.0476233
-0.10132179 -0.23219599 -0.047126092 -0.09596491 -0.13875937 0.34956 0.1043293 0.015878975
-0.11787398 -0.12459156 0.073601484 0.1729883 -0.17049418 0.2209344 -0.24017549 0.044949092
00000000: 5915 dabd dad1 023e 68bc fcbd 3e99 cf3d
00000010: a4f2 62be 01ba 99bd 15bf 8bbe ff0f eebd
00000020: f075 1a3c de57 70be a6f8 763e 06ed 32be
00000030: cca9 1fbd bf5d f6bd 67be 4cbe 3cd3 61bd
00000040: f15a fc3b 88e9 afbd ec14 8bbd aa90 21be
00000050: 671b 96bd b0e3 2d3e f690 2dbe 6235 afbe
00000060: 6e65 2bbc c9d8 35be be13 7f3e 06df 0cbd
00000070: 4eed 13be 67d3 183c 9caa ea3d 9685 3abe
00000080: 4d69 5fbe 8100 b53d db88 a3bd 3a5f d5bd
00000090: dba0 dfbd a738 70bd 0bda d83e 474e 553d
000000a0: 716e ae3e 4dc1 a9bd 3ad9 183c b361 6c3d
000000b0: b6d5 573e 15c8 333e 4122 c5bd f0e8 1cbe
000000c0: fafd acbe 9c04 c03e dc0e 9fbe 7cf9 8dbe
000000d0: ccd3 47be 4f30 453e 7994 043c 89c3 8d3e
000000e0: aad2 113e d7c7 edbd 5d42 dc3d b6c4 37be
000000f0: cd83 c1bd b989 89be 6d60 4a3d 601c 163e
00000100: b00d 13be e426 963d 681e 4a3e ac21 a13e
00000110: 4173 abbe a8dc b2bd 616a b33d 0ade b4bd
00000120: c2f6 aabd 4bae 8b3d 6e16 253e 4141 bc3b
00000130: 78f1 c7bd 8d4a 61bd 25d5 c4bd 9767 a9be
00000140: 2c48 6a3d f820 69be 65f7 ebbd 932c 1b3e
00000150: ec57 e33d 0a71 223d 5b57 083d 2f49 2ebe
00000160: a625 d7bd d4cc d0bd f2ad ecbd 23f1 94be
00000170: 2f08 393c cc8a 93be 97a7 3f3e 8522 353d
00000180: 3815 8d3e d747 0bbd 880a cd3c b654 bfbd
00000190: ce83 883e db05 333e 05ba 0c3e 2a58 f63d
000001a0: a1ca 7fbe 7cde debd 4a09 3e3e 6723 6abe
000001b0: db04 d4bd a100 2dbd 5439 8cbe 67ea 4f3a
000001c0: c619 283e 28d5 64be bce9 92be 60e5 89bd
000001d0: b74b 7dbe 4d16 eb3d b734 fb3b 5c23 a5bd
000001e0: 4ab6 aabd 46ec 47be b393 b1bc 1e08 523e
000001f0: 5c09 963c 6070 4fbe 6cd1 193a 01ab 513d
00000200: 95bd 613e 231c b0bd 49d0 16be b76b 9dbd
00000210: 8d0b 0dbe 1f9b b5be e386 8abe 1961 8ebe
00000220: 69b9 06be 7c5e 703e 5e74 0b3e f01a 59bd
00000230: 8cd7 51be 1d96 9abc 0398 83be 0ffc a3bc
00000240: 0cc0 453e 98c0 c7bd 1bbc 9fbb f36d d73c
00000250: 1529 62be 331a c63d 8c84 81bd 41fd 6e3d
00000260: 5aca 02be 4631 eabc aa49 9dbd b4e3 45be
00000270: 0025 483e b486 7dbd 13f6 ccbd 71e6 ee3c
00000280: f372 68be 0fe8 2fbe 1ec8 2a3d 6710 93be
00000290: 3438 353e 671e b53d 9cca 35bd e370 de3b
000002a0: cfbf 52be 0900 1cbe d135 963d 24ad a7be
000002b0: 728f 593e 4f7a ac3e 50a4 82be bdad a43d
000002c0: c88d 073e 15d4 753d ff3d 70be 46a7 edbd
000002d0: 1050 09be 7306 80be 32d3 923e afe1 413e
000002e0: ef03 0f3c 9418 8a3c cc5c 99be 3686 67be
000002f0: 7460 a3bc fd71 dbbd b0fd 09bd bfe5 14be
00000300: d984 9bbe 1347 673e 266f 0cbe 9c7c 04bd
00000310: 58d1 083d 6b44 9f3d 2f76 42bd 561b 073e
00000320: 2fbd da3c 4ce2 7b3d fcbd 33be 52de 483d
00000330: ec18 6fbe 6414 263e f1a9 77bd 3d7e 24be
00000340: 6042 343e 80ea 67be 89b0 cfbd cc5b 3b3c
00000350: 6403 543d 7528 88be 9915 023b 22ae 7cbd
00000360: 3dda a1bd b4e8 8bbe 18b1 8abd 3cde 8f3d
00000370: c8bc 953e 5c01 44bc 8501 32be db5d c7b9
00000380: bddc 363d 1042 fe3d b870 c2bd b88b f0bc
00000390: ee37 9d3e 4c3b 2a3e 097f 9abd f470 22be
000003a0: f87b 8a3e 7d39 ebbd e10f 9c3e 9a17 243e
000003b0: fd1c 6dbe c37b fabd f5bc 04be a610 43bd
000003c0: cc81 cfbd c9c4 6dbe 4a07 41bd 4089 c4bd
000003d0: f016 0ebe 87f9 b23e 9aaa d53d a014 823c
000003e0: ea67 f1bd dc29 ffbd 60bc 963d d823 313e
000003f0: 0796 2ebe a13c 623e 90f0 75be 8a1c 383d

FC2.weight f4 [256, 256]
0.20138223 0.43955812 -0.16238123 -0.3268979 -0.9095066 0.54357487 -0.34439868 1.0690407
0.49794632 -0.044955343 0.14670904 0.007624559 0.6597782 0.005832412 -0.38955954 -0.750765
0.52670777 -0.03974529 0.41592383 0.1614406 -0.36833698 0.61864054 0.004912325 0.1182655
0.5534666 0.07966776 0.06927314 -0.21328413 0.26342905 -0.45574036 0.023044968 0.18823236
-0.20740396 -0.12802197 -0.80924964 -0.37971127 -0.028880898 -0.61234313 -0.2413642 -0.03461838
0.19689539 -0.44011363 0.14630122 0.43831155 -0.06762671 0.19639824 -0.4128648 -0.023792489
0.18818948 -0.08628588 0.8257948 -0.29217738 -0.26209065 0.26222757 0.02318896 0.42275256
-0.65477574 0.039401285 0.24453123 -0.008327723 -0.35889107 0.64042664 -1.0000238 0.1047812
0.061921302 -0.6897897 -0.018790876 0.21976784 -0.020374767 0.03336129 -0.1877305 0.43795097
0.11610024 0.5405217 0.097671404 0.2780043 0.05380881 -0.66310346 -0.27341902 0.37987903
-0.28004497 -0.1808036 -0.15913549 -0.20032127 -0.4124769 -0.2936446 0.35799003 1.1268176
0.3456326 -0.06976039 0.23798507 -0.29171154 0.122751944 0.15630344 0.3609206 -0.14365308
-0.5476337 0.5410231 -0.20927843 0.047938827 0.22913317 -0.46864644 -0.06559831 -0.20583138
-0.6054406 0.659179 -0.32275134 -0.62543714 -0.104287215 0.0914409 0.113212995 -0.012238726
0.36749 -0.029329315 0.22152615 0.014887613 -0.26721945 0.3335197 0.279288 0.17666936
0.4842059 -0.08679051 -0.24844976 0.35080233 0.41357747 -0.043236617 0.21444692 -0.13785069
0.026883261 0.5232371 0.092726976 0.1493028 -0.6358612 0.76650816 0.412232 0.10795924
-0.31373003 -0.4294116 -0.21825626 -0.21756373 0.049734704 -0.1825836 -0.47238177 -0.00024869473
-0.060727786 0.52150315 0.008442153 -0.3180933 -0.517394 0.031844724 -0.17836517 0.110895194
0.7359166 -0.32645106 -0.106915124 -0.25448394 0.18232837 -0.2512955 -0.089306585 -0.49677616
-1.0808215 -0.21020067 -0.46979648 -0.20842056 -0.67870694 -0.17190109 -0.67128694 -1.771297
0.16175967 0.19203742 0.67517465 0.03301033 -1.2118688 1.0334685 -0.29878864 0.4403693
0.13928801 -0.19264853 -0.5769309 0.11766647 0.0058784178 -0.77871025 -0.1682976 -0.2994416
-0.15667845 -0.05985326 0.089615986 -0.3105555 0.27945992 -0.76342 0.20701055 0.7918939
-0.16806647 -0.22201297 -0.5619365 -0.27569148 -0.18333955 -0.6430204 -0.71033806 -0.20111033
0.12314718 0.6158877 -0.024196355 -0.8027083 -0.41280228 -0.017360097 0.50067383 0.13479452
0.06719658 -0.18137576 0.17094637 -0.12441639 1.1217443 -0.17574947 0.6779097 0.10017976
0.08074521 0.2690202 0.027494736 -0.3006077 0.5674366 -0.36663726 -0.34458983 0.11117315
0.12064965 0.37218422 0.21508539 -0.78293276 -0.4291874 0.1647433 0.2724806 -0.11738963
0.18624449 0.44864288 0.13673104 -0.50394666 -0.9508379 -0.839717 -0.031220583 -0.040832788
-0.46538323 -0.19404025 0.017136745 0.4489005 -0.42007974 -0.38111785 0.26388022 0.015763402
-0.7208892 -0.060371574 0.03512889 0.46438122 -0.60930425 0.43275824 0.58375907 -0.005957404
00000000: 2537 4e3e c30d e13e 4447 26be 295f a7be
00000010: 6dd5 68bf b927 0b3f 0655 b0be 53d6 883f
00000020: d2f2 fe3e 1823 38bd e53a 163e 70d7 f93b
00000030: 39e7 283f d11d bf3b 5974 c7be 2332 40bf
00000040: 52d6 063f f5cb 22bd f8f3 d43e af50 253e
00000050: aa96 bcbe 3a5f 1e3f 92f7 a03b 2f35 f23d
00000060: fdaf 0d3f da28 a33d 13df 8d3d 2867 5abe
00000070: 2ce0 863e cd56 e9be cdc8 bc3c fcbf 403e
00000080: b461 54be 3118 03be fc2a 4fbf 8469 c2be
00000090: a297 ecbc 85c2 1cbf 2d28 77be 01cc 0dbd
000000a0: f29e 493e 9356 e1be fdcf 153e 5f6a e03e
000000b0: df7f 8abd 9f1c 493e 0463 d3be 77e8 c2bc
000000c0: beb4 403e a7b6 b0bd 4a67 533f 4698 95be
000000d0: bf30 86be b142 863e c6f6 bd3c 0673 d83e
000000e0: 629f 27bf 3e63 213d 6566 7a3e 0071 08bc
000000f0: 92c0 b7be 00f3 233f c800 80bf 8797 d63d
00000100: 31a1 7d3d 0f96 30bf 53ef 99bc d20a 613e
00000110: fce8 a6bc d9a5 083d 6d3c 40be 1c3b e03e
00000120: f6c5 ed3d a15f 0a3f f207 c83d 9456 8e3e
00000130: a066 5c3d 26c1 29bf 94fd 8bbe 817f c23e
00000140: 0e62 8fbe 9424 39be 6af4 22be 0521 4dbe
00000150: 2c30 d3be 9658 96be 784a b73e 8f3b 903f
00000160: c2f6 b03e 89de 8ebd 5cb2 733e 375b 95be
00000170: 5f65 fb3d 020e 203e 96ca b83e cb19 13be
00000180: b931 0cbf 7d80 0a3f 164d 56be 815b 443d
00000190: e3a1 6a3e 6df2 efbe 6858 86bd 76c5 52be
000001a0: 28fe 1abf f4bf 283f aa3f a5be a61c 20bf
000001b0: 8994 d5bd 5e45 bb3d 37dc e73d f084 48bc
000001c0: a627 bc3e 0844 f0bc c0d7 623e 2deb 733c
000001d0: fdd0 88be 18c3 aa3e d6fe 8e3e d0e8 343e
000001e0: d6e9 f73e 39bf b1bd 9d69 7ebe 5d9c b33e
000001f0: 6dc0 d33e e118 31bd f997 5b3e bb28 0dbe
00000200: 493a dc3c def2 053f a4e7 bd3d d5e2 183e
00000210: cdc7 22bf e139 443f 1310 d33e bc19 dd3d
00000220: 39a1 a0be d6db dbbe 927e 5fbe 07c9 5ebe
00000230: 9eb6 4b3d 32f7 3abe 06dc f1be 3e63 82b9
00000240: b3bd 78bd 3b81 053f f550 0a3c 20dd a2be
00000250: ef73 04bf 9d6f 023d 5ca5 36be 051d e33d
00000260: 0865 3c3f 9824 a7be 51f6 dabd b84b 82be
00000270: 4ab4 3a3e cea9 80be 5fe6 b6bd 7259 febe
00000280: 5c58 8abf d83e 57be 2a89 f0be 336c 55be
00000290: bdbf 2dbf d706 30be 76d9 2bbf dcb9 e2bf
000002a0: 54a4 253e 75a5 443e 3fd8 2c3f d735 073d
000002b0: 841e 9bbf b248 843f d3fa 98be 1678 e13e
000002c0: 84a1 0e3e a845 45be beb1 13bf 1efb f03d
000002d0: be9f c03b 8e59 47bf 3556 2cbe 6950 99be
000002e0: 5170 20be b128 75bd 9688 b73d 2101 9fbe
000002f0: 5f15 8f3e 7e6f 43bf 93fa 533e 8fb9 4a3f
00000300: 9e19 2cbe 5e57 63be 12db 0fbf 6f27 8dbe
00000310: 5dbd 3bbe fc9c 24bf b7d8 35bf deef 4dbe
00000320: 9734 fc3d d1aa 1d3f 6f37 c6bc 4b7e 4dbf
00000330: d25a d3be c336 8ebc 292c 003f 9307 0a3e
00000340: 5c9e 893d 91ba 39be 910c 2f3e 05ce febd
00000350: 5195 8f3f abf7 33be 7d8b 2d3f 0c2b cd3d
00000360: bf5d a53d 04bd 893e a43c e13c 41e9 99be
00000370: 8643 113f e1b7 bbbe 146e b0be c0ae e33d
00000380: 2a17 f73d ee8e be3e 583f 5c3e 486e 48bf
00000390: 73be dbbe 78b2 283e 9482 8b3e f969 f0bd
000003a0: e0b6 3e3e 85b4 e53e 3903 0c3e a602 01bf
000003b0: 1d6a 73bf b1f7 56bf 4fc2 ffbc 4840 27bd
000003c0: b646 eebe 7db2 46be 5c62 8c3c 49d6 e53e
000003d0: b114 d7be e121 c3be 4f1b 873e 4022 813c
000003e0: 328c 38bf 2f48 77bd 50e3 0f3d 60c3 ed3e
000003f0: 5dfb 1bbf 7d92 dd3e 3c71 153f 5436 c3bb

FC2.bias f4 [256]
-0.08816518 -0.109692626 -0.120622896 0.19160575 -0.16259757 -0.07569934 -0.08154597 -0.24690646
0.043731324 -0.2242659 -0.0294438 -0.020355508 0.10730532 0.40686327 0.08144334 -0.0035170857
-0.06252336 -0.036750793 -0.22406903 -0.041436143 0.15302996 0.016010193 0.07028536 -0.033113915
0.13572523 -0.018793361 0.33226025 0.0436183 -0.068441175 -0.10301112 0.050073534 0.2230131
0.08496482 0.23171172 0.09372052 0.22718263 -0.06689748 0.1034677 0.11580163 -0.32949248
-0.12073054 0.047069702 0.028594935 -0.15672645 -0.13636865 0.017572692 -0.101483956 -0.07207607
-0.08045393 -0.045458928 -0.071179435 0.19761418 0.28745311 -0.009920893 0.08981566 -0.29156524
-0.1124982 0.046151046 -0.040344335 0.14079148 -0.061541624 -0.15091377 0.20031953 -0.08080723
-0.089231275 -0.01895979 0.04474237 -0.016408328 -0.050884217 -0.0129400715 0.09090962 0.05613605
-0.16643067 0.071271636 0.05625378 -0.024305642 -0.052002344 0.16523767 -0.036103234 0.12657526
-0.030892713 -0.0096583 -0.07484299 0.01823904 0.086454995 -0.26422727 -0.19524874 0.03770687
0.056400217 0.1265502 0.0005230268 -0.07714546 0.053213283 -0.08020192 -0.08227707 -0.036020588
-0.0602005 -0.067302965 0.16608052 0.1396817 -0.009768835 -0.05647326 0.08042458 -0.1010945
-0.09364687 -0.020941036 -0.1100915 0.03102346 -0.2901143 0.3191972 0.17227884 -0.20217775
-0.065044664 0.17340095 -0.025369264 -0.09730289 0.0049046753 -0.049680997 0.05923476 -0.018754698
-0.025677852 -0.08341826 0.05645511 -0.070070505 0.0111874975 -0.1202913 -0.21954624 -0.052436043
-0.028507037 0.14266248 -0.0451654 0.00653758 -0.055395085 0.14469615 -0.17407055 -0.12725534
0.0006659552 0.052702136 0.0013124021 -0.17051363 0.057285048 -0.053025194 0.060905848 -0.062098477
0.047001995 0.06756321 -0.08747221 0.060379326 -0.09621059 -0.3681093 0.21944533 0.013474456
-0.07454828 -0.005688435 -0.07957842 -0.121796764 -0.0843463 0.0870582 0.13159007 -0.030097505
-0.11299746 0.36858794 -0.04345221 -0.056283876 0.08015399 0.004465238 -0.031421997 0.07480161
0.0009306703 0.08564022 0.25962162 0.19966704 0.19133878 0.14296229 0.29097492 -0.007371872
0.0011340462 -0.06765702 -0.05049343 0.040835194 -0.003772765 0.22976714 -0.13038802 -0.0034522398
0.052587904 0.05477467 0.13506262 -0.08767745 -0.08552094 0.32709813 0.20109773 0.116584346
-0.05101907 0.00744148 0.055822138 0.07015916 0.0021829908 0.3546038 0.032752987 0.015357994
-0.01601363 0.046530355 0.030770699 0.022171529 0.029955896 -0.17028068 0.022748118 0.0053816363
-0.15746666 0.18356878 0.048526008 0.09190602 -0.032360744 0.36201996 -0.04241643 0.10039623
-0.089132726 0.053931486 -0.08207567 0.41526553 -0.044313654 0.15443353 -0.26400203 0.10694387
0.091033585 0.009654657 -0.043667745 0.15085723 -0.02927116 0.0074248845 0.14556721 -0.511188
-0.2786438 0.12696004 -0.026641956 -0.02009118 -0.16976978 0.017565569 -0.04399769 -0.12769538
0.09244122 -0.18714622 -0.10359309 0.09803084 -0.032732967 -0.0081058685 -0.14260408 -0.0145587195
0.006809872 -0.07644646 0.05560105 0.071166135 0.023372667 0.08337263 0.25249308 0.23666552
00000000: f28f b4bd 87a6 e0bd 2309 f7bd 4c34 443e
00000010: fa7f 26be 4108 9bbd 9301 a7bd 0cd5 7cbe
00000020: 9e1f 333d f6a5 65be 2034 f1bc 98c0 a6bc
00000030: e4c2 db3d 6250 d03e c4cb a63d e87e 66bb
00000040: 3f0c 80bd 0088 16bd 5a72 65be f2b8 29bd
00000050: e3b3 1c3e cf27 833c c5f1 8f3d 75a2 07bd
00000060: 8efb 0a3e 89f4 99bc 041e aa3e 1aa9 323d
00000070: e32a 8cbd 7ef7 d2bd e819 4d3d 8c5d 643e
00000080: 0902 ae3d d645 6d3e 8bf0 bf3d 90a2 683e
00000090: 8c01 89bd e0e6 d33d 6829 ed3d 3db3 a8be
000000a0: 9341 f7bd 29cc 403d ed3f ea3c e67c 20be
000000b0: 39a4 0bbe 9bf4 8f3c d2d6 cfbd 9e9c 93bd
000000c0: 08c5 a4bd 2433 3abd 86c6 91bd 5f5b 4a3e
000000d0: 0e2d 933e 3e8b 22bc 46f1 b73d 0a48 95be
000000e0: 7565 e6bd e108 3d3d 1a40 25bd a42b 103e
000000f0: 1213 7cbd 2489 1abe 9020 4d3e 437e a5bd
00000100: e3be b6bd 9051 9bbc c643 373d c26a 86bc
00000110: f86b 50bd 9802 54bc d32e ba3d eaee 653d
00000120: cd6c 2abe ddf6 913d 5d6a 663d a01c c7bc
00000130: 6900 55bd 1034 293e fce0 13bd f29c 013e
00000140: b712 fdbc d93d 1ebc 4847 99bd 0a6a 953c
00000150: 510f b13d cc48 87be 49ef 47be 8572 1a3d
00000160: ea03 673d 6096 013e bc1b 093a 70fe 9dbd
00000170: 2cf6 593d e740 a4bd e180 a8bd 538a 13bd
00000180: cd94 76bd 23d6 89bd 0311 2a3e b808 0f3e
00000190: 770d 20bc 8150 67bd a4b5 a43d a20a cfbd
000001a0: eec9 bfbd 898c abbc a777 e1bd e924 fe3c
000001b0: dd89 94be d16d a33e dd69 303e af07 4fbe
000001c0: 2336 85bd 0590 313e 34d3 cfbc bd46 c7bd
000001d0: 66b7 a03b 4d7e 4bbd 26a0 723d 74a3 99bc
000001e0: 5c5a d2bc 31d7 aabd 793d 673d 2081 8fbd
000001f0: c44b 373c 495b f6bd bbd0 60be 2dc7 56bd
00000200: 9787 e9bc 1d16 123e 5bff 38bd 3239 d63b
00000210: f5e5 62bd 3a2b 143e 8d3f 32be 394f 02be
00000220: 7f93 2e3a 32de 573d e804 ac3a 209b 2ebe
00000230: baa3 6a3d f230 59bd 6978 793d f95a 7ebd
00000240: 2a85 403d 955e 8a3d a124 b3bd 5050 773d
00000250: 0f0a c5bd d278 bcbe 47b6 603e f7c3 5c3c
00000260: c5ac 98bd 0d66 babb 03fa a2bd 9570 f9bd
00000270: c1bd acbd 924b b23d 8cbf 063e 0b8f f6bc
00000280: 366b e7bd 8fb7 bc3e f2fa 31bd ec89 66bd
00000290: c627 a43d 2251 923b 5ab4 00bd 9631 993d
000002a0: 3af8 733a 2464 af3d 20ed 843e 8475 4c3e
000002b0: 50ee 433e b564 123e aafa 943e bf8f f1bb
000002c0: 47a4 943a c48f 8abd 33d2 4ebd ce42 273d
000002d0: 7e40 77bb 1448 6b3e 7084 05be f93e 62bb
000002e0: 6a66 573d 685b 603d db4d 0a3e 3c90 b3bd
000002f0: 9a25 afbd 6879 a73e 90ec 4d3e c6c3 ee3d
00000300: 5ff9 50bd a9d7 f33b c1a5 643d 9baf 8f3d
00000310: 8210 0f3b a18e b53e ff27 063d 18a0 7b3c
00000320: 042f 83bc 9d96 3e3d d512 fc3c 11a1 b53c
00000330: 1166 f53c 0f5e 2ebe 435a ba3c 7058 b03b
00000340: f13e 21be 74f9 3b3e 35c3 463d 3939 bc3d
00000350: b38c 04bd ae5a b93e dabc 2dbd 8a9c cd3d
00000360: 388b b6bd 43e7 5c3d 4a17 a8bd af9d d43e
00000370: 3c82 35bd d323 1e3e 462b 87be 6305 db3d
00000380: d16f ba3d 912e 1e3c f3dc 32bd 517a 1a3e
00000390: 12ca efbc 724c f33b 920f 153e 37dd 02bf
000003a0: 66aa 8ebe d001 023e 3b40 dabc 4296 a4bc
000003b0: 21d8 2dbe abe5 8f3c ec36 34bd 94c2 02be
000003c0: d351 bd3d 42a3 3fbe 9d28 d4bd 65c4 c83d
000003d0: 0113 06bd 7ace 04bc ce06 12be b287 6ebc
000003e0: 5925 df3b f68f 9cbd edbd 633d 8dbf 913d
000003f0: 0978 bf3c 45bf aa3d c646 813e 7258 723e

action_out.weight f4 [5, 256]
0.58274156 0.28832996 -0.7882389 -1.6635044 -0.42944926 -0.057280596 -0.03281181 -0.10015219
-0.513837 -0.21824034 -0.00036429576 -0.82508713 0.22005604 -1.9190667 0.32686016 0.62526304
0.018542787 0.0047156415 -0.5786799 -0.09455934 -0.4727487 -0.07844631 -0.4730658 0.3841334
0.18644784 -0.05047903 -0.25411573 0.3900622 -0.98922837 -0.94397295 -1.8210227 0.06478495
-1.1806849 0.557366 0.24806236 0.16325155 0.013817464 0.12015474 0.24416254 -0.36611193
0.40313497 -0.429939 0.56311876 -0.2115504 -1.2453338 -0.013673841 -0.055183902 0.010705908
0.036789246 -0.0024953012 -1.0386729 0.1888825 -0.025686067 0.041769113 0.4030769 0.22754186
-0.4265421 -0.9997265 -0.88288283 0.16430384 -0.062162735 -0.04208661 -1.6336353 -0.037946284
-0.00066935964 0.03748233 -0.98195016 -0.6795973 0.033448406 -0.049222622 0.49545226 -0.03484231
-0.43013242 -0.42553174 -1.457165 -0.07246948 0.6464788 -0.7014759 -1.1636089 0.09036568
-0.0492764 0.033930045 0.004462266 -0.43545765 0.6191449 -0.8807555 -0.08740755 0.05691474
-0.555044 -0.98984826 0.49379948 0.05647234 0.94975895 0.0013058999 0.25152037 -0.2973021
-0.01504165 0.5551368 -0.26314372 -0.29988006 -0.17545763 -0.016982151 -0.65775055 0.051707108
-1.4312141 -0.017399866 0.6052842 -0.8452441 0.26340786 1.0355761 0.16315444 -0.03396458
0.052272025 0.07441446 -0.07607838 -0.04246957 -0.08774156 -0.02479081 -0.70678675 -0.010249317
0.40306425 0.017299376 -0.46761295 -1.0716553 0.59767765 0.0066055777 -1.2876642 0.04863862
0.4670724 -0.35229486 -0.04226335 -0.32678586 -0.024533456 -0.07321226 0.0018501475 0.4844117
-1.4467301 -0.6938736 -0.941033 -1.1286225 0.21773344 -0.0044589327 -0.393672 -0.2337136
-0.768974 -0.20843484 -0.64623463 0.1592951 -0.3575033 0.14283095 0.32374695 -0.022033505
0.030505648 -0.0035261477 -0.009768686 -0.98513776 0.0121363085 0.730823 -1.0807571 0.039582945
-0.10754227 -1.3646169 -1.1428213 0.4042123 -0.09241542 -0.040604513 -0.043134987 0.60061383
0.0068642916 0.88456887 -0.79037756 0.44771835 -0.0147125935 0.5077789 0.14774784 -0.047127515
0.010045331 0.0036167307 -0.73491454 0.01121549 0.23259439 0.0034579774 0.38174114 -0.59710145
-0.07499968 0.4540082 0.43786618 -0.05179149 0.42080262 -1.5381482 -0.07735786 -0.940496
0.006223432 0.3447073 -0.22453645 0.06694246 -1.1024588 -0.39478853 -0.18202206 -0.48931015
0.16069987 0.14261048 0.004853334 -0.06000567 -0.5586604 0.09546879 -0.061109547 0.35750574
-0.20413679 -0.31569993 -0.15446539 0.2372554 -0.46201584 -0.36890882 0.036333248 -1.1474683
-0.03801349 -0.4139588 -0.33391318 -0.37729207 -0.24726716 0.04667797 0.39760792 -0.5456788
-0.7253295 -0.31698555 -0.42845678 0.15060797 0.018081285 0.04517319 -0.857525 0.21169202
-0.28041112 -0.031153234 0.29602316 0.049671397 0.240537 -0.1248025 0.30383644 0.0068047205
-0.44931236 -1.2226046 -0.017381005 -0.11200531 0.016727686 -0.03936648 -1.0159472 0.09804239
-0.033523634 0.050120607 0.18985046 -0.9759219 0.23044452 -0.9000995 0.82227147 -0.9983806
00000000: 8d2e 153f fc9f 933e 06ca 49bf b6ed d4bf
00000010: c6e0 dbbe 0f9f 6abd ad65 06bd 971c cdbd
00000020: d28a 03bf 657a 5fbe f3fe beb9 e938 53bf
00000030: 5f56 613e faa3 f5bf 375a a73e 3d11 203f
00000040: 0be7 973c ab85 9a3b 5e24 14bf 54a8 c1bd
00000050: 1e0c f2be 75a8 a0bd ae35 f2be 22ad c43e
00000060: 2fec 3e3e 19c3 4ebd 751b 82be 3cb6 c73e
00000070: 123e 7dbf 36a8 71bf 4617 e9bf f9ad 843d
00000080: af20 97bf 8aaf 0e3f 0f04 7e3e 6a2b 273e
00000090: a562 623c b013 f63d bf05 7a3e 0673 bbbe
000000a0: b567 ce3e f720 dcbe 8d28 103f aba0 58be
000000b0: 1967 9fbf 3f08 60bc 8408 62bd d567 2f3c
000000c0: 52b0 163d 3588 23bb 3cf3 84bf 6a6a 413e
000000d0: 966b d2bc 1716 2b3d 1860 ce3e bc00 693e
000000e0: ba63 dabe 13ee 7fbf 9c04 62bf 443f 283e
000000f0: 5a9e 7ebd 0263 2cbd f61a d1bf 906d 1bbd
00000100: f777 2fba 1287 193d 1661 7bbf 17fa 2dbf
00000110: 3201 093d a99d 49bd ebab fd3e cfb6 0ebd
00000120: 513a dcbe 4cdf d9be 6284 babf e16a 94bd
00000130: a27f 253f ed93 33bf 23f1 94bf a411 b93d
00000140: 0dd6 49bd 3bfa 0a3d 3338 923b 4ef4 debe
00000150: 4880 1e3f 3179 61bf bb02 b3bd 6e1f 693d
00000160: 5d17 0ebf b266 7dbf 49d3 fc3e 8a4f 673d
00000170: 6723 733f bb2a ab3a 47c7 803e fb37 98be
00000180: 4171 76bc 721d 0e3f c6ba 86be e189 99be
00000190: 2aab 33be 271e 8bbc 5762 28bf d5ca 533d
000001a0: 0632 b7bf 2a8a 8ebc e8f3 1a3f eb61 58bf
000001b0: 65dd 863e c28d 843f f511 273e 721e 0bbd
000001c0: 311b 563d 9c66 983d fbce 9bbd 92f4 2dbd
000001d0: d9b1 b3bd 1916 cbbc faef 34bf c0ec 27bc
000001e0: 705e ce3e 6cb7 8d3c f76a efbe 002c 89bf
000001f0: 6701 193f 9a73 d83b 2ed2 a4bf 4a39 473d
00000200: 1d24 ef3e fe5f b4be 561c 2dbd 7a50 a7be
00000210: 63fa c8bc 4ff0 95bd a680 f23a cf04 f83e
00000220: 742e b9bf b3a1 31bf 8ae7 70bf b476 90bf
00000230: 84f5 5e3e 3d1c 92bb 608f c9be 9e52 6fbe
00000240: 7bdb 44bf f16f 55be a26f 25bf 411e 233e
00000250: ac0a b7be 4742 123e 29c2 a53e 9c7f b4bc
00000260: fbe6 f93c f116 67bb d70c 20bc fd31 7cbf
00000270: 5ed7 463c 3717 3b3f 4056 8abf ba21 223d
00000280: 1f3f dcbd c4ab aebf f847 92bf eaf4 ce3e
00000290: 4c44 bdbd eb50 26bd 50ae 30bd d4c1 193f
000002a0: daed e03b 1b73 623f 2f56 4abf 573b e53e
000002b0: 170d 71bc ccfd 013f 364b 173e c808 41bd
000002c0: 2c95 243c ac06 6d3b 5c23 3cbf 2dc1 373c
000002d0: 392d 6e3e 3c9f 623b 9373 c33e a4db 18bf
000002e0: 6f99 99bd c373 e83e ff2f e03e 5023 54bd
000002f0: 7173 d73e 0ae2 c4bf cc6d 9ebd 59c4 70bf
00000300: eeed cb3b 7a7d b03e e2ec 65be 2119 893d
00000310: 5f1d 8dbf b921 cabe fe63 3abe dc86 fabe
00000320: 828e 243e 7b08 123e b708 9f3b 81c8 75bd
00000330: 5e04 0fbf 2485 c33d 014e 7abd fe0a b73e
00000340: 3c09 51be 6ca3 a1be 2d2c 1ebe 14f3 723e
00000350: 578d ecbe 9ee1 bcbe 2cd2 143d 3ee0 92bf
00000360: 09b4 1bbd 68f2 d3be abf6 aabe 6d2c c1be
00000370: 9a33 7dbe 6631 3f3d 4493 cb3e 9bb1 0bbf
00000380: 32af 39bf ee4b a2be b05e dbbe fa38 1a3e
00000390: 341f 943c 8607 393d c286 5bbf cbc5 583e
000003a0: 0c92 8fbe 1135 ffbc 5990 973e 3c74 4b3d
000003b0: 554f 763e 7498 ffbd 7390 9b3e 22fa de3b
000003c0: 450c e6be 4f7e 9cbf 9c62 8ebc 0a63 e5bd
000003d0: 8008 893c bf3e 21bd 8f0a 82bf 73ca c83d
000003e0: 1450 09bd 444b 4d3d 2968 423e 05d6 79bf
000003f0: a6f9 6b3e ec6c 66bf 6280 523f df95 7fbf

action_out.bias f4 [5]
0.38158333 -0.0039026954 0.0055242423 0.18133233 -0.15700816
00000000: e45e c33e 5dc4 7fbb b404 b53b 2faf 393e
00000010: bfc6 20be

weight f4 [256, 123]
0.03758747 -0.12328058 0.07169626 -0.059070524 0.08220065 -0.16683647 0.038791995 -0.08508939
-0.10101879 0.049033307 -0.023556903 -0.020501008 -0.11159777 -0.01027749 0.025144026 -0.13539448
-0.0398977 0.045918103 0.0928393 -0.0414751 -0.016779637 -0.002717608 0.029295227 -0.010891761
0.015091588 -0.029691027 0.10228867 -0.040929142 0.02574389 -0.1171747 -0.08913319 0.017569821
-0.009637204 -0.073284775 0.025196046 -0.071373574 0.05698392 -0.041619174 -0.044188228 -0.02112348
0.05818011 -0.24647678 0.065826654 -0.034059715 -0.19523261 -0.039608397 -0.09157407 -0.09870708
-0.003422433 -0.15042828 -0.08093845 -0.010763422 -0.036564432 0.068823226 -0.039904255 0.0007848909
-0.059026428 0.06965422 -0.013234933 -0.093189344 -0.09378636 -0.09875697 -0.0456601 -0.02077034
0.05953045 -0.07016566 -0.023944162 -0.031444248 -0.0758495 -0.10227862 0.08869647 0.09962789
0.024748404 -0.14371443 -0.12518784 0.0061434726 -0.083749995 -0.20633139 -0.03596015 -0.05357137
-0.050953507 0.0723858 0.006908395 -0.01643889 -0.012301231 -0.08469742 -0.093636364 -0.020964734
0.06735124 0.11369788 0.027267452 -0.13826573 -0.003501907 -0.057243206 -0.012804281 -0.14148404
0.00017763769 -0.022527814 -0.0174369 -0.09649312 -0.16882695 -0.044012073 0.06306397 -0.0031894227
-0.08516327 0.04812842 -0.06106553 0.080415465 -0.15809692 -0.09835113 -0.12680152 -0.034537304
-0.18218246 -0.16829215 -0.13370736 0.07185008 -0.12992586 0.0764719 0.079105616 -0.053361848
-0.114287496 -0.06391153 -0.065062046 -0.02523302 -0.08858542 -0.06868639 -0.031672806 -0.07768152
0.06344987 -0.020947918 -0.026177788 0.047449954 -0.016485289 -0.07259146 0.017475782 0.00034905647
-0.0151469335 -0.07009296 -0.122485854 0.03916088 0.08470064 -0.03747366 -0.0355629 -0.05110697
-0.009243883 -0.036991205 0.014199348 0.022409005 -0.09705475 0.06659031 -0.038138077 -0.10133036
-0.08664497 -0.014547723 0.04772509 -0.01893103 -0.011671163 -0.021885715 0.059453048 -0.08239587
-0.07956121 -0.01737174 0.004233434 -0.03436784 0.065624036 0.07990832 0.015874742 -0.011746656
-0.059656613 0.083593205 -0.02324181 -0.052831676 -0.051765725 0.034772806 -0.0055025686 0.048099205
0.006498322 0.053419434 -0.12183105 0.038591694 0.06756044 0.033821903 -0.11873577 -0.050232768
-0.09079693 -0.010489742 0.041335773 0.054666046 -0.0762593 -0.05692212 -0.12053305 -0.053285435
-0.038004793 -0.020172633 0.026558869 -0.08458589 0.019372992 -0.0029662566 -0.029478231 0.0035995168
-0.014388844 0.019981436 -0.111623496 -0.07265626 0.092336595 0.06252105 0.03226981 -0.06301147
-0.06049124 -0.043161865 -0.004865538 -0.0016425906 -0.0025012812 0.06319809 -0.0076229596 -0.046980496
0.079394855 -0.028517444 -0.09118404 0.0759094 -0.008858189 -0.07183102 -0.07461516 -0.011968044
-0.032671176 -0.016872643 0.00900278 0.07111526 -0.084892385 -0.10634525 0.054339938 0.0024647606
-0.08936587 0.010146621 0.007478701 -0.009380533 -0.064206004 -0.08196148 0.05226858 -0.01171999
-0.09765074 -0.059697844 0.006446836 0.021467008 -0.028248196 -0.11624248 0.09779514 -0.03284486
0.2225897 -0.15221134 0.19262043 -0.48731285 -1.4421451 0.025940478 0.20499903 0.07986889
00000000: 52f5 193d 877a fcbd 7dd5 923d eff3 71bd
00000010: d058 a83d 2ed7 2abe 5be4 1e3d 5943 aebd
00000020: f0e2 cebd 26d7 483d 68fa c0bc bbf1 a7bc
00000030: 5f8d e4bd eb62 28bc d8fa cd3c daa4 0abe
00000040: c56b 23bd 9f14 3c3d 8822 be3d cbe1 29bd
00000050: 7375 89bc e519 32bb 8bfc ef3c 5b73 32bc
00000060: b542 773c 993a f3bc b97c d13d 51a5 27bd
00000070: dae4 d23c 4af9 efbd 768b b6bd 96ee 8f3c
00000080: 5de5 1dbc 5416 96bd f067 ce3c 4f2c 92bd
00000090: f967 693d de78 2abd b7fe 34bd 260b adbc
000000a0: 444e 6e3d 6964 7cbe 20d0 863d 3382 0bbd
000000b0: 0feb 47be 6a3c 22bd 308b bbbd f026 cabd
000000c0: e64a 60bb df09 1abe 0fc3 a5bd 1059 30bc
000000d0: 96c4 15bd 31f3 8c3d a572 23bd 23c1 4d3a
000000e0: b2c5 71bd dfa6 8e3d 55d7 58bc 0eda bebd
000000f0: 1013 c0bd 1841 cabd 1606 3bbd 8f26 aabc
00000100: 33d6 733d 03b3 8fbd 8c26 c4bc afcb 00bd
00000110: fc56 9bbd 7477 d1bd 7fa6 b53d b509 cc3d
00000120: 2abd ca3c e029 13be 3e31 00be 2f4f c93b
00000130: 1e85 abbd 8948 53be f34a 13bd a76d 5bbd
00000140: a0b4 50bd 023f 943d d15f e23b daaa 86bc
00000150: 1a8b 49bc d775 adbd 6cc4 bfbd 3cbe abbc
00000160: 72ef 893d 6fda e83d fe5f df3c 8895 0dbe
00000170: 4080 65bb da77 6abd 0cc9 51bc 31e1 10be
00000180: 4144 3a39 408c b8bc d4d7 8ebc 2f9e c5bd
00000190: f9e0 2cbe 0146 34bd af27 813d a205 51bb
000001a0: 156a aebd 4e22 453d d91f 7abd ddb0 a43d
000001b0: 29e4 21be 516c c9bd 42d8 01be fd76 0dbd
000001c0: 0a8e 3abe c754 2cbe 95ea 08be 2226 933d
000001d0: 490b 05be 4d9d 9c3d 2002 a23d f491 5abd
000001e0: 900f eabd 0ce4 82bd 403f 85bd 7ab5 cebc
000001f0: 466c b5bd 73ab 8cbd 58bb 01bd 7d17 9fbd
00000200: 01f2 813d f89a abbc cd72 d6bc e25a 423d
00000210: 280c 87bc d5aa 94bd 5f29 8f3c 9101 b739
00000220: d82a 78bc e68c 8fbd ddd9 fabd 2967 203d
00000230: 8777 ad3d fb7d 19bd 67aa 11bd 8b55 51bd
00000240: a873 17bc 1784 17bd 62a4 683c 1793 b73c
00000250: a4c4 c6bd 8060 883d ac36 1cbd 4b86 cfbd
00000260: eb72 b1bd 9359 6ebc 627b 433d 3f15 9bbc
00000270: 6838 3fbc ac49 b3bc 0a85 733d 2abf a8bd
00000280: fdf0 a2bd 2e4f 8ebc 9eb8 8a3b 4bc5 0cbd
00000290: e565 863d f9a6 a33d bf0b 823c 0c75 40bc
000002a0: 7e5a 74bd ea32 ab3d 9c65 bebc 0766 58bd
000002b0: 4c08 54bd ee6d 0e3d e44e b4bb ac03 453d
000002c0: e0ef d43b 56ce 5a3d 8f82 f9bd 5312 1e3d
000002d0: 215d 8a3d d688 0a3d bd2b f3bd e0c0 4dbd
000002e0: bef3 b9bd 2bdd 2bbc b34f 293d 81e9 5f3d
000002f0: d62d 9cbd 2b27 69bd 08da f6bd d441 5abd
00000300: eaaa 1bbd 1441 a5bc fc91 d93c 5e3b adbd
00000310: 1cb4 9e3c 8765 42bb 557c f1bc dfe5 6b3b
00000320: 30bf 6bbc 1cb0 a33c dc9a e4bd cecc 94bd
00000330: f81a bd3d 090b 803d 592d 043d 280c 81bd
00000340: aac5 77bd 7fca 30bd 176f 9fbb 324c d7ba
00000350: 89ec 23bb 006e 813d 05ca f9bb 9f6e 40bd
00000360: c599 a23d 6a9d e9bc b3be babd 6376 9b3d
00000370: f021 11bc 241c 93bd d5cf 98bd 9d15 44bc
00000380: 36d2 05bd 7f38 8abc 6580 133c e1a4 913d
00000390: 0fdc adbd 8acb d9bd 8e93 5e3d d287 213b
000003a0: 7405 b7bd 033e 263c e40f f53b cfb0 19bc
000003b0: 707e 83bd 6cdb a7bd 9417 563d 3305 40bc
000003c0: 1cfd c7bd ba85 74bd fb3f d33b 94db af3c
000003d0: c368 e7bc 8a10 eebd d248 c83d 5588 06bd
000003e0: 8eee 633e 4add 1bbe 4a3e 453e 1281 f9be
000003f0: 3698 b8bf 2081 d43c 44eb 513e 4d92 a33d

bias f4 [256]
-0.08065664 0.026196968 -0.17936529 -0.0877258 0.25059646 0.29527938 -0.072495736 -0.077068545
0.08576964 -0.062495798 -0.06632195 0.20987843 0.16328819 0.06804641 0.023040766 0.012639098
0.0851582 -0.055028778 0.23964943 -0.10193517 0.059402347 0.1240181 0.30495125 -0.05853551
0.15165019 -0.11281742 0.06056722 -0.12008943 -0.025886068 0.034616873 0.24968158 0.026168182
0.041918125 0.06682201 0.30056536 -0.041385308 0.19323538 0.30776983 0.0030382108 0.154727
0.29871988 -0.12637222 0.28270963 0.0069666 -0.030700447 -0.12128218 0.096448146 -0.0072015547
-0.039603226 0.0067179287 0.020775564 -0.09142387 0.043166503 -0.07604201 0.19020836 -0.10138545
-0.046576213 -0.115055285 0.025797298 -0.050273262 -0.20681576 0.09589623 -0.2511132 0.24799839
0.21691605 0.017278554 0.13923427 0.02510986 0.17929232 -0.2933155 0.21201017 0.24435
-0.13793129 0.10648386 0.3376909 -0.029162273 -0.002751064 0.110417716 -0.022484185 0.24974506
-0.055909846 -0.061170936 -0.1343502 -0.06706122 -0.0432532 0.21502064 0.22297692 0.14389
0.03700502 -0.030015688 -0.025366953 0.26083815 0.009082065 -0.13392371 0.08327601 0.29848692
-0.124305554 0.036870304 0.024590466 0.07132112 -0.0109394165 0.13677089 0.25174782 -0.16339527
0.06907511 -0.009889241 0.24101397 -0.13918988 0.30078733 0.23648185 0.017150093 -0.01326314
-0.070917204 -0.119443186 -0.11485832 0.18587025 -0.015947226 0.0034557024 -0.14984302 0.053925544
-0.14170182 0.20869365 -0.060784187 -0.027277056 0.055981234 -0.03593112 -0.036024 0.07871283
-0.10114358 0.31822097 -0.040260084 -0.05625767 -0.0067067444 -0.107693635 0.20844491 -0.07207265
0.17256626 0.115115516 0.18127784 0.22609217 0.070645645 0.04431747 0.13126265 0.3343489
-0.0067613143 -0.14572823 0.12530957 -0.03450572 -0.090918966 0.077961124 -0.05599843 -0.11961558
0.009448774 -0.07093476 0.25336483 0.27490684 0.14661273 0.044848993 -0.058872916 -0.07960455
0.023085684 -0.06113165 -0.091469176 0.03951524 -0.08818891 -0.09420867 -0.11344705 0.056009017
-0.09403734 0.12958406 -0.069372706 0.027843945 -0.038964804 -0.07149885 0.068991646 -0.018298715
-0.2183377 0.33213285 0.11550127 -0.041574307 0.30244857 0.0021112985 0.08634844 0.089925386
0.2295919 0.0069669546 0.30299157 0.043362044 -0.083564855 -0.17581461 0.0385207 0.29104754
0.027647372 -0.011486829 -0.07470257 0.14526981 0.18665397 -0.06294722 -0.13340132 0.2129493
0.27460602 -0.0879543 -0.012244189 -0.09349139 0.07020278 -0.067558534 -0.0785173 0.014634305
-0.03304385 8.460305e-05 0.26194096 -0.11098371 0.21648769 -0.013474359 0.2741939 0.28628844
0.070900545 0.14619276 -0.09994194 -0.25545847 -0.08018582 -0.08743415 -0.04806123 0.17509528
-0.09644113 0.03805915 0.31474176 0.041382622 -0.066610746 -0.20889215 0.14817142 -0.15696779
0.010127632 0.22931774 0.19081561 -0.11299074 -0.17618237 0.13679221 0.24732278 0.29771304
0.09282605 -0.068387315 0.019852275 0.06679813 0.18218954 0.1087982 -0.12299244 0.15373601
0.30919117 0.13357276 0.23695922 0.10927377 0.1693616 0.080985025 0.016397994 0.14196885
00000000: 4f2f a5bd 069b d63c 89ab 37be 96a9 b3bd
00000010: 2e4e 803e dc2e 973e a578 94bd 1dd6 9dbd
00000020: fea7 af3d 98fb 7fbd cdd3 87bd 5fea 563e
00000030: 0535 273e eb5b 8b3d fdbf bc3c 3814 4f3c
00000040: 6c67 ae3d db65 61bd a966 753e 63c3 d0bd
00000050: e04f 733d 34fd fd3d 9222 9c3e eec2 6fbd
00000060: 304a 1b3e d20c e7bd 5515 783d 72f1 f5bd
00000070: 050f d4bc 6cca 0d3d 87ac 7f3e a85e d63c
00000080: 57b2 2b3d fad9 883d b4e3 993e a483 29bd
00000090: 7fdf 453e 0294 9d3e b81c 473b c170 1e3e
000000a0: d0f1 983e b867 01be 51bf 903e 1448 e43b
000000b0: 817f fbbc cb62 f8bd 9b86 c53d 05fb ebbb
000000c0: fe36 22bd 1222 dc3b 8431 aa3c 703c bbbd
000000d0: 5ccf 303d eabb 9bbd fbc5 423e 2da3 cfbd
000000e0: b3c6 3ebd 1ba2 ebbd db54 d33c 56eb 4dbd
000000f0: 83c7 53be 3e65 c43d e991 80be 4af3 7d3e
00000100: 3e1f 5e3e c18b 8d3c 6e93 0e3e 31b3 cd3c
00000110: 6898 373e 732d 96be 3219 593e e336 7a3e
00000120: dc3d 0dbe 3614 da3d d2e5 ac3e b8e5 eebc
00000130: 324b 34bb af22 e23d c130 b8bc 2bbd 7f3e
00000140: b901 65bd 608e 7abd 1993 09be 6557 89bd
00000150: 442a 31bd 5f2e 5c3e 1054 643e e657 133e
00000160: 9392 173d 76e3 f5bc 5bce cfbc 948c 853e
00000170: f1cc 143c 4c23 09be 9d8c aa3d 47d3 983e
00000180: e993 febd 5105 173d f271 c93c cf10 923d
00000190: 3d3b 33bc ab0d 0c3e 17e5 803e 1751 27be
000001a0: 4077 8d3d 7c06 22bc 5ecc 763e cb87 0ebe
000001b0: cc00 9a3e 4c28 723e 5a7e 8c3c a44d 59bc
000001c0: 0a3d 91bd a19e f4bd d73a ebbd c554 3e3e
000001d0: c2a3 82bc 1179 623b 7370 19be 08e1 5c3d
000001e0: 481a 11be cab3 553e d7f8 78bd 2274 dfbc
000001f0: 944c 653d 832c 13bd e78d 13bd 3134 a13d
00000200: 5e24 cfbd dced a23e c2e7 24bd 716e 66bd
00000210: 40c4 dbbb 7b8e dcbd 9572 553e d39a 93bd
00000220: 36b5 303e afc1 eb3d e6a0 393e b584 673e
00000230: aaae 903d 3c86 353d b769 063e c72f ab3e
00000240: 048e ddbb c839 15be 2751 003e df55 0dbd
00000250: b933 babd 15aa 9f3d 9c5e 65bd 03f9 f4bd
00000260: 08cf 1a3c 3e46 91bd 09b9 813e 97c0 8c3e
00000270: a621 163e 94b3 373d ba24 71bd b607 a3bd
00000280: 301e bd3c 2e65 7abd 3154 bbbd bbda 213d
00000290: 639c b4bd 7af0 c0bd ed56 e8bd b669 653d
000002a0: a696 c0bd afb1 043e 4713 8ebd fc18 e43c
000002b0: 8f99 1fbd fd6d 92bd 7e4b 8d3d 30e7 95bc
000002c0: eb93 5fbe 510d aa3e ee8b ec3d d249 2abd
000002d0: 8ada 9a3e b65d 0a3b 73d7 b03d cd2a b83d
000002e0: 241a 6b3e 0d4b e43b b621 9b3e 669c 313d
000002f0: 0d24 abbd bf08 34be e2c7 1d3d 2f04 953e
00000300: be7c e23c 4133 3cbc a9fd 98bd 9cc1 143e
00000310: 3822 3f3e 79ea 80bd 5b9a 08be 620f 5a3e
00000320: 2999 8c3e 6221 b4bd da9b 48bc 6a78 bfbd
00000330: 7ac6 8f3d 215c 8abd aecd a0bd b9c4 6f3c
00000340: fd58 07bd eb6c b138 201d 863e 6d4b e3bd
00000350: f3ae 5d3e 8fc3 5cbc 2563 8c3e 6694 923e
00000360: 4e34 913d 8eb3 153e 5cae ccbd 74cb 82be
00000370: 7738 a4bd ad10 b3bd dadb 44bd 2d4c 333e
00000380: ed82 c5bd e9e3 1b3d d525 a13e d380 293d
00000390: 376b 88bd d3e7 55be 40ba 173e 2abc 20be
000003a0: 5eee 253c 45d2 6a3e 2b65 433e b067 e7bd
000003b0: 2769 34be 4213 0c3e 2f42 7d3e d86d 983e
000003c0: 961b be3d a60e 8cbd 3da1 a23c 75cd 883d
000003d0: e58f 3a3e 97d1 de3d 76e3 fbbd f96c 1d3e
000003e0: 4e4e 9e3e 4cc7 083e 70a5 723e edca df3d
000003f0: 216d 2d3e 7adb a53d 1655 863c 4860 113e

weight f4 [256, 256]
0.012994866 -0.0026843399 -0.030609025 -0.043110706 -0.09816603 -0.0003898534 0.036482617 -0.020038325
0.038713004 0.00651408 0.03005775 -0.027783941 -0.08122793 0.023448382 0.0059270933 0.021561686
-0.060880877 0.0703788 -0.034054525 0.039350674 0.058867835 0.012457499 -0.03302402 -0.056851644
-0.056118626 -0.031797335 0.010863811 -0.02794592 0.055707403 -0.039987303 -0.0070025795 -0.025485829
-0.037460633 -0.00071021705 -0.0228587 0.012579982 -0.06885826 -0.09404272 0.042491823 0.03241098
-0.014579332 -0.020045921 -0.062030036 -0.013965564 0.023931488 0.01584319 0.02510568 0.030499304
-0.027422868 -0.08461265 -0.022819348 -0.0007957816 0.035753034 -0.0071024 -0.028501282 -0.08757353
0.020345999 0.008611575 -0.05641448 -0.03805569 0.05123029 -0.031677432 0.035057146 -0.012464491
-0.081053615 -0.06330872 0.0052328855 -0.0049844235 -0.0007857291 -0.049399152 -0.0116155185 0.009203191
-0.012558565 -0.047883507 -0.0343503 -0.05043251 -0.050466627 0.0155551 0.01796902 -0.037248224
-0.04889764 0.007816561 -0.055256795 -0.060104623 0.049982846 -0.0360485 0.009655408 -0.060730755
0.037820574 0.05658212 0.0024111941 -0.07951711 -0.026413575 -0.018944427 -0.010495624 0.0001307693
-0.024660595 -0.05368113 -0.009699821 -0.0013554172 0.055941567 -0.009168238 -0.029955389 -0.0340861
-0.042967718 0.044735834 0.009701401 0.024526944 0.01108352 -0.0035400642 -0.0019778162 -0.007434278
-0.051537976 0.028948925 0.053516887 0.025018975 -0.04660954 0.024381632 0.04972394 0.028003681
-0.009099047 -0.03522222 0.00598842 -0.045564465 0.003361733 0.023421692 0.015898526 0.00026709962
-0.007352774 -0.057245366 0.016185224 -0.008947594 0.020089464 -0.04835089 -0.024574783 -0.040676296
0.0233633 -0.09922035 -0.02333 -0.015971217 -0.0010296912 -0.04009332 -0.05670772 -0.037306707
-0.00036607392 -0.031858157 -0.040222075 -0.008640658 -0.08631645 -0.03315125 -0.033277888 0.033177726
0.006115812 0.02282545 -0.011754809 -0.08869302 -0.085096374 -0.05396378 -0.003967561 0.048032813
0.03395941 -0.011767551 -0.034822322 -0.026256679 0.051510535 -0.013163678 -0.04740792 -0.07385383
-0.08544886 -0.06533922 -0.054112785 -0.023821857 0.0058419406 -0.0087023685 0.0073781195 -0.019945638
7.094158e-05 -0.0016899877 -0.015590282 0.028529204 -0.06296846 0.019558704 -0.026393663 0.0204084
-0.011296455 0.005178757 -0.0079283295 -0.007389964 0.018342713 -0.055574935 -0.06512232 0.0054685315
0.045163326 -0.048129894 0.026127126 0.010873076 0.0036761463 -0.013599953 -0.020691127 0.0011492223
-0.0595829 -0.039392427 0.008557693 0.058776014 0.0050394144 -0.05701804 0.009138223 0.0056404322
0.021574572 -0.030445227 -0.020925783 -0.055779245 -0.024426 0.06352452 -0.068857074 -0.005234828
0.03805414 -0.03975429 0.017231263 0.041435406 0.050958306 0.007477939 -0.040316924 0.040239267
-0.057170954 0.0067393444 -0.02183804 -0.044344526 0.043704532 -0.0049312836 -0.024933312 0.033415783
0.020085424 -0.09456606 -0.004385799 -0.061897762 -0.011403636 -0.032606162 -0.060132626 0.0002246895
-0.0125368 0.010573119 -0.008550189 -0.056032505 0.032259807 0.007712098 0.020290658 -0.025895094
-0.03536052 -0.054903153 -0.029208288 -0.06425572 -0.02660416 -0.046225432 -0.024708167 -0.093121424
00000000: 6be8 543c c0eb 2fbb c7bf fabc da94 30bd
00000010: 460b c9bd 3d65 ccb9 cc6e 153d 6a27 a4bc
00000020: 8791 1e3d 1074 d53b ac3b f63c 269b e3bc
00000030: d45a a6bd d216 c03c 1038 c23b 22a2 b03c
00000040: 3a5e 79bd c322 903d c27c 0bbd 2c2e 213d
00000050: 661f 713d 8a1a 4c3c 3244 07bd 45dd 68bd
00000060: a5dc 65bd ec3d 02bd 20fe 313c d8ee e4bc
00000070: 722d 643d bac9 23bd e575 e5bb a8c7 d0bc
00000080: 5270 19bd dc2d 3aba 2b42 bbbc 451c 4e3c
00000090: 8f05 8dbd 7899 c0bd e80b 2e3d 60c1 043d
000000a0: 27de 6ebc 5837 a4bc 3513 7ebd d2cf 64bc
000000b0: f80b c43c 94c9 813c 6daa cd3c add9 f93c
000000c0: eca5 e0bc 6649 adbd a4ef babc 009c 50ba
000000d0: c671 123d 40bb e8bb 857b e9bc c059 b3bd
000000e0: a7ac a63c 9017 0d3c df12 67bd 48e0 1bbd
000000f0: dad6 513d 32c0 01bd 1598 0f3d dd37 4cbc
00000100: 70ff a5bd 01a8 81bd a078 ab3b 6054 a3bb
00000110: 63f9 4dba c456 4abd 044f 3ebc fbc8 163c
00000120: 70c2 4dbc 7f21 44bd e6b2 0cbd 5292 4ebd
00000130: 18b6 4ebd d1da 7e3c c433 933c 9891 18bd
00000140: e448 48bd 0811 003c f354 62bd 4430 76bd
00000150: d0ba 4c3d 98a7 13bd b731 1e3c d0c0 78bd
00000160: bfe9 1a3d a7c2 673d 2005 1e3b ded9 a2bd
00000170: 4861 d8bc 5831 9bbc d6f5 2bbc 1e1f 0939
00000180: 0405 cabc bfe0 5bbd ffeb 1ebc 41a8 b1ba
00000190: fc22 653d 6136 16bc 0165 f5bc de9d 0bbd
000001a0: ebfe 2fbd ec3c 373d a0f2 1e3c bbec c83c
000001b0: a797 353c 6c00 68bb 409e 01bb 3e9b f3bb
000001c0: 7c19 53bd 4c26 ed3c 8634 5b3d 98f4 cc3c
000001d0: a5e9 3ebd fdbb c73c 55ab 4b3d fa67 e53c
000001e0: 2b14 15bc 2d45 10bd 823a c43b cea1 3abd
000001f0: 8550 5c3b d9de bf3c a03d 823c 8109 8c39
00000200: 8aef f0bb 1e7a 6abd e096 843c ee98 12bc
00000210: a992 a43c 950b 46bd 0e51 c9bc 309c 26bd
00000220: 6464 bf3c 0a34 cbbd 8e1e bfbc 12d6 82bc
00000230: b4f6 86ba e538 24bd 5b46 68bd ebce 18bd
00000240: 9ced bfb9 b37d 02bd e7bf 24bd 8c91 0dbc
00000250: aec6 b0bd 9bc9 07bd 654e 08bd 5ee5 073d
00000260: 2667 c83b 70fc ba3c 3e97 40bc b0a4 b5bd
00000270: 0247 aebd 2009 5dbd 5002 82bb 0ebe 443d
00000280: 0619 0b3d b0cc 40bc daa1 0ebd 3f18 d7bc
00000290: b6fc 523d 78ac 57bc cf2e 42bd ad40 97bd
000002a0: d0ff aebd 92d0 85bd 5ea5 5dbd 0e26 c3bc
000002b0: c06d bf3b 6194 0ebc 27c4 f13b 0965 a3bc
000002c0: 79c6 9438 9482 ddba 626e 7fbc 14b6 e93c
000002d0: 9cf5 80bd 9339 a03c 8637 d8bc 842f a73c
000002e0: c414 39bc 90b2 a93b d3e5 01bc 8327 f2bb
000002f0: 7543 963c 8ba2 63bd da5e 85bd 5e31 b33b
00000300: 2efd 383d da23 45bd 8e08 d63c fc24 323c
00000310: 80eb 703b 56d2 5ebc 7080 a9bc 80a1 963a
00000320: 330d 74bd f459 21bd 9135 0c3c 1ebf 703d
00000330: ac21 a53b c08b 69bd 7cb8 153c 60d3 b83b
00000340: 28bd b03c 4568 f9bc 8c6c abbc c778 64bd
00000350: 0919 c8bc 2519 823d f004 8dbd ec88 abbb
00000360: a8de 1b3d 65d5 22bd 9428 8d3c 2cb8 293d
00000370: a8b9 503d 8009 f53b 5c23 25bd eed1 243d
00000380: 172c 6abd b8d5 dc3b b0e5 b2bc 9ba2 35bd
00000390: 8603 333d 9b96 a1bb f240 ccbc fdde 083d
000003a0: 308a a43c daab c1bd c0b6 8fbb 8288 7dbd
000003b0: 51d6 3abc 0a8e 05bd a14d 76bd a19a 6b39
000003c0: 2667 4dbc e03a 2d3c 1816 0cbc 5782 65bd
000003d0: dc22 043d c4b5 fc3b 9838 a63c f321 d4bc
000003e0: 31d6 10bd 21e2 60bd 3846 efbc 8198 83bd
000003f0: f8f0 d9bc e156 3dbd c868 cabc 72b6 bebd
