src/saved_models/grid_world_seed125_8_7_15_42_成了/125_95_model.pt (torch, 702727 bytes, 11 tensors)

FC1.weight f4 [256, 36]
000000 63 82 5f be a7 d2 fb bc b7 39 d1 3d 72 d0 fc 3d
       -0.21827082 -0.030740095 0.10216086 0.12344445
000010 64 4f 8b bd 37 00 81 be 7f 27 84 3d c3 6b 89 3d
       -0.06802252 -0.25195476 0.06452846 0.06710007
000020 29 e2 2d 3e 19 47 88 be 85 1e 68 3e b1 b4 da bd
       0.16980805 -0.26616743 0.22667892 -0.106789954
000030 7d f9 a9 3e d0 b4 1d be 32 6d a5 3e 76 ea 1e 3d
       0.33198157 -0.15401006 0.32309872 0.038797818
000040 ba 3c e7 bc 56 a0 83 be 85 16 ff bd 0c 25 a2 be
       -0.028227199 -0.25708264 -0.12455467 -0.3166889
000050 2a 8e 2d 3e 9e e0 33 be 8f 3e 8c 3e 80 f8 3f be
       0.16948763 -0.17566153 0.27391478 -0.18747139
000060 26 ee 86 be e8 d6 9b 3e 9a 9f bf 3d 21 6f 3d 3d
       -0.26353568 0.30437398 0.093566135 0.04624856
000070 ad 27 77 3e 10 18 87 be d8 ba 54 3d 29 f0 aa bd
       0.24136229 -0.26385546 0.051936 -0.08346588
000080 14 25 1d bf cf 48 93 3e d2 5b 43 3d 2e b9 a5 be
       -0.613847 0.28766486 0.04769499 -0.32367843
000090 45 b5 bc bd f0 cf 96 be 89 96 8b 3d 69 58 d7 bc
       -0.09214262 -0.2945552 0.06815822 -0.026287274
0000a0 00 fc 73 be bd 14 27 bf 95 91 02 bf 48 86 e8 be
       -0.23826599 -0.6526602 -0.5100339 -0.45414948
0000b0 0e c1 9e 3d 56 86 a5 bd 99 67 70 3e b3 bb 30 bd
       0.07751666 -0.08082263 0.2347702 -0.043147754
0000c0 05 85 78 be cc 2f 45 bf 0d 56 42 be a2 6e d5 be
       -0.24269493 -0.7702606 -0.18978138 -0.4168597
0000d0 c9 80 0b be e4 08 d0 be 0e 72 51 3e 10 01 54 bf
       -0.13623346 -0.40631783 0.20453665 -0.8281412
0000e0 ef 33 0a bb b7 3d d9 be 97 84 be 3d 12 25 a6 be
       -0.0021088084 -0.42429897 0.09302633 -0.32450157
0000f0 fe 82 86 bc 0d 03 ae 3e 30 61 14 bf 93 bb 65 3e
       -0.016419884 0.33986703 -0.57960796 0.22434835
000100 db 9a 2e 3e ad 45 77 3d 47 21 92 3e d4 4d 28 3b
       0.1705126 0.060369182 0.28541014 0.0025681155
000110 40 f1 af 3e 64 29 66 bf 10 58 08 3d 09 ca fc bd
       0.34363747 -0.8990691 0.033287108 -0.12343223
000120 21 2e e6 3d 84 00 b0 bd 21 c8 b2 be ba f3 95 3d
       0.11239267 -0.08593848 -0.3491831 0.07321878
000130 37 38 04 bf af 2a b2 3d 44 b9 16 bf fa 4d 95 3c
       -0.5164828 0.086995475 -0.5887644 0.018225659
000140 d3 03 aa be 1d 4c 12 3d b5 e0 3e 3e 80 d1 dc bd
       -0.33206043 0.03571712 0.18640406 -0.107821465
000150 b6 0d a2 3e 9c 59 9a bd 39 e8 03 bf e4 5c 98 3d
       0.31651086 -0.07536623 -0.5152622 0.074395925
000160 81 1c 50 be f6 29 b7 be 2f a1 dc be 2d f2 ee be
       -0.20323373 -0.357742 -0.43091723 -0.4666914
000170 0b f9 82 3e cd 6a 29 be 39 9e b2 be e6 ca 42 be
       0.2558063 -0.16544648 -0.3488634 -0.19022712
000180 a0 fe ba be fe 51 dc 3e da a0 cb be b8 47 00 be
       -0.36522388 0.43031305 -0.39771158 -0.12527359
000190 b8 27 8f bd 76 0d e9 bd 2c de 99 bd f7 89 84 bd
       -0.069899976 -0.113795206 -0.07513079 -0.06471627
0001a0 81 8a b6 bd 1f 66 33 bf 6e ab 95 be ce 2c de bd
       -0.08913136 -0.700777 -0.29232353 -0.108483896
0001b0 5d 11 4e 3d ce 87 4b be 12 f3 49 3d b4 e0 0c be
       0.050309528 -0.19876024 0.049304076 -0.13757592
0001c0 79 00 9d 3c 2a e4 4f be d0 1a fa be 45 23 82 be
       0.019165264 -0.20301881 -0.4884858 -0.25417534
0001d0 90 71 46 3e bd 9e d1 be 2d 45 a6 3d 72 47 36 be
       0.19379258 -0.4094142 0.08118663 -0.17800692
0001e0 74 ff f0 3e 29 c5 8b be c0 a4 12 bf 74 c4 24 be
       0.47069895 -0.2729886 -0.5728264 -0.16090566
0001f0 d6 88 dd 3d 4d 01 75 bd f4 fb 79 3d eb 07 b3 bd
       0.10817115 -0.059815694 0.061031297 -0.087417446
000200 f2 a8 99 3d 30 49 9c be a3 fd 4b be e8 13 30 be
       0.07502927 -0.30524588 -0.19920973 -0.17195094
000210 57 bb 65 3e bf a5 b3 be 93 d4 27 bf 6e c0 a2 3d
       0.22434746 -0.35087392 -0.6555874 0.07946859
000220 36 8c b8 3e 64 3f 06 3e 24 43 a1 3b c3 89 d0 3d
       0.36044472 0.13110119 0.004921334 0.10182526
000230 d4 e2 da 3d bb c8 d1 be 89 e4 dd 3d 5a 41 8a 3d
       0.10687795 -0.40973458 0.10834605 0.06750746
000240 db c7 da bd 1a f1 02 be 21 85 26 3e 53 52 6f 3e
       -0.10682651 -0.12787285 0.16261722 0.23371248
000250 b0 01 ac 3e 4d 7e 3b 3c cf 7d c9 be 41 10 95 bd
       0.33595037 0.011443687 -0.39353797 -0.07278491
000260 aa 64 2c 3d db 28 89 be 72 d5 b2 be 3d 44 a5 3c
       0.04208819 -0.26788983 -0.3492847 0.02017414
000270 d4 e8 03 3f 80 59 39 be 2d 4d 2a be aa f3 4c bd
       0.5152714 -0.18100548 -0.16631003 -0.050037064
000280 c0 62 24 bb b7 2a 24 3d 37 28 ba be 4f f5 58 3e
       -0.0025083274 0.0400798 -0.36358806 0.21187328
000290 25 46 4f 3d 52 16 27 3e 40 61 8f be 1b 45 0b 3e
       0.050604004 0.16317108 -0.28003883 0.1360058
0002a0 d2 bd 3d 3e 79 fe 01 bf 77 53 de 3e cf a3 80 bc
       0.18529442 -0.5077892 0.43423054 -0.01570311
0002b0 b8 cf 78 3e 74 d8 1b be 92 48 83 be e4 7c cd bd
       0.24297988 -0.15219289 -0.25641304 -0.100335866
0002c0 c0 87 8a be 10 8a 39 be e3 6c a1 3d 9f 13 94 bd
       -0.27056694 -0.18119073 0.078820966 -0.07230305
0002d0 2c ad de 3c 8c f0 38 be bb 59 71 3e 84 24 8e ba
       0.027182184 -0.18060511 0.23569386 -0.0010844623
0002e0 a9 88 6f 3e 89 2e f1 bb d6 66 82 be 50 3f c1 bd
       0.23391975 -0.0073602838 -0.25469083 -0.09435904
0002f0 72 72 e4 3d 98 40 dc be ac 44 0d be 82 18 a0 3d
       0.11154641 -0.4301803 -0.13795727 0.078171745
000300 c4 57 c1 be 82 64 5e be c5 0d ba be f2 d4 e2 bd
       -0.37762272 -0.21718028 -0.3633863 -0.11075772
000310 d0 00 21 3e af 04 3d be d7 eb 95 3e 67 a2 07 3d
       0.15722966 -0.18458818 0.29281494 0.033113863
000320 c9 be 80 bd 4c 90 97 ba 61 3d 14 be ac e3 bd bd
       -0.062863894 -0.001156339 -0.14476539 -0.092719406
000330 81 1c e0 3c 52 2e 16 bf 20 a4 23 3f e8 83 b1 3d
       0.027357342 -0.5866443 0.6392231 0.08667737
000340 49 78 86 3e 98 f8 72 bd 86 2b 97 bb e5 f7 ad be
       0.26263645 -0.05931911 -0.0046133427 -0.3397819
000350 88 99 54 3e cd cf 27 bf 3d f3 26 be 5d 60 4f 3e
       0.20761693 -0.65551454 -0.16303726 0.20251603
000360 69 9d 94 3e 86 68 c4 3d 76 be 32 3e e2 8b 0c 3e
       0.29026344 0.09590249 0.17455468 0.13725236
000370 9c ce 01 3e e3 fb 54 3e ef 28 fd be 0b 4a 71 3d
       0.12676471 0.20799212 -0.49445292 0.058908504
000380 36 f1 0c 3e 78 dd b6 be 55 6a ca bc 48 a4 84 3e
       0.1376389 -0.35715842 -0.024708906 0.25906587
000390 67 4e 66 3e b6 be e8 3d e3 57 44 be c5 80 e5 3d
       0.22490846 0.113645 -0.19174151 0.112062015
0003a0 13 01 a6 3d 5a cf f1 be 5f 3d 99 be 14 29 3e 3e
       0.08105674 -0.4722851 -0.29929635 0.18570358
0003b0 18 d5 ff bc 96 41 08 3e 6d ab b8 be e9 2c f7 bd
       -0.03122954 0.13306269 -0.36068287 -0.12069113
0003c0 8a 55 c7 3d f1 3e d9 bd 96 7a f3 3e fb 2b 33 be
       0.09733112 -0.10607708 0.47554463 -0.17497246
0003d0 84 94 9d 3e e7 1b d8 bd c8 0d 30 3d 45 5d c4 bc
       0.3077737 -0.10552197 0.042981893 -0.023970256
0003e0 4c d4 35 be a5 71 a7 bb b5 2d 77 be a7 3f a9 be
       -0.17756766 -0.005109983 -0.2413853 -0.33056375
0003f0 1d 66 49 3e 87 f4 74 bc f3 86 4d 3e 14 89 83 be
       0.1966786 -0.014950878 0.2007101 -0.2569052

FC1.bias f4 [256]
000000 58 fe 07 be f1 1d 29 3d 56 8c 2e bd 27 36 0f 3e
       -0.13280618 0.04128832 -0.042614304 0.13985501
000010 d8 7c 37 bd d7 8f 09 3d 1e 5f 65 be a6 f9 5e bd
       -0.044796795 0.033584442 -0.22399566 -0.054437302
000020 a7 0e a6 3d 00 7d 3e be 86 c1 24 3e 50 e3 27 be
       0.081082635 -0.18602371 0.16089448 -0.16395307
000030 5b 23 ed bd bf 5d f6 bd 38 94 71 be d3 59 db 3a
       -0.11579009 -0.120295994 -0.23591697 0.0016735144
000040 95 1b 4e 3d f1 0e a3 bd a0 c0 14 be eb 43 5a bd
       0.050319273 -0.07961834 -0.14526606 -0.053287428
000050 82 a3 fb bb 2b aa c9 3d 24 4f 22 be 23 a7 ee bd
       -0.0076794038 0.0984691 -0.15850502 -0.116529725
000060 ba bf 90 3d 00 ac d8 bd cb 4a e7 3d 59 53 2c bd
       0.07067819 -0.105796814 0.112935625 -0.042071674
000070 9a 3f 08 be f6 78 3a b8 bb 44 18 3d b8 34 07 be
       -0.13305512 -4.445851e-05 0.03717492 -0.13203704
000080 cc 65 20 be 83 e3 08 3e b7 40 5e be 8a 81 dc bd
       -0.15663832 0.13368039 -0.21704374 -0.10766895
000090 db a0 df bd 49 bb 67 3d 40 60 95 3e af f2 26 3d
       -0.109193526 0.056575093 0.29174995 0.040758785
0000a0 ec 5d 60 3e f3 f6 c7 3d 8e 4c 02 3e 13 ab 83 bc
       0.21910828 0.09763899 0.12724516 -0.016072785
0000b0 2c cf 18 3e 6e 88 06 3e a6 5a 8d bd 82 34 20 be
       0.1492278 0.13137981 -0.069020554 -0.1564503
0000c0 8c a7 3c be 77 9b 3e 3e 65 43 21 be 5a d4 66 be
       -0.18423289 0.18613993 -0.15748365 -0.22541943
0000d0 03 e2 21 be 5c 4f ce 3d d6 96 82 3c 7b f5 81 3e
       -0.15808873 0.1007373 0.015941065 0.253826
0000e0 4f 29 e8 3d f8 04 05 3d aa f5 84 3d 64 81 e3 bc
       0.11336004 0.03247544 0.06492169 -0.02777166
0000f0 1f 9b 4d bc 59 51 66 be c7 db 0e 3a 49 25 f7 3d
       -0.012549191 -0.22491969 0.00054496195 0.120676585
000100 55 31 08 bd 45 47 a1 3d 5d 37 5c 3e 6d 51 df 3d
       -0.03325017 0.07874922 0.21505494 0.109042026
000110 1d 43 65 be a8 dc b2 bd 7c 7b 1e 3e 27 a0 ff bc
       -0.22388883 -0.08733493 0.15476793 -0.031204296
000120 ff 81 11 be f8 7f 50 3d 3d 06 b9 3d e7 d5 d0 bd
       -0.14209746 0.05090329 0.09034393 -0.10197049
000130 78 f1 c7 bd 68 80 fe 3b 1f 8f ff bd e5 a2 9d be
       -0.097628534 0.007766772 -0.1247847 -0.3078834
000140 76 49 27 3d 8e eb d2 bd 8d 9f ef bc e3 4c b9 3d
       0.040841542 -0.10298835 -0.029250884 0.09047868
000150 63 48 02 3e 2a 53 70 3d af 3c 68 3d 3e 41 5c be
       0.12722926 0.05867306 0.056698497 -0.21509263
000160 e3 04 8a bd 4f ed c3 bd 9b b3 56 bd c5 a2 20 be
       -0.06739213 -0.095667474 -0.05241738 -0.15687092
000170 be b5 25 bd 46 8d 69 be ce 33 06 3e 6e 26 6f 3d
       -0.040456526 -0.22807798 0.131057 0.05838626
000180 07 0c 46 3e 5d 31 a9 3d 8d 4c e9 3c 6c 3e 99 bd
       0.19340526 0.082613684 0.028478885 -0.07482609
000190 91 1b 80 3e 8b e6 f7 3d c9 e1 1d 3e 2b c0 0e 3d
       0.25021031 0.121045195 0.15418161 0.034851234
0001a0 91 cc 76 be f9 43 ea bd d1 f0 1f 3e 52 a2 17 be
       -0.24101473 -0.11438746 0.15619208 -0.14808014
0001b0 56 66 ee bd 4c a1 d4 bd ea ac 22 be f7 8e da 3d
       -0.11640613 -0.103823274 -0.15886274 0.106718
0001c0 10 e0 37 3d 4a 9e 92 bd d8 4a b2 be a3 7c 5b bd
       0.044891417 -0.071590975 -0.34822726 -0.05358566
0001d0 75 8f 0c be 43 ff a3 bc 18 bd 95 bc 5c 2b 55 3d
       -0.137266 -0.02001918 -0.018278643 0.052043304
0001e0 89 3e 7b bd 46 ec 47 be 5b 09 8a bd 08 cb 23 3e
       -0.061338935 -0.19523725 -0.06740066 0.15995419
0001f0 9a 94 1b 3d 50 9a 0d be 54 a5 86 3d 75 f4 10 3c
       0.037983514 -0.13828397 0.065745026 0.008847346
000200 8e db 4b 3e bc 0e 74 bd 37 6b 2e bd 02 ae ec bc
       0.19907972 -0.059584364 -0.042582717 -0.028891567
000210 de 20 b0 bc 32 37 81 be 4f f9 64 bd 9d c3 23 be
       -0.021500047 -0.25237423 -0.05590182 -0.1599259
000220 c6 2d 6b be c3 ac e0 3d 08 15 9a 3c 95 bd d3 bd
       -0.2296668 0.10970452 0.018808857 -0.10338894
000230 93 13 a6 bd c4 35 d3 3d 63 4e 4a be 57 67 af 3d
       -0.08109202 0.10312989 -0.19756465 0.085646324
000240 1b 7a b4 3b b8 e7 3d 3d 1b bc 9f bb f7 c4 d3 3b
       0.00550772 0.046363562 -0.004874719 0.006462689
000250 1e 6b 70 bd 45 e7 2e 3d 1a a4 84 bc d1 a3 f5 bd
       -0.058695905 0.042701025 -0.016191531 -0.11994136
000260 7a d9 8c bd 36 7d 48 bc 55 9a 93 bd e5 4e b1 bd
       -0.06877418 -0.012236884 -0.07207171 -0.08657626
000270 f7 e3 cb 3d 3e 56 eb 3c d4 73 d0 bd 4a 72 61 3d
       0.0995559 0.028727647 -0.101783425 0.055040635
000280 10 7c 23 be 65 ee ea bd 71 ec 72 3c 6b 49 87 be
       -0.15965295 -0.114712514 0.01482688 -0.264232
000290 b1 9f 53 3d 48 41 4e bd ea 81 a0 bc 5c 04 ba bd
       0.051665965 -0.050355226 -0.019593198 -0.09082863
0002a0 f1 2b 25 be 52 7f 09 be 13 9b 43 3d d0 d2 24 be
       -0.16130044 -0.13427475 0.047755312 -0.16096044
0002b0 1b 99 c7 3d 80 e2 87 3e 80 e5 da bd 37 73 86 3d
       0.097459994 0.26539993 -0.10688305 0.06564944
0002c0 0b 33 e3 3d d2 d6 57 3d 3a fd 33 be 86 e4 81 bd
       0.1109372 0.052695103 -0.17577067 -0.063424155
0002d0 0d 50 09 be 59 c3 5a be 7c ee f3 3d 13 71 22 3e
       -0.13409443 -0.21363582 0.11910722 0.15863447
0002e0 5c 81 b6 3d 6e 07 3d 3d bf 53 0f be 48 de eb bd
       0.08911392 0.046149664 -0.1399679 -0.11517006
0002f0 4d 82 d7 bc 99 da 41 3d 2b 61 b2 3d 2b 8b 85 b6
       -0.02630725 0.04732761 0.087099396 -3.97991e-06
000300 55 32 24 be 3e ab 05 3e 37 64 71 be c6 cc 8f 3d
       -0.16034825 0.13053605 -0.23573385 0.07021479
000310 a6 5c 57 3d 73 e5 38 3d 49 92 23 bd c7 fb da 3d
       0.05257859 0.045140695 -0.03993443 0.10692554
000320 cb f3 08 3e 85 37 00 3e fc bd 33 be e3 10 ea 3d
       0.1337425 0.12521179 -0.17552942 0.11429002
000330 bf 11 07 be 51 1d fa 3c 22 4e bc 3b 71 0d be bd
       -0.13190363 0.030531557 0.005746619 -0.092799075
000340 36 75 d7 3d c1 f1 45 be 25 b7 83 bd fb ad e1 bc
       0.10520403 -0.19330503 -0.064314164 -0.02754878
000350 6c 63 05 3e 8b c7 25 be e7 ca d9 3c fc f3 e4 bd
       0.13026208 -0.16189401 0.02658601 -0.11179349
000360 19 79 3c bc 8d 84 a2 be 18 b1 8a bd cd d9 b6 3d
       -0.011503481 -0.31741753 -0.06772059 0.08928261
000370 d9 35 f9 3d 71 c4 48 bd 9c 19 5a be c7 29 51 3d
       0.12168474 -0.049015466 -0.21298832 0.051065233
000380 06 08 95 bd 0e 15 b1 3d f1 ec 24 be ff 84 d1 3c
       -0.07276921 0.08646594 -0.16106011 0.025576113
000390 25 99 87 3e fb 98 46 3e cd 5e 8d bd d1 86 1c bd
       0.26484028 0.19394295 -0.069028474 -0.03821451
0003a0 8d 5a ca 3d fa d5 00 be 09 6b 72 3e 91 31 8d 3d
       0.098805524 -0.12581626 0.23673643 0.0689422
0003b0 87 a0 4f be 9d 8c 42 be b0 30 2a bd a6 10 43 bd
       -0.2027608 -0.18998952 -0.04155034 -0.0476233
0003c0 18 b6 c7 bd 50 a2 46 be 00 30 ae bd 9a b4 8c bb
       -0.097515285 -0.19397855 -0.08505249 -0.0042939903
0003d0 6a f5 e7 bd c7 ff 24 3e 05 39 79 bb 5f 85 ba 39
       -0.11326106 0.16113196 -0.003802837 0.00035576054
0003e0 9a 84 e3 bd 16 9c 42 bd 75 84 c7 3c aa 5e e1 3d
       -0.11109276 -0.047512136 0.024355153 0.11004384
0003f0 37 09 d3 bd 06 b7 84 3e 66 3a 4f be 8a 1c 38 3d
       -0.10304492 0.25920886 -0.20237121 0.044949092

FC2.weight f4 [256, 256]
000000 b8 3b 86 3e 4c e5 d9 3e 2f 05 4d be 69 21 ed bd
       0.26217437 0.42557752 -0.20021509 -0.11578638
000010 38 15 ee be 17 20 6e 3e 28 b5 b7 3d 5d ca 83 3f
       -0.46500564 0.23254429 0.089701 1.0296131
000020 2a 35 9a 3d 20 a1 44 bd 08 f8 00 3f c0 f2 3a 3c
       0.075296715 -0.048005223 0.50378466 0.011410415
000030 20 7f 04 3f d1 1d bf 3b f1 cf d4 be 3e 37 0f bf
       0.5175648 0.005832412 -0.41564897 -0.5594367
000040 69 05 18 3f 9d a6 66 bd bf 6c 6b 3e 03 45 ad 3e
       0.59383255 -0.05631124 0.22990702 0.33841714
000050 6b 4a a1 be 05 94 11 3e 58 b6 03 3c a8 42 b7 3d
       -0.3150209 0.14216621 0.00803908 0.089482605
000060 23 81 d9 3e da 4f 90 be a1 96 07 bc f6 11 33 bd
       0.42481336 -0.28185922 -0.008275659 -0.0437183
000070 2d cb 81 3e 6d e1 aa be 65 85 83 3e 1b d8 74 bc
       0.25350323 -0.3337511 0.2568771 -0.014944102
000080 c6 6d a6 bd ad bb dc 3c e1 07 8a be 85 4a b9 be
       -0.08126406 0.02694496 -0.26959136 -0.36189666
000090 a2 97 ec bc 6c 3a 4f bf f4 a6 e9 bd 36 21 b6 3d
       -0.028880898 -0.8094852 -0.11408797 0.08893053
0000a0 18 05 8c 3e 17 a5 0b bd bd 05 bd 3e f2 e4 32 3f
       0.27347636 -0.03409299 0.3691844 0.6988059
0000b0 a2 64 de 3d e0 bf 3a be 46 ca 0d be 0c 77 96 3e
       0.10859038 -0.18237257 -0.13846692 0.293877
0000c0 b6 20 00 3e 26 36 9c 3d bf 74 c1 3e be 95 55 bd
       0.12512478 0.076275155 0.37784383 -0.05214476
0000d0 9a b0 a3 3d a2 f8 2c 3e 14 b3 b8 3e 75 c9 27 3f
       0.079926684 0.16891721 0.36074126 0.65541774
0000e0 97 38 1b bf f9 1d fe 3d 6d 4e 0d 3e 6f 9f 7c bd
       -0.60633224 0.124080606 0.13799448 -0.061675485
0000f0 31 f1 b8 be 10 2d 19 3f 31 0f 3f bf 49 be 04 3e
       -0.36121514 0.59834385 -0.74632555 0.12963213
000100 c3 fa 8f 3c 2e c9 86 be 0f 7c 31 be 55 3b 20 3e
       0.017575627 -0.26325363 -0.17332481 0.15647633
000110 08 d8 ae 3e d9 a5 08 3d 12 fa c3 3d 61 f2 ac 3e
       0.34149194 0.03336129 0.095691815 0.3377867
000120 67 88 48 be ae 82 7d 3e 2f 6f 7d bd e0 b0 90 3e
       -0.19583283 0.24756882 -0.06187361 0.28259945
000130 a0 66 5c 3d 9f 31 c6 3d 99 6c f8 be e5 cd ce 3e
       0.05380881 0.09677433 -0.48520353 0.4039146
000140 22 3f a7 3d 97 e0 b4 be f0 af ac bd f5 fa 59 bd
       0.081663385 -0.35327598 -0.08431995 -0.053217847
000150 60 72 cf be 43 c6 6c be 29 cc 6c 3e 42 57 96 3f
       -0.4051695 -0.23122506 0.23124756 1.1745379
000160 55 5d a8 3e 31 31 79 3e 68 f7 30 3e 47 a2 c6 be
       0.32883707 0.24335171 0.17281878 -0.38795683
000170 56 59 34 3e 40 6e 6f 3e 89 8a 9f 3e 31 4d 12 bd
       0.17612204 0.23381901 0.3116038 -0.035718147
000180 af 24 ba bc 5e f2 53 3f d0 5e 45 bd ce 88 4e 3d
       -0.02272257 0.827917 -0.048186123 0.050423436
000190 bc e2 67 3d ea c2 92 be 40 37 03 3d 8d f8 ff be
       0.056612715 -0.28664333 0.032035112 -0.49994317
0001a0 f6 31 90 be 88 40 b1 3e 22 d1 16 bf 7f 1c 5f 3d
       -0.28163117 0.34619546 -0.5891286 0.054470535
0001b0 b7 32 91 be 0a f4 0e bd 3f da 0d 3f 78 90 45 3e
       -0.28359005 -0.034900703 0.5541114 0.19293392
0001c0 04 3d b2 3e 35 d0 9b 3d 06 75 c0 3e c4 25 b7 3b
       0.34812176 0.07608072 0.37589282 0.005589219
0001d0 00 f6 21 bd d2 9a e8 3e f7 3d 89 bd b1 16 a2 3e
       -0.039541245 0.4543062 -0.06701272 0.31657937
0001e0 a3 c0 2a 3d 39 bf b1 bd 56 3d 5e 3c 8d 41 c9 3e
       0.04168762 -0.08679051 0.013564428 0.39307824
0001f0 27 fd d8 3e 09 93 1b 3e 4d e5 df 3e 71 72 ab bc
       0.4238064 0.15192808 0.4372963 -0.020928593
000200 e6 5a b6 3c 24 21 14 3f ce d2 dc 3c 58 72 76 3e
       0.02226014 0.5786307 0.026955988 0.24067056
000210 52 c6 6a 3d b2 dc 25 3e 2c ba d1 3e 48 09 26 bd
       0.05731804 0.1619747 0.4096235 -0.040536195
000220 a5 a4 bd 3d 9a 7a 39 be 9f 10 7a be 5a ff 43 be
       0.09259919 -0.18113175 -0.24420403 -0.19140378
000230 b1 ff 75 3e 8e 44 48 be cc c5 a2 be 1a 12 20 3d
       0.2402332 -0.19557402 -0.31791532 0.039079763
000240 89 a9 08 bd 99 39 f2 3e f5 50 0a 3c be 9f 17 3d
       -0.033364806 0.4730957 0.008442153 0.037017576
000250 0c 49 74 be a0 ec 0b bc e4 63 f8 bd 82 2d 22 3e
       -0.2385599 -0.0085403025 -0.121284276 0.15837672
000260 0e 48 bd 3e 1a 1e 71 3d 7b b3 b7 3a 2f d2 71 be
       0.36969036 0.058866598 0.0014015281 -0.23615335
000270 dc 00 da 3d b7 a7 63 be 8f f6 54 3d a0 80 fc be
       0.10644695 -0.22231947 0.05199295 -0.49316883
000280 cb ce 23 bf 48 f8 2f be 74 62 f7 3d 3d 29 29 be
       -0.63987416 -0.17184556 0.12079325 -0.16519637
000290 43 5d f1 be 4a bb ce be 13 f0 da be c4 5d 5a bf
       -0.47141466 -0.40377265 -0.42761287 -0.85299325
0002a0 d6 0c d8 3e c5 72 19 3e 5c 49 2a 3f a7 dd 1d 3e
       0.42197293 0.14985187 0.6651819 0.15416585
0002b0 b5 fe 74 bf ee f9 9d 3f 5a 38 af be 8e 4c af 3e
       -0.9570115 1.2341897 -0.3422268 0.34238094
0002c0 10 24 b7 3e 2e e4 ad bd b6 31 f2 bb 71 f4 f9 3e
       0.357697 -0.084907874 -0.00739118 0.48819306
0002d0 be 9f c0 3b 47 c5 c0 be 0a 5a e5 3b 55 c3 9e 3d
       0.0058784178 -0.3765051 0.006999259 0.077521004
0002e0 9c 39 ac bd af 5b 4f 3d 2a 8c 8e bd 51 a3 58 be
       -0.084094256 0.050624546 -0.06960328 -0.2115605
0002f0 7d b3 cb 3e 5f b7 93 be e7 da b7 3e af 7d 34 3f
       0.39785376 -0.2885084 0.35909197 0.7050428
000300 bb ed 3e be 0f 39 f5 bd aa 00 0b bf 4b 74 57 be
       -0.18645374 -0.11973774 -0.5429789 -0.21040456
000310 3d 2d 72 3e 4d 28 25 bf 2e ef 0e bf 09 7d 22 be
       0.2365007 -0.6451462 -0.5583371 -0.1586801
000320 2d 7d 04 3e 20 41 8e 3f 6f 37 c6 bc 1a e7 e1 be
       0.12938376 1.1113625 -0.024196355 -0.4412163
000330 bf d4 11 3c d9 f6 2c 3e 45 8e 60 3e da 95 43 3e
       0.00890082 0.1689104 0.21929272 0.19100133
000340 a0 6f 13 3d 9a 31 c7 bd 04 3d 3a 3e 5f ba 87 be
       0.035995126 -0.097262576 0.18187338 -0.26509377
000350 1f b8 8b 3f 21 ec 1a be 78 76 ce 3e 79 af 49 3e
       1.0915564 -0.15129139 0.4032476 0.19695844
000360 e6 92 ff 3d bb 1f f3 3d a4 3c e1 3c 2e 4a a4 bd
       0.124791905 0.118712865 0.027494736 -0.08021961
000370 fe 57 dc 3e 38 50 22 3e 90 6a d1 be 80 10 12 3e
       0.43035883 0.15850914 -0.40901613 0.14264107
000380 91 2d d4 3c fb 9e 91 3e 60 ad 19 3e ea 51 99 be
       0.025900634 0.28441605 0.15007544 -0.29945308
000390 b2 57 76 3e 90 7c 76 3e d8 d1 9e 3d e0 af 77 bc
       0.2405689 0.24070954 0.07754868 -0.015117615
0003a0 8e 88 d0 3a c4 34 23 3f d6 2d 16 3e 94 76 a5 be
       0.0015909837 0.6375239 0.14665923 -0.3231703
0003b0 a2 60 7b bf ca 68 79 bf 00 ef 38 bc 48 40 27 bd
       -0.98194325 -0.9742552 -0.011287451 -0.040832788
0003c0 1b b4 d3 be 88 e1 00 3d d0 4f de 3d 86 2b b1 3e
       -0.41348347 0.031465083 0.10855067 0.34603518
0003d0 d8 14 f8 bd c5 58 a3 bd 9f 85 ec bd 9e 91 09 3e
       -0.12113351 -0.07975916 -0.11548924 0.13434455
0003e0 21 6b 00 bf 8d 49 8d 3e b5 ad 24 3c 13 f4 cd 3e
       -0.50163466 0.27595177 0.010051181 0.40225276
0003f0 2a 46 fe be f4 59 87 3e 80 a8 a3 bd 54 36 c3 bb
       -0.49662906 0.26435816 -0.07991123 -0.005957404

FC2.bias f4 [256]
000000 8b 3b 30 bd 1c 61 d4 3c 74 71 a1 3d ff d9 f4 3d
       -0.043025535 0.025925212 0.078829676 0.11955642
000010 62 42 62 3c 41 08 9b bd 93 01 a7 bd 51 d7 cd bc
       0.013809772 -0.07569934 -0.08154597 -0.025127085
000020 1a d9 a3 bc e8 b0 af 3c 20 34 f1 bc ae 90 07 3e
       -0.020000983 0.02144666 -0.0294438 0.13238785
000030 41 e6 dc 3d e4 b5 4f 3e 5a 79 8b 3d ac 4a 11 be
       0.10786105 0.2028423 0.06810255 -0.14188641
000040 3f 0c 80 bd d0 62 c5 bc 8a 10 f7 bd 9f 09 fb 3d
       -0.06252336 -0.024094969 -0.120637015 0.122576945
000050 fd 4b d8 3d cf 27 83 3c b0 9a b7 bc 59 9d 1b 3d
       0.105613686 0.016010193 -0.022412628 0.037991855
000060 66 25 55 3e b0 bf 58 3c b6 dc 8d 3e be 8f 3f bd
       0.20815048 0.013229296 0.27707452 -0.046767943
000070 d2 43 c0 bd 13 93 03 be c3 dd bb 3d 2e 1e 85 bc
       -0.09387936 -0.12849073 0.09173157 -0.016249742
000080 24 50 98 3c 80 a9 ac 3d 4a 35 19 3d 08 d0 7a 3d
       0.018592902 0.08430767 0.037404336 0.06123355
000090 d3 f6 13 bd 13 60 ad 3d 70 ba 72 3d 4b a2 35 be
       -0.03612406 0.0846559 0.059259832 -0.17737691
0000a0 28 59 4f bd ee a6 fc 3b d3 0f 14 bd 12 ce 3a bd
       -0.050622135 0.0077103293 -0.036147904 -0.04560668
0000b0 53 04 7f 3d 22 04 96 bd 0c 5f a3 bd 9e 9c 93 bd
       0.062259983 -0.07325007 -0.07977113 -0.07207607
0000c0 e2 9c 87 bd 24 33 3a bd af 7f 19 3e 30 35 20 3d
       -0.0662172 -0.045458928 0.14990114 0.039113224
0000d0 c5 29 20 3e 3e 8b 22 bc 84 ba 0d 3e ca 50 1c be
       0.15640934 -0.009920893 0.13840681 -0.15265194
0000e0 15 0a ad bc d9 ae 18 3d 84 9d 72 3d 01 83 0c 3e
       -0.021122972 0.037276123 0.05923225 0.13721849
0000f0 97 f5 df bc 74 f2 ba 3c 07 2d 45 3e 43 7e a5 bd
       -0.027338786 0.022820689 0.19255458 -0.08080723
000100 b8 a4 96 bc b9 c1 3e 3c 0f a1 7c bc 22 26 0f 3e
       -0.01838909 0.011642867 -0.015419259 0.1397939
000110 f8 6b 50 bd 98 02 54 bc 44 ec eb bd 07 55 30 3e
       -0.050884217 -0.0129400715 -0.115196735 0.17219935
000120 0d ae b1 bd 82 ba 06 3e 04 4e d6 3d a6 45 bd 3b
       -0.08675776 0.13157085 0.10464099 0.005776125
000130 7b 45 4b bd 5f 9e 14 3e d5 20 06 be 7a 1c e3 3d
       -0.04962681 0.14513539 -0.13098462 0.11089416
000140 b7 12 fd bc d9 3d 1e bc 48 47 99 bd 93 1c b6 3d
       -0.030892713 -0.0096583 -0.07484299 0.08892169
000150 58 fd 49 bc 91 ca 28 be ba 41 1f 3d ec 10 15 3e
       -0.012328468 -0.16483523 0.03888104 0.14557236
000160 f6 de 8e 3d a5 e4 6b 3e d6 7f 38 3e 40 04 fe bc
       0.0697612 0.2303644 0.18017516 -0.031007886
000170 a3 39 ad bd e7 40 a4 bd 98 32 52 3d 6d 49 88 3d
       -0.08458259 -0.08020192 0.05131778 0.0665463
000180 2e 00 8d bd 91 3b 93 3d a1 9e 8c ba 95 f1 34 3e
       -0.068848 0.07189096 -0.0010728427 0.17670281
000190 58 34 ae bc 81 50 67 bd a3 7d 2b 3d 72 20 b5 3b
       -0.021265194 -0.05647326 0.041867863 0.0055275494
0001a0 b4 76 2d 3d 54 5c e7 3b 15 de f8 bc dc 96 5b bd
       0.042349532 0.007060567 -0.030379334 -0.053610668
0001b0 00 98 e5 bd 1f b7 46 3d fd 2e e3 bc 45 13 ea bd
       -0.11210632 0.04851448 -0.027732367 -0.114294566
0001c0 23 36 85 bd 4d 5e 43 3e 34 d3 cf bc bd 46 c7 bd
       -0.065044664 0.19078942 -0.025369264 -0.09730289
0001d0 66 b7 a0 3b 4d 7e 4b bd 32 d8 c3 3d 74 a3 99 bc
       0.0049046753 -0.049680997 0.0956272 -0.018754698
0001e0 73 5d 90 bd 6a 00 83 bd d5 cc c1 3c 5c ab 66 3d
       -0.07049074 -0.06396563 0.023657242 0.056315765
0001f0 48 33 2a bc be 25 85 bd 03 55 c4 bd 2d c7 56 bd
       -0.010388203 -0.065013394 -0.09586527 -0.052436043
000200 43 0f 07 3d 87 b7 4e 3d 49 2f 20 3c 2d 2f 9c 3d
       0.03297354 0.050467994 0.009776899 0.076261856
000210 f5 e5 62 bd d3 5d ff 3d 6b 2f cc 3d 39 bd 79 3d
       -0.055395085 0.124690674 0.09969982 0.060971472
000220 fb 93 9f 3c e4 c4 86 bd a6 93 4e bd 66 51 49 bd
       0.019479742 -0.06580523 -0.050433777 -0.049149893
000230 ef fc a7 3d aa c4 09 bd fa dd a7 3c 61 db 55 3d
       0.0820254 -0.03363482 0.020491589 0.05221117
000240 1e b6 78 3c bf 54 e3 3d c4 bb 4e bd 2d dd ea 3c
       0.015180139 0.111001484 -0.050472036 0.028669918
000250 d3 b9 08 bd c3 2d dd bd cb 71 bc 3d ad b5 eb 3c
       -0.03338034 -0.10799744 0.09201392 0.028773153
000260 c1 82 83 bd 0d 66 ba bb 03 1b 6e bd 43 80 c2 bc
       -0.06421424 -0.005688435 -0.05813123 -0.0237428
000270 8b a8 8d bd a4 52 ff 3d 7b 25 9d 3c 0b 8f f6 bc
       -0.06916913 0.12466934 0.019182911 -0.030097505
000280 e9 b0 9f bd b0 2e 1a 3e b2 20 ae bd 0c 37 8c 3d
       -0.07797415 0.15056872 -0.0850233 0.06846437
000290 69 49 0c 3e 22 51 92 3b 9d 45 c4 bd d6 fb 70 bd
       0.13699879 0.004465238 -0.0958359 -0.05883392
0002a0 3a f8 73 3a c3 b5 03 bc f7 4c 1f 3e e1 26 86 3d
       0.0009306703 -0.008038941 0.15556704 0.06550384
0002b0 62 ba 2f 3e 60 10 f1 bc 01 60 9e 3e a6 19 de bb
       0.17160943 -0.029426754 0.3093262 -0.00677796
0002c0 47 a4 94 3a c4 8f 8a bd 6b ec 46 bd 44 58 0a 3e
       0.0011340462 -0.06765702 -0.04856531 0.13510233
0002d0 70 8b ab 3a 23 f0 62 3d 6c 07 4f bd 89 09 c8 3d
       0.001308782 0.055404793 -0.050544187 0.09767444
0002e0 23 de 8d 3e 9d f8 93 3d 19 cb 1b 3d 3c 90 b3 bd
       0.2770854 0.072251536 0.038035486 -0.08767745
0002f0 85 e0 68 3b c5 c1 07 3e 0f 2a 85 3e e3 ef 9b 3d
       0.0035534215 0.13257511 0.2600865 0.07614114
000300 5f f9 50 bd 55 af 2d 3e 02 61 e6 3c e1 e9 ca 3d
       -0.05101907 0.16961415 0.028122429 0.0990789
000310 36 c2 f3 3d 29 ea 8e 3e 6d ac be 3d 79 84 8a bd
       0.11902277 0.27913025 0.09310231 -0.067635484
000320 94 70 af 3d 5e 9c cc 3d f6 d5 d6 3d 34 d0 3d 3d
       0.085663944 0.09990762 0.104900286 0.046341136
000330 b9 bc a8 3d bd 04 10 bd 43 5a ba 3c aa b2 23 3e
       0.08239121 -0.03516077 0.022748118 0.15986124
000340 e0 a2 6a 3d 90 ff 93 3e 72 bc 13 3d 47 28 c3 3d
       0.057284236 0.28905916 0.036068387 0.09529167
000350 a8 14 82 3e 0c 7e 99 3e da bc 2d bd 5f 1f 74 3e
       0.25406384 0.2997898 -0.04241643 0.23840092
000360 38 8b b6 bd 1b 23 99 3d 16 48 6f bc 92 77 98 3e
       -0.089132726 0.07477399 -0.014604589 0.29778725
000370 b2 b9 76 3e d3 59 a5 3d 91 bd 86 bd 91 ac ec bc
       0.24094275 0.08073773 -0.06579126 -0.02889088
000380 fa 9e 9c 3d aa a4 19 3e 9d 78 0e bd 31 54 95 3d
       0.0764751 0.1500422 -0.034782995 0.07291449
000390 12 ca ef bc 53 b9 49 3d a5 91 c8 3d f8 62 b8 be
       -0.02927116 0.049249005 0.097934045 -0.36013007
0003a0 93 f1 8f be 00 52 b9 3d 6b e2 e2 3d 42 96 a4 bc
       -0.28113994 0.090488434 0.11078342 -0.02009118
0003b0 93 db a0 bc a4 a5 9a bd c8 36 56 3c a1 f6 d1 3b
       -0.019635951 -0.07551125 0.013074584 0.0064075743
0003c0 1d 59 4a 3e 28 27 06 be 9d 28 d4 bd cc 10 f5 3d
       0.19760557 -0.13100874 -0.10359309 0.119660944
0003d0 01 13 06 bd 7a ce 04 bc e5 1d d1 3d 7e 54 ca 3c
       -0.032732967 -0.0081058685 0.1021078 0.024698492
0003e0 59 25 df 3b f6 8f 9c bd e7 e9 94 bd 56 21 d6 3d
       0.006809872 -0.07644646 -0.07271176 0.10455577
0003f0 29 9f 88 bd d2 cb cd 3c 3e 92 88 3d f3 74 47 3e
       -0.066709824 0.025121603 0.066685185 0.19478206

action_out.weight f4 [5, 256]
000000 95 f6 33 bd ac b5 aa bd df fa 59 bd e9 ce 06 be
       -0.04393633 -0.083354324 -0.053217765 -0.13164867
000010 35 0f 2d be 0f 9f 6a bd ad 65 06 bd f0 31 89 bd
       -0.16900332 -0.057280596 -0.03281181 -0.06698978
000020 44 3d b3 bd 5b 02 4d be f3 fe be b9 2b 33 ea bd
       -0.0875192 -0.2002043 -0.00036429576 -0.11435541
000030 7e 4b 52 be 26 22 3e be ce ea 61 be 82 0a ad bd
       -0.2053661 -0.18567714 -0.22062227 -0.0844927
000040 0b e7 97 3c 51 8e 3e ba 84 37 32 bd 08 0c 08 3c
       0.018542787 -0.00072691316 -0.043509975 0.00830365
000050 a7 f2 98 bd 75 a8 a0 bd 71 a4 46 bc e6 19 a0 bd
       -0.07468157 -0.07844631 -0.012124167 -0.0781744
000060 e9 0d 83 be 19 c3 4e bd b6 5c 0e be ae e0 47 3c
       -0.2559655 -0.05047903 -0.13902554 0.012199564
000070 d7 f6 fb bd 1a 38 d5 be 31 65 71 bd 63 bd 81 bd
       -0.1230294 -0.41644365 -0.058934394 -0.06334951
000080 0c 7d 93 bf 15 4e 18 be d3 08 08 be c6 d6 95 bd
       -1.1522536 -0.14873536 -0.13284616 -0.073163554
000090 a5 62 62 3c 2f f7 ef bd 28 94 13 be d7 8f a0 be
       0.013817464 -0.117170684 -0.14411986 -0.3135974
0000a0 f7 9d 58 be e1 58 8a bc cd 37 09 bd 91 bd d0 bd
       -0.21154009 -0.016888084 -0.03350048 -0.10192407
0000b0 69 b9 12 bf 63 a4 d1 bd 84 08 62 bd d5 67 2f 3c
       -0.57314163 -0.102364324 -0.055183902 0.010705908
0000c0 1c 33 43 3d 35 88 23 bb 2d 66 09 be c3 b1 e0 bd
       0.047656164 -0.0024953012 -0.13417883 -0.10971405
0000d0 63 c8 27 be 17 16 2b 3d 8e e5 fc be 24 b2 0f 3d
       -0.16385035 0.041769113 -0.49393886 0.035081998
0000e0 2b ab 5d bd 24 37 f3 bd 2b 56 fa be 53 d4 c0 bd
       -0.054118317 -0.118757516 -0.48893866 -0.09415498
0000f0 68 f4 7b bd ac ae c1 bd d7 04 58 be 90 6d 1b bd
       -0.06151238 -0.09457144 -0.21095596 -0.037946284
000100 8c 5f a8 bd 12 87 19 3d 2d 37 2e be 2c 87 60 be
       -0.08221349 0.03748233 -0.17013235 -0.21926564
000110 32 01 09 3d a9 9d 49 bd 03 e3 a1 ba 1a b1 81 be
       0.033448406 -0.049222622 -0.001235098 -0.2533043
000120 68 7e 1a be 19 da 1b be c9 7e 84 bd af 4d 96 bd
       -0.15087283 -0.15219916 -0.06469495 -0.07339036
000130 2f cd 35 be 2d 21 dd bc 91 56 1c be 6c 24 a9 bd
       -0.17754053 -0.026993359 -0.15267397 -0.082589
000140 0d d6 49 bd 3b fa 0a 3d 33 38 92 3b 87 aa b6 be
       -0.0492764 0.033930045 0.004462266 -0.35676977
000150 34 c8 dc bd a1 c0 95 bd 42 a7 01 be 59 2d 4e be
       -0.10780373 -0.07312132 -0.1266146 -0.20134486
000160 9f 1c 15 be cd a3 7a be 7d 99 9d bc 91 4f 67 3d
       -0.145617 -0.24476548 -0.019238228 0.056472365
000170 24 6e 21 3d bb 2a ab 3a 26 73 4e bd df e0 94 bd
       0.03941168 0.0013058999 -0.050402783 -0.07269453
000180 60 d4 66 be 0b 1c bc bd eb c6 d6 3a 03 d1 17 bf
       -0.22541952 -0.09185036 0.0016386186 -0.593033
000190 81 90 b5 bd 27 1e 8b bc ff a5 2d be 73 9a 24 3d
       -0.088654526 -0.016982151 -0.16957854 0.040186357
0001a0 96 0b 88 be ad e0 23 bd fe 35 86 bd 2b 04 d1 bd
       -0.2657134 -0.04000919 -0.06553267 -0.10205873
0001b0 af 08 84 be d5 2b 70 be 4e 76 dc bd 30 e9 3a 3d
       -0.25787875 -0.2345422 -0.10764752 0.04563254
0001c0 31 1b 56 3d 77 a0 77 be fb ce 9b bd 92 f4 2d bd
       0.052272025 -0.24182306 -0.07607838 -0.04246957
0001d0 d9 b1 b3 bd 19 16 cb bc 26 25 ed bd c0 ec 27 bc
       -0.08774156 -0.02479081 -0.11579351 -0.010249317
0001e0 9c 5d f5 bd 6c b7 8d 3c 87 64 c7 bd b8 e7 88 bd
       -0.11980745 0.017299376 -0.09735971 -0.06684822
0001f0 b7 1b 5f bd 86 1e 3f 3d 87 86 a0 be 4a 39 47 3d
       -0.05446979 0.04665997 -0.31352636 0.04863862
000200 8f 8c 8b bd a4 21 df bd 00 d9 fe bd 44 25 a7 bd
       -0.06813919 -0.10895088 -0.12443733 -0.08161405
000210 63 fa c8 bc 9f 4d 9e bd 78 9f ce bd 95 05 b2 bd
       -0.024533456 -0.07729649 -0.1008901 -0.08692471
000220 90 8d d6 bd 85 eb fa bd ba 19 e1 bc c1 39 29 bd
       -0.1047622 -0.12251953 -0.027478088 -0.041314844
000230 39 df 8a bd b9 1d ea 3b f0 78 ce bd 84 ff 0d be
       -0.067808576 0.0071446565 -0.10081661 -0.13867003
000240 32 af 0f be cc 95 4d be ae f9 c1 bd 31 a1 6d bb
       -0.14031675 -0.20076674 -0.09471451 -0.0036259408
000250 72 c0 b5 be 0b d3 75 bd c0 f5 e1 bc 9c 7f b4 bc
       -0.35498387 -0.06001572 -0.027583003 -0.022033505
000260 fb e6 f9 3c f1 16 67 bb 9b ad a1 3c 19 e6 01 be
       0.030505648 -0.0035261477 0.019736102 -0.12685432
000270 37 03 5b 3c 98 3a 33 be cd e7 0a be ba 21 22 3d
       0.013367466 -0.1750282 -0.13564987 0.039582945
000280 45 83 51 bd 24 91 46 3b 0e 4d e0 bd 7d a2 8b be
       -0.05115058 0.0030298913 -0.10952197 -0.27272406
000290 47 92 97 bd eb 50 26 bd ad 6f 98 bd 7a 98 a3 bd
       -0.07400947 -0.040604513 -0.074431755 -0.07988067
0002a0 da ed e0 3b 20 2b 3c bd 07 f7 c8 bd b8 d0 b7 bd
       0.0068642916 -0.045939565 -0.09812742 -0.08975357
0002b0 c1 7d 73 bd 80 31 ed bd 6e 28 33 be 0b a1 0e be
       -0.0594461 -0.11581707 -0.17495891 -0.1392862
0002c0 2c 95 24 3c ac 06 6d 3b f8 26 93 bd c3 5c 5a bd
       0.010045331 0.0036167307 -0.07185167 -0.05331112
0002d0 b0 88 15 be 42 8f 69 bd 9f 10 06 be 4b 84 6a bd
       -0.14602923 -0.057021387 -0.13092278 -0.05725507
0002e0 58 5d 74 be 03 ef e8 bc bf 4a df bd 50 23 54 bd
       -0.23863733 -0.028434282 -0.109029286 -0.05179149
0002f0 cd 83 36 bd 78 21 21 be b3 13 83 be 28 65 4c be
       -0.04455929 -0.15735424 -0.25600967 -0.19960463
000300 ee ed cb 3b e4 25 fe bd ae 3f 22 bd 4c 5a a6 bc
       0.006223432 -0.12409571 -0.03961151 -0.020306729
000310 f6 0d bc be cf ce 4d be a0 e9 0a be c3 c9 07 bd
       -0.367294 -0.20098422 -0.13565683 -0.0331514
000320 54 85 ae be fd 0d c6 bd d2 db 11 be 64 22 06 be
       -0.34086096 -0.09670637 -0.14244011 -0.13099056
000330 77 f1 1d bf ea f0 c7 3a 01 4e 7a bd bb a4 a0 bd
       -0.6169657 0.0015254293 -0.061109547 -0.0784392
000340 1d c4 1f be 4e 58 66 be 42 93 b2 bd 4f 26 a2 bd
       -0.15602155 -0.22494623 -0.087194934 -0.07917463
000350 7b a7 6c be 85 32 2c be 2c d2 14 3d a1 56 7c be
       -0.23110764 -0.16816147 0.036333248 -0.24642421
000360 09 b4 1b bd 54 d6 66 3a a7 aa 6b be 5c c8 56 be
       -0.03801349 0.0008805741 -0.23014317 -0.20974869
000370 99 1d 64 be ae 7b e1 bd b8 aa e4 bc 67 e3 ff bc
       -0.22276916 -0.11009918 -0.027913436 -0.031236364
000380 9e d6 5e be 7e 36 b4 bd f1 7b 35 be 04 d1 ee bd
       -0.21761557 -0.08799456 -0.17723061 -0.1166096
000390 34 1f 94 3c 5d 44 a2 bd bc 8c d2 bd 10 3f b1 bd
       0.018081285 -0.079231955 -0.10280749 -0.08654606
0003a0 5a a7 99 bd 9f 35 54 be 28 b2 e8 bc 3c 74 4b 3d
       -0.07502623 -0.2072358 -0.028405264 0.049671397
0003b0 c8 d9 ad bd 50 50 f7 bd 32 86 ed bd 10 37 26 bd
       -0.08488804 -0.12075865 -0.11597861 -0.040579855
0003c0 00 41 19 be 4f bb 86 bf 9c 62 8e bc 7b a1 ea bd
       -0.14966202 -1.0525912 -0.017381005 -0.11456581
0003d0 80 08 89 3c bf 3e 21 bd 8f 21 01 be e2 0e a7 bd
       0.016727686 -0.03936648 -0.12610458 -0.081571355
0003e0 14 50 09 bd 44 4b 4d 3d 3f 76 94 bd 84 88 72 bd
       -0.033523634 0.050120607 -0.07249116 -0.059212223
0003f0 a8 88 bc be 73 09 49 be f1 a4 b8 bd 5f f2 39 bf
       -0.3682301 -0.19632511 -0.09015835 -0.72635454

action_out.bias f4 [5]
000000 38 37 03 bd 46 20 9f 3d 85 bc 5c 3d 28 6f e1 3d
       -0.032035083 0.077698275 0.053890724 0.110075295
000010 80 b5 84 be
       -0.25919724

weight f4 [256, 123]
000000 52 f5 19 3d 87 7a fc bd 7d d5 92 3d ef f3 71 bd
       0.03758747 -0.12328058 0.07169626 -0.059070524
000010 d0 58 a8 3d 2e d7 2a be 5b e4 1e 3d 59 43 ae bd
       0.08220065 -0.16683647 0.038791995 -0.08508939
000020 f0 e2 ce bd 26 d7 48 3d 68 fa c0 bc bb f1 a7 bc
       -0.10101879 0.049033307 -0.023556903 -0.020501008
000030 5f 8d e4 bd eb 62 28 bc d8 fa cd 3c da a4 0a be
       -0.11159777 -0.01027749 0.025144026 -0.13539448
000040 c5 6b 23 bd 9f 14 3c 3d 88 22 be 3d cb e1 29 bd
       -0.0398977 0.045918103 0.0928393 -0.0414751
000050 73 75 89 bc e5 19 32 bb 8b fc ef 3c 5b 73 32 bc
       -0.016779637 -0.002717608 0.029295227 -0.010891761
000060 b5 42 77 3c 99 3a f3 bc b9 7c d1 3d 51 a5 27 bd
       0.015091588 -0.029691027 0.10228867 -0.040929142
000070 da e4 d2 3c 4a f9 ef bd 76 8b b6 bd 96 ee 8f 3c
       0.02574389 -0.1171747 -0.08913319 0.017569821
000080 5d e5 1d bc 54 16 96 bd f0 67 ce 3c 4f 2c 92 bd
       -0.009637204 -0.073284775 0.025196046 -0.071373574
000090 f9 67 69 3d de 78 2a bd b7 fe 34 bd 26 0b ad bc
       0.05698392 -0.041619174 -0.044188228 -0.02112348
0000a0 44 4e 6e 3d 69 64 7c be 20 d0 86 3d 33 82 0b bd
       0.05818011 -0.24647678 0.065826654 -0.034059715
0000b0 0f eb 47 be 6a 3c 22 bd 30 8b bb bd f0 26 ca bd
       -0.19523261 -0.039608397 -0.09157407 -0.09870708
0000c0 e6 4a 60 bb df 09 1a be 0f c3 a5 bd 10 59 30 bc
       -0.003422433 -0.15042828 -0.08093845 -0.010763422
0000d0 96 c4 15 bd 31 f3 8c 3d a5 72 23 bd 23 c1 4d 3a
       -0.036564432 0.068823226 -0.039904255 0.0007848909
0000e0 b2 c5 71 bd df a6 8e 3d 55 d7 58 bc 0e da be bd
       -0.059026428 0.06965422 -0.013234933 -0.093189344
0000f0 10 13 c0 bd 18 41 ca bd 16 06 3b bd 8f 26 aa bc
       -0.09378636 -0.09875697 -0.0456601 -0.02077034
000100 33 d6 73 3d 03 b3 8f bd 8c 26 c4 bc af cb 00 bd
       0.05953045 -0.07016566 -0.023944162 -0.031444248
000110 fc 56 9b bd 74 77 d1 bd 7f a6 b5 3d b5 09 cc 3d
       -0.0758495 -0.10227862 0.08869647 0.09962789
000120 2a bd ca 3c e0 29 13 be 3e 31 00 be 2f 4f c9 3b
       0.024748404 -0.14371443 -0.12518784 0.0061434726
000130 1e 85 ab bd 89 48 53 be f3 4a 13 bd a7 6d 5b bd
       -0.083749995 -0.20633139 -0.03596015 -0.05357137
000140 a0 b4 50 bd 02 3f 94 3d d1 5f e2 3b da aa 86 bc
       -0.050953507 0.0723858 0.006908395 -0.01643889
000150 1a 8b 49 bc d7 75 ad bd 6c c4 bf bd 3c be ab bc
       -0.012301231 -0.08469742 -0.093636364 -0.020964734
000160 72 ef 89 3d 6f da e8 3d fe 5f df 3c 88 95 0d be
       0.06735124 0.11369788 0.027267452 -0.13826573
000170 40 80 65 bb da 77 6a bd 0c c9 51 bc 31 e1 10 be
       -0.003501907 -0.057243206 -0.012804281 -0.14148404
000180 41 44 3a 39 40 8c b8 bc d4 d7 8e bc 2f 9e c5 bd
       0.00017763769 -0.022527814 -0.0174369 -0.09649312
000190 f9 e0 2c be 01 46 34 bd af 27 81 3d a2 05 51 bb
       -0.16882695 -0.044012073 0.06306397 -0.0031894227
0001a0 15 6a ae bd 4e 22 45 3d d9 1f 7a bd dd b0 a4 3d
       -0.08516327 0.04812842 -0.06106553 0.080415465
0001b0 29 e4 21 be 51 6c c9 bd 42 d8 01 be fd 76 0d bd
       -0.15809692 -0.09835113 -0.12680152 -0.034537304
0001c0 0a 8e 3a be c7 54 2c be 95 ea 08 be 22 26 93 3d
       -0.18218246 -0.16829215 -0.13370736 0.07185008
0001d0 49 0b 05 be 4d 9d 9c 3d 20 02 a2 3d f4 91 5a bd
       -0.12992586 0.0764719 0.079105616 -0.053361848
0001e0 90 0f ea bd 0c e4 82 bd 40 3f 85 bd 7a b5 ce bc
       -0.114287496 -0.06391153 -0.065062046 -0.02523302
0001f0 46 6c b5 bd 73 ab 8c bd 58 bb 01 bd 7d 17 9f bd
       -0.08858542 -0.06868639 -0.031672806 -0.07768152
000200 01 f2 81 3d f8 9a ab bc cd 72 d6 bc e2 5a 42 3d
       0.06344987 -0.020947918 -0.026177788 0.047449954
000210 28 0c 87 bc d5 aa 94 bd 5f 29 8f 3c 91 01 b7 39
       -0.016485289 -0.07259146 0.017475782 0.00034905647
000220 d8 2a 78 bc e6 8c 8f bd dd d9 fa bd 29 67 20 3d
       -0.0151469335 -0.07009296 -0.122485854 0.03916088
000230 87 77 ad 3d fb 7d 19 bd 67 aa 11 bd 8b 55 51 bd
       0.08470064 -0.03747366 -0.0355629 -0.05110697
000240 a8 73 17 bc 17 84 17 bd 62 a4 68 3c 17 93 b7 3c
       -0.009243883 -0.036991205 0.014199348 0.022409005
000250 a4 c4 c6 bd 80 60 88 3d ac 36 1c bd 4b 86 cf bd
       -0.09705475 0.06659031 -0.038138077 -0.10133036
000260 eb 72 b1 bd 93 59 6e bc 62 7b 43 3d 3f 15 9b bc
       -0.08664497 -0.014547723 0.04772509 -0.01893103
000270 68 38 3f bc ac 49 b3 bc 0a 85 73 3d 2a bf a8 bd
       -0.011671163 -0.021885715 0.059453048 -0.08239587
000280 fd f0 a2 bd 2e 4f 8e bc 9e b8 8a 3b 4b c5 0c bd
       -0.07956121 -0.01737174 0.004233434 -0.03436784
000290 e5 65 86 3d f9 a6 a3 3d bf 0b 82 3c 0c 75 40 bc
       0.065624036 0.07990832 0.015874742 -0.011746656
0002a0 7e 5a 74 bd ea 32 ab 3d 9c 65 be bc 07 66 58 bd
       -0.059656613 0.083593205 -0.02324181 -0.052831676
0002b0 4c 08 54 bd ee 6d 0e 3d e4 4e b4 bb ac 03 45 3d
       -0.051765725 0.034772806 -0.0055025686 0.048099205
0002c0 e0 ef d4 3b 56 ce 5a 3d 8f 82 f9 bd 53 12 1e 3d
       0.006498322 0.053419434 -0.12183105 0.038591694
0002d0 21 5d 8a 3d d6 88 0a 3d bd 2b f3 bd e0 c0 4d bd
       0.06756044 0.033821903 -0.11873577 -0.050232768
0002e0 be f3 b9 bd 2b dd 2b bc b3 4f 29 3d 81 e9 5f 3d
       -0.09079693 -0.010489742 0.041335773 0.054666046
0002f0 d6 2d 9c bd 2b 27 69 bd 08 da f6 bd d4 41 5a bd
       -0.0762593 -0.05692212 -0.12053305 -0.053285435
000300 ea aa 1b bd 14 41 a5 bc fc 91 d9 3c 5e 3b ad bd
       -0.038004793 -0.020172633 0.026558869 -0.08458589
000310 1c b4 9e 3c 87 65 42 bb 55 7c f1 bc df e5 6b 3b
       0.019372992 -0.0029662566 -0.029478231 0.0035995168
000320 30 bf 6b bc 1c b0 a3 3c dc 9a e4 bd ce cc 94 bd
       -0.014388844 0.019981436 -0.111623496 -0.07265626
000330 f8 1a bd 3d 09 0b 80 3d 59 2d 04 3d 28 0c 81 bd
       0.092336595 0.06252105 0.03226981 -0.06301147
000340 aa c5 77 bd 7f ca 30 bd 17 6f 9f bb 32 4c d7 ba
       -0.06049124 -0.043161865 -0.004865538 -0.0016425906
000350 89 ec 23 bb 00 6e 81 3d 05 ca f9 bb 9f 6e 40 bd
       -0.0025012812 0.06319809 -0.0076229596 -0.046980496
000360 c5 99 a2 3d 6a 9d e9 bc b3 be ba bd 63 76 9b 3d
       0.079394855 -0.028517444 -0.09118404 0.0759094
000370 f0 21 11 bc 24 1c 93 bd d5 cf 98 bd 9d 15 44 bc
       -0.008858189 -0.07183102 -0.07461516 -0.011968044
000380 36 d2 05 bd 7f 38 8a bc 65 80 13 3c e1 a4 91 3d
       -0.032671176 -0.016872643 0.00900278 0.07111526
000390 0f dc ad bd 8a cb d9 bd 8e 93 5e 3d d2 87 21 3b
       -0.084892385 -0.10634525 0.054339938 0.0024647606
0003a0 74 05 b7 bd 03 3e 26 3c e4 0f f5 3b cf b0 19 bc
       -0.08936587 0.010146621 0.007478701 -0.009380533
0003b0 70 7e 83 bd 6c db a7 bd 94 17 56 3d 33 05 40 bc
       -0.064206004 -0.08196148 0.05226858 -0.01171999
0003c0 1c fd c7 bd ba 85 74 bd fb 3f d3 3b 94 db af 3c
       -0.09765074 -0.059697844 0.006446836 0.021467008
0003d0 c3 68 e7 bc 8a 10 ee bd 4d 67 b8 3d 25 6a fb bc
       -0.028248196 -0.11624248 0.09004078 -0.030690262
0003e0 9b b3 72 3e 55 a8 19 be 57 03 54 3e 4d 2d a1 be
       0.23701327 -0.1500562 0.20704399 -0.31479874
0003f0 55 c8 ef be f0 f1 db 3c 96 be 46 3e 4d 92 a3 3d
       -0.4683253 0.026848763 0.1940864 0.07986889

bias f4 [256]
000000 4f 2f a5 bd 06 9b d6 3c 64 30 f2 bd 96 a9 b3 bd
       -0.08065664 0.026196968 -0.11825636 -0.0877258
000010 22 be 4b 3e 73 a0 66 3e 82 67 a0 bc 1d d6 9d bd
       0.19896749 0.22522144 -0.019580606 -0.077068545
000020 d7 41 12 3d 07 5d 94 bd d2 af 10 bd 94 3a 1b 3e
       0.03570732 -0.07244306 -0.035323925 0.15159065
000030 45 ba af 3d eb 5b 8b 3d fd bf bc 3c 0f ab ae bc
       0.0858045 0.06804641 0.023040766 -0.021321801
000040 e1 69 4b 3d db 65 61 bd aa b5 35 3e 63 c3 d0 bd
       0.04966152 -0.055028778 0.1774508 -0.10193517
000050 14 8a 9d 3d 85 ac c3 3d 8f f4 75 3e b8 e2 a3 bc
       0.07692352 0.0955439 0.24019073 -0.020005569
000060 3c 59 c9 3d d2 0c e7 bd 55 15 78 3d 72 f1 f5 bd
       0.09831473 -0.11281742 0.06056722 -0.12008943
000070 05 0f d4 bc 6c ca 0d 3d 4f 65 3c 3e a8 5e d6 3c
       -0.025886068 0.034616873 0.18398021 0.026168182
000080 60 f3 ec 3c 7d e4 33 3d c6 dd 6c 3e a4 83 29 bd
       0.028924644 0.043919075 0.23131475 -0.041385308
000090 85 1b 12 3e 41 05 7e 3e 82 4e 9e 3d 91 ca c7 3d
       0.1426831 0.24806692 0.07729818 0.09755433
0000a0 ab 24 74 3e b8 67 01 be 88 cc 5c 3e 0b d8 91 3c
       0.23842113 -0.12637222 0.21562397 0.017803213
0000b0 81 7f fb bc f5 90 c9 bc e7 a8 a0 3d ad fa 9d bb
       -0.030700447 -0.024605254 0.078447156 -0.0048211426
0000c0 fe 36 22 bd 83 d5 0d 3d 84 31 aa 3c 70 3c bb bd
       -0.039603226 0.03462745 0.020775564 -0.09142387
0000d0 5c cf 30 3d ea bb 9b bd 1e a0 fa 3d f4 44 dc bc
       0.043166503 -0.07604201 0.12237571 -0.026888348
0000e0 b3 c6 3e bd 1b a2 eb bd 79 62 0f 3d 56 eb 4d bd
       -0.046576213 -0.115055285 0.03500602 -0.050273262
0000f0 00 23 1c be bd 5d 82 3d 6c 09 35 be 80 10 50 3e
       -0.15247726 0.063655354 -0.17679375 0.20318794
000100 80 8f 2a 3e 08 c4 5f bd 0b 53 d7 3d 31 b3 cd 3c
       0.16656303 -0.05463031 0.10513886 0.02510986
000110 5e ea f9 3d 55 90 5a be a8 c5 09 3e 96 4c 41 3e
       0.12202905 -0.21344121 0.13454306 0.18876871
000120 51 50 b9 bd 59 41 21 3d 69 c3 8a 3e 70 53 66 bc
       -0.09048522 0.03936896 0.2710221 -0.014057979
000130 32 4b 34 bb 68 69 a8 3d 9e f7 04 bd d7 23 51 3e
       -0.002751064 0.0822323 -0.03246271 0.20423828
000140 91 ee 29 bc 60 8e 7a bd 10 14 15 be 65 57 89 bd
       -0.01037182 -0.061170936 -0.14558434 -0.06706122
000150 44 2a 31 bd ca c0 36 3e c1 5e 0c 3e 44 4a e4 3d
       -0.0432532 0.1784698 0.13708021 0.111469775
000160 93 92 17 3d 9c 7f 9d 3c 5b ce cf bc 52 8e 71 3e
       0.03700502 0.019225888 -0.025366953 0.23589447
000170 f1 cc 14 3c d8 66 97 bd 70 ed 00 bd f8 7f 74 3e
       0.009082065 -0.07392663 -0.031476438 0.23876941
000180 e9 93 fe bd 51 05 17 3d f2 71 c9 3c b9 ae b5 3d
       -0.124305554 0.036870304 0.024590466 0.08871216
000190 3d 3b 33 bc 70 37 b1 3d 39 dd 3e 3e 40 dd e3 bd
       -0.0109394165 0.08653152 0.18639077 -0.111261845
0001a0 1c 46 8e 3d 7c 06 22 bc 4e dc 55 3e cb 87 0e be
       0.06946966 -0.009889241 0.20884821 -0.13918988
0001b0 31 23 7d 3e 72 09 57 3e 5a 7e 8c 3c da be 5d 3c
       0.24720456 0.20999697 0.017150093 0.013534272
0001c0 0a 3d 91 bd e9 5e ce bd d7 3a eb bd 34 2d 11 3e
       -0.070917204 -0.100766964 -0.11485832 0.141774
0001d0 b2 35 f2 bc 11 79 62 3b 3c 87 c8 bd 5d a9 da 3d
       -0.02956662 0.0034557024 -0.09791419 0.10676835
0001e0 3d 35 ca bd d0 d4 2c 3e 67 44 23 bd 22 74 df bc
       -0.09873436 0.16878057 -0.039860155 -0.027277056
0001f0 94 4c 65 3d 83 2c 13 bd e7 8d 13 bd 1a 60 ef 3c
       0.055981234 -0.03593112 -0.036024 0.02922063
000200 5e 24 cf bd ac cc 81 3e 67 c6 32 3b 63 c1 c8 bc
       -0.10114358 0.25351465 0.0027278902 -0.024506276
000210 19 eb ee bc 7b 8e dc bd 35 c9 2a 3e d3 9a 93 bd
       -0.029164838 -0.107693635 0.16678317 -0.07207265
000220 e9 4d ee 3d 8d 42 96 3d 82 01 12 3e 9f 6c 3c 3e
       0.11635954 0.07336912 0.14258388 0.1840081
000230 f5 dd 1b 3d 3c 86 35 3d e2 99 e1 3d d5 21 8b 3e
       0.03805347 0.04431747 0.11015679 0.2717425
000240 04 8e dd bb 6d 47 8f bd e3 cb 61 3d df 55 0d bd
       -0.0067613143 -0.06996045 0.055126082 -0.03450572
000250 18 6c 7d bd be 3e 35 3d 25 00 17 bd 03 f9 f4 bd
       -0.061870664 0.04424929 -0.036865372 -0.11961558
000260 08 cf 1a 3c 3e 46 91 bd da 3d 54 3e 8d 4d 5e 3e
       0.009448774 -0.07093476 0.2072672 0.21709271
000270 90 29 e2 3d ea 48 0c 3d ba 24 71 bd b6 07 a3 bd
       0.11043084 0.034249224 -0.058872916 -0.07960455
000280 58 d7 12 3d 2e 65 7a bd 31 54 bb bd 7d 27 8b 3d
       0.0358499 -0.06113165 -0.091469176 0.06794641
000290 63 9c b4 bd 7a f0 c0 bd a2 a7 93 bd 8a ec b3 3d
       -0.08818891 -0.09420867 -0.07209708 0.087853506
0002a0 b3 bb 7e bd d7 a9 ac 3d 47 13 8e bd 29 28 61 3d
       -0.062190723 0.08430832 -0.069372706 0.05496994
0002b0 8f 99 1f bd 18 af 37 bc 44 46 cc 3d d3 e2 ee 3c
       -0.038964804 -0.011211179 0.099743396 0.029160893
0002c0 f9 d9 23 be f2 62 89 3e fe d9 d6 3d d2 49 2a bd
       -0.16001119 0.26833302 0.104907975 -0.041574307
0002d0 01 a8 7b 3e 74 fa ef 3c 2f 03 6f bc 7e 0b 8b 3d
       0.24575807 0.02929423 -0.014588161 0.06789301
0002e0 5d 06 3d 3e 0d 4b e4 3b d1 6d 77 3e 78 3b b5 bc
       0.18459459 0.0069669546 0.24162985 -0.022123083
0002f0 0f 3c a2 bd f3 b1 d6 bd b1 b9 39 3d 5c 26 73 3e
       -0.079216115 -0.1048316 0.045343105 0.23745102
000300 be 7c e2 3c 14 d7 3f bd a9 fd 98 bd 27 f0 db 3d
       0.027647372 -0.046835974 -0.07470257 0.10739165
000310 5e 38 31 3e 06 71 ff bc 3c 2e b4 bd 45 93 0c 3e
       0.17306659 -0.031181823 -0.08797881 0.13728054
000320 fe 25 60 3e d6 42 8a bd 2a f6 2e bd 6a 78 bf bd
       0.21889493 -0.06751029 -0.04271523 -0.09349139
000330 7a c6 8f 3d 21 5c 8a bd ae cd a0 bd b9 c4 6f 3c
       0.07020278 -0.067558534 -0.0785173 0.014634305
000340 fd 58 07 bd eb 6c b1 38 25 f0 52 3e 9e 13 8b bd
       -0.03304385 8.460305e-05 0.2059942 -0.06790851
000350 a6 c1 37 3e 88 04 0e bc c9 33 68 3e 4c 4a 6a 3e
       0.17944965 -0.0086680725 0.22676004 0.22879905
000360 4e 34 91 3d 9c 99 99 3d 5c ae cc bd 82 da 3b be
       0.070900545 0.07500002 -0.09994194 -0.18345073
000370 77 38 a4 bd ad 10 b3 bd c6 7e 27 bd 1e ae c6 3d
       -0.08018582 -0.08743415 -0.040892385 0.09701179
000380 ed 82 c5 bd 8f 37 32 3d 7f 2c 5f 3e aa 1c 83 3c
       -0.09644113 0.043510016 0.21794318 0.016004879
000390 37 6b 88 bd c5 fe de bd 42 81 fe 3d 61 14 91 bd
       -0.066610746 -0.10888437 0.12426998 -0.07083965
0003a0 5e ee 25 3c 31 17 46 3e 43 fa 2b 3e 06 4c 2e bd
       0.010127632 0.19344784 0.16794686 -0.04255297
0003b0 2c 1f 22 be d0 3f 7f 3d 6c 37 4f 3e cb 10 76 3e
       -0.15832204 0.062316716 0.20235986 0.24029844
0003c0 e4 4e a0 3d a6 0e 8c bd 3d a1 a2 3c b8 80 17 3d
       0.07827547 -0.068387315 0.019852275 0.03698799
0003d0 ef 88 01 3e 05 b9 aa 3d 76 e3 fb bd d4 9c 08 3e
       0.12649892 0.08336071 -0.12299244 0.13341075
0003e0 52 0f 7e 3e 78 cc f9 3d 9e 0b 2f 3e 7b 03 9d 3d
       0.24810532 0.121972024 0.17094275 0.076666795
0003f0 03 6d 00 3e 2e 07 86 3d 2b 2c 45 bd cb 04 d7 3d
       0.12541585 0.06544338 -0.048137825 0.10498961
