src/saved_models/grid_world_seed125_8_7_15_42_成了/125_154_model.pt (torch, 702741 bytes, 11 tensors)

FC1.weight f4 [256, 36]
0	0xbeb86338	-0.36013198
1	0xbe0cce60	-0.13750601
2	0x3df208a3	0.118180536
3	0x3d38d3ac	0.04512374
4	0xbe38bc81	-0.18040659
5	0xbddb1bfa	-0.106986955
6	0x3e163fba	0.14672747
7	0xbd17f592	-0.03709943
8	0x3e0e4b13	0.13895826
9	0xbe901da7	-0.28147623
10	0x3eb41f4d	0.3518013
11	0xbe5499c4	-0.20761782
12	0x3ece0c60	0.40243816
13	0xbda2b846	-0.079453036
14	0x3e9decd6	0.30844754
15	0xbd88d4d4	-0.06681219
16	0xbcc2a323	-0.02375943
17	0xbe79624f	-0.24353908
18	0xbe87124f	-0.26381156
19	0xbeb59e91	-0.3547254
20	0x3e4ad13f	0.19806384
21	0xbe427f0d	-0.18993779
22	0x3e846d2b	0.2586454
23	0xbe92657d	-0.28593054
24	0xbe918049	-0.28418186
25	0x3e6ebef7	0.23315035
26	0x3bb22d68	0.0054375418
27	0xbcd01df0	-0.0254049
28	0x3e39bd1c	0.18138546
29	0xbebe2057	-0.37134048
30	0xbc665bdf	-0.01405999
31	0xbe9c1f73	-0.30492744
32	0xbf02764d	-0.5096176
33	0x3e908baa	0.28231555
34	0xbc6f9367	-0.014622546
35	0xbea522b7	-0.32253048
36	0xbd2045fc	-0.039129242
37	0xbe8b06d2	-0.2715364
38	0x3d0b4126	0.033997677
39	0xbdd1763b	-0.10227629
40	0xbedf3532	-0.43595272
41	0xbf42e24c	-0.7612655
42	0xbda1a261	-0.078922994
43	0xbed8a7f1	-0.4231563
44	0xbd965c50	-0.07341826
45	0x3daeb9ed	0.08531556
46	0x3ed75694	0.4205824
47	0x3ca60da6	0.02027018
48	0xbdb036e4	-0.086042196
49	0xbf7e8ebc	-0.99436545
50	0xbc7047d6	-0.0146655645
51	0xbebff891	-0.3749433
52	0xbe7f073e	-0.24905106
53	0xbf001050	-0.5002489
54	0x3dce9881	0.100876816
55	0xbf56541a	-0.8372208
56	0x3cc04567	0.023470594
57	0xbefa3a06	-0.48872393
58	0x3e86028d	0.2617382
59	0xbe9a14b5	-0.30093923
60	0xbe22ecac	-0.15910596
61	0x3ea747d6	0.32671994
62	0xbf338258	-0.70120764
63	0x3e7b41fd	0.24536891
64	0x3e39d640	0.18148136
65	0x3dfe88cb	0.12428435
66	0x3e28378f	0.16427444
67	0x3c4f403c	0.012649592
68	0x3eae6d55	0.3406779
69	0xbf87a55d	-1.059734
70	0x3d60c78e	0.05487781
71	0xbe204761	-0.15652229
72	0x3dc64367	0.09680825
73	0xbdf9c98d	-0.12196646
74	0xbf000efc	-0.50022864
75	0x3d347675	0.044058282
76	0xbf35338e	-0.7078179
77	0x3dd90727	0.10597067
78	0xbf02dd5d	-0.51119024
79	0xbc011d54	-0.0078805275
80	0xbee22fab	-0.44176993
81	0xbeba3ab1	-0.36372903
82	0x3ee2587b	0.4420813
83	0xbe896a72	-0.26839024
84	0x3f64ccb6	0.89374864
85	0xbe0667b8	-0.13125503
86	0xbeebba02	-0.4604035
87	0x3d5d889c	0.05408536
88	0xbe98bc63	-0.29831228
89	0xbd689b0d	-0.056788493
90	0xbf860f61	-1.0473443
91	0xbea55729	-0.3229306
92	0x3e99f18b	0.30067095
93	0xbe711375	-0.23542579
94	0xbebd4bcb	-0.36971888
95	0xbe508a44	-0.20365244
96	0xbebd222c	-0.36940134
97	0x3ead77e1	0.33880523
98	0xbee7c052	-0.45263916
99	0xbdff9258	-0.12479085
100	0xbd8de289	-0.06927974
101	0xbd1e54e9	-0.038655195
102	0xbebc2ad0	-0.36751413
103	0xbd1f8583	-0.038945686
104	0xbd7a05d5	-0.061040718
105	0xbf3bc3c4	-0.7334559
106	0xbf27fa55	-0.6561635
107	0xbdde2cce	-0.108483896
108	0x3cf79da1	0.03022653
109	0xbe0f5485	-0.13997085
110	0xbc4d1cac	-0.012519043
111	0xbe5f575d	-0.2181067
112	0xbe12b74c	-0.14327735
113	0xbec2a861	-0.38019088
114	0xbf57030f	-0.8398904
115	0xbe432922	-0.1905866
116	0x3e25cdea	0.16191831
117	0x3b863b8f	0.0040964554
118	0x3e7d94e3	0.24763827
119	0xbdeaf81c	-0.11473104
120	0x3ef51aca	0.47872
121	0xbf068cad	-0.52558404
122	0xbf1b7523	-0.6072561
123	0xbdbed175	-0.093172945
124	0x3d395be8	0.045253664
125	0xbdea5b02	-0.114431396
126	0xbcf4ab7a	-0.029866923
127	0x3db7d79f	0.08976673
128	0x3d7928c6	0.0608299
129	0xbec377d0	-0.38177347
130	0xbe88366e	-0.26604027
131	0xbde302f4	-0.11084548
132	0x3e294cb9	0.16533174
133	0xbf170bdb	-0.59002465
134	0xbf47322b	-0.77810925
135	0x3d9cd4e4	0.07657793
136	0x3ed7ca06	0.4214632
137	0x3e369e3f	0.17833804
138	0xbd534098	-0.051575273
139	0x3d3b4014	0.045715407
140	0x3ca077eb	0.019588431
141	0xbeed368b	-0.46330675
142	0x3e5bebe4	0.21476704
143	0xbba254b6	-0.004953946
144	0xbe7c92c7	-0.24665366
145	0xbd00dfc8	-0.031463414
146	0x3e387044	0.18011576
147	0x3df81d6a	0.12114985
148	0x3eb1ef0e	0.34752697
149	0x3da340ef	0.079713695
150	0xbfbe6cbc	-1.4876933
151	0x3cc48a5b	0.023991754
152	0x3ddf710f	0.10910236
153	0x3e33425b	0.17505781
154	0xbed7ad5f	-0.4212446
155	0x3cc2e538	0.02379094
156	0x3efde779	0.49590662
157	0xbe178554	-0.14796954
158	0xbeac606b	-0.3366731
159	0x3d40e1bc	0.047090277
160	0x3d182b52	0.03715069
161	0x3e630b23	0.22172217
162	0xbea965b8	-0.33085418
163	0x3ec327d2	0.38116318
164	0x3df73c7b	0.120720826
165	0x3e3989cb	0.1811897
166	0xbeb2bf0c	-0.34911382
167	0x3e6ee1d8	0.2332834
168	0x3e62a9af	0.22135042
169	0xbf48f31f	-0.78495973
170	0x3e8f9fc2	0.28051573
171	0xbe15abff	-0.14616393
172	0x3dcc8b67	0.099875264
173	0xbe681de6	-0.22667655
174	0xbea889e5	-0.32917705
175	0xbe376dfb	-0.17913048
176	0xbf62cdc1	-0.88595206
177	0xbe159765	-0.14608534
178	0x3e1722da	0.14759389
179	0xbe0859a9	-0.13315453
180	0xbe45e19e	-0.19324347
181	0xbe3eaad8	-0.18619859
182	0x3e8d133c	0.27553737
183	0xbd46c084	-0.04852344
184	0x3e97c540	0.29642677
185	0xb9a5896c	-0.0003157364
186	0xbefd223f	-0.4944019
187	0xbdc86556	-0.09784953
188	0x3e298bb3	0.16557197
189	0xbeab4155	-0.33448282
190	0xbe2883d1	-0.16456534
191	0x3d324a05	0.04352762
192	0xbebfe410	-0.37478685
193	0xbe30fbd9	-0.17283572
194	0xbeecfba3	-0.46285734
195	0xbde8e00a	-0.11370857
196	0x3e5b9adf	0.21445797
197	0xbde369a1	-0.111041315
198	0x3ec24109	0.37940243
199	0xbd74f991	-0.059808318
200	0xbe1ec7c7	-0.15505897
201	0xbd3ec1eb	-0.046571653
202	0xbe90d7d3	-0.2828966
203	0xbdbda989	-0.09260852
204	0x3de1521d	0.1100199
205	0xbecb2fd5	-0.3968493
206	0x3f52ff92	0.8242122
207	0x3d04e7fc	0.0324478
208	0x3eb5ad24	0.35483658
209	0xbde6acf4	-0.11263457
210	0xbd714b0b	-0.058909457
211	0xbef07d87	-0.4697077
212	0x3e0ef191	0.13959338
213	0xbf2fa1f4	-0.68606496
214	0xbe4c97d7	-0.19979797
215	0x3e09af78	0.13445842
216	0x3ea677fe	0.32513422
217	0x3e073fa0	0.13207865
218	0x3e235d69	0.15953602
219	0x3e11c36e	0.14234707
220	0x3d202d3a	0.03910563
221	0x3e86d1ea	0.26332027
222	0xbf012634	-0.5044892
223	0x3dc1b244	0.094578296
224	0x3e053bd4	0.13011104
225	0xbe8ccbd6	-0.27499264
226	0x3e066b96	0.13126978
227	0x3ebe8243	0.37208757
228	0x3e9c7038	0.30554366
229	0x3e080771	0.13284089
230	0xbdf100d3	-0.11767735
231	0x3e183327	0.14863263
232	0x3d487662	0.048941024
233	0xbf31f7c3	-0.6951868
234	0xbeca0483	-0.39456567
235	0x3e343755	0.17599232
236	0xbd8eb5cd	-0.069682695
237	0x3ca64960	0.02029866
238	0xbe82d966	-0.25556487
239	0xbd91ba49	-0.07115609
240	0x3d2ad3a7	0.041705754
241	0xbd157a1a	-0.0364934
242	0x3f026768	0.50939035
243	0xbe357436	-0.17720112
244	0x3e9fe3c9	0.31228474
245	0xbdab556d	-0.08365903
246	0xbd849e42	-0.06475498
247	0xbddb8371	-0.1071843
248	0xbde8c73d	-0.11366127
249	0xbb2b9a9c	-0.0026184684
250	0xbeb54400	-0.35403442
251	0xbedf2ce6	-0.43588942
252	0x3e1d0979	0.15335645
253	0x3cb4008d	0.021972919
254	0x3e041d5c	0.12901825
255	0xbe3fd9b3	-0.1873539

FC1.bias f4 [256]
0	0xbe515dd1	-0.20445944
1	0x3d7f3914	0.062310293
2	0xbd2c93b4	-0.04213305
3	0x3e0c4062	0.13696435
4	0xbe3376cd	-0.17525788
5	0xbca92001	-0.020645143
6	0xbe67a75f	-0.22622441
7	0xbd85c9c9	-0.06532628
8	0x3c22eaa5	0.009943639
9	0xbe3903a8	-0.18067801
10	0x3e4c2b26	0.19938335
11	0xbe471784	-0.19442564
12	0xbd533958	-0.05156836
13	0xbdf65dbf	-0.120295994
14	0xbe45f815	-0.19332917
15	0xbc83e8ba	-0.016102184
16	0x3bce51eb	0.0062963865
17	0xbdc90935	-0.09816209
18	0xbd8f0335	-0.069830336
19	0xbdbfd576	-0.09366886
20	0xbd8067a2	-0.062697664
21	0x3e1e7731	0.15475155
22	0xbe224f24	-0.15850502
23	0xbe708274	-0.23487264
24	0xbd6eeba2	-0.058330186
25	0xbd9f7beb	-0.07787307
26	0x3e6acd6e	0.22929928
27	0xbd5f403d	-0.05450462
28	0xbe227ecc	-0.15868682
29	0x3d30356b	0.043019693
30	0x3ccb44c7	0.024813069
31	0xbe2f1034	-0.17096025
32	0xbe212f4a	-0.15740696
33	0x3dd6569d	0.10465739
34	0xbda995d0	-0.082805276
35	0xbdc3342e	-0.09531437
36	0xbddfa0db	-0.109193526
37	0xbcb0d4ce	-0.021585848
38	0x3ecc2ecb	0.3987945
39	0x3d95d69b	0.07316323
40	0x3ea793c7	0.32729933
41	0xbcea9589	-0.028635757
42	0x3c9eb4eb	0.019373378
43	0xbbfbaece	-0.0076807505
44	0x3e5fb1fd	0.21845241
45	0x3dbc5783	0.09196379
46	0xbde855b5	-0.11344472
47	0xbe62a4af	-0.22133134
48	0xbe9aab27	-0.30208704
49	0x3e82245f	0.25418374
50	0xbe88cfa1	-0.26720908
51	0xbe848f11	-0.258904
52	0xbe289b3c	-0.16465467
53	0x3e06a94e	0.13150522
54	0x3d649977	0.055810418
55	0x3e60cf59	0.21954097
56	0x3ddb0ec7	0.10696178
57	0xbd1ec7c3	-0.038764726
58	0x3e16fa2b	0.14743869
59	0xbdb7894e	-0.08961736
60	0xbd9e0617	-0.07716005
61	0xbeb09adf	-0.34493157
62	0x3d28235f	0.041049358
63	0x3e02ce42	0.12773994
64	0xbdb460b4	-0.08807507
65	0x3d224a8c	0.039621875
66	0x3e457169	0.19281544
67	0x3e2b8c86	0.16752824
68	0xbeb15c80	-0.34640884
69	0xbdb2dca8	-0.08733493
70	0x3db200d3	0.086915635
71	0xbd95b8cf	-0.0731064
72	0xbd05d978	-0.032678097
73	0x3d11261a	0.035436727
74	0x3e806874	0.2507969
75	0xbc803f30	-0.01565513
76	0xbdc7f178	-0.097628534
77	0xbd5fdc78	-0.054653615
78	0xbd9583e0	-0.07300544
79	0xbe9d4167	-0.3071396
80	0xbcea8c8b	-0.02863147
81	0xbe0d3833	-0.1379097
82	0xbde74424	-0.11292294
83	0x3e44a0a1	0.192019
84	0x3daa6012	0.08319105
85	0x3d9ee247	0.07758003
86	0x3d0d9059	0.03456149
87	0xbe3ecd5c	-0.18633026
88	0xbd9e873c	-0.07740638
89	0xbe1bd3ff	-0.15217589
90	0xbd7b4ae1	-0.061350707
91	0xbe7e6875	-0.24844535
92	0xbd46c6df	-0.048529502
93	0xbe938acc	-0.2881683
94	0x3e3a584b	0.18197744
95	0x3da37484	0.07981208
96	0x3e86aa93	0.26302013
97	0xbc2d2996	-0.010568997
98	0x3d315412	0.043293066
99	0xbdbf54b6	-0.09342329
100	0x3ea10487	0.31448767
101	0x3e23a8e1	0.15982391
102	0x3e2880c0	0.16455364
103	0x3e3356c0	0.17513561
104	0xbe6e8f7c	-0.23296922
105	0xbddb4192	-0.10705866
106	0x3dc0cb82	0.09413816
107	0xbe38be73	-0.180414
108	0xbd5cf19b	-0.05394135
109	0xbd7654f9	-0.06013963
110	0xbe580f4a	-0.21099582
111	0x3d42c86e	0.047554426
112	0x3ddd6ec3	0.10812142
113	0xbe30ad55	-0.17253621
114	0xbecc0ad0	-0.39852
115	0xbd89e560	-0.06733203
116	0xbe4a5d5b	-0.19762175
117	0x3da4d1e1	0.08047844
118	0x3c50344e	0.012707783
119	0xbdccb481	-0.09995366
120	0xbdb3231e	-0.087469324
121	0xbe47ec46	-0.19523725
122	0xbda834c3	-0.082131885
123	0x3e3de25d	0.18543382
124	0xbc8ab289	-0.016930835
125	0xbe3913f5	-0.18074019
126	0x3c8691da	0.01642697
127	0x3ca8fdbb	0.0206288
128	0x3e5ce8f0	0.21573234
129	0xbddfbbd0	-0.10924494
130	0xbdfe94be	-0.12430714
131	0xbdf59b0c	-0.119924635
132	0xbe0b59b3	-0.13608436
133	0xbe9b3f4d	-0.30321732
134	0xbe307f9b	-0.17236178
135	0xbe62eaad	-0.22159834
136	0xbdeb05d5	-0.11475722
137	0x3e13eff2	0.14447
138	0x3da9db9b	0.082938395
139	0xbde181f9	-0.110111184
140	0xbe713cf0	-0.23558402
141	0x3dfb072f	0.122572295
142	0xbe8a24a2	-0.26981074
143	0x3a153d20	0.0005693007
144	0x3dc53225	0.09628705
145	0xbd11edd1	-0.03562719
146	0xbb9fbc1b	-0.004874719
147	0x3c97a374	0.018510558
148	0xbdfcb435	-0.12339059
149	0x3d9ef94f	0.077623956
150	0xbd7d6c8f	-0.061871108
151	0x3b86b25c	0.0041106176
152	0xbdc8fc31	-0.09813727
153	0xbcff336a	-0.031152446
154	0xbde83ad5	-0.11339346
155	0xbe1e25b6	-0.15444073
156	0x3e313912	0.17306927
157	0xbd616cd4	-0.055035427
158	0xbddfb84e	-0.10923825
159	0x3d21d709	0.039511714
160	0xbe67991e	-0.22617003
161	0xbe0f92c8	-0.14020836
162	0x3d776f1a	0.06040869
163	0xbe931067	-0.28723451
164	0x3e2b049c	0.16700977
165	0x3da8e42e	0.08246647
166	0xbc596bea	-0.013270358
167	0x3d3e02a8	0.046389252
168	0xbe28e449	-0.16493334
169	0xbe2c9e05	-0.16857155
170	0x3d6a8db8	0.05726406
171	0xbe9e9f33	-0.30980834
172	0x3e40d9c6	0.18833074
173	0x3e9632b1	0.2933555
174	0xbe13df0d	-0.14440556
175	0x3cf866b9	0.03032242
176	0x3e005103	0.12530904
177	0x3d076454	0.033054665
178	0xbe5e6eff	-0.21722029
179	0xbd263fcc	-0.040588185
180	0xbe095010	-0.13409448
181	0xbe85d12d	-0.2613615
182	0x3e92e571	0.28690675
183	0x3e859c0b	0.26095614
184	0x3c36d2b8	0.011158638
185	0xbcce9aa3	-0.02522022
186	0xbe8b7948	-0.27240968
187	0xbe232b11	-0.15934397
188	0x3c287dec	0.010283928
189	0xbd1f93e1	-0.038959388
190	0x3c64718a	0.013943085
191	0xbdd767c1	-0.10517836
192	0xbe807f4a	-0.25097114
193	0x3e4e099f	0.20120858
194	0xbe47797e	-0.1947994
195	0xbd8e6417	-0.069526844
196	0xbc8e56f9	-0.017375456
197	0x3dcb8ffc	0.09939572
198	0xbd122d0e	-0.0356875
199	0x3e28e55d	0.16493745
200	0x3d90c0c3	0.070680164
201	0x3de8712a	0.11349709
202	0xbe33bdfc	-0.17552942
203	0x3e2537b1	0.16134526
204	0xbdf81c18	-0.121147335
205	0x3dd32bcf	0.1031109
206	0xbd2f6f30	-0.042830646
207	0xbde79785	-0.11308197
208	0x3e27701e	0.16351363
209	0xbea27f1a	-0.31737596
210	0xbda0de63	-0.07854917
211	0xbdb2f88e	-0.08738814
212	0x3dd67367	0.1047123
213	0xbe73f6e9	-0.23824657
214	0xbd8dab4d	-0.06917439
215	0xbdbf7863	-0.09349134
216	0xbd368530	-0.04456061
217	0xbe997ccd	-0.29978028
218	0xbd8ab118	-0.06772059
219	0x3d65f074	0.056137517
220	0x3e50f7d9	0.20407046
221	0xbd26df5e	-0.040740363
222	0xbe5d9548	-0.21638978
223	0xbbac40ba	-0.0052567394
224	0x3ad5c3f3	0.0016309008
225	0x3e07f3a5	0.13276537
226	0xbdf0fd8c	-0.1176711
227	0xbc0ae0ce	-0.008476449
228	0x3e693f9f	0.22778176
229	0x3e93e44d	0.28885117
230	0xbd31e2d6	-0.04342922
231	0xbe236c38	-0.15959251
232	0x3e273b27	0.16331159
233	0xbe054ee2	-0.13018373
234	0x3e9d7843	0.30755815
235	0x3dda6401	0.106636055
236	0xbe3f97d3	-0.1871026
237	0xbe3be65c	-0.18349594
238	0xbe16a6f9	-0.14712133
239	0xbd4310a6	-0.0476233
240	0xbd7bf329	-0.061511192
241	0xbe6ca744	-0.23110682
242	0xbd143333	-0.03618164
243	0xbdb0c0a4	-0.08630493
244	0xbd983dfd	-0.07433698
245	0x3e9bb8a4	0.30414307
246	0xbc8925d3	-0.016741669
247	0x3a6f4217	0.00091269746
248	0xbe0f3992	-0.13986805
249	0xbdf72afb	-0.12068745
250	0x3da153a1	0.07877279
251	0x3e3d7e5c	0.18505234
252	0xbe227349	-0.1586429
253	0x3e6d28a0	0.23160028
254	0xbe87b1d8	-0.26502872
255	0x3d381c8a	0.044949092

FC2.weight f4 [256, 256]
0	0x3edbffb9	0.42968538
1	0x3ebb2bfc	0.36556995
2	0xbc6ce2ec	-0.014458399
3	0xbe9406e0	-0.28911495
4	0xbf6908f5	-0.9102929
5	0x3f0a44c6	0.5401119
6	0xbdeee38a	-0.116644934
7	0x3f97b773	1.1852859
8	0x3f032773	0.5123207
9	0x3df0d611	0.1175958
10	0x3e2348fd	0.15945812
11	0xbe19c3a6	-0.1501604
12	0x3f0b07e1	0.543089
13	0x3bbf1dd1	0.005832412
14	0xbee29872	-0.44256932
15	0xbf3cde84	-0.7377703
16	0x3f20dbe1	0.6283551
17	0x3eb488bc	0.3526057
18	0x3ea03066	0.31286925
19	0x3e792be9	0.24333157
20	0xbea07f53	-0.3134714
21	0x3f08de1a	0.534639
22	0x3c03b658	0.00803908
23	0x3d9c70ec	0.07638726
24	0x3f0857fb	0.5325925
25	0xbd20cb2b	-0.039256256
26	0x3ddc4dc0	0.10757017
27	0xbe607527	-0.2191969
28	0x3e32586b	0.17416541
29	0xbe2de653	-0.16982393
30	0x3e882cc8	0.26596665
31	0x3dc97d15	0.09838311
32	0xbddbd105	-0.10733227
33	0xbe16ae0c	-0.14714831
34	0xbf593b9d	-0.8485659
35	0xbf0384dd	-0.5137461
36	0xbcec97a2	-0.028880898
37	0xbf2c4927	-0.6729912
38	0xbe207352	-0.15668991
39	0x3e90a4eb	0.28250822
40	0x3e10d1ee	0.14142582
41	0xbeabe3a7	-0.33572122
42	0x3e568ff6	0.20953354
43	0x3f03809d	0.51368123
44	0x3cac5318	0.021035716
45	0x3e186907	0.14883815
46	0xbea2e00e	-0.31811565
47	0x3e047da2	0.1293855
48	0x3ea092d2	0.31362015
49	0x3c988cd2	0.018621836
50	0x3f398a80	0.7247696
51	0xbdea7077	-0.11447232
52	0xbe8ca90b	-0.2747272
53	0x3e8dbe99	0.27684477
54	0x3ed62e6f	0.418323
55	0x3ecdcd92	0.401959
56	0xbebd179a	-0.3693207
57	0x3c54618c	0.01296271
58	0x3e4cfcf1	0.20018364
59	0xbdfa8dec	-0.12234101
60	0xbed3c986	-0.41364688
61	0x3f1d2ece	0.61399543
62	0xbf862232	-1.0479186
63	0x3e0da161	0.13831092
64	0xbde08f5e	-0.10964845
65	0xbedef001	-0.43542483
66	0xbe010ad6	-0.1260179
67	0x3ee5386f	0.44769618
68	0x3e577060	0.21038961
69	0x3d08a5d9	0.03336129
70	0xbc9298fe	-0.017895218
71	0x3e9aa22f	0.3020186
72	0xbbd3a910	-0.006459363
73	0x3e928f4f	0.2862496
74	0x3d8caa60	0.06868434
75	0x3e4e6c39	0.20158471
76	0x3d5c66a0	0.05380881
77	0xbce62a4c	-0.02809634
78	0xbefc69d6	-0.49299496
79	0x3ee25cb1	0.44211343
80	0xbc8a8152	-0.016907368
81	0xbdc1f57c	-0.094706506
82	0xbd96342e	-0.07334171
83	0xbdd0a13d	-0.10187004
84	0xbeadf618	-0.33976817
85	0xbe0a0154	-0.13477069
86	0x3f0b61bc	0.54446006
87	0x3f890f26	1.0707748
88	0x3eb69e6f	0.3566775
89	0x3da7048e	0.081551656
90	0x3e543151	0.20721938
91	0xbe2366ac	-0.15957135
92	0x3e6fae4b	0.23406331
93	0x3e200e02	0.15630344
94	0x3e73e9ab	0.23819606
95	0xbdc38fa3	-0.09548881
96	0xbe591dc7	-0.21202765
97	0x3f65a48f	0.8970422
98	0x3d97360b	0.07383355
99	0x3d445b81	0.047938827
100	0x3e5ed42d	0.21760626
101	0xbeaeb856	-0.34125012
102	0x3c568ae6	0.013094639
103	0xbec87985	-0.39155212
104	0xbeeb7b6c	-0.459926
105	0x3f0eacca	0.55732405
106	0xbecff439	-0.40616015
107	0xbec7519d	-0.38929453
108	0xbe4aa7d1	-0.1979058
109	0xba1bc730	-0.0005942462
110	0x3de5ab0f	0.112142675
111	0x3e6ce3f1	0.23133828
112	0x3eaf649e	0.34256452
113	0x3d41ae19	0.047285173
114	0x3e9c3e16	0.30516118
115	0x3c73eb2d	0.014887613
116	0xbe7d34fe	-0.24727246
117	0x3f07e829	0.53088623
118	0x3d6ed2b1	0.0583064
119	0x3e94ecee	0.29087013
120	0x3e1d4983	0.15360074
121	0xbdb1bf39	-0.08679051
122	0xbe5f8f12	-0.2183192
123	0x3ed3737c	0.41299045
124	0x3f18a5e1	0.5962811
125	0xbd0d812e	-0.034547023
126	0x3e93b517	0.28849098
127	0x3cdeeec1	0.027213456
128	0x3ceee51e	0.029161986
129	0x3f34252d	0.70369226
130	0x3e3b75af	0.18306611
131	0x3e1579d5	0.14597256
132	0xbe5cd6a9	-0.21566261
133	0x3ef1dfdc	0.47241104
134	0x3f25d2f5	0.6477502
135	0x3ed2f0fa	0.41199476
136	0xbe111d24	-0.14171273
137	0xbe9a34c3	-0.3011838
138	0xbe61472b	-0.21999805
139	0xbe9cb169	-0.30604103
140	0x3e17d2b3	0.14826469
141	0xbe031bef	-0.12803625
142	0xbe86da9e	-0.26338667
143	0x3e0afd72	0.13573244
144	0x3d6913cf	0.056903657
145	0x3eee28d4	0.46515524
146	0x3c0a50f5	0.008442153
147	0xbdeee310	-0.116644025
148	0xbe95c7e9	-0.29254082
149	0xbbac8ee3	-0.005266057
150	0xbd822352	-0.06354393
151	0x3d08b689	0.033377204
152	0x3f446952	0.76723206
153	0xbe8efdfc	-0.2792815
154	0x3cb0cef6	0.021583062
155	0xbe8fcca6	-0.28085822
156	0x3e755864	0.239595
157	0xbe52dc60	-0.20591879
158	0x3e0a8e74	0.13530904
159	0xbecd3a99	-0.4008377
160	0xbf7a9df2	-0.97897255
161	0xbe573ed8	-0.21020067
162	0xbd623476	-0.055225812
163	0xbe556c33	-0.20842056
164	0xbf06397d	-0.5243147
165	0xbdf94934	-0.121721655
166	0xbf1b069b	-0.60556954
167	0xbfe083e2	-1.7540247
168	0x3e07069f	0.1318612
169	0x3ec21a1f	0.37910554
170	0x3f2b02e6	0.668013
171	0x3d839d79	0.0642652
172	0xbf7e7e82	-0.99411786
173	0x3f912da3	1.1342052
174	0xbeab2917	-0.33429787
175	0x3ebc7410	0.368073
176	0x3ecc60cf	0.3991761
177	0x3d64f1a8	0.055894524
178	0xbec0713b	-0.37586388
179	0x3e88623b	0.26637444
180	0x3bc09fbe	0.0058784178
181	0xbeb13226	-0.34608573
182	0xbd941c5f	-0.07231974
183	0xbd29ca7a	-0.041452862
184	0xbdfe37b9	-0.12412972
185	0x3d981fe3	0.07427957
186	0x3db7953a	0.089640096
187	0xbe3b85c2	-0.18312743
188	0x3e500287	0.20313464
189	0xbefe063b	-0.49614128
190	0x3e5cab5a	0.2154974
191	0x3f3f617a	0.7475811
192	0xbe1427eb	-0.14468352
193	0xbe276a6b	-0.16349189
194	0xbf2604b9	-0.64850956
195	0xbe516c26	-0.20451412
196	0x3e4ed2e2	0.20197633
197	0xbf3b9a02	-0.7328187
198	0xbeffe939	-0.49982622
199	0xbc83d9bd	-0.016095037
200	0x3e07797d	0.13229938
201	0x3f62b5da	0.88558733
202	0xbcc6376f	-0.024196355
203	0xbedc5864	-0.43036187
204	0xbeb67a02	-0.3563996
205	0x3de21421	0.110389955
206	0x3ecb9d9b	0.3976868
207	0x3e47ab6b	0.19498985
208	0x3dd78697	0.10523718
209	0xbe7f0caa	-0.24907175
210	0x3d8bf95f	0.06834673
211	0xbea518b9	-0.32245424
212	0x3f85896d	1.0432564
213	0xbe567c99	-0.20945968
214	0x3eecb3b5	0.46230856
215	0x3e9a85bd	0.3018016
216	0x3e4c3c9e	0.19944999
217	0x3f1428cb	0.57874745
218	0x3ce13ca4	0.027494736
219	0xbe3de78a	-0.18545356
220	0x3f1761a9	0.5913339
221	0xbdc03465	-0.093849935
222	0xbeeda2fc	-0.4641341
223	0x3e4b9264	0.19880062
224	0x3e371689	0.1787969
225	0x3ea07b58	0.31344104
226	0x3e9ecbe6	0.31014937
227	0xbf193b36	-0.59855974
228	0x3e882bee	0.26596016
229	0x3e03146a	0.12800756
230	0x3f02d356	0.51103723
231	0xbe02805b	-0.12744276
232	0x3e23736e	0.15962002
233	0x3ecb4197	0.3969848
234	0x3e408830	0.18801951
235	0xbeb7ae44	-0.35875142
236	0xbfa577c4	-1.2927175
237	0xbf4f94fa	-0.81086695
238	0x3d1285ef	0.03577226
239	0xbd274048	-0.040832788
240	0xbe7d1dc1	-0.24718381
241	0xbd916afd	-0.071004845
242	0x3dcd4bea	0.10024245
243	0x3ec1b240	0.37831306
244	0xbee4858d	-0.4463314
245	0xbde7057a	-0.112803414
246	0x3da61395	0.08109204
247	0xbc2895a0	-0.01028958
248	0xbf326e9f	-0.69700044
249	0x3db0fe2a	0.08642228
250	0x3e633bc0	0.22190762
251	0x3f1a7f07	0.6035008
252	0xbf0aa2f1	-0.5415488
253	0x3e429f03	0.1900597
254	0x3e1d6129	0.15369095
255	0xbbc33654	-0.005957404

FC2.bias f4 [256]
0	0xbd87ba41	-0.06627322
1	0xbcd58dfc	-0.02606868
2	0xbd2ec152	-0.042664833
3	0x3e486b4e	0.19572183
4	0xbe2b41eb	-0.16724364
5	0xbd9b0841	-0.07569934
6	0xbda70193	-0.08154597
7	0xbe48c048	-0.196046
8	0x3d324366	0.043521307
9	0xbe1f53c3	-0.15559296
10	0xbcf13420	-0.0294438
11	0xbbff8cae	-0.0077987527
12	0x3e07fdc7	0.13280402
13	0x3e860225	0.2617351
14	0x3e03660e	0.128319
15	0xbd956a3a	-0.07295652
16	0xbd800c3f	-0.06252336
17	0xbd168800	-0.036750793
18	0xbe17523c	-0.14777464
19	0x3cee5a2f	0.029095737
20	0xbb73f30d	-0.0037223727
21	0x3c8327cf	0.016010193
22	0x3da0c4b1	0.07850016
23	0x3d8eb9d9	0.069690414
24	0x3e47a7f6	0.19497666
25	0x3c58bfb0	0.013229296
26	0x3e965fdb	0.29370007
27	0xbd3f8fbe	-0.046767943
28	0xbd468138	-0.048463076
29	0xbe02737c	-0.12739366
30	0xbc3bcb32	-0.01146202
31	0x3e514472	0.20436266
32	0x3d69f62f	0.057119545
33	0x3e9956a5	0.29948917
34	0x3e1f666a	0.15566412
35	0x3e406455	0.18788274
36	0xbd89018c	-0.06689748
37	0x3e10c859	0.14138927
38	0x3d9c077b	0.07618614
39	0xbe7ae011	-0.24499537
40	0xbd72be26	-0.05926337
41	0x3d39fcdb	0.045407157
42	0x3cf2c8bc	0.029636733
43	0xbe0ad1ef	-0.13556646
44	0xbe3c419a	-0.183844
45	0x3cfb835f	0.030702291
46	0xbda35f0c	-0.07977113
47	0xbd939c9e	-0.07207607
48	0xbd879ce2	-0.0662172
49	0xbd3a3324	-0.045458928
50	0xbcccb4e2	-0.024988595
51	0x3dde858b	0.10865315
52	0x3e62b7fe	0.221405
53	0xbc228b3e	-0.009920893
54	0x3dc51e87	0.09624963
55	0xbe8b7908	-0.27240777
56	0x3cc02918	0.023457095
57	0xbd9db683	-0.07700827
58	0x3d64b360	0.055835128
59	0x3e4dcb23	0.20097022
60	0xbd7c1312	-0.061541624
61	0xbd89464b	-0.067028604
62	0x3e85cfdb	0.26135144
63	0xbda57e43	-0.08080723
64	0xbd426922	-0.047463544
65	0xbc9b5190	-0.01895979
66	0x3df6bd65	0.12047843
67	0x3d27057a	0.040776707
68	0xbd506bf8	-0.050884217
69	0xbc540298	-0.0129400715
70	0x3da2e897	0.07954519
71	0x3e1f853d	0.1557817
72	0xbdc68e95	-0.09695164
73	0x3cee96a7	0.029124571
74	0x3dafc9c3	0.08583405
75	0x3bbd45a6	0.005776125
76	0xbc83ebf4	-0.016103722
77	0x3dc1750a	0.094461516
78	0xbd49514d	-0.0491498
79	0x3e4654df	0.19368313
80	0xbcfd12b7	-0.030892713
81	0xbc1e3dd9	-0.0096583
82	0xbd994748	-0.07484299
83	0x3d9adb28	0.07561332
84	0x3ce02aca	0.027364153
85	0xbea55590	-0.32291842
86	0xbdfe420b	-0.124149404
87	0x3e17600c	0.14782733
88	0x3da75ed0	0.08172381
89	0x3e20f598	0.15718687
90	0x3d23df19	0.040007684
91	0xbd9dfe70	-0.07714546
92	0x3d434f6f	0.047683176
93	0xbda440e7	-0.08020192
94	0xbd22395d	-0.039605487
95	0x3c3481d0	0.011017278
96	0xbdc5d491	-0.096596844
97	0x3af0b2a5	0.0018363787
98	0x3d031dee	0.032010965
99	0x3e63bc24	0.22239739
100	0xbd8433ce	-0.064551935
101	0xbd675081	-0.05647326
102	0x3de5e5b6	0.112254545
103	0xbd9a917b	-0.075472794
104	0xbdab3fa0	-0.08361745
105	0xbca79cd3	-0.020460522
106	0xbd8a006f	-0.06738364
107	0x3dcbb7b0	0.09947145
108	0xbe54c477	-0.2077807
109	0x3e41e6dd	0.18935724
110	0x3e443913	0.19162397
111	0xbe15d83b	-0.14633267
112	0xbd853623	-0.065044664
113	0x3e748076	0.23877129
114	0xbccfd334	-0.025369264
115	0xbdc746bd	-0.09730289
116	0x3ba0b766	0.0049046753
117	0xbd4b7e4d	-0.049680997
118	0x3d2bb3fa	0.041919686
119	0xbc99a374	-0.018754698
120	0x3a7024ff	0.0009160786
121	0xbdaad731	-0.08341826
122	0x3d8603a3	0.065436624
123	0x3c33a5fc	0.010964867
124	0x3cc691e3	0.024239486
125	0xbdb614b3	-0.08890667
126	0xbe1688ce	-0.14700624
127	0xbd56c72d	-0.052436043
128	0xbd38267c	-0.044958577
129	0x3de9d261	0.1141708
130	0xbc08ffec	-0.008361798
131	0xbd1559de	-0.036462657
132	0xbd62e5f5	-0.055395085
133	0x3d78519f	0.060624715
134	0xbdf90a38	-0.12160152
135	0xbbfb4c9f	-0.007669046
136	0x3d5e8acf	0.054331597
137	0x3d513070	0.051071584
138	0x3d880b1b	0.06642743
139	0xbe4ea1ff	-0.20178984
140	0x3e026068	0.12732089
141	0xbd5930f2	-0.053025194
142	0x3d17f6ee	0.037100725
143	0x3cbb1382	0.02283645
144	0x3cd8e057	0.026474161
145	0x3d8bacb6	0.06820051
146	0xbd52b485	-0.051441688
147	0x3d4cf21c	0.05003558
148	0xbe1c84c7	-0.15285026
149	0xbea26788	-0.31719613
150	0x3e438e11	0.19097163
151	0x3c5cc3f7	0.013474456
152	0xbd98acc5	-0.07454828
153	0xbbba660d	-0.005688435
154	0xbda2fa03	-0.07957842
155	0xbe0ea704	-0.13930899
156	0xbdacbdc1	-0.0843463
157	0x3e510c11	0.20414759
158	0x3dc4f1d6	0.09616439
159	0xbcf68f0b	-0.030097505
160	0xbde76b36	-0.11299746
161	0x3e88e4e3	0.26737127
162	0x3c912056	0.017715614
163	0xbd922866	-0.07136612
164	0x3d1f05aa	0.03882376
165	0x3b925122	0.004465238
166	0xbd29a14d	-0.041413594
167	0xbdb00611	-0.08594907
168	0x3a73f83a	0.0009306703
169	0x3e3c54aa	0.18391672
170	0x3e2a68cc	0.1664154
171	0x3e651e0a	0.2237474
172	0x3e567c81	0.20945932
173	0x3d2f41d6	0.042787395
174	0x3e96f427	0.29483148
175	0xbd47e630	-0.04880351
176	0x3a94a447	0.0011340462
177	0xbd8a8fc4	-0.06765702
178	0xbc36430c	-0.011124384
179	0x3e316924	0.17325264
180	0xbcf0ca37	-0.029393299
181	0x3e276300	0.16346359
182	0xbd9a2bac	-0.07527861
183	0xbcb9e0b2	-0.02269015
184	0x3e60836b	0.21925132
185	0x3d99d64a	0.075115755
186	0x3e358087	0.1772481
187	0xbdb3903c	-0.08767745
188	0xbbb4e3d7	-0.0055203247
189	0x3e8714c1	0.2638302
190	0x3e8fce23	0.28086957
191	0x3d1ddafe	0.038538925
192	0xbd50f95f	-0.05101907
193	0x3d752753	0.059851956
194	0xbd1fe6bc	-0.039038405
195	0x3deec203	0.116580985
196	0x3de89464	0.11356428
197	0x3eac4031	0.33642724
198	0xbd6ba367	-0.05752888
199	0xbd9f73ff	-0.077857964
200	0x3d8aae1d	0.06771491
201	0xbb906fa5	-0.0044078403
202	0xbbb752a6	-0.0055945693
203	0x3dd4e01a	0.103943065
204	0x3e1659d8	0.1468271
205	0xbdde5498	-0.10855979
206	0x3cba5a43	0.022748118
207	0x3d144b5f	0.036204692
208	0xbcc2e9fa	-0.02379321
209	0x3eb2a8cb	0.34894404
210	0x3dd02a1e	0.10164283
211	0x3da52b92	0.08064951
212	0x3e0bd966	0.1365715
213	0x3ec09382	0.3761254
214	0xbd2dbcda	-0.04241643
215	0x3de74872	0.11293115
216	0xbdb68b38	-0.089132726
217	0xbce23094	-0.027611054
218	0xbdc4a7a9	-0.09602291
219	0x3ecf4b68	0.40487218
220	0x3dc2da13	0.095142506
221	0x3e21dce4	0.1580692
222	0xbe22cfee	-0.15899631
223	0x3d3c5d76	0.04598757
224	0x3d894031	0.06701697
225	0x3dd5da3f	0.10442018
226	0xbd924fe6	-0.07144146
227	0x3d9e9b49	0.07744462
228	0xbcefca12	-0.02927116
229	0x3d3b88f5	0.04578491
230	0x3d3c86df	0.04602706
231	0xbed66e76	-0.4188115
232	0xbe73f6c3	-0.23824601
233	0x3e62ee56	0.2216123
234	0xbdc72b4e	-0.097250566
235	0xbca49642	-0.02009118
236	0xbdbfac51	-0.093590386
237	0x3d52829d	0.051394094
238	0x3d04abb6	0.03239032
239	0xbda6ab42	-0.081381336
240	0x3e293139	0.16522683
241	0xbe6beb0e	-0.23038885
242	0xbdd4289d	-0.10359309
243	0x3da29eff	0.07940482
244	0xbd061301	-0.032732967
245	0xbc04ce7a	-0.0081058685
246	0x3cd468fb	0.025928965
247	0x3d9d10c3	0.07669213
248	0x3bdf2559	0.006809872
249	0xbd9c8ff6	-0.07644646
250	0x3cc04f6f	0.023475377
251	0x3de8ef4c	0.11373767
252	0xbd0f39f2	-0.03496737
253	0x3d6324f6	0.05545517
254	0x3e59c7fc	0.21267694
255	0x3e334e57	0.17510353

action_out.weight f4 [5, 256]
0	0x3ef9a006	0.487549
1	0x3c56c7fc	0.013109203
2	0xbf5aeb07	-0.85514873
3	0xbfab5213	-1.3384422
4	0xbe31b53f	-0.17354296
5	0xbd6a9f0f	-0.057280596
6	0xbd0665ad	-0.03281181
7	0xbe86b9c4	-0.26313603
8	0xbee57e0b	-0.44822726
9	0xbe3bc02f	-0.18335031
10	0xb9befef3	-0.00036429576
11	0xbf1fc29d	-0.6240633
12	0x3e85d117	0.26136085
13	0xbfe0559f	-1.752613
14	0x3d8c7a02	0.06859209
15	0x3f04b749	0.5184217
16	0x3c97e70b	0.018542787
17	0x3b9a85ab	0.0047156415
18	0xbf1f32cb	-0.6218688
19	0xbc974206	-0.0184641
20	0xbed19abd	-0.40938368
21	0xbda0a875	-0.07844631
22	0xbecdb162	-0.40174395
23	0x3e697773	0.22799473
24	0xbda5e20c	-0.08099756
25	0xbd4ec319	-0.05047903
26	0xbf26eafc	-0.6520231
27	0x3c47e0ae	0.012199564
28	0xbf4f53c1	-0.80987173
29	0xbf7b1a9a	-0.98087466
30	0xbfc96d1d	-1.5736424
31	0x3e704cd2	0.23466805
32	0xbf812243	-1.0088581
33	0x3f29ede1	0.663786
34	0x3efae903	0.490059
35	0x3e1e182a	0.15438905
36	0x3c6262a5	0.013817464
37	0x3dced30d	0.100988485
38	0x3f0c1885	0.54724914
39	0xbdb8f1bc	-0.09030482
40	0x3e97b207	0.29628012
41	0xbec79fae	-0.38989013
42	0x3f11daf3	0.56974715
43	0xbd583a29	-0.05278984
44	0xbf366610	-0.71249485
45	0xbdcb3912	-0.09922995
46	0xbd620884	-0.055183902
47	0x3c2f67d5	0.010705908
48	0x3d43331c	0.047656164
49	0xbb238835	-0.0024953012
50	0xbf42018f	-0.7578363
51	0x3e818bee	0.2530207
52	0x3dfc02e4	0.12305239
53	0x3d2b1617	0.041769113
54	0x3e7c588c	0.24643153
55	0x3e9f2eca	0.31090385
56	0xbee2cf5c	-0.44298828
57	0xbf064b8a	-0.52459013
58	0xbf2410e4	-0.64088273
59	0xbe17dcf8	-0.14830387
60	0xbd7e9e5a	-0.062162735
61	0xbd0b9062	-0.03407324
62	0xbf9bd0bf	-1.2173079
63	0xbd1b6d90	-0.037946284
64	0x3e2954fc	0.16536325
65	0x3d198712	0.03748233
66	0xbf5f3b3a	-0.8719975
67	0xbf0d3d9b	-0.5517213
68	0x3d090132	0.033448406
69	0xbd499da9	-0.049222622
70	0x3f41bb8f	0.75676817
71	0xbd048334	-0.032351688
72	0xbee90008	-0.45507836
73	0xbefc5b49	-0.49288395
74	0xbfaaf5f1	-1.3356305
75	0xbd964daf	-0.07339036
76	0x3f205490	0.6262903
77	0xbf2bf046	-0.67163503
78	0xbf850232	-1.0391295
79	0xbd891a06	-0.06694417
80	0xbd49d60d	-0.0492764
81	0x3d0afa3b	0.033930045
82	0x3b923833	0.004462266
83	0xbe61e5f8	-0.22060382
84	0x3f129d4b	0.5727126
85	0xbf428795	-0.7598813
86	0xbd5a86e4	-0.053351298
87	0xbcd079ee	-0.025448766
88	0xbf39dc52	-0.7260181
89	0xbf2d7e54	-0.67770886
90	0x3e8b24c4	0.27176487
91	0x3d674f8a	0.05647234
92	0x3f341397	0.7034239
93	0x3aab2abb	0.0013058999
94	0x3e24c180	0.1608944
95	0xbd8d527c	-0.06900498
96	0xbe675862	-0.22592309
97	0x3f18168a	0.5940939
98	0xbdd73271	-0.10507668
99	0xbe981e85	-0.29710785
100	0xbe212302	-0.1573601
101	0xbc8b1e27	-0.016982151
102	0xbeaab0a9	-0.33337906
103	0x3d53ca46	0.051706575
104	0xbfa29b10	-1.2703571
105	0xbc8e8a2a	-0.017399866
106	0x3f20b235	0.6277192
107	0xbf67e716	-0.90586984
108	0x3eccc9f7	0.39997837
109	0x3f5634de	0.8367442
110	0x3e8d5c13	0.2760931
111	0xbd7b18d3	-0.06130297
112	0x3d561b31	0.052272025
113	0xbcb94774	-0.02261708
114	0xbd9bcefb	-0.07607838
115	0xbd2df492	-0.04246957
116	0xbdb3b1d9	-0.08774156
117	0xbccb1619	-0.02479081
118	0xbf1ab86f	-0.60437673
119	0xbc27ecc0	-0.010249317
120	0x3e510952	0.20413712
121	0x3c8db76c	0.017299376
122	0xbf1b249d	-0.6060274
123	0xbf47a88d	-0.77991563
124	0x3ed91f42	0.4240666
125	0x3d040ea2	0.032240517
126	0xbf805fd1	-1.0029241
127	0x3d47394a	0.04863862
128	0x3e9c8bd4	0.3057543
129	0xbe86965a	-0.26286584
130	0xbe9e7759	-0.3095043
131	0xbeef3ace	-0.46724552
132	0xbcc8fa63	-0.024533456
133	0xbe1c259b	-0.1524872
134	0x3bc7d529	0.0060984087
135	0x3eaa1137	0.3321626
136	0xbf9e5ff5	-1.2373034
137	0xbf4f784e	-0.81042945
138	0xbf2ea499	-0.68219906
139	0xbf881f4a	-1.0634549
140	0x3e007161	0.1254325
141	0xbb921c3d	-0.0044589327
142	0xbea991f2	-0.3311916
143	0xbecff620	-0.40617466
144	0xbf3b0ca6	-0.73066175
145	0xbe3efbb2	-0.18650702
146	0xbeecd44b	-0.46255717
147	0x3e179e56	0.14806494
148	0xbedfc842	-0.43707472
149	0xbe51c029	-0.2048346
150	0x3ef2b578	0.47404075
151	0xbcb47f9c	-0.022033505
152	0x3cf9e6fb	0.030505648
153	0xbb6716f1	-0.0035261477
154	0xbc200cd7	-0.009768686
155	0xbf8c0f5f	-1.0942191
156	0x3c46d75e	0.0121363085
157	0x3f15719e	0.5837649
158	0xbf70fee7	-0.9413895
159	0x3d2221ba	0.039582945
160	0xbddc3f1f	-0.10754227
161	0xbf8cd991	-1.1003896
162	0xbfb5deac	-1.4208579
163	0x3ed8f69a	0.42375642
164	0xbe10d8a1	-0.14145137
165	0xbd2650eb	-0.040604513
166	0x3d337791	0.0438152
167	0x3f227dd3	0.6347324
168	0x3be0edda	0.0068642916
169	0x3f7863c2	0.9702722
170	0xbf3a0325	-0.7266105
171	0x3f21272c	0.62950397
172	0x3db6c165	0.08923606
173	0x3f126828	0.5719018
174	0xbeb9f8e0	-0.3632269
175	0x3d3d2045	0.046173353
176	0x3c24952c	0.010045331
177	0x3b6d06ac	0.0036167307
178	0xbf63d1fc	-0.88992286
179	0x3d961020	0.07327294
180	0x3e1139ae	0.1418216
181	0x3d6170eb	0.055039328
182	0x3e84af33	0.25914916
183	0xbf18dafb	-0.5970914
184	0xbe4a64ca	-0.1976501
185	0x3eeaece8	0.4588387
186	0x3f0cce8e	0.5500268
187	0xbd542350	-0.05179149
188	0x3e99aa3d	0.30012694
189	0xbfb433e8	-1.407834
190	0xbe98ddb1	-0.29856637
191	0xbf50395d	-0.8133753
192	0x3bcbedee	0.006223432
193	0x3ddf26d9	0.108960815
194	0xbe914777	-0.28374836
195	0x3e1d0880	0.15335274
196	0xbf767d75	-0.9628518
197	0xbf12060e	-0.5704049
198	0xbde19c99	-0.11016197
199	0xbd8fed9f	-0.070277445
200	0x3e842694	0.25810683
201	0xbdc75bcc	-0.09734306
202	0xbda05476	-0.0782861
203	0x3a827791	0.0009953846
204	0xbee7ef9e	-0.453
205	0x3e48d163	0.19611125
206	0xbd7a4e01	-0.061109547
207	0x3d68b1f1	0.056810323
208	0xbc7b053d	-0.015321073
209	0xbf153a4e	-0.5829209
210	0xbdecfed2	-0.115720406
211	0x3e8e89a9	0.278394
212	0xbe87ee56	-0.26549023
213	0xbed52234	-0.41627657
214	0x3d14d22c	0.036333248
215	0xbf6ebf18	-0.93260336
216	0xbd1bb409	-0.03801349
217	0xbec630f2	-0.38709217
218	0xbf5d75cf	-0.86507887
219	0xbf033c74	-0.5126412
220	0xbee8b702	-0.45452124
221	0x3de1487d	0.11000154
222	0x3e8b1a14	0.27168334
223	0xbef4a7b6	-0.47784203
224	0xbf30759c	-0.6892946
225	0xbe84d1d0	-0.25941324
226	0xbeabc0e9	-0.33545616
227	0x3d9d2719	0.07673473
228	0x3c941f34	0.018081285
229	0x3dcb28cf	0.09919893
230	0xbf82403c	-1.0175853
231	0x3d8019dd	0.06254933
232	0xbe867605	-0.26261917
233	0xbd553f3d	-0.05206226
234	0x3e1dfde4	0.15428883
235	0x3d4b743c	0.049671397
236	0x3e96d930	0.29462576
237	0x3e6ea42a	0.23304811
238	0x3e93111b	0.28723988
239	0xbd438945	-0.047738332
240	0xbee8268e	-0.45341915
241	0xbf93e728	-1.1554918
242	0xbc8e629c	-0.017381005
243	0xbd24c607	-0.040227916
244	0x3c890880	0.016727686
245	0xbd213ebf	-0.03936648
246	0xbf77e9bd	-0.9684103
247	0x3e91e97f	0.28498456
248	0xbd095014	-0.033523634
249	0x3d4d4b44	0.050120607
250	0x3db502f3	0.08838453
251	0xbf6f174b	-0.9339492
252	0x3e832615	0.25614992
253	0xbf5ba790	-0.85802555
254	0x3f697063	0.91187114
255	0xbf225674	-0.63413167

action_out.bias f4 [5]
0	0x3ec96d7c	0.39341342
1	0x3c0ab1ba	0.008465225
2	0xbc9a907d	-0.018867726
3	0x3e615262	0.22004083
4	0xbe595292	-0.21222904

weight f4 [256, 123]
0	0x3d19f552	0.03758747
1	0xbdfc7a87	-0.12328058
2	0x3d92d57d	0.07169626
3	0xbd71f3ef	-0.059070524
4	0x3da858d0	0.08220065
5	0xbe2ad72e	-0.16683647
6	0x3d1ee45b	0.038791995
7	0xbdae4359	-0.08508939
8	0xbdcee2f0	-0.10101879
9	0x3d48d726	0.049033307
10	0xbcc0fa68	-0.023556903
11	0xbca7f1bb	-0.020501008
12	0xbde48d5f	-0.11159777
13	0xbc2862eb	-0.01027749
14	0x3ccdfad8	0.025144026
15	0xbe0aa4da	-0.13539448
16	0xbd236bc5	-0.0398977
17	0x3d3c149f	0.045918103
18	0x3dbe2288	0.0928393
19	0xbd29e1cb	-0.0414751
20	0xbc897573	-0.016779637
21	0xbb3219e5	-0.002717608
22	0x3ceffc8b	0.029295227
23	0xbc32735b	-0.010891761
24	0x3c7742b5	0.015091588
25	0xbcf33a99	-0.029691027
26	0x3dd17cb9	0.10228867
27	0xbd27a551	-0.040929142
28	0x3cd2e4da	0.02574389
29	0xbdeff94a	-0.1171747
30	0xbdb68b76	-0.08913319
31	0x3c8fee96	0.017569821
32	0xbc1de55d	-0.009637204
33	0xbd961654	-0.073284775
34	0x3cce67f0	0.025196046
35	0xbd922c4f	-0.071373574
36	0x3d6967f9	0.05698392
37	0xbd2a78de	-0.041619174
38	0xbd34feb7	-0.044188228
39	0xbcad0b26	-0.02112348
40	0x3d6e4e44	0.05818011
41	0xbe7c6469	-0.24647678
42	0x3d86d020	0.065826654
43	0xbd0b8233	-0.034059715
44	0xbe47eb0f	-0.19523261
45	0xbd223c6a	-0.039608397
46	0xbdbb8b30	-0.09157407
47	0xbdca26f0	-0.09870708
48	0xbb604ae6	-0.003422433
49	0xbe1a09df	-0.15042828
50	0xbda5c30f	-0.08093845
51	0xbc305910	-0.010763422
52	0xbd15c496	-0.036564432
53	0x3d8cf331	0.068823226
54	0xbd2372a5	-0.039904255
55	0x3a4dc123	0.0007848909
56	0xbd71c5b2	-0.059026428
57	0x3d8ea6df	0.06965422
58	0xbc58d755	-0.013234933
59	0xbdbeda0e	-0.093189344
60	0xbdc01310	-0.09378636
61	0xbdca4118	-0.09875697
62	0xbd3b0616	-0.0456601
63	0xbcaa268f	-0.02077034
64	0x3d73d633	0.05953045
65	0xbd8fb303	-0.07016566
66	0xbcc4268c	-0.023944162
67	0xbd00cbaf	-0.031444248
68	0xbd9b56fc	-0.0758495
69	0xbdd17774	-0.10227862
70	0x3db5a67f	0.08869647
71	0x3dcc09b5	0.09962789
72	0x3ccabd2a	0.024748404
73	0xbe1329e0	-0.14371443
74	0xbe00313e	-0.12518784
75	0x3bc94f2f	0.0061434726
76	0xbdab851e	-0.083749995
77	0xbe534889	-0.20633139
78	0xbd134af3	-0.03596015
79	0xbd5b6da7	-0.05357137
80	0xbd50b4a0	-0.050953507
81	0x3d943f02	0.0723858
82	0x3be25fd1	0.006908395
83	0xbc86aada	-0.01643889
84	0xbc498b1a	-0.012301231
85	0xbdad75d7	-0.08469742
86	0xbdbfc46c	-0.093636364
87	0xbcabbe3c	-0.020964734
88	0x3d89ef72	0.06735124
89	0x3de8da6f	0.11369788
90	0x3cdf5ffe	0.027267452
91	0xbe0d9588	-0.13826573
92	0xbb658040	-0.003501907
93	0xbd6a77da	-0.057243206
94	0xbc51c90c	-0.012804281
95	0xbe10e131	-0.14148404
96	0x393a4441	0.00017763769
97	0xbcb88c40	-0.022527814
98	0xbc8ed7d4	-0.0174369
99	0xbdc59e2f	-0.09649312
100	0xbe2ce0f9	-0.16882695
101	0xbd344601	-0.044012073
102	0x3d8127af	0.06306397
103	0xbb5105a2	-0.0031894227
104	0xbdae6a15	-0.08516327
105	0x3d45224e	0.04812842
106	0xbd7a1fd9	-0.06106553
107	0x3da4b0dd	0.080415465
108	0xbe21e429	-0.15809692
109	0xbdc96c51	-0.09835113
110	0xbe01d842	-0.12680152
111	0xbd0d76fd	-0.034537304
112	0xbe3a8e0a	-0.18218246
113	0xbe2c54c7	-0.16829215
114	0xbe08ea95	-0.13370736
115	0x3d932622	0.07185008
116	0xbe050b49	-0.12992586
117	0x3d9c9d4d	0.0764719
118	0x3da20220	0.079105616
119	0xbd5a91f4	-0.053361848
120	0xbdea0f90	-0.114287496
121	0xbd82e40c	-0.06391153
122	0xbd853f40	-0.065062046
123	0xbcceb57a	-0.02523302
124	0xbdb56c46	-0.08858542
125	0xbd8cab73	-0.06868639
126	0xbd01bb58	-0.031672806
127	0xbd9f177d	-0.07768152
128	0x3d81f201	0.06344987
129	0xbcab9af8	-0.020947918
130	0xbcd672cd	-0.026177788
131	0x3d425ae2	0.047449954
132	0xbc870c28	-0.016485289
133	0xbd94aad5	-0.07259146
134	0x3c8f295f	0.017475782
135	0x39b70191	0.00034905647
136	0xbc782ad8	-0.0151469335
137	0xbd8f8ce6	-0.07009296
138	0xbdfad9dd	-0.122485854
139	0x3d206729	0.03916088
140	0x3dad7787	0.08470064
141	0xbd197dfb	-0.03747366
142	0xbd11aa67	-0.0355629
143	0xbd51558b	-0.05110697
144	0xbc1773a8	-0.009243883
145	0xbd178417	-0.036991205
146	0x3c68a462	0.014199348
147	0x3cb79317	0.022409005
148	0xbdc6c4a4	-0.09705475
149	0x3d886080	0.06659031
150	0xbd1c36ac	-0.038138077
151	0xbdcf864b	-0.10133036
152	0xbdb172eb	-0.08664497
153	0xbc6e5993	-0.014547723
154	0x3d437b62	0.04772509
155	0xbc9b153f	-0.01893103
156	0xbc3f3868	-0.011671163
157	0xbcb349ac	-0.021885715
158	0x3d73850a	0.059453048
159	0xbda8bf2a	-0.08239587
160	0xbda2f0fd	-0.07956121
161	0xbc8e4f2e	-0.01737174
162	0x3b8ab89e	0.004233434
163	0xbd0cc54b	-0.03436784
164	0x3d8665e5	0.065624036
165	0x3da3a6f9	0.07990832
166	0x3c820bbf	0.015874742
167	0xbc40750c	-0.011746656
168	0xbd745a7e	-0.059656613
169	0x3dab32ea	0.083593205
170	0xbcbe659c	-0.02324181
171	0xbd586607	-0.052831676
172	0xbd54084c	-0.051765725
173	0x3d0e6dee	0.034772806
174	0xbbb44ee4	-0.0055025686
175	0x3d4503ac	0.048099205
176	0x3bd4efe0	0.006498322
177	0x3d5ace56	0.053419434
178	0xbdf9828f	-0.12183105
179	0x3d1e1253	0.038591694
180	0x3d8a5d21	0.06756044
181	0x3d0a88d6	0.033821903
182	0xbdf32bbd	-0.11873577
183	0xbd4dc0e0	-0.050232768
184	0xbdb9f3be	-0.09079693
185	0xbc2bdd2b	-0.010489742
186	0x3d294fb3	0.041335773
187	0x3d5fe981	0.054666046
188	0xbd9c2dd6	-0.0762593
189	0xbd69272b	-0.05692212
190	0xbdf6da08	-0.12053305
191	0xbd5a41d4	-0.053285435
192	0xbd1baaea	-0.038004793
193	0xbca54114	-0.020172633
194	0x3cd991fc	0.026558869
195	0xbdad3b5e	-0.08458589
196	0x3c9eb41c	0.019372992
197	0xbb426587	-0.0029662566
198	0xbcf17c55	-0.029478231
199	0x3b6be5df	0.0035995168
200	0xbc6bbf30	-0.014388844
201	0x3ca3b01c	0.019981436
202	0xbde49adc	-0.111623496
203	0xbd94ccce	-0.07265626
204	0x3dbd1af8	0.092336595
205	0x3d800b09	0.06252105
206	0x3d042d59	0.03226981
207	0xbd810c28	-0.06301147
208	0xbd77c5aa	-0.06049124
209	0xbd30ca7f	-0.043161865
210	0xbb9f6f17	-0.004865538
211	0xbad74c32	-0.0016425906
212	0xbb23ec89	-0.0025012812
213	0x3d816e00	0.06319809
214	0xbbf9ca05	-0.0076229596
215	0xbd406e9f	-0.046980496
216	0x3da299c5	0.079394855
217	0xbce99d6a	-0.028517444
218	0xbdbabeb3	-0.09118404
219	0x3d9b7663	0.0759094
220	0xbc1121f0	-0.008858189
221	0xbd931c24	-0.07183102
222	0xbd98cfd5	-0.07461516
223	0xbc44159d	-0.011968044
224	0xbd05d236	-0.032671176
225	0xbc8a387f	-0.016872643
226	0x3c138065	0.00900278
227	0x3d91a4e1	0.07111526
228	0xbdaddc0f	-0.084892385
229	0xbdd9cb8a	-0.10634525
230	0x3d5e938e	0.054339938
231	0x3b2187d2	0.0024647606
232	0xbdb70574	-0.08936587
233	0x3c263e03	0.010146621
234	0x3bf50fe4	0.007478701
235	0xbc19b0cf	-0.009380533
236	0xbd837e70	-0.064206004
237	0xbda7db6c	-0.08196148
238	0x3d561794	0.05226858
239	0xbc400533	-0.01171999
240	0xbdc7fd1c	-0.09765074
241	0xbd7485ba	-0.059697844
242	0x3bd33ffb	0.006446836
243	0x3cafdb94	0.021467008
244	0xbce768c3	-0.028248196
245	0xbdee108a	-0.11624248
246	0x3db29fb6	0.08721869
247	0xbcc5f828	-0.024166182
248	0x3e660e12	0.22466305
249	0xbe12fa2c	-0.14353245
250	0x3e475dce	0.19469377
251	0xbea87050	-0.32898188
252	0xbf839810	-1.0280781
253	0x3d0b5bb2	0.034022994
254	0x3e4cf956	0.20016989
255	0x3da3924d	0.07986889

bias f4 [256]
0	0xbda52f4f	-0.08065664
1	0x3cd69b06	0.026196968
2	0xbe1f5993	-0.15561514
3	0xbdb3a996	-0.0877258
4	0x3e6ecce5	0.23320349
5	0x3e8572c7	0.2606413
6	0xbd9ff2b5	-0.078099646
7	0xbd9dd61d	-0.077068545
8	0x3d9d6600	0.076854706
9	0xbd619599	-0.055074308
10	0xbd87d3cd	-0.06632195
11	0x3e45eb2f	0.19327997
12	0x3e13cf42	0.14434531
13	0x3d8b5beb	0.06804641
14	0x3cbcbffd	0.023040766
15	0xbb1fbbb0	-0.0024373345
16	0x3da65b62	0.08122899
17	0xbd6165db	-0.055028778
18	0x3e58298c	0.21109599
19	0xbdd0c363	-0.10193517
20	0x3d8e3064	0.069428235
21	0x3dda0ec4	0.106473476
22	0x3e919696	0.284352
23	0xbd2b764e	-0.04186087
24	0x3e08d05f	0.13360737
25	0xbde70cd2	-0.11281742
26	0x3d781555	0.06056722
27	0xbdf5f172	-0.12008943
28	0xbcd40f05	-0.025886068
29	0x3d0dca6c	0.034616873
30	0x3e6a4b89	0.22880377
31	0x3cd65ea8	0.026168182
32	0x3d38760c	0.045034453
33	0x3d343a9d	0.04400121
34	0x3e89a283	0.268818
35	0xbd2983a4	-0.041385308
36	0x3e362b17	0.17789875
37	0x3e93cbec	0.28866518
38	0x3b4dd57c	0.0031407764
39	0x3e12d843	0.1434031
40	0x3e8efba3	0.2792636
41	0xbe0167b8	-0.12637222
42	0x3e85ea51	0.26155332
43	0x3be44814	0.0069666
44	0xbcfb7f81	-0.030700447
45	0xbd928744	-0.07154706
46	0x3db81cfa	0.08989902
47	0x3a29748c	0.0006464205
48	0xbd2236fe	-0.039603226
49	0x3cc61204	0.024178512
50	0x3caa3184	0.020775564
51	0xbdbb3c70	-0.09142387
52	0x3d30cf5c	0.043166503
53	0xbd9bbbea	-0.07604201
54	0x3e2f457e	0.17116353
55	0xbdb4c582	-0.08826734
56	0xbd3ec6b3	-0.046576213
57	0xbdeba21b	-0.115055285
58	0x3cfdb8db	0.030971935
59	0xbd4deb56	-0.050273262
60	0xbe3e96ce	-0.18612215
61	0x3dace019	0.08441181
62	0xbe6815ec	-0.22664613
63	0x3e74948c	0.23884791
64	0x3e504702	0.20339587
65	0xbb629b6b	-0.00345775
66	0x3e086db4	0.13323098
67	0x3ccdb331	0.02510986
68	0x3e2e7f04	0.1704064
69	0xbe8df3e0	-0.27725124
70	0x3e49bf7c	0.19701952
71	0x3e70f630	0.23531413
72	0xbdec220c	-0.115299314
73	0x3e024b39	0.12724008
74	0x3ea45454	0.32095587
75	0x3b8f36eb	0.0043705604
76	0xbb344b32	-0.002751064
77	0x3dc2438c	0.0948554
78	0xbd6a14df	-0.05714881
79	0x3e5f0523	0.21779303
80	0xbcbd37e5	-0.023097942
81	0xbd7a8e60	-0.061170936
82	0xbdee34b2	-0.116311446
83	0xbd895765	-0.06706122
84	0xbd312a44	-0.0432532
85	0x3e491ab8	0.19639099
86	0x3e2d49ee	0.16922733
87	0x3e07f42a	0.13276735
88	0x3d179293	0.03700502
89	0xbd05a839	-0.032631133
90	0xbccfce5b	-0.025366953
91	0x3e80cfce	0.25158542
92	0x3c14ccf1	0.009082065
93	0xbddde3a7	-0.10834437
94	0x3d721871	0.05910534
95	0x3e8ef5c9	0.27921894
96	0xbdfe93e9	-0.124305554
97	0x3d170551	0.036870304
98	0x3cc971f2	0.024590466
99	0x3d84775c	0.064680785
100	0xbc333b3d	-0.0109394165
101	0x3e06db4f	0.13169597
102	0x3e72ff64	0.23730236
103	0xbe1eb0b3	-0.15497093
104	0x3d7009e1	0.05860317
105	0xbc22067c	-0.009889241
106	0x3e6908e0	0.22757292
107	0xbe0e87cb	-0.13918988
108	0x3e917b0e	0.28414196
109	0x3e709f1e	0.23498198
110	0x3c8c7e5a	0.017150093
111	0x3b6a2380	0.0035726726
112	0xbd913d0a	-0.070917204
113	0xbddc8085	-0.10766701
114	0xbdeb3ad7	-0.11485832
115	0x3e2d8604	0.16945654
116	0x3d1ddde4	0.03854169
117	0x3b627911	0.0034557024
118	0xbe1347c8	-0.14382851
119	0x3d8c1519	0.068399616
120	0xbe06e5cc	-0.13173598
121	0x3e3c5622	0.18392232
122	0xbd213518	-0.039357275
123	0xbcdf7422	-0.027277056
124	0x3d654c94	0.055981234
125	0xbd132c83	-0.03593112
126	0xbd138de7	-0.036024
127	0x3d611eee	0.054961137
128	0xbdcf245e	-0.10114358
129	0x3e989381	0.29800037
130	0xbc0805b6	-0.008302143
131	0xbd666e71	-0.05625767
132	0xbbbc091e	-0.0057383915
133	0xbddc8e7b	-0.107693635
134	0x3e481faa	0.19543329
135	0xbd939ad3	-0.07207265
136	0x3e20fef0	0.15722251
137	0x3db733f7	0.089454584
138	0x3e362f66	0.17791519
139	0x3e61752c	0.22017354
140	0x3d835ff8	0.06414789
141	0x3d35863c	0.04431747
142	0x3dcbfc9a	0.09960289
143	0x3ea2962a	0.3175519
144	0xbbdd8e04	-0.0067613143
145	0xbe01ceb9	-0.12676515
146	0x3ddf6317	0.10907572
147	0xbd0d55df	-0.03450572
148	0xbdae2cb9	-0.08504624
149	0x3da67453	0.08127656
150	0xbd390be9	-0.045177374
151	0xbdf4f903	-0.11961558
152	0x3c1acf08	0.009448774
153	0xbd91463e	-0.07093476
154	0x3e73b123	0.23798041
155	0x3e832875	0.25616804
156	0x3e07dc4b	0.13267629
157	0x3d6a0839	0.057136748
158	0xbd7124ba	-0.058872916
159	0xbda307b6	-0.07960455
160	0x3cebdf28	0.028792933
161	0xbd7a652e	-0.06113165
162	0xbdbb5431	-0.091469176
163	0x3d8e275a	0.069410995
164	0xbdb49c63	-0.08818891
165	0xbdc0f07a	-0.09420867
166	0xbdb9e16e	-0.090762004
167	0x3d3c2970	0.045937955
168	0xbd90ae71	-0.07064522
169	0x3e07ef32	0.1327484
170	0xbd8e1347	-0.069372706
171	0x3a3cd0af	0.0007202727
172	0xbd1f998f	-0.038964804
173	0xbd88d67f	-0.06681537
174	0x3de20228	0.110355675
175	0x3c4a018b	0.012329469
176	0xbe40b01b	-0.18817179
177	0x3e9fa633	0.31181487
178	0x3e038f85	0.12847717
179	0xbd2a49d2	-0.041574307
180	0x3e911eeb	0.283439
181	0x3d507fd9	0.050903175
182	0x3d7f2cbd	0.062298525
183	0x3d9d1905	0.07670788
184	0x3e609181	0.21930505
185	0x3be44b0d	0.0069669546
186	0x3e91792a	0.28412753
187	0xbb42186e	-0.0029616612
188	0xbdaa381b	-0.083114825
189	0xbe20e6ad	-0.15712996
190	0x3d88781b	0.06663533
191	0x3e8c5379	0.27407435
192	0x3ce27cbe	0.027647372
193	0xbcfe45db	-0.031039169
194	0xbd98fda9	-0.07470257
195	0x3e15e7c0	0.14639187
196	0x3e310827	0.17288266
197	0xbd80ea79	-0.06294722
198	0xbde95811	-0.113937505
199	0x3e49a083	0.19690137
200	0x3e83eb7b	0.25765595
201	0xbd748a52	-0.059702225
202	0xbcc61139	-0.024178134
203	0xbdbf786a	-0.09349139
204	0x3d8fc67a	0.07020278
205	0xbd8a5c21	-0.067558534
206	0xbda0cdae	-0.0785173
207	0x3c6fc4b9	0.014634305
208	0xbd0758fd	-0.03304385
209	0x38b16ceb	8.460305e-05
210	0x3e79b73b	0.24386303
211	0xbdc5dd31	-0.096613295
212	0x3e6af829	0.22946228
213	0xbc7fc907	-0.0156118935
214	0x3e8436ff	0.2582321
215	0x3e88cfd2	0.26721054
216	0x3d91344e	0.070900545
217	0x3e0d02ff	0.13770674
218	0xbdccae5c	-0.09994194
219	0xbe6ca37d	-0.23109241
220	0xbda43877	-0.08018582
221	0xbdb310ad	-0.08743415
222	0xbd7beb0d	-0.06150346
223	0x3e064021	0.131104
224	0xbdc582ed	-0.09644113
225	0x3cd15afa	0.025556076
226	0x3e949682	0.29021078
227	0x3d19f021	0.03758252
228	0xbd886b37	-0.066610746
229	0xbe2861df	-0.16443585
230	0x3df9179c	0.12162706
231	0xbe0d6115	-0.13806565
232	0x3c25ee5e	0.010127632
233	0x3e5c2520	0.21498537
234	0x3e2cf2b4	0.16889459
235	0xbdb033d4	-0.086036354
236	0xbe2eb74e	-0.17062113
237	0x3e0bb327	0.1364256
238	0x3e72aedc	0.23699516
239	0x3e8ecf7a	0.27892667
240	0x3db4a4ec	0.08820519
241	0xbd8c0ea6	-0.068387315
242	0x3ca2a13d	0.019852275
243	0x3da9b075	0.0828561
244	0x3e34fc03	0.1767426
245	0x3dc67960	0.09691119
246	0xbdfbe376	-0.12299244
247	0x3e1beb92	0.15226582
248	0x3e94509b	0.28967747
249	0x3df8dee0	0.12151885
250	0x3e5f9fe9	0.21838345
251	0x3dd1f469	0.10251696
252	0x3e1d527d	0.15363498
253	0x3db74795	0.089492
254	0xbc08b819	-0.008344674
255	0x3e0bc0c8	0.13647759
