src/saved_models/grid_world_seed125_8_7_15_42_成了/125_150_model.pt (torch, 702741 bytes, 11 tensors)

FC1.weight f4 [256, 36]
-0.35797685 -0.12048034 0.119687654 0.070702925 -0.17542334 -0.09136023 0.14046308 -0.021836476
0.1426503 -0.30371237 0.34944797 -0.19305669 0.40381244 -0.064786844 0.30453297 -0.05164094
-0.021007625 -0.24261065 -0.2629947 -0.3435213 0.21249828 -0.17960827 0.25924847 -0.27018023
-0.28373986 0.24556755 -0.027436186 -0.0020169977 0.20158966 -0.36042464 -0.013586367 -0.25938773
-0.5096176 0.30879253 -0.010733861 -0.32691124 -0.035705324 -0.27073056 0.038924705 -0.09994972
-0.42530745 -0.7465187 -0.11503821 -0.42313856 -0.051887188 0.08114764 0.4150294 0.009391478
-0.0804519 -0.9690192 -0.04820578 -0.37552536 -0.22311743 -0.4787635 0.10380185 -0.80416155
0.030795187 -0.4484328 0.24819745 -0.303119 -0.14340265 0.307989 -0.7078144 0.2544636
0.16480102 0.12170979 0.1941414 0.05076816 0.34228796 -1.0865448 0.072881065 -0.15652229
0.12217813 -0.10892364 -0.4770316 0.056366403 -0.6886276 0.071453236 -0.4899036 0.0074215746
-0.45898727 -0.3324595 0.51894855 -0.22002853 0.8294241 -0.13126369 -0.4286147 0.06746819
-0.32753918 -0.12322286 -0.9761219 -0.32574895 0.33129025 -0.2120601 -0.34475896 -0.19255674
-0.39149243 0.3568111 -0.48251992 -0.10384774 -0.046580777 -0.0040683434 -0.34021994 -0.031139322
-0.04160874 -0.75488263 -0.59696543 -0.108483896 0.0178604 -0.1566708 -0.025208551 -0.22587024
-0.14296825 -0.34858853 -0.79979753 -0.20852189 0.1448693 -0.010973819 0.2257361 -0.12502262
0.4722968 -0.5047357 -0.60243106 -0.11081587 0.029635904 -0.11594272 -0.0391348 0.07141014
0.037651867 -0.35964674 -0.27454937 -0.12876147 0.15243146 -0.5867613 -0.75304145 0.06784638
0.40145138 0.15778163 -0.06831748 0.033780463 0.0069388184 -0.4502407 0.21175015 -0.012649096
-0.2630611 -0.027597697 0.18547188 0.12785172 0.35970944 0.07573648 -1.4453667 0.027859922
0.11286993 0.17041862 -0.4367273 0.032718997 0.49486262 -0.15596323 -0.3473706 0.05096141
0.044367786 0.20415942 -0.31299168 0.37854427 0.12481388 0.16378164 -0.34915632 0.2371646
0.22770637 -0.7584787 0.28576145 -0.13537094 0.114605255 -0.223377 -0.32473582 -0.1717609
-0.8856755 -0.14214146 0.15825218 -0.11594608 -0.21040906 -0.17534716 0.28689077 -0.040093746
0.30944768 0.062845655 -0.48056403 -0.08831613 0.1763705 -0.32588127 -0.17398381 0.054440215
-0.32992658 -0.12626155 -0.45133078 -0.10400793 0.22564149 -0.12009181 0.3672433 -0.050274402
-0.14470984 0.0028450163 -0.26901263 -0.082961775 0.12071095 -0.39481795 0.831727 0.04053182
0.3484515 -0.13772209 -0.03874819 -0.4490269 0.15029414 -0.642513 -0.21685272 0.15242313
0.34304118 0.13124132 0.16969442 0.14789954 0.064093485 0.29952607 -0.49822253 0.09218824
0.1379685 -0.29115185 0.098494016 0.36906576 0.29718584 0.1691182 -0.08712368 0.14599968
0.043525625 -0.6893771 -0.3738691 0.18913811 -0.07656874 0.042372607 -0.22468166 -0.07325923
0.032527443 -0.052683838 0.52873254 -0.16130733 0.3122737 -0.06175659 -0.074840024 -0.089623526
-0.11626143 0.0158927 -0.3335629 -0.44420388 0.12003934 0.025437279 0.14214298 -0.22304706
00000000: be48 b7be 66be f6bd cd1e f53d b2cc 903d
00000010: 2da2 33be 131b bbbd 8ed5 0f3e 69e2 b2bc
00000020: ec12 123e 3080 9bbe d8ea b23e a7b0 45be
00000030: 81c0 ce3e f7ae 84bd bfeb 9b3e 7385 53bd
00000040: 2f18 acbc ed6e 78be 3ea7 86be 06e2 afbe
00000050: 2699 593e 3beb 37be 37bc 843e 1055 8abe
00000060: 5a46 91be 0f76 7b3e dac1 e0bc 9b2f 04bb
00000070: 856d 4e3e 9489 b8be 5a99 5ebc 78ce 84be
00000080: 4d76 02bf 0e1a 9e3e 13dd 2fbc e960 a7be
00000090: bf3f 12bd 329d 8abe 836f 1f3d 70b2 ccbd
000000a0: e6c1 d9be d91b 3fbf 2799 ebbd 9ea5 d8be
000000b0: a987 54bd bc30 a63d bc7e d43e b7de 193c
000000c0: f7c3 a4bd a411 78bf 6d73 45bd dc44 c0be
000000d0: e578 64be 7d20 f5be 1096 d43d 88dd 4dbf
000000e0: 3046 fc3c fc98 e5be 7927 7e3e 6a32 9bbe
000000f0: 25d8 12be bcb0 9d3e 5333 35bf 0e49 823e
00000100: 99c1 283e fb42 f93d 01cd 463e 46f2 4f3d
00000110: 5e40 af3e e613 8bbf ab42 953d 6147 20be
00000120: 8738 fa3d 5b13 dfbd 7c3d f4be 75e0 663d
00000130: e649 30bf 1356 923d a5d4 fabe ae30 f33b
00000140: 6100 ebbe 2238 aabe d0d9 043f 294f 61be
00000150: 2355 543f fd69 06be 6373 dbbe c32c 8a3d
00000160: 37b3 a7be 445c fcbd 20e3 79bf 91c8 a6be
00000170: e09e a93e 4826 59be 3f84 b0be 982d 45be
00000180: b271 c8be f2af b63e da0c f7be 20ae d4bd
00000190: 7ccb 3ebd bd4f 85bb 4f31 aebe e417 ffbc
000001a0: ed6d 2abd fd3f 41bf bad2 18bf ce2c debd
000001b0: f94f 923c 4f6e 20be 2a82 cebc 874a 67be
000001c0: 4566 12be 327a b2be 88bf 4cbf c386 55be
000001d0: 9e58 143e 88cb 33bc 5d27 673e ee05 00be
000001e0: e3d0 f13e 5c36 01bf ec38 1abf 6ef3 e2bd
000001f0: ffc6 f23c 6073 edbd d04b 20bd 7b3f 923d
00000200: d838 1a3d 9e23 b8be bc91 8cbe 0cda 03be
00000210: fe16 1c3e fd35 16bf 53c7 40bf 0bf3 8a3d
00000220: 098b cd3e 8291 213e 09ea 8bbd 625d 0a3d
00000230: 075f e33b f385 e6be 08d5 583e 273e 4fbc
00000240: f2af 86be 9114 e2bc 57ec 3d3e 90eb 023e
00000250: d62b b83e ba1b 9b3d c701 b9bf 7e3a e43c
00000260: 5a28 e73d 3882 2e3e b89a dfbe 5b04 063d
00000270: a25e fd3e d3b4 1fbe 8fda b1be e9bc 503d
00000280: ffba 353d 2b0f 513e 7240 a0be 8ed0 c13e
00000290: 6b9e ff3d 60b6 273e 9ec4 b2be 47db 723e
000002a0: dc2b 693e a92b 42bf 534f 923e ae9e 0abe
000002b0: 29b6 ea3d f1bc 64be c643 a6be 17e2 2fbe
000002c0: a1bb 62bf 888d 11be dc0c 223e 2375 edbd
000002d0: 7975 57be 358e 33be 59e3 923e 5739 24bd
000002e0: ed6f 9e3e 39b5 803d 7d0c f6be 16df b4bd
000002f0: 789a 343e e9d9 a6be d028 32be b4fc 5e3d
00000300: 23ec a8be b54a 01be d414 e7be 1c02 d5bd
00000310: 900e 673e b2f2 f5bd 5007 bc3e 88ec 4dbd
00000320: d12e 14be 7473 3a3b 06bc 89be dde7 a9bd
00000330: 4d37 f73d 9425 cabe 10ec 543f b204 263d
00000340: 3c68 b23e 0507 0dbe 6cb6 1ebd dbe6 e5be
00000350: b5e6 193e bb7b 24bf a40e 5ebe cf14 1c3e
00000360: 18a3 af3e 2064 063e 60c4 2d3e fa72 173e
00000370: 7243 833d 7b5b 993e 0617 ffbe 30cd bc3d
00000380: 9d47 0d3e db11 95be 3bb7 c93d 30f6 bc3e
00000390: be28 983e 522d 2d3e e66d b2bd f180 153e
000003a0: ed47 323d 057b 30bf c56b bfbe 6cad 413e
000003b0: 12d0 9cbd e68e 2d3d f312 66be ef08 96bd
000003c0: 7f3b 053d 02cb 57bd 045b 073f c02d 25be
000003d0: 57e2 9f3e 7af4 7cbd ba45 99bd 8a8c b7bd
000003e0: 791a eebd 6831 823c c2c8 aabe b16e e3be
000003f0: 2fd7 f53d d761 d03c ee8d 113e 7366 64be

FC1.bias f4 [256]
-0.18107152 0.07140496 -0.021189798 0.12823299 -0.16446489 -0.012561131 -0.21033064 -0.078577824
0.010680562 -0.17614889 0.19614825 -0.19742481 -0.07668 -0.120295994 -0.19921258 -0.009182961
0.018833268 -0.074913405 -0.06968257 -0.08844698 -0.06195467 0.14991799 -0.15850502 -0.2269812
-0.02651217 -0.086302586 0.23971678 -0.048914853 -0.172752 0.059734643 0.0200622 -0.16542888
-0.15247051 0.11209205 -0.048722472 -0.10245047 -0.109193526 -0.023317631 0.3902237 0.08282351
0.32137245 -0.006073217 0.017432077 0.006202132 0.20188656 0.10514436 -0.10813119 -0.2144078
-0.29385138 0.25191307 -0.25944987 -0.24712783 -0.17598733 0.10546801 0.055898786 0.21249007
0.10793224 -0.022196265 0.14215313 -0.07830277 -0.053978276 -0.33409572 0.046844944 0.13572147
-0.07266713 0.053428225 0.2046135 0.17789976 -0.32653582 -0.08733493 0.09240961 -0.05197413
-0.0546415 0.057935715 0.2406916 -0.034099918 -0.097628534 -0.043452337 -0.07386959 -0.33151615
-0.03398652 -0.11321846 -0.112335585 0.18484266 0.07958678 0.08073501 0.028895892 -0.17380583
-0.07573364 -0.14908522 -0.071845666 -0.23786065 -0.028430488 -0.2881683 0.17925824 0.083353795
0.24590778 -0.007690947 0.05277688 -0.09342329 0.32486275 0.16853164 0.17093068 0.16915476
-0.25288945 -0.10521926 0.09438892 -0.17600937 -0.05520672 -0.06647177 -0.2010564 0.06800919
0.079755604 -0.15743317 -0.4000928 -0.06733203 -0.19135848 0.07978635 0.0014216312 -0.06538985
-0.092330866 -0.19523725 -0.078462176 0.20152648 -0.012528367 -0.18734176 0.02670703 0.008124641
0.20960215 -0.11329022 -0.12953344 -0.10970004 -0.14076811 -0.30249482 -0.16904783 -0.20840526
-0.11064233 0.15389535 0.09594981 -0.14108881 -0.22223546 0.09159845 -0.2575029 0.0103547545
0.094808385 -0.04613807 -0.004874719 0.014329175 -0.12178626 0.076032214 -0.05141082 -0.0018549513
-0.088705935 -0.02856939 -0.12935077 -0.15788111 0.16559213 -0.054080956 -0.120703205 0.0462302
-0.20125757 -0.14020836 0.068284824 -0.28723451 0.16789806 0.08208498 0.0040007303 0.044700075
-0.15265718 -0.17856096 0.06294615 -0.30980834 0.17386614 0.30752105 -0.14209922 0.034377165
0.11938106 0.02971417 -0.21288396 -0.067878366 -0.13409448 -0.26418903 0.2793948 0.2665825
0.019563232 -0.039134327 -0.27185142 -0.16344455 0.016038908 -0.011034394 0.0024799576 -0.079206854
-0.24970293 0.17819515 -0.19122984 -0.06821795 -0.030973017 0.10865385 -0.033579286 0.15737529
0.08309556 0.088103294 -0.17552942 0.1696394 -0.10794776 0.09645785 -0.047539324 -0.1079288
0.15593676 -0.3084122 -0.0776621 -0.06258381 0.112588555 -0.22234446 -0.043695066 -0.09173123
-0.06456038 -0.3161317 -0.06772059 0.03222022 0.20300893 -0.037196502 -0.22137064 0.019555379
-0.002642223 0.11135875 -0.11831761 0.0050043245 0.2295752 0.2940516 -0.07149599 -0.14644802
0.15846118 -0.123659655 0.29791683 0.09243033 -0.18325254 -0.18520203 -0.14293702 -0.0476233
-0.06770025 -0.23018184 -0.06381123 -0.07273393 -0.083802454 0.2907083 -0.043141346 0.0006489959
-0.16078308 -0.107111454 0.08718148 0.1860065 -0.15395261 0.21554147 -0.25805038 0.044949092
00000000: d06a 39be c33c 923d 3a96 adbc 824f 033e
00000010: 7c69 28be 34cd 4dbc ea60 57be 69ed a0bd
00000020: 86fd 2e3c 6060 34be 16db 483e bb29 4abe
00000030: 670a 9dbd bf5d f6bd 62fe 4bbe 2174 16bc
00000040: 3a48 9a3c 336c 99bd bcb5 8ebd b123 b5bd
00000050: 2ec4 7dbd 1a84 193e 244f 22be c26d 68be
00000060: 0d30 d9bc 69bf b0bd 5178 753e f15a 48bd
00000070: e6e5 30be 50ac 743d 7c59 a43c 3066 29be
00000080: 3b21 1cbe 8490 e53d 3791 47bd 8dd1 d1bd
00000090: dba0 dfbd 9e04 bfbc 67cb c73e 5f9f a93d
000000a0: ee8a a43e d601 c7bb b7cd 8e3c 413b cb3b
000000b0: 5abb 4e3e ed55 d73d e373 ddbd b88d 5bbe
000000c0: b073 96be c0fa 803e 9dd6 84be 140f 7dbe
000000d0: 0636 34be 9dff d73d 20f6 643d ff96 593e
000000e0: 940b dd3d f1d4 b5bc 9790 113e 345d a0bd
000000f0: 5318 5dbd 980e abbe 7ce0 3f3d 92fa 0a3e
00000100: 81d2 94bd 8ed7 5a3d 3486 513e 5b2b 363e
00000110: b42f a7be a8dc b2bd 4041 bd3d d3e2 54bd
00000120: c4cf 5fbd 004e 6d3d dc77 763e 5bac 0bbd
00000130: 78f1 c7bd 14fb 31bd f148 97bd 7cbc a9be
00000140: 7335 0bbd 14df e7bd 3310 e6bd 6547 3d3e
00000150: 65fe a23d 6658 a53d 14b7 ec3c 28fa 31be
00000160: 3d1a 9bbd cca9 18be d223 93bd be91 73be
00000170: 0ee7 e8bc cc8a 93be 798f 373e 65b5 aa3d
00000180: 40cf 7b3e 5704 fcbb 922c 583d b654 bfbd
00000190: 6954 a63e 8f93 2c3e 7408 2f3e e836 2d3e
000001a0: ba7a 81be 327d d7bd fa4e c13d cd3b 34be
000001b0: 7120 62bd 5a22 88bd bbe1 4dbe 6748 8b3d
000001c0: e856 a33d 2936 21be f7d8 ccbe 60e5 89bd
000001d0: 7af3 43be 0767 a33d 0756 ba3a 1deb 85bd
000001e0: f717 bdbd 46ec 47be c7b0 a0bd f55c 4e3e
000001f0: c843 4dbc 85d6 3fbe b4c8 da3c 371d 053c
00000200: f2a1 563e b404 e8bd 6aa4 04be 6aaa e0bd
00000210: 8425 10be 9ae0 9abe e01a 2dbe 3068 55be
00000220: 7298 e2bd be96 1d3e 5681 c43d 9679 10be
00000230: b191 63be f897 bb3d 6cd7 83be fda6 293c
00000240: e62a c23d 46fb 3cbd 1bbc 9fbb ebc4 6a3c
00000250: 136b f9bd c7b6 9b3d 2794 52bd d621 f3ba
00000260: 75ab b5bd 5a0a eabc 8774 04be 96ab 21be
00000270: fc90 293e fe83 5dbd 3e33 f7bd e15b 3d3d
00000280: 7716 4ebe c892 0fbe ead8 8b3d 6710 93be
00000290: 78ed 2b3e 2c1c a83d 8f18 833b 6d17 373d
000002a0: 2a52 1cbe afd8 36be e9e9 803d 339f 9ebe
000002b0: f709 323e 6673 9d3e 7582 11be 12cf 0c3d
000002c0: 0f7e f43d 226b f33c 41fe 59be d003 8bbd
000002d0: 1050 09be c943 87be d60c 8f3e 807d 883e
000002e0: 1243 a03c 514b 20bd 1c30 8bbe 025e 27be
000002f0: 0764 833c 9ac9 34bc c986 223b 3437 a2bd
00000300: 20b2 7fbe ca78 363e c1d1 43be dab5 8bbd
00000310: 20bb fdbc e985 de3d 6f8a 09bd fd26 213e
00000320: 012e aa3d 806f b43d fcbd 33be f3b5 2d3e
00000330: b713 ddbd b18b c53d 98b8 42bd c609 ddbd
00000340: e3ad 1f3e 34e8 9dbe 4f0d 9fbd f12b 80bd
00000350: d494 e63d 44ae 63be 99f9 32bd 95dd bbbd
00000360: 3c38 84bd 04dc a1be 18b1 8abd 59f9 033d
00000370: 93e1 4f3e 5c5b 18bd fcae 62be 9a32 a03c
00000380: 2529 2dbb 0e10 e43d 8150 f2bd 51fb a33b
00000390: c315 6b3e ee8d 963e 7d6c 92bd 78f6 15be
000003a0: a643 223e 4641 fdbd 8e88 983e 1d4c bd3d
000003b0: 8ea6 3bbe 9aa5 3dbe 155e 12be a610 43bd
000003c0: 6ea6 8abd cab4 6bbe 76af 82bd 87f5 94bd
000003d0: 9fa0 abbd b8d7 943e fbb4 30bd 6121 2a3a
000003e0: 52a4 24be 405d dbbd 348c b23d 7d78 3e3e
000003f0: c1a5 1dbe e7b6 5c3e 2e1f 84be 8a1c 383d

FC2.weight f4 [256, 256]
0.4226663 0.3722254 -0.029136742 -0.2727582 -0.9357737 0.55594766 -0.11315124 1.205678
0.5284454 0.11289784 0.15195107 -0.17505859 0.5288324 0.005832412 -0.46098945 -0.7013018
0.61771566 0.34681284 0.2807743 0.24063087 -0.3219407 0.52329385 0.00803908 0.111029424
0.50758725 -0.10616333 0.083436586 -0.18748742 0.1722161 -0.16439354 0.29092887 0.07713621
-0.098499976 -0.12322736 -0.88616633 -0.50885457 -0.028880898 -0.6703645 -0.15698913 0.27397883
0.20587598 -0.32012138 0.20145296 0.51467055 0.031406656 0.07248658 -0.32052255 0.09784675
0.31429368 0.00013722468 0.6862725 -0.10144545 -0.22224191 0.2736327 0.391367 0.44207162
-0.4055401 0.009093323 0.188826 -0.091777354 -0.3997979 0.6057099 -1.0736185 0.15145399
-0.122863024 -0.42993838 -0.13453619 0.43353587 0.2478569 0.03336129 -0.0035711299 0.31324047
-0.05243296 0.25929353 0.048491985 0.20010178 0.05380881 -0.018903248 -0.50615144 0.47060382
-0.016136143 -0.08990561 -0.06044577 -0.08343717 -0.3099965 -0.13740696 0.58662975 1.0726931
0.351608 0.09935387 0.1925718 -0.12722208 0.19315058 0.15630344 0.23272297 -0.091793
-0.20226659 0.88935983 0.0695629 0.047938827 0.23141252 -0.35256466 0.007461887 -0.42048213
-0.45911273 0.53503776 -0.40092173 -0.43305048 -0.20445922 -0.044246998 0.09608985 0.22939041
0.3121715 0.054014284 0.3070142 0.014887613 -0.2862692 0.531079 0.08475118 0.28642276
0.15046915 -0.08679051 -0.22253574 0.42527023 0.58437854 -0.05754956 0.25869966 0.029771505
0.034475263 0.6807668 0.15368973 0.14644761 -0.21130286 0.45174024 0.675926 0.41848803
-0.13442785 -0.3136897 -0.20955023 -0.3568288 0.18929009 -0.11027883 -0.27008608 0.14571734
0.03241085 0.4964954 0.008442153 -0.09463508 -0.28698057 -0.02998783 -0.022328941 -0.0017350774
0.7483564 -0.29211202 0.018658191 -0.24285895 0.21028669 -0.17470771 0.1196986 -0.37748975
-0.9906915 -0.21020067 -0.031245865 -0.20842056 -0.5399399 -0.13046233 -0.62093765 -1.7725307
0.14067607 0.35305274 0.6634132 0.0642652 -0.9839582 1.1348343 -0.3280433 0.34548524
0.3751612 0.07958542 -0.3534674 0.38261613 0.0058784178 -0.3057458 -0.08492586 -0.041640665
-0.113875255 0.08463833 0.089640096 -0.17482626 0.23338534 -0.46614715 0.23197068 0.7689572
-0.13611804 -0.139168 -0.68179774 -0.20011823 0.20566101 -0.7255015 -0.48427776 -0.028002722
0.11853949 0.90346897 -0.024196355 -0.44801295 -0.4119296 0.09477531 0.3908392 0.1990222
0.107570656 -0.20652544 0.11280203 -0.31963894 1.0762165 -0.20567319 0.4708345 0.33536807
0.20456658 0.55464035 0.027494736 -0.18094897 0.59551054 -0.042448137 -0.4488112 0.14881894
0.17168243 0.28748012 0.29950365 -0.55310404 0.2647128 0.14276555 0.5486456 -0.12830953
0.11890345 0.44201353 0.17692624 -0.33879083 -1.2972909 -0.80457747 0.060621165 -0.040832788
-0.22833398 -0.02500568 0.08420101 0.3601646 -0.4202291 -0.09801877 0.026253328 -0.0012969256
-0.7063334 0.13003628 0.2191083 0.5922415 -0.5122343 0.14828657 0.17834578 -0.005957404
00000000: b867 d83e 5494 be3e 2db0 eebc f6a6 8bbe
00000010: dd8e 6fbf 9652 0e3f d6bb e7bd a853 9a3f
00000020: 3348 073f fc36 e73d 1099 1b3e 8f42 33be
00000030: 8f61 073f d11d bf3b cf06 ecbe 8488 33bf
00000040: 9d22 1e3f 7491 b13e a6c1 8f3e f067 763e
00000050: 69d5 a4be 96f6 053f 58b6 033c 6563 e33d
00000060: 3df1 013f 296c d9bd cde0 aa3d b4fc 3fbe
00000070: 6b59 303e c856 28be a1f4 943e 97f9 9d3d
00000080: 5bba c9bd a05e fcbd ccdb 62bf 4b44 02bf
00000090: a297 ecbc 029d 2bbf c2c1 20be f446 8c3e
000000a0: 27d1 523e f3e6 a3be af49 4e3e 73c1 033f
000000b0: 44a4 003d d873 943d 881b a4be e063 c83d
000000c0: 1aeb a03e f8e3 0f39 8eaf 2f3f a2c2 cfbd
000000d0: 6293 63be 9619 8c3e 4161 c83e 3657 e23e
000000e0: f4a2 cfbe 29fc 143c 9a5b 413e c4f5 bbbd
000000f0: 4fb2 ccbe ce0f 1b3f 556c 89bf c116 1b3e
00000100: 9c9f fbbd e220 dcbe dbc3 09be 6af8 dd3e
00000110: 33ce 7d3e d9a5 083d 9e09 6abb 0e61 a03e
00000120: f2c3 56bd 1fc2 843e 889f 463d 7be7 4c3e
00000130: a066 5c3d fcda 9abc 2493 01bf fcf2 f03e
00000140: f22f 84bc 6f20 b8bd fc95 77bd 1be1 aabd
00000150: dcb7 9ebe 69b4 0cbe 5e2d 163f 024e 893f
00000160: f705 b43e 0b7a cb3d 8b31 453e 8146 02be
00000170: 44c9 453e 020e 203e ee4e 6e3e f8fd bbbd
00000180: f91e 4fbe 16ad 633f fe76 8e3d 815b 443d
00000190: 67f7 6c3e 5b83 b4be d882 f43b 6f49 d7be
000001a0: d310 ebbe 3cf8 083f 9d45 cdbe cbb8 ddbe
000001b0: c25d 51be 573c 35bd c1ca c43d 52e5 6a3e
000001c0: f1d4 9f3e 153e 5d3d f730 9d3e 2deb 733c
000001d0: e091 92be cbf4 073f 0792 ad3d 01a6 923e
000001e0: 9614 1a3e 39bf b1bd 69e0 63be 05bd d93e
000001f0: d599 153f 16b9 6bbd 4874 843e 5fe3 f33c
00000200: ef35 0d3d bc46 2e3f d760 1d3e 5df6 153e
00000210: c75f 58be 7f4a e73e 7d09 2d3f 1044 d63e
00000220: 74a7 09be f09b a0be 5694 56be 44b2 b6be
00000230: 43d5 413e ded9 e1bd b948 8abe ed36 153e
00000240: 3dc1 043d a534 fe3e f550 0a3c 09d0 c1bd
00000250: 1eef 92be 0aa9 f5bc 2feb b6bc 896b e3ba
00000260: 4994 3f3f b58f 95be 10d9 983c 04b0 78be
00000270: 6555 573e 94e6 32be 8a24 f53d 5646 c1be
00000280: f59d 7dbf d83e 57be 54f7 ffbc 336c 55be
00000290: 8039 0abf eb97 05be c5f5 1ebf 49e2 e2bf
000002a0: 630d 103e 54c3 b43e 73d5 293f 799d 833d
000002b0: afe4 7bbf 4042 913f 4bf5 a7be 71e3 b03e
000002c0: 2115 c03e aefd a23d aef9 b4be 43e6 c33e
000002d0: be9f c03b b78a 9cbe 9ced adbd 678f 2abd
000002e0: 6e37 e9bd dc56 ad3d 3a95 b73d a805 33be
000002f0: 91fc 6e3e d7aa eebe b989 6d3e 61da 443f
00000300: 8762 0bbe 0e82 0ebe 4c8a 2ebf cbeb 4cbe
00000310: cd98 523e 77ba 39bf 41f3 f7be f765 e5bc
00000320: d5c4 f23d be49 673f 6f37 c6bc f461 e5be
00000330: 70e8 d2be 8f19 c23d 131c c83e 7acc 4b3e
00000340: 014e dc3d 687b 53be c004 e73d b7a7 a3be
00000350: 76c1 893f fe9b 52be 3811 f13e 5db5 ab3e
00000360: e779 513e e9fc 0d3f a43c e13c b04a 39be
00000370: 6173 183f 19de 2dbd 95ca e5be fe63 183e
00000380: 85cd 2f3e 9830 933e 8b58 993e 3a98 0dbf
00000390: 7088 873e 2231 123e 0a74 0c3f 9363 03be
000003a0: a783 f33d 994f e23e 272c 353e fe75 adbe
000003b0: a10d a6bf caf8 4dbf e64d 783d 4840 27bd
000003c0: 62d0 69be b6d8 ccbc 9471 ac3d 7f67 b83e
000003d0: 4528 d7be 11be c8bd 3811 d73c 9afd a9ba
000003e0: 44d2 34bf 3b28 053e ed5d 603e 249d 173f
000003f0: c921 03bf 6fd8 173e 47a0 363e 5436 c3bb

FC2.bias f4 [256]
-0.06305328 -0.020498555 -0.073658556 0.18894953 -0.14650787 -0.07569934 -0.08154597 -0.18682058
0.03934063 -0.15517956 -0.0294438 0.00049217755 0.14442857 0.24909008 0.12550996 -0.092724755
-0.06252336 -0.036750793 -0.16090646 0.030996079 0.017264053 0.016010193 0.07119155 0.07308896
0.2106145 0.013229296 0.2776768 -0.046767943 -0.053651687 -0.11368785 0.008445861 0.20911299
0.063581735 0.30202308 0.14839181 0.1781555 -0.06689748 0.12873238 0.0715879 -0.2536643
-0.030160863 0.0076434864 0.017716644 -0.13163199 -0.18974845 0.03020168 -0.07977113 -0.07207607
-0.0662172 -0.045458928 -0.033913042 0.10887931 0.22031805 -0.009920893 0.0941503 -0.29787806
0.022542207 -0.07384961 0.036106266 0.18362214 -0.061541624 -0.06439146 0.24780957 -0.08080723
-0.0783804 -0.01895979 0.100155324 0.030547507 -0.050884217 -0.0129400715 0.04326348 0.16991638
-0.08590432 0.012919519 0.0893449 0.005776125 -0.015915921 0.11420163 -0.064221635 0.21286756
-0.030892713 -0.0096583 -0.07484299 0.060233533 0.008604686 -0.3302752 -0.111335345 0.14884843
0.10244406 0.15775622 0.02669394 -0.07714546 0.04879848 -0.08020192 -0.027494116 0.03151835
-0.07388258 0.009970843 0.027415246 0.22439171 -0.04855294 -0.05647326 0.110520266 -0.07546905
-0.06998916 -0.020460522 -0.068370774 0.07751907 -0.20130968 0.190948 0.19946143 -0.12897304
-0.065044664 0.24346966 -0.025369264 -0.09730289 0.0049046753 -0.049680997 0.043369047 -0.018754698
-0.028219061 -0.08341826 0.073317885 0.0068122 -0.00038951146 -0.08890667 -0.1319522 -0.052436043
-0.027065042 0.10421893 -0.013878372 -0.018274536 -0.055395085 0.072190605 -0.11489043 -0.006866743
0.05211355 0.024926627 0.046500046 -0.2141922 0.12556821 -0.053025194 0.035689604 0.027779164
0.02661483 0.06602205 -0.060124718 0.03569474 -0.1449327 -0.31197643 0.19948927 0.013474456
-0.07454828 -0.005688435 -0.07957842 -0.12655032 -0.0843463 0.19842346 0.089887984 -0.030097505
-0.11299746 0.2657736 0.0029664491 -0.06501259 0.042567734 0.004465238 -0.06467921 -0.08669256
0.0009306703 0.17811859 0.17502774 0.23288776 0.19556281 0.03064256 0.2889183 -0.0465193
0.0011340462 -0.06765702 -0.015022694 0.17463021 -0.060548395 0.17124069 -0.07509872 -0.02051878
0.23406327 0.077406526 0.17524911 -0.08767745 -0.020296657 0.26826113 0.27224758 0.048375875
-0.05101907 0.07181208 -0.019346435 0.121289164 0.10506577 0.3464506 -0.05593731 -0.056576468
0.057177696 -0.0034858766 -0.02360168 0.110332355 0.139246 -0.11675514 0.022748118 0.027344994
-0.016891588 0.34108344 0.09252341 0.060373746 0.13535352 0.3536932 -0.04241643 0.14050296
-0.089132726 -0.039929226 -0.120143354 0.40465197 0.083068885 0.13628301 -0.16019149 0.056835007
0.09393017 0.08353827 -0.041939195 0.07033236 -0.02927116 0.051534757 0.038258877 -0.40700787
-0.24136412 0.22117575 -0.078590415 -0.02009118 -0.08583137 0.03270592 0.023487745 -0.05987947
0.17486118 -0.23288119 -0.10359309 0.08911159 -0.032732967 -0.0081058685 0.02527774 0.064992204
0.006809872 -0.07644646 0.019821683 0.12641793 -0.029318383 0.059869304 0.21114454 0.16099308
00000000: 1422 81bd 96ec a7bc 4cda 96bd fc7b 413e
00000010: 2906 16be 4108 9bbd 9301 a7bd e54d 3fbe
00000020: a423 213d 64e7 1ebe 2034 f1bc 7a05 013a
00000030: 15e5 133e 7811 7f3e af85 003e 7ae6 bdbd
00000040: 3f0c 80bd 0088 16bd aac4 24be 7deb fd3c
00000050: 586d 8d3c cf27 833c e0cc 913d aaaf 953d
00000060: 54ab 573e b0bf 583c a72b 8e3e be8f 3fbd
00000070: dfc1 5bbd 2dd5 e8bd 8260 0a3c b721 563e
00000080: 2437 823d c5a2 9a3e 06f4 173e 656e 363e
00000090: 8c01 89bd 6cd2 033e ad9c 923d 4ae0 81be
000000a0: ea13 f7bc 3676 fa3b 7f22 913c 89ca 06be
000000b0: 6b4d 42be 8369 f73c 0c5f a3bd 9e9c 93bd
000000c0: e29c 87bd 2433 3abd 67e8 0abd 1efc de3d
000000d0: 0e9b 613e 3e8b 22bc dfd1 c03d 7983 98be
000000e0: 6faa b83c 773e 97bd 2ae4 133d 7107 3c3e
000000f0: 1213 7cbd abdf 83bd cbc1 7d3e 437e a5bd
00000100: e785 a0bd 9051 9bbc 3c1e cd3d c43e fa3c
00000110: f86b 50bd 9802 54bc 0c35 313d 8ffe 2d3e
00000120: 9bee afbd 64ac 533c 75fa b63d a645 bd3b
00000130: 1b62 82bc 8be2 e93d a286 83bd f4f9 593e
00000140: b712 fdbc d93d 1ebc 4847 99bd 70b7 763d
00000150: abfa 0c3c d519 a9be c903 e4bd b96b 183e
00000160: 31ce d13d d98a 213e 40ad da3c 70fe 9dbd
00000170: eae0 473d e740 a4bd 573b e1bc 6319 013d
00000180: c04f 97bd bf5c 233c f095 e03c f1c6 653e
00000190: 73df 46bd 8150 67bd 7358 e23d 848f 9abd
000001a0: 7a56 8fbd d39c a7bc fa05 8cbd 51c2 9e3d
000001b0: 2024 4ebe df87 433e 9e3f 4c3e 8211 04be
000001c0: 2336 85bd 1c50 793e 34d3 cfbc bd46 c7bd
000001d0: 66b7 a03b 4d7e 4bbd bea3 313d 74a3 99bc
000001e0: a92b e7bc 31d7 aabd b027 963d e038 df3b
000001f0: 5837 ccb9 b314 b6bd 7a1e 07be 2dc7 56bd
00000200: 82b7 ddbc bc70 d53d 1c62 63bc 7bb4 95bc
00000210: f5e5 62bd abd8 933d ac4b ebbd 6a02 e1bb
00000220: 0575 553d ed32 cc3c d576 3e3d 3355 5bbe
00000230: f494 003e f230 59bd 432f 123d 2191 e33c
00000240: 5807 da3c 9236 873d 5645 76bd a634 123d
00000250: 3d69 14be 60bb 9fbe ea46 4c3e f7c3 5c3c
00000260: c5ac 98bd 0d66 babb 03fa a2bd 6896 01be
00000270: c1bd acbd 852f 4b3e 3117 b83d 0b8f f6bc
00000280: 366b e7bd 7a13 883e c268 423b 5225 85bd
00000290: 815b 2e3d 2251 923b 8976 84bd de8b b1bd
000002a0: 3af8 733a b864 363e 793a 333e 217a 6e3e
000002b0: 9e41 483e 1b06 fb3c 19ed 933e 068b 3ebd
000002c0: 47a4 943a c48f 8abd bf21 76bc 43d2 323e
000002d0: 9801 78bd b859 2f3e 5ccd 99bd 0017 a8bc
000002e0: 48ae 6f3e 5087 9e3d 8174 333e 3c90 b3bd
000002f0: 2d45 a6bc 8659 893e 0964 8b3e c825 463d
00000300: 5ff9 50bd 3612 933d 6a7c 9ebc 7466 f83d
00000310: b92c d73d f961 b13e 851e 65bd babc 67bd
00000320: 2933 6a3d 4e73 64bb 4f58 c1bc eef5 e13d
00000330: 8196 0e3e 521d efbd 435a ba3c 9c02 e03c
00000340: 3a60 8abc 7da2 ae3e ea7c bd3d 764a 773d
00000350: 1d9a 0a3e 4617 b53e dabc 2dbd 02e0 0f3e
00000360: 388b b6bd d48c 23bd b80d f6bd 8b2e cf3e
00000370: 0520 aa3d c68d 0b3e 3d09 24be d3cb 683d
00000380: 765e c03d 1d16 ab3d 6fc8 2bbd 6a0a 903d
00000390: 12ca efbc 1c16 533d 57b5 1c3d 5663 d0be
000003a0: 2828 77be e57b 623e 03f4 a0bd 4296 a4bc
000003b0: 5bc8 afbd a5f6 053d 5f69 c03c 2d44 75bd
000003c0: cf0e 333e 6878 6ebe 9d28 d4bd 2380 b63d
000003d0: 0113 06bd 7ace 04bc 4313 cf3c a21a 853d
000003e0: 5925 df3b f68f 9cbd 1561 a23c b473 013e
000003f0: 1b2d f0bc 8439 753d 4636 583e 5fdb 243e

action_out.weight f4 [5, 256]
0.49373493 -0.06853215 -0.8563593 -1.1832705 -0.20296971 -0.057280596 -0.03281181 -0.22963792
-0.44658262 -0.17352132 -0.00036429576 -0.5495843 0.28746918 -1.6686085 0.05604663 0.5432612
0.018542787 0.0047156415 -0.5923923 -0.036651112 -0.40938368 -0.07844631 -0.40259847 0.18838495
-0.11476926 -0.05047903 -0.60343593 0.012199564 -0.76484776 -0.9352859 -1.4814065 0.31969002
-0.9813291 0.7024425 0.5018838 0.1834762 0.013817464 0.08782412 0.5790772 -0.069546364
0.3153155 -0.47668505 0.55671155 -0.07904943 -0.6804325 -0.08681085 -0.055183902 0.010705908
0.047656164 -0.0024953012 -0.7777437 0.27673727 0.13023135 0.041769113 0.27519643 0.34594014
-0.40781307 -0.5700982 -0.60537547 -0.12842253 -0.062162735 -0.033143785 -1.2180526 -0.037946284
0.18567917 0.03748233 -0.80954665 -0.4735511 0.033448406 -0.049222622 0.7859922 -0.011450139
-0.41492742 -0.49288395 -1.2912637 -0.07339036 0.63547915 -0.67163503 -1.0383941 -0.030649373
-0.0492764 0.033930045 0.004462266 -0.249472 0.5930431 -0.8332219 -0.05432705 -0.009626107
-0.6538451 -0.6472529 0.3036883 0.05647234 0.7076833 0.0013058999 0.15754409 -0.019958284
-0.23197454 0.6166228 -0.076550595 -0.2695899 -0.17012993 -0.016982151 -0.27434796 0.051704302
-1.2682538 -0.017399866 0.6285939 -0.88321507 0.43074876 0.8295493 0.31048164 -0.07358007
0.052272025 -0.04217358 -0.07607838 -0.04246957 -0.08774156 -0.02479081 -0.61613333 -0.010249317
0.22119421 0.017299376 -0.58702636 -0.7163929 0.43758634 0.032240517 -0.860887 0.04863862
0.30032924 -0.25009802 -0.30453297 -0.5753169 -0.024533456 -0.1423579 -0.13180742 0.28897604
-1.2345272 -0.80359614 -0.62576956 -1.0868229 0.1050811 -0.0044589327 -0.31810033 -0.36111227
-0.71907145 -0.16089632 -0.3913304 0.1274936 -0.3824345 -0.28378534 0.51194364 -0.022033505
0.030505648 -0.0035261477 -0.009768686 -1.1496028 0.0121363085 0.544628 -0.9345349 0.039582945
-0.10754227 -1.0731997 -1.3828515 0.4168455 -0.14145146 -0.040604513 0.063936755 0.6427453
0.0068642916 0.99998724 -0.70353395 0.6760582 0.09549445 0.5449366 -0.4678551 0.053473793
0.010045331 0.0036167307 -0.85080427 0.06991721 0.05162674 0.10145888 0.2333478 -0.5970914
-0.16846772 0.45253274 0.5600518 -0.05179149 0.29923016 -1.3817174 -0.38685688 -0.7947014
0.006223432 0.09405314 -0.2963766 0.1696114 -0.9184547 -0.53662395 -0.12294619 -0.052527294
0.29279265 -0.16625315 -0.08174324 0.07207984 -0.42937738 0.12822415 -0.061109547 0.06151399
-0.011782512 -0.6056293 -0.11066577 0.24333608 -0.2728397 -0.3701208 0.036333248 -0.86579096
-0.03801349 -0.40561977 -0.8286183 -0.5049455 -0.4479383 0.1296945 0.20729423 -0.44391736
-0.75245976 -0.23727606 -0.34268034 0.03409655 0.018081285 0.09000769 -0.9999306 0.034301296
-0.26508078 -0.03126888 0.20741092 0.049671397 0.29216975 0.3010229 0.28016907 -0.086628556
-0.39741167 -1.1607977 -0.017381005 -0.040356718 0.016727686 -0.03936648 -0.8977054 0.282495
-0.033523634 0.050120607 0.06996835 -0.8986544 0.27332523 -0.8789657 0.9544314 -0.61735684
00000000: d3ca fc3e 955a 8cbd 5d3a 5bbf 6875 97bf
00000010: 4bd7 4fbe 0f9f 6abd ad65 06bd 3426 6bbe
00000020: 7aa6 e4be 93af 31be f3fe beb9 8fb1 0cbf
00000030: 292f 933e f794 d5bf 2791 653d 2a13 0b3f
00000040: 0be7 973c ab85 9a3b 06a7 17bf 7a1f 16bd
00000050: bd9a d1be 75a8 a0bd 6321 cebe fce7 403e
00000060: 250c ebbd 19c3 4ebd c77a 1abf aee0 473c
00000070: 10cd 43bf e66e 6fbf ba9e bdbf 69ae a33e
00000080: 6238 7bbf 46d3 333f 757b 003f 2fe1 3b3e
00000090: a562 623c 22dd b33d 673e 143f 536e 8ebd
000000a0: 0971 a13e 1010 f4be a684 0e3f abe4 a1bd
000000b0: d330 2ebf e3c9 b1bd 8408 62bd d567 2f3c
000000c0: 1c33 433d 3588 23bb 361a 47bf 82b0 8d3e
000000d0: 5e5b 053e 1716 2b3d 8ce6 8c3e 111f b13e
000000e0: e0cc d0be f5f1 11bf e3f9 1abf 3281 03be
000000f0: 5a9e 7ebd c7c1 07bd 26e9 9bbf 906d 1bbd
00000100: ae22 3e3e 1287 193d 733e 4fbf 4a75 f2be
00000110: 3201 093d a99d 49bd c936 493f 5d99 3bbc
00000120: 5e71 d4be 495b fcbe 2148 a5bf af4d 96bd
00000130: c3ae 223f 46f0 2bbf 19ea 84bf 6514 fbbc
00000140: 0dd6 49bd 3bfa 0a3d 3338 923b 9775 7fbe
00000150: acd1 173f 084e 55bf 0a86 5ebd d2b6 1dbc
00000160: 6462 27bf 5eb2 25bf 087d 9b3e 8a4f 673d
00000170: bc2a 353f bb2a ab3a 3d53 213e 8e7f a3bc
00000180: bc8a 6dbe feda 1d3f 8fc6 9cbd b007 8abe
00000190: 8a36 2ebe 271e 8bbc 5677 8cbe e4c7 533d
000001a0: 2456 a2bf 2a8a 8ebc 88eb 203f 621a 62bf
000001b0: 1a8b dc3e 585d 543f 73f7 9e3e 26b1 96bd
000001c0: 311b 563d 34be 2cbd fbce 9bbd 92f4 2dbd
000001d0: d9b1 b3bd 1916 cbbc eaba 1dbf c0ec 27bc
000001e0: bc80 623e 6cb7 8d3c 5c47 16bf 8665 37bf
000001f0: 510b e03e a20e 043d 1763 5cbf 4a39 473d
00000200: c1c4 993e d90c 80be bfeb 9bbe f847 13bf
00000210: 63fa c8bc 45c6 11be 86f8 06be abf4 933e
00000220: fd04 9ebf 7ab8 4dbf 6f32 20bf 031d 8bbf
00000230: c234 d73d 3d1c 92bb 0cde a2be b5e3 b8be
00000240: 1115 38bf 01c2 24be 755c c8be af8d 023e
00000250: 74ce c3be 504c 91be bd0e 033f 9c7f b4bc
00000260: fbe6 f93c f116 67bb d70c 20bc 2f26 93bf
00000270: 5ed7 463c be6c 0b3f ae3d 6fbf ba21 223d
00000280: 1f3f dcbd 9c5e 89bf 4701 b1bf c66c d53e
00000290: a7d8 10be eb50 26bd 46f1 823d f58a 243f
000002a0: daed e03b 2aff 7f3f cd1a 34bf 2612 2d3f
000002b0: 9892 c33d f780 0b3f b48a efbe 5607 5b3d
000002c0: 2c95 243c ac06 6d3b 4fce 59bf c130 8f3d
000002d0: 8f76 533d acc9 cf3d baf2 6e3e fbda 18bf
000002e0: cd82 2cbe 5fb2 e73e 8e5f 0f3f 5023 54bd
000002f0: b234 993e 1edc b0bf 1b12 c6be 8d71 4bbf
00000300: eeed cb3b ef9e c03d acbe 97be 9cae 2d3e
00000310: d91f 6bbf 3060 09bf 36cb fbbd dc26 57bd
00000320: ebe8 953e 443e 2abe 0069 a7bd 989e 933d
00000330: 5ad7 dbbe 314d 033e 014e 7abd 18f6 7b3d
00000340: 700b 41bc 860a 1bbf bca4 e2bd 182d 793e
00000350: a5b1 8bbe 7980 bdbe 2cd2 143d 7aa4 5dbf
00000360: 09b4 1bbd 65ad cfbe 5420 54bf 1c44 01bf
00000370: 2b58 e5be a3ce 043e f044 543e 2349 e3be
00000380: 34a1 40bf 7ff8 72be cc73 afbe d3a8 0b3d
00000390: 341f 943c f455 b83d 74fb 7fbf 847f 0c3d
000003a0: abb8 87be cc13 00bd 8763 543e 3c74 4b3d
000003b0: 4697 953e ac1f 9a3e 5272 8f3e 506a b1bd
000003c0: 8b79 cbbe 0595 94bf 9c62 8ebc 164d 25bd
000003d0: 8008 893c bf3e 21bd 05d0 65bf 2fa3 903e
000003e0: 1450 09bd 444b 4d3d 914b 8f3d 370e 66bf
000003f0: 49f1 8b3e e503 61bf 9e55 743f 190b 1ebf

action_out.bias f4 [5]
0.40251675 0.00617799 -0.019725721 0.215995 -0.20994449
00000000: ad16 ce3e bd70 ca3b d697 a1bc cb2d 5d3e
00000010: b0fb 56be

weight f4 [256, 123]
0.03758747 -0.12328058 0.07169626 -0.059070524 0.08220065 -0.16683647 0.038791995 -0.08508939
-0.10101879 0.049033307 -0.023556903 -0.020501008 -0.11159777 -0.01027749 0.025144026 -0.13539448
-0.0398977 0.045918103 0.0928393 -0.0414751 -0.016779637 -0.002717608 0.029295227 -0.010891761
0.015091588 -0.029691027 0.10228867 -0.040929142 0.02574389 -0.1171747 -0.08913319 0.017569821
-0.009637204 -0.073284775 0.025196046 -0.071373574 0.05698392 -0.041619174 -0.044188228 -0.02112348
0.05818011 -0.24647678 0.065826654 -0.034059715 -0.19523261 -0.039608397 -0.09157407 -0.09870708
-0.003422433 -0.15042828 -0.08093845 -0.010763422 -0.036564432 0.068823226 -0.039904255 0.0007848909
-0.059026428 0.06965422 -0.013234933 -0.093189344 -0.09378636 -0.09875697 -0.0456601 -0.02077034
0.05953045 -0.07016566 -0.023944162 -0.031444248 -0.0758495 -0.10227862 0.08869647 0.09962789
0.024748404 -0.14371443 -0.12518784 0.0061434726 -0.083749995 -0.20633139 -0.03596015 -0.05357137
-0.050953507 0.0723858 0.006908395 -0.01643889 -0.012301231 -0.08469742 -0.093636364 -0.020964734
0.06735124 0.11369788 0.027267452 -0.13826573 -0.003501907 -0.057243206 -0.012804281 -0.14148404
0.00017763769 -0.022527814 -0.0174369 -0.09649312 -0.16882695 -0.044012073 0.06306397 -0.0031894227
-0.08516327 0.04812842 -0.06106553 0.080415465 -0.15809692 -0.09835113 -0.12680152 -0.034537304
-0.18218246 -0.16829215 -0.13370736 0.07185008 -0.12992586 0.0764719 0.079105616 -0.053361848
-0.114287496 -0.06391153 -0.065062046 -0.02523302 -0.08858542 -0.06868639 -0.031672806 -0.07768152
0.06344987 -0.020947918 -0.026177788 0.047449954 -0.016485289 -0.07259146 0.017475782 0.00034905647
-0.0151469335 -0.07009296 -0.122485854 0.03916088 0.08470064 -0.03747366 -0.0355629 -0.05110697
-0.009243883 -0.036991205 0.014199348 0.022409005 -0.09705475 0.06659031 -0.038138077 -0.10133036
-0.08664497 -0.014547723 0.04772509 -0.01893103 -0.011671163 -0.021885715 0.059453048 -0.08239587
-0.07956121 -0.01737174 0.004233434 -0.03436784 0.065624036 0.07990832 0.015874742 -0.011746656
-0.059656613 0.083593205 -0.02324181 -0.052831676 -0.051765725 0.034772806 -0.0055025686 0.048099205
0.006498322 0.053419434 -0.12183105 0.038591694 0.06756044 0.033821903 -0.11873577 -0.050232768
-0.09079693 -0.010489742 0.041335773 0.054666046 -0.0762593 -0.05692212 -0.12053305 -0.053285435
-0.038004793 -0.020172633 0.026558869 -0.08458589 0.019372992 -0.0029662566 -0.029478231 0.0035995168
-0.014388844 0.019981436 -0.111623496 -0.07265626 0.092336595 0.06252105 0.03226981 -0.06301147
-0.06049124 -0.043161865 -0.004865538 -0.0016425906 -0.0025012812 0.06319809 -0.0076229596 -0.046980496
0.079394855 -0.028517444 -0.09118404 0.0759094 -0.008858189 -0.07183102 -0.07461516 -0.011968044
-0.032671176 -0.016872643 0.00900278 0.07111526 -0.084892385 -0.10634525 0.054339938 0.0024647606
-0.08936587 0.010146621 0.007478701 -0.009380533 -0.064206004 -0.08196148 0.05226858 -0.01171999
-0.09765074 -0.059697844 0.006446836 0.021467008 -0.028248196 -0.11624248 0.090448216 -0.02296308
0.22602144 -0.14232934 0.19605216 -0.327565 -0.99206537 0.03520018 0.20002407 0.07986889
00000000: 52f5 193d 877a fcbd 7dd5 923d eff3 71bd
00000010: d058 a83d 2ed7 2abe 5be4 1e3d 5943 aebd
00000020: f0e2 cebd 26d7 483d 68fa c0bc bbf1 a7bc
00000030: 5f8d e4bd eb62 28bc d8fa cd3c daa4 0abe
00000040: c56b 23bd 9f14 3c3d 8822 be3d cbe1 29bd
00000050: 7375 89bc e519 32bb 8bfc ef3c 5b73 32bc
00000060: b542 773c 993a f3bc b97c d13d 51a5 27bd
00000070: dae4 d23c 4af9 efbd 768b b6bd 96ee 8f3c
00000080: 5de5 1dbc 5416 96bd f067 ce3c 4f2c 92bd
00000090: f967 693d de78 2abd b7fe 34bd 260b adbc
000000a0: 444e 6e3d 6964 7cbe 20d0 863d 3382 0bbd
000000b0: 0feb 47be 6a3c 22bd 308b bbbd f026 cabd
000000c0: e64a 60bb df09 1abe 0fc3 a5bd 1059 30bc
000000d0: 96c4 15bd 31f3 8c3d a572 23bd 23c1 4d3a
000000e0: b2c5 71bd dfa6 8e3d 55d7 58bc 0eda bebd
000000f0: 1013 c0bd 1841 cabd 1606 3bbd 8f26 aabc
00000100: 33d6 733d 03b3 8fbd 8c26 c4bc afcb 00bd
00000110: fc56 9bbd 7477 d1bd 7fa6 b53d b509 cc3d
00000120: 2abd ca3c e029 13be 3e31 00be 2f4f c93b
00000130: 1e85 abbd 8948 53be f34a 13bd a76d 5bbd
00000140: a0b4 50bd 023f 943d d15f e23b daaa 86bc
00000150: 1a8b 49bc d775 adbd 6cc4 bfbd 3cbe abbc
00000160: 72ef 893d 6fda e83d fe5f df3c 8895 0dbe
00000170: 4080 65bb da77 6abd 0cc9 51bc 31e1 10be
00000180: 4144 3a39 408c b8bc d4d7 8ebc 2f9e c5bd
00000190: f9e0 2cbe 0146 34bd af27 813d a205 51bb
000001a0: 156a aebd 4e22 453d d91f 7abd ddb0 a43d
000001b0: 29e4 21be 516c c9bd 42d8 01be fd76 0dbd
000001c0: 0a8e 3abe c754 2cbe 95ea 08be 2226 933d
000001d0: 490b 05be 4d9d 9c3d 2002 a23d f491 5abd
000001e0: 900f eabd 0ce4 82bd 403f 85bd 7ab5 cebc
000001f0: 466c b5bd 73ab 8cbd 58bb 01bd 7d17 9fbd
00000200: 01f2 813d f89a abbc cd72 d6bc e25a 423d
00000210: 280c 87bc d5aa 94bd 5f29 8f3c 9101 b739
00000220: d82a 78bc e68c 8fbd ddd9 fabd 2967 203d
00000230: 8777 ad3d fb7d 19bd 67aa 11bd 8b55 51bd
00000240: a873 17bc 1784 17bd 62a4 683c 1793 b73c
00000250: a4c4 c6bd 8060 883d ac36 1cbd 4b86 cfbd
00000260: eb72 b1bd 9359 6ebc 627b 433d 3f15 9bbc
00000270: 6838 3fbc ac49 b3bc 0a85 733d 2abf a8bd
00000280: fdf0 a2bd 2e4f 8ebc 9eb8 8a3b 4bc5 0cbd
00000290: e565 863d f9a6 a33d bf0b 823c 0c75 40bc
000002a0: 7e5a 74bd ea32 ab3d 9c65 bebc 0766 58bd
000002b0: 4c08 54bd ee6d 0e3d e44e b4bb ac03 453d
000002c0: e0ef d43b 56ce 5a3d 8f82 f9bd 5312 1e3d
000002d0: 215d 8a3d d688 0a3d bd2b f3bd e0c0 4dbd
000002e0: bef3 b9bd 2bdd 2bbc b34f 293d 81e9 5f3d
000002f0: d62d 9cbd 2b27 69bd 08da f6bd d441 5abd
00000300: eaaa 1bbd 1441 a5bc fc91 d93c 5e3b adbd
00000310: 1cb4 9e3c 8765 42bb 557c f1bc dfe5 6b3b
00000320: 30bf 6bbc 1cb0 a33c dc9a e4bd cecc 94bd
00000330: f81a bd3d 090b 803d 592d 043d 280c 81bd
00000340: aac5 77bd 7fca 30bd 176f 9fbb 324c d7ba
00000350: 89ec 23bb 006e 813d 05ca f9bb 9f6e 40bd
00000360: c599 a23d 6a9d e9bc b3be babd 6376 9b3d
00000370: f021 11bc 241c 93bd d5cf 98bd 9d15 44bc
00000380: 36d2 05bd 7f38 8abc 6580 133c e1a4 913d
00000390: 0fdc adbd 8acb d9bd 8e93 5e3d d287 213b
000003a0: 7405 b7bd 033e 263c e40f f53b cfb0 19bc
000003b0: 707e 83bd 6cdb a7bd 9417 563d 3305 40bc
000003c0: 1cfd c7bd ba85 74bd fb3f d33b 94db af3c
000003d0: c368 e7bc 8a10 eebd ea3c b93d 121d bcbc
000003e0: 2a72 673e c8be 11be e6c1 483e 9ab6 a7be
000003f0: fff7 7dbf 102e 103d 1cd3 4c3e 4d92 a33d

bias f4 [256]
-0.08065664 0.026196968 -0.15196475 -0.0877258 0.2314765 0.2613059 -0.07342649 -0.077068545
0.07488079 -0.06312335 -0.06632195 0.1932313 0.14448929 0.06804641 0.023040766 -0.007925485
0.07817684 -0.055028778 0.20902278 -0.10193517 0.07225578 0.10616644 0.28223923 -0.042005397
0.13182606 -0.11281742 0.06056722 -0.12008943 -0.025886068 0.034616873 0.22661789 0.026168182
0.045475684 0.036571514 0.26854482 -0.041385308 0.17572506 0.28679344 0.0028275666 0.14010225
0.27725375 -0.12637222 0.25936115 0.0069666 -0.030700447 -0.07386414 0.09037757 -0.0014978228
-0.039603226 0.026558207 0.020775564 -0.09142387 0.043166503 -0.07604201 0.16865365 -0.08746134
-0.046576213 -0.115055285 0.034025636 -0.050273262 -0.18560286 0.0846965 -0.22799088 0.23990807
0.20280938 -0.007988714 0.13055836 0.02510986 0.16954377 -0.2725763 0.19104381 0.23291487
-0.13322286 0.12117958 0.3204612 0.0014068886 -0.002751064 0.094570875 -0.05274999 0.21664694
-0.025437726 -0.061170936 -0.11445295 -0.06706122 -0.0432532 0.19513704 0.17231637 0.13162173
0.03700502 -0.036117066 -0.025366953 0.252132 0.009082065 -0.105429724 0.057738274 0.27729204
-0.124305554 0.036870304 0.024590466 0.0651701 -0.0109394165 0.12823036 0.23762809 -0.15515956
0.06248732 -0.009889241 0.23142837 -0.13918988 0.28249136 0.23393472 0.017150093 0.006268266
-0.070917204 -0.10614437 -0.11485832 0.16704991 0.037262578 0.0034557024 -0.13879594 0.06969342
-0.13091719 0.1830874 -0.034368258 -0.027277056 0.055981234 -0.03593112 -0.036024 0.050607625
-0.10114358 0.29591018 -0.005217556 -0.05625767 0.0013677244 -0.107693635 0.19183815 -0.07207265
0.15637307 0.09124573 0.1761842 0.2182202 0.06799533 0.04431747 0.105782725 0.3142888
-0.0067613143 -0.124149315 0.104323864 -0.03450572 -0.08539916 0.08087499 -0.044765983 -0.11961558
0.009448774 -0.07093476 0.23664841 0.2542281 0.13167831 0.057034522 -0.058872916 -0.07960455
0.029278168 -0.06113165 -0.091469176 0.06611876 -0.08818891 -0.09420867 -0.0849102 0.04905778
-0.06590638 0.1277699 -0.069372706 -0.0005756679 -0.038964804 -0.06685696 0.102442905 0.015372634
-0.18516846 0.30974782 0.12885359 -0.041574307 0.2819336 0.045554213 0.058063373 0.07629561
0.22050062 0.0069669546 0.28217673 -0.00034846217 -0.079411805 -0.15523362 0.059365146 0.27159283
0.027647372 -0.027438294 -0.07470257 0.15358427 0.17516287 -0.06294722 -0.11108947 0.19488928
0.25497413 -0.057973623 -0.027337832 -0.09349139 0.07020278 -0.067558534 -0.0785173 0.014634305
-0.03304385 8.460305e-05 0.24211513 -0.091702305 0.22815022 -0.017615903 0.25673568 0.2654584
0.070900545 0.1336243 -0.09994194 -0.22903666 -0.08018582 -0.08743415 -0.05781908 0.12846631
-0.09644113 0.024943018 0.2903702 0.031689286 -0.066610746 -0.16886824 0.121624336 -0.13406269
0.010127632 0.21511044 0.16617805 -0.0823325 -0.16954763 0.13264365 0.23647891 0.27708307
0.08782252 -0.068387315 0.019852275 0.080468774 0.17499088 0.100667104 -0.12299244 0.14956293
0.28766072 0.12280748 0.21582659 0.10202551 0.1535033 0.09115954 -0.008912885 0.13410883
00000000: 4f2f a5bd 069b d63c a69c 1bbe 96a9 b3bd
00000010: 2d08 6d3e e3c9 853e a160 96bd 1dd6 9dbd
00000020: 1a5b 993d d146 81bd cdd3 87bd 6dde 453e
00000030: 00f5 133e eb5b 8b3d fdbf bc3c e5d9 01bc
00000040: 2e1b a03d db65 61bd 110a 563e 63c3 d0bd
00000050: d7fa 933d ca6d d93d a981 903e da0d 2cbd
00000060: 69fd 063e d20c e7bd 5515 783d 72f1 f5bd
00000070: 050f d4bc 6cca 0d3d 850e 683e a85e d63c
00000080: b644 3a3d 03cc 153d b57e 893e a483 29bd
00000090: 45f1 333e 97d6 923e b24e 393b f776 0f3e
000000a0: 34f4 8d3e b867 01be fcca 843e 1448 e43b
000000b0: 817f fbbc 1546 97bd e017 b93d 9852 c4ba
000000c0: fe36 22bd 9990 d93c 8431 aa3c 703c bbbd
000000d0: 5ccf 303d eabb 9bbd 8bb3 2c3e ee1e b3bd
000000e0: b3c6 3ebd 1ba2 ebbd 775e 0b3d 56eb 4dbd
000000f0: ad0e 3ebe 5c75 ad3d 7176 69be 76aa 753e
00000100: 43ad 4f3e 18e3 02bc 17b1 053e 31b3 cd3c
00000110: e29c 2d3e 1f8f 8bbe fda0 433e 3c81 6e3e
00000120: 936b 08be 002d f83d 7e13 a43e 5967 b83a
00000130: 324b 34bb 60ae c13d 6010 58bd b2d8 5d3e
00000140: c762 d0bc 608e 7abd 4f66 eabd 6557 89bd
00000150: 442a 31bd 01d2 473e b473 303e d9c7 063e
00000160: 9392 173d 7def 13bd 5bce cfbc 7217 813e
00000170: f1cc 143c 8aeb d7bd f87e 6c3d 39f9 8d3e
00000180: e993 febd 5105 173d f271 c93c e777 853d
00000190: 3d3b 33bc d24e 033e c754 733e 26e2 1ebe
000001a0: b4f2 7f3d 7c06 22bc 8ffb 6c3e cb87 0ebe
000001b0: b5a2 903e 958c 6f3e 5a7e 8c3c 0766 cd3b
000001c0: 0a3d 91bd 3862 d9bd d73a ebbd 220f 2b3e
000001d0: a5a0 183d 1179 623b 8620 0ebe 6cbb 8e3d
000001e0: 280f 06be 437b 3b3e bbc5 0cbd 2274 dfbc
000001f0: 944c 653d 832c 13bd e78d 13bd f149 4f3d
00000200: 5e24 cfbd 8a81 973e 08f8 aabb 716e 66bd
00000210: 3745 b33a 7b8e dcbd 3871 443e d39a 93bd
00000220: 4320 203e 0bdf ba3d a269 343e 1e75 5f3e
00000230: 2341 8b3d 3c86 353d 9da4 d83d 76ea a03e
00000240: 048e ddbb ff41 febd c0a7 d53d df55 0dbd
00000250: c1e5 aebd c9a1 a53d 895c 37bd 03f9 f4bd
00000260: 08cf 1a3c 3e46 91bd f653 723e 2f2a 823e
00000270: aed6 063e 089d 693d ba24 71bd b607 a3bd
00000280: c5d8 ef3c 2e65 7abd 3154 bbbd 4669 873d
00000290: 639c b4bd 7af0 c0bd 66e5 adbd d0f0 483d
000002a0: edf9 86bd 1dd6 023e 4713 8ebd 6be8 16ba
000002b0: 8f99 1fbd 4dec 88bd 96cd d13d 80dd 7b3c
000002c0: cd9c 3dbe 4497 9e3e 32f2 033e d249 2abd
000002d0: 9a59 903e 0e97 3a3d dcd3 6d3d df40 9c3d
000002e0: eaca 613e 0d4b e43b 7879 903e cdb1 b6b9
000002f0: a8a2 a2bd 90f5 1ebe de28 733d 370e 8b3e
00000300: be7c e23c 46c6 e0bc a9fd 98bd 3245 1d3e
00000310: e55d 333e 79ea 80bd e082 e3bd 0e91 473e
00000320: f88b 823e c075 6dbd 97f3 dfbc 6a78 bfbd
00000330: 7ac6 8f3d 215c 8abd aecd a0bd b9c4 6f3c
00000340: fd58 07bd eb6c b138 07ed 773e 6bce bbbd
00000350: 36a0 693e 3a4f 90bc dc72 833e 2aea 873e
00000360: 4e34 913d cfd4 083e 5cae ccbd 9688 6abe
00000370: 7738 a4bd ad10 b3bd b3d3 6cbd ac8c 033e
00000380: ed82 c5bd 4d55 cc3c 67ab 943e a0cc 013d
00000390: 376b 88bd cceb 2cbe 2e16 f93d bb47 09be
000003a0: 5eee 253c e945 5c3e 942a 2a3e f19d a8bd
000003b0: e59d 2dbe bdd3 073e 8727 723e d5dd 8d3e
000003c0: 4bdc b33d a60e 8cbd 3da1 a23c d0cc a43d
000003d0: cf30 333e 8e2a ce3d 76e3 fbbd 0627 193e
000003e0: 4448 933e 7d82 fb3d a501 5d3e c0f2 d03d
000003f0: f82f 1d3e dab1 ba3d 5907 12bc d353 093e

weight f4 [256, 256]
0.012994866 -0.0026843399 -0.030609025 -0.043110706 -0.09816603 -0.0003898534 0.036482617 -0.020038325
0.038713004 0.00651408 0.03005775 -0.027783941 -0.08122793 0.023448382 0.0059270933 0.021561686
-0.060880877 0.0703788 -0.034054525 0.039350674 0.058867835 0.012457499 -0.03302402 -0.056851644
-0.056118626 -0.031797335 0.010863811 -0.02794592 0.055707403 -0.039987303 -0.0070025795 -0.025485829
-0.037460633 -0.00071021705 -0.0228587 0.012579982 -0.06885826 -0.09404272 0.042491823 0.03241098
-0.014579332 -0.020045921 -0.062030036 -0.013965564 0.023931488 0.01584319 0.02510568 0.030499304
-0.027422868 -0.08461265 -0.022819348 -0.0007957816 0.035753034 -0.0071024 -0.028501282 -0.08757353
0.020345999 0.008611575 -0.05641448 -0.03805569 0.05123029 -0.031677432 0.035057146 -0.012464491
-0.081053615 -0.06330872 0.0052328855 -0.0049844235 -0.0007857291 -0.049399152 -0.0116155185 0.009203191
-0.012558565 -0.047883507 -0.0343503 -0.05043251 -0.050466627 0.0155551 0.01796902 -0.037248224
-0.04889764 0.007816561 -0.055256795 -0.060104623 0.049982846 -0.0360485 0.009655408 -0.060730755
0.037820574 0.05658212 0.0024111941 -0.07951711 -0.026413575 -0.018944427 -0.010495624 0.0001307693
-0.024660595 -0.05368113 -0.009699821 -0.0013554172 0.055941567 -0.009168238 -0.029955389 -0.0340861
-0.042967718 0.044735834 0.009701401 0.024526944 0.01108352 -0.0035400642 -0.0019778162 -0.007434278
-0.051537976 0.028948925 0.053516887 0.025018975 -0.04660954 0.024381632 0.04972394 0.028003681
-0.009099047 -0.03522222 0.00598842 -0.045564465 0.003361733 0.023421692 0.015898526 0.00026709962
-0.007352774 -0.057245366 0.016185224 -0.008947594 0.020089464 -0.04835089 -0.024574783 -0.040676296
0.0233633 -0.09922035 -0.02333 -0.015971217 -0.0010296912 -0.04009332 -0.05670772 -0.037306707
-0.00036607392 -0.031858157 -0.040222075 -0.008640658 -0.08631645 -0.03315125 -0.033277888 0.033177726
0.006115812 0.02282545 -0.011754809 -0.08869302 -0.085096374 -0.05396378 -0.003967561 0.048032813
0.03395941 -0.011767551 -0.034822322 -0.026256679 0.051510535 -0.013163678 -0.04740792 -0.07385383
-0.08544886 -0.06533922 -0.054112785 -0.023821857 0.0058419406 -0.0087023685 0.0073781195 -0.019945638
7.094158e-05 -0.0016899877 -0.015590282 0.028529204 -0.06296846 0.019558704 -0.026393663 0.0204084
-0.011296455 0.005178757 -0.0079283295 -0.007389964 0.018342713 -0.055574935 -0.06512232 0.0054685315
0.045163326 -0.048129894 0.026127126 0.010873076 0.0036761463 -0.013599953 -0.020691127 0.0011492223
-0.0595829 -0.039392427 0.008557693 0.058776014 0.0050394144 -0.05701804 0.009138223 0.0056404322
0.021574572 -0.030445227 -0.020925783 -0.055779245 -0.024426 0.06352452 -0.068857074 -0.005234828
0.03805414 -0.03975429 0.017231263 0.041435406 0.050958306 0.007477939 -0.040316924 0.040239267
-0.057170954 0.0067393444 -0.02183804 -0.044344526 0.043704532 -0.0049312836 -0.024933312 0.033415783
0.020085424 -0.09456606 -0.004385799 -0.061897762 -0.011403636 -0.032606162 -0.060132626 0.0002246895
-0.0125368 0.010573119 -0.008550189 -0.056032505 0.032259807 0.007712098 0.020290658 -0.025895094
-0.03536052 -0.054903153 -0.029208288 -0.06425572 -0.02660416 -0.046225432 -0.024708167 -0.093121424
00000000: 6be8 543c c0eb 2fbb c7bf fabc da94 30bd
00000010: 460b c9bd 3d65 ccb9 cc6e 153d 6a27 a4bc
00000020: 8791 1e3d 1074 d53b ac3b f63c 269b e3bc
00000030: d45a a6bd d216 c03c 1038 c23b 22a2 b03c
00000040: 3a5e 79bd c322 903d c27c 0bbd 2c2e 213d
00000050: 661f 713d 8a1a 4c3c 3244 07bd 45dd 68bd
00000060: a5dc 65bd ec3d 02bd 20fe 313c d8ee e4bc
00000070: 722d 643d bac9 23bd e575 e5bb a8c7 d0bc
00000080: 5270 19bd dc2d 3aba 2b42 bbbc 451c 4e3c
00000090: 8f05 8dbd 7899 c0bd e80b 2e3d 60c1 043d
000000a0: 27de 6ebc 5837 a4bc 3513 7ebd d2cf 64bc
000000b0: f80b c43c 94c9 813c 6daa cd3c add9 f93c
000000c0: eca5 e0bc 6649 adbd a4ef babc 009c 50ba
000000d0: c671 123d 40bb e8bb 857b e9bc c059 b3bd
000000e0: a7ac a63c 9017 0d3c df12 67bd 48e0 1bbd
000000f0: dad6 513d 32c0 01bd 1598 0f3d dd37 4cbc
00000100: 70ff a5bd 01a8 81bd a078 ab3b 6054 a3bb
00000110: 63f9 4dba c456 4abd 044f 3ebc fbc8 163c
00000120: 70c2 4dbc 7f21 44bd e6b2 0cbd 5292 4ebd
00000130: 18b6 4ebd d1da 7e3c c433 933c 9891 18bd
00000140: e448 48bd 0811 003c f354 62bd 4430 76bd
00000150: d0ba 4c3d 98a7 13bd b731 1e3c d0c0 78bd
00000160: bfe9 1a3d a7c2 673d 2005 1e3b ded9 a2bd
00000170: 4861 d8bc 5831 9bbc d6f5 2bbc 1e1f 0939
00000180: 0405 cabc bfe0 5bbd ffeb 1ebc 41a8 b1ba
00000190: fc22 653d 6136 16bc 0165 f5bc de9d 0bbd
000001a0: ebfe 2fbd ec3c 373d a0f2 1e3c bbec c83c
000001b0: a797 353c 6c00 68bb 409e 01bb 3e9b f3bb
000001c0: 7c19 53bd 4c26 ed3c 8634 5b3d 98f4 cc3c
000001d0: a5e9 3ebd fdbb c73c 55ab 4b3d fa67 e53c
000001e0: 2b14 15bc 2d45 10bd 823a c43b cea1 3abd
000001f0: 8550 5c3b d9de bf3c a03d 823c 8109 8c39
00000200: 8aef f0bb 1e7a 6abd e096 843c ee98 12bc
00000210: a992 a43c 950b 46bd 0e51 c9bc 309c 26bd
00000220: 6464 bf3c 0a34 cbbd 8e1e bfbc 12d6 82bc
00000230: b4f6 86ba e538 24bd 5b46 68bd ebce 18bd
00000240: 9ced bfb9 b37d 02bd e7bf 24bd 8c91 0dbc
00000250: aec6 b0bd 9bc9 07bd 654e 08bd 5ee5 073d
00000260: 2667 c83b 70fc ba3c 3e97 40bc b0a4 b5bd
00000270: 0247 aebd 2009 5dbd 5002 82bb 0ebe 443d
00000280: 0619 0b3d b0cc 40bc daa1 0ebd 3f18 d7bc
00000290: b6fc 523d 78ac 57bc cf2e 42bd ad40 97bd
000002a0: d0ff aebd 92d0 85bd 5ea5 5dbd 0e26 c3bc
000002b0: c06d bf3b 6194 0ebc 27c4 f13b 0965 a3bc
000002c0: 79c6 9438 9482 ddba 626e 7fbc 14b6 e93c
000002d0: 9cf5 80bd 9339 a03c 8637 d8bc 842f a73c
000002e0: c414 39bc 90b2 a93b d3e5 01bc 8327 f2bb
000002f0: 7543 963c 8ba2 63bd da5e 85bd 5e31 b33b
00000300: 2efd 383d da23 45bd 8e08 d63c fc24 323c
00000310: 80eb 703b 56d2 5ebc 7080 a9bc 80a1 963a
00000320: 330d 74bd f459 21bd 9135 0c3c 1ebf 703d
00000330: ac21 a53b c08b 69bd 7cb8 153c 60d3 b83b
00000340: 28bd b03c 4568 f9bc 8c6c abbc c778 64bd
00000350: 0919 c8bc 2519 823d f004 8dbd ec88 abbb
00000360: a8de 1b3d 65d5 22bd 9428 8d3c 2cb8 293d
00000370: a8b9 503d 8009 f53b 5c23 25bd eed1 243d
00000380: 172c 6abd b8d5 dc3b b0e5 b2bc 9ba2 35bd
00000390: 8603 333d 9b96 a1bb f240 ccbc fdde 083d
000003a0: 308a a43c daab c1bd c0b6 8fbb 8288 7dbd
000003b0: 51d6 3abc 0a8e 05bd a14d 76bd a19a 6b39
000003c0: 2667 4dbc e03a 2d3c 1816 0cbc 5782 65bd
000003d0: dc22 043d c4b5 fc3b 9838 a63c f321 d4bc
000003e0: 31d6 10bd 21e2 60bd 3846 efbc 8198 83bd
000003f0: f8f0 d9bc e156 3dbd c868 cabc 72b6 bebd
