src/saved_models/grid_world_seed125_8_4_9_45/125_7_model.pt (torch, 702521 bytes, 11 tensors)

FC1.weight f4 [256, 36]
000000 22 99 fe 3d 95 53 e9 3c eb f1 3c 3c e9 7d 8a 3c
       0.124315515 0.028482238 0.011532287 0.016905742
000010 18 6c 9d bc 93 fc 11 3e 30 04 35 3e 91 e0 aa 3c
       -0.019216582 0.14256506 0.17677379 0.020859035
000020 f0 94 f2 bc c4 a1 0a 3e 2c 99 56 3d 85 33 0b 3e
       -0.029612035 0.13538271 0.05239217 0.13593872
000030 fa 14 78 3d 40 ad b1 bd c7 c8 86 3d 20 da 38 3e
       0.06056688 -0.08675623 0.06581264 0.18051958
000040 5a e3 dc 3d e6 89 25 3b 53 32 2c be c7 59 f8 bd
       0.10785551 0.0025259196 -0.16816072 -0.12126499
000050 58 d4 c7 3c 52 30 34 3d 0e 56 6e bd ea 0c 18 3e
       0.024393246 0.043991394 -0.058187537 0.14848676
000060 e4 cb fe 3d 78 d9 36 3e 7f 1f 4e 3d 2e 73 1c 3e
       0.12441233 0.17856395 0.050323006 0.15278313
000070 7d c6 04 3d 81 fd 14 bd 03 c5 81 3d 4b 5a f7 3d
       0.032415856 -0.036374573 0.06336405 0.12077769
000080 bb 1d bc 3d 32 43 d4 bd 91 0a 99 bc 9e e3 80 3d
       0.09185358 -0.10364379 -0.018681796 0.062934145
000090 ba 84 2c 3e c7 90 57 bc ae f7 b1 bd 6d 34 04 be
       0.16847506 -0.013157076 -0.08689819 -0.12910624
0000a0 ab 1a 10 be bd 7d 2b bd d2 4e c1 bc 5f c1 00 3e
       -0.14072673 -0.04186796 -0.023597155 0.12573765
0000b0 b1 78 b9 bd 88 ee ef bc 1f 30 71 3d aa aa e2 3d
       -0.09056223 -0.029288545 0.058883782 0.11067708
0000c0 e7 60 8f 3d 66 65 ce bc d4 a0 c7 3c 2c 36 b2 3d
       0.070009045 -0.025194835 0.024368681 0.08701739
0000d0 b0 e5 bc bd 78 61 ed bb 04 1a 52 bd b1 8a 40 3e
       -0.09223497 -0.007244285 -0.05129434 0.18802907
0000e0 f0 d2 7c 3d 69 08 2f 3d 71 9e 5a bd 2e 91 74 bd
       0.061724603 0.04273263 -0.053373758 -0.059708767
0000f0 e1 6f 04 be c7 b5 05 3e 87 1f 56 be 43 ed 46 3e
       -0.12933303 0.13057624 -0.20910464 0.19426446
000100 ac d9 32 3e 61 f3 c8 3d 80 47 f9 ba a6 fe 14 bd
       0.17465848 0.09812046 -0.0019018501 -0.036375664
000110 17 f0 33 3e da 56 0e be 99 bc e8 bb 96 54 85 3d
       0.17572056 -0.13900319 -0.0071025607 0.06510274
000120 6d 93 42 be bc 4e 58 3e fd f7 20 be a0 cb 81 3d
       -0.19001551 0.21123785 -0.157196 0.063376665
000130 cb fc ea be 4f f9 e7 3d b9 6e fc 3c 5b b2 de 3c
       -0.4589599 0.11326849 0.030814515 0.027184656
000140 70 41 a7 be 9b c3 6a 3e 04 16 06 3f 4b 5a 87 3e
       -0.32667112 0.2292618 0.52377343 0.26436076
000150 a5 5d 21 bd 1a 46 bd bd 93 d9 1f bd 6e 45 83 3e
       -0.039395947 -0.092418864 -0.039025854 0.25638908
000160 df 7b 0a be 97 79 cc 3c 44 4c e6 bd 2d d2 c0 be
       -0.13523816 0.024960322 -0.11245015 -0.3766035
000170 80 5d 8d 3d 6c f3 e9 3d 81 9f 36 3c df 77 98 3c
       0.06902599 0.11423382 0.011146427 0.018611846
000180 d3 7e 18 be d2 c9 72 3d d8 1b 84 be ae 90 e2 3d
       -0.1489213 0.059274502 -0.25802493 0.11062752
000190 ec dd 0c be 94 ff 44 be 69 77 52 be e6 81 31 be
       -0.13756531 -0.1923812 -0.20553364 -0.17334709
0001a0 d2 8b 27 be 3d 50 d4 3d 17 ac 6d bd fd 65 53 bd
       -0.16361931 0.10366867 -0.058025446 -0.051610935
0001b0 9c 67 2b 3d d6 95 88 bc c5 bb d1 bb 56 a9 22 3e
       0.041846856 -0.01667301 -0.0064005577 0.15884909
0001c0 6a 15 19 be bf 27 0d be 20 82 cd 3d 0c 8c 58 3d
       -0.14949575 -0.13784693 0.10034585 0.052867934
0001d0 d8 04 44 bd fa e5 94 bd 84 d9 09 3d c4 49 55 3e
       -0.04785618 -0.07270427 0.033654705 0.2082892
0001e0 75 74 95 3c 24 3b 76 3d ff d3 44 bd 7b a2 19 3e
       0.018244008 0.060114995 -0.048053738 0.15003388
0001f0 90 4b 3b bd 69 c6 1b 3d 4a ba 89 3d 2e b3 53 3d
       -0.04572636 0.038031016 0.06724985 0.05168455
000200 6f 8b 7a bd e0 bd 7c 3d 4f 00 d6 bd 83 29 01 bd
       -0.06116813 0.061704516 -0.104492776 -0.03153373
000210 7f 57 ad bd a4 1e 59 3c c7 b1 34 3d fb 8b 07 bc
       -0.08463954 0.013251934 0.044114854 -0.00827312
000220 57 aa 9b 3d 0a a0 1b 3d a9 c2 73 bd af 3e 08 be
       0.07600849 0.037994422 -0.059511814 -0.13305162
000230 f8 0a bc 3d 5f 4a 2e 3e 7f 85 38 be 81 d9 a1 bd
       0.091817796 0.17020558 -0.18019675 -0.07902814
000240 7a 53 8a bd fa 0e bf bd af 89 9a bd 30 bf 2a 3e
       -0.06754203 -0.093290284 -0.07545792 0.16674495
000250 b8 ef 93 3d 19 b7 b2 3d 85 e3 b0 bd 8a 8d 2e 3e
       0.07223457 0.08726329 -0.08637146 0.1704618
000260 f6 31 bb bd b1 d3 0e 3e 03 19 3b 3e 9b 1e 09 3e
       -0.09140389 0.13947941 0.1827126 0.13390581
000270 89 3f b5 3d 66 2f 09 3e ab 92 f5 3d 67 72 b7 bb
       0.08850009 0.13396987 0.11990865 -0.0055983546
000280 ab fd e7 3d 65 83 ea 3d 40 e7 16 be 19 c5 41 bd
       0.1132768 0.11450843 -0.14736652 -0.047307108
000290 5c 08 ab 3c 98 be 3e 3e da 25 48 3d fa c4 dc 3d
       0.02087801 0.18627393 0.048864223 0.10779758
0002a0 a1 47 c6 3d 2c 89 f6 3d e2 22 7d 3d e7 8a 08 bd
       0.09681631 0.12037882 0.061800845 -0.033335593
0002b0 29 32 9e 3d af 43 5d 3d ad 74 c8 3d ad c6 8e bd
       0.07724411 0.054019626 0.09787879 -0.06971488
0002c0 7f df 90 bd f6 c1 e2 3d dd d7 83 be 96 47 f0 bd
       -0.070738785 0.11072151 -0.25750628 -0.11732404
0002d0 bf 84 14 3e 78 bc 12 3e 36 73 80 3c 95 77 06 3e
       0.14503764 0.14329708 0.015679937 0.13131554
0002e0 5b 61 b3 3d f7 e8 dc bd 33 3b a8 3d 0b 75 4e 3e
       0.087588035 -0.10786622 0.08214416 0.20161836
0002f0 9f 4f 0e 3e 5f cf b8 bd 4f 1e 03 3e 14 5f 9f 3d
       0.1389756 -0.09023928 0.1280453 0.077818066
000300 b1 68 dd 3d 11 18 fc bd 73 1b 26 3d 59 23 3f 3e
       0.10810984 -0.12309278 0.04055352 0.18665828
000310 e3 e6 ca bd 76 30 c8 3d 3b 97 e4 bd 40 19 42 3d
       -0.099073194 0.09774868 -0.111616574 0.04738736
000320 fd cf 05 be 4f 4c 9e 3d d1 51 0c be 51 de 0e bd
       -0.13067622 0.077293985 -0.13703085 -0.034879986
000330 23 89 4c 3b be 62 a7 bd 38 1b 58 3d 3d f6 11 3e
       0.003120967 -0.081731305 0.052760333 0.14254089
000340 60 b9 ca 3d 64 78 5e bd f8 8d c5 bc 3c e9 0c 3e
       0.09898639 -0.054314032 -0.024115548 0.13760847
000350 4b 81 42 3e 00 17 79 bd 9f e7 a6 3d b7 4a b5 3c
       0.18994634 -0.06081295 0.08149647 0.022130353
000360 36 e9 95 3b 75 2c 8d 3d 69 10 f3 bd 42 f6 10 3e
       0.00457492 0.06893245 -0.11868364 0.1415644
000370 f2 01 a0 3d eb 10 ae 3d 2d 9d db 3d 92 5c 77 bd
       0.07812871 0.084993206 0.10723338 -0.060391016
000380 e2 f2 15 bd 09 2d a4 3d 8f c1 1a be 02 82 80 3d
       -0.036608584 0.08016402 -0.15112899 0.06274797
000390 86 51 5c be 47 a5 10 3e 2f 8a 10 3e 47 43 9f bd
       -0.21515474 0.14125548 0.14115213 -0.07776504
0003a0 d7 e5 5f 3d f3 9f 72 be 3b 21 a4 3d cb 25 37 3d
       0.05466255 -0.23693828 0.08014151 0.044713777
0003b0 53 9f d0 3c 97 f2 2a be a9 36 15 be 78 ac 21 3e
       0.025466597 -0.16694103 -0.14571632 0.15788448
0003c0 30 8a 21 bd fb e3 86 3d 68 57 e6 3c e0 1d 13 be
       -0.039438426 0.065864526 0.02811785 -0.14366865
0003d0 5a f8 75 3d 61 ac 57 be 9d c9 1a 3d 51 8f 5a 3d
       0.0600513 -0.21061851 0.03778993 0.053359333
0003e0 b6 cb 04 3e 94 d4 3e 3e 09 9f 5d bc fa 2b 0f bd
       0.12968335 0.1863578 -0.0135266865 -0.03495405
0003f0 c1 96 00 be 92 7a b8 bd 0e 42 80 bd b9 96 56 bd
       -0.12557508 -0.090077534 -0.06262599 -0.052389834

FC1.bias f4 [256]
000000 80 78 08 be 47 6e 33 bd 84 22 4f 3c cb 86 d7 3d
       -0.13327217 -0.04380634 0.0126425065 0.105237566
000010 77 92 b9 bd 0d dc 4d 3d 46 9e 50 bd 40 16 99 3d
       -0.09061139 0.050258685 -0.05093219 0.07474947
000020 5e 91 09 3e f2 00 0f 3e 43 b9 12 3e 13 96 0a be
       0.1343436 0.13965204 0.14328484 -0.13533811
000030 df d9 8f 3c 03 5f 73 3d 70 8f 32 bd 57 b3 fe 3d
       0.017559944 0.059416782 -0.043593824 0.1243655
000040 6c a3 14 3e 59 f8 8d bd 58 37 10 3d 3a f2 ad 3d
       0.14515465 -0.06932134 0.03520903 0.08493467
000050 03 9e 0e 3e 3b 80 3b bd 47 6b 8a bd 3c 22 8c 3d
       0.13927464 -0.045776587 -0.06758743 0.06842467
000060 41 97 60 bd 35 87 0c 3d 40 25 db 3d 12 73 1e 3d
       -0.054831747 0.03430863 0.10700464 0.03868396
000070 8b f8 56 3d b9 a4 14 bb 1c ca 55 bd b6 6c 16 be
       0.052483123 -0.002268119 -0.0521947 -0.14689907
000080 90 70 df bd b6 09 96 bc ea 95 b9 bd dc 5f b9 bd
       -0.109101415 -0.018315177 -0.09061797 -0.09051487
000090 a4 38 10 be f6 4e 1b be 34 7a b5 3d d7 42 d7 bd
       -0.14084107 -0.1516684 0.08861199 -0.105107956
0000a0 f2 5b 08 be 17 fb bd bd ef c9 1f 3e 32 e1 81 3d
       -0.13316324 -0.09276407 0.15604375 0.06341781
0000b0 eb 9e 2b 3e 23 87 2c bd db cf 9b 3d 09 3d ee 3d
       0.16759841 -0.042121064 0.07608005 0.11632735
0000c0 6f 04 ef 39 25 83 ab bd 71 7f 26 bd e3 73 f8 bd
       0.00045588936 -0.08374623 -0.04064888 -0.12131479
0000d0 6a 9b 60 bc 55 83 b9 bd 7e 89 a1 3d a6 51 11 be
       -0.013708929 -0.09058253 0.07887553 -0.14191303
0000e0 6a ee 7c 3d a4 b8 b9 bd 28 7d 01 bd 10 2e 8b bd
       0.061750807 -0.090684205 -0.0316135 -0.06795895
0000f0 f0 ee 0d bd 51 8d 06 be 49 eb 0a be bc c5 2d bd
       -0.034651697 -0.13139845 -0.13566317 -0.042424902
000100 92 ef 90 3d bd 15 83 3d 19 d8 29 3d c0 01 41 3e
       0.070769444 0.064006306 0.041465852 0.18848324
000110 8e c6 2b 3c b9 92 af bc b4 24 59 bd e3 1d 38 be
       0.010484351 -0.021432268 -0.05301352 -0.17980151
000120 25 20 1e be d1 5c 06 3e e9 7c 80 bd 03 42 5a bc
       -0.1544195 0.13121344 -0.06273825 -0.0133214025
000130 f1 a0 aa 3d 30 8f e3 bc fb 26 56 3d 94 78 f3 bd
       0.083314784 -0.027778238 0.05228327 -0.11888233
000140 dd 51 d5 3d 8d 14 1e 3e 6f f0 9a bd f0 44 26 3d
       0.10416005 0.15437527 -0.0756539 0.040593088
000150 af 9a 31 3e b4 98 2d 3d f0 66 d9 3b 96 3f 8a bd
       0.17344163 0.042381957 0.0066345856 -0.06750409
000160 c9 d8 43 3e bc 1b 1e 3e bb 0c 88 3d d8 5a 07 3d
       0.19125666 0.15440267 0.06643053 0.03304562
000170 c0 a2 fa 39 3f a4 3c 3d 19 a1 b2 3d 95 10 a4 bd
       0.00047804974 0.046055075 0.08722133 -0.08010975
000180 15 c0 9d bd 3d 24 2e 3e e3 91 78 bd 81 57 42 bd
       -0.07702652 0.17006011 -0.060686003 -0.04744673
000190 b9 2b da 3d af f5 3f 3c 4a e7 c9 3d df 00 d3 3d
       0.10652871 0.01171629 0.09858568 0.103029005
0001a0 e6 8d 04 be b6 18 25 bd 53 71 3f 3c a3 16 f8 3d
       -0.12944755 -0.04030677 0.011684733 0.121136926
0001b0 29 42 e6 3d 3e e0 01 3e 50 af 9c bd 20 9f e5 3d
       0.11243088 0.12683198 -0.07650626 0.11211991
0001c0 b8 3f e4 3b 99 ea f0 3d 74 55 b3 bd 23 cc 27 3d
       0.0069656037 0.11763496 -0.08756533 0.040966164
0001d0 70 bd ac 3b d3 e6 1f 3e fe 58 d7 bd 2a 3e b6 3a
       0.005271606 0.15615396 -0.10515021 0.0013904024
0001e0 73 4f f5 3d bb e6 ca bd 60 72 66 3d d8 08 01 3e
       0.11978044 -0.099072896 0.05626142 0.1260103
0001f0 0a a8 da bd b6 61 00 3e fe 7d e0 bd be 7a 8f bd
       -0.10676582 0.12537274 -0.10961531 -0.07005833
000200 ff 3a 75 bd 97 66 f6 bd 71 23 b8 bd 47 ad 95 3d
       -0.059870716 -0.12031286 -0.08991135 0.07308441
000210 f2 c8 d6 bd 50 77 86 3d 74 21 d2 bd 0d dd ae bd
       -0.10487546 0.06565726 -0.10260287 -0.08538256
000220 b2 9d 65 3d a5 fc 66 3a 95 16 02 bd df da 18 be
       0.056058593 0.00088114507 -0.031759817 -0.14927243
000230 88 bd 04 3e 3f ed f7 3d cd 3e 70 3c f6 99 ab 3d
       0.12962925 0.12105798 0.01466341 0.08378975
000240 ce f9 07 3e 96 6a 0f be 05 0a 98 3d 52 60 07 be
       0.13278887 -0.14005503 0.07423786 -0.13220337
000250 c0 99 cf bd 0a 95 b2 bb 66 b3 b3 3d f4 ec a2 bd
       -0.10136747 -0.0054498957 0.08774452 -0.079553515
000260 8f 12 d4 3d 8a 8b c2 bd 02 09 5c bc 61 f0 0f 3e
       0.10355102 -0.09499271 -0.013429882 0.14056541
000270 92 38 3d ba ec 99 ea bc 1a 46 c7 3d 15 02 ac bd
       -0.00072182075 -0.028637849 0.09730168 -0.083988346
000280 43 cc 15 bc 4f d8 0c 3d dc 68 1e 3e 22 fd 37 3e
       -0.009142938 0.034385975 0.15469688 0.17967656
000290 2b ee 00 3e 9f bb 0a 3e b1 b6 09 3e 7a 84 84 bd
       0.12590854 0.13548134 0.13448597 -0.064705804
0002a0 2a 45 e0 bd ed 0d ee bd b8 fb 38 ba ed db 22 bc
       -0.10950692 -0.1162375 -0.0007056552 -0.00994013
0002b0 a2 21 3b be f2 19 2d bd 05 a0 a4 3c a1 1d 69 bc
       -0.18274549 -0.04226107 0.020095835 -0.0142282555
0002c0 06 60 a8 3d a8 db 4e bd 72 75 3e 3e 1e bf 35 3e
       0.0822144 -0.05050245 0.1859949 0.17748687
0002d0 54 43 dd 3d 65 b9 9f 3c 1f 7e 93 bc 4c 56 05 3e
       0.108038574 0.019497583 -0.018004475 0.13021201
0002e0 ed 91 8d bc 8e 13 b1 bc ba 23 a6 bd 32 a3 1b 3b
       -0.017281497 -0.02161577 -0.08112283 0.0023748395
0002f0 4f fc b3 3d 93 79 22 3e 03 8c f8 3d 2b a1 c9 bd
       0.087883584 0.1586669 0.1213608 -0.098451935
000300 79 c8 24 3d 03 da bf 3d 2f c3 3e 3d 03 23 2b bd
       0.040230248 0.09367754 0.04657286 -0.041781437
000310 e3 9c a0 bd e6 56 90 bd 0c 39 4e bd b7 10 0a 3d
       -0.07842424 -0.070478246 -0.050347373 0.033707347
000320 97 a5 f7 bc 85 15 11 be 82 f2 0f 3e cc 2a 06 3d
       -0.030230327 -0.14168365 0.14057353 0.032755658
000330 ec 0f 43 3d aa 90 6f 3c 88 b7 11 3e b2 a7 34 be
       0.047622606 0.014621893 0.14230168 -0.17642096
000340 df ee be bd 66 27 42 3d 4c 02 e1 bd 1b 3b 81 bd
       -0.09322905 0.047400855 -0.10986766 -0.063101016
000350 c0 90 6f bd 6c be b9 3d 64 86 06 be bc 35 b2 3c
       -0.058487654 0.09069523 -0.13137203 0.021754138
000360 6d 0b b4 3d 6e 8e f2 bd 7f 7d 25 3e 0b e2 ff 3d
       0.08791242 -0.118435726 0.16161154 0.12494286
000370 33 95 33 3e 00 ec b5 bd d5 d1 88 3d 5b 43 e2 bb
       0.17537384 -0.08882904 0.06680647 -0.006905002
000380 cd 60 e5 3d e2 ab 10 be 61 54 96 3c ae f2 5f 3d
       0.11200104 -0.14128068 0.018350782 0.054674797
000390 35 61 08 3e c3 b1 29 3d f2 4e f6 3d ef 0a e5 3d
       0.13318332 0.041429292 0.120267764 0.11183726
0003a0 90 02 0e 3d a0 6c 86 bd 1d 7a 82 3d 5f e9 fa 3d
       0.034670413 -0.06563687 0.063709475 0.12251543
0003b0 6a bf 86 3c 2f f4 d0 3d e8 61 41 3d 26 c5 21 3e
       0.016448695 0.10202824 0.04721251 0.15797862
0003c0 c5 9c d6 bd f9 29 c8 3d 05 73 e9 3b 03 f6 fa bc
       -0.1047912 0.09773631 0.007124307 -0.030634886
0003d0 d4 fb 22 be 6c 06 bb bc 75 03 5f 3b f9 93 15 be
       -0.15916377 -0.02283021 0.003402916 -0.14607228
0003e0 be 3e ef bd 72 ec 1c 3d 24 7b b5 bc 34 6b a0 bd
       -0.11681889 0.03831143 -0.022153445 -0.078329474
0003f0 e1 bb 16 be 03 fe 2f 3e 26 85 8c 3c d7 ce 59 bd
       -0.14720108 0.17186742 0.017153334 -0.053175773

FC2.weight f4 [256, 256]
000000 63 86 b1 3d 00 15 a5 3d 34 4b b7 be db b3 dd 3c
       0.0866821 0.08060646 -0.35799563 0.0270633
000010 ef af 90 bd c5 28 b9 bb 9b 60 37 bc 7b c3 2c 3b
       -0.07064807 -0.005650612 -0.011192466 0.0026361633
000020 66 df 80 3d 0d 16 40 bd 6d da 66 3d ce 33 04 3c
       0.0629261 -0.04689603 0.05636065 0.008068992
000030 35 81 f8 3d f0 11 78 bd de 1c 49 bc bb ad 91 3c
       0.12134019 -0.06056398 -0.012274949 0.017783036
000040 88 68 94 3b 8c 8a 3f bd 99 f1 50 be ba ab 4e 3d
       0.0045290627 -0.046762988 -0.20404662 0.05045674
000050 9e 07 2f 3d a7 fa 3f 3d b9 b7 2d 3d 67 74 67 3d
       0.042731874 0.0468699 0.04241154 0.056507494
000060 89 a9 02 be ff 43 85 3d ef 53 23 be c2 67 03 bd
       -0.12759985 0.0650711 -0.15949987 -0.032081373
000070 8c d2 8c 3e 05 d3 95 3c e0 56 08 3b a8 e9 79 bd
       0.27504385 0.018289099 0.0020803735 -0.061013848
000080 71 ce ad 3d 8e 35 cb bd 0c 4d d7 bc c6 3c 6a bc
       0.08486641 -0.09922324 -0.026281856 -0.014296716
000090 d7 6d e9 b9 58 e7 5f bc 00 b8 50 3d 06 00 4f bd
       -0.0004452306 -0.0136659965 0.050956726 -0.05053713
0000a0 54 46 84 bc 68 7a 1f 3e e7 ba b3 3c be 9d 44 3d
       -0.016146816 0.15574038 0.021939708 0.048001997
0000b0 45 3a 62 3d 24 95 72 3b 37 8c 70 3c 8d cb 91 bc
       0.05523135 0.0037015164 0.014681867 -0.017797256
0000c0 c4 c0 f0 3c df 78 a2 3c b5 56 56 3d 98 8d 59 bc
       0.029388793 0.019833026 0.052328784 -0.0132783875
0000d0 95 90 02 3b 58 2a f0 bd ec 74 0e 3d 64 db 26 3b
       0.0019922603 -0.117268264 0.034779474 0.0025460357
0000e0 bf c1 fe 3c 14 49 af 3a 28 6d b4 3c 48 10 c1 3d
       0.031098245 0.0013373219 0.022024706 0.094269335
0000f0 98 8e 71 3b 19 2e 11 3c 14 ef 20 bd e9 6c 05 bc
       0.0036858674 0.008861088 -0.039290503 -0.008143642
000100 46 22 3e bc d3 9d 9c 3d 24 a1 47 bd a9 a3 b7 bc
       -0.011604851 0.0764729 -0.04873766 -0.022416906
000110 7b 54 0a bd fa 1e ad bd d1 55 28 3d ba 14 24 bb
       -0.033771973 -0.08453174 0.041097466 -0.0025036768
000120 37 fd f8 3c 07 a5 7e bd 6a f6 d0 3c d3 67 bb bc
       0.03039418 -0.0621691 0.025508124 -0.022876656
000130 2c f5 c9 3d bc 7e 05 bc d1 c8 5d 3d 1d c6 03 3e
       0.09861216 -0.008147892 0.05414659 0.12868543
000140 40 a6 92 bb 03 51 07 bd e3 f8 ba 3d ca db 36 bd
       -0.004475385 -0.033036243 0.091295026 -0.0446432
000150 7d 6b c4 3d 7e 81 53 3d c4 0d 41 3d 89 d2 32 be
       0.09590814 0.051637165 0.04713227 -0.17463125
000160 ff e1 a6 3d 37 d8 11 be f2 4d d1 3c cb 5a 4c 3a
       0.08148574 -0.14242636 0.025549863 0.00077955116
000170 fe b7 2b bd ac 1e ec bd 1e 02 bc 3c dd c8 84 3d
       -0.041923515 -0.11529288 0.022950228 0.06483624
000180 88 2c a7 3d 3b c8 6f 3c 43 a6 94 3d 3d a1 5f bd
       0.081627905 0.014635141 0.072582744 -0.05459713
000190 2d 5c 40 3d 3b 90 97 3c 50 a4 ec bc 66 ee af 3d
       0.046962906 0.018501392 -0.028886944 0.08590393
0001a0 89 68 07 3d 06 28 ab bc 60 ed 3c 3b 4f 83 23 3d
       0.033058677 -0.020893108 0.002882801 0.039920148
0001b0 cd 99 5e 3d 4f fa fb 3c 90 5a c6 3c dd ab 62 bc
       0.054345895 0.030759005 0.024213105 -0.013834921
0001c0 f6 e1 00 bd 44 22 5b 3d 77 42 da 3c 06 da 05 bd
       -0.031465493 0.053499475 0.026643021 -0.032678626
0001d0 84 93 a6 3b 23 c4 db 3c 50 4c 55 bd 04 41 e1 bc
       0.005083503 0.026826924 -0.05207473 -0.027496822
0001e0 24 fe 40 bc fd bd 6d be a8 ed 76 bd 28 7c fd 3b
       -0.011779342 -0.23217006 -0.06028524 0.007735748
0001f0 8d dc 74 3d c4 de 66 3d 28 d7 a4 bc f2 ba 9f 3b
       0.059780646 0.05636479 -0.020122126 0.0048745805
000200 f3 00 32 3e 18 33 ce bc 26 36 db 3c 46 3e 1f be
       0.17383175 -0.025170848 0.026759218 -0.15551099
000210 e8 91 c3 b8 44 f3 d2 3d 93 d2 78 3d ad 9e 3c bd
       -9.325502e-05 0.103003055 0.060747694 -0.046049763
000220 37 78 95 3d 78 46 14 bc ec 08 d4 bd 01 6f 06 3d
       0.0729832 -0.009050004 -0.10353264 0.032820705
000230 a6 32 a1 3d 7e 01 87 bd d3 c9 66 3c 9f be c8 bd
       0.078709885 -0.065920815 0.014086205 -0.09801983
000240 a4 99 5b 3b ec 8f 0a 3b 94 84 e0 3c fd 45 c3 3c
       0.0033508325 0.0021142913 0.027406968 0.023837084
000250 36 77 0f 3b fb 45 f4 bd 0b e3 44 bd 5d ba 27 bd
       0.0021891124 -0.1192741 -0.048068088 -0.040949214
000260 c0 6a 9f 3c 2a 5f 88 3c 67 e4 0e 3c 23 8c 86 3d
       0.019460082 0.01664694 0.008721448 0.06569698
000270 17 85 fc 3c 99 c5 2d 3d 10 dd 29 3d d3 73 6a ba
       0.030825181 0.042424772 0.041470587 -0.0008943651
000280 53 a9 0f 3d bc 54 13 3d 3a a9 90 3b 87 40 03 bd
       0.03507359 0.03596948 0.0044147046 -0.03204396
000290 05 58 24 3c b6 8f 38 3c 66 04 f0 bc 75 fa 7b 3d
       0.010030751 0.011264732 -0.029298972 0.06151815
0002a0 47 cd 5b 3d 6e b1 45 3c 9e d2 24 3d 8d 75 a2 3c
       0.053662565 0.012066228 0.040239923 0.019831443
0002b0 95 6e 08 3c 3b 63 9f 3c 0d cd 0d 3c aa 8a c9 3b
       0.008327146 0.019456496 0.008654845 0.0061505632
0002c0 e2 56 3c bd 4e 10 30 bd e4 05 25 3d 25 d6 8c 3d
       -0.045981295 -0.0429843 0.04028882 0.06876782
0002d0 58 45 0a 3d ac 6e 43 3d bf df cb 3c b9 14 7a 3d
       0.033757538 0.047712967 0.024886964 0.06105492
0002e0 af e0 0e be 5e b3 0a bd 14 5f 9d bc 15 3a f6 bd
       -0.13952897 -0.033862464 -0.019210376 -0.12022797
0002f0 9e f1 d5 3b b8 bc 8b 3d 77 57 98 bc 97 70 2d 3e
       0.006529047 0.068231046 -0.018596394 0.16937481
000300 81 8b 5a 3d cc 96 a8 3d 0e 35 2e 3d c8 0a 53 3c
       0.053355698 0.08231887 0.042531066 0.012880988
000310 d6 59 1b bb 9f 6b 93 3d 74 09 29 3c 96 0c 04 3d
       -0.002370467 0.071982615 0.010317195 0.032238565
000320 7a 0d f2 bc 9b 3b 52 bc 2d 03 3d bd f1 30 a4 3c
       -0.029547442 -0.012831594 -0.046145607 0.020042868
000330 82 03 56 3d c4 7f a2 bd 2c 82 05 3c cb 74 c2 bd
       0.05224944 -0.079345256 0.008148711 -0.09494933
000340 05 d8 8c 3d 9f 58 ab 3d f6 a5 fe 3d 0f 16 24 3d
       0.0687714 0.083665125 0.12433998 0.0400601
000350 00 ba cd 3c 56 a3 d7 3c a0 fd be bc 2b 91 79 3d
       0.025113106 0.026323002 -0.023314297 0.06092946
000360 1e ae 4c bd 7b 22 0f 3d 02 c2 7b 3d e5 87 a2 3d
       -0.04997074 0.034944993 0.061464317 0.07936076
000370 c7 46 c3 3d 4a 22 c6 3c b1 54 95 bc 08 b5 0a bb
       0.09534984 0.024186272 -0.01822886 -0.0021165032
000380 e2 5a 06 3d 36 dc 5d 3d 82 6a 3f 3c b3 43 11 bd
       0.032801516 0.054165088 0.011683108 -0.035464954
000390 43 e2 16 3d 33 1d 9f 3d d3 62 89 3d 7c e3 5a 3d
       0.036836874 0.07769241 0.06708302 0.053439602
0003a0 02 ca 2c 3d f1 2d 16 be 2c 0b 2a 3c e2 72 60 3d
       0.042184837 -0.14665963 0.01037864 0.05479706
0003b0 a2 e0 58 3d 6d c9 3d bd 63 87 8c bb fd ce 1e 3d
       0.0529486 -0.046334673 -0.0042886003 0.03877162
0003c0 0d e7 0d 3a 23 e2 8f 3d 57 7b 5c 3c 1d 3d 3f bc
       0.00054131524 0.07025554 0.013457141 -0.011672285
0003d0 6f c2 38 3d 4b c4 4a 3c 05 c0 8d bd 3f 76 86 bc
       0.0451073 0.012375901 -0.069213904 -0.016413806
0003e0 a0 ba d4 3b 20 28 97 3d 99 a1 c5 bc 4a 65 0e 3d
       0.006491974 0.073807 -0.024124907 0.034764566
0003f0 53 40 55 bc 8d 50 07 bd c6 6a 79 3c 5e b9 65 3d
       -0.013015824 -0.033035804 0.015223211 0.056084983

FC2.bias f4 [256]
000000 c3 9c 41 3d c9 f4 a6 bb 54 f9 14 bb 97 df 1e bd
       0.04726864 -0.0050950986 -0.002273162 -0.03878745
000010 9e 7c 38 3d ff 32 8a bc fb 7f e9 bc f9 29 3a bc
       0.04504072 -0.01687002 -0.028503409 -0.011362546
000020 f0 3c 26 bd e5 cb 9f 3d a8 e0 a2 39 70 44 87 3d
       -0.04058546 0.07802562 0.0003106643 0.0660485
000030 97 74 32 3d 86 88 4d bb da 1f ce bc 9a ad b5 bc
       0.04356822 -0.0031361892 -0.025161672 -0.022177506
000040 bf 5f 82 bd 6a aa 63 3d 5c 45 d5 bc f1 e4 84 3d
       -0.06365918 0.05558244 -0.02603405 0.064889796
000050 91 d3 f9 3c af 17 5c 3d 2e 01 8c 3e 28 c2 6e bb
       0.03049639 0.053733524 0.2734465 -0.0036431644
000060 ad 93 68 3d 4f 5d 89 bd c1 d5 d1 3c 39 52 ed bc
       0.05678146 -0.0670725 0.025614621 -0.02896987
000070 a2 17 4e 3d c2 ba 1d 3d 78 58 1c 3d 34 b9 36 bd
       0.050315507 0.038508184 0.038170308 -0.044610217
000080 92 99 0c bd 94 69 b0 bc 95 d2 03 3d c3 6d 67 3d
       -0.034326144 -0.021534719 0.03218325 0.05650116
000090 49 58 92 bc 80 ff a3 3b ba 5d 58 bd 7a 16 83 3c
       -0.017864363 0.005004823 -0.05282376 0.016001929
0000a0 7a a6 94 39 7d e0 85 3d 0c 22 18 bd 16 d7 51 bd
       0.00028352794 0.06536958 -0.037141845 -0.051230513
0000b0 48 71 d0 bc 62 60 11 bb 28 6e 27 bc 26 8f bb 3a
       -0.025444642 -0.0022182693 -0.010219134 0.0014309629
0000c0 47 70 30 bd bb 39 8e 3d 23 8c 19 3d 5b ad ea 3b
       -0.043075826 0.06944605 0.03748716 0.007161779
0000d0 43 e7 73 bc 49 c7 7a 3c ef f8 81 3c ab c2 04 3d
       -0.01488668 0.015306302 0.015865771 0.032412212
0000e0 2c 31 20 bd 36 67 8a 3c 62 b5 eb 3c 13 8c 45 3d
       -0.039109394 0.016894918 0.028773014 0.04822929
0000f0 9d 48 83 3c 6b 1c 58 3d c8 af 01 bc 6d af c0 3c
       0.016025836 0.052761476 -0.007915445 0.02352115
000100 d5 06 5b bd 96 67 27 3d 10 35 ad 3b 89 ab 13 3d
       -0.053473312 0.04087027 0.0052858666 0.03605226
000110 ba c2 95 bc e0 c3 e3 3c bd 73 13 bd 5a 52 7d bb
       -0.01828133 0.027803361 -0.03599905 -0.0038653822
000120 00 d5 99 3c 4e 0c 22 bc 6f 48 60 3c 16 8c 8f bd
       0.018778324 -0.009890629 0.0136891445 -0.07009141
000130 69 68 8a bc d6 c6 8b 3d ef b6 95 3c b9 da 70 3d
       -0.01689549 0.06825034 0.018275706 0.05880234
000140 b3 e7 1e 3d 13 bc 85 3d 21 56 8a bd f3 19 1a 3d
       0.038795184 0.06530013 -0.06754709 0.037622403
000150 6a eb e1 3b bd 41 3c bd a3 36 b2 3c e4 8b e2 bc
       0.0068945186 -0.04596113 0.021754568 -0.027654596
000160 39 d2 46 3d bb bc 86 3d 2a b4 92 3d 3c c0 3e bd
       0.048540328 0.06578966 0.0716327 -0.046570048
000170 5c 1c 23 bd a0 76 83 bd 4f 3e 81 bc 2a 19 6b bc
       -0.039821967 -0.0641911 -0.015776781 -0.014349261
000180 a5 b7 4d bd 4c a5 21 bd 07 bf 96 3c 34 35 00 bd
       -0.050223965 -0.03946428 0.018401636 -0.03130074
000190 d5 c4 a6 bc 02 c9 fa 3b 32 31 e6 3c 9f 59 7f bb
       -0.020357529 0.0076533565 0.02809963 -0.003896333
0001a0 72 93 03 bd a3 95 66 bc 23 a4 b6 bc f0 0b 50 bd
       -0.032123037 -0.014073762 -0.022295063 -0.050792634
0001b0 86 14 64 bd 22 85 15 3d 10 67 e5 3b 1f 65 b1 3c
       -0.055683635 0.03650392 0.0070008114 0.021654664
0001c0 26 ce 1f 3d 12 db d9 bc 33 7f 61 bd b2 f1 3a 3d
       0.039014958 -0.026593719 -0.055052947 0.045640655
0001d0 9d 0d 20 38 31 bc 10 bd 08 22 33 bd d7 43 da bb
       3.815965e-05 -0.035335723 -0.043733627 -0.006660919
0001e0 b3 64 2b 3d 95 28 ac 3c 46 40 25 3c a3 7d 60 3c
       0.04184408 0.021015445 0.010086125 0.013701829
0001f0 a4 af ba bc aa 18 26 3d 67 83 2a bd 54 38 6b bd
       -0.02278883 0.040550865 -0.04162922 -0.057426766
000200 e1 77 ed 3c 92 f3 40 3d 60 53 64 bd bb ee 8e bc
       0.028987827 0.047107287 -0.055743575 -0.01744782
000210 6b 29 84 bd f4 79 06 3c 73 18 33 bd cf e1 ad bc
       -0.06453212 0.008207787 -0.04372449 -0.021225838
000220 06 80 7d bc e2 c1 53 3c 3b 82 3a 3d eb b1 0c 3c
       -0.015472418 0.012924643 0.045534354 0.008587341
000230 81 73 82 bd 1a 18 17 bc 2a dd b1 3d 49 09 c3 bc
       -0.06369687 -0.009222055 0.08684762 -0.023808138
000240 3c bf 58 bd 62 df a5 3d d8 20 18 bc fb 06 25 3d
       -0.05291675 0.080992475 -0.009285174 0.04028986
000250 3e bf 43 bc 64 b1 09 bb bf 8d ae 3c ab b2 41 bd
       -0.011947451 -0.0021010274 0.021307824 -0.04728953
000260 4e d3 65 3a 6f e0 86 bd 76 62 ad 3c d6 71 fa bc
       0.00087671436 -0.06585776 0.021165114 -0.03057186
000270 a8 32 58 bd 12 d9 c4 3c 8c 66 18 3c 2d 01 06 3c
       -0.052782685 0.024029288 0.009301793 0.008178991
000280 ca 2e 0d bd 88 37 39 bb f2 58 17 3c 6e 92 96 3d
       -0.03446845 -0.002826186 0.009237515 0.07352148
000290 10 39 84 3d 8e a9 98 3d 11 7c 70 bd ca dd 9a bc
       0.06456196 0.07454215 -0.05871207 -0.018904585
0002a0 54 cb 3f 3d 71 a1 56 3d 87 79 54 3c 6c df f6 3c
       0.04682477 0.052400056 0.0129684275 0.030135833
0002b0 f1 0a 3b bd c2 fa 59 bd 23 ef b8 bb 4a cf c4 bb
       -0.04566473 -0.053217657 -0.0056437417 -0.006006156
0002c0 f8 ee 70 3d 2f fc 11 3c 7e 13 15 bd c2 8f 02 bc
       0.05882165 0.008910223 -0.036395542 -0.007968845
0002d0 18 8f f7 3c 09 2e 58 bb 4a b2 b3 3c 54 06 08 bc
       0.0302196 -0.0032986423 0.0219356 -0.00830229
0002e0 8e ff 39 3c 1f 2e 8d bc 35 5d 2e 3d ad b7 27 bd
       0.011352433 -0.017233906 0.042569358 -0.04094665
0002f0 c4 ea 1c 3d 25 eb 8c 3c dd 05 1a 3d ad 85 7e bd
       0.038309827 0.01720197 0.037603248 -0.062139202
000300 c0 a2 05 bc b5 f4 60 3d 20 bd bc bc 17 94 dc bc
       -0.008156478 0.05492087 -0.0230394 -0.026926083
000310 e7 42 8b 3d 54 b8 63 3d 35 dd 43 3d e3 01 59 3d
       0.0679987 0.05559571 0.04781838 0.052980315
000320 92 70 0d bd cc 0f 94 bc 66 0e 31 3d 80 c3 93 3c
       -0.034531184 -0.018073939 0.043226622 0.018037558
000330 05 48 95 3d 82 ed 08 3d 6f b9 8b 3d 9f 49 e8 3b
       0.07289127 0.03342963 0.06822478 0.0070888544
000340 54 d4 56 bc 0f 7f c0 3c 48 a7 47 3d dc 00 42 3d
       -0.013112146 0.023498086 0.048743516 0.0473641
000350 b9 a4 e2 3c 18 9c 15 3c 00 55 d2 bb de 8c 23 3d
       0.027666437 0.009131454 -0.006418824 0.039929263
000360 d1 9a f6 bc b5 d1 75 3c 5d ab 07 3c 33 57 40 3c
       -0.03010312 0.015003611 0.008280602 0.01173954
000370 4a 08 60 3d 62 90 44 3d be fc 55 bc 5e 86 7f 3d
       0.054695405 0.047989257 -0.013060747 0.062384002
000380 fb da 9f 3c ca bb 63 bb 5e 73 c8 ba 63 66 9e bc
       0.019513598 -0.0034749382 -0.0015293171 -0.019335931
000390 36 99 41 3d e7 18 86 3d aa 83 55 3c bd fc 68 3d
       0.047265254 0.065477185 0.013031879 0.056881655
0003a0 e2 ee 49 bc fb 10 9d bc a4 e2 88 3d 98 8d 1d bc
       -0.0123250205 -0.019173136 0.06683853 -0.009616278
0003b0 50 85 06 3d 73 82 43 3d 45 78 aa 3c b3 17 14 bd
       0.03284198 0.047731828 0.020809302 -0.036155414
0003c0 cd 93 38 bd d7 7b 29 bd 58 a5 38 bd ca 98 50 3c
       -0.04506283 -0.04137787 -0.04507956 0.01273174
0003d0 d1 f0 93 bc f6 fe 1c bd fb 20 49 bc ab 7f 9e 3b
       -0.018059166 -0.038329087 -0.01227593 0.0048369966
0003e0 06 91 25 3d 96 33 0c bd b9 bd 90 3c f2 3f 8d bd
       0.04042151 -0.034228884 0.017668592 -0.06896962
0003f0 31 67 58 bc 42 75 4c 3d 41 ab 42 3d 6c d1 3c bd
       -0.0132081965 0.049916513 0.0475266 -0.046098158

action_out.weight f4 [5, 256]
000000 86 05 b1 bc e5 a9 79 3d a9 cb aa bb d3 43 e2 bc
       -0.02160908 0.06095304 -0.0052122665 -0.027620232
000010 4e 4b b2 3a 43 48 67 3c 48 96 a3 bc 10 cd c7 bd
       0.0013602765 0.01411635 -0.01996912 -0.097559094
000020 76 f1 0a 3d 88 a6 6a 3d c2 88 19 bd c3 03 bc 3c
       0.03392168 0.057287723 -0.037483938 0.022951012
000030 8d 18 62 3d 25 90 eb bb b6 35 ff 3a 39 32 91 3c
       0.055199195 -0.007188814 0.0019470963 0.017724143
000040 a3 19 e2 3c 0e 63 6e bd 79 7a 4e 3d bf fe 61 3d
       0.027600115 -0.058199935 0.050409768 0.055174585
000050 3f e2 9d 3d 36 e4 97 3d 5a 16 a4 3e dd 4f dd 3c
       0.07709169 0.07416575 0.32048303 0.02701562
000060 23 b4 6b bd a4 9f 27 bd fd db d4 3c 25 f0 0e bd
       -0.05754484 -0.04092373 0.025983805 -0.03489699
000070 8d 25 06 3d e8 46 e0 3c 10 a6 9d 3a d8 de 80 3d
       0.032750655 0.02737756 0.001202764 0.06292504
000080 b0 ec c7 bb d2 ff a2 3c c6 17 7e bd 79 70 9c 3d
       -0.0061012134 0.019897375 -0.06203439 0.0763864
000090 10 1b 35 3d 3e 00 31 3d 56 10 e3 bc 8f 17 51 3d
       0.044215262 0.04321312 -0.02771775 0.051047858
0000a0 46 9c 3c bd 53 e1 18 3d c4 50 cd 3a 47 ba e1 3d
       -0.04604747 0.03732426 0.0015664329 0.11021858
0000b0 27 01 5d bc ec 0c 83 3d b0 5c c5 3d e2 c6 88 3d
       -0.013489044 0.06398949 0.09636819 0.06678559
0000c0 5b 32 5a bc 6a 5a 7d bd 58 fd 73 3d 37 90 f8 bc
       -0.01331767 -0.061853804 0.05956778 -0.030342204
0000d0 da 9b 29 3c 01 1f ab bd 4a bf 28 3c 97 99 02 3c
       0.010352099 -0.08355523 0.010299513 0.007971189
0000e0 50 5c f6 3c ab ef 90 3c 42 4b e1 bd ac 02 8e bd
       0.030073315 0.017692408 -0.110006824 -0.06934103
0000f0 70 bd 17 bc 06 fd 83 bd e9 44 96 3d 55 10 41 bd
       -0.009261474 -0.06444745 0.07337362 -0.047134716
000100 f5 37 9b bd 1f be 66 3d 1f 28 a3 bc 23 29 63 bd
       -0.07579032 0.056333657 -0.019916592 -0.055459153
000110 e0 98 5b bb 6f 92 2b be 5e e0 96 3a b2 6f b1 3c
       -0.0033507869 -0.16755079 0.0011510958 0.021659706
000120 8c 7b 85 bd 57 38 9c bc 54 fd 0c 3d b5 14 c8 3b
       -0.06517705 -0.019069834 0.03442128 0.006105984
000130 a9 d4 6d bd e0 0e 9d bd 21 38 47 bd 86 6f e5 bc
       -0.058064137 -0.07668853 -0.048637513 -0.02800728
000140 31 5f 0d b9 64 c4 75 bc dc 33 95 3c 49 65 be bc
       -0.0001348227 -0.015000436 0.018213205 -0.023241656
000150 37 15 0c bd 90 ce b3 3c 53 30 13 bd b8 f6 04 be
       -0.03419992 0.021949083 -0.035934757 -0.1298474
000160 0e d3 62 bc 4f 01 c6 bd df 59 36 3d 7b e4 98 3d
       -0.013844265 -0.09668218 0.0445193 0.07465454
000170 93 df b7 bd 29 62 21 3d e9 c4 a6 3d 55 71 bd bc
       -0.0897819 0.039400253 0.081430264 -0.02312533
000180 92 84 6b bc fe ce 90 bc a6 ae fd bd 30 e2 ef bc
       -0.014374869 -0.017676827 -0.12386827 -0.02928266
000190 7f 74 30 3d 85 70 ad 3d 02 9e ad bd 34 a0 ad bd
       0.04307985 0.08468727 -0.08477403 -0.08477822
0001a0 05 6b 72 3b 51 75 59 3d 40 15 45 3c 6e 39 5e bc
       0.0036990058 0.053090397 0.012028992 -0.013563497
0001b0 ad 83 71 bd b9 53 6f 3d 17 42 f3 bc 58 b2 78 bd
       -0.058963466 0.058429454 -0.0296946 -0.060716957
0001c0 ce 61 47 3d 9c f7 71 3d 77 3e 06 3c 2a e0 95 bd
       0.04867726 0.05907403 0.008193604 -0.073181465
0001d0 a2 91 21 3d 4a 6a d7 bc e9 54 0e 3c 67 0f 9b 3d
       0.039445527 -0.0262958 0.008687236 0.07571297
0001e0 b4 6f 8e 3d 4b 66 70 3b ab a4 1e 3c 7f 53 09 bc
       0.069548994 0.0036682065 0.009682815 -0.008381723
0001f0 1a 83 ed bc 26 35 e2 3c be c2 0e bd ab 60 25 bd
       -0.028993178 0.027613234 -0.03485369 -0.040375393
000200 71 7e 50 bd 53 21 72 3d da 45 94 bd a6 d7 c4 bc
       -0.050901834 0.05911381 -0.07239886 -0.02402861
000210 55 c5 dd 3c 82 84 31 bd e8 cc 09 3d df 1f ee 3d
       0.027071634 -0.04333926 0.03364268 0.11627173
000220 d6 71 01 bd 00 a5 7b 3d 38 4a 2e 3c 9d 41 d1 bc
       -0.031602703 0.061436653 0.010637812 -0.025543982
000230 d2 b9 36 3d b9 f6 1b 3d bf a3 5d bd 39 84 af 3d
       0.044610806 0.03807709 -0.05411124 0.08570141
000240 d2 61 14 bd b6 96 28 3d 79 fc 5e bd 6f e4 1d 3d
       -0.0362261 0.041159354 -0.054439995 0.03854793
000250 e2 e2 54 bd 94 d5 7a 3b 48 d2 ad 3d 91 b8 c1 3d
       -0.051974185 0.0038274275 0.084873736 0.094590314
000260 3a 6b 66 3d c2 79 b8 3c 0f 21 82 3c 5c 36 eb 3a
       0.056254603 0.022518996 0.015884904 0.0017945278
000270 5a 67 3b bd d1 a3 70 bd cc 8f ac 3c 37 71 31 bc
       -0.04575286 -0.058749977 0.021064661 -0.010830215
000280 08 ed 3a bc 6b b4 a2 bd a8 11 4b 3d 5f 50 c3 bc
       -0.011409052 -0.07944568 0.049577385 -0.023842035
000290 8b d8 5b 3d dc 56 78 3b bf 34 79 3d 44 fe 34 bc
       0.05367331 0.003789357 0.06084132 -0.01104695
0002a0 d0 c4 63 bd a0 77 3d bd 4d d2 34 bc e4 6d 6f 3d
       -0.055607617 -0.04625666 -0.011036468 0.05845441
0002b0 f2 f0 f1 bc 80 8e 7d bc b5 18 99 bd 79 73 89 3d
       -0.029533837 -0.015475869 -0.074754156 0.06711478
0002c0 7d 72 84 bd e4 d3 63 3d 41 ef 25 3d f6 93 a9 3c
       -0.064671494 0.055621997 0.040511373 0.020700436
0002d0 08 4a 40 bd 78 cf 27 3d 6b 78 e4 bd 2f 73 26 bd
       -0.0469456 0.040969342 -0.111557804 -0.04063719
0002e0 ff 93 8a bc a2 49 91 3c 4a 09 42 bd e8 e9 8b 3c
       -0.016916273 0.017735306 -0.04737214 0.017079309
0002f0 c4 fb 72 3d 5b a8 3d 3c 43 31 ac bc 5f 66 da bd
       0.059322134 0.011575784 -0.021019584 -0.10664057
000300 53 d0 9a bc 3c 91 08 3d 14 ca 1e 3b ea b1 9d 3b
       -0.018898165 0.03334163 0.0024229335 0.004812469
000310 b9 47 9e 3c 89 7c 84 bd 38 76 b8 3d 5c f4 61 3d
       0.01932131 -0.06469066 0.090069234 0.05516468
000320 da 19 f8 bc bd 3f 8a 3d 08 18 42 3c 3d 20 a1 3d
       -0.030285764 0.06750438 0.01184655 0.07867477
000330 93 a9 76 3d 5f 91 8f 3d c9 1b b1 3d fb bd 15 bd
       0.060220312 0.07010149 0.08647878 -0.036558133
000340 ee 05 5c 3d 90 ce 56 bc ce a1 1b bd 66 5a 5c 3d
       0.053716592 -0.013110772 -0.037996106 0.05379715
000350 89 fb 77 be 03 50 c7 3b 10 2c 26 3c 09 a7 74 3d
       -0.24217047 0.006082536 0.010142341 0.05972961
000360 c5 04 99 bd 76 65 54 3c df f1 e1 bd 57 07 a6 3c
       -0.07471613 0.012963643 -0.110324614 0.020267172
000370 db 1a 4e bd d8 3a 2f 3d 72 42 44 3d fb f8 88 bd
       -0.05031858 0.042780727 0.04791493 -0.06688114
000380 73 48 4f 3d 82 23 66 bd b7 15 6b 3d 29 c9 0f 3d
       0.050606202 -0.056186207 0.057393756 0.03510395
000390 d1 b7 a1 3d 70 7d 92 3d e7 53 f7 3c 3d 63 15 bd
       0.07896388 0.071528316 0.030191375 -0.036471594
0003a0 5b 19 90 3c ba 72 6d 3d 90 b0 74 bd 64 44 0b 3d
       0.017590215 0.05797074 -0.059738696 0.03400077
0003b0 71 5d 5b bc fe 2a 8e bc 2e 38 97 3d d5 d7 3a bd
       -0.013388977 -0.017354485 0.07383762 -0.04561599
0003c0 9d 35 4a bc a0 da 9f 3c bc a4 6c bd 3b 76 8c 3d
       -0.012341884 0.019513428 -0.05777429 0.06858488
0003d0 b8 da 97 3d d6 3a c0 bc 10 d9 aa bc 8d f1 29 bd
       0.07414764 -0.023465555 -0.020855457 -0.041490126
0003e0 70 e1 89 bc fa 63 92 3d b2 25 e2 3c 56 2f 3b 3c
       -0.01683113 0.07147975 0.027605865 0.01142486
0003f0 03 e0 2a 3d ee 80 2d 3d 15 7b 76 3d 96 e4 14 bd
       0.04171754 0.042359285 0.060175974 -0.03635081

action_out.bias f4 [5]
000000 25 f0 07 bd b4 49 8c 3d 49 8e ad 3c fe a1 c5 bc
       -0.033188004 0.06849995 0.02118601 -0.024125095
000010 51 24 ae bc
       -0.021257551

weight f4 [256, 123]
000000 99 da ff bb 8c 1f b5 bd c3 c7 40 bc 4a 51 b2 bc
       -0.0078080413 -0.08843908 -0.011766377 -0.021767277
000010 28 3e 8b 3d 0b 6f 97 bd 03 61 dc 3c 82 92 e0 bc
       0.06798965 -0.07394227 0.026901728 -0.02741361
000020 80 82 38 3c 37 cc 87 3d ea cd 6a 3d d0 7e b9 3c
       0.011261582 0.06630748 0.05732528 0.022643477
000030 ec f5 28 3d b9 84 e9 bc e0 18 9a bd f2 07 1f bd
       0.041250154 -0.02850567 -0.07524276 -0.038825937
000040 22 85 82 bb 41 2b 8c bd 94 66 c1 bc 37 d1 fd 3c
       -0.003983156 -0.068441875 -0.023608483 0.03098355
000050 f2 2d 27 bd b7 74 96 bd d8 8c 20 3b a7 c5 a7 bd
       -0.0408153 -0.0734648 0.0024498012 -0.08191996
000060 5c 2c a7 3d 48 0c 24 bd b3 0c b4 bc bf 3c 93 3d
       0.08162758 -0.040050775 -0.021978712 0.07189321
000070 ce 6f 62 3d a4 88 c9 bc bd 4c 9e 3a af af 9b 3d
       0.055282407 -0.024601288 0.0012077313 0.07601868
000080 32 a8 c2 3c a0 19 78 3b f6 8c 3b bd c0 7a 98 39
       0.023761842 0.003785707 -0.045788728 0.00029083155
000090 8c ec ab bd c4 22 ad 3c c9 46 08 3c 72 35 91 bc
       -0.08394727 0.021134742 0.008317658 -0.01772568
0000a0 19 22 a7 bd 80 46 b5 bd f6 b0 89 3c 00 6e 37 3d
       -0.081608005 -0.088513374 0.016808014 0.04478264
0000b0 6a 5b ab bc 8e ca 4f bc e4 f2 98 bd af 52 30 bd
       -0.020917613 -0.01268257 -0.07468203 -0.043047603
0000c0 ab 27 b9 bd 3e 37 41 3d b6 bc 89 bc 43 81 bc bd
       -0.09040769 0.047171824 -0.016813617 -0.09204342
0000d0 15 fe 18 3d 35 2d ab bd c6 6f 10 3d 94 17 88 bc
       0.037351687 -0.08358232 0.035262845 -0.016612805
0000e0 01 d4 9e 3d d6 46 73 3d 93 15 8e 3c ec 1d 4d 3d
       0.0775528 0.059393726 0.017344272 0.050077364
0000f0 e1 15 87 3d fa 0c 5e bd 23 df 84 bd 42 cc 7d 3d
       0.0659597 -0.054211594 -0.064878725 0.061962374
000100 93 a3 46 3d 97 f2 2d 3d 89 a0 62 3d 33 b1 ad bd
       0.04849584 0.04246768 0.05532888 -0.08481064
000110 fd 09 ad bd 5c 00 5e bd 52 5d 8d bd cc e6 43 bd
       -0.08449171 -0.05419956 -0.06902565 -0.047827527
000120 b0 42 35 bd 46 30 84 3d fd 59 83 3d dd fa 3a bd
       -0.04425305 0.0645452 0.06413648 -0.045649398
000130 4d 25 22 3d f2 9d a5 3d 27 7a a6 3c ab dc 94 3d
       0.039586354 0.08086766 0.020321919 0.072686516
000140 09 02 46 bd 2b cd 4e bd 50 d9 a9 bd b3 a6 a4 3d
       -0.048341785 -0.050488632 -0.08293402 0.08039608
000150 85 8a ae 3c 7e bf 72 3c 9c eb 14 3d 73 22 b0 3d
       0.021306286 0.014816163 0.036357507 0.08600321
000160 2a ca 97 3d 27 c4 c0 3d a4 5d 47 3d 31 12 82 3d
       0.074116066 0.09412413 0.048673287 0.06351126
000170 75 ad 84 3d 05 9f 84 3c 12 a5 94 bd 9e 2b 07 bd
       0.06478397 0.016189108 -0.07258047 -0.03300058
000180 68 4e a5 bd b8 6e ca 3c bb 75 28 bd 8d 13 a8 bd
       -0.080715954 0.024710998 -0.0411279 -0.08206854
000190 87 bf 4d bc c8 e6 55 3d 64 54 97 bc c4 f0 1e bd
       -0.012557871 0.052222043 -0.018472858 -0.03880383
0001a0 bc b5 9f 3c 40 d6 e6 3b c1 79 fa bb 59 a6 14 bd
       0.019495837 0.0070445836 -0.0076439087 -0.036291454
0001b0 e1 98 96 bd cd f4 4b 3d be 58 c6 bc 3f ca 01 bc
       -0.07353378 0.049794007 -0.024212237 -0.007921754
0001c0 73 7a 76 bd 64 9b 62 bd 41 48 13 bd c8 cc 0f 3d
       -0.06017537 -0.055323973 -0.03595758 0.035107404
0001d0 a3 64 83 bd 34 69 91 3d a7 80 f4 3c b0 7c bf 3c
       -0.06415679 0.07100144 0.029846502 0.023374885
0001e0 ef 9a b9 bd ba 53 36 bd cd d9 2c bd a3 8c 04 3d
       -0.09062754 -0.04451344 -0.0421999 0.032360684
0001f0 53 49 31 3c 90 6c f3 3c c2 e7 30 bd 15 51 6b bd
       0.0108207045 0.029714853 -0.04318977 -0.057450373
000200 c6 1b a6 3c 37 71 04 bd 1e 7a 9d bc 04 de 37 3c
       0.020276915 -0.032334533 -0.01922327 0.011222366
000210 9a 55 ab bd ed 7e 87 3d b0 6a 5f bd a9 61 4b 3c
       -0.083659366 0.06616006 -0.054545105 0.012413421
000220 bc a2 e7 3b bb 33 33 3c ee 44 42 bc 23 27 58 3c
       0.00706896 0.0109376265 -0.011857254 0.013192925
000230 69 7b 00 bd 06 ab 89 3b 9d c4 7c bd 17 f6 33 bd
       -0.031367693 0.004201296 -0.061710943 -0.04393586
000240 0d da 91 bd 07 fc ec bc 99 20 0e 3d 5a 7b 05 bc
       -0.07121668 -0.02892877 0.034699056 -0.008147085
000250 62 8d 11 3d 4c cc a2 bd c9 f0 69 bd 3d c0 31 b9
       0.035535224 -0.07949123 -0.057114396 -0.0001695165
000260 17 88 01 bd 06 72 23 3d d0 86 5d bc 31 bf b7 bd
       -0.031623926 0.039903663 -0.013520911 -0.08972014
000270 a0 25 98 bb d2 75 40 bd 56 8b f5 3c 6e 2a a9 3c
       -0.004643157 -0.046987362 0.029973667 0.020650115
000280 10 59 67 3d 5f f7 80 bd 58 69 6d 3d b5 b0 e1 3c
       0.05648142 -0.06297182 0.05796179 0.02755008
000290 dd f2 94 bd 94 7c 53 bd 03 c1 0e bd e0 21 ba bd
       -0.07272885 -0.05163248 -0.03485204 -0.090884924
0002a0 1a ff 9d bd 18 99 61 3d 3e bb 70 bd 22 fa 90 bd
       -0.077146724 0.055077642 -0.058772318 -0.07078959
0002b0 88 6a 13 3c 27 a4 99 bd 23 95 47 bd ee 20 6f bc
       0.008997567 -0.07502013 -0.048726212 -0.014595253
0002c0 5b 95 8f 3d 30 84 b1 3c ec 13 3c bc 3c ef 57 bc
       0.07010909 0.021669477 -0.011479359 -0.0131795965
0002d0 c8 5f 6d bd 03 6b 17 bd 00 1c 8d 3d 84 be 95 bd
       -0.057952672 -0.03696729 0.06890106 -0.073117286
0002e0 9a 16 75 bc 83 33 a9 3d d5 fb b3 bd 5e 04 1b 3d
       -0.014959002 0.08261778 -0.087882675 0.03784596
0002f0 3f 41 61 bd 17 c1 b1 bb 78 c6 f8 bc fe 78 5a 3d
       -0.054993864 -0.0054246294 -0.030368075 0.053338043
000300 0e 52 08 3d 00 ef 82 39 8b 55 90 3d ca e4 c0 bc
       0.03328138 0.000249736 0.07047566 -0.023546595
000310 89 77 aa 3d 3d 35 a1 3d e8 ab a1 bd 34 2d 8d 3d
       0.08323581 0.078714825 -0.07894117 0.068933874
000320 26 ab 65 3d 2a fd c2 3c 27 1d 6a 3c 1d f8 9d 3d
       0.056071423 0.023802359 0.014289177 0.077133395
000330 3d 47 38 bd 8f ac 80 bd 58 f1 83 bd 77 71 ee bc
       -0.044989813 -0.06282913 -0.06442517 -0.029106839
000340 c5 08 9b bd d4 90 84 3c e0 77 7f bb 52 da ab 3d
       -0.07570032 0.01618234 -0.0038981363 0.08391251
000350 80 10 22 3d bd 5e 82 bd 73 73 59 bd 2b 37 b2 bd
       0.039566517 -0.06365726 -0.053088617 -0.08701929
000360 36 af 3a 3d 77 b9 40 bd 18 15 8a bd 24 fe 91 bd
       0.04557725 -0.047051873 -0.067423046 -0.071285516
000370 f4 07 77 bd 27 13 a2 bd df ff 61 bd 7f 3f fe bc
       -0.06031032 -0.07913809 -0.05517566 -0.031036137
000380 b9 98 87 bd 57 0a e8 3c a0 c5 d5 3c d2 b3 41 3d
       -0.066209264 0.028325243 0.026095212 0.04729063
000390 d8 18 bb bc 0e f4 55 3d 35 4f 3b bd 68 bf a1 bd
       -0.022838995 0.0522347 -0.045729835 -0.07897836
0003a0 91 d3 09 3d 81 36 a8 bd bf 46 ff 3c de d1 84 3b
       0.03364903 -0.08213521 0.031161664 0.0040533384
0003b0 dd f4 ad 3d 7f a8 31 bd 0f 0d 77 3c 4b 45 8b bd
       0.084939696 -0.04337358 0.015078797 -0.06800326
0003c0 42 82 8e bd a2 b9 52 3d 67 53 cb 3c f0 83 49 bb
       -0.069584385 0.051446564 0.024820043 -0.0030748807
0003d0 00 70 85 3d 42 81 3e bc f5 cc c3 bb 90 df 68 3c
       0.06515503 -0.011627497 -0.0059753605 0.014213458
0003e0 d4 b4 aa bd bc 5a db bc aa 12 c7 bc 42 6e 9f 3d
       -0.083352715 -0.026776664 -0.024300892 0.07784702
0003f0 45 08 a1 bd 09 0f 90 bd 0e d5 b8 bc 6a 9b 44 bd
       -0.078629054 -0.07034118 -0.02256253 -0.047999777

bias f4 [256]
000000 43 fd e4 bc 07 28 f5 bb 25 f3 be bb 08 ce b7 bd
       -0.027952796 -0.0074815783 -0.005827325 -0.08974844
000010 59 4c b7 bc 55 67 a8 3c fa fa 28 3c 20 a6 13 bd
       -0.022375273 0.020557085 0.010313744 -0.0360471
000020 d2 30 a5 bb 5f 2e 0d 3a 25 74 94 bd c5 19 cd 3b
       -0.00504122 0.0005385633 -0.07248715 0.0062591755
000030 d2 36 35 bd 4b 18 6b bc 41 2a 2c bc a7 5c e5 3b
       -0.044241734 -0.014349054 -0.010508121 0.0069995704
000040 d5 4e 77 3c b9 3d c1 bc 57 17 b0 3a f2 06 90 3c
       0.015094479 -0.023589002 0.001343469 0.017581437
000050 00 3c 72 3d 34 ef b2 bd a4 be a8 3d 6d ac 96 3d
       0.05913925 -0.087370306 0.08239487 0.07357106
000060 31 af e6 3c 4d b1 8f 3c a8 42 91 3d a0 a0 21 bc
       0.02815971 0.017540598 0.07092792 -0.009864956
000070 8b 50 26 3d e2 74 83 3d b0 ca a1 bb 5a 53 80 bd
       0.040604156 0.06418778 -0.0049374923 -0.06265898
000080 c6 cc 1d bd 67 06 48 3b b9 39 11 bd 70 7b 48 3d
       -0.038525365 0.0030521394 -0.03545544 0.048945844
000090 5e 77 89 bd 62 d6 9e 3d 5a ee 01 3d 56 96 90 bd
       -0.067122206 0.07755734 0.03172145 -0.07059924
0000a0 7a d3 45 3d 11 3e b9 bd db 6d aa bd 6e 65 8b bd
       0.048297383 -0.09045041 -0.083217345 -0.068064556
0000b0 04 57 cf 3c bc 46 39 bc 9c 1f 79 bc 9f 92 a3 bd
       0.025310047 -0.011308368 -0.01520529 -0.0798695
0000c0 53 b5 a6 3c 32 d3 fc 3c 3f 87 7b bc 52 2e 9f bd
       0.020350134 0.030862425 -0.015352069 -0.07772507
0000d0 41 70 06 3d c9 56 a9 3d 78 8c 1d 3c 88 89 fc bc
       0.032821897 0.08268506 0.00961601 -0.030827299
0000e0 fc ff 63 bd 74 df 64 3c d8 05 4e 3d 0d ea 1c 3d
       -0.055664048 0.013969291 0.05029854 0.038309146
0000f0 14 7f 6a 3d c6 9c 5c 3d 08 be 39 3d f7 81 09 3d
       0.057250097 0.05386045 0.045347244 0.03357121
000100 95 67 f6 bc d0 8b 9a bd b1 71 88 bc 10 79 2d bd
       -0.030078689 -0.07546198 -0.016655775 -0.042351782
000110 3d f3 8d bd 84 bb 9b bd b2 7a 9c bd 75 c0 a7 3d
       -0.0693116 -0.07604125 -0.0764059 0.08191005
000120 e4 58 0a bd c8 a8 52 bd c0 5f 86 3d 6c c1 30 3c
       -0.03377618 -0.051430494 0.065612316 0.010788303
000130 a2 50 f1 3c e6 6d 51 3d f5 eb bf 3b c8 9a da bc
       0.029457394 0.051130198 0.0058569857 -0.026685134
000140 2e 5f 80 bd c5 4b a5 bd 7e 64 1c 3c 8e 33 1d 3d
       -0.06268154 -0.080710925 0.009545444 0.038379245
000150 44 17 08 3d dc 6c 57 bd 22 5d 87 bd 02 f1 0c bd
       0.033225313 -0.05259405 -0.066095605 -0.03440953
000160 3c 4a 47 3d 3a 34 4a 3d bf 80 9c bd 54 d4 92 39
       0.04865478 0.049366213 -0.07641744 0.00028005487
000170 b7 ad 0f 3b 24 b1 02 bd 5f eb 0d 3d f0 95 40 3b
       0.002192361 -0.031907216 0.034648295 0.0029386245
000180 2a 01 78 bd f1 39 a2 3d 52 52 1d bc fe 3f 8e bc
       -0.060547985 0.07921208 -0.009602146 -0.017364498
000190 cb 76 b2 bc 99 b4 44 bc 70 c9 21 bc 9d b6 94 3d
       -0.02178516 -0.012005948 -0.009874687 0.07261393
0001a0 c8 1a 91 3d 3c 3e ec bc 39 24 11 bd c6 9c 87 bd
       0.07085186 -0.02883827 -0.035434935 -0.06621699
0001b0 4e 06 84 bd 8d e7 bd bc 57 d8 04 bd cf e7 a9 3c
       -0.06446515 -0.023181701 -0.03243288 0.020740418
0001c0 95 88 4a bd d4 cc ae bd 28 f3 ab 3c 44 c2 b3 bd
       -0.04944666 -0.085351616 0.02098997 -0.087772876
0001d0 1d 4b ad bd 4b d4 2f bc ee be 25 bd 67 6c 97 bc
       -0.08461592 -0.010731767 -0.040465288 -0.018484307
0001e0 a7 f3 b1 3d 34 cc 7e bd c5 d1 a6 bc 56 9f 5a bd
       0.08689051 -0.062206462 -0.020363698 -0.05337461
0001f0 c4 54 8f 3d e4 3b 84 3d d9 c0 36 3d 36 34 8a 3d
       0.0699859 0.06456736 0.044617508 0.0674824
000200 f1 5b 9e bd b9 91 af 3c 29 c6 1d 3d 63 48 92 bd
       -0.0773238 0.02143179 0.03851906 -0.07142713
000210 6d 70 7b 3d 70 42 95 bd 58 70 35 bd 31 64 69 bd
       0.061386514 -0.072880626 -0.044296592 -0.056980316
000220 b0 50 b1 3c 82 f6 af bd e9 59 d6 3b a4 d8 0d bd
       0.02164492 -0.085919395 0.00654148 -0.034630433
000230 ee 1e bc 3c 60 f0 3a bd ed 29 31 3d 81 fc b2 3d
       0.022963967 -0.045639396 0.043252874 0.087395675
000240 27 5d 1a 3c f8 5f 68 3d 01 78 a3 bc 5c 91 8a 3d
       0.009421623 0.056732148 -0.019954683 0.06766006
000250 77 f6 6b 3d 4b ed 93 bd a6 d0 42 bd 61 b9 8e 3d
       0.057608094 -0.072229944 -0.047562264 0.06968952
000260 1b dc 5c 3c e0 8e 29 bc 34 b4 ab bd a3 21 20 bd
       0.013480212 -0.010349005 -0.083839804 -0.03909458
000270 76 22 f3 bc fc 06 e0 bc e3 d5 a5 3d 57 fa 90 3d
       -0.029679518 -0.02734708 0.08097436 0.070789985
000280 45 b3 b3 bd ae db b8 bd f7 85 a4 3d 3f 0c 46 3d
       -0.08774427 -0.090262756 0.08033364 0.048351523
000290 89 64 30 3c 03 d3 4f 3d 2f 01 73 3d f9 7e 6b 3d
       0.010766157 0.050738346 0.0593273 0.057494137
0002a0 23 ab a6 3d 7c dd 33 bd 14 c7 8f bd 0a b8 df 3c
       0.081381105 -0.043912396 -0.07020393 0.027309436
0002b0 92 d6 50 bd e6 65 1f bd 31 ab 54 3c 38 50 a5 3c
       -0.05098588 -0.038915537 0.012980268 0.020179853
0002c0 a6 3c 2c 3d a7 28 a2 3d 9f ca 8a 3d 28 21 88 3d
       0.042050026 0.0791791 0.06776928 0.06646949
0002d0 aa 3d 23 3d 21 3a b1 bc 33 bc 06 bc 3b b4 62 bd
       0.03985373 -0.021634163 -0.008223581 -0.055347662
0002e0 6c 61 10 3c 66 4f b2 bd 4a 3c 76 bd 04 a5 77 3d
       0.00881229 -0.0870655 -0.06011609 0.060460106
0002f0 00 4f 97 3c 72 98 a0 3a 23 a1 1f bd 6f 6e 1a bd
       0.018470287 0.0012252463 -0.03897203 -0.037702974
000300 08 c3 53 3d f1 99 8a 3d 23 2f a3 bd 19 ed 13 bd
       0.05169967 0.06767643 -0.07967975 -0.036114786
000310 7a 3b ac 3d 13 85 3d bd 89 7f 87 ba 2d ea 83 3d
       0.08409782 -0.046269488 -0.0010337691 0.0644115
000320 32 df a4 bb a4 76 a7 bd c5 83 d8 3c 2d 8f a7 3d
       -0.0050314898 -0.08176926 0.02643002 0.081816055
000330 82 6c c0 bb c5 40 44 3d 07 09 0e 3d 89 47 85 3c
       -0.00587231 0.04791333 0.034676578 0.016269462
000340 27 ff 7b bd c0 3c bd 3b 60 8b a0 bc b1 36 56 3d
       -0.06152263 0.005775064 -0.01959771 0.05229825
000350 34 c6 a7 3d b8 54 5b bd 3f ff b5 bd 7f 8d 3e bd
       0.08192101 -0.05354759 -0.08886575 -0.04652166
000360 7a be a4 3d 36 6e b2 3b f0 d2 87 bb f0 37 9e 3d
       0.08044143 0.005445267 -0.0041450188 0.07725513
000370 93 3b af 3d 99 96 a1 3c 82 f8 8f 3d 4e bf 61 bd
       0.08556285 0.01972513 0.07029821 -0.055114083
000380 8d cb 1c bd 99 e9 09 3d 79 3e da ba 75 39 0d 3d
       -0.03828006 0.03367004 -0.0016650698 0.034478623
000390 c8 8f 84 3d a3 e3 27 bd 10 25 a1 3d 49 59 73 3d
       0.064727366 -0.040988576 0.07868397 0.05941132
0003a0 17 80 9c bc fc ee 2a bd 35 7f 52 3d ff 94 54 bd
       -0.019104047 -0.04173182 0.051390845 -0.051899906
0003b0 8c 28 8b bd 73 fd 97 3d 61 d0 38 bd 0c 90 a3 3d
       -0.06794843 0.074213885 -0.0451206 0.07986459
0003c0 b3 b1 a6 3d 61 0b 73 bd c9 b4 3b bd c9 71 ae bd
       0.08139362 -0.059337024 -0.045826707 -0.085177965
0003d0 28 56 33 bd 24 d0 6a bd 05 98 52 bd f1 24 3b 3d
       -0.043783337 -0.057327405 -0.05141451 0.045689527
0003e0 5c 4b 47 3d 48 8e b4 bd d9 fc 7b 3d cf cc 95 bd
       0.048655853 -0.088162005 0.06152043 -0.07314455
0003f0 22 eb 31 3d 1b 49 fa 3c 03 f9 30 bd 0a b7 a3 bd
       0.04343713 0.030552438 -0.043206226 -0.07993896
