src/saved_models/grid_world_seed125_8_3_20_13/125_5_model.pt (torch, 702521 bytes, 11 tensors)

FC1.weight f4 [256, 36]
00000000: f778 2abe da75 413e 97d4 543d 3947 21be
00000010: 766c 1bbd e9ee f2bd b913 0bbe 9ffa 553b
00000020: cf41 c53d b5df 1dbd 61a6 513d cf3a d6bd
00000030: 0199 dfbc 92f3 003d 5a96 233d 5bef 3f3d
00000040: 63b7 053e 7bd5 003c ce88 10be 0f50 873e
00000050: 296d 723d bf5b 08be f448 6abd 2fb8 b23d
00000060: 2be5 99bd dc07 25bd 2ec4 133d d384 f8bd
00000070: cd4d fc3d e10e c7bc ed75 083e c0ef aa3d
00000080: 0ca7 33be 8e9b 8bbc 5dd5 c9bc fd2e a2bd
00000090: 7ce3 4cb8 33ce 2d3e 8da3 d93d 3785 e6bc
000000a0: c911 d63c 9863 1c3e 4297 65bd f64d c5bd
000000b0: 8b38 2e3e 946c c73d c7ab 2b3e b5c7 c7bd
000000c0: aba9 c0bd 3ca5 ea3d 8b1c 163c 9ddb d43d
000000d0: ffad 1fbb db28 1e3d 28d3 243d 2dfa 563e
000000e0: c453 b0bd 87a5 cb3a fba8 43bc 7bee 823c
000000f0: 2757 283e a905 1dbe d394 36be a55e 1c3e
00000100: f528 c1bd 54ba c03b 304a 95bd b961 1c3e
00000110: f169 56be 8fe8 f73d 8788 193e 76ce 943d
00000120: e824 cf3b ffca d5bd 738a b63d d863 823d
00000130: d301 223e a01a b4bb c0d5 1f3e 50c6 7b3d
00000140: e99f 1e3e 411a a2bd 8a61 153e e4b5 f63c
00000150: 41cd cdbd 1e0d cc3d 4e8c be3c 56b0 243d
00000160: fbe6 16bc 26e0 0abd 1525 443e a5d4 e13d
00000170: ac22 863d 228b 1c3e c206 033c 949e 833a
00000180: f063 98bd 211e 3bbe cae5 75bd ed48 e9bd
00000190: 9d41 ba3c cc42 82bd 5a18 013e 772e a03c
000001a0: f737 5c3d 92d6 4abe 9898 0a3e ff4f 10be
000001b0: 4d3d 263c 897b d83d 3b5f 013d cc17 1abd
000001c0: 8044 0dbe 6298 813d 8c57 e1bd 54f8 dfbd
000001d0: 38dc 4e3e d068 fbbd 5a08 02be 8a2c efbc
000001e0: 44a4 183d 4327 df3b a2d7 98bd 5887 113e
000001f0: e6f6 3cbc 9f2e 0bbe 5099 04be 55de 573d
00000200: a2b8 29bd a29e 71bd 3cce a73d 620b 933d
00000210: c6b0 8ebd b2ce 7dbd afb1 7bba 6d89 44bd
00000220: 1078 75bd 05ef 1e3e e11e f93d 7057 bfbc
00000230: 385e 9a3d 0c15 27bd 71d7 2bbe cc7e 3b3e
00000240: 9395 1f3e ffe1 09be a963 0f3e 74c2 893d
00000250: 2cb1 ee3c 8617 973d c975 0c3e 71e2 1a3e
00000260: 6bd4 49bd 11c5 093e 39aa 203e 11f8 803d
00000270: 12c7 8ebd fe4c 89bd 5ed8 ebbd 7732 4c3c
00000280: fb91 343e 9f68 1ebe 5917 f3bd e397 073e
00000290: d20c 273e e43b ed3d 6f07 ee3d 21a8 b43d
000002a0: ce51 efbd 4daf 603c fb45 0f3e c4e4 8cbd
000002b0: a725 f1bd 5a00 dcbd cf4f b03c 7ff6 16be
000002c0: dc1f 283e 6eab e4bd e0fd 9d3d 31fe 083e
000002d0: 060e f2bd d0eb 42bd 1069 913d 5b65 1dbe
000002e0: bb4d 1c3e a0ee be3c 1508 093e 006a bd3b
000002f0: 5b6e 0fbe 587a be3c 9347 edbd 2c1c 5d3d
00000300: e4d8 773d c0e5 b53c fad8 06be 2483 0a3d
00000310: f801 c1bd 1037 a7bd c613 bdbd 12b7 c63d
00000320: e8f2 efbd 9ed4 9dbd cb6b e3bd f8a7 8ebc
00000330: 30a2 fabd b0e9 13bc b8b7 a53d 0e34 c3bd
00000340: 3634 aabd f33a 03be dda6 003e 9cb2 083d
00000350: 080d eebc 20cf f1bc 402d f0bd dcf3 77bd
00000360: 289a bcbd 0059 9f3d fac9 dd3d e4b6 683d
00000370: 7a78 c73d e4ce 113d 5eef a7bd 8cae 103d
00000380: 00cd 9abd 1a27 17be c0da 69bd 439a 02be
00000390: d2ce c93d d699 d6bd 668a 7bbd 42ac 9d3d
000003a0: 7633 b13d dacf 993d e2a3 ea3d 4ef2 14be
000003b0: bed5 923d 6059 d53b 7b26 babd 881d bdbc
000003c0: bea4 d0bd 96c7 05be 1359 09be 7086 3a3c
000003d0: d320 cfbd d6f4 2ebd 341c 14be 3857 9dbc
000003e0: 4860 8bbd 764a 1dbe 10c9 76bc 208f 6fbd
000003f0: e3fa 70bd ce0b 833d 16d0 4b3e 422f bebd
-0.16647707 0.18892613 0.051960554 -0.15749826 -0.037945233 -0.11861975 -0.13581742 0.0032650603
0.096316926 -0.03854342 0.051184062 -0.104604356 -0.027294638 0.031482287 0.03993831 0.046859127
0.13058238 0.007863398 -0.14114687 0.26428267 0.059186134 -0.13316248 -0.05719848 0.087265365
-0.075144134 -0.0402907 0.036075763 -0.12134709 0.12319527 -0.024299087 0.13326235 0.0834651
-0.17544192 -0.017041948 -0.024637872 -0.079191186 -4.884925e-05 0.1697319 0.10626898 -0.028139694
0.026131527 0.15272367 -0.056052454 -0.096340105 0.17013757 0.097375065 0.16764747 -0.09754888
-0.094073616 0.11457297 0.009162079 0.103934504 -0.0024365184 0.03861318 0.040240437 0.20993872
-0.08609727 0.0015537002 -0.011942144 0.015982857 0.16439496 -0.1533419 -0.1783021 0.15270479
-0.0943164 0.005881587 -0.07289541 0.15271653 -0.20938851 0.12104904 0.14993487 0.07265942
0.0063215382 -0.10439109 0.08913126 0.063667 0.15821008 -0.005496338 0.15608883 0.061468422
0.15490688 -0.07915164 0.1458799 0.03011603 -0.10048915 0.099634394 0.023260262 0.04020723
-0.0092103435 -0.03390517 0.1915477 0.11026887 0.06549582 0.1528745 0.007997217 0.0010041767
-0.074409366 -0.18273212 -0.060033597 -0.113908626 0.022736365 -0.06360397 0.12606946 0.019553406
0.05376431 -0.19808415 0.13534772 -0.14093016 0.010146451 0.105704375 0.03158496 -0.03762035
-0.13795662 0.06327893 -0.11003026 -0.10936037 0.20201194 -0.12275851 -0.12698498 -0.029196043
0.03726603 0.0068101003 -0.07463004 0.14211786 -0.011533475 -0.13592003 -0.12949109 0.052702267
-0.041435845 -0.058989175 0.08193633 0.071799055 -0.069673106 -0.061964698 -0.0009601367 -0.047982622
-0.059928954 0.15520866 0.12164093 -0.023357123 0.07537502 -0.040791556 -0.16781403 0.18310088
0.15584402 -0.13465117 0.14002861 0.06726542 0.029137217 0.073775336 0.13716806 0.15125443
-0.049274843 0.13454081 0.15689935 0.06297315 -0.069715634 -0.06704138 -0.11515878 0.012463204
0.17633812 -0.15469597 -0.118696876 0.13241534 0.16313484 0.11583689 0.116225116 0.088211305
-0.11685525 0.01371367 0.13991539 -0.06879571 -0.1177476 -0.107422546 0.02152243 -0.14742468
0.16418403 -0.1116551 0.077144384 0.13378216 -0.11819081 -0.04758817 0.07100117 -0.15370695
0.15264027 0.023307145 0.1338199 0.0057804585 -0.14006941 0.023251697 -0.11585917 0.053981945
0.060509577 0.02220428 -0.13168707 0.03381647 -0.09424204 -0.08164799 -0.09232287 0.09702887
-0.117162526 -0.07706569 -0.11104544 -0.017414078 -0.12237966 -0.009027883 0.08091682 -0.09531413
-0.0831074 -0.12815456 0.12563653 0.03337346 -0.029058948 -0.02951771 -0.11727381 -0.060535297
-0.092090905 0.07780647 0.108295396 0.056815043 0.09739776 0.035597697 -0.081999525 0.03532271
-0.07558632 -0.1476101 -0.057093382 -0.12754159 0.09853901 -0.104785606 -0.061411284 0.07698871
0.086523935 0.07510348 0.114570394 -0.14545557 0.07169674 0.0065108985 -0.09089371 -0.02308537
-0.10187672 -0.13064417 -0.13412885 0.011384591 -0.101136826 -0.042713962 -0.14463884 -0.019206628
-0.068054736 -0.15360436 -0.0150625855 -0.058486104 -0.058833014 0.06398736 0.19903597 -0.092863575

FC1.bias f4 [256]
00000000: adb3 023e 08e2 463d 481a b13d da52 d8bc
00000010: c261 c4bd 688b d6bd e03d d0bc b2f8 3f3e
00000020: d3b3 7ebc a21c d53d 1f2f d8bc 33e8 07be
00000030: c40c c63d ab9c b03d 958d 7e3d d942 423a
00000040: b5cb 0fbd c0d3 3c3c e778 02bd 7bae 083d
00000050: 1718 1ebe 42ea a6bc d2e7 79bd 3cae a2bd
00000060: efec dcbd f338 bd3d e335 e53d b903 0dbe
00000070: cc28 f4bb 0431 aabd 7025 7abc 2b6c dd3c
00000080: edca 263e 32af 7c3d eb8a 8b3d e753 a2bc
00000090: a85c 2b3e 628f d03d 93ce e1bd e4c6 bf3d
000000a0: 6ccb aa3d 8e41 1abe 37db dcbd 7716 bcbd
000000b0: 5db8 26bd 0f06 1e3e 1339 3fbd 6031 7bbd
000000c0: e80b b1bd d1f4 1b3e 6128 a6bd 58d8 933d
000000d0: 543f 3d3e 365a 19be 602c 11be 1c1d 0cbe
000000e0: 1d80 bcbc dc39 b8bd a3ca 133d 1110 0bbe
000000f0: 0f89 563d d762 76bd c238 79bd 0fc9 cabd
00000100: 2e23 583d f3a9 7fbd 5be6 ddbd 4e83 c43d
00000110: f688 8bbd d0b0 2a3c db08 dd3c d75c 1dbe
00000120: 8820 893d 5eaa 2cbc b215 9abd f2bb b73d
00000130: 539e e13d e824 fabd 9851 423e cd74 61bd
00000140: 7cdc 783d 3883 253d c014 003c f4ca 2abe
00000150: 7d80 d93d 3795 c4bd 2ecd ce3c 83af babd
00000160: edf9 533d 1b0b f8bd c49e 223e ed3b 2f3e
00000170: 6d19 433d 9f82 afbd 9e5b c7bd 1d3b fa3d
00000180: 5611 88bd 618e 163e c0e2 26bc 5650 c9bd
00000190: 9880 e9bd d101 0ebe 38a4 013e acdd 25bd
000001a0: 927f 35bc 5692 e43d d2e0 e63d 5eac c3bd
000001b0: 34af f2bd 3dd6 3cbd 49fb 0b3e 3d4a 403e
000001c0: 00ae 63bd 7e92 623d 7e7f 253d 7d1b c63d
000001d0: 06e8 9dbc aaf3 e03d 6cb3 5dbd 82fc 3c3d
000001e0: 2412 fc3d b20d e13a 459f cbbc 4bc8 973d
000001f0: 68cc dbbd 2b46 8c3c 3a6c 11be 7cf3 2b3e
00000200: 2227 713c 2fdf 90bd 3ee7 153c cb5b 573d
00000210: 137b 133e afe5 fdbd 5516 0b3e 9d19 293d
00000220: 18db de3d fdea 21be c3af a7bd a61f 933b
00000230: fc46 7bbc ac20 0f3e 4f09 dcbd 79ed 2cbc
00000240: 2928 14be 37ef 8d3d e6a4 183e a8aa bf3c
00000250: e610 2c3e da48 f03d 47b2 243e 2688 febd
00000260: 140a 1e3e 54f0 803d b9bb 2bbd a6e7 19be
00000270: 9874 023d 2371 3bbe 7944 1fbd dd60 cb3d
00000280: 24b8 4b3d 347f 223d e231 cbbd 276f babd
00000290: 6860 cbbd 9fe7 db3d 223c 1b3c c172 4b3d
000002a0: 8298 28bd c8c2 2b3e 1e3a 07bd 792f 223e
000002b0: 385c e73d 97a6 1e3d ed65 933d 7527 c23d
000002c0: e0f3 d13d 1ee4 3a3e b014 29bd 13d6 81bd
000002d0: 86fc 863d 81c8 a8bb f0b0 4d3c 6324 7fbc
000002e0: 9de0 1d3e 7ccd cbbd 03f0 b83d adca 543d
000002f0: 30e3 163e ed31 6dbd ee8a 453e 52ef 0bbe
00000300: f97a 3bbd d72b 1ebd 5479 6dbd 8367 b6bd
00000310: 4b7c 2b3b ff58 143e 0f43 273e 50fc e23d
00000320: 2623 c23c e72a 9ebd 9c1c 243e 213b 923d
00000330: 2a2a c33d d1b0 963d e2c0 043e c492 383e
00000340: 345a 04be 9c61 bc3d 4109 9c3d dfed ce3d
00000350: 00e8 b539 06eb 93bd 380c e3bc 0dc2 263d
00000360: 93e1 6b3b 1c61 ffbc a84d b9bd 3916 123d
00000370: 1790 9ebd 1a3f 9e3d e058 9f3c d127 a4bc
00000380: d96b c9bd 0bb2 cd3d 204a bdbc 6a2a cfbd
00000390: 81ac 2fbe 0157 e5bb 76d9 08be 1492 8e3d
000003a0: 2b3d 97bd 3cdb 0d3e eb7e 6f3c 10f4 c43d
000003b0: c4e4 ffbd 007b 043d 663c 0abe 909e aa3d
000003c0: 932f 91bd 6acd 19be 2205 c83d 1fe6 3ebd
000003d0: fd3a 05be c194 083e f35f 663e 41be c7bd
000003e0: 3c66 aebd e8f5 9c3d afd0 f93d e84b 203e
000003f0: 93da 1b3e 7096 cc3d 2f46 663e 43d2 8abd
0.12763853 0.048555404 0.08647591 -0.026406694 -0.09588958 -0.104758084 -0.02542013 0.18747213
-0.015545803 0.10405852 -0.026389657 -0.1327217 0.096704036 0.08623632 0.062146742 0.0007410474
-0.03510638 0.0115250945 -0.031853583 0.033369523 -0.15438877 -0.020375375 -0.061012097 -0.07943389
-0.10787379 0.09239378 0.11191919 -0.13770951 -0.0074511524 -0.0831013 -0.015267715 0.027029118
0.16288348 0.061690517 0.06813606 -0.019815398 0.16734564 0.10183598 -0.11025729 0.09364107
0.08339581 -0.1506407 -0.107839994 -0.09183972 -0.040703166 0.15431999 -0.04668529 -0.061326385
-0.08644849 0.15230109 -0.081131704 0.07218999 0.18481189 -0.14975819 -0.14177084 -0.1368298
-0.023010308 -0.08995411 0.03608192 -0.13580348 0.052376803 -0.060152855 -0.060845144 -0.0990163
0.052767925 -0.062417936 -0.108349524 0.09595357 -0.068132326 0.010418132 0.026981762 -0.15367447
0.06695658 -0.010538666 -0.07523669 0.089713946 0.11016526 -0.122140706 0.18976438 -0.05504303
0.060757145 0.040408343 0.007817447 -0.16678983 0.1062021 -0.09598773 0.025244322 -0.091155075
0.05175202 -0.12111493 0.15880877 0.17112704 0.04763167 -0.08569836 -0.097342715 0.12218306
-0.066439316 0.1470275 -0.010185897 -0.09829776 -0.114014804 -0.1386788 0.126603 -0.040494606
-0.011077778 0.11160724 0.1127335 -0.09554361 -0.118498236 -0.04610275 0.13670076 0.1877832
-0.05558586 0.055315487 0.04040479 0.09673212 -0.019275676 0.10983975 -0.05412619 0.046139248
0.123081475 0.0017170219 -0.024856219 0.0741125 -0.10732347 0.017123302 -0.14201441 0.167921
0.014718803 -0.07073819 0.009149371 0.052577775 0.14402418 -0.12397324 0.13582738 0.041284192
0.108816326 -0.15812297 -0.08187821 0.004489857 -0.015336748 0.13977307 -0.10743963 -0.010554665
-0.14468445 0.06930392 0.14906654 0.023396805 0.16803321 0.11732645 0.16083632 -0.12428312
0.15433532 0.06295839 -0.041927073 -0.15029773 0.031849474 -0.18304877 -0.03888366 0.099305846
0.049736157 0.03967209 -0.09921624 -0.09103232 -0.099304974 0.107375376 0.009474786 0.049669985
-0.041161068 0.16773522 -0.03301441 0.15838422 0.11296886 0.03873309 0.07197175 0.09480182
0.102515936 0.18251082 -0.041279495 -0.063396595 0.06591134 -0.005150855 0.012554392 -0.01557264
0.15417714 -0.099513024 0.090301536 0.0519511 0.14735103 -0.05790894 0.19291279 -0.13665512
-0.045771573 -0.038616028 -0.057977036 -0.08906462 0.0026166614 0.14487074 0.16334175 0.11083281
0.0236984 -0.07723027 0.16026539 0.07140184 0.095295265 0.07357944 0.12964204 0.18024737
-0.12925035 0.09198305 0.076189525 0.10103964 0.00034695864 -0.072225615 -0.027715787 0.040712405
0.0035992607 -0.031174235 -0.09048015 0.035665724 -0.07742327 0.077268794 0.019451559 -0.020038517
-0.098350234 0.100437246 -0.023106635 -0.10115512 -0.17155649 -0.006998897 -0.13364205 0.06961456
-0.07384714 0.13853163 0.014617662 0.09616864 -0.124948055 0.032343864 -0.13499603 0.08331025
-0.07089152 -0.15019765 0.09766604 -0.04660618 -0.13010783 0.13337995 0.22497539 -0.09753085
-0.085155934 0.076640904 0.12198006 0.15653956 0.15220098 0.09989631 0.2248771 -0.067783855

FC2.weight f4 [256, 256]
00000000: 3100 783c a8a5 bc3c 7d78 42bd b39d de3c
00000010: 7d08 b83c d48e 803c 72b7 1cbd 28a1 0ebd
00000020: 75c1 523d 12f0 843c 636a 2fbd dbdd 73bd
00000030: a49a 6d3d c50f 9c3c fabe e33c a896 583d
00000040: a481 813c e7ce 17bc 1fad 24bd 7356 653d
00000050: bcac 82bc 6523 023d 65eb bd3c 934c 86bc
00000060: 9be7 a4bb e09a 35ba 8a13 663d 9408 b03c
00000070: adfe acbc b8a9 41bd 5a2a 1dbd efab 923d
00000080: 1440 4b3d 633a 513d ca8f 953c 0a69 14bd
00000090: db1c dc3c 262c fa3c 351f e13c a4ea 433e
000000a0: 9fb2 433d 4834 4abc 6530 783d 42b9 613d
000000b0: 3aa2 2f3d b531 e43c 52df b5bd 817a 533d
000000c0: 0b7c 0fbd 7d07 b03d 5a49 6abd b0ea 1f3c
000000d0: 4222 1bbd 6e76 8e3e f625 4dbb e35c 01bc
000000e0: efd9 ce3d c6a0 8a3b 7bf9 a33c 457a e43b
000000f0: 8069 283d 4642 fe3c 32ac 973d 2d1c cd3c
00000100: 8078 703d bcfa a43c 993c b1bb 0d8e 583d
00000110: d8e4 b43c 30fe 2c3e f262 e53c 3cd0 8f3c
00000120: e325 47bd a26f ccbc d888 59bd 4de0 b93c
00000130: 6405 7d3b 70fe f1bc 4de9 723d b8e4 71be
00000140: 7600 a33d 4009 653d 74af d73d 475e 983d
00000150: 1d98 b43c 4330 fc3d 5bae 39bd e0e5 483c
00000160: e168 f53c b8a1 76bd bbed 723d e5de 8e3d
00000170: f9ea 443d 5607 19bd a900 15bc 06e6 443c
00000180: 1ae4 443d 6742 873c 3cc9 193d 043f 62bd
00000190: 8dd9 8b3d 6999 a23d 83f8 a23d 41b6 25bb
000001a0: 6d3b a13b dcc6 84bc c054 bc3a 5479 d0bc
000001b0: 6bf9 2abd 70e4 4a3c cd6e 813d 0648 373d
000001c0: 92e4 f73b 6835 0abd e738 bebc 292e 35bd
000001d0: 7f67 5dbd 409f 0d3d 5f32 d7bb 9f9b 89bc
000001e0: 28dd 0c3b e47b dcbc d0d9 263d d56d 263d
000001f0: e466 923c 96c1 1f3e 8234 08bd e730 09bc
00000200: 811f 8e3d 3cbe 9739 4ef0 3ebd f27d f9bd
00000210: 62db e2bc 13dc 803d e117 853c b4cc 963c
00000220: 601e 2b3b 3e74 3e3d 322b 7fbd 3679 253d
00000230: 1fdb 583c 5726 833d 176c 2bbd e18f 0e3d
00000240: 389b 133c 3a00 c43b 6b16 653d 8817 df3c
00000250: 3522 3b3d e3b7 0abd 1e90 29bc a287 aebd
00000260: a78e e03c be62 a43d 7d16 fc3c 2686 28bd
00000270: a5ad f43c 344c b8bc a335 3a3b 4b71 c8bc
00000280: 4f8c 74bd 31c5 71bd caf2 133e 8102 71bd
00000290: bc1d e5bc 8a97 123d e6c0 213c eac7 553d
000002a0: eab7 2bbd 2b2f 903d 3c32 e13c 452b 20bd
000002b0: 0147 f53b eb7f 293d 9d85 2f3d 1bef a83d
000002c0: 0f53 653c dcb8 ef39 5c9c af3c 6303 8c3c
000002d0: 3a48 c8bd 8121 e9bc 45bf 05bd 9d13 a43c
000002e0: 86a3 aa3c e8b7 983d 798b b03d 26b0 3cbc
000002f0: ef9d 8c3d 894c 9a3d 4d6a 983d 8d3d b53c
00000300: a854 81bc 274a 953d 9b18 9e3d 16c9 5fbd
00000310: 8bfb d63b 2da9 5c3c 5aef bdbc 1b82 533c
00000320: 3f29 323d 74fe 8c3c 9f02 82bc bc00 1ebd
00000330: 63a6 893d 873b 793c 844b 993d d8ce 843d
00000340: f239 bf3d 2405 ec3b cb71 533c 1faa 9cbd
00000350: a82c 66bd 47c5 d2bd 2cc2 5dbd f040 793d
00000360: ea2e 3e3d 6e0b e4b9 b79b 2b3c 1073 df3b
00000370: c98b cabc 6273 19bc c8b6 1f3d bd3f f73b
00000380: 3de8 f93b de46 c63c 1aea 5a3d dd3c 11bc
00000390: 5390 ddbc cafe 853b a003 483d ae18 36be
000003a0: 1879 8a3c a18c ca3c 14d7 a73d 7c1c 913d
000003b0: 41ee 89bc d140 ad3d 20ca b43c adcd 863d
000003c0: 591d 81bd df7d 133c e4ff f8bc f3e6 813d
000003d0: f457 c3bd 4c69 3e3d 55d3 df3d 0265 b8bc
000003e0: dc19 5a3e 7c6c 2bbd def1 d13c cf2a 0ebb
000003f0: aca6 09bc 1c27 37bd 06e4 babe bf4a 13be
0.015136764 0.02302821 -0.047478188 0.027174806 0.022464985 0.015693106 -0.038260885 -0.03482166
0.051454026 0.016227756 -0.042826068 -0.05953775 0.058008805 0.019050488 0.027801026 0.052878052
0.015808888 -0.009265638 -0.040204164 0.055990648 -0.015951507 0.031772036 0.023183534 -0.016393935
-0.0050324923 -0.000692768 0.056170978 0.021488465 -0.021117533 -0.047280997 -0.038370468 0.071617
0.049621657 0.051081073 0.01825704 -0.036232986 0.026869228 0.03053863 0.027480701 0.19132477
0.04777777 -0.012341566 0.060593028 0.055108316 0.04287932 0.027855733 -0.088804856 0.0516305
-0.035030406 0.08595178 -0.05719886 0.009760544 -0.037874468 0.2782473 -0.0031303144 -0.007895681
0.10100161 0.0042305915 0.020016422 0.0069725835 0.041116238 0.031037461 0.074058905 0.02503785
0.058708668 0.02013909 -0.005408835 0.052869845 0.022081777 0.1689384 0.028001282 0.017555349
-0.048620116 -0.024955574 -0.05310902 0.022689963 0.003860795 -0.02954027 0.059304524 -0.23622406
0.07959072 0.055917025 0.10531512 0.07439857 0.02204519 0.12313893 -0.045332294 0.012261838
0.029957237 -0.06021282 0.05930875 0.069761075 0.04807565 -0.03736051 -0.009094396 0.0120177325
0.048069097 0.016511155 0.037545428 -0.055235878 0.06828604 0.07939417 0.07957556 -0.0025285634
0.004920414 -0.016208105 0.0014368519 -0.025448479 -0.04174177 0.012383565 0.06319962 0.04474642
0.0075650895 -0.03374234 -0.023220493 -0.044233475 -0.05405378 0.0345757 -0.006567284 -0.016797839
0.0021494124 -0.026914544 0.040735066 0.040632088 0.017871328 0.15601191 -0.0332532 -0.008373476
0.06939603 0.000289427 -0.04661589 -0.12182225 -0.0276925 0.06291976 0.016246738 0.018408157
0.0026110634 0.046497576 -0.062297054 0.0403988 0.013235836 0.06403797 -0.04185113 0.034805182
0.009009175 0.0059814723 0.055929583 0.0272329 0.04568692 -0.033866774 -0.010349302 -0.08521964
0.027411772 0.08026646 0.030772442 -0.04114356 0.029867956 -0.022497274 0.0028413318 -0.024468085
-0.05970412 -0.059025947 0.14448085 -0.05884028 -0.02796828 0.03578905 0.009872651 0.052192606
-0.04192344 0.070402466 0.027489774 -0.039103765 0.007485271 0.041381758 0.042852033 0.08248731
0.0139968535 0.00045723363 0.021436863 0.017091459 -0.09779401 -0.028458359 -0.032653112 0.020028884
0.020829927 0.07456952 0.08620352 -0.011516606 0.06866061 0.07534129 0.0744215 0.022124076
-0.015787438 0.07289534 0.07719537 -0.05463513 0.006560748 0.013468069 -0.02318542 0.0129094375
0.043496367 0.017211176 -0.01587039 -0.03857492 0.06721189 0.015211946 0.074851066 0.06484765
0.09337224 0.0072027612 0.012905548 -0.076496355 -0.05619493 -0.10291534 -0.054140255 0.060852945
0.04643146 -0.00043496065 0.010474137 0.0068191364 -0.024724858 -0.009365888 0.038992673 0.00754544
0.007626562 0.024203714 0.053445913 -0.008864609 -0.027046358 0.004089211 0.048831582 -0.17782852
0.016903445 0.02472526 0.0819532 0.07085511 -0.016837241 0.084596284 0.022069037 0.06582198
-0.06304426 0.009002178 -0.030395456 0.06342878 -0.0953826 0.046487138 0.1092898 -0.022509102
0.21298927 -0.041851506 0.025628027 -0.0021692996 -0.008401554 -0.044715032 -0.36502093 -0.14383982

FC2.bias f4 [256]
00000000: 7a94 45bc 1363 20bb c516 4fbd b134 873d
00000010: 16e4 8b3d 54a8 b3bc e239 8f3d f386 37bd
00000020: 61d3 093d b814 a33d 1377 70bd 75a3 803d
00000030: 4b06 b23c 1efc 76bc 2c37 833c 0726 233d
00000040: c467 a0bc 1872 32bd fd12 32bc 65d0 c93c
00000050: 9ccb 43bd 7d6f 37bc c27d 1a3a 50c0 9e3d
00000060: fe52 1abc 009f 803b 7750 563d 3569 633c
00000070: 6355 82bd 158a 843d a840 823d 2cff ff3c
00000080: 5452 4b3d 2e53 203d a709 7d3d f8c0 883d
00000090: 485c ecbc b4bd 843c 1da7 523d fc8e 55bb
000000a0: 57a9 36bd f493 a2bc 7603 473d 707b eb3c
000000b0: 2844 143c 3666 96bc b1a2 27bd f5d3 85bc
000000c0: 2e10 833c d5ac 403d 3674 2cbd 34ed 583d
000000d0: fdba 35bd 4d45 8c3d f4ef 563d 842a b5bc
000000e0: 1d69 923b c2ec 9c3d 648f 323d 6eda 0ebc
000000f0: 9a3f e9bc 2916 a23c 6526 893c de91 8a3d
00000100: d72d 04bd e733 3dbd d9bd 44bb f5a2 22bd
00000110: fb78 41bd 9406 a63d b450 9abc b462 173d
00000120: bc86 0bbc 36b4 07bd 4928 39bd d130 393c
00000130: 2462 6dbd 51ea 98ba cae5 6e3d cacc ecbc
00000140: 234b 223b cfb3 f43c a1eb 913c bd95 2abd
00000150: 78c8 b93c f869 793c 0e06 90bc 3cc1 bd3c
00000160: ff76 1f3c e517 e83a 9fb7 8b3c 2d48 4bbb
00000170: 12cf 043d 9cbb ccbc 0e03 1b3c c52f 213d
00000180: 334b 46bd e64f 803d 1434 aebc 4653 903d
00000190: e78d de3c 27be e1bc 0517 5bbc c996 123d
000001a0: 3323 4abd e3fa 0c3c 48e1 85bd c8e5 323c
000001b0: 2180 083d c26d 16bd c190 5c3a 4b49 f2bb
000001c0: afce 4bbc cf8a 113c 8397 503d 94b9 61bd
000001d0: b491 1abd 3aba 113d 091a d0bc 544b 2e3d
000001e0: ef47 2b3d 7921 0cbb dd56 8d3d f8be bf3c
000001f0: c4bf acbc 052b 2d3d 0601 ae3d 6e8a 3639
00000200: 2802 8c3c f487 90bd 1d32 1ebd fe5f fc3c
00000210: 2f1f 80bd bbb4 883b e130 f13b 5db1 5e3d
00000220: b8a6 8abd 9166 1e3d c815 8abb 0efe d4bc
00000230: cfa7 b4bc c249 2abd f432 f03a 7261 333d
00000240: 29bb 26bd 4043 8d3d 7c5e 08bd cbd3 acbc
00000250: 179e 16bd 5ff6 51bd 276f 003c e0aa 7ebd
00000260: 33a0 a73d 9122 e93c 5761 e4bc 2eaa 2a3d
00000270: 37d2 093d 8f5c 903d 3c29 233d 71cf 01bc
00000280: 59c8 cd3c 3b7f acbc 2823 8bb9 d0b1 3c3d
00000290: 0e60 f23b 3769 a43d ee0e a9bc 262a 8c3d
000002a0: a7a6 95bc aa18 fd3c 4a76 533d 1547 163d
000002b0: 96e1 963b d8fe c73d b29d 32bd 7830 7d3c
000002c0: 61de 0cba e4f0 853c 2ca1 f2bc c072 fcbc
000002d0: f385 3bbd e24b 65bc 7102 053d c387 db3b
000002e0: 82ce 2ebd 7c23 e63c c0c5 69b9 5024 60bd
000002f0: 1ccf 183c 65a8 d5bc ecbd 7e3d 3232 ddbc
00000300: cb35 413d 54bf fabc b7a7 edbc d4d6 f63a
00000310: 5902 aebb 9c20 d5bc 66b0 16bd 76ee 533d
00000320: 12ab 14bd 240a 3939 a55d 323d 7b15 07ba
00000330: 7f6e b33b 0f4d acbc eb6d 043d a95b d9ba
00000340: f015 87bc dca5 693d afdb 36bd dc02 a2ba
00000350: 63d7 ef3c 8205 8b3c 1878 34bc ecde d1bc
00000360: a4ea 183d 4838 74bc ca57 d6bc 16ba 923d
00000370: 09f3 a3ba 6571 0f3d 536c e1bb 391c b7bc
00000380: 0f28 89bb 473c 31bd 031b 6bbc e5a3 2abd
00000390: 31d6 a3bb 5784 e23c 5a60 68bd 62e7 4a3d
000003a0: a8c6 6c3d 5c64 ecbc d89d d0bc 52c8 223c
000003b0: c255 c03c 9dee 733d 740c 513d e342 933c
000003c0: 67ca 133d 5889 32bc 4312 b13c 5e92 a03c
000003d0: 7c94 d73b a2f7 f3bb 1414 543d 892c 873d
000003e0: 80ca 54bc 0c64 123d 9011 a93c bffe 0f3d
000003f0: 1d97 233d 7b90 6d3d f205 173d 9317 853d
-0.012059325 -0.0024473115 -0.050558824 0.06601847 0.06830613 -0.021930851 0.06993462 -0.044806432
0.033648852 0.07962936 -0.058707308 0.06281177 0.021731516 -0.015074758 0.016017519 0.039831188
-0.01958073 -0.04356584 -0.010868785 0.024635503 -0.0478016 -0.0111960145 0.0005893373 0.077515244
-0.009419201 0.0039252043 0.05232283 0.013880064 -0.063639425 0.064716496 0.063599885 0.031249605
0.04963906 0.039141826 0.061776783 0.06677431 -0.028852597 0.016203739 0.051428903 -0.0032586446
-0.04459509 -0.01984594 0.048587285 0.028745383 0.009049453 -0.018359285 -0.04092664 -0.01633642
0.015998926 0.047039825 -0.042103015 0.05296059 -0.04436778 0.068491556 0.05247493 -0.022115
0.004468097 0.076623455 0.04359378 -0.00871907 -0.02847271 0.019785957 0.01674194 0.06766103
-0.03227028 -0.046192076 -0.0030020385 -0.03970619 -0.047234517 0.081067234 -0.01883731 0.036959365
-0.00851601 -0.033130847 -0.045204435 0.011303143 -0.057954922 -0.0011666511 0.058324613 -0.028906245
0.0024764023 0.029870896 0.017812552 -0.041646708 0.022678599 0.015223019 -0.017581012 0.02316343
0.009732961 0.0017707316 0.01705533 -0.0031018362 0.03242404 -0.024991803 0.0094611775 0.039352197
-0.04841156 0.062652394 -0.021265067 0.07047133 0.027167274 -0.027556492 -0.0133721875 0.03578833
-0.049349975 0.008604738 -0.065371096 0.010919042 0.03332532 -0.036725767 0.0008413904 -0.007393991
-0.012439414 0.008883192 0.050925743 -0.05510862 -0.03773661 0.03557799 -0.02540304 0.042552307
0.041816648 -0.0021382256 0.069013335 0.02340649 -0.021087535 0.042277355 0.08496289 0.00017408442
0.017090872 -0.07057181 -0.03862201 0.030807491 -0.06255948 0.0041719354 0.007360563 0.054368366
-0.0677008 0.038672034 -0.0042140223 -0.026000049 -0.022052674 -0.041574247 0.0018325732 0.043794103
-0.040705834 0.068975925 -0.033293232 -0.021097085 -0.03677186 -0.05126035 0.007839001 -0.062174678
0.081848525 0.028458865 -0.027878447 0.041666202 0.033647742 0.07048904 0.039834246 -0.007922993
0.025119947 -0.021056762 -0.0002653834 0.046068013 0.0073967045 0.08027881 -0.020637002 0.06843977
-0.018267943 0.03089555 0.05162648 0.036688883 0.0046045287 0.097654045 -0.04360742 0.01545345
-0.0005373713 0.016350217 -0.029617868 -0.030816436 -0.04578204 -0.013995143 0.03247303 0.0066995337
-0.04267741 0.028093092 -0.00022294279 -0.05472213 0.0093267225 -0.026081273 0.062192842 -0.027001474
0.04717044 -0.03060881 -0.029010637 0.0018832334 -0.0053103385 -0.026016526 -0.03678932 0.051741086
-0.036295958 0.00017646753 0.043546338 -0.0005153042 0.0054758186 -0.021032838 0.03233139 -0.0016583103
-0.016489953 0.05704294 -0.0446431 -0.0012360471 0.02927751 0.0169704 -0.011014961 -0.025618993
0.037333146 -0.014905997 -0.026164908 0.07164399 -0.0012508343 0.03502025 -0.0068793683 -0.022352325
-0.0041856836 -0.043270376 -0.014349702 -0.04166021 -0.004999899 0.027650995 -0.056732513 0.04953707
0.05780664 -0.028856449 -0.02546589 0.009935455 0.023478393 0.05955373 0.051037267 0.01797623
0.036081698 -0.010897003 0.021615153 0.019601043 0.00657898 -0.0074452916 0.05177696 0.06600291
-0.012987733 0.035739943 0.020638257 0.035155054 0.039939035 0.057999115 0.036870904 0.06498637

action_out.weight f4 [5, 256]
00000000: ef6c 08bd ea76 453d d4d8 313d f543 623c
00000010: 5ebc 5bbd 4c29 193c 5806 f8bc 9368 01bc
00000020: 0600 b4bc 16c4 98bb b171 fbbb d683 8d3c
00000030: 297d b43c 5106 263d 3e71 2dbd efad 76bd
00000040: e174 b73c 5b28 063d fdda 2a3d cdb6 8dbd
00000050: f9a5 cdbb c2dd 6e3d b07a bb3c 3349 35bd
00000060: 8700 2bbc 244f cf3c 090f 59bd 2ccc 063d
00000070: 8965 903c 1978 8d3c 2b08 1f3c ac6b 003c
00000080: 28a5 1abd 8b9a 81bd 5334 3c3d 5734 89bd
00000090: 7891 ed3c 83e8 afbb 93c5 c1bc a543 41bd
000000a0: 7c62 963c bd99 a93c dce8 2a3c 2572 84bc
000000b0: ec1c 10bd 5a24 853c 8824 473d b40b 013d
000000c0: 275c 5f3d 6fe5 50bd 1ccb 4dbd 39f3 083d
000000d0: a76b 19bd 0b2c 65bd 989c a4bc 6b53 a63b
000000e0: fb1e 90bc d353 25bd acb3 0d3d 0107 b13c
000000f0: 4f76 30bd b71d 14bc 6d4a 84bd 707b 20bd
00000100: ffb1 a9bd bce0 353c f6db b2bd d463 36bc
00000110: 860e 87bc a7d2 35bd c640 b3bc 55f7 a2bd
00000120: e8f3 37bd 0c25 593d 5f41 2fbd 0930 e03b
00000130: 02e7 05bd 7f99 973c 60bb dabb f18c 4b3d
00000140: 0d57 c63b 725c a43c 1062 303d 7557 7c3c
00000150: 5fb0 59bd b7ff 91bd 2eaa 92bc 68ed a33c
00000160: 3816 86bd 4a7e cf3c 944e 363d 399c c2bc
00000170: bd48 e33c 462b 473d 777d b93c 8dc4 1cbd
00000180: a6b5 463c e4fc 783c 3b6f 273d 5d60 16bd
00000190: 9cc0 63bd dd42 7dbd fc8e d4bc 5263 0bbd
000001a0: 4a81 5bbc d15a 3a3c 12f4 06bd c26f 74bd
000001b0: c9c3 83bc a1a4 ed3c e626 81bc 780e 7fbd
000001c0: bef8 c83c 4a27 7d3c 337c 39bc 5ed9 473d
000001d0: 30a4 e0bc ee02 31bd 1d78 013c 62ad 19bc
000001e0: 02af 17bd 128e 51bd 87ec 66bd e0cc 0bbc
000001f0: 1b4c cd3b c5c7 86bd db2f f63c 3367 f4bc
00000200: 630d b53c 7471 9e3c 3d32 933c f1a7 1b3d
00000210: fec3 0f3d ee93 9dbd eaf4 a4bd a447 f73c
00000220: 652f 873d 28e7 6cbc 06e0 48bd 6cdb 773c
00000230: 9f23 643d d08c e23b 5355 be3c 7a5f 9bbc
00000240: 8c43 563c 77f3 8c3c da3b 033d da41 293d
00000250: 5f76 233d 9b35 d43c 5a13 cabb 54c2 493d
00000260: f54b 2ebd e3cd a2bc 58a8 573c 8c59 ad3c
00000270: e3c6 5a3d 19e8 c13c ac28 85bd 397b d53c
00000280: 3bd1 5fb7 1f14 30bd e59c 88bc 6df8 db3c
00000290: c9cb 5bbb 0894 36bd 7128 f93b 5cdb 50bd
000002a0: 7575 c9bc 68da 89bd ed9f 423d b75d 853b
000002b0: 5c5a db3c 1ee7 45bd 68ab a839 b7b9 57bd
000002c0: df10 0cbc 32dd 2b3d 4a72 a93c 5081 06bd
000002d0: ebc5 7bbd 18c6 95bd 38f9 eebc 553f 8fbc
000002e0: 7f33 41bd dc52 b83c bc87 e23c ef8e 10bd
000002f0: eba8 16bd f2c2 06bd 1ad6 d03c 03d6 043d
00000300: d751 5dbb 52c6 83bd 1140 d23c 7f49 38bc
00000310: 7d38 013d 83f9 8cbd d749 e5bc b86f e43c
00000320: 466c 67bc bdb3 3a3c 08ff 89bd 6307 97bd
00000330: 0b65 1dbd cfa2 c03c 4ee3 87bd 5898 a23c
00000340: e47d 99bc c3e3 a2bd 6d2a dfb9 9922 6cbd
00000350: 95dd 133c 619f e53a 55d0 193d 5c53 203d
00000360: 1792 0bbd d0d3 693d 3a63 263d 8d11 4fbd
00000370: e36b f13c 784f 39be 06d0 64bd 70b1 27bd
00000380: 03e9 29bc 5af1 93bc 2953 74bd 2508 e7ba
00000390: c15c e0bc 78a0 2cbd be39 08bd 752d 9abc
000003a0: 5fab b2bc 4750 4dbd a476 1e3d 9792 8fba
000003b0: f850 04bd 1ee6 7dba 0b15 28bd ac6a 803c
000003c0: f280 72bd 6f59 b23b dda1 033d 620f b1bd
000003d0: e4da 3abd d1bd 10bc 8ebb 033c 7143 70bd
000003e0: 96a2 703d 195a 37bd 03f7 dc3c d5ff a9bb
000003f0: 1d1e 2fbd 05ec dfba 581a b4bb 3852 7fbd
-0.033307012 0.04820911 0.043419674 0.0138101475 -0.053646438 0.009348225 -0.030276462 -0.007898468
-0.021972667 -0.004662047 -0.007673465 0.017274778 0.022032337 0.040533368 -0.042344324 -0.06022447
0.0223946 0.03275333 0.04171275 -0.06919632 -0.006275889 0.058316953 0.02288565 -0.04425926
-0.010437137 0.025306292 -0.052992854 0.032909557 0.01762654 0.017269181 0.009706537 0.007838171
-0.03775516 -0.06328305 0.045948338 -0.06699436 0.029000029 -0.0053682937 -0.023653781 -0.04718365
0.018357508 0.020703191 0.010431495 -0.01616771 -0.035183832 0.016252685 0.048618823 0.0315053
0.054531243 -0.051000055 -0.05024253 0.03343508 -0.03745618 -0.055950206 -0.020094201 0.005075862
-0.017592898 -0.040363144 0.034595177 0.021609785 -0.043081578 -0.009040288 -0.06459508 -0.03918022
-0.08285903 0.011100944 -0.087333605 -0.011132199 -0.016486418 -0.044390347 -0.021881472 -0.07957331
-0.04491034 0.053013846 -0.042786952 0.0068416637 -0.03269101 0.01850581 -0.006675169 0.04969496
0.0060528577 0.020063613 0.04306227 0.015401711 -0.053146716 -0.07128852 -0.017903414 0.020010665
-0.06547207 0.025328774 0.04450853 -0.023756133 0.027744645 0.048625253 0.022642834 -0.038273383
0.012128269 0.015197013 0.040877562 -0.036712993 -0.05560361 -0.061831344 -0.025947087 -0.034030266
-0.013397524 0.011374191 -0.032947607 -0.059676893 -0.016084569 0.029009165 -0.015765619 -0.062269658
0.024532672 0.015451262 -0.011321115 0.048791282 -0.02742204 -0.043215685 0.007902172 -0.009379717
-0.037032135 -0.05116088 -0.056377914 -0.008532733 0.006265176 -0.06581072 0.030052116 -0.029834365
0.02210111 0.019341208 0.017968291 0.03800196 0.035099022 -0.07694231 -0.08054526 0.030185528
0.06600837 -0.014459409 -0.04904177 0.015127998 0.055698033 0.006913759 0.023234045 -0.018966425
0.013077628 0.017205937 0.0320395 0.041322567 0.03990781 0.025904467 -0.0061668577 0.04925759
-0.042552907 -0.019873565 0.013162695 0.021160863 0.05341233 0.023670243 -0.06501898 0.026059734
-1.3340551e-05 -0.04298794 -0.016676376 0.026851857 -0.0033538213 -0.044574767 0.007603698 -0.050990447
-0.02459214 -0.06731111 0.0475158 0.0040700096 0.026776485 -0.048316114 0.00032171165 -0.052667346
-0.008548944 0.041958995 0.02068438 -0.032838166 -0.061468046 -0.07313174 -0.029171571 -0.017486254
-0.04716825 0.022500448 0.027652614 -0.035292562 -0.036782186 -0.032900758 0.025492717 0.03243066
-0.0033770704 -0.06434311 0.025665315 -0.011247992 0.031548012 -0.06883528 -0.027989311 0.027885303
-0.0141249355 0.011395392 -0.067380965 -0.07374456 -0.03842644 0.023515133 -0.06635152 0.019848034
-0.018736787 -0.07953598 -0.00042565484 -0.057650182 0.009024997 0.0017518812 0.037552197 0.039141998
-0.03407487 0.057086766 0.040621974 -0.050553847 0.02947039 -0.18096721 -0.05586245 -0.040940702
-0.010370496 -0.018059421 -0.05964962 -0.0017626329 -0.027387979 -0.042145222 -0.033258192 -0.018820504
-0.021810232 -0.050125387 0.038687363 -0.0010953721 -0.03230378 -0.0009685474 -0.041035693 0.015675865
-0.059205003 0.00544279 0.032136787 -0.08645512 -0.045618907 -0.008834318 0.008040322 -0.058658067
0.058748804 -0.04476366 0.026973253 -0.0051879683 -0.042753328 -0.0017083889 -0.0054963045 -0.06233427

action_out.bias f4 [5]
00000000: f7c4 20bd 5188 36bd 3895 c53c 1fbb fbbc
00000010: fbc8 36bd
-0.03925034 -0.044563595 0.024119005 -0.030728875 -0.044625264

weight f4 [256, 123]
00000000: 6030 6dbd 4b62 c53b 740f 58bd a859 063c
00000010: 43c7 973d 5312 493d 176f 133d 795b 0a3d
00000020: d7ba a9bd 9020 39bc f8b4 803c 6adf 5a3b
00000030: efdb 96bd c71a 673d da67 a03d 591e 0c3d
00000040: b16a 5ebb b048 1cbd 4c31 213d c793 963c
00000050: af47 1a3d cfd7 e8bc f237 1fbd 72c1 8a3d
00000060: 1ec7 893d 761b 3e3d 0014 abbd fd5d 8a3d
00000070: 5953 68bd 05dc 093d 7a10 b0bd 0115 073d
00000080: 9048 0abb 1a20 293d 716f 99bd 7da1 6d3d
00000090: b79c 8c3c 731f 0f3c d666 07bd 4f15 0fbd
000000a0: 16ae f13c 3d3e d0bb 15c0 3fbd 1723 63bd
000000b0: 5875 053d 115c a3bd 0b75 90bd 2333 26bd
000000c0: 43f5 7b3d 72c2 86bd d75f 093d 62af 683d
000000d0: 6d26 ab3d 6842 34bc 6283 47bd 6672 95bd
000000e0: dfe7 5c3d 3470 aa3d e7fa eb3b 2b14 a6bd
000000f0: 84d0 51bd 428d 323d c7b9 9fbc 4134 8cbd
00000100: ecf1 aabd 61d0 563a a4ec 3c3d b9f8 8bbc
00000110: 54dc b0bc 5b1a 993d 3246 723d d307 9cbd
00000120: b781 06bc 66a6 c6bd 3960 85bd 4174 4fbb
00000130: 8ba9 953d 738a 08bd 497d 78bd 743a b2bb
00000140: bcc4 51bc a50d 8f3d c3a5 923d 8bea 853d
00000150: ccdc 363d 3d9c b6bd 6f45 5e3d a510 2dbd
00000160: a699 54bd d8dc 55bd 39e3 4e3d 1918 a23d
00000170: a902 983d 4bb4 5a3d a818 e73b 525e e1bb
00000180: d783 a2bc 125e 543d a61c 203d a1ff 9c3d
00000190: dd67 203d 36c6 65bd 1325 bdbd 0420 123d
000001a0: cb71 1bbd 544b b0bd 7dfe a63d e6f4 b2bc
000001b0: 6035 553c 619c 7e3c ad57 483d 1f3f 4b3c
000001c0: 6dc4 64bd fac0 c0bc 7adb d03b 6786 81bd
000001d0: c088 8d3b 0a0c 96bc ba76 dabb 2556 96bd
000001e0: 53e8 193d 019c cb3c 8140 6e3c e725 243d
000001f0: a089 83bc ea4b b4bd 41df 9d3d 4721 2abd
00000200: 13e5 123d d9f6 97bd 8a90 c0bd f7e7 4e3d
00000210: 37e0 923d 78ae 7b3c 06d3 ef3c 027b 1c3d
00000220: 3a64 703d 9094 e03b bfe5 2b3d 9ac7 48bd
00000230: 4473 ee3c 13bc e63b 03a4 b4bd 78bc 233d
00000240: 80f8 54bd 8c3f 9e3d bd4e aabd a98d 6a3d
00000250: 0e0f 883c 9102 84bd 8f87 99bd a43c 0a3d
00000260: 31f8 363c 1936 56bd 3b86 a63d abab eebc
00000270: 0058 273c d236 7bbd 138f 0ebd 92cc 69bd
00000280: e955 053d 4d0d 723d 5f8a 713d b60f 5dbc
00000290: 7b12 bbbd 408b ab3d c719 81bc d504 bebd
000002a0: 7e92 8dbb 3fb3 a1bd 922b fbbc f624 2a3d
000002b0: d45b 8dbd b3b3 7ebc f0b7 533c de4d e6b9
000002c0: 94a7 4fbd 5a14 203d f878 8cbd 9687 04bd
000002d0: b3b5 0b3d c195 bcbd 91fa 74bd 224e d43c
000002e0: 525e 653d f784 3d3d c69e b8bd f890 84bd
000002f0: b552 873d 2bf9 4e3d 1b23 623d d8bb 54bc
00000300: ca3d 703d 0228 b3bd a3fa 0c3d b58a a43d
00000310: a58f 20bc 115f 9f3d ba62 693d b18e 3b3d
00000320: 96d0 b4bd aba0 273d 4f5f 90bd e62c afbd
00000330: 3112 a33b 5033 313c 29f5 07bd ec31 e53c
00000340: e8f0 f0bc d2ec b6bd b106 dbbc 4ff8 40bd
00000350: 44fa 6bbd cdc5 cfbc 23d1 933d b924 8b3d
00000360: b4f2 88bc 90f7 873c f56f debc 2af2 2f3d
00000370: 5105 943d ebdc b6bd ad6d 053d dc73 8fbc
00000380: 8d85 2dbd 05fb bebd 4da9 843d a827 89bd
00000390: 9e94 4e3d c198 35bb 841f 13bd 463a e3bc
000003a0: 24b0 803d 3287 a93d 1d6e 263d 7f90 8a3d
000003b0: b4f1 d8bb 2f82 ffbb aa48 8fbd 381b 3ebd
000003c0: 2685 923d f00d 933d 0659 e73c 3b10 cebc
000003d0: f850 b23d 9b50 703d f5d3 ac3d ed11 8ebc
000003e0: 7788 a4bd b5d1 153d edbf e33c aa23 863c
000003f0: 749a 753d 0b5c b73d 69c6 14bd b1a2 b53d
-0.057907462 0.0060236803 -0.052749112 0.008200087 0.07411053 0.04908974 0.035994615 0.03377864
-0.0828759 -0.011299267 0.015711293 0.0033397325 -0.07366168 0.05642202 0.07832308 0.03420863
-0.0033938105 -0.038155258 0.039353654 0.018381013 0.03766602 -0.028423218 -0.038871713 0.06775178
0.06727432 0.046412908 -0.08353424 0.06756208 -0.05672011 0.033657093 -0.08596893 0.032979015
-0.002110038 0.04129038 -0.07491959 0.058015335 0.017164571 0.008735525 -0.033057056 -0.03493243
0.029501956 -0.0063550756 -0.046814043 -0.055453386 0.03258261 -0.07976545 -0.07053574 -0.04057611
0.061513197 -0.06580056 0.033538666 0.056807883 0.083569385 -0.011002161 -0.04870928 -0.072972104
0.053932067 0.08322182 0.0072015407 -0.081093155 -0.051224247 0.043591745 -0.019497765 -0.06845904
-0.08346924 0.0008194503 0.046124116 -0.017086374 -0.021589436 0.0747573 0.059148975 -0.0761868
-0.008209637 -0.09699707 -0.06512494 -0.0031654986 0.073077284 -0.03333516 -0.060666356 -0.005439097
-0.012803253 0.06985024 0.07160523 0.06538876 0.044644162 -0.08916519 0.054265436 -0.0422522
-0.051904343 -0.052212566 0.050509665 0.079147525 0.074223824 0.053394597 0.0070525 -0.006877699
-0.019838257 0.051847525 0.03908982 0.07665945 0.03916155 -0.05609723 -0.09235587 0.035675064
-0.03795032 -0.08608118 0.081540085 -0.021845292 0.013013214 0.015540213 0.04891174 0.012405186
-0.05585139 -0.023529518 0.00637382 -0.06324463 0.0043192804 -0.018316288 -0.0066669853 -0.073406495
0.037575077 0.024854662 0.014541746 0.04007521 -0.016056836 -0.08803542 0.07708598 -0.041535642
0.035862993 -0.07420129 -0.09402569 0.050514188 0.07171672 0.015361421 0.029275429 0.038203247
0.058689333 0.0068536475 0.04196715 -0.04901848 0.029107697 0.007041463 -0.08820345 0.03997466
-0.0519948 0.07726964 -0.083157994 0.057264004 0.016608741 -0.06445802 -0.07496559 0.033749238
0.011167572 -0.052297685 0.08131071 -0.029134592 0.010213852 -0.061331578 -0.034804415 -0.05707986
0.032552633 0.059094716 0.05896985 -0.013492515 -0.09134384 0.08376169 -0.015759362 -0.092782654
-0.0043204417 -0.078955166 -0.030660424 0.041539155 -0.069022804 -0.015545773 0.012922272 -0.00043927034
-0.050696924 0.03908191 -0.068590105 -0.032355867 0.03410883 -0.09208251 -0.05980927 0.025916163
0.055998154 0.046269383 -0.09014659 -0.06472963 0.06607572 0.050530594 0.05520926 -0.012984239
0.058652677 -0.08747865 0.034418713 0.08034269 -0.0097998725 0.07781804 0.05697892 0.045790378
-0.08828847 0.04092471 -0.07049429 -0.085534856 0.004976534 0.0108154565 -0.033192787 0.027977906
-0.029411748 -0.08931889 -0.02673659 -0.047111806 -0.05761172 -0.025362873 0.07217624 0.06794114
-0.016717292 0.01659754 -0.027152995 0.042955555 0.072275765 -0.089288555 0.032575298 -0.0175113
-0.042363692 -0.09325222 0.06477604 -0.06697017 0.0504347 -0.0027709457 -0.035918728 -0.027737748
0.06283596 0.082777396 0.040632356 0.06765842 -0.00662061 -0.0077975015 -0.069962814 -0.046412677
0.07154302 0.07180393 0.028240692 -0.025154224 0.0870685 0.05867062 0.08438865 -0.017342532
-0.08033841 0.036576945 0.027801478 0.016374428 0.05996175 0.08953103 -0.03632203 0.088689215

bias f4 [256]
00000000: 270f 7c3d 98e3 1cbd e846 8b3d f88b 4fbc
00000010: d860 423d 6ace 363d 9603 4ebd 16f7 43bd
00000020: 1b00 81bd fa60 9fbd 95d1 723c 5455 7d3d
00000030: fd4a 29bd 3919 843d c0ea 7abd 6334 ce3c
00000040: e4d7 edbc a501 2e3d bde8 5ebc 9652 3e3d
00000050: cf31 ef3c 4867 89bc fd8a 293d fefd 873d
00000060: c375 a0bd d78b 99bd 0bef 88bd 2490 28bd
00000070: 2ee9 74bd 76f7 3f3d 90f9 2ebd f36c 10bd
00000080: 095a 80bd 0290 4bbd e9f9 9f3d b16d 94bc
00000090: 5031 82bd e79e 36bd 7529 343d f75d 2e3d
000000a0: 67a4 b33c 7498 723d 365f 9e3d c814 40bc
000000b0: ee0b 523c a3d0 acbd 7bad a23d 9632 bd3c
000000c0: e03e af3d def8 4c39 1964 82bd 0f0d 853d
000000d0: b30e 98bd 5825 1fbd 2559 82bd 4f48 3fbd
000000e0: 1b4e b2bd 9f37 67bc 8ef5 493d 1567 71bc
000000f0: c4a8 cf3c fafd 02bd ae82 a33d 42f0 77bd
00000100: 57b8 bebd 8c41 b9bd aa56 403c 95aa 5abb
00000110: 3faf 1fbd 043a a83c d270 993d 0595 f8bc
00000120: 58f7 0ebc 5bd6 e03a 4582 8dbd 745d 6ebd
00000130: b751 d43a fa86 1b3d e53d a5bd 1f1e 623d
00000140: 15d1 4bbd 7f1f 9dbd 83d5 2e3d 9d7d 693d
00000150: 3b69 30bc f55a b1bc 1d4b b53d bd68 81bd
00000160: 505f 593c e127 50bc 90f1 4dbd 4225 20bd
00000170: 3acd aabd dffe 2f3d a1fc 98bd 08d0 153d
00000180: 72d6 533d f84b a5bd 9766 873d ac58 813c
00000190: 3402 1cbb 9a3e 94bd ebe3 a83c 6c68 95bd
000001a0: 0a8a 83bd e1c1 89bc 35db dd3c df9a 553d
000001b0: 968d d93c 1480 083d f25b 96bd 6c7e cabd
000001c0: 5189 88bd 46ae 81bd 25a6 9a3d b46f 5d3d
000001d0: c626 a0bd 24bd 093c 18c8 193d f484 48bd
000001e0: 301a 933d 4640 343c 014b 953d 2411 93bc
000001f0: 903a 81bd 97aa 32bd 0eab 693d 905a c2bd
00000200: 064a 88bd b17b 1f3d 2cc6 3b3d 43a1 da3c
00000210: 1883 acbd 009d aabd b2c3 b13d dcf1 febc
00000220: d96a 80bb acdf 03bd 5f58 633c 22b0 583c
00000230: 9d65 a73d 671c 6a3d 8f33 2bbd 3041 93bc
00000240: 7027 ac3d 2b51 9d3d ae1d 443d edd1 33bd
00000250: 0338 6dbd 0a7a 24bd 9eae 81bc 6675 59bd
00000260: fd08 5c3d 0d11 d1bc 3719 af3a caea ab3c
00000270: 1919 afbd 80dc 64bd 02c4 bb3c 796f 353d
00000280: 3587 8d3d 4059 bcba 3826 103d 6d08 3bbd
00000290: 15c5 6fbd 3b21 fa3c 256b 5d3b 84a0 f0bb
000002a0: a3fe c63b e658 e339 25bb 40bd c5e0 a73d
000002b0: 3423 62bd 98f5 aebd f4c4 91bc 49ea 683d
000002c0: 240a 96bc 6866 d43c 0252 263d b605 97bd
000002d0: a6f0 993c 44a7 a83c dab0 413d 6fde 233d
000002e0: 2e17 d43c 50bd 8f3d 2fcb 7abc 54cc 82bb
000002f0: 72fc 3c3c b7bc b4bd b8db a03d 1e60 72bd
00000300: 07d9 87bd ffbd 813d f7f4 993d 2be2 433d
00000310: fc36 aabd 318b 95bd 3854 913d f021 a33d
00000320: 0953 b1bc ac98 b23c e740 0fbd 6038 353d
00000330: 2555 15bd 407c 92bd c2cf bbbd dc3e c3bd
00000340: e463 953c cc20 c3bc e125 94bc c580 773b
00000350: eb1c 253c 7763 a9bc 38e0 c3bc e8d2 10bd
00000360: f69a 2e3d 3d2f 0a3d 50e2 093d f701 943d
00000370: d4e6 8bbc 762b 913d 2064 4f3c ea49 533d
00000380: b734 613d cc02 a93d 6412 8e3d b38a 7f3d
00000390: 3c7f 04bd bbfc 793c eeb9 cebd 8943 943d
000003a0: a8bc 293d 33e6 923d 83cc 9abd 3bce 8ebc
000003b0: 2941 c2bd 089d 153c 3560 da3c e216 153d
000003c0: a323 7cbc 2df0 97bd 7840 9a3d fe3c 9ebd
000003d0: b614 15bd 7317 763d 6a71 39bd 13cb b03d
000003e0: f01f 2ebd 1a0d 773d 2bd0 0bba f0b9 ec3c
000003f0: 0eb7 9f3c 0016 39bd 16be 2a3d e56c 39bd
0.061537888 -0.038302988 0.06800634 -0.0126676485 0.04745564 0.044630446 -0.05029639 -0.04784306
-0.06298848 -0.07782169 0.014820476 0.061848953 -0.04133128 0.06450123 -0.06125903 0.025171464
-0.029033609 0.042482037 -0.013605294 0.04646548 0.029198555 -0.016772881 0.041392315 0.06640242
-0.07834961 -0.074973755 -0.06686219 -0.04115309 -0.05979269 0.046866857 -0.04271847 -0.035260152
-0.06267173 -0.049697883 0.078113385 -0.018118711 -0.06357062 -0.044585135 0.04398485 0.04257008
0.02192898 0.059227422 0.07733004 -0.011723705 0.012820227 -0.08438232 0.07943245 0.02309541
0.08556914 0.00019547666 -0.06366748 0.06496631 -0.07424679 -0.038853973 -0.06364659 -0.04669982
-0.08706304 -0.014112382 0.049306445 -0.014734049 0.025349028 -0.031980492 0.079839095 -0.060531862
-0.09312504 -0.09045705 0.011739412 -0.0033365835 -0.038985487 0.020535477 0.07492222 -0.030344496
-0.0087259635 0.0017153727 -0.069096126 -0.058194593 0.0016198669 0.03797052 -0.08068446 0.055204507
-0.049759943 -0.07672023 0.04268409 0.05700456 -0.010767276 -0.021649817 0.08852217 -0.06318805
0.013267353 -0.01270482 -0.0502792 -0.03909803 -0.08339925 0.042967673 -0.0747006 0.036575347
0.051718183 -0.080711305 0.06611364 0.015789352 -0.0023805024 -0.07238503 0.020616492 -0.072953075
-0.06422813 -0.016816081 0.027082065 0.05214965 0.026556771 0.03332527 -0.07341756 -0.09887394
-0.06666816 -0.06332068 0.07551221 0.054061607 -0.078198954 0.008406911 0.03754434 -0.04895492
0.07182729 0.011001652 0.072896965 -0.01795251 -0.06309998 -0.04361972 0.057047896 -0.0948993
-0.06654744 0.03893632 0.04584329 0.026688224 -0.08423442 -0.083307266 0.08679904 -0.031121187
-0.0039189872 -0.032195732 0.01387605 0.013225587 0.08173678 0.057155993 -0.041797217 -0.01797542
0.084059596 0.07681497 0.047879867 -0.043901373 -0.057914745 -0.040155448 -0.015830334 -0.053090475
0.05371951 -0.025520826 0.0013358955 0.02098598 -0.08549709 -0.055874348 0.022920612 0.04429576
0.06910554 -0.001436986 0.0351927 -0.045662332 -0.05853756 0.030533424 0.0033785787 -0.0073433537
0.0060728355 0.00043363048 -0.047053475 0.08197168 -0.055209354 -0.08542937 -0.01779411 0.056864057
-0.018315382 0.025927737 0.040605552 -0.07374136 0.018791508 0.020587571 0.0472878 0.04000705
0.02588996 0.0701853 -0.015307232 -0.003991643 0.011534797 -0.08825057 0.07854408 -0.059173696
-0.066331916 0.06335067 0.075174265 0.047823112 -0.08311269 -0.07301939 0.070961416 0.079654574
-0.02164604 0.021801315 -0.034974005 0.044243217 -0.036458153 -0.07152605 -0.09170486 -0.09533474
0.018236108 -0.02381935 -0.018084468 0.0037765962 0.010077695 -0.020677311 -0.023910627 -0.035357386
0.04262825 0.033736456 0.033663094 0.07226937 -0.01707784 0.07088368 0.012658149 0.05158416
0.054981913 0.082524866 0.069371015 0.062388133 -0.032347903 0.01525801 -0.10094057 0.07239444
0.041439682 0.07172813 -0.07558539 -0.017432323 -0.094850846 0.009131677 0.026657203 0.036398776
-0.015389356 -0.07418857 0.07531828 -0.07726477 -0.036396705 0.060080957 -0.045274176 0.08632483
-0.042510927 0.06031523 -0.00053334486 0.028897256 0.019496467 -0.045186996 0.041685186 -0.045269866
