src/saved_models/grid_world_seed125_8_5_17_51/125_2_model.pt (torch, 702713 bytes, 11 tensors)

FC1.weight f4 [256, 36]
00000000: d0e5 e4bd 0665 a9bd 7062 56bd 84e9 153d
00000010: e414 163d 2c9c 47bd 6cc5 003d 66f2 b1bd
00000020: 1085 33bc 038f b2bd 365c 29be b327 dabd
00000030: 60ac ecbd 16cc 48bd 6c97 2dbd 98c8 e0bc
00000040: 1492 393d c00b 82bc fbc7 83bd 5814 ff3c
00000050: e363 25be 4627 58bd 00ed 033c 308c 8abd
00000060: eb3b 81bd 463b c8bd 6c07 583d 1441 0bbd
00000070: 8336 82bd 3828 c73c 163a e7bd 806c 5c3c
00000080: 4632 49bd 0e4d 05be e02b 42bd eab5 d63d
00000090: 2d83 50be aaf7 cd3d 422a 82bd 9260 f03b
000000a0: c0d8 e6bc d6f3 e4bd 7606 673e f95c 3a3d
000000b0: cdaa 04be 999f f7bd 4fa0 a2bd 2b18 bbbd
000000c0: e809 edbc 9e15 333d 7560 a73c 40eb 0dbe
000000d0: 5114 8dbb ebac 043e a838 8f3c 5e6a d0bd
000000e0: f9b9 4b3e e830 06be b471 283e 98a2 d4bd
000000f0: d884 603e a38c 043e ea7f 90bb 1c49 3a3e
00000100: d0f8 99bd dafa 103e d7a5 f83d b5ec de3d
00000110: 25b5 a3be 3a53 5c3e f194 553e c8e7 c0bd
00000120: 2f39 aebc f9cf 6a3d 9c90 90bd 9575 84bc
00000130: dfb9 bbbd f238 b7bc 9e49 d43d 6c2a d73d
00000140: ffb7 1dbd e04b 02be b2bb 003e 1ef4 09bd
00000150: a2fe a03d b08c 5d3d 15e4 d03d e5b9 823c
00000160: 977d 8bbd 4b54 d9bd e859 0e3e 9291 14bd
00000170: a992 0cbd 90cf a0bd 9f32 1dbe 9ff0 633d
00000180: f0ee 5abd 96a6 0ebe 6b9e ccb8 8408 a33b
00000190: a6ef e7bd 7a57 033e 1009 953c c1d3 f63d
000001a0: c4d5 913e 825c 27be 080c 32be a01f be3b
000001b0: ca0d 28bd a8be 8cba 510b 15bd 3ea4 233d
000001c0: e27e 0f3a 96f1 04bd 5c72 16bd 2c2f 1aba
000001d0: 9269 673c f557 643c e22b 313d a64f 5ebe
000001e0: be08 ce3d 4037 cfbd 5f76 94bd ff8d 713d
000001f0: 587e a43d 9c40 173e 7992 473d cfc8 8fbd
00000200: 45bd eb3d 9059 f1bd d290 253e 647c a73d
00000210: daa4 e2bd 8dd9 723d a3f4 d23d a8df 463c
00000220: a197 07be 682f 74be f408 d33d 7bb6 b5bd
00000230: cb7d 09be 05b0 513c eefa aebd 401d eebc
00000240: c7a4 c6bd 30aa c4bd cd7f bcbc 1ef5 103e
00000250: 03c9 923d 59f4 51bc b9fb 1b3e 565b 15bd
00000260: 8388 b6bd 3a67 1abe 997c ecbd 3e43 26bd
00000270: 3df8 b23d 3e09 973b e8aa c43d 12d4 a3bd
00000280: 4ae6 b43d 8aaa 013e 4f13 6b3c efb5 dd3b
00000290: a383 0abc 5494 69bd d100 1dbe 64ce 03be
000002a0: ea45 5d3d 48af 27be d781 a9bd e6d3 97bd
000002b0: b219 0d3e 7667 80bd e80e ce3d c981 733d
000002c0: fa87 7abc 0e2c a03c 9226 0bbe 8208 d93d
000002d0: 0d90 2bbd a191 1e3e 69f4 403b 170b f23d
000002e0: 5abb 60be c0d4 b1bd dcaf 5cbc cb92 bcbd
000002f0: 1408 ed3d e923 dd3d bbec dabd d3d2 49bc
00000300: 279a fb3d befa 4abc f78d 193c 9c48 993d
00000310: 2f40 ed3b ad46 5d3e ec89 913c 1548 e33d
00000320: 06c3 053d 893f 1b3e 1a78 0c3b 2eaa 923c
00000330: c687 363d 0061 163e e63f ec3c ac02 c93d
00000340: 2d7c e7bd a7e1 c4bd f7c6 6f3d e345 f03c
00000350: cc64 f4bc d20d ddbd d6cc 8ebd d845 f83c
00000360: 8354 003c 5839 1e3e f50a 4dbd 642d 65bd
00000370: a596 7e3b 77be 4ebd 2d93 9ebd 799f 1abd
00000380: 5734 d93c c700 37be f5d0 da3d 148c 263c
00000390: 1cd7 05be b25a a4bb fdc9 313e 598a ef3d
000003a0: 9b88 523c 77c7 323d 4583 fbbd 2bab 113e
000003b0: dc11 74bd 4734 133e 8f38 bdbb 9ed0 24be
000003c0: 21ec 1cbe abe6 a4bd 6c18 13be 75e7 b1bd
000003d0: 4554 f8bd 9253 d13c dd80 473d dbc9 853c
000003e0: e9fa 883d d142 603d cb55 48be 335d 013e
000003f0: 44f8 df3d 8aa3 033e 8f73 02be bea1 12be
-0.11176646 -0.08271222 -0.05233997 0.03659965 0.036641017 -0.04873292 0.031438276 -0.08688812
-0.010957018 -0.087186836 -0.16539082 -0.10652103 -0.115563154 -0.049022757 -0.042380735 -0.0274394
0.045305327 -0.015874743 -0.064346276 0.03113763 -0.16151385 -0.05277183 0.008052111 -0.0676502
-0.063102566 -0.097769305 0.052741453 -0.03399761 -0.063580535 0.02431117 -0.11290376 0.013453603
-0.04912021 -0.13017675 -0.047405124 0.10483916 -0.2036254 0.10057004 -0.06355716 0.007335731
-0.028179526 -0.111793205 0.22561058 0.045498822 -0.1295578 -0.12090988 -0.07940733 -0.09135469
-0.028935388 0.043721788 0.020431736 -0.13859272 -0.0043054004 0.12956588 0.01748307 -0.10176538
0.19895162 -0.13104594 0.16449624 -0.10382575 0.21925676 0.12944274 -0.00440978 0.18191952
-0.0751816 0.14158192 0.121410064 0.10884992 -0.3197414 0.21516123 0.20857598 -0.09419209
-0.021267502 0.057327244 -0.07058832 -0.016169349 -0.091663115 -0.02236602 0.10365604 0.10506138
-0.03850555 -0.12724257 0.125716 -0.033680074 0.07861067 0.05408925 0.10199753 0.015957782
-0.06811064 -0.10611781 0.13901484 -0.03627164 -0.034319554 -0.078520894 -0.15351342 0.055649396
-0.053450525 -0.13930735 -9.756986e-05 0.0049753804 -0.11325006 0.12826338 0.018192798 0.120521076
0.28483403 -0.16343883 -0.17387402 0.00580211 -0.041028775 -0.0010737972 -0.036387745 0.039951555
0.0005473924 -0.032456957 -0.036730155 -0.0005881663 0.014124291 0.013936986 0.04325474 -0.21710071
0.10060261 -0.1011796 -0.0724914 0.05897331 0.08031911 0.1477074 0.04872367 -0.07020723
0.1151071 -0.11784661 0.16168526 0.081780225 -0.11066599 0.059289504 0.10300567 0.012138285
-0.13241436 -0.23846209 0.10304442 -0.08872696 -0.13426892 0.012798314 -0.08543955 -0.029066682
-0.096993975 -0.09602773 -0.023010159 0.14156005 0.07167246 -0.012814605 0.15232743 -0.036464058
-0.08912756 -0.1507844 -0.115472026 -0.04059147 0.08738754 0.004609256 0.0960291 -0.079994336
0.08832987 0.12662712 0.014347865 0.006766073 -0.008454236 -0.057026222 -0.15332343 -0.128717
0.054021753 -0.16375458 -0.08276718 -0.07413463 0.13779333 -0.062697336 0.10061437 0.059449945
-0.015291208 0.019552257 -0.13588932 0.10597326 -0.041885424 0.1548524 0.0029442555 0.118185215
-0.21946469 -0.08683157 -0.0134696625 -0.09207686 0.115738064 0.10797865 -0.10689684 -0.012318331
0.122852616 -0.012388883 0.009372226 0.07484552 0.0072403173 0.21608992 0.017765962 0.11097733
0.032656692 0.15160955 0.002143389 0.017903414 0.044563077 0.1468544 0.028839063 0.09814963
-0.113029815 -0.09613352 0.058539357 0.0293302 -0.02983322 -0.10793652 -0.06972663 0.030306742
0.007832649 0.15451562 -0.050059278 -0.05595149 0.0038847115 -0.05047461 -0.07742915 -0.03774974
0.026514215 -0.1787139 0.10684387 0.010165233 -0.13070339 -0.0050156945 0.17362209 0.116963096
0.012849952 0.043647256 -0.12280897 0.14225452 -0.059587345 0.14375411 -0.0057745646 -0.16095206
-0.15324451 -0.08051809 -0.14364785 -0.08686725 -0.12125448 0.025552545 0.048706878 0.016331604
0.06688482 0.05475122 -0.19563977 0.12633209 0.10936025 0.12855354 -0.12739395 -0.14319512

FC1.bias f4 [256]
00000000: beb7 efbd 9446 d93d aa67 1f3e 95dd fa3d
00000010: 5039 913d 03fd 273d a713 183e 2033 90bd
00000020: f666 ad3c 9327 08be af1b e13d b46d e13d
00000030: 44ce 173e 6947 093e 9d80 9fbd 4d2a a33d
00000040: 1063 5c3d 350e 9c3c 2167 18be 83fe 993d
00000050: 77f4 e3bc cc27 5e3d 1909 5b3c d3da 313d
00000060: f268 cebc 2704 26be 564c db3d 7abb 0cbd
00000070: 6016 323e 81f9 2e3d 1408 0abe 168c 823c
00000080: f011 083e 5696 f2bd 7603 aabd c1ba 143e
00000090: ee47 f93d 4288 92bd a32c da3d 684a a23d
000000a0: e6cd 0a3e c80e 71bd 27ef 293e e834 14bd
000000b0: 1c89 163e 85e5 3b3d 6ba1 33bd aa75 b43d
000000c0: c45e 473d db09 6fbd 3755 c03d 9e42 14be
000000d0: 5586 82bd 5e3a b7bc 1a1e c73d 8dfd 14bd
000000e0: 0354 e23d 0f15 acbd 841d 933d f4b5 593d
000000f0: af28 753d a773 963d cf9e 1d3d 6937 06be
00000100: b9ab 243e c346 98bd b108 d0bd 7eff 11be
00000110: b850 3c3d 6b2d 2b3d cc56 8cbd 9cdb ae3d
00000120: 35d8 ba3d 288d 3f3d 5ceb 08ba efbc d6bc
00000130: ee63 053e 157a 2c3c 127f 10be d0ba db3c
00000140: 9035 bf3c 70b6 813d 8255 e43c e87f edbc
00000150: 1ea3 f73c c49f acbc d9c0 82bd 08df 8bbc
00000160: 2443 773c 0379 a43d 6ea9 1dbd b87a f7bc
00000170: de65 a73d 682e 153d 08b3 993d e501 873c
00000180: cd0f 3b3e 6b11 32bd bc80 6f3d 2125 5b3d
00000190: a32a 1bbc ea02 393e 91f9 703c 76ed 4d3e
000001a0: 1523 c23d 6dc2 3dbd 9912 c33d 6059 a03d
000001b0: 07b9 39bd 5d88 b03d 816c 9dbd 1542 ad3d
000001c0: 7f9f 0c3e 4a6c a6bc 6237 cdbd 7790 d23c
000001d0: d89a b4bd bb25 143c b80c c6ba c2fb 0b3e
000001e0: c26b 433e 13f5 a0bd 7402 843d 3959 57bd
000001f0: bff4 323e b5e0 d73c 61a2 113d f7ba 293e
00000200: 6e82 1ebe 8304 ce3d 34b8 0bbe ee7f aeba
00000210: e4db e1bd d607 8c3d 9956 b1bd 1ba7 023e
00000220: 7a82 343d 2437 003e 923c 373e 7a9e 18bd
00000230: e373 97bc ef1a df3d 40c0 0cbe 5206 b9bb
00000240: 272b 46bd edfe 133d 9a86 b03c 6eb1 f73d
00000250: c670 31bd 83f2 dbbd d699 1e3e 03d3 023e
00000260: ffee 143c 2975 da3d 8c4d 1cbe 6a74 22bd
00000270: c78f ba3d b2b7 acbd 137c 20bd 9958 1f3e
00000280: 6c4e 08bd 7235 28be c9a6 1bbe 3d07 2abd
00000290: 44e5 10be a143 513c 50f2 d4bc 58ba acbd
000002a0: dce5 e43d a3b0 013e 67d6 13be f3d7 593d
000002b0: 9866 15be 1297 2cbe 485b 0d3c 54b3 f93d
000002c0: 160e 9bbd eb9f 523d 4e9f 613d c5ad 3ebc
000002d0: 9bbe 07bd eea2 a6bd 32a7 a7bb bc5a 3f3e
000002e0: 10af 8f3d f042 01bb 4dc2 423d 97df 063c
000002f0: f9c8 c43c ed34 c93d 793b 543e 99e8 24be
00000300: 4fe5 e6bc 5470 283e ecdc b8bc c787 183e
00000310: 80e8 be3c fc86 eb3c 8adf 2c3e 5c04 32be
00000320: 1490 883d 32fa 913d 6c48 493d d893 163d
00000330: ae35 ee3d 5c36 cd3d 8e9b 5cbb 8993 323e
00000340: ab22 d4bc 7892 a93d 1cf2 debd 8c10 68bd
00000350: d47f e53b 5067 0fbe 1d38 90bd 170d d8bc
00000360: cbd1 95bb 0e29 5fbd a2b3 cfbd 31fb dd3c
00000370: 4194 093e f96e f53d 8dcd ecbd 13e2 dd3d
00000380: f62a 6a3d 2e97 d43c 1b5c 0b3e 2489 983d
00000390: 4809 bbbd af36 3bbd 226c e9bd 9f21 03be
000003a0: 7d93 f8bd 73a5 863d a287 f2bd 27e3 013e
000003b0: ce37 dfbc 8c64 febd 54e4 c13d a579 363d
000003c0: d12f 94bd 593c 943d 851d 283e 708b 843c
000003d0: c4d6 4c3d 8b29 513d 2d15 a6bd abb1 c2bd
000003e0: 32df e13d 6a95 b9bc 7f02 013e 5a2f 47bd
000003f0: 7554 c7bd f397 303e e77d 4abd 04a6 63bc
-0.11704968 0.10609165 0.15566888 0.12249295 0.070910096 0.041012775 0.14851247 -0.07041001
0.02116726 -0.13296346 0.10991608 0.11007252 0.14824778 0.13406147 -0.07788203 0.079670526
0.05380541 0.019049743 -0.1488309 0.075192474 -0.02782653 0.054237172 0.013368868 0.043421578
-0.025196526 -0.16212521 0.10707919 -0.03435848 0.17391348 0.042718414 -0.13479644 0.015935939
0.13288093 -0.118450806 -0.08301441 0.14524366 0.121719226 -0.07154895 0.10653045 0.07924348
0.13555107 -0.058851987 0.16595136 -0.036183268 0.1470074 0.045873184 -0.043855112 0.08811505
0.04867436 -0.05835901 0.093912534 -0.14478537 -0.06373278 -0.022366699 0.09722538 -0.036374617
0.1105118 -0.08402454 0.07183364 0.05315204 0.059853252 0.07346278 0.03848153 -0.13107075
0.16081132 -0.07435372 -0.10157908 -0.14257619 0.045975417 0.04179136 -0.06852493 0.08537981
0.091232695 0.046765476 -0.00052230596 -0.026213137 0.13026401 0.0105271535 -0.14110973 0.026822478
0.02334097 0.06333625 0.027872805 -0.028991655 0.030229148 -0.021072276 -0.06384439 -0.017074123
0.015091691 0.08030894 -0.03849166 -0.030209884 0.081737265 0.03642121 0.075048506 0.016480396
0.18267746 -0.043473642 0.05847238 0.053502206 -0.009470615 0.18067518 0.014707939 0.20110115
0.094793476 -0.046327997 0.095250316 0.07829547 -0.04534247 0.08619759 -0.07686711 0.0845987
0.13732718 -0.020315308 -0.10020329 0.025703652 -0.088185966 0.009042199 -0.0015109992 0.13670257
0.19084075 -0.07859244 0.064457804 -0.052575324 0.17476176 0.026352266 0.035555247 0.16575228
-0.15479442 0.10059454 -0.13644487 -0.0013313273 -0.11028269 0.06837432 -0.08659095 0.12759058
0.044069745 0.12521034 0.178942 -0.03726051 -0.018487876 0.10893809 -0.13745213 -0.0056465054
-0.048380997 0.036131788 0.021548558 0.12094389 -0.04332044 -0.10739615 0.15488371 0.12775807
0.009090184 0.10666878 -0.15263957 -0.039661802 0.091094546 -0.084334746 -0.039180826 0.15561141
-0.033277914 -0.16426638 -0.15200342 -0.04151081 -0.14149958 0.012772472 -0.02599445 -0.0843398
0.11176655 0.12665038 -0.14437257 0.05318446 -0.14589918 -0.16854504 0.00862772 0.12192407
-0.07571046 0.05142204 0.055083565 -0.01163811 -0.03314076 -0.08136545 -0.005116367 0.18686956
0.070158124 -0.0019723736 0.04754858 0.008232019 0.024021612 0.09824548 0.20725812 -0.16104354
-0.028185515 0.164491 -0.022566281 0.14895545 0.023304224 0.028750889 0.16882148 -0.17384475
0.06668106 0.07127799 0.049141333 0.03676209 0.11631332 0.10020134 -0.0033662054 0.17439093
-0.025895437 0.0827989 -0.108860224 -0.056656405 0.0070037637 -0.14004254 -0.07041953 -0.02637343
-0.0045721284 -0.054482512 -0.10141684 0.027097316 0.1343546 0.11984057 -0.11562643 0.10834136
0.057169877 0.025950994 0.13609354 0.074480325 -0.0913263 -0.045706447 -0.11397578 -0.12805794
-0.12137506 0.06574526 -0.11842276 0.12684308 -0.02724829 -0.124215215 0.09467378 0.044549603
-0.07235683 0.07238073 0.16417511 0.01617977 0.050009504 0.05106501 -0.08109508 -0.09506544
0.11028899 -0.022654254 0.12598608 -0.048629142 -0.09732906 0.17245464 -0.049436476 -0.013894562

FC2.weight f4 [256, 256]
00000000: f846 75bc 9cca 23bd 902f 0dbd 578b 2abd
00000010: 1bda c03c 1610 65bd 4e10 36bd b880 3fbd
00000020: 7e8e f2bc 4be1 9b3c cecd 8fbd a0fa 2e3d
00000030: a666 89bc cbd5 56bd 8627 3f3d 1acb e43b
00000040: 046a 4cbd cb44 f0bb b311 ab3a 851a 2b3d
00000050: 8071 3bbd e01e 0dbc 5c78 ab3c 2bdf 11bc
00000060: adda 7a3b 76b9 7ebd 0161 7dbd df19 083c
00000070: 65e0 8fbd 5b7f d63c 9e67 1e3d 4dc4 88bd
00000080: 297e 17bd aa76 113d 328f ca3c 3556 e73c
00000090: e79e 1b3d 94e0 66bc ec3f 2bbc 3160 44bd
000000a0: fbd6 e1bb fef5 1f3d 79d2 69bd 5656 85bc
000000b0: bd23 393c 3929 c9bb f388 19bd b61d 383d
000000c0: e97d 57bd 3730 dfbc 283c cb3c 20c7 483b
000000d0: 3382 55bb f7b9 983b 34fe 99bd 1385 d4bc
000000e0: 07fe f13a aaf4 303c 1051 03bd 25b9 193d
000000f0: 675f 96bc 480a 9ebd 90db d73c eb6a 18bd
00000100: c59e a33c 5ed3 44bd bdd2 5fbd 4d9e 1bbd
00000110: 37d6 1c3d cc39 cbba e61e 3c3d 91a1 b13c
00000120: f1cc 48bd b1e4 e93a e109 d63c dffb e1bc
00000130: 9a40 85bd 0084 8bbd 3ac2 b33c 3750 3c3c
00000140: 1021 dc3c 4d85 34bd 2431 4ebc 4162 ccbc
00000150: 6a90 e4bb f1ae 85bd 7289 7c3c 3b84 203d
00000160: ca22 4b3d 7c26 8fbd ddea 313c 0bfa 72bd
00000170: 842d 6d3c 1589 193d 50e9 56bc fd3d 2dbd
00000180: e9d3 3ebd 7417 1fbc 7ec9 043d d851 c73c
00000190: d0da 70bd 1f35 89bd 109c 553d 5b5a 123d
000001a0: 5545 343c 80a7 55bd ad87 a63c a108 5e3c
000001b0: 3cc2 b23b f385 8a3c dfcf 353c 2a54 02bb
000001c0: d12c e33b c324 6bbc 9699 df3b 5398 8abd
000001d0: 4439 f73c 500e 63bd 67fb 8ebd bedc 193d
000001e0: 4a88 41bd 03e2 4a3d 9f1d 86bc 2642 31bc
000001f0: bbf2 50bd 8d63 59bd e5a7 993c 5ea3 24bd
00000200: a3f8 b7bc 17f3 ecbc b31b 403d c4c3 8a3c
00000210: 9ee9 3bbb 242a 04bd 1ef4 e43c cf6d 61bc
00000220: 84fb 81bd c4e6 87bd f0ba 933c f8f9 8dbd
00000230: f940 f6bc 0d94 8d3b 731a 94bd 3c9b c7bc
00000240: 2c72 183d b03b efbc 5cbf 87bd 4643 763b
00000250: 7f8d bc39 7867 15bc 4479 df3a 3b6a 97bd
00000260: 02aa c63b 5a0e 543d 2ce6 15bd 6802 bd39
00000270: d1c9 943c 3df0 11bd 99c0 633c d462 cbbb
00000280: fa83 88bd 5e5f 29bd 6bf5 c3bc aaa3 4abc
00000290: 8a29 2d3d fbf0 7cbd 4507 f1bc b8ab d03a
000002a0: 1aad 7c3c 665e 55bd fa1e b0bc 7349 4bbd
000002b0: 5be0 f3bb fdcb 73bd c600 0cbd 3203 433d
000002c0: 109b b83c 7fa5 a23c ee86 173d 3a88 21bd
000002d0: 907a cabc d6ab 573c fe72 4e3d 26c5 0fbc
000002e0: 8759 96bd 2d98 72bd 48e6 bebb 26f8 6bbd
000002f0: 81ed 34bd ede6 7bbd 4354 d63c 6684 3d3c
00000300: ae3d fa3c ed57 23bd c7e9 fdbc 4a3c efbc
00000310: 8556 0cbd af01 dfbc 936d 29bd e9dd 3b3d
00000320: 7931 8ebd d84e 32bd d428 ab3c 0456 dfbc
00000330: e893 46ba c643 6fbd 56bf 1ebd 7892 bb3c
00000340: ef30 0abc 7e17 d53c c67a 33bd aea3 393d
00000350: f5f9 94bb e38d 023d 7508 213c 203c 4cbd
00000360: cf19 293b 48c2 203d eff0 8cbd 9332 243d
00000370: 37c0 d8bc bb9c 863b da9e 93bd 0b9f 7bbc
00000380: 60b0 6abb 20f2 95bd c4aa 363c 09a1 47bd
00000390: 9a45 1bbd 3738 b03c 677c e9bb f2b4 a33b
000003a0: 5875 ac3c 559f 9abd ba7c 1f3d e27b 02bc
000003b0: d67d 053d 966a 1bbd 290c ba3c b741 84bd
000003c0: 5dd8 8d3d 1db7 933c 6522 273c f866 2cbc
000003d0: 6ca9 bd3b 405a 5d3b 2049 d73c ea4e 6bbd
000003e0: ebdb a73c 5d0b c23b a2e6 b93c 2871 2f3d
000003f0: f635 193c 404e 72bd fd8c 53bd 8ef2 79bd
-0.014970534 -0.039988145 -0.034469187 -0.04163679 0.0235415 -0.055923544 -0.044449143 -0.046753615
-0.029608961 0.019028326 -0.07021676 0.042719483 -0.01677258 -0.052449983 0.04666855 0.0069822194
-0.049905792 -0.0073324195 0.001305154 0.041773338 -0.04576254 -0.008613318 0.020931415 -0.008903305
0.0038277314 -0.062188588 -0.06186009 0.008306949 -0.07025222 0.026183775 0.038673036 -0.066780664
-0.03698555 0.035513557 0.024726484 0.028239349 0.037993338 -0.01409163 -0.010452252 -0.047943298
-0.0068920827 0.039052956 -0.057085488 -0.01627652 0.011300025 -0.0061389473 -0.03748412 0.04495021
-0.05261031 -0.02724467 0.024808958 0.0030636266 -0.0032578825 0.0046608406 -0.075191885 -0.025942361
0.0018462547 0.01080052 -0.03205973 0.037530083 -0.018356038 -0.07716805 0.026349813 -0.03721134
0.019973168 -0.048053138 -0.054644335 -0.037992764 0.03829023 -0.0015504896 0.045927905 0.021683486
-0.049023572 0.0017844645 0.026127758 -0.027585922 -0.065064624 -0.068122864 0.0219432 0.011493734
0.026871234 -0.044072438 -0.012584958 -0.024949195 -0.0069752233 -0.06527508 0.015413629 0.039188605
0.049593724 -0.06989762 0.010859218 -0.05932049 0.014476184 0.037484247 -0.0131171495 -0.042295445
-0.046588812 -0.0097101815 0.03241872 0.024331018 -0.058802426 -0.06699585 0.052150786 0.0357307
0.011002858 -0.052161694 0.020328367 0.013551862 0.0054552834 0.016909575 0.011096924 -0.0019886591
0.0069328328 -0.014352026 0.006823729 -0.06767335 0.030178674 -0.05543357 -0.06981545 0.03756403
-0.047249116 0.049531948 -0.016371546 -0.010818994 -0.051012736 -0.053073455 0.018756816 -0.04019486
-0.022457426 -0.028924508 0.046901416 0.016939051 -0.0028673182 -0.03226675 0.027948435 -0.013759091
-0.06346801 -0.06635812 0.018033475 -0.069324434 -0.030060278 0.0043206275 -0.07231607 -0.024366014
0.037218258 -0.029203266 -0.06628296 0.003757672 0.00035963577 -0.009118907 0.001704969 -0.07393309
0.006062747 0.0517715 -0.036596462 0.00036050682 0.01816264 -0.0356295 0.013900899 -0.0062068496
-0.066657975 -0.041350715 -0.023920735 -0.012368122 0.042275943 -0.061753254 -0.029422412 0.0015920317
0.01542213 -0.05209198 -0.021499146 -0.049630594 -0.0074425167 -0.05952071 -0.034180425 0.04761047
0.022534877 0.019854305 0.036993913 -0.039436556 -0.024716645 0.0131635275 0.050402634 -0.008775031
-0.07341295 -0.059227157 -0.0058257915 -0.0576097 -0.044171814 -0.061499525 0.026163226 0.011567211
0.03054699 -0.039878774 -0.030995263 -0.029203553 -0.0342622 -0.027222482 -0.041364264 0.045865927
-0.0694303 -0.043532223 0.020893492 -0.027262695 -0.00075751403 -0.058414243 -0.03875669 0.02289699
-0.008434518 0.026012179 -0.043818258 0.045322113 -0.0045463988 0.031873595 0.0098286765 -0.049862027
0.0025802737 0.03924778 -0.06881892 0.040087294 -0.026458843 0.004108039 -0.07208033 -0.015357743
-0.0035810694 -0.07321572 0.011149112 -0.04873756 -0.037908174 0.02151118 -0.0071254256 0.0049959356
0.021052048 -0.075499214 0.038937308 -0.007964106 0.03259071 -0.037943445 0.022710877 -0.064578466
0.06926034 0.018031651 0.010201071 -0.010522597 0.005788019 0.0033775717 0.026279986 -0.057448305
0.020490607 0.0059217648 0.022692982 0.042832524 0.009351244 -0.059156656 -0.05164813 -0.061022334

FC2.bias f4 [256]
00000000: 34d8 4c3d bef5 893d f769 b5bc c324 0abc
00000010: b18b 6439 9112 d83c 4e08 283d ff4a 20bc
00000020: 989e 48bd 78e0 6dbd eb36 ba3c fdff 98bc
00000030: f0dc 75bd 2045 043c c58e bb3b 8980 6ebd
00000040: ae22 29bd 9c37 adbc ebd5 31bd fa43 36ba
00000050: cd0c 8bbc a134 f4bc 7dae ab3d 248c 5cbc
00000060: 0104 9a3c 5bb9 9abc f15d 06bc 5a8a 103d
00000070: 1140 813c 82e9 0a3d 0dd0 9dbc 6fd2 b53d
00000080: 853b 923d f511 003d 1ea8 54bd 4090 a0ba
00000090: 8247 213d 0ae7 a33c 0099 863d a924 18bc
000000a0: 1835 b23c 4a77 81bd 66b3 87bd dce5 8d3c
000000b0: 27d7 f53c 264e f43c 47a0 c1bb e627 5a3d
000000c0: c6cf 46bd 31c5 c4bc de73 23bd 1feb a0bc
000000d0: 2923 e83b dc84 f93b 8f1f 6ebd ac6d 803c
000000e0: c78b 493c 643d 9c3c 1370 74bd cd61 8a3d
000000f0: 7635 ab3d 0ad3 81bc 76a7 133d 180c 183d
00000100: 23c0 78bd 9c44 893c a6f1 a93d 0dec bd3d
00000110: 3d40 203d d1dd 7f3d 35ef 2e3c 8ab1 7b3d
00000120: 81d0 4c3d c58d 04bc a6ec 7dbc b194 0e3d
00000130: 9921 21bb 7768 513d e370 f5bc 7ccb 293c
00000140: 5f39 893d 0d13 103b 2619 48bd faad f1bb
00000150: d2d8 fabc 401b 903c f512 18bd 51b3 233d
00000160: d4ba 7e3c 8c7b c83c 7bab e73c 6a22 13bd
00000170: e7eb 3c3d 9dee ffbc 8ab4 363d 3535 40bd
00000180: 12b6 48bc 81fa 75bc 67ca 763d a511 b3bc
00000190: 26d0 c73c aaaf 8b3c 3933 033c 3ea4 2c3d
000001a0: ad09 69bd 1d31 47bd c06d 643d 10ed a23d
000001b0: 6914 c0bb 125f 16bd e84b 3d3c afb8 043b
000001c0: 9dde e5bc b943 c7bc d9b5 263b fcd5 653c
000001d0: fb21 47bd 4633 fd3c 1a5a 333c b7ad 37bd
000001e0: 65dc 54bd 30a5 813c 94a1 40bc 2c02 563d
000001f0: f256 833d 1cce 5fbb cef3 b83d b83a 49bd
00000200: ccf3 6fbc e2c8 e9bb b17d babc c3e3 973d
00000210: 6ce9 733c f63c 513c ffe9 a3bb ca2b b43d
00000220: 3ad0 423d 06e0 bd3d c7db 253a d924 a4bc
00000230: 6f7f b93d 0894 ddbb 120d 17bd 66cf 8ebd
00000240: 2c4f 8f3d 3400 0ebd c482 2dbd 1ac5 58bd
00000250: 1e8c c03c 37c2 d5bc 05ef 5a3d 8795 9bbc
00000260: 3cbe be3b 078e 453d 6c56 863d 83b0 713c
00000270: d819 193d 27b6 463d 182d b73c 5296 323d
00000280: 2344 343d 1c4c 873c a519 18bd aa96 43bb
00000290: aa29 c23d bed7 c0bc 30d1 3f3c a326 453d
000002a0: 587b 6b3c 18ea 193d a686 9c3d a02a 563d
000002b0: 2b9d 8abd f822 373b 0b02 d4bc 344c a2bc
000002c0: 50c7 303d 13f7 12bd 0f89 52bd 1c15 5a3d
000002d0: eaaa c1b9 4491 993d 22d9 8f3c faa6 7f3d
000002e0: 56b8 a43c 503f 6b3d d870 55bd 8255 e43b
000002f0: 0e3a a8bc 0815 9f3d 0df2 9ebc 3ce6 33bd
00000300: 53f1 89bc 54e5 2c3d a649 e03b 0d17 8abc
00000310: 3126 323c 440a c43d 951a 44bd 9186 653d
00000320: 04a1 85bd dc1b 103d c83e 30bd b65b 743d
00000330: eaf8 78bc a15c 183d ae7e 0c3d 3996 80bd
00000340: 0b67 883d c6b8 85bd 6484 80bd 63b2 2e3d
00000350: 1f81 88bb 2511 583b 10e3 44bd 4327 a63c
00000360: c460 8ebb 1cfd e63c f1d0 d73c f003 593d
00000370: 45d1 dc3c d100 94bc 7938 633d 5e4a 9abc
00000380: 72e3 233d 1870 f23c f90e 953c 3842 7fbc
00000390: c623 643d af8b 163c 0c31 42bc a8b4 88bd
000003a0: 3d07 fd3b a9c2 283d 11a9 56bc e30d d33c
000003b0: 20bc 0e3d fcd3 5ebd 6c5e 83bc 7400 363d
000003c0: 7634 3fbc 6ad5 ed3b 34d0 02bc 10c8 5bbd
000003d0: 11bd f93c f349 f73c c490 05b9 5975 173d
000003e0: a068 803b f13c 853d ee08 ac3a 1d57 0a3d
000003f0: 300b 23bd fa01 aabb 1e3f 863d 3e7e 423d
0.050010875 0.06736325 -0.022145255 -0.008431616 0.00021795814 0.02637604 0.041023545 -0.009783505
-0.04897937 -0.0580754 0.022731265 -0.018676752 -0.060025156 0.008073121 0.0057238066 -0.05822805
-0.04129284 -0.02114468 -0.0434169 -0.00069528783 -0.016973877 -0.029810252 0.083828904 -0.0134611465
0.018800737 -0.018887212 -0.008201108 0.035288192 0.01577762 0.033914097 -0.019264245 0.08878028
0.07140259 0.031267125 -0.05191814 -0.0012250021 0.039374836 0.020007629 0.06572151 -0.009286084
0.021753833 -0.06321581 -0.066260144 0.01732152 0.03000982 0.02982242 -0.005908999 0.053260706
-0.048537992 -0.02401981 -0.03990542 -0.019643364 0.0070842695 0.007614715 -0.058135565 0.015677296
0.012301392 0.019072242 -0.059677195 0.06756935 0.08359806 -0.015847702 0.036048375 0.03712091
-0.06073011 0.016756348 0.08298044 0.09273539 0.039123762 0.0624674 0.010677149 0.06144861
0.050003532 -0.008090441 -0.015498316 0.034809772 -0.0024586676 0.051125016 -0.029961055 0.010363456
0.06700396 0.0021984011 -0.04885211 -0.007375476 -0.030620966 0.017591119 -0.037127454 0.03996593
0.015547473 0.024472974 0.02828001 -0.03592149 0.04612341 -0.03124171 0.04460577 -0.046925742
-0.01225044 -0.015013338 0.06025162 -0.021859 0.024391245 0.017051537 0.008007818 0.04214882
-0.056893993 -0.048630822 0.05576873 0.07955372 -0.005861808 -0.03671176 0.011553742 0.0020251682
-0.028060252 -0.024324285 0.002543798 0.014028069 -0.04861639 0.030908238 0.010946775 -0.0448434
-0.051967997 0.015825838 -0.011757273 0.052248165 0.06413068 -0.003414995 0.09030877 -0.049128264
-0.014645528 -0.007134543 -0.022765012 0.07416489 0.014887195 0.012770882 -0.0050022597 0.087974146
0.04756186 0.09271245 0.0006327 -0.020037102 0.09057509 -0.0067620315 -0.0368777 -0.06973152
0.06997523 -0.034668162 -0.042361036 -0.052922346 0.023504313 -0.026093585 0.053450603 -0.018992199
0.0058210175 0.04823115 0.065594524 0.014751556 0.037378162 0.048513558 0.02236037 0.043600388
0.044010293 0.016515784 -0.03713383 -0.0029844441 0.09480603 -0.023540374 0.011707589 0.04813255
0.014372669 0.037576765 0.0764287 0.052286744 -0.06768259 0.0027944427 -0.02587988 -0.019811727
0.04315883 -0.03588016 -0.05140024 0.053242788 -0.0003693917 0.0749841 0.017559592 0.0624151
0.02010743 0.057433426 -0.05210957 0.006968201 -0.020535495 0.07767683 -0.019402528 -0.04392074
-0.016838705 0.04221089 0.006844717 -0.016856695 0.010873363 0.095722705 -0.047876913 0.056036536
-0.06524852 0.03518282 -0.043028623 0.059657775 -0.0151960645 0.037197713 0.0343005 -0.06278653
0.06660279 -0.06529383 -0.062752515 0.04265059 -0.004165783 0.0032969203 -0.048068106 0.020282393
-0.0043450315 0.028196864 0.026344748 0.05298227 0.026955256 -0.018066796 0.05547378 -0.01883429
0.04001183 0.029594466 0.018195616 -0.015579753 0.05569818 0.009188577 -0.011852514 -0.066750824
0.00772181 0.041201267 -0.013101832 0.025763458 0.03484738 -0.054401383 -0.016036235 0.044434026
-0.0116702225 0.007258107 -0.00798421 -0.05365759 0.030485662 0.030186629 -0.00012737798 0.036977146
0.0039187223 0.06505764 0.001312522 0.033774484 -0.03980559 -0.005188224 0.065550074 0.047483675

action_out.weight f4 [5, 256]
00000000: 1c17 053d b58a 97bc 89b3 0c3a aa88 75bd
00000010: 0989 fbbc 69c5 bdbc d47c aabc 0298 edbc
00000020: 431f 1a3c 2cee 993c 80cc 6b3c 3082 863b
00000030: fe8f 27bd 7771 87bd 7eed 49bd 2a4f a5bd
00000040: bb2c 1bbd bf5a 8cbd a42b 80bd 7340 7fbd
00000050: f95b 85bd 635f a6bb 16b7 bcbd f111 ef3c
00000060: e790 82bc d07d e63c 51ab a4bc 12af 293c
00000070: bbb4 e53c fcfc 4fbd a9a7 77bd 2393 b2bd
00000080: 4bb2 023c c630 91bc d12a eebc c8f1 f0bc
00000090: 3aa3 f5bc 3bff 72bd 6407 66bd 04ba 40bd
000000a0: 0c47 473d 0088 f23b 491f 84bd cafd 333d
000000b0: 2e69 1ebd 6c04 cf3c 3116 61bd 10b0 c83c
000000c0: 775b 50bd b3ef d83c 1222 a3bd 75a1 adbd
000000d0: 560e b4bd 6334 01bd 96ee e1bc ea2c babd
000000e0: 2ac6 7ebd a809 983c a0cf bfbc db7f 98bc
000000f0: 2c94 61bd 72c9 233c 92da 8fbd 6980 90bd
00000100: ad3b 98bb 3cbc 70bc 0421 af3c f7f8 20bc
00000110: f90e 7dbd 784d a9bd 159d 0f3d ab87 8fbd
00000120: 0f82 d03a 7ed1 e23c a3b5 cfbc ddc7 8abd
00000130: 3be6 0fbc 5a79 143d e225 a4bd c75c 0abe
00000140: 020c 30bd ef3c 6b3d 8390 6cbd e579 b3bd
00000150: b72e 933c 12e9 883d b770 623b a128 7cb9
00000160: 5b7f 633c d3ed 3dbd 9971 90bd 8cae 53bc
00000170: 187d 1f3d 8cd5 e0bc 4e46 b63b d7dc 0fbb
00000180: 6f4b 0cbd 7478 82bd 19b8 8abd 28bf a0bd
00000190: f173 1b3d d62e 67bd 5521 1fbd 7efe 193c
000001a0: edd2 ed3c 8deb 573d 98b0 97bd d60e e8bc
000001b0: c0a8 cc3b 1d3a 42bd 105f 04bf 4e13 74bd
000001c0: 3d04 7abc 4f16 5dbd 08cc 0b3d 450b 55bd
000001d0: a091 393d d849 5fbd 46ca 5cbd 49a8 4e3d
000001e0: d1c5 8fbd 36ad 81bd 4eab a4bd e34d 333c
000001f0: 5631 48bb 84be 1cbd 18ca 2cbd 579c 82bd
00000200: 656b 8fbd 4017 14bd 80ca c2bd c4ea 39bd
00000210: fcec 9dbb 9e82 103d 0b59 6e3d a73f bfbd
00000220: c382 303c c7ec 06bd 1455 64bc efc0 53bd
00000230: 2192 66bd 349f d9ba 1d09 c93c 9538 96bc
00000240: 19b7 1c3d 8105 21bd 999f e63c f281 30bd
00000250: 287a f73c f4a5 87bb d179 ab3a 342c 9d3c
00000260: 06fc f13a 81fc 4abc 348e a5bd faab 96bd
00000270: ac92 f9bc 2e65 923c 3056 abbb 2a90 8dbd
00000280: c72c b8bd 9daf 8fbd 4254 a63c b49a a6bc
00000290: a3ea bebd f754 a7bc 32aa 13bd c0c2 59bd
000002a0: 8a64 19bd f94a 34bc d1fb 06bd 4a16 99bd
000002b0: 74ce 79bd 9f46 82bd 3d74 9abc 5683 3d3d
000002c0: 7640 5b3c 9e58 623c 9287 5c3d 28e4 a4bd
000002d0: 699e 49bd ee3c 00bd 99c9 8abc 6970 7abd
000002e0: 4972 76bd 1b94 f4bd 696f 9fbd 7017 16bd
000002f0: 4946 02bd abe0 54bc 768f 3d3c 8ebf 3dbe
00000300: 3e88 80bd 5b6b 423b babd 4cbd 4c68 e43c
00000310: 14e4 333c 442d 4bbb 80ca babd cf71 17bd
00000320: 6179 143d d3c0 a1bd 83bb 4cbd 17ff acbd
00000330: 3d8e 593d 93e5 e5bc e3f4 95bd 4c93 0cbc
00000340: ab24 d3bc 4c02 04bd ecae 14bc f2d0 c0bd
00000350: 605c 123d 597b 88bd 029a 2d3d 9e05 c2bc
00000360: 7157 98bd 6203 85bc ff43 73bc efe6 a2bd
00000370: 707f 32bc d835 acbd aef9 013d dfe3 01bd
00000380: e8fb 94bc 0113 a33c e2d7 f73c a393 81bb
00000390: 2cfa ca3c 88b1 5fbd 54be f33c c4b5 f43c
000003a0: 5ebc 30bd b7ce 553c 47af 493c 2fd8 f13a
000003b0: d9a3 a6bc 84b2 10bd 8e59 90bd 6536 03bd
000003c0: 3fd5 d7bb 5f4e 443d cc63 5a3b 2232 973b
000003d0: 71d0 d03c 2bf8 4ebc 5d24 363d 00ae 1d3d
000003e0: 2ef6 babd 1136 493c 786a bbbc ae03 633d
000003f0: 401e b33c bf6f 9b3c 8f54 ef3c f27f 9a3c
0.032492742 -0.018498758 0.0005367329 -0.059944786 -0.030704992 -0.023165422 -0.020811476 -0.029003147
0.009406867 0.018790327 0.014392018 0.004104875 -0.040908806 -0.066134386 -0.049298756 -0.0807174
-0.037884455 -0.06853246 -0.06258324 -0.062317323 -0.06511683 -0.005077289 -0.09214608 0.02918336
-0.015938235 0.028136164 -0.020101221 0.010356681 0.02804028 -0.050778374 -0.060462628 -0.0871947
0.007977079 -0.017723452 -0.02907315 -0.029412165 -0.029985059 -0.059325438 -0.056159392 -0.0470524
0.04865174 0.0074014664 -0.0645128 0.043943204 -0.038674526 0.025270663 -0.054952804 0.024498016
-0.050868478 0.026481485 -0.07965483 -0.08478061 -0.08791797 -0.0315441 -0.027579587 -0.09090598
-0.062200703 0.018559292 -0.023414433 -0.018615654 -0.05507295 0.009996759 -0.07024111 -0.07055742
-0.004645786 -0.014693316 0.021378048 -0.009824983 -0.061781857 -0.08266729 0.035061914 -0.070082985
0.0015907901 0.027687784 -0.025355166 -0.06776402 -0.008782919 0.036248542 -0.08015038 -0.13511954
-0.0429802 0.057431158 -0.057755005 -0.08763484 0.017966611 0.0668508 0.0034552047 -0.00024047728
0.013885344 -0.046369385 -0.07052917 -0.012920033 0.038937658 -0.027445577 0.00556258 -0.00219517
-0.034251627 -0.06370631 -0.06773395 -0.0784896 0.037952367 -0.05644115 -0.038850147 0.009399055
0.029031241 0.052714873 -0.074067295 -0.028327387 0.0062457025 -0.047418702 -0.51707554 -0.059588723
-0.0152598 -0.053976353 0.034130126 -0.0520127 0.045304894 -0.054513782 -0.05390384 0.050453458
-0.07020152 -0.063318655 -0.08040486 0.010943863 -0.0030546985 -0.038267627 -0.04218492 -0.06377476
-0.07002906 -0.036154985 -0.0951128 -0.045389906 -0.0048195105 0.035280816 0.058190387 -0.093383126
0.0107733635 -0.032940652 -0.0139363 -0.051697668 -0.056291703 -0.0016603232 0.024540478 -0.018337527
0.038260553 -0.03931189 0.028152274 -0.043092676 0.030209616 -0.004139656 0.0013082569 0.019186117
0.001846195 -0.012389303 -0.08083764 -0.07357021 -0.030465446 0.017870512 -0.00522878 -0.06912263
-0.089929156 -0.070159175 0.02030385 -0.02033744 -0.09322097 -0.020426257 -0.036050983 -0.053164244
-0.037449397 -0.011004203 -0.032954995 -0.074749544 -0.060987905 -0.06361126 -0.018854255 0.04626783
0.013382068 0.013815073 0.053840227 -0.0805133 -0.049223337 -0.031308107 -0.016941832 -0.06114236
-0.060167585 -0.119423114 -0.07784922 -0.036643445 -0.03180531 -0.012993018 0.011569848 -0.18530104
-0.06275986 0.002966604 -0.049985625 0.027881764 0.010979671 -0.0031002322 -0.09120655 -0.03697377
0.03624857 -0.078981064 -0.049983513 -0.08447092 0.053114165 -0.028063571 -0.07322099 -0.00858004
-0.02577432 -0.032228753 -0.009074908 -0.09414853 0.035732627 -0.06664152 0.0423832 -0.02368432
-0.07438553 -0.016236965 -0.0148477545 -0.07954203 -0.010894641 -0.084087074 0.031732254 -0.031711455
-0.018186525 0.019906523 0.030254308 -0.0039543672 0.024777494 -0.054612666 0.029753841 0.029871829
-0.04314839 0.013049773 0.012309856 0.0018451269 -0.0203418 -0.035326496 -0.07048331 -0.032034297
-0.0065867 0.047926303 0.0033323644 0.0046141306 0.025490018 -0.01263241 0.044468272 0.038496017
-0.09128986 0.012280957 -0.022877917 0.05542343 0.02186501 0.018974183 0.029215125 0.018859837

action_out.bias f4 [5]
00000000: cb18 863c 9ff2 be3b 38c0 883c d3c7 c33b
00000010: 109d 24bd
0.016369244 0.0058272625 0.01669322 0.0059747486 -0.04018885

weight f4 [256, 123]
00000000: 1b42 b93c f7ab 6ebb 8d23 31bd 1de8 42bc
00000010: 11f3 293d 9883 a1bd 2f71 0e3d 48a4 993d
00000020: b80c a9bd b4f6 adbc c0f9 043d cd07 853d
00000030: 5ad4 ccbd 05b3 a43d f6a8 003d 1ed4 44bd
00000040: 3437 9d3d 0c03 95bc 648f 2cbd 51a1 b13c
00000050: 207d 6fbd d9e7 6f3d d8b9 743d dc1b 903a
00000060: 9e18 37bd 207a 473c 10a6 9c3b 88aa 88bd
00000070: 5d92 95bd 959a adbd 37b7 113d 6750 80bc
00000080: 6cfb 8e3d 2465 91bd e024 afbd 3800 bf3c
00000090: 6116 cbbc 0c09 c7bd ad71 cabd b888 4e3d
000000a0: 627f dcbc cc83 8fbd e962 79bd d674 2ebd
000000b0: 2871 993c c89d 593d e243 82bd a3af b1bd
000000c0: 3c1a 8dbd e964 0bbd 2f76 adbd b795 3f3d
000000d0: 0a13 a03d bed5 67bd 56f2 9bbd 1214 3cbc
000000e0: 002d 663d aa9f 6b3d dc17 9e3d 841d 873c
000000f0: c752 b3bd ca59 35bb 7752 e03c 5926 acbd
00000100: 746d 843d b67f 9abd 6f7f 873d 0b18 503a
00000110: 9667 743d a7a5 18bc 7051 563c 4a5f 98bd
00000120: 997f 103d b744 42bd 328c 7ebc 8a7b a4bd
00000130: 777b aa3c cb16 a9bd 3a66 5ebd 7100 aebd
00000140: 8dd8 4a3c b2ee 7cbd d3f3 b0bc ea4f 39bc
00000150: fd8b 1ebd 000f 6a3d d9ed dabc 39a4 e93c
00000160: 527d afbd 9fb9 16bd 131f 7f3c b2ad 913d
00000170: 8bca 963d f4a0 2fbd 981f 1abd 4492 783d
00000180: b7e5 043d f4e1 40bd 709c 2a3c 4105 a13c
00000190: 780f bbbc 4c41 923d e4d6 22bd 5443 6abd
000001a0: b0c3 013c dd7f b23d b63d 8f3b b5ff 86bd
000001b0: 1f5a 323d b39f 323d b498 39b9 290c 0a3d
000001c0: 2482 22bc 6400 8f3c 9a33 bcbc 257d 183d
000001d0: 5b00 f9bc bfc8 61bc 9594 66bd 992c 293c
000001e0: 73a1 683d 2867 823d fc46 503c f744 e63b
000001f0: e456 3b3c e59d 703d 546e 7ebd 7eb7 873d
00000200: dc50 953d 642f 2b3d 0d7f a6bc 5712 2bbd
00000210: d742 4dbd 0e87 783d c9aa bc3b 7eb3 9ebd
00000220: dfff 8b3d 0cb3 873d d53e 90bb f183 aebd
00000230: 796d b8b9 1ac4 7e3d dd0c 97bd 1f36 4fbd
00000240: 0391 8a3d 1b0b 41bd a32f 10bd 485d 2a3d
00000250: 503d 523d 2d8e 7c3d 7b8c afbd 4ec3 66bd
00000260: 3f89 753d 40b0 1fbc a054 9e3d 2814 8b3d
00000270: 28d9 70bc 7042 d3bc aad1 e7bc 6946 e73b
00000280: ddd7 893d 06d5 873d 1b22 a1bb 01c2 45bd
00000290: 58d8 913c b1a5 73bd ed23 4eb9 02c4 963d
000002a0: 8c97 103e de86 863c aabd aebd d832 8b3d
000002b0: bdcc 3fbc d2f9 123d aa5f c1bc 1d3b 983d
000002c0: c260 393d 18eb 863c ddd8 a7bd 24e9 8d3d
000002d0: c7f4 893d b4e7 08bc 8a96 6abd b457 f83c
000002e0: e08a acbc b85a aebc da77 343d 95d3 c2bd
000002f0: e57e 583d 86d7 5abd b5ec 99bd 14bc 27bd
00000300: 8d08 b03c 710e 8bbd 05aa 42bd 8727 b03d
00000310: b866 72bd 2f8a ccbc 62d9 cc3b 1ff9 5d3d
00000320: b7a0 223c e240 9abd 19f8 45bd be26 713d
00000330: accb 0a3d f118 0abd 224e 55bd ad6d 0bbc
00000340: 13ff 6dbd 421a 103d 3731 acbd adeb 203d
00000350: 5730 d6bd 0159 fabc 7910 8dbc 4edd b1bd
00000360: 8d96 b8bd 9613 ff3c 3a3d b9bc 6054 b53d
00000370: c068 bfba 2052 c23c 0906 b13c 3461 afbd
00000380: 26db ba3c 7cf1 863c e686 443d 37eb 1fbd
00000390: 4e35 4d3d bcf2 ccbd bfa0 a73d 64db a6bd
000003a0: 245c 35bd b0cb e2bc 2ecb 6fbd 9af1 04bc
000003b0: 49a9 6cbd cde5 7a3c f7d8 4dbd e376 9c3c
000003c0: 19a5 24bd ed32 44bd 59ad 7dbd 23f6 45bc
000003d0: 75f3 c3bd 22d8 66bc b296 86bd cd47 34bd
000003e0: 8ac2 81bd cd1e 1abd a7ab 9cbd 415e 053d
000003f0: f71c 95bd c739 26bd 5ec3 cf3c f04d 2dbc
0.02261453 -0.0036418417 -0.043246794 -0.01189616 0.04149157 -0.07886428 0.03477591 0.07502037
-0.08254379 -0.021235801 0.032464743 0.064956285 -0.1000144 0.08041958 0.031411134 -0.048053853
0.07676545 -0.01818993 -0.042128935 0.021683367 -0.058468938 0.058570717 0.059747547 0.0010994631
-0.04470121 0.012175113 0.0047805384 -0.06673151 -0.07303307 -0.0847675 0.035575118 -0.015663339
0.06981549 -0.07099369 -0.08551955 0.023315534 -0.024790945 -0.097185224 -0.09884963 0.050423354
-0.02691621 -0.0700756 -0.060885344 -0.042591892 0.018730715 0.053128988 -0.06360604 -0.08676078
-0.068897694 -0.034031782 -0.08469807 0.04677364 0.078161314 -0.056600325 -0.07614581 -0.0114793945
0.05619526 0.057525314 0.077193946 0.016493566 -0.08756023 -0.0027671927 0.027383072 -0.08405752
0.06466189 -0.0754389 0.06616103 0.0007938153 0.0596691 -0.009316838 0.01308094 -0.0744005
0.035277937 -0.047428813 -0.015536355 -0.08031376 0.020810826 -0.082563005 -0.05429671 -0.08496178
0.012380731 -0.061751075 -0.02160064 -0.011310557 -0.038707722 0.05714321 -0.026724743 0.02852069
-0.08568825 -0.036798116 0.0155713735 0.07113208 0.07362851 -0.042878106 -0.037627786 0.060686365
0.032445636 -0.047090486 0.010413274 0.019655826 -0.022834525 0.07141361 -0.039755717 -0.057193115
0.007920191 0.08715794 0.00437137 -0.06591741 0.043542977 0.043609332 -0.00017699861 0.033703003
-0.009918723 0.017456241 -0.022973824 0.037228722 -0.030395677 -0.013780772 -0.056294043 0.010325574
0.056794595 0.06367332 0.0127122365 0.007027264 0.011434291 0.05874433 -0.062116936 0.06626795
0.07290813 0.041793242 -0.020324254 -0.041765537 -0.05011257 0.060675673 0.005757664 -0.07749079
0.06835913 0.06625947 -0.0044020214 -0.085212596 -0.00035176778 0.062198736 -0.073755 -0.050588723
0.0676594 -0.04712973 -0.03520168 0.041592866 0.051328003 0.061659027 -0.085717164 -0.0563386
0.05994534 -0.009746611 0.07730985 0.06790954 -0.014700212 -0.025788516 -0.028298218 0.007057954
0.06730626 0.06632428 -0.0049173958 -0.04828072 0.017803356 -0.059484188 -0.00019659074 0.07361604
0.1412031 0.016421732 -0.08532269 0.06796807 -0.011706528 0.03588278 -0.023605186 0.0743315
0.04525829 0.016469523 -0.0819566 0.06929234 0.06736141 -0.008356024 -0.05727247 0.030315258
-0.021062315 -0.021283492 0.04405961 -0.09513012 0.05285539 -0.053428195 -0.075158514 -0.04095085
0.021488452 -0.06789864 -0.047525425 0.08601289 -0.05917999 -0.024968235 0.0062515 0.05419266
0.009926013 -0.07531907 -0.048332307 0.058874838 0.033885643 -0.033715192 -0.052076466 -0.008510035
-0.058104586 0.03518129 -0.084078245 0.039287258 -0.10458439 -0.030560018 -0.017219769 -0.08684789
-0.0901309 0.031137269 -0.022612203 0.08853984 -0.0014603361 0.0237208 0.021609323 -0.08563462
0.022809576 0.01647257 0.04798021 -0.039042678 0.050099663 -0.100072354 0.08184957 -0.08147314
-0.044277325 -0.027685016 -0.058543377 -0.008114243 -0.05777863 0.015313578 -0.050255742 0.019099658
-0.040196512 -0.04790013 -0.061932895 -0.012082609 -0.0956792 -0.014089616 -0.065717116 -0.044013787
-0.063359335 -0.03762703 -0.076499276 0.03256059 -0.07280915 -0.040582445 0.025361713 -0.010577664

bias f4 [256]
00000000: 6365 4bbc fa14 b3bd 7871 bbbd 2a02 343d
00000010: d138 a9bd 03f3 973d 99c2 bcbd aa98 6abd
00000020: cbcf 4a3c a6b8 a23d c5d6 8c3d bf27 de3c
00000030: db9a 2e3d ca1d 853c f1b8 9a3d 8ab5 71b9
00000040: 3a23 13bd 678e 4a3c 7623 5cbd 681b 283b
00000050: 8ad4 bfbd ced7 2cbb 4fde 9dbd 90f4 453d
00000060: 45ee 75bd ce53 9fbd 4da8 1cbc c87f 463d
00000070: fc74 a93c a4e5 6e3b b454 a0bd b52c aa3c
00000080: 7824 943d 75a7 aa3d adee 8bbd 40ce dfbc
00000090: c4a3 0e3d dc9c 803c 2f45 a5bd 6296 5bbc
000000a0: 2074 4cbd 457a 9a3d 4f4c b9bd da38 8e3d
000000b0: e978 d43c 17bd 933d c8e7 9a3d 51b0 90bd
000000c0: 353a 02bd abb8 9fbc 2620 9cbd a39d 663b
000000d0: 3f27 c33c 097a 68bd dd18 e43c 2344 bb3c
000000e0: 6a04 6a3d a013 57bd 341d cbbd fd62 a43d
000000f0: deeb 463d ccff ddbc f525 283d 7a8b 9bbd
00000100: dcf5 8b3d 39a6 8bbd 46c5 91bd 8873 35bd
00000110: e2c8 8b3c 6f3c 183b a490 8fbd 1763 633d
00000120: bee7 e2bc 9e70 2abc 9853 bebd a7c6 923b
00000130: 046c 96bd 133c 6fbd f024 493d b08b 6f3d
00000140: 0bae 373c 485d acbd 2496 8abd cae3 19bc
00000150: 6588 bb3c 0c50 0f3c 6e13 71bd 8d28 92bd
00000160: c321 fabc f6d2 053a af79 803d 260b 963d
00000170: 6aed 133c 0af0 493d 976e 463c 5800 8cbb
00000180: 05e3 943d 0c18 d53c 1495 57bd 6450 cdba
00000190: eab1 0fbb 742e 08bd 6e9e fcbb f8d0 a53c
000001a0: 2c74 74bc 8dd1 963d 43d6 e5bc 0054 bebc
000001b0: 1371 43bd 512e 323d da1e 303d fbab 42bc
000001c0: 9e2f 003c cde7 47bd fe0e 9ebd 2245 b4ba
000001d0: 0848 c4bd 6deb 063d b088 b1bd abe4 7fbc
000001e0: 2f72 82bd 7bfc ba3b ea12 123d a12c 823c
000001f0: 9f81 363d 34cc 86bd 4922 b43a ae6f 513d
00000200: c24d f03c 3b0f 00bc dab3 a1bd 9b2e 843d
00000210: 3715 1abd 5df2 833d 00d0 a5bc 697f d23c
00000220: 04fd c33c 181a 293d 5c74 ecbc 5c7c fc3c
00000230: 8e4e bfbd ba2e 593d 701f 28bc 0b1c 003d
00000240: 7166 9d3d 61b2 a1bc ddbf aa3d 697b f4bc
00000250: 4070 e93c 2264 8a3c f002 81bd 3c42 943d
00000260: de2f 78ba b89a 8ebd c6b9 2f3d 1c30 3a3c
00000270: 463b 913d a2eb 1e3b 7e80 de3c 8d44 1e3d
00000280: 748f 70bd 4a9d a4bd eec9 44bc b1fe 7abd
00000290: 04a9 123d b261 4a3d 8d2f 373d b375 22bd
000002a0: 8120 9dbd 183a 083b f9d3 8c3d 1813 2ebd
000002b0: 7cae 583d d98f abbd 1ae9 81bd 734c 95bd
000002c0: d61e b0bd d012 d4bb 5e2a ec3c 9802 603d
000002d0: 3fb6 043d b3ed 7ebd 96f0 54bd b6e5 1e3d
000002e0: decf 7fbd fb46 70bd 0a3c b23c 4fa7 6cbc
000002f0: 10e1 95bd a3a4 a7bd fb82 0c3d 501e 6dbd
00000300: 7334 ca3b 13e6 e1bd 578f afbc 223f bfbd
00000310: e80f 92bb aa70 82bc b583 923d 7958 4b3c
00000320: 4a9f e53c 9ad5 523d 31f0 273d a88e a5bd
00000330: 2632 c33b be71 5f3d d82c b33c d778 34bd
00000340: 1d69 ce3b 9f1a ba3c efb6 c2bd e4c3 403d
00000350: fd0c 9c3d d524 7c3d 3db9 08bd 56fc 08bd
00000360: 93e6 b5bc 6646 563d b08f 78bd 4237 d7bc
00000370: 6aa6 cabc c2cf 26bd a5f4 0e3c 1b11 8d3b
00000380: bc4c df3c 1cee c2bd b1fc b03c aff4 4d3d
00000390: 8a69 a3bd de6c d5bc d403 94bd 5b6e f7bc
000003a0: d60b 8b3d 6640 0a3c 9d86 b33d 51b0 b9bd
000003b0: 8ef4 cdbd bc82 b9bb bd65 46bc 380a d63c
000003c0: 2c3a bbbd 40c2 d3bc 724d 74bd 8add 883d
000003d0: eb63 0ebd f055 903c b092 9e3c e585 09bd
000003e0: 4d30 9c3b 681a bdbc 5c04 2c3c 4fa1 703d
000003f0: 7400 c53d e950 183d 9913 06bd c275 17bd
-0.012414309 -0.08744235 -0.09152502 0.043947376 -0.0826279 0.07419398 -0.09216804 -0.057274498
0.012378643 0.07945375 0.068769015 0.027118562 0.04262815 0.016249556 0.07554806 -0.0002305118
-0.035922267 0.012363053 -0.053744756 0.00256511 -0.093667105 -0.0026373747 -0.077084176 0.048328936
-0.060041685 -0.07779656 -0.00956161 0.048461705 0.020685665 0.0036452794 -0.07828656 0.020773271
0.07233518 0.08332721 -0.06832633 -0.027320027 0.034824148 0.015699796 -0.08069836 -0.013402553
-0.049915433 0.07542852 -0.09047758 0.06944437 0.02593656 0.072138004 0.0756374 -0.0706488
-0.03179379 -0.019497236 -0.07623319 0.0035189174 0.023822425 -0.056757007 0.027843887 0.022859639
0.057133116 -0.05250895 -0.099176794 0.08026693 0.048564784 -0.027099513 0.041051824 -0.075949624
0.06834003 -0.06818814 -0.07117705 -0.044299632 0.017063562 0.002322938 -0.0701001 0.05551442
-0.027698394 -0.010402827 -0.09293288 0.0044792476 -0.07344821 -0.0584069 0.049107492 0.058482826
0.011210929 -0.084162295 -0.06766918 -0.009392688 0.022892186 0.008747112 -0.05885642 -0.07136641
-0.030533677 0.0005104983 0.06273209 0.07326345 0.009028772 0.049301185 0.012111328 -0.004272502
0.07269863 0.026012443 -0.052632406 -0.0015664217 -0.0021926113 -0.033247426 -0.007709316 0.020241246
-0.014920276 0.073641874 -0.02805627 -0.023233414 -0.047715258 0.043501202 0.042998172 -0.011881824
0.007823853 -0.048805047 -0.07717703 -0.0013753513 -0.09584051 0.032939363 -0.08668649 -0.015618484
-0.06369435 0.0057063675 0.03566257 0.015890421 0.04455721 -0.065819174 0.0013743128 0.051131897
0.029333953 -0.007816131 -0.07895632 0.06454202 -0.03761789 0.064427115 -0.020240784 0.02569552
0.023924358 0.04128465 -0.028864078 0.030821018 -0.09341155 0.053023078 -0.0102614015 0.031276744
0.07685555 -0.019738378 0.08337376 -0.029844003 0.028495908 0.01689345 -0.062993884 0.07239196
-0.0009467582 -0.06963104 0.042901777 0.011364009 0.07091384 0.0024249335 0.02716088 0.038639594
-0.058730558 -0.08037813 -0.012011034 -0.06127805 0.035805717 0.049409576 0.044723082 -0.039663028
-0.07672215 0.002078658 0.06876368 -0.042498678 0.052900776 -0.08377046 -0.06343289 -0.07289972
-0.085996315 -0.006471969 0.028828796 0.054689974 0.032400366 -0.062238406 -0.051987253 0.03879329
-0.062454097 -0.058661442 0.021757144 -0.014444186 -0.07318318 -0.08185699 0.0343046 -0.057890236
0.006170803 -0.11030211 -0.021430654 -0.093382135 -0.0044574626 -0.015922863 0.071540274 0.01241123
0.028030057 0.051473238 0.04100055 -0.0808385 0.005956906 0.054551832 0.02187197 -0.044060554
0.0062991516 0.022717772 -0.09507548 0.047061816 0.07619665 0.061558563 -0.033379782 -0.03344377
-0.022204673 0.05231323 -0.060683906 -0.026271466 -0.024737556 -0.040725477 0.00872532 0.0043050176
0.02725827 -0.09518072 0.021604868 0.050282177 -0.07979114 -0.026052888 -0.07227293 -0.030203989
0.06789367 0.008438205 0.0876591 -0.09066833 -0.10056411 -0.0056613367 -0.012109217 0.02612792
-0.09141955 -0.025849462 -0.05964417 0.0668288 -0.034763258 0.017619103 0.019357055 -0.033574957
0.0047665 -0.02308388 0.010499086 0.058747586 0.09619227 0.037186537 -0.032733534 -0.036977537
