src/saved_models/grid_world_seed125_8_5_13_56/125_30_model.pt (torch, 702535 bytes, 11 tensors)

FC1.weight f4 [256, 36]
000000 3e 90 cf 3d 8e 0b a9 3d b8 fd 69 bd af 5e 99 bd
       0.10134934 0.08254157 -0.05712673 -0.074887626
000010 61 92 91 bd 20 9f 23 bd dc 34 2d 3d 0e 1e 1c 3d
       -0.07107998 -0.039946675 0.04228674 0.0381146
000020 84 21 10 3e 1c 6e 1a 3d a6 0d 07 bb 18 84 27 3e
       0.14075285 0.037702665 -0.00206075 0.16358984
000030 85 b4 f9 bc c3 d0 ee 3c 4c e2 63 bd 66 c5 47 3e
       -0.030481586 0.02915228 -0.055635735 0.19508895
000040 b4 f9 62 3d f7 37 a2 bd 7e ac 8b bd 87 94 57 3e
       0.055413917 -0.07920831 -0.0682001 0.21052752
000050 cc 89 1d 3e ec 4d a5 bd 3e 5f e3 3b f3 f2 ac 3d
       0.15384597 -0.08071503 0.006938844 0.084447764
000060 8c 11 e7 bd cb 8a 91 3c c2 dc 06 3e 92 ea 6e bd
       -0.11282644 0.017766377 0.1317015 -0.058329172
000070 ef 0c f6 bc ba 6a df bc da 1e 07 3e 2d 54 ae 3c
       -0.030035464 -0.02727257 0.13195363 0.021280373
000080 b3 b3 f3 bd 21 88 7b bd 74 25 de 3d 3b 3b 04 3e
       -0.11899509 -0.06140912 0.10846987 0.1291322
000090 08 f0 19 3d af 16 5a bd fe 4f 9e 3c e0 ef dd bd
       0.037582427 -0.05324429 0.019325253 -0.10836768
0000a0 37 1a ae 3d fd fe e3 bd cf 83 f1 3c f4 01 4f bc
       0.08501094 -0.111326195 0.029481797 -0.012634743
0000b0 f8 92 27 3e d9 50 1a 3e 00 eb 33 be 65 b5 36 be
       0.16364658 0.15069903 -0.17570114 -0.17842634
0000c0 9a 98 b5 3a 66 a0 f3 3d fc 51 f2 3d 09 0d 96 bc
       0.0013854683 0.11895828 0.118320435 -0.018316763
0000d0 d9 06 b0 3d 92 5d 56 bd 34 60 bb bc 77 1b 28 3d
       0.08595056 -0.05233533 -0.022873022 0.041041818
0000e0 61 30 ec bd 8d ca 16 bc f9 37 8b 3d 20 d0 e7 3d
       -0.11532665 -0.009203565 0.06797785 0.113189936
0000f0 41 13 02 be bd 49 e9 bd f6 61 e8 bc b2 de bb 3d
       -0.12702657 -0.113910176 -0.028367024 0.09173335
000100 c2 e5 ef bd 82 19 e2 bd 2e 96 fe bd 1a 7c 4a bd
       -0.11713745 -0.110400215 -0.12430988 -0.04943476
000110 b6 fd 81 bb 42 e7 5b bd ef 3d 07 be fa ee ba 3d
       -0.0039670123 -0.05368734 -0.1320722 0.091276124
000120 94 49 8e 3d 3c 3a e8 3b 67 56 33 bd c5 ad 9d 3d
       0.06947628 0.00708702 -0.04378357 0.076991595
000130 24 fb 8d 3d dd 01 0c be c8 d3 44 bd dd 86 cf 3d
       0.06932667 -0.13672586 -0.048053533 0.10133145
000140 23 4b af 3d 54 d5 a3 bd fe 70 be ba 3b 63 40 3d
       0.08559253 -0.079996735 -0.0014529524 0.046969634
000150 25 75 bf bd db fa ac bd 81 42 f5 3a f2 b0 f2 bc
       -0.093485154 -0.084462844 0.0018711836 -0.02962539
000160 ac 8d 0b 3d ba df 36 bd 69 96 9f 3d c3 c9 1e be
       0.034070656 -0.044646956 0.0779236 -0.15506653
000170 a0 1c 4c bd e7 9b 9c bd 6a a9 2d be 02 02 15 be
       -0.049831986 -0.076469235 -0.16959158 -0.14551547
000180 29 b8 25 3d a1 da ba 3d 40 99 04 3e 0e 1a 10 3d
       0.040458832 0.091237314 0.12949085 0.035181098
000190 05 d5 37 bd da 44 e2 3d 7a a6 e2 bd 40 77 39 bc
       -0.044880886 0.11048289 -0.11066909 -0.011319935
0001a0 ad 65 c3 bc e9 6a 8d bb 53 8a 98 3c 60 e6 84 bd
       -0.023852194 -0.004315723 0.018620646 -0.06489253
0001b0 ad e2 cd 3d c6 fa 81 3d fe 6a c1 bd 64 1d bb 3c
       0.100530006 0.06346659 -0.09444235 0.022841163
0001c0 2c c7 37 bd 0c 1a 05 3d eb 51 76 bd 35 9b 1c 3c
       -0.04486768 0.032495543 -0.060136717 0.009558489
0001d0 12 97 c9 3d f8 3f 0f be 5a f4 41 3e 80 bc 29 be
       0.098432675 -0.13989246 0.18940869 -0.16575813
0001e0 d6 c7 32 3d a7 e3 2d 3e 4e b4 05 3e 5d 56 ba bd
       0.04364761 0.16981374 0.13057062 -0.09098504
0001f0 ad 36 84 3d 44 b8 b1 bc 95 4a 49 3c 4c 1a c4 bd
       0.06455741 -0.02169431 0.012285848 -0.09575328
000200 24 74 18 3e 7e e0 81 bd cc 31 b3 bc 42 95 9c bc
       0.14888054 -0.063416466 -0.021874331 -0.01911414
000210 df c2 07 3e ec 70 5c bd 2c 20 ec bd 9d 83 ed 3d
       0.13257931 -0.05381863 -0.11529574 0.11597369
000220 4a 56 87 3d 87 88 19 3e 51 cc fa bb 4f e6 1e 3d
       0.06608255 0.14993487 -0.007653751 0.03879386
000230 1a f4 e7 bc e4 87 48 3e 76 fd d3 3d f0 c4 62 bc
       -0.028314639 0.19583088 0.10351078 -0.013840899
000240 4f d1 b7 bc d0 7e 78 3d 16 c3 b9 3d a3 1d e1 bd
       -0.022438673 0.060667813 0.09070413 -0.10991981
000250 36 fc 9a bd ee a6 8b 3c fa e4 a9 3d ee f8 06 be
       -0.07567637 0.017047372 0.08295627 -0.13180897
000260 1e fc 9d 3d 28 60 17 be cc 26 fc bd d0 d3 50 3d
       0.07714103 -0.14782774 -0.123120874 0.05098325
000270 14 d1 bd 3d b7 9c 87 3c 6e 7f 8d bc f1 ee 1d be
       0.09268394 0.01655422 -0.017272677 -0.1542318
000280 d0 6d a1 3c 56 7f dd 3d 1a e3 97 3d 1f 9e c4 3d
       0.019705683 0.10815303 0.07416363 0.09600472
000290 0a 5c a9 bc 91 2d b0 bd 16 38 75 3d c1 b0 9b 3d
       -0.02067377 -0.08602441 0.05986794 0.076020725
0002a0 1f 14 97 3d b0 ce 2d 3e 20 ad d6 bd c6 f8 32 be
       0.07376885 0.16973376 -0.1048224 -0.17477712
0002b0 d0 53 27 be f9 2a 12 3e 32 f7 42 bd a7 b2 84 3d
       -0.16340566 0.14274205 -0.047599025 0.06479388
0002c0 35 c9 9f bd c8 86 1b be 18 a1 39 b7 ec 86 05 be
       -0.07802049 -0.15188134 -1.1064367e-05 -0.1303975
0002d0 9d 00 8b bd d4 12 94 bd 23 f9 ad 3d 59 c7 c9 bd
       -0.06787226 -0.07230154 0.08494785 -0.09852476
0002e0 12 f9 89 3d a8 6f 89 3d 1a 3d 8d 3d 5e 6e f8 3d
       0.067369595 0.0671075 0.0689642 0.12130426
0002f0 e8 4c 24 3e 7f bc 6d 3d d2 3e 50 bc d7 84 96 bd
       0.16044962 0.058041092 -0.01271029 -0.07349556
000300 2b 0b 16 be 32 51 fc 3d a7 b5 1d 3d 05 8f d8 bd
       -0.14652698 0.12320174 0.038503315 -0.10574154
000310 64 5e c8 3d 8e 8f 92 3c 03 b7 b9 bd b3 85 1f be
       0.097836286 0.017890718 -0.0906811 -0.15578346
000320 58 c9 16 3e 69 5a 84 bd f3 43 d4 3d 5c b3 d0 3c
       0.14725244 -0.06462557 0.10364523 0.02547615
000330 c1 82 02 be dc f8 10 be c9 a1 91 bd eb 81 e7 bd
       -0.12745191 -0.14157432 -0.07110936 -0.11304077
000340 21 74 99 3d ca 72 38 bd e7 99 d5 3d 8b e3 28 be
       0.07492853 -0.045031346 0.10429745 -0.16493051
000350 64 2a c2 3d 40 dc 1c be a1 33 2f be fe 29 d5 bd
       0.094807416 -0.15318394 -0.17109539 -0.104084
000360 f4 ec e0 3d b7 87 37 be 13 e9 8f bc d4 6a 4b be
       0.10982695 -0.17922865 -0.017567193 -0.1986497
000370 de 37 0b be 4e 20 ed 3d 01 e7 22 3d 73 55 9c 3d
       -0.1359553 0.11578427 0.039771084 0.07633486
000380 d1 5d 9c 3c 53 45 01 3d ee b5 3f 3d 4d b2 13 be
       0.019087704 0.031560253 0.04680436 -0.14423485
000390 cf 25 84 bc 3c ea fb bc da 22 47 be ba c3 76 3d
       -0.01613131 -0.03075134 -0.19446889 0.060245253
0003a0 d9 e9 31 3e ff 42 2a bd 8d b0 22 3e ac 47 7c bd
       0.17374362 -0.0415678 0.15887661 -0.06159179
0003b0 5b 50 10 be 49 16 0b bc b3 5b 85 bd a9 5d d0 bd
       -0.14093153 -0.0084892 -0.06511631 -0.10174114
0003c0 bc 9f 2b bd 66 59 f2 bc 4b 84 ed 3d b3 3f be bd
       -0.04190038 -0.029583644 0.115974985 -0.092894934
0003d0 00 cf 07 bd 04 84 d6 bd 88 1a 34 3d fb 29 f0 3d
       -0.033156395 -0.10474399 0.043970615 0.11726757
0003e0 ea 2a 5f 3d 09 2a af bc 29 1d 05 3e 8d a5 11 3e
       0.054484285 -0.021382349 0.12999405 0.14223309
0003f0 9e 29 9a 3d 56 28 3b 3d d2 f5 d4 3b 03 4a ae bd
       0.07527469 0.045692764 0.0064990306 -0.0851021

FC1.bias f4 [256]
000000 8c c0 6f 3e ca 10 18 be 48 83 a0 3d 25 ec 1e bd
       0.23413295 -0.14850155 0.0783754 -0.038799424
000010 f0 93 0a 3e 40 14 21 be 40 e0 01 3e a7 a2 be 3d
       0.13532996 -0.15730381 0.12683201 0.09308367
000020 8b fb d3 3d c9 7b f3 bd 9c db 88 bd 92 0f 2d 3e
       0.103507124 -0.118888445 -0.06682512 0.16900471
000030 09 96 c0 3d 24 b6 0a be f7 ef 6d 3c d2 79 ee 3d
       0.09403617 -0.13546044 0.014522544 0.11644329
000040 55 f8 b3 bd 62 b7 8f 3d 12 05 a3 3c 3b 9a 00 be
       -0.087876 0.07017399 0.019899879 -0.12558834
000050 36 eb ce bd cd b8 f1 3d 64 24 9f 3d 6a 53 02 3e
       -0.10103457 0.11802826 0.07770613 0.12727132
000060 e8 fc 14 3e ba a6 ff bd 1b 4a 02 3e 29 fd 29 bb
       0.14549601 -0.124829724 0.12723581 -0.0025938249
000070 fe 4d fe 3d 3a 7c 86 3c 09 c3 5a 3c 27 9e 16 3e
       0.124172196 0.016416658 0.013352164 0.14708768
000080 7d 66 01 3e 07 26 da 3c 52 b5 07 3d bd ce 17 3e
       0.12636752 0.026629461 0.033131905 0.14824958
000090 6c a6 f7 3d b0 37 b6 bc 4e 4f f5 bd 90 3f 82 3d
       0.12092289 -0.02224335 -0.11978017 0.0635978
0000a0 57 0a 72 3c f3 59 d2 3d 2f 37 fe 3d 1c 4e b5 bc
       0.014772973 0.10271063 0.12412869 -0.022131972
0000b0 ab 81 82 3d 72 f6 17 3e 82 b7 db 3d ed 88 d5 3d
       0.063723885 0.14840105 0.10728361 0.10426507
0000c0 2e 99 d5 bc 3d 23 ab bc b3 57 8e bd 22 4b bd bc
       -0.026074018 -0.020890826 -0.06950321 -0.023107115
0000d0 1b 69 5d bd fe 0a 1b 3e cc 50 e3 bd a6 44 8d bd
       -0.054055315 0.15140912 -0.11099395 -0.06897859
0000e0 5d ae 24 3d c1 ff 9b 3d d7 f7 b9 3d 41 83 a4 3d
       0.04020535 0.076171406 0.09080475 0.08032847
0000f0 e5 10 bb bd 18 d3 ea bc 12 41 9b 3d 73 51 6e bd
       -0.09134082 -0.02866511 0.075807706 -0.058183145
000100 48 22 39 3e b8 e5 42 3d 4b 90 e1 bd 21 a3 0c 3e
       0.18079484 0.047582358 -0.1101385 0.13734104
000110 82 a5 de 3d 94 7a c5 bc 52 89 15 3e ef b2 37 3d
       0.10871412 -0.024106301 0.14603165 0.04484838
000120 a0 3f aa bd c0 a6 c0 bd d6 d2 e2 3c d5 fd 13 3d
       -0.08312917 -0.09406805 0.027688425 0.036130745
000130 37 fa 3b 3e 7f f5 01 be e3 b0 ed 3d d8 66 16 3e
       0.18357168 -0.12691306 0.11606004 0.1468767
000140 b9 25 54 bd f0 f6 49 3e 94 77 fe 3d 14 3e e9 3d
       -0.051793788 0.19723105 0.124251515 0.113887936
000150 4d a5 5a 3d fb 40 87 bd 70 76 88 bc 35 65 1b 3e
       0.0533803 -0.06604191 -0.016658038 0.15175326
000160 ee 31 00 be b8 c2 f3 bd 42 dd 15 bc b5 e8 2b bd
       -0.12519047 -0.11902374 -0.00914699 -0.041969974
000170 d7 50 c2 bd 39 67 02 3e d1 3f 72 bd af 72 0e 3e
       -0.09488075 0.12734689 -0.05914289 0.13910936
000180 19 e2 2d bc 95 8a d3 3c 16 fe 54 3c 79 91 51 3b
       -0.010612988 0.025822917 0.013000032 0.0031977578
000190 00 c1 c8 3a e4 ec fa 3d ec 38 b0 3d 8e 51 31 3e
       0.0015316308 0.122522146 0.08604607 0.17316267
0001a0 56 60 b5 3d 24 f6 84 bc d5 a7 8d bd 0d 03 92 3d
       0.08856265 -0.01623065 -0.06916777 0.07129488
0001b0 1a 73 83 bd 2e e0 1c 3e 83 aa 39 3d 72 d8 e5 3c
       -0.06418438 0.15319893 0.04532863 0.02805731
0001c0 7c f4 4f bd 43 4e 9a bd 17 ee 00 3e ce a0 7b 3d
       -0.050770268 -0.075344585 0.12590824 0.061432652
0001d0 87 3f 1c 3e 73 34 4d 3e d3 26 3f bd 70 70 23 3e
       0.15258609 0.20039539 -0.046667885 0.1596086
0001e0 2e 63 fb bc ec dc 41 3e 82 30 e5 bc 70 53 8a 3a
       -0.030686941 0.18931931 -0.027977232 0.0010553431
0001f0 d5 bf 89 bc 5f 13 0c be ca c1 d1 3d d5 aa a1 3c
       -0.016815105 -0.13679264 0.102420405 0.01973478
000200 b6 d2 26 3e e8 d9 e3 3d 40 16 28 bd 48 4b 0c 3e
       0.16291317 0.11125547 -0.041036844 0.13700593
000210 6f 1c 6b 3d ba be 2d 3e d8 10 2e 3e 79 b7 32 be
       0.057400163 0.16967288 0.16998613 -0.17452802
000220 13 0c 92 3d 14 6d c2 bd 5f 2f bb bd c0 d2 c9 3d
       0.07131209 -0.09493461 -0.09139895 0.098546505
000230 e4 25 d7 bd e7 53 db bc aa 4d 11 3e 2c b4 48 bc
       -0.10505274 -0.026773406 0.14189783 -0.012249988
000240 79 3c c7 3d 14 71 fd 3d 42 b1 53 3d 6e ac 71 bd
       0.09728331 0.123750836 0.051682718 -0.059002332
000250 f6 3a 95 bd ef 5a 14 3e af 28 f3 3b a9 f0 2b 3e
       -0.072866365 0.14487813 0.0074206213 0.16791023
000260 97 f2 bb bd 03 8b ab bd 3a 6d f0 bd 18 58 d8 3d
       -0.0917713 -0.08376124 -0.11739583 0.105636775
000270 62 7e 18 3e d9 9f ab bd 2c 39 5c bc 8d 1d 05 3d
       0.14891961 -0.08380098 -0.013441365 0.032498885
000280 9f bb 22 3e 6d ef bd 3d 21 07 4b 3d c2 97 a8 bd
       0.15891884 0.092741825 0.049567346 -0.082320705
000290 91 6a 50 bc 67 f1 21 ba 19 32 e0 bd 30 b1 eb 3d
       -0.01272072 -0.00061776344 -0.10947055 0.11508405
0002a0 7b 8a 0f be e3 93 a6 3c dd ec a9 bc cd 4b 75 bc
       -0.1401767 0.02033419 -0.020742828 -0.014971686
0002b0 12 77 21 be a9 33 ac bd 8e 0e 43 3e a6 c0 d3 3c
       -0.15768078 -0.08408291 0.19048521 0.025848698
0002c0 df 8b bf bd 5c dd 77 bd bb 24 25 3d 85 3f ad 3d
       -0.0935285 -0.06051384 0.040318232 0.08459381
0002d0 03 33 ae 3d 62 77 38 3e c7 4c 11 3e 7b f7 18 3d
       0.085058235 0.18014291 0.14189444 0.03734539
0002e0 09 68 35 3e b4 d3 fa 3d 06 de fe bb 8d 7e 13 bd
       0.17715468 0.122474104 -0.007777932 -0.03600936
0002f0 62 48 2a 3e 6b 12 cf bd 44 18 09 3e 9e 6f d1 3d
       0.16629174 -0.10110935 0.13388163 0.102263674
000300 57 57 8b 3b bc f5 90 3c 7c 03 d1 bc cf b4 26 3e
       0.004252355 0.0176953 -0.025514357 0.1627991
000310 4f 6d 08 3e 98 d2 c2 3d 4c 80 d0 bb 32 83 1d be
       0.13322948 0.09512824 -0.0063629504 -0.15382078
000320 90 be 7c 3d 02 43 8d bd e3 31 a6 3d b0 c1 4b 3e
       0.061705172 -0.06897546 0.08114984 0.19898105
000330 c7 6b be bd c5 6e da bd 74 97 d7 bd 4c 81 90 bd
       -0.09297901 -0.10665659 -0.10526934 -0.070559114
000340 6e 23 b7 bd fa 99 06 3d 49 eb 21 bd a5 bb 8c bb
       -0.089423046 0.032861687 -0.039531026 -0.00429483
000350 1f d8 4b 3d dc c0 b8 bd b3 49 2d 3d 6d d8 cd bd
       0.049766656 -0.0902116 0.042306613 -0.100510456
000360 b8 33 e1 3d 38 80 06 3e 22 47 a6 3d 88 fb ec 3d
       0.10996193 0.13134849 0.08119036 0.11571413
000370 1a d1 50 3c 48 ae a6 bd ab 8d 07 bd f2 9b f4 bc
       0.012745166 -0.0813871 -0.03309409 -0.029859517
000380 6a e0 03 be 0e be 33 3e 7b 60 c1 3b 30 7b 14 3e
       -0.12878576 0.17552969 0.005901394 0.14500117
000390 ff 2d 2a bc 94 74 1c 3e 88 0d f5 bd d9 16 a2 bc
       -0.010386943 0.15278846 -0.119654715 -0.019786285
0003a0 fe 58 b0 3d 33 55 05 3e 36 74 a5 3d 72 9c c1 bd
       0.08610724 0.13020782 0.08078806 -0.09453668
0003b0 c3 35 c8 bd d8 09 a1 bd 40 89 1f 3e 9b 3b 0b be
       -0.09775879 -0.07863206 0.155797 -0.13596956
0003c0 45 d8 09 bd ae d5 0e be 30 a7 b3 bc 9f c7 6a bd
       -0.033653516 -0.139487 -0.021930307 -0.05731928
0003d0 f9 f4 66 bd da 86 75 3c c0 2f 2d 3e a2 3d e2 3c
       -0.056385968 0.014985764 0.16912746 0.02761728
0003e0 19 f9 0a be 1b fb 2b be 32 8c 12 3d e8 d0 3c 3e
       -0.13571586 -0.16795008 0.035778232 0.18439066
0003f0 ab 27 8e bd 89 59 63 bd 81 1d 1a bd 0f 01 26 bd
       -0.0694116 -0.05550531 -0.037625793 -0.040528353

FC2.weight f4 [256, 256]
000000 ae 4f c5 3d f8 91 6b 3d 38 da f1 bc 1b b2 75 39
       0.09634338 0.057512254 -0.029523 0.0002343137
000010 54 2f 00 3d a5 81 ec bc 96 e2 42 bc 1b 6a b5 3c
       0.031295136 -0.028870413 -0.011894843 0.022145322
000020 22 8e 79 3d 9a 65 d8 bb ca 01 bb 3d d3 48 ec 3d
       0.060926564 -0.0066039087 0.091312006 0.115373276
000030 13 16 dd 3c f0 84 e5 bc fb 2f a6 3d d8 d0 bf 3d
       0.026988065 -0.028017491 0.0811462 0.09366006
000040 43 59 1b bd ee 1f af 3d 77 57 7c bc 58 df 81 3d
       -0.037926923 0.08551012 -0.015401713 0.063414276
000050 d4 dc 99 3d 32 72 83 3d 3c 82 8d 3d 1e 1d 4d 3d
       0.07512823 0.064182654 0.06909606 0.050076596
000060 89 15 a9 3d 34 7a 51 3d 99 76 1d 3d f0 b9 4c 3d
       0.08256061 0.051141933 0.03844318 0.04998201
000070 57 d3 80 3d a5 ed 42 3d 27 63 d8 b9 e0 92 07 3d
       0.0629031 0.047589917 -0.00041272605 0.033099055
000080 7e a6 7d 3d 08 de fe bb 41 a2 43 3d ac 97 5a 3c
       0.061926357 -0.007777933 0.04776216 0.013341825
000090 81 d0 32 3d a7 0b b7 bc 5d eb 12 3c 1b 82 e1 3c
       0.043655876 -0.022344423 0.008967248 0.02752786
0000a0 76 65 61 3c b3 2c 90 3d 70 42 81 3d cf ac 63 3d
       0.0137571 0.07039776 0.063115 0.055584725
0000b0 53 76 26 3d d2 63 71 3d 66 80 45 3d 98 0f 2a 3d
       0.040640187 0.058933087 0.048218153 0.041518778
0000c0 20 ca 1b 3c c3 58 a4 3d bf 58 76 3c 90 2b 89 bc
       0.00950864 0.080247425 0.015035807 -0.016744405
0000d0 ce c4 00 bd da ca 89 3d 38 95 a5 3d a4 87 01 3d
       -0.031437688 0.06728144 0.08085102 0.031623498
0000e0 5a a7 9f 3d dc cd 64 3d a9 a4 d1 bc 1e ea 9c 3b
       0.07795592 0.055860385 -0.025591211 0.004788651
0000f0 4b db 82 bc 4c 18 7f 3d 15 21 83 3d f8 74 ee bc
       -0.015973708 0.06227903 0.06402794 -0.02910851
000100 ef c9 e3 bc be 0c bf 3c 5b ae 9e 3d 18 ce 67 bc
       -0.02780625 0.023321506 0.077480994 -0.014148258
000110 79 4f 02 bd 32 7e d4 bc d3 97 93 3d 2d ac e0 3d
       -0.031814072 -0.02593908 0.072066925 0.1097034
000120 e4 bd 33 3d c5 60 b2 3c 46 b3 3b 3d 2b 32 6f bd
       0.043882266 0.021774659 0.045825265 -0.058397453
000130 07 69 95 3d 49 66 5f 3c 35 9c 49 3c 8b 33 d3 3b
       0.07295423 0.0136352265 0.012305309 0.0064453534
000140 c8 a6 0e bb 12 b0 48 3d 02 f1 4c bc 27 6b 01 3d
       -0.002176689 0.04899604 -0.012508633 0.03159633
000150 76 9f af bb 03 07 e5 3a b7 5f 29 3d 90 bb c6 3c
       -0.0053595854 0.0017473403 0.041351046 0.024259359
000160 20 2a 43 3d e7 ef 57 bd 9a b7 45 3c 8b 4e cf 3d
       0.047647595 -0.052719023 0.0120677 0.10122403
000170 d1 3f 93 3d 5f 21 b8 3d 81 5b 95 3c 9d f6 e5 bc
       0.071899064 0.0899074 0.018232109 -0.028071696
000180 96 29 81 bb e5 ff 06 bd 3d ff ae 3d 20 b3 9e bc
       -0.003941725 -0.032958884 0.085447766 -0.019372523
000190 eb 84 b2 3d 00 5d 75 3d 83 8b a2 3d cb 26 10 bd
       0.08716758 0.059903145 0.07936766 -0.035193246
0001a0 24 e3 62 3c e0 a1 a1 3d 2f 3b 9d 3d e1 7c fe 3c
       0.0138481 0.07892203 0.07677304 0.031065406
0001b0 1e fa 82 bd fc 77 a1 bc b3 8f 6e 3d b0 fe 8c 3d
       -0.06395362 -0.019710533 0.05824251 0.06884515
0001c0 1a 4a 4d 3d 63 1c b5 3d 11 bb 51 3d 09 7c 82 3d
       0.050119497 0.08843305 0.05120379 0.06371314
0001d0 5d f2 57 3d d0 87 a5 3d 99 8b 8b 3d ec 83 10 bd
       0.05272137 0.08082545 0.068137355 -0.03528206
0001e0 7b 42 5a bc 56 bc 5b 3d a7 c9 3f 3d d7 98 75 bc
       -0.013321514 0.053646408 0.04682317 -0.014990053
0001f0 9b 45 e1 3c da 7b 71 3d b5 c9 cc bb 96 f6 6e 3d
       0.02749901 0.058956005 -0.0062496313 0.05834063
000200 68 8a a4 3d c9 e8 fc ba 95 32 8f 3d 19 69 37 3c
       0.080342114 -0.001929545 0.0699207 0.011194491
000210 46 c4 f1 3a 82 2f 50 bc 20 91 9d 3d 9d 85 d6 bc
       0.0018445335 -0.012706639 0.07693696 -0.026186759
000220 77 39 b2 3d b7 3e 92 3d a3 68 24 3d eb f6 ac 3d
       0.08702367 0.07140868 0.04013885 0.08445533
000230 14 44 e8 bb ed f7 b7 3d d0 f8 e7 3c fa 66 2a 3d
       -0.0070881937 0.08982835 0.028316885 0.041602112
000240 d9 92 5b 3d 78 da 7b 3d 0f 44 02 bd e1 63 47 3d
       0.05360684 0.061487645 -0.031803187 0.048679236
000250 63 5d 38 3d 32 4c a5 3c d7 f3 23 3d df 98 13 bb
       0.045010936 0.020177934 0.040027466 -0.0022521538
000260 77 bb 17 3d 30 8f b7 3c c1 ec 65 3d ee 6d a8 3c
       0.037044015 0.022407144 0.05613399 0.020560231
000270 3e a2 13 3d a6 0b 0a 3d 67 9b 57 3c b8 54 77 3c
       0.036043398 0.033702515 0.013159609 0.015095882
000280 9a 9d d5 3c 32 d2 6b 3c 5d c2 d5 3d f1 3f 8b 3d
       0.026076127 0.014393376 0.104374625 0.06799305
000290 a5 a9 3e 3c a5 90 6c 3d 08 43 07 bd f2 64 a9 3d
       0.011637126 0.05775513 -0.03302291 0.08271207
0002a0 45 83 a0 bc 6a d1 b0 3d 4b c5 13 bd a6 f6 0a 3d
       -0.019593844 0.086336926 -0.036076825 0.03392663
0002b0 7a bb 77 3c bf 7f 41 3d 5c 71 a9 3d 22 98 28 bd
       0.0151203815 0.04724097 0.08273575 -0.04116071
0002c0 b8 2f 3a 3d 0e df 15 3d e1 f3 ba ba 95 52 b2 3d
       0.045455664 0.036589675 -0.0014263355 0.087071575
0002d0 2e 4f 8c 3d 44 ad e9 3b ef e8 89 3c 04 77 e3 3d
       0.0685104 0.0071312506 0.016834704 0.11106685
0002e0 4d ae b9 3d d1 4e 8d 3d af 5d 1d 3d 5e 4a 64 bc
       0.09066448 0.06899799 0.03841942 -0.013933746
0002f0 00 2b fb bc 6a 89 60 3c 3a ed 0d bd 5b f2 7b 3d
       -0.030660152 0.013704637 -0.034650065 0.061510425
000300 f0 bc 8b 3d 43 53 a9 3d a4 4f 28 3d 5d d7 b2 3d
       0.06823146 0.08267834 0.041091576 0.087324835
000310 2c 06 1f 3c 83 74 37 3d 7b 18 30 bc 9d 6c 1a bb
       0.009706061 0.04478885 -0.010748024 -0.0023563274
000320 5c 58 01 3d bb a4 90 ba c2 26 03 3d cf 35 8c 3c
       0.031578407 -0.0011035422 0.032019384 0.017115502
000330 32 74 07 3d b4 03 c0 bc 3c e6 bf 3c 93 06 7c 3d
       0.033069797 -0.023439266 0.023425214 0.061529707
000340 64 2e b7 bc a7 bd 83 3c 84 af c0 3d 71 d2 6a 3c
       -0.022360988 0.016081644 0.09408477 0.0143324
000350 6d b4 40 3d 03 c7 1a 3d c6 ea 9b 3a d2 db 25 bd
       0.047047067 0.03778745 0.001189553 -0.04049284
000360 1e bc a1 bc be 27 ae 3c 4e 84 52 3d 97 54 08 bd
       -0.019743022 0.021259185 0.051395707 -0.033283796
000370 18 13 24 3d 68 9e 04 3d 15 93 be 3d 16 0c b7 3d
       0.04005727 0.03237763 0.093053974 0.08937852
000380 6a 93 86 3d 15 45 8c 3d e0 a3 94 3d 8d 37 4f 3d
       0.06571086 0.06849114 0.07257819 0.050590087
000390 aa c8 4a bc 17 52 15 3c 68 bc 31 3d 89 f1 bd 3c
       -0.012376944 0.00911381 0.04339257 0.023186462
0003a0 e1 9d 87 3d c6 20 73 bc 09 03 16 3d b9 a5 9f 3d
       0.0662191 -0.014839357 0.03662399 0.07795281
0003b0 ad 5e ad 3d ae 57 18 3c d6 9e b9 bb 21 f8 95 3d
       0.084653236 0.009298248 -0.0056646867 0.073227175
0003c0 6f b1 7d 3d de b2 27 3d c2 2b 7b 3d 86 96 c9 3d
       0.061936792 0.040942065 0.061321028 0.09843163
0003d0 c5 15 9a 3d 06 48 5c bd 0e e8 8e 3d 35 75 7c 3d
       0.075236835 -0.053779624 0.06977855 0.061635215
0003e0 b3 b0 38 bd 98 c0 dd bc dd 13 a0 3c 5c 81 d9 3c
       -0.04509039 -0.027069375 0.019540722 0.026550941
0003f0 c9 e4 07 bc 82 87 21 3d 7a 98 18 3d ba dc 9f 3d
       -0.008294293 0.03943587 0.037254788 0.07805772

FC2.bias f4 [256]
000000 66 56 b2 ba fe cd 33 bc ff 91 ef 3d ce 71 dc 3c
       -0.0013606071 -0.010974405 0.116977684 0.026909735
000010 c9 26 cd bc bb 11 fb 3c aa 6c d2 3c b4 20 2e 3c
       -0.025042908 0.030648103 0.02568658 0.010627914
000020 db e0 69 3c 3c de 6c 3c c9 06 8f 3d 4a 9b af 3d
       0.014274801 0.014457282 0.06983716 0.08574541
000030 f5 d7 bc bb 33 b6 b6 3b ad 99 24 3d 92 4e 10 3d
       -0.005763049 0.005575919 0.04018562 0.03523118
000040 5e 8f 47 bd 59 d8 1b bd e9 f3 0e bc c2 5d 06 3d
       -0.04872071 -0.038048122 -0.008725145 0.03280426
000050 01 82 35 3c f3 61 82 3d 95 d0 46 3d 6d 28 ff bb
       0.011078359 0.063663386 0.048538763 -0.0077868016
000060 35 53 7f ba 37 df 20 bc 70 fa 05 bd a5 f8 2b 3d
       -0.0009739877 -0.009818844 -0.03270954 0.041985173
000070 80 3f 77 bc fa 93 7d 3c e1 bc 7c bc 99 65 0f 3d
       -0.015090823 0.015477175 -0.015425892 0.035009
000080 19 57 86 bd 6b e2 0a 3d 00 e7 8b 3d 95 18 88 3c
       -0.06559581 0.033907335 0.06831169 0.016613284
000090 0f 6d 0f 3b db 31 e5 3c 5f 0a bb 3d 31 52 d3 38
       0.0021885072 0.027977875 0.091328375 0.000100765734
0000a0 13 ae a3 3d d8 1b 9a bc 8f 34 7e 3a 07 5e 85 bb
       0.079921864 -0.018812105 0.0009697163 -0.004070047
0000b0 a5 b2 0d bd 94 df 89 bd 23 9d 01 bd d8 bf 8e 3d
       -0.034594197 -0.06732097 -0.031643998 0.06970185
0000c0 a9 d7 52 3c 4d 8f 2c 3d b3 8a 1a bd 1c af 39 3d
       0.0128688 0.04212885 -0.03772993 0.045333013
0000d0 c2 06 80 bc 5e d6 b6 3d 2f 76 17 3c bb 81 17 3b
       -0.015628222 0.08927606 0.009244486 0.0023118097
0000e0 6b 26 7c bc 87 c9 8d bb 4e 75 17 bd cb 60 80 3d
       -0.015390019 -0.0043270024 -0.036977105 0.06268462
0000f0 cf 95 13 bd 1d 62 60 bc 97 a4 dc bc 2c 00 72 bd
       -0.03603154 -0.013695267 -0.026933951 -0.059082195
000100 31 79 09 3d 18 d0 58 3c 53 df b8 bc 8f 74 9c ba
       0.033562843 0.013233207 -0.022567427 -0.0011936593
000110 82 9c 2c bd 13 77 89 3d fc 98 d0 3b ca 27 23 3d
       -0.042141445 0.06712165 0.0063658934 0.039832868
000120 5a fa d0 3d 76 d4 5e bd 6b 8d 83 bd f1 c1 89 bd
       0.10204001 -0.054401837 -0.06423458 -0.067264445
000130 50 a9 23 3b 22 f7 46 bd e3 ad 83 bd 42 76 cc 3c
       0.0024972744 -0.048575528 -0.06429651 0.024958733
000140 d3 1e bd 3d 2b 69 58 bd e9 2d 56 bd 72 87 04 3d
       0.09234395 -0.05283467 -0.052289877 0.032355733
000150 21 f6 07 3d 82 47 a2 3c 4b be 5d bd e0 af a5 3c
       0.03319371 0.019809488 -0.054136556 0.020225465
000160 c6 45 8e bc d0 34 2d bc 51 01 0d 3d 93 82 30 3d
       -0.017367255 -0.0105716735 0.034425084 0.043093275
000170 60 ba 9f 3d 51 f9 25 bb d7 2a 2c bd a6 34 83 3d
       0.0779922 -0.0025325606 -0.042033043 0.06406526
000180 a1 8e 78 3c 51 05 98 3c 71 69 2a 3c 22 b2 14 3d
       0.015170724 0.018557223 0.010401116 0.036302693
000190 ba dc 13 3d 2a fd 07 3d 34 0a 10 bd 55 6c e5 3a
       0.036099173 0.03320042 -0.03516598 0.0017503599
0001a0 6c 92 fa 3c 0f 2d 1b bc fb bc 87 bd fe d4 c9 3d
       0.030587398 -0.009471192 -0.06627842 0.09855078
0001b0 db 49 18 3d 42 9a 40 3b 30 ca af 3d e9 ec f2 bc
       0.03717981 0.002938882 0.08583486 -0.029653983
0001c0 eb 34 6d bd 93 b9 16 bd 16 c0 04 3d e4 42 66 3c
       -0.057911795 -0.03679807 0.03240975 0.014054034
0001d0 1c 2d e1 bc da 6f 45 3d 50 66 c2 bc 03 26 79 3c
       -0.02748733 0.048202373 -0.023730427 0.015206817
0001e0 b4 50 c5 3c 05 2a 80 bd bf c1 2e 3d 8e a9 18 bd
       0.024086334 -0.062580146 0.04266524 -0.037271075
0001f0 84 7a f7 3c 15 71 91 3c be 10 40 3d de 8f 57 bd
       0.030209787 0.017754117 0.046890967 -0.052627437
000200 57 63 5e bd 91 5c c1 3c ff 4f 34 3d 21 e8 b5 3c
       -0.054293957 0.02360371 0.044021603 0.022205414
000210 63 c9 8a bd 75 e8 2b 3c 79 38 bd 3d b2 e6 84 3c
       -0.06776693 0.010492434 0.09239287 0.016223285
000220 38 1e 92 bd c2 b5 1b 3d b7 fb 08 bd 50 ab 2c bc
       -0.0713467 0.038015135 -0.03344318 -0.010538891
000230 3f 19 89 bd 32 ba 63 bc 51 1a 0e bd 08 de e6 3d
       -0.066942684 -0.013899373 -0.034693066 0.11272818
000240 21 dd ed bc 5c 16 a2 3d 8e 3a 8f 3d c6 3f ee 3b
       -0.029036107 0.07914421 0.0699359 0.007270786
000250 da 0c 7f bb e0 ae 2f bd b4 4e 0c bd 34 74 5c 3d
       -0.0038917572 -0.042891383 -0.034254745 0.053821757
000260 fd a1 cd 3b 90 da ef bc 60 d2 56 bd 8b 9a 53 bd
       0.006275414 -0.029279023 -0.052446723 -0.051661056
000270 73 8d f5 3c fc 42 58 3d 8d 17 23 bd 46 4a 9e 3d
       0.029974675 0.052798256 -0.03981738 0.0772901
000280 82 92 99 3c 76 d8 8d bc ef 3b 99 3b 8e 2f 43 3d
       0.018746618 -0.01731513 0.004676334 0.047652774
000290 dd 62 7f 3d d5 56 b9 3b 24 d4 52 bd d7 89 4d bd
       0.062350143 0.005656103 -0.051471844 -0.050180282
0002a0 e0 40 10 3d d8 88 65 3d 57 0e 71 3b 7b 32 88 bd
       0.03521812 0.056038707 0.003678223 -0.066502534
0002b0 41 4b 23 3d 1d 29 95 3c 32 d6 81 3d 0e f4 97 bc
       0.03986669 0.01820808 0.06339683 -0.018548992
0002c0 45 90 86 3d b9 a8 ab 3c 7d 02 cf 3b 56 58 90 3d
       0.06570486 0.020954477 0.0063174353 0.07048099
0002d0 90 a5 16 3d 6e 80 09 3b 57 d4 37 bd 54 ad 78 bd
       0.036778986 0.002098109 -0.044880237 -0.060712174
0002e0 98 95 9b 3c 2f 5c ee 3c 20 bd 67 bd 30 f2 88 bd
       0.01899223 0.029096691 -0.056576848 -0.066868186
0002f0 5f 69 08 bd d7 83 2b 3d 94 46 4a 3d c6 7d a9 bc
       -0.033303615 0.04187378 0.049383715 -0.020689856
000300 db 0d 3f 3a db 77 86 3d 58 ab ef bb c8 5b 64 bd
       0.00072881364 0.06565829 -0.007314127 -0.055751592
000310 44 8b 98 3a 38 f5 89 bd dc ff 9c bc c4 9f 0a bd
       0.0011638184 -0.06736225 -0.019164972 -0.03384377
000320 0f 94 34 3d 96 b6 99 3d 4c 89 84 bc c1 c6 2c bd
       0.044086512 0.07505529 -0.01617875 -0.042181734
000330 76 01 a5 bd df a1 02 3d 3c 79 1b 3d fd 28 09 bc
       -0.08056919 0.031892654 0.037957415 -0.008371589
000340 af 2a c6 3c 8e 68 5d 3d e8 7f a9 3d 2d 25 97 3c
       0.024190275 0.05405479 0.08276349 0.018450344
000350 1a 52 34 bd 66 78 7a bd ad 0d d1 3c c7 02 ee 3c
       -0.04402361 -0.061149977 0.025519216 0.029054059
000360 8d 99 c8 bc 54 f1 59 bb 33 ae c6 3c bd 49 c9 bc
       -0.024487281 -0.0033255415 0.024252987 -0.024571294
000370 ec 0b 1b bd bf 5d 0c 3d 86 82 42 3d 23 31 e4 3b
       -0.037853166 0.03426909 0.047487758 0.0069638654
000380 8c 18 a6 3c 8c f9 65 3d d8 45 82 3c 10 f7 01 3c
       0.020275377 0.05614619 0.015902445 0.007932439
000390 fc 43 3f 3d a0 3f 33 bc 60 34 2e 3d d3 31 5c 3c
       0.046695694 -0.010940462 0.042530417 0.013439613
0003a0 2d 78 89 3c 37 fa 60 3c 34 d1 7c bd a5 aa a1 bc
       0.016780937 0.013731531 -0.06172295 -0.01973469
0003b0 20 d4 72 bc 60 d1 fa 3c 8d 01 32 bd 9f 79 20 bc
       -0.014821082 0.030617416 -0.04345851 -0.009794622
0003c0 cf cf 17 bd 4d 1b 57 3d 10 79 86 bd 73 55 c0 3c
       -0.037063416 0.05251627 -0.065660596 0.023478245
0003d0 f8 1f 25 bd 1b 8a 38 bd c9 07 a7 bb a4 bb 8e bb
       -0.04031369 -0.045053583 -0.0050973636 -0.0043558646
0003e0 c5 2c 92 3d c3 7a 3e bd c3 50 b7 3b 43 47 8f 3d
       0.07137445 -0.046503793 0.0055943443 0.06996014
0003f0 8c 4e 34 3d db 2e 14 bd 4c 85 00 bb b2 ad 47 3d
       0.04402022 -0.036177497 -0.00196107 0.048749633

action_out.weight f4 [5, 256]
000000 fb 91 89 bd 36 b2 af bc 3c 80 b8 bc 6b bb 3e 3d
       -0.06717297 -0.021447282 -0.022522084 0.046565454
000010 aa 9f a9 bb c6 fd 7b 3c a3 80 2e bd e0 93 0c 3d
       -0.005176504 0.0153803285 -0.042603146 0.034320712
000020 13 b0 9f 3c e8 d2 c3 3c 3c da 90 bd 7f 6d 35 be
       0.019493138 0.023904279 -0.07072875 -0.1771755
000030 db 41 3f 3d 3f f4 a1 bc 2d 6a 4c 3d e0 93 ad bd
       0.046693664 -0.019769786 0.049905945 -0.084754705
000040 cb af d4 bc ab 0b 63 bd 3f 08 cc bc b8 dc 2d 3c
       -0.02596273 -0.05543105 -0.024906276 0.0106117055
000050 5d 28 13 3d 3b 78 e9 bc d0 16 88 bc de d1 9f bc
       0.035927165 -0.028499713 -0.01661244 -0.019509252
000060 d0 80 d2 3c 58 7b f1 bc b8 ec 76 3c 71 58 f2 3b
       0.025696188 -0.02947776 0.015071087 0.007395797
000070 4e 81 7e bd 86 ac be bd 1f a2 a0 3c dc d8 6a 3d
       -0.062135033 -0.0931025 0.019608555 0.05733572
000080 c5 6e 5e 3d ae 79 28 bd 68 26 f7 3c 5a 35 8a bc
       0.054304857 -0.041131668 0.03016968 -0.016871143
000090 56 72 6c 3d 75 83 37 bd e4 4c 33 bd 26 ba 0c bd
       0.057726227 -0.0448031 -0.0437745 -0.034357212
0000a0 70 e0 40 3d f3 99 8b bc 84 c0 61 bc 09 e5 79 bc
       0.04708904 -0.017041182 -0.013778809 -0.01525236
0000b0 15 b0 2d bd 4f 13 1e bc fa 6d 7c 3d 4b 7f 9e 3c
       -0.042404253 -0.009648158 0.06162832 0.019347807
0000c0 d9 b0 24 bd 66 03 7c 3d 43 4b b6 bb d7 42 2a 3d
       -0.040207718 0.06152668 -0.005563171 0.04156765
0000d0 5f 49 1f bd 09 fd 2f bd 2d e0 e0 bc 6c ac 12 3d
       -0.03888833 -0.042965923 -0.027450645 0.035808966
0000e0 f2 a0 43 3d 00 ef ed bb 7d 5b 0f 3d ff 25 71 bd
       0.04776091 -0.007261157 0.03499936 -0.058874127
0000f0 6f 04 12 3d 36 40 49 bd 44 9b e4 3b 13 b6 27 bd
       0.03564876 -0.049133502 0.006976517 -0.040945124
000100 40 5f 31 bd 86 05 fd bc 43 ac 56 bd c8 3c 56 bd
       -0.043303728 -0.030886423 -0.052410375 -0.05230406
000110 d8 2a 8d 3b 4d 44 ae bd 74 fd 98 bc 90 8b e5 bc
       0.004308086 -0.08509121 -0.018675543 -0.02802065
000120 d0 65 03 3d 14 46 d8 bb 03 84 61 3d 3a 33 b5 3c
       0.032079518 -0.006600151 0.055057537 0.022119153
000130 d3 ee 75 bd 90 7b 3a bd 0e fe 65 bd 02 82 23 be
       -0.060042214 -0.045527995 -0.05615049 -0.15967563
000140 14 3f cd bc 75 3b 15 bd 46 94 f7 3c 18 27 c3 bc
       -0.025054492 -0.036433656 0.03022207 -0.023822352
000150 95 41 93 3c 01 87 fd bc f6 ca d9 bc 4f 49 db bc
       0.017975608 -0.030948164 -0.026586037 -0.026768355
000160 9c 96 54 bd ab 04 68 bd e1 64 11 bc 70 7a 61 ba
       -0.051901445 -0.056645077 -0.008874149 -0.00086013135
000170 8f 39 0c 3b 54 89 31 bd 64 f6 01 bd ff 58 d6 bc
       0.0021396612 -0.043343857 -0.031729117 -0.026165484
000180 3a 27 33 3d 65 0a 87 bb 00 92 8a bd 4b 25 e6 bc
       0.04373858 -0.004121112 -0.067661285 -0.028093955
000190 a2 80 96 bb 9e ce 1d bd 20 96 45 bd 35 45 66 bc
       -0.004592971 -0.038527124 -0.048238873 -0.014054586
0001a0 7c 6d 58 bd 33 ab 50 bd 69 94 59 bc 8d df 91 bd
       -0.052838787 -0.05094452 -0.013280013 -0.07122717
0001b0 56 c5 1f bd a2 9c c2 3c eb 76 3f bc e8 01 41 bc
       -0.039006554 0.023756329 -0.011686067 -0.01178024
0001c0 37 f8 c6 bc 08 90 32 bd 18 f3 31 bd 1b 06 bb 3c
       -0.02428828 -0.04359439 -0.043444723 0.02283006
0001d0 3e 99 26 bd bb 37 05 bd 0b 5b da 3c a7 be 2d 3d
       -0.040673487 -0.03252385 0.02665474 0.04241815
0001e0 f2 b8 dc bc 3a 20 33 3d 9e fa 25 3d b8 f6 e4 3b
       -0.026943658 0.043731906 0.04052221 0.006987419
0001f0 93 c0 cc 3b 50 ed cf 3a f7 24 a7 bc 48 17 fa 3c
       0.0062485426 0.0015863571 -0.020403368 0.03052868
000200 2b 71 1e 3d 78 01 23 bd f3 cf db 3b 25 23 21 bc
       0.038682144 -0.039796323 0.006708139 -0.009835039
000210 23 9e 23 3d 01 8d 28 3d b0 df 99 3c c0 b2 75 be
       0.039945733 0.041150097 0.01878342 -0.23993969
000220 be 20 f7 bc bd 06 1e 3d 65 70 1b 3d 28 99 f3 bb
       -0.03016698 0.038580645 0.037948985 -0.007434029
000230 b2 ee 2f bd 61 8f 30 3b d5 8e 4e 3d 08 7b 7c bc
       -0.042952247 0.002694093 0.050429184 -0.015410192
000240 c9 4e 67 bc ab 41 d2 bc f8 cc 28 bd aa 25 1f 3d
       -0.014117905 -0.025666079 -0.0412111 0.03885428
000250 1f 8c 18 bb 69 47 f0 bc 4a 67 78 3b 5e 7a 55 3d
       -0.0023276878 -0.029330926 0.0037903362 0.05211865
000260 f8 58 b2 3c 1f f9 ea bc 61 31 27 3d 17 9e ff bc
       0.02177094 -0.028683243 0.040818576 -0.031203313
000270 a3 e7 9a bd e0 0c 0e bd b8 b1 b7 3c 53 dd 1e 3d
       -0.075637124 -0.034680247 0.02242361 0.03878529
000280 09 9f 6d 3c b2 80 0b 3d d0 9e eb bc bc 6e 87 3c
       0.014503249 0.03405828 -0.028762251 0.016532294
000290 6f 6b 7a bd 5a ab 08 3d 92 2f cc bb 99 68 9c 3c
       -0.061137613 0.03336654 -0.0062312568 0.019092845
0002a0 0e f9 de ba c8 17 a9 bb 6f f2 63 bd 0c 3e 80 bc
       -0.001701148 -0.0051603056 -0.055651125 -0.015654586
0002b0 67 53 e7 bc 4d b5 77 3c dc 32 d0 3c f4 32 99 bc
       -0.028238012 0.015118909 0.025414877 -0.018701054
0002c0 6a 12 69 bd 6b 15 df 3c 2d c0 cc bc fc 14 05 bd
       -0.056902327 0.027231893 -0.02499398 -0.032490715
0002d0 75 0a de 3b 06 eb ea bc 4d 3e 78 bc 17 f0 bb 3c
       0.006776149 -0.028676521 -0.015151572 0.022941632
0002e0 fb 25 87 bc df 4d 5f bc 5c 54 09 3c 3d 6a 05 bd
       -0.016497603 -0.013629406 0.008381929 -0.03257202
0002f0 98 00 53 bc 56 49 34 bd 57 c6 c2 bc 39 a6 36 3a
       -0.0128785595 -0.04401525 -0.023776216 0.0006967518
000300 4e 55 cb bb 08 4e 4e 3d 89 5d f4 3b 84 20 6f 3d
       -0.0062052375 0.050367385 0.0074574393 0.05838062
000310 b1 50 28 bd b4 36 38 3d 79 64 38 bd a8 4b 80 3a
       -0.04109258 0.044974044 -0.045017693 0.0009788172
000320 2d f5 1d 3c 4a a8 72 b9 67 61 b1 3c 98 7a 2e 3d
       0.009640974 -0.00023141611 0.02165289 0.042597383
000330 9b cc ac 3c 0f d1 b0 bd 9f 28 86 bd 7d 8b 03 3b
       0.021093657 -0.08633625 -0.065507166 0.0020072155
000340 e6 52 3c 3d 51 13 ec 3b 2d e5 36 3c d0 89 5f bd
       0.045977496 0.007204451 0.011163038 -0.054574788
000350 0f 37 19 bd fc df 98 3c 3f 5c 17 bd 35 bd ad 3c
       -0.037406024 0.018661492 -0.036953207 0.021208385
000360 d4 1a bf 3c 5f 65 54 bd a4 41 47 bd 76 c3 fd bc
       0.023328222 -0.051854488 -0.048646584 -0.030976992
000370 66 81 1e bd 07 51 63 3d 35 2f 44 bd 48 54 33 bd
       -0.038697623 0.055497196 -0.047896583 -0.04378155
000380 fc 06 15 3c f4 12 ba 3c d5 0c 63 bc b2 f8 62 3c
       0.0090959035 0.022714116 -0.01385804 0.013853239
000390 e5 d1 98 3c 89 41 0c 3d 27 4c 06 3d df ac 2a bd
       0.018654773 0.034242187 0.03278747 -0.04166877
0003a0 1b 4d 9b bd 88 f2 ec 3c 07 c5 da bb 43 54 95 bb
       -0.07583066 0.028924242 -0.0066763195 -0.004557164
0003b0 42 30 3b 3c ed 1e 01 bd ff a8 45 3d 62 98 33 bd
       0.01142508 -0.031523634 0.04825687 -0.043846495
0003c0 e3 88 ba 3c a9 a5 87 bd 08 06 85 bb c2 2f 14 bc
       0.02277035 -0.06623394 -0.004059557 -0.0090445895
0003d0 28 74 4a bd ca 0d 19 bd 8e b6 ab bc a4 0d 0c 3d
       -0.04942718 -0.037366666 -0.020961072 0.034192696
0003e0 96 d4 6a bd c5 72 8d bb 8c aa 66 bc 21 ab 32 bc
       -0.057331644 -0.00431666 -0.0140787475 -0.010905058
0003f0 ab 78 65 bd c6 72 4a 3d 19 95 0e bc 6c bf b2 3c
       -0.05602328 0.049425863 -0.00870254 0.021819793

action_out.bias f4 [5]
000000 23 d7 14 3d 2d fb 6d 3d 05 1e ac bd e0 8f c4 bc
       0.036337983 0.058100868 -0.08404163 -0.023994386
000010 7c bb 63 3d
       0.05559872

weight f4 [256, 123]
000000 9f 8e d7 bc 3e 33 66 be 42 01 23 be 7c 19 92 be
       -0.026313124 -0.22480485 -0.15918449 -0.28535068
000010 99 73 3f 3b 0d b6 a8 3d fc 03 2b 3d cb ea 95 be
       0.0029213189 0.082378484 0.041751847 -0.29280695
000020 fc 12 64 be 3c 62 ae bd 27 92 18 bd b4 93 2e 3a
       -0.22272867 -0.085148305 -0.037248757 0.0006659583
000030 bb e0 95 bd f4 20 85 3d 55 0a a5 3d 0f 87 4a be
       -0.073182546 0.06500426 0.08058611 -0.19778083
000040 7c f3 b2 bd 39 65 05 be 43 ed ec bc 5a 38 8d 3d
       -0.08737847 -0.13026895 -0.028921729 0.06895514
000050 23 17 dd bc 8b 20 36 bb ca 2f c4 3c 3a 19 57 be
       -0.026988572 -0.0027790393 0.023948569 -0.21005717
000060 8e 78 44 bd 51 68 dc bd e8 8a 05 be b7 c4 51 3c
       -0.047966532 -0.10762084 -0.1304127 0.012803248
000070 5f 02 50 3e 87 d3 b4 3d e0 b6 7e be 05 c1 25 3d
       0.20313405 0.08829408 -0.24874449 0.04046728
000080 39 f8 bb 3d d2 4d 40 3d fe 0a 89 bd 90 c1 8a bb
       0.09178204 0.046949215 -0.0669155 -0.0042345
000090 75 a9 ca 3a 44 43 e0 3c be 29 41 3d d6 f7 37 be
       0.0015461879 0.027375825 0.04715895 -0.17965636
0000a0 5c 50 74 bd 01 da 46 bd 77 28 e0 3d 58 21 b8 bd
       -0.05964695 -0.04854775 0.10945218 -0.08990735
0000b0 cb 7b 98 3c 02 fb 6f 3e f3 70 1f 3e 63 9b 24 3d
       0.018613717 0.23435596 0.1557043 0.04018725
0000c0 e9 a6 ad bb 08 80 a8 3d 6b 65 d5 3d f5 52 2b bd
       -0.0052994383 0.08227545 0.104197346 -0.04182716
0000d0 ef 68 7e 3d 24 a3 94 bd d2 68 32 3d 24 99 5c bd
       0.06211179 -0.07257679 0.043556996 -0.053856984
0000e0 52 24 65 3b d4 05 3b bd 38 12 c7 3c 42 fd 44 3d
       0.0034964276 -0.045659855 0.02430068 0.048093088
0000f0 c0 7c 6c bd 1c e3 ee 3c 79 26 d2 3c a8 24 6c bd
       -0.05773616 0.029161029 0.02565311 -0.057652146
000100 6e 9e 40 bd e3 4d a9 3d a5 37 54 3d 9f 53 65 bc
       -0.04702609 0.08266809 0.05181088 -0.013996988
000110 b0 80 7f bc 13 3a ab 3d 00 6a 61 3a 03 52 89 3d
       -0.015594646 0.08360686 0.0008598864 0.067050956
000120 90 52 bd bd 9c a4 99 bd 72 b5 92 bc d0 e0 80 be
       -0.09244263 -0.075021 -0.017908785 -0.25171518
000130 dd 87 28 bd 09 9f 49 3d e3 c3 d0 3d cb aa a4 3d
       -0.041145194 0.049223933 0.101936124 0.08040389
000140 fe ce 8c bb 83 de d3 3d 9e 04 76 3c 79 19 1a bd
       -0.0042971363 0.10345175 0.015015749 -0.03762195
000150 22 f8 18 3d 5a c2 37 3d 25 1e 9d bc e3 6a 9a bd
       0.037346013 0.044863082 -0.019179413 -0.07539918
000160 25 ec b9 3d 55 4c 72 bd a0 61 0f b9 28 c2 a4 3d
       0.09078244 -0.059154827 -0.00013673911 0.08044845
000170 9b e6 14 3d 2e 72 1d bd e2 26 d5 3d 12 1f e8 bc
       0.036352735 -0.03843897 0.10407807 -0.028335128
000180 4b a9 52 3c 23 73 24 bd 63 6f b0 bd c8 cf 4b bd
       0.012857745 -0.040148865 -0.08614995 -0.049758703
000190 54 af df 3d 1d 6b 00 be 51 ff c3 bb 77 a6 6c bd
       0.10922113 -0.1254086 -0.005981364 -0.05777594
0001a0 97 bf 1c bd 06 b4 07 bd 23 83 7d bd 70 87 fd 3c
       -0.03826865 -0.033130668 -0.06189264 0.03094837
0001b0 fd d5 85 3c b2 2d 36 3d b7 10 33 3e 7f 10 a9 3d
       0.01633739 0.044477172 0.17486845 0.082550995
0001c0 cf a7 87 bd cb da 9a bd f3 cf 9e bd 5b 53 bd 3c
       -0.06623804 -0.07561263 -0.07754507 0.023111036
0001d0 19 f8 bc 3c 83 12 12 3d b8 a6 98 bd 0e 08 8e bd
       0.023067521 0.035662185 -0.07453674 -0.0693513
0001e0 84 d2 1d 3d 45 03 d2 bd f5 5c eb bd 4f fa 22 bd
       0.03853084 -0.1025453 -0.114923395 -0.039789494
0001f0 b1 5d 36 bd 48 e6 36 bd 29 44 ee 3c ce 8a 27 bd
       -0.044522945 -0.044653207 0.029085236 -0.04090386
000200 f2 f3 79 3d 28 27 f7 3c 52 5d 68 bd c7 e2 7d bb
       0.06102366 0.030170038 -0.056729622 -0.0038739906
000210 ba 7b 54 3d 20 a8 07 bc b4 f7 9d bd c8 99 a3 bd
       0.051875807 -0.00827983 -0.07713261 -0.07988316
000220 5c 5b af bd f4 9e 2b bc 55 2a 04 3d c6 0a cc 3b
       -0.08562347 -0.010474909 0.032266933 0.00622687
000230 ac 48 8f 3d de e0 eb bc 45 0b 90 3c 5f 88 cd bd
       0.06996283 -0.028793748 0.017583499 -0.10035776
000240 cf 5b 47 3d 49 c0 23 bd ea 3c a9 b9 04 4e 25 3d
       0.04867154 -0.0399783 -0.00032279576 0.040357605
000250 b2 0a 53 3c 3f 23 a8 bd 26 66 cb bd 70 71 e4 bb
       0.012880968 -0.08209848 -0.09931593 -0.0069715306
000260 9f 34 c0 bd 8c 0a df bd 83 f8 3f bd 94 00 59 3d
       -0.09385037 -0.108906835 -0.04686786 0.052979067
000270 d4 ac b9 bc 58 59 bc bc 92 a9 50 bd a8 2c 87 3c
       -0.022665419 -0.022991821 -0.050942965 0.016500786
000280 93 5f 8a 3d 0e b0 5e bd bb b1 c9 3d 96 c6 92 bd
       0.067565106 -0.054367118 0.098483525 -0.071667835
000290 9b 44 05 3d b8 26 52 bd 94 b7 3f bc e5 dd fd bc
       0.03253613 -0.051306456 -0.011701483 -0.030989597
0002a0 41 50 17 bc df 40 94 bd 4a e7 8a bd 33 cc 1e bd
       -0.009235443 -0.07238936 -0.06782396 -0.03876896
0002b0 21 d9 76 3d 8b 19 60 bd bf 39 71 bd a3 50 4e 3c
       0.060265664 -0.05471186 -0.05889296 0.0125924675
0002c0 40 cf 0c bb e8 e6 74 bd 26 80 a3 bd a6 43 7a bc
       -0.0021485835 -0.05979052 -0.07983427 -0.015274918
0002d0 82 21 d3 bd 25 df b4 bc 4b 70 d5 bd d7 3a 03 bd
       -0.103091255 -0.02207906 -0.10421809 -0.032038536
0002e0 5f 64 45 3d 73 6d fe 3c c1 22 a0 3c 13 cf b6 3d
       0.048191424 0.031058049 0.019547822 0.08926215
0002f0 0c 5b 0e bd c4 68 bc bc 97 8a de bc 00 03 dc 3b
       -0.034754798 -0.022999175 -0.027165694 0.006714225
000300 38 40 65 3d 78 e0 c3 3c 8e eb 5b bd d0 16 70 3a
       0.055969447 0.023910746 -0.05369144 0.0009158673
000310 cf 78 f2 3c 72 bd 9a 3a 7b b9 8b bc 6c 64 a6 3c
       0.029598622 0.0011805727 -0.017056217 0.020311557
000320 d3 68 78 bb 62 af 5a bd 8b 3b 1a 3d 53 86 d4 3c
       -0.0037904277 -0.053389914 0.03765444 0.025942957
000330 fe 34 38 3d ef eb c4 3d fd bc 53 bd bc 9a 00 3d
       0.044972412 0.09615313 -0.051693905 0.031397566
000340 7d 33 06 bd dd a4 4d 3d f0 8d 53 3d 6a 8a e9 bc
       -0.032763947 0.050206054 0.051649034 -0.028508384
000350 f1 e9 d9 3c 09 47 91 bc 8e 3d 8b 3d 38 eb a0 bd
       0.02660081 -0.017734068 0.0679885 -0.078573644
000360 1f 86 42 3d af ff 28 3c bb e9 f3 3c d1 e3 46 bd
       0.04749119 0.010314866 0.029774537 -0.048557106
000370 73 ce 9c 3d a1 8c 8f 3d f0 c1 ab 3c 43 62 58 3c
       0.076565646 0.07009245 0.0209665 0.013207021
000380 d3 20 04 be c1 96 e1 bd 50 7e 0a 3c ca f6 0e 3d
       -0.12903146 -0.11015082 0.008452967 0.034903325
000390 fa 86 3d 3d 06 05 7b bb 2b 97 0c bd 1a 95 6c bd
       0.0462713 -0.0038302555 -0.034323853 -0.05775938
0003a0 fe cd ce bd e2 35 d5 bb 6d 7f e7 bd 32 eb 4f bc
       -0.10097884 -0.0065066675 -0.113036014 -0.012690352
0003b0 e2 1e 49 bc 3f c4 dd bd 3f 8b c8 bd 69 63 99 bd
       -0.012275429 -0.108284466 -0.09792184 -0.07489664
0003c0 7c 98 4b 3b eb ed 98 bc 60 1d 2e 3d c0 44 74 bd
       0.003106623 -0.018668136 0.042508483 -0.059635878
0003d0 90 44 5b 3d d4 cb 90 3d 68 6e ff bc f2 df ec 3c
       0.053532183 0.07070127 -0.031180575 0.02891538
0003e0 9a ba 9a bd 6a da 51 3d 72 d2 b7 ba 0c 14 08 bd
       -0.07555123 0.051233687 -0.001402451 -0.033222243
0003f0 14 93 88 bc 97 77 8e bb b2 02 83 bd 17 bd 4b bd
       -0.016671695 -0.0043477523 -0.063969985 -0.049740877

bias f4 [256]
000000 55 75 51 bd 82 6c 81 3d c8 02 94 bb d7 66 d5 bd
       -0.051137287 0.06319524 -0.004516933 -0.10420006
000010 d7 e2 3e bd dc 30 13 bd 31 a6 43 3d 53 26 86 3d
       -0.04660305 -0.035935268 0.047765914 0.065502785
000020 d9 b7 6e 3d 64 34 40 3d e2 16 cd bd 37 67 37 bd
       0.0582808 0.046924964 -0.1001413 -0.044776168
000030 a5 78 2e bd 5b e5 9a bc 4d fe b6 bb 5f 04 ad 3c
       -0.042595524 -0.018908193 -0.0055845142 0.021120248
000040 95 a0 92 bd 6a b6 32 ba f8 b4 df 3d b2 b1 90 3d
       -0.07159535 -0.0006817343 0.10923189 0.07065143
000050 1e b9 00 3d 80 2e bc bd 49 76 4c bd cc b3 c0 bd
       0.03142654 -0.09188557 -0.049917493 -0.094092935
000060 a2 66 20 3d f5 52 c6 bd da 11 54 3d 69 f6 25 ba
       0.03916038 -0.096837915 0.051774837 -0.00063309685
000070 d3 e7 95 3d 57 29 3f 3d 6b b6 32 3d df c9 e9 3c
       0.073196076 0.046670284 0.043631 0.028538642
000080 78 b8 b7 bd 24 25 7e bd e8 e8 0d bd e7 cc 35 bd
       -0.089707315 -0.06204714 -0.034645945 -0.044384863
000090 4b 52 52 3d 50 19 b7 3d 6a c9 16 bd f2 22 b7 3d
       0.051348012 0.08940375 -0.036813177 0.08942212
0000a0 18 5e 3f 3d a1 8f ca bd d1 3a 3b bd 74 f5 17 3d
       0.046720594 -0.09890676 -0.04571039 0.037099317
0000b0 cc 87 1e 3d 6a 6e ed bd ec 6f 7d bc 78 a5 6a ba
       0.038703725 -0.115933254 -0.015468579 -0.00089510484
0000c0 9c 95 1d bd f7 76 a1 bd 70 fc 87 bd 64 cf 6b bb
       -0.038472757 -0.07884019 -0.066399455 -0.0035981769
0000d0 b7 c9 b7 3d 8b 9e bf bd 4e e5 79 bd a0 39 84 bc
       0.08974021 -0.093564115 -0.061009698 -0.016140759
0000e0 b2 18 62 bc 5c 1d e9 bc ba a5 ba 3c 0d c6 96 3d
       -0.013799833 -0.028456382 0.022784103 0.07361994
0000f0 1a a6 25 3d 9c f4 e0 3b a8 9c e3 bc 34 17 7f 3d
       0.04044161 0.006865097 -0.02778466 0.062277988
000100 a0 e0 0a 3d 49 ce 8f bd 50 65 bb bd b6 51 e8 3c
       0.033905625 -0.07021768 -0.09150183 0.028359275
000110 d8 95 db bc 41 e3 d5 bc d5 cd c2 3c 3b 38 c5 bd
       -0.02680485 -0.02610934 0.023779789 -0.09629866
000120 3e f3 e6 bd f0 1e a1 bd 01 20 05 bd 76 4e 2e 3d
       -0.112768635 -0.07867229 -0.032501224 0.042555295
000130 ea 61 3d bd 48 65 e4 bc 40 ea 7f 3c 34 a3 d1 3d
       -0.046235956 -0.027880326 0.015619814 0.10236207
000140 b0 18 a3 bd 88 78 63 3c 9f 35 34 bd 7a a2 6d bd
       -0.07963693 0.013883717 -0.04399645 -0.058016278
000150 e5 a2 d5 3c a9 f3 d0 bc ed 62 1d 3d c4 ea c3 bd
       0.02607865 -0.025506811 0.03842442 -0.09566262
000160 24 8f 86 bd d0 27 77 bd cc 94 31 3c 67 db 65 bd
       -0.06570271 -0.060340703 0.010838699 -0.05611744
000170 14 88 82 bc 3e a7 f6 ba 92 7e b7 bd ed fe 1a 3d
       -0.015934028 -0.0018818153 -0.08959688 0.037840772
000180 c2 ba 50 3c 37 e4 10 bc 18 d2 79 3c 08 38 31 bd
       0.012739839 -0.008843473 0.015247844 -0.043266326
000190 2d c3 27 bd 3d 70 88 3d b7 e7 9b bc a9 b6 f5 bc
       -0.04095762 0.06662033 -0.019031389 -0.029994326
0001a0 7f 5e bd bc 36 12 b8 bd b2 ce de 39 2b 72 9a 3d
       -0.023116348 -0.089878485 0.0004249714 0.07541307
0001b0 bc 5f d6 3c 35 f6 33 bd 05 19 54 3c 5b 2e 83 3c
       0.026168697 -0.043935973 0.012945418 0.016013315
0001c0 fc e4 78 bd 1c 78 e4 3c 23 30 37 bd 24 3b 70 3d
       -0.06076525 0.027889304 -0.04472364 0.05865015
0001d0 11 24 63 3d 56 68 ca bd 36 4b bf bd 04 b4 d3 3c
       0.055454317 -0.09883182 -0.09340517 0.025842674
0001e0 2a 54 b0 bd 04 1e 55 bd ea 1c 22 bd 80 c6 04 3c
       -0.08609803 -0.05203058 -0.039578356 0.008103967
0001f0 b0 48 00 3d b1 3e 80 b7 65 c6 3c bd 98 7d c9 bc
       0.03131932 -1.5287982e-05 -0.04608764 -0.02459602
000200 aa 22 9e bd fb e7 3e bc 18 10 9d bd 42 a0 78 bc
       -0.077214554 -0.011651988 -0.07669085 -0.015174927
000210 07 db 68 bd 10 c3 ef bd e4 29 8a 3d 3c 7f 6f bd
       -0.056849506 -0.11707127 0.06746271 -0.05847095
000220 25 f1 8b bd f2 a1 d9 3c fa db 89 bc ba 27 7a 3c
       -0.06833104 0.02656648 -0.016828526 0.015268261
000230 a8 b2 c6 bd 04 67 37 bc 95 13 cc bc 4c 6d 2c bd
       -0.09702045 -0.011193994 -0.024911681 -0.04209642
000240 34 99 a8 3d b1 03 bf bd 1f 23 17 3d 76 2f a4 3b
       0.08232346 -0.09326876 0.03689873 0.0050105406
000250 39 39 25 bd d1 49 9e 3c f4 bb 30 bd 0b 51 a5 bd
       -0.040337775 0.019322308 -0.043147996 -0.08072098
000260 6f 42 87 bd 25 c2 a0 3b a5 ce 47 3d 72 75 31 bb
       -0.06604468 0.0049059563 0.048781056 -0.002707806
000270 2c c6 ae bd fa 12 cb 3c 83 15 9b bd a9 ae 88 3d
       -0.08533892 0.024789322 -0.075724624 0.06673939
000280 38 f2 b1 bd 12 1c a5 bd 12 a4 d9 bc c1 2a f2 bd
       -0.08688778 -0.080619946 -0.026567493 -0.11824561
000290 ab 05 8e bb 05 d9 4f bc 22 c6 81 bc 7e 32 87 3d
       -0.004334172 -0.012686019 -0.015841547 0.066014275
0002a0 8f 59 84 bd dd d9 3d bd c6 4d f2 3c 9a 55 02 3c
       -0.064623944 -0.04635035 0.0295781 0.007954979
0002b0 6b a2 d1 3c 06 19 3f 3c f8 5d ea bd 7f 1f e3 bd
       0.025590142 0.011663681 -0.11443704 -0.11089992
0002c0 8b 8e a4 3c 40 2c ae 3d 3c 56 ce bd c5 30 2c bc
       0.020087501 0.08504534 -0.10075042 -0.010509674
0002d0 ae 8d cc bd 4c be bd 3c 06 20 ef bc ae ed ea bc
       -0.09987961 0.02316203 -0.029190075 -0.028677788
0002e0 66 ad b0 bd b3 ec 9a bd 59 7a 8b bd ef ba 22 3b
       -0.08626823 -0.07564678 -0.06810445 0.002483066
0002f0 90 04 e3 bd aa ec 10 3d c5 af a1 bd 49 aa 4f bd
       -0.110848546 0.03538195 -0.078948535 -0.050699506
000300 bb 1c 04 bd b5 d2 96 3d d3 73 3a 3d dd 53 44 3d
       -0.032253962 0.07364408 0.045520615 0.04793154
000310 93 20 7d 3b 55 d6 74 3c 0c 53 67 3c 1d 6f e0 bc
       0.0038624152 0.014943679 0.014118921 -0.027396733
000320 d3 f1 82 3d dd 51 60 bd 66 08 06 be 41 a2 bf bd
       0.063937806 -0.05476557 -0.13089141 -0.09357119
000330 cf a8 d1 3c 94 39 f0 bd 93 4d 3b bc 9b 73 53 bd
       0.02559319 -0.11729732 -0.011432069 -0.05162392
000340 b3 0d ac bd 03 f1 e7 bd d8 5c 05 bd d1 b1 91 bd
       -0.084010504 -0.11325266 -0.032559246 -0.07113994
000350 e4 4b 9f ba c7 8f 0b 3d d7 09 9b 3c 5a d8 aa bd
       -0.0012153354 0.034072664 0.01892559 -0.08342047
000360 56 78 21 bd 42 0f 4c bc 34 3e 99 3c ee 88 19 bd
       -0.039421402 -0.01245481 0.018706419 -0.037484102
000370 35 14 20 3d ec 16 b2 3c 1c 4e 3c bd 1d 43 96 3d
       0.03908177 0.021739446 -0.04597293 0.073370196
000380 16 0e 36 3d 8c 4c 88 bb 10 20 13 bc bf dd 3f 3d
       0.044447027 -0.0041595157 -0.008979812 0.046842333
000390 9c ca 17 b9 a0 a1 67 bd ba c5 5e 3c 8a fb d5 bd
       -0.0001447596 -0.056550622 0.013596946 -0.10448368
0003a0 ef c0 a1 39 c6 87 85 3c 68 f4 36 bd be 05 80 bd
       0.0003085206 0.016300093 -0.044666678 -0.06251095
0003b0 cd 2d 84 bd a8 3e 88 bd 62 07 dc 3c 1f 4c 18 bc
       -0.06454048 -0.06652576 0.02685899 -0.009295492
0003c0 32 86 e9 bc 99 12 a5 3b c7 be 6a bd cd 34 9a 3c
       -0.028506372 0.0050376174 -0.057310846 0.018824005
0003d0 a8 59 c0 bc 2a ae 72 3d 1f e4 80 bb b4 6e 8a bd
       -0.023480251 0.059248127 -0.003933444 -0.06759396
0003e0 a1 34 73 3d 68 1f db 3c 7b f0 dc bc 89 07 b0 bd
       0.059376363 0.026748374 -0.026970139 -0.08595187
0003f0 3f b2 aa bd 0c 73 f2 bd 00 b8 e2 bd 81 59 4d bd
       -0.08334779 -0.1183835 -0.110702515 -0.050134186
