src/saved_models/grid_world_seed125_8_5_13_56/125_41_model.pt (torch, 702535 bytes, 11 tensors)

FC1.weight f4 [256, 36]
0.10139703 0.082531095 -0.05711586 -0.07489293 -0.07106573 -0.039887518 0.042349655 0.038051143
0.14060926 0.037692018 -0.0020593235 0.16366087 -0.030463139 0.029207936 -0.055564377 0.19502808
0.055240966 -0.07928998 -0.068256035 0.21057338 0.15385795 -0.08066265 0.007018263 0.08438969
-0.11302681 0.01764393 0.13169953 -0.05820249 -0.030065339 -0.027223187 0.13195823 0.021329701
-0.11832699 -0.061408397 0.108477846 0.1291322 0.03758886 -0.05324429 0.019325132 -0.10836768
0.08501089 -0.11131797 0.029498113 -0.012643931 0.16361818 0.15069903 -0.17570114 -0.17842603
0.0013882818 0.11896587 0.11833771 -0.018325126 0.085915655 -0.05233596 -0.022878846 0.041067164
-0.11532665 -0.00919549 0.067997344 0.113182604 -0.12706526 -0.11393591 -0.028367672 0.09176666
-0.11713745 -0.11040024 -0.12430996 -0.049432673 -0.003919021 -0.05368734 -0.1320722 0.091276124
0.06956991 0.0071244966 -0.0437263 0.07704198 0.06938796 -0.13667415 -0.047951803 0.10131345
0.085557416 -0.08000503 -0.0014523983 0.04708081 -0.09343014 -0.084414884 0.001993798 -0.029642709
0.034001317 -0.044724416 0.07792036 -0.1550175 -0.049780894 -0.07642421 -0.16944252 -0.14553104
0.04035323 0.09122258 0.12950155 0.035430074 -0.044889137 0.110715896 -0.1105882 -0.011198775
-0.023542197 -0.004312534 0.018656699 -0.06489253 0.10060571 0.063455485 -0.0944276 0.02283124
-0.044851873 0.032568082 -0.060046595 0.009489898 0.098283075 -0.13989751 0.18940933 -0.1657111
0.04367222 0.16988005 0.13067368 -0.09104967 0.06438178 -0.02176285 0.012240384 -0.095737144
0.14889397 -0.06335448 -0.021756317 -0.019175893 0.13237923 -0.053881623 -0.115306005 0.11615215
0.06603401 0.15001115 -0.0076469914 0.03885213 -0.027965475 0.1958337 0.10352692 -0.013840899
-0.022428403 0.06066751 0.09070739 -0.10991888 -0.0756722 0.017053476 0.082959086 -0.1318111
0.07713538 -0.14782774 -0.123120874 0.05098544 0.092686534 0.01655996 -0.017265564 -0.15423343
0.019698042 0.10814985 0.0741618 0.09599421 -0.020669388 -0.086022004 0.059876446 0.07601561
0.07375955 0.16976345 -0.10482145 -0.1747685 -0.16340566 0.14275083 -0.04759757 0.0647964
-0.07799688 -0.15188134 -8.009648e-06 -0.1303975 -0.06787224 -0.07230155 0.08495715 -0.09852478
0.06738102 0.0671075 0.0689642 0.12130426 0.16045946 0.058041092 -0.01271029 -0.07349555
-0.14652698 0.12320174 0.038503315 -0.10574154 0.09785328 0.017886966 -0.090673395 -0.15577191
0.14725247 -0.06462557 0.10364523 0.025473466 -0.12744504 -0.14158942 -0.07110908 -0.11303637
0.074926324 -0.04502361 0.10430146 -0.16493051 0.09481612 -0.15318394 -0.17109539 -0.104084
0.1098325 -0.17922853 -0.017563982 -0.19864944 -0.13595517 0.11579148 0.03977949 0.07632853
0.019074218 0.031560253 0.046804167 -0.14421916 -0.016127732 -0.030742658 -0.19446331 0.060238168
0.17372951 -0.041587852 0.15887462 -0.061577205 -0.14093141 -0.008480999 -0.06510544 -0.10174673
-0.04191958 -0.029610138 0.115974456 -0.09287241 -0.03315593 -0.104742765 0.043973465 0.11728842
0.05452909 -0.021382337 0.12999591 0.14223309 0.075517 0.045723796 0.0065814354 -0.08506876
00000000: 3fa9 cf3d 1006 a93d 52f2 69bd 7761 99bd
00000010: e98a 91bd 1861 23bd d576 2d3d 84db 1b3d
00000020: e0fb 0f3e f262 1a3d b7f5 06bb b796 273e
00000030: d58d f9bc 7b45 ef3c 7997 63bd 71b5 473e
00000040: 5a44 623d c962 a2bd d2c9 8bbd 8ca0 573e
00000050: f08c 1d3e 7632 a5bd 75f9 e53b 80d4 ac3d
00000060: 9a7a e7bd 018a 903c 3edc 063e bc65 6ebd
00000070: 964b f6bc 2903 dfbc 0f20 073e a0bb ae3c
00000080: 6c55 f2bd 5f87 7bbd a229 de3d 3b3b 043e
00000090: c7f6 193d af16 5abd bd4f 9e3c e0ef ddbd
000000a0: 311a ae3d adfa e3bd 07a6 f13c 7e28 4fbc
000000b0: 868b 273e d950 1a3e 00eb 33be 50b5 36be
000000c0: 02f7 b53a 61a4 f33d 0b5b f23d 931e 96bc
000000d0: 8cf4 af3d 3b5e 56bd 6b6c bbbc 0b36 283d
000000e0: 6130 ecbd aea8 16bc 3142 8b3d 48cc e73d
000000f0: 651d 02be 3b57 e9bd 5263 e8bc 29f0 bb3d
00000100: c2e5 efbd 8519 e2bd 3896 febd ea79 4abd
00000110: 226b 80bb 42e7 5bbd ef3d 07be faee ba3d
00000120: ab7a 8e3d 9c74 e93b 591a 33bd 30c8 9d3d
00000130: 461b 8e3d 4ff4 0bbe 1c69 44bd 6d7d cf3d
00000140: ba38 af3d add9 a3bd 665e beba cfd7 403d
00000150: 4d58 bfbd b6e1 acbd 61aa 023b 44d5 f2bc
00000160: f744 0b3d f330 37bd b694 9f3d e8bc 1ebe
00000170: 0de7 4bbd 4c84 9cbd 5782 2dbe 1706 15be
00000180: 6e49 253d e7d2 ba3d 0e9c 043e 201f 113d
00000190: acdd 37bd 04bf e23d 117c e2bd 117b 37bc
000001a0: 91db c0bc 2850 8dbb efd5 983c 60e6 84bd
000001b0: 5e0a ce3d f3f4 813d 4263 c1bd 9508 bb3c
000001c0: 99b6 37bd 1c66 053d 6bf3 75bd 847b 1b3c
000001d0: a348 c93d 4b41 0fbe 85f4 413e 2cb0 29be
000001e0: a4e1 323d 09f5 2d3e 52cf 053e 4078 babd
000001f0: 98da 833d 0148 b2bc e48b 483c d611 c4bd
00000200: a977 183e febf 81bd 4e3a b2bc c316 9dbc
00000210: 6c8e 073e fab2 5cbd 8e25 ecbd 2ee1 ed3d
00000220: d73c 873d 869c 193e 9d93 fabb 6923 1f3d
00000230: da17 e5bc a188 483e ec05 d43d f0c4 62bc
00000240: c5bb b7bc 7f7e 783d ccc4 b93d 261d e1bd
00000250: 07fa 9abd bbb3 8b3c 74e6 a93d 7df9 06be
00000260: 27f9 9d3d 2860 17be cc26 fcbd 1cd6 503d
00000270: 70d2 bd3d c1a8 873c 8370 8dbc 5eef 1dbe
00000280: ca5d a13c ab7d dd3d 24e2 973d 9d98 c43d
00000290: d952 a9bc 4e2c b0bd 0141 753d 12ae 9b3d
000002a0: 3f0f 973d 78d6 2d3e a1ac d6bd 83f6 32be
000002b0: d053 27be 462d 123e abf5 42bd fab3 843d
000002c0: d4bc 9fbd c886 1bbe 2d61 06b7 ec86 05be
000002d0: 9a00 8bbd d612 94bd 04fe ad3d 5cc7 c9bd
000002e0: 0fff 893d a86f 893d 1a3d 8d3d 5e6e f83d
000002f0: 7c4f 243e 7fbc 6d3d d23e 50bc d684 96bd
00000300: 2b0b 16be 3251 fc3d a7b5 1d3d 058f d8bd
00000310: 4d67 c83d b087 923c f9b2 b9bd ac82 1fbe
00000320: 5ac9 163e 695a 84bd f343 d43d bbad d03c
00000330: f480 02be d1fc 10be a3a1 91bd 9d7f e7bd
00000340: f972 993d ad6a 38bd 019c d53d 8be3 28be
00000350: f42e c23d 40dc 1cbe a133 2fbe fe29 d5bd
00000360: ddef e03d af87 37be 57e2 8fbc c26a 4bbe
00000370: d537 0bbe 1524 ed3d d2ef 223d 2252 9c3d
00000380: 8941 9c3c 5345 013d bab5 3f3d 30ae 13be
00000390: 4e1e 84bc 07d8 fbbc 6421 47be 4cbc 763d
000003a0: 26e6 313e 0658 2abd 07b0 223e 6138 7cbd
000003b0: 5350 10be e3f3 0abc 0056 85bd 9760 d0bd
000003c0: deb3 2bbd f690 f2bc 0484 ed3d e433 bebd
000003d0: 83ce 07bd 6083 d6bd 851d 343d e934 f03d
000003e0: e559 5f3d 032a afbc a61d 053e 8da5 113e
000003f0: a8a8 9a3d e048 3b3d 15a9 d73b 8838 aebd

FC1.bias f4 [256]
0.23425959 -0.14846933 0.078624226 -0.03862105 0.13533859 -0.15730375 0.12685151 0.09427912
0.10433887 -0.11888423 -0.06659759 0.16916549 0.0946119 -0.13546966 0.014838362 0.116571836
-0.087876 0.070355296 0.020103844 -0.12558754 -0.10086384 0.118230715 0.078579426 0.12739493
0.14566857 -0.124809735 0.12748614 -0.0023742253 0.124191985 0.016459327 0.013417843 0.1472285
0.12668695 0.027075576 0.03343255 0.14830479 0.12108681 -0.022147702 -0.11977918 0.06378297
0.014769185 0.102776945 0.124340825 -0.021918632 0.063815586 0.14856939 0.107559085 0.104492754
-0.025841575 -0.01990495 -0.069346294 -0.022923455 -0.054055315 0.15160333 -0.11082155 -0.06862893
0.04031959 0.07642323 0.091005705 0.08035353 -0.09133991 -0.028616875 0.07604525 -0.058105722
0.18098798 0.0477123 -0.10999824 0.1378838 0.10889744 -0.024102207 0.1462435 0.045008946
-0.08299057 -0.09403211 0.027833082 0.036130745 0.18380369 -0.12690645 0.11631321 0.14715397
-0.051517554 0.19743158 0.1243512 0.11407008 0.053489394 -0.06593901 -0.016629677 0.15197992
-0.12511915 -0.11902374 -0.009039406 -0.04149678 -0.094762616 0.12753466 -0.05913791 0.1392819
-0.010565855 0.026115423 0.013615651 0.0033464294 0.0016289781 0.12301002 0.08619318 0.17337078
0.08869045 -0.016005935 -0.06914723 0.07146026 -0.06418402 0.15327027 0.045627974 0.02807188
-0.05076241 -0.075139605 0.12593931 0.061569836 0.15276319 0.20050377 -0.0466608 0.15971966
-0.03042168 0.18942453 -0.027736686 0.0033284768 -0.016778886 -0.13679244 0.10259545 0.01973484
0.1629639 0.11134741 -0.040991914 0.13718356 0.05743195 0.16984653 0.17013128 -0.1745279
0.07163695 -0.0945958 -0.091363646 0.098695114 -0.10489843 -0.026523687 0.14205004 -0.011952667
0.09743564 0.123868376 0.051781934 -0.058996927 -0.07272152 0.1448808 0.007575783 0.1686185
-0.09177106 -0.08360429 -0.11739583 0.105848275 0.14911029 -0.083801284 -0.013232918 0.032662764
0.15903533 0.092824124 0.049780224 -0.08209181 -0.012669873 -0.0005379022 -0.10945255 0.115133375
-0.1401767 0.020673372 -0.02074317 -0.014879609 -0.15768078 -0.084074266 0.19105588 0.025861721
-0.09338161 -0.06051384 0.04044568 0.08475119 0.08531094 0.1803453 0.14200915 0.037450455
0.17732939 0.122586496 -0.0076080095 -0.036006343 0.16645123 -0.10088004 0.13409886 0.10240783
0.004266417 0.01780022 -0.025438543 0.16291578 0.1334333 0.09525201 -0.0052317088 -0.15382078
0.061845433 -0.06849854 0.08130258 0.1991653 -0.0929794 -0.1058795 -0.10472188 -0.070202686
-0.089423046 0.03305169 -0.033487555 -0.0041023847 0.049904775 -0.09005112 0.04230663 -0.100510396
0.109993786 0.13148543 0.08157736 0.11587308 0.0129451025 -0.08136381 -0.032936428 -0.02909152
-0.12868713 0.17565393 0.0059056706 0.14516692 -0.010112984 0.15308776 -0.119529665 -0.01945966
0.08624044 0.13045968 0.08117126 -0.09413959 -0.09741294 -0.078631945 0.15601656 -0.13596956
-0.033479936 -0.139487 -0.021832516 -0.05724719 -0.056396425 0.015052728 0.16946256 0.02762062
-0.13571586 -0.16795008 0.035783038 0.18465874 -0.0694116 -0.055502877 -0.037625793 -0.04035116
00000000: bfe1 6f3e 5808 18be bd05 a13d 1b31 1ebd
00000010: 3396 0a3e 3c14 21be 5de5 013e 6915 c13d
00000020: 9eaf d53d 9379 f3bd 5164 88bd b839 2d3e
00000030: e2c3 c13d 8fb8 0abe 9a1c 733c 37bd ee3d
00000040: 55f8 b3bd 7016 903d d1b0 a43c 059a 00be
00000050: b391 cebd f222 f23d 40ee a03d d173 023e
00000060: 242a 153e 3f9c ffbd ba8b 023e e498 1bbb
00000070: 5e58 fe3d b6d5 863c 83d6 5b3c 11c3 163e
00000080: 39ba 013e 99cd dd3c 92f0 083d 36dd 173e
00000090: 5dfc f73d 196f b5bc c94e f5bd a5a0 823d
000000a0: 74fa 713c b87c d23d 67a6 fe3d b48e b3bc
000000b0: bfb1 823d 9322 183e f047 dc3d 4c00 d63d
000000c0: b6b1 d3bc b50f a3bc 6e05 8ebd f8c9 bbbc
000000d0: 1b69 5dbd e73d 1b3e 69f6 e2bd 538d 8cbd
000000e0: 2826 253d c883 9c3d 3361 ba3d 6490 a43d
000000f0: 6b10 bbbd f06d eabc 9dbd 9b3d 4400 6ebd
00000100: ea54 393e f96d 433d c246 e1bd 6931 0d3e
00000110: 9f05 df3d fe71 c5bc dbc0 153e 4d5b 383d
00000120: f6f6 a9bd e893 c0bd 3402 e43c d5fd 133d
00000130: 0937 3c3e c4f3 01be 9f35 ee3d 88af 163e
00000140: 1204 53bd 812b 4a3e d8ab fe3d 939d e93d
00000150: b217 5b3d 080b 87bd f63a 88bc a0a0 1b3e
00000160: 3c1f 00be b8c2 f3bd 041a 14bc 87f8 29bd
00000170: e712 c2bd 7298 023e 983a 72bd ea9f 0e3e
00000180: 681c 2dbc 03f0 d53c 2e14 5f3c c54f 5b3b
00000190: 6f83 d53a adec fb3d 0d86 b03d 1c88 313e
000001a0: 57a3 b53d e11e 83bc 109d 8dbd c259 923d
000001b0: e972 83bd e2f2 1c3e 66e4 3a3d 00f7 e53c
000001c0: 3fec 4fbd cbe2 99bd 3cf6 003e a730 7c3d
000001d0: f46d 1c3e dc50 4d3e 651f 3fbd 8d8d 233e
000001e0: e336 f9bc 81f8 413e 0c38 e3bc 9322 5a3b
000001f0: e073 89bc 5113 0cbe 901d d23d f6aa a13c
00000200: 02e0 263e 1c0a e43d 23e7 27bd d979 0c3e
00000210: c43d 6b3d 40ec 2d3e e536 2e3e 71b7 32be
00000220: 65b6 923d 71bb c1bd dd1c bbbd aa20 ca3d
00000230: fdd4 d6bd 3448 d9bc 9175 113e 1ed5 43bc
00000240: 568c c73d b4ae fd3d 4b19 543d c3a6 71bd
00000250: 05ef 94bd a25b 143e 463e f83b 54aa 2c3e
00000260: 77f2 bbbd ba38 abbd 3a6d f0bd fbc6 d83d
00000270: 5eb0 183e 02a0 abbd e2ce 58bc 64c9 053d
00000280: 28da 223e 931a be3d 59e6 4b3d c01f a8bd
00000290: 4d95 4fbc 0102 0dba a928 e0bd 0ccb eb3d
000002a0: 7b8a 0fbe 345b a93c 95ed a9bc 9bc9 73bc
000002b0: 1277 21be 212f acbd 27a4 433e f6db d33c
000002c0: dc3e bfbd 5cdd 77bd 5faa 253d 0892 ad3d
000002d0: 81b7 ae3d 70ac 383e d96a 113e a665 193d
000002e0: d695 353e a10e fb3d 9c4c f9bb 637b 13bd
000002f0: 3172 2a3e 329a cebd 3651 093e 32bb d13d
00000300: 4dcd 8b3b c4d1 913c 7e64 d0bc 65d3 263e
00000310: bda2 083e 7c13 c33d c16e abbb 3283 1dbe
00000320: a351 7d3d f648 8cbd f881 a63d fdf1 4b3e
00000330: fc6b bebd 5ad7 d8bd 6d78 d6bd 6dc6 8fbd
00000340: 6e23 b7bd 3561 073d 3f2a 09bd 4c6d 86bb
00000350: f368 4c3d b96c b8bd b849 2d3d 65d8 cdbd
00000360: 6c44 e13d 1ea4 063e 0812 a73d de4e ed3d
00000370: b217 543c 12a2 a6bd 59e8 06bd 5751 eebc
00000380: 8fc6 03be a0de 333e 5b84 c13b a3a6 143e
00000390: eeb0 25bc 0ac3 1c3e f8cb f4bd dd69 9fbc
000003a0: d49e b03d 3997 053e 1e3d a63d 42cc c0bd
000003b0: 6f80 c7bd c909 a1bd cec2 1f3e 9b3b 0bbe
000003c0: 4222 09bd aed5 0ebe 1bda b2bc 087c 6abd
000003d0: f0ff 66bd b89f 763c 9887 2d3e a344 e23c
000003e0: 19f9 0abe 1bfb 2bbe 3c91 123d 2e17 3d3e
000003f0: ab27 8ebd fc56 63bd 811d 1abd 4247 25bd

FC2.weight f4 [256, 256]
0.096366465 0.05751484 -0.029485168 0.00025227954 0.031298272 -0.028868651 -0.011880961 0.022387715
0.061129257 -0.0066022617 0.09132867 0.11541743 0.027140034 -0.028027432 0.0812026 0.09370762
-0.037926923 0.08554045 -0.015365228 0.063414365 0.07513998 0.064220585 0.06927932 0.05010093
0.0826046 0.051152993 0.038477648 0.05005496 0.06291346 0.047600843 -0.00040408885 0.033125043
0.06195178 -0.0076835514 0.047809258 0.013363454 0.04372412 -0.02233456 0.008970266 0.02755498
0.013761398 0.07042138 0.06315432 0.05560999 0.040678218 0.058978803 0.048249464 0.041557614
0.009542228 0.08038235 0.015117151 -0.016729878 -0.031437688 0.067334905 0.08089202 0.03171789
0.07797554 0.055920158 -0.025551748 0.004794854 -0.015973067 0.06228887 0.06407357 -0.029105805
-0.027789494 0.023390729 0.07751736 -0.014020234 -0.031772632 -0.025936214 0.07209774 0.10973192
0.043902785 0.021774624 0.045892015 -0.058397453 0.0730004 0.013659389 0.012370255 0.0064854957
-0.0021153952 0.04900852 -0.012473468 0.03163477 -0.0053073745 0.0017619818 0.041364066 0.024297234
0.047659375 -0.052719023 0.012123755 0.10130752 0.07194596 0.08993816 0.018233927 -0.028033277
-0.003931176 -0.0328905 0.08557122 -0.019347489 0.08718119 0.06003171 0.0793902 -0.035146896
0.01386081 0.07896713 0.07678154 0.03113576 -0.06395362 -0.019698013 0.05831732 0.06885032
0.050123956 0.08845637 0.0512067 0.06373348 0.052739076 0.08088933 0.06813783 -0.035259698
-0.013270652 0.0537502 0.046878416 -0.014774537 0.027506806 0.058956053 -0.0062298127 0.058340594
0.08035825 -0.0019034512 0.06992875 0.011226592 0.0018144574 -0.012676783 0.076969065 -0.026183465
0.08710535 0.07140627 0.040143535 0.08451535 -0.007050833 0.08986734 0.028387548 0.04166365
0.053657472 0.06152886 -0.03179738 0.048689026 0.04503338 0.020178255 0.04004627 -0.0020846722
0.037043914 0.022465484 0.05613399 0.020588418 0.036104232 0.033702854 0.0131977415 0.0151409255
0.026089597 0.0144688245 0.1043928 0.068054914 0.011676583 0.057762273 -0.033027586 0.08272289
-0.019593844 0.08644964 -0.036076516 0.03394901 0.0151203815 0.047236796 0.08287773 -0.041153084
0.045487825 0.036589675 -0.0013982799 0.08714018 0.06857004 0.0071742525 0.01692144 0.11108944
0.09069404 0.06903456 0.03848027 -0.013930273 -0.030628154 0.013737841 -0.034603268 0.06155906
0.06823629 0.08269639 0.041091766 0.0873615 0.009821905 0.044831764 -0.010622962 -0.0023473604
0.031627055 -0.00086940813 0.032085635 0.01715239 0.033069797 -0.023350166 0.023534022 0.061579708
-0.022360988 0.016129408 0.09479566 0.014345435 0.04708424 0.037870936 0.0011899462 -0.0404928
-0.019735828 0.021271627 0.051503744 -0.033237047 0.040132698 0.032384273 0.0930975 0.08947164
0.065728225 0.068522245 0.07257819 0.050637953 -0.012369489 0.009158361 0.04340967 0.023249121
0.06627014 -0.014773528 0.036702037 0.078007065 0.08472367 0.009298458 -0.0055048163 0.073227175
0.061964694 0.040942065 0.061332565 0.09845796 0.075237714 -0.053730413 0.06989503 0.061635215
-0.04509035 -0.027069375 0.01954612 0.026606964 -0.0082942415 0.039437037 0.037254788 0.078085616
00000000: c85b c53d ae94 6b3d e18a f1bc 6344 8439
00000010: 9e32 003d f37d ecbc 5da8 42bc 7166 b73c
00000020: ac62 7a3d c957 d8bb 870a bb3d f95f ec3d
00000030: c754 de3c c999 e5bc 8c4d a63d c8e9 bf3d
00000040: 4359 1bbd d52f af3d 70be 7bbc 64df 813d
00000050: fde2 993d 1586 833d 51e2 8d3d a236 4d3d
00000060: 9a2c a93d cd85 513d bd9a 1d3d 6e06 4d3d
00000070: c6d8 803d 1af9 423d e3db d3b9 20ae 073d
00000080: 26c1 7d3d 4dc6 fbbb a4d3 433d 63f2 5a3c
00000090: 1018 333d f8f6 b6bc 06f8 123c fbba e13c
000000a0: 7d77 613c 1639 903d 0d57 813d 4dc7 633d
000000b0: 349e 263d c293 713d 3ba1 453d 5138 2a3d
000000c0: 0157 1c3c 809f a43d edad 773c 190d 89bc
000000d0: cec4 00bd e2e6 893d b7aa a53d 9eea 013d
000000e0: a4b1 9f3d 890c 653d e651 d1bc 271e 9d3b
000000f0: f3d9 82bc 9d22 7f3d 0139 833d 4c6f eebc
00000100: cba6 e3bc ea9d bf3c 6cc1 9e3d 20b5 65bc
00000110: 0524 02bd 2f78 d4bc fba7 933d 21bb e03d
00000120: 68d3 333d b260 b23c 44f9 3b3d 2b32 6fbd
00000130: 3c81 953d a1cb 5f3c 9cac 4a3c 4884 d43b
00000140: 71a2 0abb 28bd 483d 845d 4cbc 7693 013d
00000150: 7ce9 adbb 4cf2 e63a 5e6d 293d fe0a c73c
00000160: 7a36 433d e7ef 57bd b7a2 463c 517a cf3d
00000170: 6758 933d 7f31 b83d 515f 953c 0ba6 e5bc
00000180: 18d1 80bb 30b8 06bd f73f af3d a07e 9ebc
00000190: 0d8c b23d cfe3 753d 5497 a23d 31f6 0fbd
000001a0: 7318 633c 85b9 a13d a43f 9d3d 6c10 ff3c
000001b0: 1efa 82bd ba5d a1bc 24de 6e3d 6601 8d3d
000001c0: c74e 4d3d 9d28 b53d 1ebe 513d b386 823d
000001d0: ee04 583d 4ea9 a53d d98b 8b3d 796c 10bd
000001e0: 266d 59bc 2b29 5c3d 9503 403d e610 72bc
000001f0: f455 e13c e77b 713d 7523 ccbb 8cf6 6e3d
00000200: de92 a43d 397d f9ba ce36 8f3d bdef 373c
00000210: 16d3 ed3a 48b2 4fbc f5a1 9d3d b57e d6bc
00000220: 4a64 b23d 733d 923d 8c6d 243d 6216 ad3d
00000230: ad0a e7bb 5e0c b83d 018d e83c 81a7 2a3d
00000240: f0c7 5b3d b005 7c3d f83d 02bd 256e 473d
00000250: ec74 383d de4c a53c 8f07 243d ff9e 08bb
00000260: 5cbb 173d 8909 b83c c1ec 653d 0ba9 a83c
00000270: 08e2 133d 010c 0a3d 573b 583c a511 783c
00000280: dab9 d53c a60e 6d3c e4cb d53d 6060 8b3d
00000290: 244f 3f3c 2298 6c3d ef47 07bd 9e6a a93d
000002a0: 4583 a0bc 820c b13d f8c4 13bd 1e0e 0b3d
000002b0: 7abb 773c 5f7b 413d cdbb a93d 2390 28bd
000002c0: 7151 3a3d 0edf 153d 7d46 b7ba 8d76 b23d
000002d0: 736e 8c3d fe15 eb3b d59e 8a3c dc82 e33d
000002e0: ccbd b93d fe61 8d3d 7d9d 1d3d cd3b 64bc
000002f0: e5e7 fabc ae14 613c 28bc 0dbd 5a25 7c3d
00000300: 78bf 8b3d ba5c a93d d74f 283d 96ea b23d
00000310: 0eec 203c 83a1 373d ef0b 2ebc 2cd6 19bb
00000320: 5f8b 013d fee8 63ba 3a6c 033d 2b83 8c3c
00000330: 3274 073d d948 bfbc 6cca c03c 013b 7c3d
00000340: 642e b7bc d221 843c 3a24 c23d 1e09 6b3c
00000350: 67db 403d 8e1e 1b3d f8f7 9b3a c7db 25bd
00000360: 08ad a1bc d641 ae3c 97f5 523d 9223 08bd
00000370: 2f62 243d 5fa5 043d e7a9 be3d e83c b73d
00000380: 859c 863d 6455 8c3d e0a3 943d be69 4f3d
00000390: 66a9 4abc f30c 163c 57ce 313d f174 be3c
000003a0: a4b8 873d ab0c 72bc e054 163d 2bc2 9f3d
000003b0: 9a83 ad3d 8f58 183c bf61 b4bb 21f8 953d
000003c0: b1ce 7d3d deb2 273d db37 7b3d 54a4 c93d
000003d0: 3b16 9a3d 6c14 5cbd 2025 8f3d 3575 7c3d
000003e0: a9b0 38bd 98c0 ddbc 2f1f a03c d9f6 d93c
000003f0: 92e4 07bc bb88 213d 7a98 183d 5aeb 9f3d

FC2.bias f4 [256]
-0.0013116983 -0.010942312 0.11703846 0.026909735 -0.025042908 0.030648103 0.02568658 0.010627914
0.014274801 0.014488365 0.069879085 0.0910995 -0.005763049 0.005575919 0.04018562 0.03523118
-0.04872071 -0.038047794 -0.008725145 0.03284677 0.01110981 0.063663386 0.048538763 -0.0077867904
-0.0009739877 -0.009818844 -0.03270954 0.041985173 -0.015090823 0.0155216055 -0.015425892 0.035009
-0.06559581 0.033907335 0.06836595 0.016613284 0.0021885072 0.027977875 0.09136221 0.000100765734
0.079950474 -0.018812105 0.0009697186 -0.004070047 -0.034594197 -0.06732097 -0.031643998 0.06970185
0.0128688 0.04212885 -0.03772993 0.045364138 -0.015628222 0.08933558 0.009286027 0.0023118097
-0.015390019 -0.0043270024 -0.036977105 0.06273862 -0.03603154 -0.013695267 -0.026933951 -0.059082195
0.033562843 0.013322321 -0.022567427 -0.0011416688 -0.042141445 0.06716954 0.0063658934 0.039832868
0.10206785 -0.054401837 -0.06423458 -0.067264445 0.002533289 -0.048575528 -0.06429651 0.028327435
0.09240476 -0.05283467 -0.052289777 0.032405358 0.033264983 0.019809488 -0.054136556 0.020277897
-0.017367255 -0.01053705 0.034425084 0.043131325 0.07804486 -0.0025325606 -0.042033043 0.06406526
0.015170484 0.018557223 0.010437021 0.036302693 0.03615114 0.03320042 -0.03516598 0.0017781091
0.030587398 -0.009471192 -0.06627842 0.09860091 0.03717981 0.002938882 0.08587805 -0.029653983
-0.057911795 -0.03679807 0.03240978 0.0140826665 -0.02748733 0.048202373 -0.023702456 0.015206817
0.024086334 -0.062580146 0.042684074 -0.037271075 0.030209787 0.017793372 0.046890967 -0.052627448
-0.054293957 0.02360371 0.044055756 0.022209799 -0.06776693 0.010492434 0.09245706 0.021988645
-0.0713467 0.038047172 -0.033406436 -0.010538891 -0.066942684 -0.013899373 -0.034693066 0.11280553
-0.029036107 0.07922691 0.07001923 0.007270786 -0.0038917572 -0.042891383 -0.034254745 0.053821757
0.006275414 -0.029279023 -0.052446723 -0.051661056 0.029974675 0.052891236 -0.03981738 0.07731884
0.018746618 -0.01731513 0.004676334 0.047652774 0.062394977 0.0056883805 -0.051471844 -0.050180282
0.03521814 0.056038707 0.003678223 -0.066502534 0.03986669 0.01820756 0.063452974 -0.018548992
0.06570486 0.020954477 0.0063174353 0.07052377 0.036829818 0.002098109 -0.044880237 -0.060712174
0.01899223 0.029096691 -0.056576848 -0.066868186 -0.033303615 0.04195543 0.049383715 -0.020689856
0.0007748191 0.0656849 -0.007314127 -0.055751592 0.0012031504 -0.06736225 -0.019164972 -0.03384377
0.044086512 0.075097956 -0.01617875 -0.042181734 -0.08056919 0.03197017 0.037957415 -0.00837159
0.024206005 0.05405479 0.08280645 0.018450344 -0.04402361 -0.061149977 0.025567254 0.029106945
-0.024487281 -0.0033255415 0.024252987 -0.024571294 -0.037853166 0.03426737 0.047487758 0.0069638654
0.020305663 0.05614619 0.015902445 0.007931321 0.046695694 -0.010940462 0.042530417 0.013487223
0.016780937 0.013731531 -0.06172295 -0.01973331 -0.014821082 0.030617416 -0.04345851 -0.009794622
-0.0370682 0.052563198 -0.065660596 0.023478245 -0.04031369 -0.045053583 -0.0050507216 -0.0043151258
0.07137658 -0.046503793 0.0055943443 0.06999934 0.044811655 -0.036177497 -0.00196107 0.048866674
00000000: 4bed abba 6247 33bc dcb1 ef3d ce71 dc3c
00000010: c926 cdbc bb11 fb3c aa6c d23c b420 2e3c
00000020: dbe0 693c 9b60 6d3c c41c 8f3d 6092 ba3d
00000030: f5d7 bcbb 33b6 b63b ad99 243d 924e 103d
00000040: 5e8f 47bd 01d8 1bbd e9f3 0ebc 568a 063d
00000050: ec05 363c f361 823d 95d0 463d 5528 ffbb
00000060: 3553 7fba 37df 20bc 70fa 05bd a5f8 2b3d
00000070: 803f 77bc 554e 7e3c e1bc 7cbc 9965 0f3d
00000080: 1957 86bd 6be2 0a3d 7203 8c3d 9518 883c
00000090: 0f6d 0f3b db31 e53c 1c1c bb3d 3152 d338
000000a0: 13bd a33d d81b 9abc b734 7e3a 075e 85bb
000000b0: a5b2 0dbd 94df 89bd 239d 01bd d8bf 8e3d
000000c0: a9d7 523c 4d8f 2c3d b38a 1abd bfcf 393d
000000d0: c206 80bc 93f5 b63d 6c24 183c bb81 173b
000000e0: 6b26 7cbc 87c9 8dbb 4e75 17bd 1b7d 803d
000000f0: cf95 13bd 1d62 60bc 97a4 dcbc 2c00 72bd
00000100: 3179 093d dd45 5a3c 53df b8bc 0ca4 95ba
00000110: 829c 2cbd 2f90 893d fc98 d03b ca27 233d
00000120: f308 d13d 76d4 5ebd 6b8d 83bd f1c1 89bd
00000130: 8905 263b 22f7 46bd e3ad 83bd f00e e83c
00000140: b53e bd3d 2b69 58bd ce2d 56bd 7bbb 043d
00000150: dd40 083d 8247 a23c 4bbe 5dbd d51d a63c
00000160: c645 8ebc 97a3 2cbc 5101 0d3d 79aa 303d
00000170: fcd5 9f3d 51f9 25bb d72a 2cbd a634 833d
00000180: 9f8d 783c 5105 983c 0a00 2b3c 22b2 143d
00000190: 3813 143d 2afd 073d 340a 10bd 710f e93a
000001a0: 6c92 fa3c 0f2d 1bbc fbbc 87bd 46ef c93d
000001b0: db49 183d 429a 403b d5e0 af3d e9ec f2bc
000001c0: eb34 6dbd 93b9 16bd 1ec0 043d fcba 663c
000001d0: 1c2d e1bc da6f 453d a72b c2bc 0326 793c
000001e0: b450 c53c 052a 80bd 7fd5 2e3d 8ea9 18bd
000001f0: 847a f73c 68c3 913c be10 403d e18f 57bd
00000200: 5763 5ebd 915c c13c cf73 343d 53f1 b53c
00000210: 63c9 8abd 75e8 2b3c 215a bd3d 8821 b43c
00000220: 381e 92bd 5ad7 1b3d 30d5 08bd 50ab 2cbc
00000230: 3f19 89bd 32ba 63bc 511a 0ebd 9606 e73d
00000240: 21dd edbc b841 a23d 3e66 8f3d c63f ee3b
00000250: da0c 7fbb e0ae 2fbd b44e 0cbd 3474 5c3d
00000260: fda1 cd3b 90da efbc 60d2 56bd 8b9a 53bd
00000270: 738d f53c 7ba4 583d 8d17 23bd 5759 9e3d
00000280: 8292 993c 76d8 8dbc ef3b 993b 8e2f 433d
00000290: e091 7f3d 9865 ba3b 24d4 52bd d789 4dbd
000002a0: e540 103d d888 653d 570e 713b 7b32 88bd
000002b0: 414b 233d 0528 953c a2f3 813d 0ef4 97bc
000002c0: 4590 863d b9a8 ab3c 7d02 cf3b c46e 903d
000002d0: ddda 163d 6e80 093b 57d4 37bd 54ad 78bd
000002e0: 9895 9b3c 2f5c ee3c 20bd 67bd 30f2 88bd
000002f0: 5f69 08bd 75d9 2b3d 9446 4a3d c67d a9bc
00000300: 3b1d 4b3a ce85 863d 58ab efbb c85b 64bd
00000310: 07b3 9d3a 38f5 89bd dcff 9cbc c49f 0abd
00000320: 0f94 343d f5cc 993d 4c89 84bc c1c6 2cbd
00000330: 7601 a5bd 27f3 023d 3c79 1b3d fe28 09bc
00000340: ac4b c63c 8e68 5d3d 6e96 a93d 2d25 973c
00000350: 1a52 34bd 6678 7abd 6b72 d13c b071 ee3c
00000360: 8d99 c8bc 54f1 59bb 33ae c63c bd49 c9bc
00000370: ec0b 1bbd f15b 0c3d 8682 423d 2331 e43b
00000380: 1058 a63c 8cf9 653d d845 823c 5ff2 013c
00000390: fc43 3f3d a03f 33bc 6034 2e3d 83f9 5c3c
000003a0: 2d78 893c 37fa 603c 34d1 7cbd c0a7 a1bc
000003b0: 20d4 72bc 60d1 fa3c 8d01 32bd 9f79 20bc
000003c0: d3d4 17bd 824c 573d 1079 86bd 7355 c03c
000003d0: f81f 25bd 1b8a 38bd 8680 a5bb e665 8dbb
000003e0: e22d 923d c37a 3ebd c350 b73b d05b 8f3d
000003f0: 6d8c 373d db2e 14bd 4c85 00bb 6c28 483d

action_out.weight f4 [5, 256]
-0.067373544 -0.02158204 -0.022613078 0.046565454 -0.005176504 0.0153803285 -0.042603146 0.034320712
0.019493138 0.02383856 -0.07084168 -0.19242154 0.046693664 -0.019769786 0.049905945 -0.084754705
-0.02596273 -0.055431053 -0.024906276 0.010581547 0.035817355 -0.028499713 -0.01661244 -0.019509252
0.025696188 -0.02947776 0.015071087 0.007395797 -0.062135033 -0.093222424 0.019608555 0.05733572
0.054304857 -0.041131668 0.030137895 -0.016871143 0.057726227 -0.0448031 -0.043914516 -0.034357212
0.04699444 -0.017041182 -0.013778809 -0.01525236 -0.042404253 -0.009648158 0.06162832 0.019347219
-0.040207718 0.06152668 -0.005563171 0.041447375 -0.03888833 -0.043092187 -0.02749132 0.035808966
0.04776091 -0.007261157 0.03499936 -0.058961883 0.03564876 -0.049133502 0.006976517 -0.040945124
-0.043303728 -0.030981423 -0.052410375 -0.052414145 0.004308086 -0.085296035 -0.018675543 -0.02802065
0.03195121 -0.006600151 0.055057537 0.022119153 -0.060193844 -0.045527995 -0.05615049 -0.17112121
-0.025120562 -0.036433656 0.03022211 -0.023882588 0.017930849 -0.030948164 -0.026586037 -0.026828254
-0.051901445 -0.05667101 -0.008874149 -0.0009731731 0.0020356602 -0.043343857 -0.031729117 -0.026165484
0.043738574 -0.004121112 -0.067679875 -0.028093955 -0.004674461 -0.038527124 -0.048238873 -0.014092767
-0.052838787 -0.05094452 -0.013280013 -0.07134377 -0.039006554 0.023756329 -0.011784745 -0.01178024
-0.02428828 -0.04359439 -0.043444723 0.02277335 -0.040673487 -0.03252385 0.026612656 0.04241815
-0.026943658 0.043731906 0.040480405 0.006987419 0.0062485426 0.0015479944 -0.020403368 0.030526267
0.038682144 -0.039796323 0.0065831416 -0.009841185 0.039945733 0.041150097 0.018617101 -0.25754178
-0.03016698 0.038468804 0.037873108 -0.007434029 -0.042952247 0.002694093 0.050429184 -0.015546529
-0.014117905 -0.025848981 -0.041290026 0.03885428 -0.0023276878 -0.029330926 0.0037903362 0.05212167
0.02177094 -0.028683243 0.040818576 -0.031203313 -0.075637124 -0.03487658 0.02242361 0.03869778
0.014503249 0.03405828 -0.028762251 0.016532294 -0.06131544 0.033305418 -0.0062312568 0.019092845
-0.0017034145 -0.0051603056 -0.055651125 -0.015654586 -0.028238012 0.015111811 0.025310904 -0.018701054
-0.056902327 0.027231893 -0.02499398 -0.032641545 0.00673536 -0.028676521 -0.015151572 0.022941632
-0.016497603 -0.013629406 0.008381929 -0.03257202 -0.0128785595 -0.044555772 -0.023776216 0.0006967518
-0.006297396 0.050346676 0.0074574393 0.05838062 -0.041212127 0.044974044 -0.045017693 0.0009788172
0.009640974 -0.00036282645 0.02165289 0.042597383 0.021093657 -0.08654338 -0.065507166 0.0020066851
0.045931682 0.007204451 0.011102145 -0.054574788 -0.037406024 0.018661492 -0.037094943 0.021134095
0.023328222 -0.051854488 -0.048646584 -0.030976992 -0.038697623 0.055498403 -0.047896583 -0.04378155
0.009082661 0.022714116 -0.01385804 0.01385077 0.018654773 0.034242187 0.03278747 -0.04178814
-0.07583066 0.028924242 -0.0066763195 -0.00456496 0.01142508 -0.031523634 0.04825687 -0.043846495
0.022764852 -0.06633634 -0.004059557 -0.0090445895 -0.04942718 -0.037366666 -0.02098044 0.034057226
-0.057332482 -0.00431666 -0.0140787475 -0.011019957 -0.058521554 0.049425863 -0.00870254 0.021747883
00000000: 24fb 89bd d1cc b0bc 103f b9bc 6bbb 3e3d
00000010: aa9f a9bb c6fd 7b3c a380 2ebd e093 0c3d
00000020: 13b0 9f3c 1549 c33c 7115 91bd 270a 45be
00000030: db41 3f3d 3ff4 a1bc 2d6a 4c3d e093 adbd
00000040: cbaf d4bc ac0b 63bd 3f08 ccbc 3a5e 2d3c
00000050: 38b5 123d 3b78 e9bc d016 88bc ded1 9fbc
00000060: d080 d23c 587b f1bc b8ec 763c 7158 f23b
00000070: 4e81 7ebd 66eb bebd 1fa2 a03c dcd8 6a3d
00000080: c56e 5e3d ae79 28bd bfe3 f63c 5a35 8abc
00000090: 5672 6c3d 7583 37bd b5df 33bd 26ba 0cbd
000000a0: 3e7d 403d f399 8bbc 84c0 61bc 09e5 79bc
000000b0: 15b0 2dbd 4f13 1ebc fa6d 7c3d 0f7e 9e3c
000000c0: d9b0 24bd 6603 7c3d 434b b6bb b9c4 293d
000000d0: 5f49 1fbd 6f81 30bd 7a35 e1bc 6cac 123d
000000e0: f2a0 433d 00ef edbb 7d5b 0f3d 0482 71bd
000000f0: 6f04 123d 3640 49bd 449b e43b 13b6 27bd
00000100: 405f 31bd c1cc fdbc 43ac 56bd 37b0 56bd
00000110: d82a 8d3b b0af aebd 74fd 98bc 908b e5bc
00000120: 46df 023d 1446 d8bb 0384 613d 3a33 b53c
00000130: d28d 76bd 907b 3abd 0efe 65bd 663a 2fbe
00000140: a3c9 cdbc 753b 15bd 5c94 f73c 6ba5 c3bc
00000150: b7e3 923c 0187 fdbc f6ca d9bc edc6 dbbc
00000160: 9c96 54bd dc1f 68bd e164 11bc 8b1c 7fba
00000170: b668 053b 5489 31bd 64f6 01bd ff58 d6bc
00000180: 3827 333d 650a 87bb bf9b 8abd 4b25 e6bc
00000190: 392c 99bb 9ece 1dbd 2096 45bd 59e5 66bc
000001a0: 7c6d 58bd 33ab 50bd 6994 59bc af1c 92bd
000001b0: 56c5 1fbd a29c c23c ce14 41bc e801 41bc
000001c0: 37f8 c6bc 0890 32bd 18f3 31bd 2d8f ba3c
000001d0: 3e99 26bd bb37 05bd c902 da3c a7be 2d3d
000001e0: f2b8 dcbc 3a20 333d c8ce 253d b8f6 e43b
000001f0: 93c0 cc3b 13e6 ca3a f724 a7bc 3912 fa3c
00000200: 2b71 1e3d 7801 23bd 65b7 d73b ec3c 21bc
00000210: 239e 233d 018d 283d e482 983c 84dc 83be
00000220: be20 f7bc 7791 1d3d d520 1b3d 2899 f3bb
00000230: b2ee 2fbd 618f 303b d58e 4e3d deb6 7ebc
00000240: c94e 67bc 3ec1 d3bc bb1f 29bd aa25 1f3d
00000250: 1f8c 18bb 6947 f0bc 4a67 783b 887d 553d
00000260: f858 b23c 1ff9 eabc 6131 273d 179e ffbc
00000270: a3e7 9abd bfda 0ebd b8b1 b73c 9081 1e3d
00000280: 099f 6d3c b280 0b3d d09e ebbc bc6e 873c
00000290: e625 7bbd 436b 083d 922f ccbb 9968 9c3c
000002a0: 1b45 dfba c817 a9bb 6ff2 63bd 0c3e 80bc
000002b0: 6753 e7bc 8897 773c d058 cf3c f432 99bc
000002c0: 6a12 69bd 6b15 df3c 2dc0 ccbc 24b3 05bd
000002d0: 4bb4 dc3b 06eb eabc 4d3e 78bc 17f0 bb3c
000002e0: fb25 87bc df4d 5fbc 5c54 093c 3d6a 05bd
000002f0: 9800 53bc 1d80 36bd 57c6 c2bc 39a6 363a
00000300: 635a cebb 5138 4e3d 895d f43b 8420 6f3d
00000310: 0cce 28bd b436 383d 7964 38bd a84b 803a
00000320: 2df5 1d3c be39 beb9 6761 b13c 987a 2e3d
00000330: 9bcc ac3c a83d b1bd 9f28 86bd 9782 033b
00000340: dc22 3c3d 5113 ec3b c5e5 353c d089 5fbd
00000350: 0f37 19bd fcdf 983c def0 17bd 6921 ad3c
00000360: d41a bf3c 5f65 54bd a441 47bd 76c3 fdbc
00000370: 6681 1ebd 4b52 633d 352f 44bd 4854 33bd
00000380: 71cf 143c f412 ba3c d50c 63bc 57ee 623c
00000390: e5d1 983c 8941 0c3d 274c 063d 0a2a 2bbd
000003a0: 1b4d 9bbd 88f2 ec3c 07c5 dabb a995 95bb
000003b0: 4230 3b3c ed1e 01bd ffa8 453d 6298 33bd
000003c0: 5b7d ba3c 59db 87bd 0806 85bb c22f 14bc
000003d0: 2874 4abd ca0d 19bd 2cdf abbc 977f 0b3d
000003e0: 77d5 6abd c572 8dbb 8caa 66bc 0d8d 34bc
000003f0: 4cb4 6fbd c672 4a3d 1995 0ebc 9e28 b23c

action_out.bias f4 [5]
0.03631701 0.058128525 -0.0840417 -0.024004918 0.055587273
00000000: 25c1 143d 2d18 6e3d 0e1e acbd f6a5 c4bc
00000010: 7baf 633d

weight f4 [256, 123]
-0.087330356 -0.25152847 -0.2066208 -0.3120743 -0.044514697 0.048412293 -0.0003883792 -0.31177372
-0.19872266 -0.085148305 -0.037248757 -0.019428289 -0.10014394 0.031150859 0.041445773 -0.21675362
-0.05979529 -0.11416462 -0.0061824815 0.049591925 -0.040355925 -0.037549242 -0.01112713 -0.22823323
-0.021305077 -0.09029543 -0.12153918 -0.017615078 0.18146755 0.058045182 -0.28827676 0.011772714
0.061363816 0.046949215 -0.0669155 -0.0042345 -0.059470966 0.0072815814 0.020197356 -0.20637971
-0.10708294 -0.08251384 0.06731203 -0.10783678 0.0015720099 0.21825172 0.1329648 0.020093005
-0.03226105 0.048421998 0.065057084 -0.059759215 0.04702505 -0.07257679 0.043556996 -0.073220104
-0.009870913 -0.080429964 -0.010775026 0.030332359 -0.07178509 0.04552378 0.004161574 -0.088070326
-0.10868509 0.05499591 0.030504193 -0.031835847 -0.015594646 0.05318861 0.0008598864 0.067050956
-0.15345949 -0.09438412 -0.031276137 -0.27843875 -0.0885811 0.015257807 0.059796005 0.062338233
-0.00839901 0.086126335 0.006142348 -0.057716202 0.010384439 0.011009562 -0.05831968 -0.09346767
0.0893218 -0.07551765 0.0213548 0.061085206 0.02298541 -0.07320912 0.06900247 -0.04630453
0.013414702 -0.040148865 -0.08614995 -0.080176905 0.08437822 -0.16035706 -0.041428804 -0.083357364
-0.03826865 -0.033130668 -0.09231082 0.03094837 0.014352045 0.008743616 0.1310083 0.060895696
-0.0668366 -0.0868108 -0.12142559 0.0064530727 0.0140965935 0.0026891264 -0.06256729 -0.1025359
0.026529873 -0.11143906 -0.10818555 -0.039789494 -0.044522945 -0.044653207 0.029085236 -0.04090386
0.06102366 0.030170038 -0.056729622 -0.0038739906 0.051875807 -0.00827983 -0.07713261 -0.07988316
-0.08562347 -0.010474909 0.032266933 0.00622687 0.06996283 -0.028793748 0.017583499 -0.10035776
0.04867154 -0.0399783 -0.00032279576 0.040357605 0.012880968 -0.08209848 -0.09931593 -0.0069715306
-0.09385037 -0.108906835 -0.04686786 0.052979067 -0.022665419 -0.022991821 -0.050942965 0.016500786
0.067565106 -0.054367118 0.098483525 -0.071667835 0.03253613 -0.051306456 -0.011701483 -0.030989597
-0.009235443 -0.07238936 -0.06782396 -0.03876896 0.060265664 -0.05471186 -0.05889296 0.0125924675
-0.0021485835 -0.05979052 -0.07983427 -0.015274918 -0.103091255 -0.02207906 -0.10421809 -0.032038536
0.048191424 0.031058049 0.019547822 0.08926215 -0.034754798 -0.022999175 -0.027165694 0.006714225
0.055969447 0.023910746 -0.05369144 0.0009158673 0.029598622 0.0011805727 -0.017056217 0.020311557
-0.0037904277 -0.053389914 0.03765444 0.025942957 0.044972412 0.09615313 -0.051693905 0.031397566
-0.032763947 0.050206054 0.051649034 -0.028508384 0.02660081 -0.017734068 0.0679885 -0.078573644
0.04749119 0.010314866 0.029774537 -0.048557106 0.076565646 0.07009245 0.0209665 0.013207021
-0.12903146 -0.11015082 0.008452967 0.034903325 0.0462713 -0.0038302555 -0.034323853 -0.05775938
-0.10097884 -0.0065066675 -0.113036014 -0.012690352 -0.012275429 -0.108284466 -0.09792184 -0.07489664
0.003106623 -0.018668136 0.042508483 -0.059635878 0.053532183 0.07070127 -0.031180575 0.02891538
-0.07555123 0.051233687 -0.001402451 -0.033222243 -0.016671695 -0.0043477523 -0.063969985 -0.049740877
00000000: 42da b2bd 57c8 80be 6794 53be 34c8 9fbe
00000010: 0b55 36bd f84b 463d 609f cbb9 cea0 9fbe
00000020: f47d 4bbe 3c62 aebd 2792 18bd 1328 9fbc
00000030: 4418 cdbd 1630 ff3c 0bc3 293d a9f4 5dbe
00000040: e8eb 74bd 24cf e9bd 6a96 cabb e720 4b3d
00000050: 414c 25bd 3ccd 19bd 914e 36bc f9b5 69be
00000060: fc87 aebc cfec b8bd 89e9 f8bd 7f4d 90bc
00000070: a1d2 393e c9c0 6d3d 0399 93be 57e2 403c
00000080: a058 7b3d d24d 403d fe0a 89bd 90c1 8abb
00000090: d497 73bd 559a ee3b ed74 a53c 3455 53be
000000a0: 4d4e dbbd 04fd a8bd e4da 893d 88d9 dcbd
000000b0: e60b ce3a 617d 5f3e ed27 083e 169a a43c
000000c0: 2a24 04bd 2556 463d a63c 853d 14c6 74bd
000000d0: 579d 403d 24a3 94bd d268 323d 6cf4 95bd
000000e0: 9cb9 21bc 77b8 a4bd bc89 30bc 917b f83c
000000f0: 1004 93bd 2577 3a3d d05d 883b 375e b4bd
00000100: 4a96 debd 6443 613d eee3 f93c 4e66 02bd
00000110: b080 7fbc 4ddc 593d 006a 613a 0352 893d
00000120: 7c24 1dbe 764c c1bd 681b 00bd 868f 8ebe
00000130: 026a b5bd e2fb 793c a8ec 743d 6056 7f3d
00000140: 009c 09bc 0163 b03d c045 c93b d367 6cbd
00000150: 7e23 2a3c 7361 343c 9ee0 6ebd fa6b bfbd
00000160: 59ee b63d ffa8 9abd 43f0 ae3c 7b34 7a3d
00000170: e64b bc3c aaee 95bd 2b51 8d3d d2a9 3dbd
00000180: 57c9 5b3c 2373 24bd 636f b0bd ca33 a4bd
00000190: 7dce ac3d a434 24be 40b1 29bd 44b7 aabd
000001a0: 97bf 1cbd 06b4 07bd 750d bdbd 7087 fd3c
000001b0: d724 6b3c 6241 0f3c 0a27 063e c46d 793d
000001c0: a1e1 88bd dcc9 b1bd fbad f8bd 4c74 d33b
000001d0: 66f5 663c 0e3c 303b 4823 80bd 58fe d1bd
000001e0: 2d55 d93c 293a e4bd 6390 ddbd 4ffa 22bd
000001f0: b15d 36bd 48e6 36bd 2944 ee3c ce8a 27bd
00000200: f2f3 793d 2827 f73c 525d 68bd c7e2 7dbb
00000210: ba7b 543d 20a8 07bc b4f7 9dbd c899 a3bd
00000220: 5c5b afbd f49e 2bbc 552a 043d c60a cc3b
00000230: ac48 8f3d dee0 ebbc 450b 903c 5f88 cdbd
00000240: cf5b 473d 49c0 23bd ea3c a9b9 044e 253d
00000250: b20a 533c 3f23 a8bd 2666 cbbd 7071 e4bb
00000260: 9f34 c0bd 8c0a dfbd 83f8 3fbd 9400 593d
00000270: d4ac b9bc 5859 bcbc 92a9 50bd a82c 873c
00000280: 935f 8a3d 0eb0 5ebd bbb1 c93d 96c6 92bd
00000290: 9b44 053d b826 52bd 94b7 3fbc e5dd fdbc
000002a0: 4150 17bc df40 94bd 4ae7 8abd 33cc 1ebd
000002b0: 21d9 763d 8b19 60bd bf39 71bd a350 4e3c
000002c0: 40cf 0cbb e8e6 74bd 2680 a3bd a643 7abc
000002d0: 8221 d3bd 25df b4bc 4b70 d5bd d73a 03bd
000002e0: 5f64 453d 736d fe3c c122 a03c 13cf b63d
000002f0: 0c5b 0ebd c468 bcbc 978a debc 0003 dc3b
00000300: 3840 653d 78e0 c33c 8eeb 5bbd d016 703a
00000310: cf78 f23c 72bd 9a3a 7bb9 8bbc 6c64 a63c
00000320: d368 78bb 62af 5abd 8b3b 1a3d 5386 d43c
00000330: fe34 383d efeb c43d fdbc 53bd bc9a 003d
00000340: 7d33 06bd dda4 4d3d f08d 533d 6a8a e9bc
00000350: f1e9 d93c 0947 91bc 8e3d 8b3d 38eb a0bd
00000360: 1f86 423d afff 283c bbe9 f33c d1e3 46bd
00000370: 73ce 9c3d a18c 8f3d f0c1 ab3c 4362 583c
00000380: d320 04be c196 e1bd 507e 0a3c caf6 0e3d
00000390: fa86 3d3d 0605 7bbb 2b97 0cbd 1a95 6cbd
000003a0: fecd cebd e235 d5bb 6d7f e7bd 32eb 4fbc
000003b0: e21e 49bc 3fc4 ddbd 3f8b c8bd 6963 99bd
000003c0: 7c98 4b3b ebed 98bc 601d 2e3d c044 74bd
000003d0: 9044 5b3d d4cb 903d 686e ffbc f2df ec3c
000003e0: 9aba 9abd 6ada 513d 72d2 b7ba 0c14 08bd
000003f0: 1493 88bc 9777 8ebb b202 83bd 17bd 4bbd

bias f4 [256]
-0.081555486 0.06319524 -0.004516933 -0.110308886 -0.05336388 -0.035935268 0.050217684 0.052248165
0.052885097 0.044027425 -0.11246929 -0.041244414 -0.042595524 -0.028436527 -0.0055845142 -0.0054518166
-0.060682423 0.00638892 0.1216491 0.063599214 0.033550743 -0.09445435 -0.049917493 -0.094092935
0.051707633 -0.1201536 0.051774837 -0.019024162 0.070553266 0.05843676 0.043631 0.027570877
-0.089707315 -0.061445136 -0.041195646 -0.0694665 0.050355077 0.10725007 -0.0032894155 0.087028675
0.05856071 -0.09988231 -0.04571039 0.037099317 0.04309254 -0.12660691 -0.010483955 -0.0033646252
-0.038472757 -0.090163074 -0.06851502 -0.0035981769 0.0924026 -0.109483585 -0.061009698 -0.008941933
0.0010681902 -0.037604943 0.022784103 0.08528701 0.032729875 0.006865097 -0.02778466 0.05553904
0.011426159 -0.07021768 -0.09164902 0.027390748 -0.02680485 -0.029337667 0.019059531 -0.10954177
-0.11915351 -0.07867229 -0.027910588 0.032829907 -0.047379423 -0.027880326 -0.0023030962 0.14313161
-0.07701125 0.012621144 -0.042156536 -0.058016278 0.0111258635 -0.033400558 0.036915764 -0.10090853
-0.051015206 -0.0507634 0.0005707308 -0.044948783 -0.0342688 -0.0018818153 -0.102950476 0.027658893
0.021951579 -0.008843473 0.021823622 -0.04610666 -0.037045877 0.06615076 -0.039042536 -0.029994326
-0.021233026 -0.09760984 0.007881876 0.076367036 0.017072825 -0.043935973 0.017403744 0.022112256
-0.06690679 0.01881657 -0.04472364 0.046510562 0.06569282 -0.104627095 -0.09420632 0.034077194
-0.06544198 -0.043523714 -0.039578356 -0.012457801 0.018704753 0.0007604281 -0.05940039 -0.02459602
-0.05107694 0.0011280734 -0.08077938 -0.020852333 -0.056849506 -0.12288384 0.05373581 -0.05847095
-0.07392533 0.024947645 -0.008979535 -0.0021730964 -0.102156155 -0.02176145 -0.024911681 -0.05919281
0.110943906 -0.09326876 0.024680289 -0.01587256 -0.021093627 -0.0019394172 -0.043147996 -0.080627024
-0.086228184 0.0049059563 0.048781056 -0.002707806 -0.08294699 0.024789322 -0.075724624 0.054848757
-0.08688778 -0.080619946 -0.04354369 -0.13283502 -0.004334172 -0.016380867 -0.015841547 0.066014275
-0.06042412 -0.04635035 0.02037634 0.027280614 0.03697725 0.00835313 -0.11443704 -0.12045178
0.03589121 0.10151885 -0.11119882 -0.010509674 -0.09987961 0.02316203 -0.029190075 -0.05124598
-0.08626823 -0.09865905 -0.07223266 -0.0034337954 -0.11854712 0.031634677 -0.08022554 -0.042059835
-0.04194402 0.07772271 0.05507906 0.048981514 -0.0031330995 0.026279178 0.034241714 -0.04444919
0.06412467 -0.0647851 -0.14165124 -0.09571606 0.02559319 -0.11729732 -0.014651757 -0.034931358
-0.084010504 -0.120487794 -0.047221042 -0.076572455 -0.013633386 0.027128853 0.01892559 -0.08342047
-0.060317904 -0.026644517 0.02166706 -0.027732389 0.036848165 -0.0018767158 -0.04597293 0.07768642
0.03729633 -0.008323659 -0.012520785 0.044507653 -0.007509462 -0.052874792 0.009539002 -0.10448368
0.0003085206 0.006222113 -0.044666678 -0.06669551 -0.06454048 -0.06652576 0.02685899 -0.015234333
-0.045994036 0.0050376174 -0.057310846 0.018824005 -0.004766229 0.053328175 -0.015600024 -0.065068215
0.059376363 0.025283877 -0.026970139 -0.08595187 -0.08754656 -0.119071335 -0.110702515 -0.05351288
00000000: 9006 a7bd 826c 813d c802 94bb a0e9 e1bd
00000010: 1594 5abd dc30 13bd 0fb1 4d3d 2c02 563d
00000020: 0b9e 583d 1a56 343d 4d56 e6bd e7ef 28bd
00000030: a578 2ebd b8f3 e8bc 4dfe b6bb 27a5 b2bb
00000040: 228e 78bd 255a d13b 2a23 f93d 4e40 823d
00000050: 816c 093d 4871 c1bd 4976 4cbd ccb3 c0bd
00000060: 62cb 533d 1713 f6bd da11 543d 8fd8 9bbc
00000070: 3b7e 903d 625b 6f3d 6bb6 323d 52dc e13c
00000080: 78b8 b7bd e5ad 7bbd c4bc 28bd 7444 8ebd
00000090: 2041 4e3d eda5 db3d 3c93 57bb 173c b23d
000000a0: 5bdd 6f3d 198f ccbd d13a 3bbd 74f5 173d
000000b0: ce81 303d 3ea5 01be e5c4 2bbc 0b81 5cbb
000000c0: 9c95 1dbd 6ba7 b8bd 9a51 8cbd 64cf 6bbb
000000d0: 933d bd3d ee38 e0bd 4ee5 79bd 2f81 12bc
000000e0: 8402 8c3a a407 1abd baa5 ba3c f5aa ae3d
000000f0: c30f 063d 9cf4 e03b a89c e3bc e87c 633d
00000100: c934 3b3c 49ce 8fbd 7bb2 bbbd 9062 e03c
00000110: d895 dbbc 8c55 f0bc bc22 9c3c 6f57 e0bd
00000120: c106 f4bd f01e a1bd bfa4 e4bc a778 063d
00000130: ed10 42bd 4865 e4bc 8bef 16bb 1891 123e
00000140: 13b8 9dbd eac8 4e3c 55ac 2cbd 7aa2 6dbd
00000150: 4149 363c 06cf 08bd fc34 173d 22a9 cebd
00000160: 52f5 50bd 48ed 4fbd 189d 153a 371c 38bd
00000170: 715d 0cbd 3ea7 f6ba b3d7 d2bd e794 e23c
00000180: ccd3 b33c 37e4 10bc 74c7 b23c 56da 3cbd
00000190: 6bbd 17bd 0d7a 873d 11eb 1fbd a9b6 f5bc
000001a0: e2f0 adbc abe7 c7bd fc22 013c 5266 9c3d
000001b0: 4fdc 8b3c 35f6 33bd 4c92 8e3c c324 b53c
000001c0: 6d06 89bd 3525 9a3c 2330 37bd dc81 3e3d
000001d0: f589 863d bb46 d6bd 3eef c0bd 8794 0b3d
000001e0: 7206 86bd ec45 32bd ea1c 22bd ce1b 4cbc
000001f0: b63a 993c 7757 473a d34d 73bd 987d c9bc
00000200: 0e36 51bd dddb 933a a96f a5bd 83d2 aabc
00000210: 07db 68bd 86aa fbbd 151a 5c3d 3c7f 6fbd
00000220: 2a66 97bd 015f cc3c e61e 13bc 826a 0ebb
00000230: 3f37 d1bd 1245 b2bc 9513 ccbc 2974 72bd
00000240: 8f36 e33d b103 bfbd 512e ca3c 2c07 82bc
00000250: 8bcc acbc 0b34 feba f4bb 30bd c81f a5bd
00000260: 6798 b0bd 25c2 a03b a5ce 473d 7275 31bb
00000270: 1de0 a9bd fa12 cb3c 8315 9bbd 17a9 603d
00000280: 38f2 b1bd 121c a5bd de5a 32bd e705 08be
00000290: ab05 8ebb 2b31 86bc 22c6 81bc 7e32 873d
000002a0: 487f 77bd ddd9 3dbd 48ec a63c 987b df3c
000002b0: 7575 173d 91db 083c f85d eabd 6caf f6bd
000002c0: a902 133d 1de9 cf3d 35bc e3bd c530 2cbc
000002d0: ae8d ccbd 4cbe bd3c 0620 efbc 4ee7 51bd
000002e0: 66ad b0bd c20d cabd b8ee 93bd 8709 61bb
000002f0: d5c8 f2bd 5d93 013d 4a4d a4bd ef46 2cbd
00000300: 7ecd 2bbd 162d 9f3d 959a 613d d7a0 483d
00000310: b054 4dbb 6e47 d73c 0a41 0c3d 5b10 36bd
00000320: cc53 833d 0dae 84bd 060d 11be c806 c4bd
00000330: cfa8 d13c 9439 f0bd ec0d 70bc 2f14 0fbd
00000340: b30d acbd 4ec2 f6bd da6a 41bd 05d2 9cbd
00000350: 915e 5fbc 543d de3c d709 9b3c 5ad8 aabd
00000360: e80f 77bd 9a45 dabc 1e7f b13c 092f e3bc
00000370: 1aee 163d 22fc f5ba 1c4e 3cbd 0f1a 9f3d
00000380: 09c4 183d f55f 08bc fb23 4dbc a84d 363d
00000390: ef11 f6bb 3d93 58bd 7949 1c3c 8afb d5bd
000003a0: efc0 a139 dee2 cb3b 68f4 36bd a897 88bd
000003b0: cd2d 84bd a83e 88bd 6207 dc3c 6d99 79bc
000003c0: 3e64 3cbd 9912 a53b c7be 6abd cd34 9a3c
000003d0: 072e 9cbb a56e 5a3d 3e97 7fbc 7c42 85bd
000003e0: a134 733d 2220 cf3c 7bf0 dcbc 8907 b0bd
000003f0: 9c4b b3bd acdb f3bd 00b8 e2bd 5230 5bbd
