src/saved_models/grid_world_seed125_8_5_13_56/125_5_model.pt (torch, 702521 bytes, 11 tensors)

FC1.weight f4 [256, 36]
00000000: 9164 cf3d 9f11 a93d 5c18 6abd d35c 99bd
00000010: 98a5 91bd f216 24bd c0b8 2c3d f795 1c3d
00000020: ff69 103e d07d 1a3d c1d9 06bb 9062 273e
00000030: 87ff f9bc 66f1 ed3c 366b 64bd efe1 473e
00000040: a94e 643d 29f0 a1bd 7175 8bbd a68b 573e
00000050: 2481 1d3e 9a82 a5bd efb2 de3b 8e29 ad3d
00000060: 924f e6bd 9e90 923c 8fdf 063e 48c5 6fbd
00000070: bda4 f5bc 473a e0bc 351a 073e fc98 ad3c
00000080: 6f14 f6bd 538c 7bbd d113 de3d 3b3b 043e
00000090: 0ae6 193d 9016 5abd 2850 9e3c dbef ddbd
000000a0: 371a ae3d 3107 e4bd c34c f13c 34b4 4ebc
000000b0: 44a0 273e d950 1a3e 00eb 33be e4b5 36be
000000c0: a607 b53a 2999 f33d 1f44 f23d d1ea 95bc
000000d0: f727 b03d 145a 56bd d34a bbbc 5ab1 273d
000000e0: 6130 ecbd ad0b 17bc 4e28 8b3d fbd6 e73d
000000f0: 9401 02be 590f e9bd 985d e8bc b5c4 bb3d
00000100: 8fe5 efbd 8219 e2bd 2c96 febd 1480 4abd
00000110: f26f 84bb 42e7 5bbd ef3d 07be faee ba3d
00000120: 2de0 8d3d 2954 e43b d9e5 33bd 5546 9d3d
00000130: 1ea7 8d3d 403b 0cbe 5e46 46bd c7cc cf3d
00000140: b3b8 af3d 41c1 a3bd 450c b9ba 9139 3e3d
00000150: 27ac bfbd 8162 adbd d1f0 c03a 97ae f1bc
00000160: b0dc 0c3d 19db 34bd 1f2d 9f3d c1f7 1ebe
00000170: a99a 4cbd 76fb 9cbd 1a23 2ebe b0e3 14be
00000180: 2f75 273d 311a bb3d bb73 043e 5fb1 0d3d
00000190: 68ab 37bd aa1e e13d c712 e3bd 1586 3ebc
000001a0: ac6c c9bc 501f 8ebb d34d 973c 60e6 84bd
000001b0: 009a cd3d e503 823d 4c83 c1bd 0735 bb3c
000001c0: bf04 38bd 5a72 043d 1318 77bd 5ae2 1e3c
000001d0: 0d37 ca3d b83b 0fbe 6ef6 413e 31d3 29be
000001e0: eb8b 323d f8bd 2d3e a37d 053e 5112 babd
000001f0: f5ed 843d 0ba9 b0bc cdaf 4a3c 8715 c4bd
00000200: 7e65 183e fa26 82bd e51a b5bc e48e 9bbc
00000210: 2f29 083e f269 5cbd bff8 ebbd 6ede ec3d
00000220: 2f7b 873d 855d 193e 14ef fbbb 3d70 1e3d
00000230: 1ef5 ecbc 6783 483e 9be4 d33d f0c4 62bc
00000240: dd02 b8bc 097f 783d fabb b93d 8220 e1bd
00000250: 5e05 9bbd 3077 8b3c 2fdb a93d a8f3 06be
00000260: 710a 9e3d 0560 17be ce26 fcbd 7aca 503d
00000270: 5fcb bd3d 9a70 873c 81b3 8dbc 00ea 1dbe
00000280: 47af a13c 2885 dd3d 9fe5 973d 76a5 c43d
00000290: 607e a9bc 9536 b0bd a81a 753d 5dba 9b3d
000002a0: 4c26 973d 8bbc 2d3e 92a9 d6bd 6201 33be
000002b0: d053 27be 3a22 123e acfe 42bd 9fac 843d
000002c0: 96ee 9fbd c886 1bbe 0fae b6b7 ec86 05be
000002d0: 9d00 8bbd 1b0c 94bd f8f7 ad3d 61bf c9bd
000002e0: a3f6 893d a86f 893d 1a3d 8d3d 606e f83d
000002f0: 684b 243e 7fbc 6d3d d23e 50bc 1e85 96bd
00000300: 2b0b 16be 3251 fc3d a2b5 1d3d 048f d8bd
00000310: 264c c83d 5bc4 923c 32c1 b9bd 139a 1fbe
00000320: 58c9 163e 695a 84bd f343 d43d c2bb d03c
00000330: 2184 02be bcda 10be a1a2 91bd 0482 e7bd
00000340: 5e7c 993d 207a 38bd cb99 d53d 8be3 28be
00000350: 9c29 c23d 40dc 1cbe a133 2fbe fe29 d5bd
00000360: 7fe6 e03d d687 37be 9b02 90bc 316e 4bbe
00000370: f937 0bbe f012 ed3d ead1 223d f35e 9c3d
00000380: 0295 9c3c 5b45 013d 5db6 3f3d 0cc0 13be
00000390: a337 84bc 911e fcbc 4925 47be 89d6 763d
000003a0: aef0 313e 180a 2abd 3eb0 223e d46d 7cbd
000003b0: 6850 10be 0d77 0bbc f468 85bd af55 d0bd
000003c0: 9076 2bbd 2c8a f1bc 4a7b ed3d c557 bebd
000003d0: f0ce 07bd f886 d6bd 140f 343d e813 f03d
000003e0: aac9 5e3d 042a afbc 4b1c 053e 8da5 113e
000003f0: 745a 993d 7dc8 3a3d cb34 cf3b f888 aebd
0.101266034 0.08255314 -0.057152137 -0.07488408 -0.071116626 -0.040060945 0.04216838 0.038228955
0.14102934 0.03771764 -0.0020576569 0.16346192 -0.030517353 0.029045772 -0.055766307 0.1951978
0.05573908 -0.07907135 -0.068095095 0.21049365 0.15381294 -0.08081551 0.006796233 0.084551916
-0.112456456 0.017891224 0.13171218 -0.05853775 -0.02998578 -0.027371539 0.13193591 0.021191113
-0.12015616 -0.06141312 0.108436234 0.1291322 0.037572898 -0.053244174 0.01932533 -0.108367644
0.08501094 -0.11134184 0.029455548 -0.012616206 0.1636973 0.15069903 -0.17570114 -0.17842823
0.0013811484 0.11894447 0.11829399 -0.018300446 0.08601373 -0.052332 -0.022862827 0.04094062
-0.11532665 -0.009219092 0.06794797 0.11320301 -0.12695915 -0.113798805 -0.028364941 0.09168378
-0.11713707 -0.110400215 -0.12430987 -0.04943855 -0.0040416652 -0.05368734 -0.1320722 0.091276124
0.06927524 0.0069680405 -0.04392037 0.076794304 0.06916641 -0.13694477 -0.04840695 0.1014648
0.085801505 -0.07995845 -0.0014118036 0.04644162 -0.09359007 -0.08466054 0.0014720206 -0.029502196
0.03439015 -0.04415426 0.07772278 -0.15524198 -0.049952183 -0.0766515 -0.17005578 -0.14539981
0.04088324 0.09135855 0.12934773 0.034592982 -0.0448412 0.10992177 -0.11087566 -0.011628647
-0.024587952 -0.004337229 0.018469727 -0.06489253 0.10039139 0.06348399 -0.09448871 0.022852434
-0.0449264 0.032335617 -0.060325693 0.009697521 0.09873781 -0.13987625 0.18941662 -0.1658447
0.043590467 0.16966999 0.13036208 -0.09085525 0.06490699 -0.021564981 0.012371016 -0.095744185
0.14882466 -0.063550904 -0.02210755 -0.018989034 0.1329696 -0.053811975 -0.11522054 0.115658626
0.06615292 0.14977081 -0.0076884124 0.038681258 -0.028925475 0.19581376 0.103463374 -0.013840899
-0.022462303 0.060668025 0.09069057 -0.109925285 -0.07569383 0.017024606 0.08293759 -0.13178885
0.07716835 -0.14782722 -0.12312089 0.050974347 0.092673056 0.016533185 -0.017297508 -0.15421295
0.019736899 0.10816413 0.074168436 0.09601872 -0.020690143 -0.08604161 0.059839875 0.07603905
0.073803514 0.16966455 -0.10481562 -0.17480996 -0.16340566 0.14270869 -0.047606155 0.06478237
-0.078091785 -0.15188134 -2.1777143e-05 -0.1303975 -0.06787226 -0.072288714 0.08494562 -0.09850956
0.06736495 0.0671075 0.0689642 0.12130427 0.1604439 0.058041092 -0.01271029 -0.07349609
-0.14652698 0.12320174 0.038503297 -0.10574153 0.09780149 0.017915895 -0.09070052 -0.15586118
0.14725244 -0.06462557 0.10364523 0.025480155 -0.12745716 -0.1414594 -0.07111097 -0.113040954
0.07494424 -0.045038342 0.10429724 -0.16493051 0.094805926 -0.15318394 -0.17109539 -0.104084
0.10981464 -0.17922911 -0.017579367 -0.19866253 -0.1359557 0.11575878 0.03975097 0.076352976
0.019114021 0.031560283 0.046804775 -0.14428729 -0.01613981 -0.030776294 -0.19447817 0.06026319
0.17376968 -0.041513532 0.15887544 -0.061628178 -0.14093173 -0.008512271 -0.06514159 -0.10172593
-0.041861117 -0.02948483 0.11595781 -0.092940845 -0.033156335 -0.10474962 0.043959692 0.11722547
0.05439154 -0.02138234 0.12999074 0.14223309 0.07487956 0.045601357 0.006323432 -0.085222185

FC1.bias f4 [256]
00000000: d789 6f3e 201d 18be cc4e 9f3d 5c36 20bd
00000010: 548b 0a3e 4014 21be d7d5 013e 033d ba3d
00000020: 4213 d13d ab88 f3bd 4fa7 89bd 96c9 2c3e
00000030: 338b be3d 06b4 0abe 9566 653c f209 ee3d
00000040: 55f8 b3bd 4904 8f3d 973f a03c c69a 00be
00000050: 037f cfbd f510 f13d baff 9b3d 551b 023e
00000060: 9db0 143e 10be ffbd 0cc5 013e b0e7 40bb
00000070: 403a fe3d d3bf 853c 4847 583c f05e 163e
00000080: 45ce 003e 8b2e d43c 3280 053d 69b5 173e
00000090: f216 f73d 06c5 b7bc a856 f5bd 5785 813d
000000a0: 43ee 713c fc1b d23d b77e fd3d b14c b8bc
000000b0: e232 823d 17aa 173e 64c5 da3d 9bbd d43d
000000c0: 09eb d8bc 3a2f bcbc 95dd 8ebd 49c8 bfbc
000000d0: 1b69 5dbd a6b9 1a3e 1ff1 e3bd 587c 8ebd
000000e0: 61e9 233d 5e18 9b3d f643 b93d 2763 a43d
000000f0: 7411 bbbd c586 ebbc 8171 9a3d f0d5 6ebd
00000100: 41c9 383e ac0f 423d b013 e2bd 1ead 0b3e
00000110: 2df8 dd3d 0896 c5bc d32b 153e 6f93 363d
00000120: 45bc aabd 51da c0bd c0fe e03c d5fd 133d
00000130: 7695 3b3e 8214 02be bfd4 ec3d fae5 153e
00000140: 7535 56bd 19a0 493e 3e22 fe3d 559d e83d
00000150: edec 593d eea8 87bd fba9 89bc 1b01 1b3e
00000160: 6358 00be b8c2 f3bd e8d3 18bc 0350 2fbd
00000170: caac c2bd 4113 023e 2053 72bd 8926 0e3e
00000180: 9667 2fbc f98a cf3c e052 433c 5cc3 403b
00000190: bebd ae3a 4e45 f93d 37bb af3d 6ef4 303e
000001a0: 9fdf b43d 2ef2 87bc a4cc 8dbd ad76 913d
000001b0: 9b80 83bd 12c2 1c3e 847e 373d 018c e53c
000001c0: 5503 50bd 510f 9bbd 6de0 003e abab 7a3d
000001d0: 95f1 1b3e 5707 4d3e 4834 3fbd 7639 233e
000001e0: 2d10 ffbc a5b0 413e a5e7 e8bc e0f5 7ebb
000001f0: a63a 8abc c113 0cbe fd2a d13d 17ab a13c
00000200: 76bb 263e 1c8d e33d ae72 28bd c0fa 0b3e
00000210: 74e2 6a3d a972 2d3e 8ace 2d3e 5cb7 32be
00000220: 60e4 903d 6b7b c3bd 3259 bbbd 1158 c93d
00000230: 40ad d7bd 97be debc 4d0c 113e a56d 51bc
00000240: 06b1 c63d 8e0e fd3d 9af0 523d 30bd 71bd
00000250: 85ba 95bd ad4e 143e 41dd e83b 89a3 2a3e
00000260: 98f2 bbbd 0412 acbd 3a6d f0bd 0895 d73d
00000270: f12c 183e c99f abbd 9618 62bc 8707 043d
00000280: ad86 223e 6aab bd3d 1a94 493d 6662 a9bd
00000290: ecc0 51bc cce9 5aba 5b65 e0bd c189 eb3d
000002a0: 778a 0fbe 37fe a13c a29e a9bc 0ed8 77bc
000002b0: 1277 21be 4347 acbd 5915 423e bd77 d33c
000002c0: bf0f c0bd 5cdd 77bd 524c 243d f7bb ac3d
000002d0: 6959 ad3d 4122 383e 2220 113e 9b40 183d
000002e0: 5b1c 353e ed70 fa3d 82fe 03bc f78d 13bd
000002f0: 6001 2a3e 6adc cfbd 3ab8 083e 1ef1 d03d
00000300: c679 8a3b 0a85 8f3c 1d51 d2bc 0181 263e
00000310: 4915 083e 6466 c23d 38a2 09bc 3283 1dbe
00000320: 30cc 7b3d 79ce 8ebd eaaf a53d ee70 4b3e
00000330: c056 bebd 8754 ddbd 8083 d9bd 93b9 91bd
00000340: 6e23 b7bd b74d 053d 9b71 67bd b626 96bb
00000350: 0fe7 4a3d 7d46 b9bd b349 2d3d 6dd8 cdbd
00000360: ab0a e13d 7f45 063e edf7 a43d 6d6e ec3d
00000370: 5ea3 4b3c 02c4 a6bd fd9b 08bd 5c64 00bd
00000380: 8017 04be 1f8a 333e 9607 c13b 9f32 143e
00000390: 1882 31bc 27f2 1b3e 8972 f5bd d260 a6bc
000003a0: fee9 af3d 02e8 043e d72b a43d 9c21 c3bd
000003b0: 4260 c9bd 620a a1bd c12f 1f3e 9b3b 0bbe
000003c0: d617 0bbd aed5 0ebe cc3a b5bc c842 6bbd
000003d0: 80fb 66bd bbe7 723c 53a5 2c3e 252d e23c
000003e0: 19f9 0abe 1bfb 2bbe d17f 123d 7d57 3c3e
000003f0: ab27 8ebd 3c61 63bd 811d 1abd 923e 27bd
0.23392425 -0.1485486 0.07778701 -0.03911434 0.13529712 -0.15730381 0.1267923 0.09093668
0.10208751 -0.11891302 -0.06721365 0.16873774 0.09303894 -0.13545236 0.014001508 0.11622991
-0.087876 0.06983239 0.019561572 -0.12559041 -0.101316474 0.117708124 0.07617135 0.12705739
0.14520498 -0.124874234 0.12672824 -0.0029434972 0.12413454 0.01632682 0.0132005885 0.14684653
0.12578686 0.0259011 0.03259296 0.14815296 0.12064923 -0.022432815 -0.11979419 0.06324261
0.014766279 0.10259244 0.123776846 -0.022497507 0.063573614 0.14810978 0.106821805 0.10387727
-0.026479261 -0.022971738 -0.06975857 -0.023410933 -0.054055315 0.15109882 -0.111299746 -0.069573104
0.04001749 0.07573007 0.09046166 0.08026724 -0.09134188 -0.028750787 0.075411804 -0.058309495
0.18045522 0.047378227 -0.11038911 0.13640258 0.108383514 -0.024119392 0.14567499 0.044574197
-0.08336691 -0.094166405 0.027465224 0.036130745 0.18318734 -0.12703136 0.115640156 0.1463851
-0.052297074 0.19689979 0.12408875 0.11358134 0.053204466 -0.06624018 -0.016804686 0.1513714
-0.12533717 -0.11902374 -0.009327866 -0.042800914 -0.09505613 0.12702657 -0.059161305 0.13881887
-0.010705849 0.025334822 0.011921614 0.0029413318 0.0013331694 0.12171422 0.0858063 0.17280743
0.08831715 -0.016594972 -0.06923798 0.07102714 -0.06421014 0.15308407 0.04479839 0.02802086
-0.050784428 -0.07571281 0.12585612 0.06119887 0.15228875 0.20022331 -0.04668072 0.15939888
-0.031135643 0.18915041 -0.02843077 -0.0038903877 -0.016873669 -0.1367941 0.102132775 0.019734902
0.16282448 0.11110899 -0.041124992 0.13669872 0.05734487 0.1693827 0.1697332 -0.17452759
0.07074809 -0.095450245 -0.09147872 0.098312505 -0.10531092 -0.02719049 0.14164849 -0.012782489
0.09701733 0.12356292 0.051498987 -0.059018314 -0.073109664 0.14483137 0.0071064536 0.16663946
-0.091771305 -0.08401874 -0.11739583 0.10526472 0.14860894 -0.08380086 -0.013799807 0.03223374
0.15871687 0.0926121 0.049213506 -0.08270721 -0.012802344 -0.00083508785 -0.10956832 0.11500884
-0.14017664 0.01977454 -0.020705525 -0.015127195 -0.15768078 -0.084120296 0.18953456 0.025813932
-0.09378003 -0.06051384 0.040111847 0.08434289 0.08464319 0.17981817 0.14172414 0.037170988
0.17686598 0.1222857 -0.008056285 -0.03602406 0.16602087 -0.101494625 0.13351527 0.102022395
0.0042259423 0.017519493 -0.025673443 0.16260149 0.1328937 0.09492186 -0.008400492 -0.15382078
0.061474025 -0.06972975 0.080901936 0.19867298 -0.0929389 -0.10807138 -0.10620785 -0.071154736
-0.089423046 0.032544818 -0.056504827 -0.0045822514 0.04953676 -0.09046648 0.042306613 -0.100510456
0.10988363 0.13112448 0.080551006 0.115444995 0.0124290865 -0.08142854 -0.033351887 -0.03134571
-0.1289959 0.17533158 0.005890797 0.14472435 -0.010834239 0.15229093 -0.119847365 -0.02030984
0.08589552 0.12979129 0.08016174 -0.09527895 -0.09832813 -0.078633085 0.1554556 -0.13596956
-0.03395828 -0.139487 -0.022122763 -0.057436734 -0.056392193 0.014825757 0.16859941 0.027609417
-0.13571586 -0.16795008 0.035766426 0.18392749 -0.0694116 -0.05551265 -0.037625793 -0.040831156

FC2.weight f4 [256, 256]
00000000: f327 c53d 0d8a 6b3d 51e5 f2bc 94e1 4339
00000010: 6b23 003d c2c2 ecbc 5953 43bc 48ad b03c
00000020: 5ed8 773d f691 d8bb 3bee ba3d 2c20 ec3d
00000030: 145c da3c 197a e5bc ddd2 a53d f69d bf3d
00000040: 4359 1bbd e7ee ae3d 8d73 7dbc a7da 813d
00000050: b5c9 993d e94e 833d 0960 8c3d 7eea 4c3d
00000060: 30e4 a83d e961 513d 71e9 1c3d aa05 4c3d
00000070: 17c7 803d b6d4 423d f2aa e3b9 305b 073d
00000080: ee6b 7d3d 74a8 03bc e238 433d 706c 593c
00000090: 724b 323d 653f b7bc 59b5 123c 51c6 e03c
000000a0: d525 613c 5c15 903d 6a17 813d 4866 633d
000000b0: 392d 263d 2f06 713d d437 453d e0b6 293d
000000c0: 0daf 1a3c 5b93 a33d 7ea0 733c 8672 89bc
000000d0: cec4 00bd 5299 893d 4b63 a53d 12b4 003d
000000e0: c483 9f3d 1449 643d 9e3b d2bc ad5c 9c3b
000000f0: 2ae2 82bc b800 7f3d bff4 823d 36aa eebc
00000100: c529 e4bc 7eda bd3c b07e 9e3d fc0b 6cbc
00000110: 80ac 02bd b099 d4bc d579 933d 0e8b e03d
00000120: 2587 333d 5d4c b23c d524 3b3d c132 6fbd
00000130: 5d3b 953d c7d4 5d3c 3bad 473c 4123 d03b
00000140: 7f50 17bb a885 483d 0e02 4ebc e71f 013d
00000150: d88a b3bb 507f df3a 696b 283d 8c22 c63c
00000160: 4d07 433d e7ef 57bd f7ca 433c 5dc3 ce3d
00000170: 980a 933d 4502 b83d fa53 953c cc85 e6bc
00000180: bafd 81bb af81 07bd fa6a ae3d 282c 9fbc
00000190: f671 b23d 0b1a 743d 8b74 a23d 3986 10bd
000001a0: 424c 623c 3b72 a13d 661f 9d3d 485b fd3c
000001b0: a705 83bd 3eb1 a1bc f9e2 6d3d 7ef6 8c3d
000001c0: 7a41 4d3d 1a02 b53d 82ad 513d 1d56 823d
000001d0: 72ca 573d 0842 a53d 908b 8b3d 9fb2 10bd
000001e0: 6a5d 5cbc f6dd 5a3d 02fb 3e3d 20a4 83bc
000001f0: 1f13 e13c 5a79 713d e006 cfbb 96f6 6e3d
00000200: 2176 a43d c727 03bb c629 8f3d 3d58 363c
00000210: 510a f03a 711f 51bc ce6f 9d3d f48e d6bc
00000220: e4da b13d b62c 923d 5057 243d 19ba ac3d
00000230: d1ba eabb 49d2 b73d a7dd e63c a5c0 293d
00000240: b322 5b3d d081 7b3d e25f 02bd 7a2a 473d
00000250: 661f 383d 6d2e a53c ec91 233d 47a3 29bb
00000260: c2aa 173d 1238 b63c c1ec 653d 4dee a73c
00000270: 3e1b 133d 9d0a 0a3d 7e50 563c aebd 753c
00000280: e75b d53c 5878 693c b6ab d53d c2fa 8a3d
00000290: 2098 3d3c df6e 6c3d be4d 07bd 9d59 a93d
000002a0: 4a83 a0bc 2c0c b03d 0eda 13bd 6cbd 0a3d
000002b0: 75bb 773c d07c 413d cde5 a83d dbbb 28bd
000002c0: dede 393d 0edf 153d f8a7 c5ba 8407 b23d
000002d0: 300b 8c3d 81f9 e63b 8484 883c 175a e33d
000002e0: 348a b93d 532e 8d3d c8ca 1c3d 4b66 64bc
000002f0: 74a2 fbbc 797b 5f3c 294e 0ebd 4390 7b3d
00000300: 33aa 8b3d 2c3b a93d a738 283d 70b1 b23d
00000310: 4760 1b3c e819 373d b12c 37bc cfd4 1cbb
00000320: 81f1 003d cac2 dbba 6f84 023d df9d 8b3c
00000330: 3779 073d 674e c2bc 445b bc3c e58b 7b3d
00000340: 642e b7bc c7f4 823c 5dd9 b33d 26b8 693c
00000350: c24b 403d 1410 1a3d faa9 9b3a d3db 25bd
00000360: 38e9 a1bc 97eb ad3c 6fa7 513d 6db6 08bd
00000370: e26e 233d 878d 043d c361 be3d 7a5e b63d
00000380: 8f7d 863d b51c 8c3d 3ba3 943d 02d3 4e3d
00000390: f0c0 4bbc f388 133c 4288 313d 23a9 bc3c
000003a0: 496e 873d 604f 75bc ee68 153d e336 9f3d
000003b0: e5e9 ac3d 114f 183c 5448 c3bb 21f8 953d
000003c0: c971 7d3d deb2 273d 930f 7b3d 0275 c93d
000003d0: ea0d 9a3d cd7b 5dbd a761 8e3d 3575 7c3d
000003e0: c4b0 38bd 98c0 ddbc a9f5 9f3c e1a1 d83c
000003f0: b0e7 07bc fa81 213d 7a98 183d c9bc 9f3d
0.0962676 0.057504702 -0.029650362 0.00018680684 0.031283777 -0.028901462 -0.011921727 0.021567002
0.06050908 -0.006609197 0.0912747 0.11529574 0.026655234 -0.028012322 0.080968596 0.093563005
-0.037926923 0.08541661 -0.015469444 0.06340533 0.07509176 0.06411535 0.06854255 0.050028317
0.08246648 0.051118765 0.038308565 0.04981009 0.062879734 0.04756614 -0.00043424178 0.033045948
0.061870508 -0.008035768 0.04766167 0.013270482 0.04352898 -0.022369096 0.008954369 0.027438315
0.01374193 0.07035324 0.06303294 0.055517465 0.04057047 0.058843788 0.048148945 0.04143417
0.009441149 0.0798709 0.014869807 -0.016778242 -0.031437688 0.06718697 0.08075579 0.03142173
0.07788804 0.055733755 -0.025663193 0.00477179 -0.015976984 0.062256545 0.06394338 -0.029133897
-0.027851949 0.023175474 0.077390075 -0.014407154 -0.03190279 -0.02595219 0.07200972 0.109640226
0.043830056 0.021764928 0.045689423 -0.058398012 0.07286713 0.0135395 0.012187297 0.006351859
-0.002308875 0.04895559 -0.012573732 0.031524565 -0.005479198 0.0017051492 0.04111806 0.024186395
0.047614384 -0.052719023 0.011950246 0.10095856 0.07179755 0.08984808 0.01822852 -0.028139971
-0.003967014 -0.03308266 0.08516498 -0.019430235 0.087131426 0.05959515 0.07932385 -0.035284255
0.013812127 0.07883116 0.076720044 0.030927315 -0.063975625 -0.019737836 0.058077786 0.06882952
0.05011127 0.088382915 0.05119086 0.06364081 0.0526833 0.08069235 0.06813729 -0.035326596
-0.013450006 0.053434335 0.0466261 -0.016069472 0.027474938 0.05895362 -0.0063179582 0.05834063
0.08030344 -0.0020012723 0.069903895 0.011129436 0.0018313621 -0.012763844 0.07687341 -0.026191212
0.08684328 0.07137434 0.04012233 0.08433933 -0.0071633835 0.089756556 0.028181864 0.041443486
0.05349989 0.061403096 -0.031829722 0.048624493 0.04495182 0.02016374 0.039934084 -0.0025884674
0.03702808 0.022243533 0.05613399 0.020499373 0.035914652 0.033701528 0.013080714 0.014998836
0.026044799 0.014249884 0.10433142 0.067861095 0.011571914 0.057722922 -0.033033125 0.082690455
-0.019593854 0.085960716 -0.036096625 0.033872053 0.015120377 0.04723817 0.08246956 -0.041194778
0.04537856 0.036589675 -0.0015079966 0.0869284 0.06838071 0.007048786 0.01666475 0.11101168
0.09059563 0.06893601 0.038279325 -0.013940404 -0.030717112 0.013640278 -0.034742508 0.061416876
0.06819572 0.08263239 0.041069653 0.0872525 0.0094834035 0.04470244 -0.011180089 -0.0023930555
0.031480316 -0.0016766426 0.03186458 0.017043052 0.033074584 -0.023719026 0.022992738 0.06141271
-0.022360988 0.01598586 0.08781693 0.014265096 0.04694725 0.03761299 0.0011876218 -0.040492844
-0.019764528 0.021230502 0.051185068 -0.0333771 0.039900668 0.032361533 0.0929599 0.08904739
0.06566917 0.06841413 0.07257696 0.0504942 -0.012436137 0.009004819 0.043342836 0.02302987
0.06612832 -0.014972538 0.036477022 0.07774141 0.08443049 0.009296195 -0.00595955 0.073227175
0.061876092 0.040942065 0.06129415 0.098367706 0.07522185 -0.054073144 0.069522195 0.061635215
-0.04509045 -0.027069375 0.01952632 0.026444377 -0.008294985 0.039430596 0.037254788 0.0779968

FC2.bias f4 [256]
00000000: a7c1 bdba 54c0 34bc b658 ef3d ce71 dc3c
00000010: c926 cdbc bb11 fb3c aa6c d23c b420 2e3c
00000020: dbe0 693c 6ffc 6b3c c6df 8e3d 6f0e 813d
00000030: f5d7 bcbb 33b6 b63b ad99 243d 924e 103d
00000040: 5e8f 47bd 59d8 1bbd e9f3 0ebc c20a 063d
00000050: 6d93 343c f361 823d 95d0 463d 6d28 ffbb
00000060: 3553 7fba 37df 20bc 70fa 05bd a5f8 2b3d
00000070: 803f 77bc 694a 7c3c 03bd 7cbc 9965 0f3d
00000080: 1957 86bd 6be2 0a3d d4b3 8b3d 9518 883c
00000090: 0f6d 0f3b db31 e53c b8ea ba3d 3152 d338
000000a0: 2e93 a33d d81b 9abc 8e34 7e3a 075e 85bb
000000b0: a5b2 0dbd 94df 89bd 239d 01bd d8bf 8e3d
000000c0: a9d7 523c 4d8f 2c3d b38a 1abd 4574 393d
000000d0: c206 80bc b99e b63d 6d40 163c bb81 173b
000000e0: 6b26 7cbc 87c9 8dbb 4e75 17bd 8c2e 803d
000000f0: cf95 13bd 1d62 60bc 97a4 dcbc 2c00 72bd
00000100: 3179 093d 940d 563c 53df b8bc 067c a8ba
00000110: 829c 2cbd 6f4a 893d fc98 d03b ca27 233d
00000120: 68df d03d 76d4 5ebd 6b8d 83bd f1c1 89bd
00000130: f070 1f3b 22f7 46bd e3ad 83bd 8d02 653c
00000140: 7ae5 bc3d 2b69 58bd e02e 56bd 472a 043d
00000150: 7e50 073d 8247 a23c 4bbe 5dbd 78e8 a43c
00000160: c645 8ebc af32 2ebc 5101 0d3d f03a 303d
00000170: 6888 9f3d 51f9 25bb d72a 2cbd a634 833d
00000180: cd7c 783c 5105 983c b56e 293c 22b2 143d
00000190: 537b 133d 2afd 073d 340a 10bd 2514 dd3a
000001a0: 6c92 fa3c 432d 1bbc fbbc 87bd 15a6 c93d
000001b0: db49 183d 429a 403b 9aa1 af3d e9ec f2bc
000001c0: eb34 6dbd 93b9 16bd 11c0 043d 5f68 653c
000001d0: 1c2d e1bc da6f 453d 34cf c2bc 0326 793c
000001e0: b450 c53c 052a 80bd 099f 2e3d 8ea9 18bd
000001f0: 847a f73c fade 903c be10 403d de8f 57bd
00000200: 5763 5ebd 915c c13c 120f 343d cbc9 b53c
00000210: 63c9 8abd 75e8 2b3c b1fb bc3d 58c7 22ba
00000220: 381e 92bd ba78 1b3d 2341 09bd 50ab 2cbc
00000230: 3f19 89bd 32ba 63bc 511a 0ebd 8f93 e63d
00000240: 21dd edbc 24c8 a13d 01ea 8e3d c63f ee3b
00000250: da0c 7fbb e0ae 2fbd b44e 0cbd 3474 5c3d
00000260: fda1 cd3b 90da efbc 60d2 56bd 8b9a 53bd
00000270: 738d f53c 3a8b 573d 8d17 23bd 2f2f 9e3d
00000280: 8292 993c 76d8 8dbc ea3b 993b 8e2f 433d
00000290: 0c0e 7f3d e072 b73b 24d4 52bd d789 4dbd
000002a0: e040 103d d888 653d 550e 713b 7b32 88bd
000002b0: 414b 233d 971a 953c a9a0 813d 0ef4 97bc
000002c0: 4590 863d b9a8 ab3c 7d02 cf3b 8d30 903d
000002d0: aa5e 163d 6e80 093b 57d4 37bd 54ad 78bd
000002e0: 9895 9b3c 2f5c ee3c 20bd 67bd 30f2 88bd
000002f0: 5f69 08bd 75e3 2a3d 9446 4a3d c67d a9bc
00000300: 9095 293a e85f 863d 58ab efbb c85b 64bd
00000310: f449 8f3a 38f5 89bd dcff 9cbc c49f 0abd
00000320: 0f94 343d bc8e 993d 4c89 84bc c1c6 2cbd
00000330: 7601 a5bd fb0e 023d 3c79 1b3d fd28 09bc
00000340: 4cf1 c53c 8e68 5d3d ab57 a93d 2d25 973c
00000350: 1a52 34bd 6678 7abd 0e55 d03c da36 ed3c
00000360: 8d99 c8bc 54f1 59bb 33ae c63c bd49 c9bc
00000370: ec0b 1bbd dd60 0c3d 8682 423d 2331 e43b
00000380: 25a7 a53c 8cf9 653d d845 823c 43ee 013c
00000390: fc43 3f3d a03f 33bc 6034 2e3d b8cc 5a3c
000003a0: 2d78 893c 37fa 603c 34d1 7cbd d8ca a1bc
000003b0: 20d4 72bc 60d1 fa3c 8d01 32bd 9f79 20bc
000003c0: 45ce 17bd 14c4 563d 1079 86bd 7355 c03c
000003d0: f81f 25bd 1b8a 38bd e7cd a9bb a52a 91bb
000003e0: 7c2a 923d c37a 3ebd c350 b73b f922 8f3d
000003f0: e76a 2a3d db2e 14bd 4c85 00bb 7fba 463d
-0.0014477269 -0.011032183 0.11686842 0.026909735 -0.025042908 0.030648103 0.02568658 0.010627914
0.014274801 0.014403447 0.06976275 0.06301581 -0.005763049 0.005575919 0.04018562 0.03523118
-0.04872071 -0.038048122 -0.008725145 0.032725103 0.011021477 0.063663386 0.048538763 -0.0077868016
-0.0009739877 -0.009818844 -0.03270954 0.041985173 -0.015090823 0.0153986 -0.015425923 0.035009
-0.06559581 0.033907335 0.06821409 0.016613284 0.0021885072 0.027977875 0.091268 0.000100765734
0.07987057 -0.018812105 0.00096971623 -0.004070047 -0.034594197 -0.06732097 -0.031643998 0.06970185
0.0128688 0.04212885 -0.03772993 0.0452769 -0.015628222 0.08916993 0.009170634 0.0023118097
-0.015390019 -0.0043270024 -0.036977105 0.06258878 -0.03603154 -0.013695267 -0.026933951 -0.059082195
0.033562843 0.013064761 -0.022567427 -0.0012854345 -0.042141445 0.0670365 0.0063658934 0.039832868
0.10198861 -0.054401837 -0.06423458 -0.067264445 0.002432879 -0.048575528 -0.06429651 0.013977659
0.09223457 -0.05283467 -0.052290797 0.03226688 0.033035748 0.019809488 -0.054136556 0.020130381
-0.017367255 -0.010632201 0.034425084 0.043024957 0.07789689 -0.0025325606 -0.042033043 0.06406526
0.015166474 0.018557223 0.010341336 0.036302693 0.036006283 0.03320042 -0.03516598 0.0016866965
0.030587398 -0.00947124 -0.06627842 0.09846131 0.03717981 0.002938882 0.08575745 -0.029653983
-0.057911795 -0.03679807 0.03240973 0.014001935 -0.02748733 0.048202373 -0.023780443 0.015206817
0.024086334 -0.062580146 0.042632136 -0.037271075 0.030209787 0.017684449 0.046890967 -0.052627437
-0.054293957 0.02360371 0.043959685 0.022190949 -0.06776693 0.010492434 0.09227694 -0.0006209514
-0.0713467 0.03795693 -0.033509385 -0.010538891 -0.066942684 -0.013899373 -0.034693066 0.11258613
-0.029036107 0.07899502 0.069782265 0.007270786 -0.0038917572 -0.042891383 -0.034254745 0.053821757
0.006275414 -0.029279023 -0.052446723 -0.051661056 0.029974675 0.05262301 -0.03981738 0.07723843
0.018746618 -0.01731513 0.0046763318 0.047652774 0.062269256 0.005598411 -0.051471844 -0.050180282
0.03521812 0.056038707 0.0036782224 -0.066502534 0.03986669 0.018201156 0.063294716 -0.018548992
0.06570486 0.020954477 0.0063174353 0.0704051 0.036711372 0.002098109 -0.044880237 -0.060712174
0.01899223 0.029096691 -0.056576848 -0.066868186 -0.033303615 0.041720826 0.049383715 -0.020689856
0.0006469125 0.065612614 -0.007314127 -0.055751592 0.0010932074 -0.06736225 -0.019164972 -0.03384377
0.044086512 0.074979275 -0.01617875 -0.042181734 -0.08056919 0.031752568 0.037957415 -0.008371589
0.02416291 0.05405479 0.082686745 0.018450344 -0.04402361 -0.061149977 0.025431182 0.02895682
-0.024487281 -0.0033255415 0.024252987 -0.024571294 -0.037853166 0.034272064 0.047487758 0.0069638654
0.020221302 0.05614619 0.015902445 0.007930341 0.046695694 -0.010940462 0.042530417 0.013354473
0.016780937 0.013731531 -0.06172295 -0.019750044 -0.014821082 0.030617416 -0.04345851 -0.009794622
-0.03706195 0.05243309 -0.065660596 0.023478245 -0.04031369 -0.045053583 -0.005182016 -0.0044301325
0.071370095 -0.046503793 0.0055943443 0.069890924 0.041605856 -0.036177497 -0.00196107 0.0485177

action_out.weight f4 [5, 256]
00000000: 3ed2 88bd f3a8 adbc 372c b7bc 6bbb 3e3d
00000010: aa9f a9bb c6fd 7b3c a380 2ebd e093 0c3d
00000020: 13b0 9f3c 3dce c43c ae6e 90bd add9 01be
00000030: db41 3f3d 3ff4 a1bc 2d6a 4c3d e093 adbd
00000040: cbaf d4bc ab0b 63bd 3f08 ccbc 8ddc 2e3c
00000050: 22fd 133d 3b78 e9bc d016 88bc ded1 9fbc
00000060: d080 d23c 587b f1bc b8ec 763c 7158 f23b
00000070: 4e81 7ebd 573b bebd 1fa2 a03c dcd8 6a3d
00000080: c56e 5e3d ae79 28bd 289d f73c 5a35 8abc
00000090: 5672 6c3d 7583 37bd d840 32bd 26ba 0cbd
000000a0: c195 413d f399 8bbc 84c0 61bc 09e5 79bc
000000b0: 15b0 2dbd 4f13 1ebc fa6d 7c3d 567f 9e3c
000000c0: d9b0 24bd 6603 7c3d 434b b6bb 1f28 2b3d
000000d0: 5f49 1fbd d70d 2fbd 8847 e0bc 6cac 123d
000000e0: f2a0 433d 00ef edbb 7d5b 0f3d eb80 70bd
000000f0: 6f04 123d 3640 49bd 449b e43b 13b6 27bd
00000100: 405f 31bd f7a2 fbbc 43ac 56bd 276d 55bd
00000110: d82a 8d3b 947b adbd 74fd 98bc 908b e5bc
00000120: 0e5c 043d 1446 d8bb 0384 613d 3a33 b53c
00000130: e0cc 74bd 907b 3abd 0efe 65bd 52e9 eebd
00000140: 0049 ccbc 753b 15bd 3193 f73c 0443 c2bc
00000150: 64eb 933c 0187 fdbc f6ca d9bc ea66 dabc
00000160: 9c96 54bd bdd3 67bd e164 11bc 10f0 2aba
00000170: 6701 193b 5489 31bd 64f6 01bd ff58 d6bc
00000180: f227 333d 650a 87bb e980 8abd 4b25 e6bc
00000190: 3cb2 91bb 9ece 1dbd 2096 45bd af01 65bc
000001a0: 7c6d 58bd 33ab 50bd 6994 59bc 6f70 91bd
000001b0: 56c5 1fbd a29c c23c 1979 3cbc e801 41bc
000001c0: 37f8 c6bc 0890 32bd 18f3 31bd 59e3 bb3c
000001d0: 3e99 26bd bb37 05bd 27fd da3c a7be 2d3d
000001e0: f2b8 dcbc 3a20 333d b34e 263d b8f6 e43b
000001f0: 93c0 cc3b 1910 d93a f724 a7bc fc12 fa3c
00000200: 2b71 1e3d 7801 23bd bf5d e33b 73fd 20bc
00000210: 239e 233d 018d 283d ea52 9c3c 1c87 11be
00000220: be20 f7bc f1de 1e3d b80b 1c3d 2899 f3bb
00000230: b2ee 2fbd 618f 303b d58e 4e3d 976e 78bc
00000240: c94e 67bc 7f96 cfbc ee38 28bd aa25 1f3d
00000250: 1f8c 18bb 6947 f0bc 4a67 783b 5e77 553d
00000260: f858 b23c 1ff9 eabc 6131 273d 179e ffbc
00000270: a3e7 9abd 1c9a 0cbd b8b1 b73c 5d88 1f3d
00000280: 099f 6d3c b280 0b3d d09e ebbc bc6e 873c
00000290: cc15 79bd f31e 093d 922f ccbb 9968 9c3c
000002a0: 218d deba c817 a9bb 6ff2 63bd 0c3e 80bc
000002b0: 6753 e7bc 18e8 773c 21ce d13c f432 99bc
000002c0: 6a12 69bd 6b15 df3c 2dc0 ccbc f9f4 03bd
000002d0: 3617 e03b 06eb eabc 4d3e 78bc 17f0 bb3c
000002e0: fb25 87bc df4d 5fbc 5c54 093c 3d6a 05bd
000002f0: 9800 53bc cc10 30bd 57c6 c2bc 39a6 363a
00000300: 42d5 c5bb ae75 4e3d 895d f43b 8420 6f3d
00000310: a069 27bd b436 383d 7964 38bd a84b 803a
00000320: 2df5 1d3c b26a 5f37 6761 b13c 987a 2e3d
00000330: 9bcc ac3c 3b0e b0bd 9f28 86bd d18e 033b
00000340: 70ad 3c3d 5113 ec3b 55b4 383c d089 5fbd
00000350: 0f37 19bd fcdf 983c 464a 16bd afdf ae3c
00000360: d41a bf3c 5f65 54bd a441 47bd 76c3 fdbc
00000370: 6681 1ebd 0d4f 633d 352f 44bd 4854 33bd
00000380: 8165 153c f412 ba3c d50c 63bc 3609 633c
00000390: e5d1 983c 8941 0c3d 274c 063d 87c6 29bd
000003a0: 1b4d 9bbd 88f2 ec3c 07c5 dabb b1e3 94bb
000003b0: 4230 3b3c ed1e 01bd ffa8 453d 6298 33bd
000003c0: ac9b ba3c ee44 87bd 0806 85bb c22f 14bc
000003d0: 2874 4abd ca0d 19bd fb70 abbc fa15 0d3d
000003e0: 96d4 6abd c572 8dbb 8caa 66bc 7f2e 2fbc
000003f0: 8b11 48bd c672 4a3d 1995 0ebc 41d0 b33c
-0.066807255 -0.021198725 -0.02235995 0.046565454 -0.005176504 0.0153803285 -0.042603146 0.034320712
0.019493138 0.024024123 -0.070523605 -0.12680693 0.046693664 -0.019769786 0.049905945 -0.084754705
-0.02596273 -0.05543105 -0.024906276 0.010672701 0.036130078 -0.028499713 -0.01661244 -0.019509252
0.025696188 -0.02947776 0.015071087 0.007395797 -0.062135033 -0.09288662 0.019608555 0.05733572
0.054304857 -0.041131668 0.030226305 -0.016871143 0.057726227 -0.0448031 -0.04351887 -0.034357212
0.047261957 -0.017041182 -0.013778809 -0.01525236 -0.042404253 -0.009648158 0.06162832 0.019347828
-0.040207718 0.06152668 -0.005563171 0.04178631 -0.03888833 -0.042737808 -0.027377859 0.035808966
0.04776091 -0.007261157 0.03499936 -0.058716696 0.03564876 -0.049133502 0.006976517 -0.040945124
-0.043303728 -0.030717356 -0.052410375 -0.05210605 0.004308086 -0.08470836 -0.018675543 -0.02802065
0.032314353 -0.006600151 0.055057537 0.022119153 -0.059765697 -0.045527995 -0.05615049 -0.11665596
-0.024937153 -0.036433656 0.030221554 -0.023713596 0.018056579 -0.030948164 -0.026586037 -0.026660401
-0.051901445 -0.056598414 -0.008874149 -0.00065207575 0.0023346783 -0.043343857 -0.031729117 -0.026165484
0.043739267 -0.004121112 -0.06762869 -0.028093955 -0.004446296 -0.038527124 -0.048238873 -0.013977452
-0.052838787 -0.05094452 -0.013280013 -0.07101523 -0.039006554 0.023756329 -0.011503481 -0.01178024
-0.02428828 -0.04359439 -0.043444723 0.022935556 -0.040673487 -0.03252385 0.02673204 0.04241815
-0.026943658 0.043731906 0.040602397 0.006987419 0.0062485426 0.0016560584 -0.020403368 0.03052663
0.038682144 -0.039796323 0.0069386656 -0.009826052 0.039945733 0.041150097 0.019082505 -0.14211696
-0.03016698 0.038786832 0.038097113 -0.007434029 -0.042952247 0.002694093 0.050429184 -0.015163085
-0.014117905 -0.025340317 -0.041069917 0.03885428 -0.0023276878 -0.029330926 0.0037903362 0.05211579
0.02177094 -0.028683243 0.040818576 -0.031203313 -0.075637124 -0.034326658 0.02242361 0.038948406
0.014503249 0.03405828 -0.028762251 0.016532294 -0.060811803 0.03347678 -0.0062312568 0.019092845
-0.0016979316 -0.0051603056 -0.055651125 -0.015654586 -0.028238012 0.015131019 0.025610985 -0.018701054
-0.056902327 0.027231893 -0.02499398 -0.032216046 0.0068387045 -0.028676521 -0.015151572 0.022941632
-0.016497603 -0.013629406 0.008381929 -0.03257202 -0.0128785595 -0.04298477 -0.023776216 0.0006967518
-0.006037385 0.050405197 0.0074574393 0.05838062 -0.040872216 0.044974044 -0.045017693 0.0009788172
0.009640974 1.3316678e-05 0.02165289 0.042597383 0.021093657 -0.08596464 -0.065507166 0.002007414
0.04606384 0.007204451 0.011273463 -0.054574788 -0.037406024 0.018661492 -0.036691926 0.021346895
0.023328222 -0.051854488 -0.048646584 -0.030976992 -0.038697623 0.05549531 -0.047896583 -0.04378155
0.009118439 0.022714116 -0.01385804 0.0138571765 0.018654773 0.034242187 0.03278747 -0.041449096
-0.07583066 0.028924242 -0.0066763195 -0.0045437445 0.01142508 -0.031523634 0.04825687 -0.043846495
0.022779308 -0.06604944 -0.004059557 -0.0090445895 -0.04942718 -0.037366666 -0.020927897 0.034444787
-0.057331644 -0.00431666 -0.0140787475 -0.010692238 -0.048844855 0.049425863 -0.00870254 0.02194989

action_out.bias f4 [5]
00000000: 03fe 143d b7c8 6d3d 4f1d acbd ee68 c4bc
00000010: 88d2 633d
0.036375057 0.058052745 -0.08404028 -0.023975816 0.0556207

weight f4 [256, 123]
00000000: 670d 0f3d 8cfc 52bd 1015 b7bd 2d7d e5bd
00000010: 34e9 943d 10ce 923d ca29 f9bb db9d 50bd
00000020: a080 abbd 3c62 aebd 2792 18bd 4072 fcbc
00000030: 56b7 b3bd d407 753d 99dc 413d 93cb 273d
00000040: 4fae e23c 1f96 e83c cb0b b23c c24f 7e3d
00000050: d4ab 4abd 51bb 61bc 63fb c0ba ecd5 fb3c
00000060: 719c 433d f374 26bd abc6 88bd a57d 9aba
00000070: 1bbb 063e c215 963d 4ac8 14be f4e9 ddb9
00000080: b855 9f3d d24d 403d fe0a 89bd 90c1 8abb
00000090: 0a95 803d 7a8e 86bb a27c 053d 2d76 d0bb
000000a0: 402b 263c b7a9 72bd f627 763d 1a33 f8bd
000000b0: 2b28 923c 2e06 9b3d 7e23 d73d 09a0 0e3c
000000c0: 5ac4 a2bc e9e2 9d3d 6549 913d 94d9 96bd
000000d0: 6d7a 7a3d 24a3 94bd d268 323d a2ba 78bd
000000e0: b39b 9bbc 9512 68bd 91d4 92ba 9491 973c
000000f0: c16a 72bd a593 9e3b f071 393d d0b4 92bd
00000100: ac7c 1fbc ebda 8e3d 239e de3c 1000 32bd
00000110: b080 7fbc 9297 8e3d 006a 613a 0352 893d
00000120: cca0 ffbc 22b5 a7bd de7a 25bd af9a a0bd
00000130: 82a6 ea3c 50cf 1d3d c95e 573d d3f2 993d
00000140: 416a 7dbc 6561 153d 701d 47bd 8b86 8dbd
00000150: c395 ba3c 7888 223d 57c7 56bd d8cc a5bd
00000160: 84f9 a23d 56ad 0ebd 33dc a1bc 9eb1 963d
00000170: ee19 633c ed7e 4abd 0017 a13d c26e 06bd
00000180: 7dc5 533a 2373 24bd 636f b0bd 928a 82bd
00000190: 4759 b83d e0be c8bd 0161 02bd 9e3b 78bd
000001a0: 97bf 1cbd 06b4 07bd 1464 9bbd 7087 fd3c
000001b0: 6d4e 2ebc fa56 35bc a58e b43d d3ed 2bbd
000001c0: 52e6 72bd 0d97 8abd c711 99bd 4087 5bbd
000001d0: 69e6 a33c 721b 1b3d f38e 24bd 6f18 c9bd
000001e0: ed6a d63d 85f9 a0bd ad7e e4bd 4ffa 22bd
000001f0: b15d 36bd 48e6 36bd 2944 ee3c ce8a 27bd
00000200: f2f3 793d 2827 f73c 525d 68bd c7e2 7dbb
00000210: ba7b 543d 20a8 07bc b4f7 9dbd c899 a3bd
00000220: 5c5b afbd f49e 2bbc 552a 043d c60a cc3b
00000230: ac48 8f3d dee0 ebbc 450b 903c 5f88 cdbd
00000240: cf5b 473d 49c0 23bd ea3c a9b9 044e 253d
00000250: b20a 533c 3f23 a8bd 2666 cbbd 7071 e4bb
00000260: 9f34 c0bd 8c0a dfbd 83f8 3fbd 9400 593d
00000270: d4ac b9bc 5859 bcbc 92a9 50bd a82c 873c
00000280: 935f 8a3d 0eb0 5ebd bbb1 c93d 96c6 92bd
00000290: 9b44 053d b826 52bd 94b7 3fbc e5dd fdbc
000002a0: 4150 17bc df40 94bd 4ae7 8abd 33cc 1ebd
000002b0: 21d9 763d 8b19 60bd bf39 71bd a350 4e3c
000002c0: 40cf 0cbb e8e6 74bd 2680 a3bd a643 7abc
000002d0: 8221 d3bd 25df b4bc 4b70 d5bd d73a 03bd
000002e0: 5f64 453d 736d fe3c c122 a03c 13cf b63d
000002f0: 0c5b 0ebd c468 bcbc 978a debc 0003 dc3b
00000300: 3840 653d 78e0 c33c 8eeb 5bbd d016 703a
00000310: cf78 f23c 72bd 9a3a 7bb9 8bbc 6c64 a63c
00000320: d368 78bb 62af 5abd 8b3b 1a3d 5386 d43c
00000330: fe34 383d efeb c43d fdbc 53bd bc9a 003d
00000340: 7d33 06bd dda4 4d3d f08d 533d 6a8a e9bc
00000350: f1e9 d93c 0947 91bc 8e3d 8b3d 38eb a0bd
00000360: 1f86 423d afff 283c bbe9 f33c d1e3 46bd
00000370: 73ce 9c3d a18c 8f3d f0c1 ab3c 4362 583c
00000380: d320 04be c196 e1bd 507e 0a3c caf6 0e3d
00000390: fa86 3d3d 0605 7bbb 2b97 0cbd 1a95 6cbd
000003a0: fecd cebd e235 d5bb 6d7f e7bd 32eb 4fbc
000003b0: e21e 49bc 3fc4 ddbd 3f8b c8bd 6963 99bd
000003c0: 7c98 4b3b ebed 98bc 601d 2e3d c044 74bd
000003d0: 9044 5b3d d4cb 903d f75c 70bc ae5c 313d
000003e0: 2c4a 78bd 9163 863d 03b2 5d3c 51c9 c7bc
000003f0: 6c0d 163b 13e4 2b3c d42c 52bd 17bd 4bbd
0.03492489 -0.05151038 -0.08939564 -0.11205516 0.072710425 0.071682096 -0.0076038586 -0.050931793
-0.08374143 -0.085148305 -0.037248757 -0.030816197 -0.08775203 0.05982192 0.04732952 0.040965628
0.027671007 0.028391896 0.021734139 0.06208778 -0.049480274 -0.01377757 -0.0014723357 0.030741654
0.047756616 -0.040638875 -0.06678518 -0.0011786713 0.13157313 0.07328369 -0.14529529 -0.00042326713
0.077800214 0.046949215 -0.0669155 -0.0042345 0.06278427 -0.00410634 0.032589562 -0.006361744
0.010142148 -0.059243884 0.060096703 -0.12119122 0.01784142 0.07569538 0.105048165 0.008705148
-0.019869018 0.07709295 0.07094077 -0.073657185 0.06115191 -0.07257679 0.043556996 -0.060724862
-0.018995142 -0.056658346 -0.0011202266 0.018502034 -0.05918384 0.004839378 0.045274675 -0.071633935
-0.009734314 0.06975349 0.027175015 -0.04345709 -0.015594646 0.069625035 0.0008598864 0.067050956
-0.031204604 -0.08188845 -0.04040038 -0.078420036 0.02864385 0.038527787 0.05258063 0.07517018
-0.015467227 0.036469836 -0.04861206 -0.06910428 0.02277649 0.039680928 -0.0524362 -0.080957115
0.079577476 -0.034833275 -0.01975832 0.073580965 0.013861163 -0.049437452 0.07865715 -0.03282047
0.0008078439 -0.040148865 -0.08614995 -0.063740864 0.09001403 -0.098020315 -0.03183079 -0.06060373
-0.03826865 -0.033130668 -0.07587448 0.03094837 -0.010638815 -0.0110681 0.0881627 -0.041974854
-0.05930168 -0.06767092 -0.07474094 -0.05359578 0.020007329 0.03786797 -0.04017539 -0.098191135
0.10469613 -0.07860092 -0.11156974 -0.039789494 -0.044522945 -0.044653207 0.029085236 -0.04090386
0.06102366 0.030170038 -0.056729622 -0.0038739906 0.051875807 -0.00827983 -0.07713261 -0.07988316
-0.08562347 -0.010474909 0.032266933 0.00622687 0.06996283 -0.028793748 0.017583499 -0.10035776
0.04867154 -0.0399783 -0.00032279576 0.040357605 0.012880968 -0.08209848 -0.09931593 -0.0069715306
-0.09385037 -0.108906835 -0.04686786 0.052979067 -0.022665419 -0.022991821 -0.050942965 0.016500786
0.067565106 -0.054367118 0.098483525 -0.071667835 0.03253613 -0.051306456 -0.011701483 -0.030989597
-0.009235443 -0.07238936 -0.06782396 -0.03876896 0.060265664 -0.05471186 -0.05889296 0.0125924675
-0.0021485835 -0.05979052 -0.07983427 -0.015274918 -0.103091255 -0.02207906 -0.10421809 -0.032038536
0.048191424 0.031058049 0.019547822 0.08926215 -0.034754798 -0.022999175 -0.027165694 0.006714225
0.055969447 0.023910746 -0.05369144 0.0009158673 0.029598622 0.0011805727 -0.017056217 0.020311557
-0.0037904277 -0.053389914 0.03765444 0.025942957 0.044972412 0.09615313 -0.051693905 0.031397566
-0.032763947 0.050206054 0.051649034 -0.028508384 0.02660081 -0.017734068 0.0679885 -0.078573644
0.04749119 0.010314866 0.029774537 -0.048557106 0.076565646 0.07009245 0.0209665 0.013207021
-0.12903146 -0.11015082 0.008452967 0.034903325 0.0462713 -0.0038302555 -0.034323853 -0.05775938
-0.10097884 -0.0065066675 -0.113036014 -0.012690352 -0.012275429 -0.108284466 -0.09792184 -0.07489664
0.003106623 -0.018668136 0.042508483 -0.059635878 0.053532183 0.07070127 -0.014670602 0.043301277
-0.06061761 0.065619595 0.013531211 -0.024387987 0.0022896184 0.010491389 -0.051312283 -0.049740877

bias f4 [256]
00000000: 4f5d 85bd 826c 813d f773 9e3b 5aac b2bd
00000010: 3d88 04bd 8a96 cabc 8629 1d3d b0cd 823d
00000020: ebab 993d 3f73 c83c 549c c2bd 9021 39bd
00000030: 58a8 c9bc 5388 46bb 4dfe b6bb 0932 4f3c
00000040: 403e 75bd ae03 beba 49b9 a43d d68e 973d
00000050: ac78 e93c 4170 96bd 1881 07bd bb9a 86bd
00000060: 8b02 0e3d 61e4 7fbd e177 853d f4aa 673c
00000070: e56a bc3d 3acf 9b3d 4256 6b3d 2fc2 0c3d
00000080: 78b8 b7bd 5536 5cbd 2611 88bd bb52 d2bb
00000090: 08d2 6c3d ce73 8a3d c847 52bd 1859 a63d
000000a0: 139f 083d 7255 c9bd 1c60 11bd dcc0 253d
000000b0: 2817 2e3d a40d b3bd ef5c 6fbc 394e 0a3d
000000c0: 7821 e0bc 9ba2 99bd 6459 61bd 64cf 6bbb
000000d0: c8cf 5f3d 3f9b b4bd ba0f 58bd e43a 4cbc
000000e0: a87a d5bc 4230 6fbc baa5 ba3c e06e 643d
000000f0: 8755 583d ed0c e43b a89c e3bc 1645 e53c
00000100: f059 083d 49ce 8fbd edd3 a5bd ecde e73c
00000110: 830e 423c c3ea d83c f1de 813d 5697 9cbd
00000120: 3c4c aebd 626b 8bbd ba23 c2bc 805b 513d
00000130: 6d32 1ebd 4865 e4bc 8a73 923d 13e6 873c
00000140: 942f 99bd 4bd6 813c 0833 4fbd 7aa2 6dbd
00000150: d01e 473d 5f18 7abc 29c3 1f3d 1836 96bd
00000160: 47ee f3bc 9bad 8dbd cadf b2bc 9a72 7bbd
00000170: a8cb 34bc 3ea7 f6ba 4b6f 9abd be76 6a3d
00000180: 4e30 f43b 37e4 10bc f03e 523c e071 19bd
00000190: 6330 67bd 5149 733d fa54 eabb d7b2 f5bc
000001a0: cf03 fbbb 27ce 85bd 713e 89bc db5c a33d
000001b0: 9cab 213d 9562 ddbc 346d 80bc ec9d 2e3c
000001c0: 351e 6dbd b327 f53c cf66 c6bc 650e 623d
000001d0: 7c34 d53c 4e8f adbd dd1f abbd 9fcb ce3c
000001e0: 24d1 a1bd ed92 72bd 78b0 cfbc c9ea e63c
000001f0: 384b 953c 8750 163d 12e5 5cbd de64 cdbb
00000200: 5c40 b6bd 003e 97bc 1117 60bd 20ac 35bb
00000210: 4557 59bd b4c3 adbd 259c a23d 5210 63bd
00000220: eb59 6dbd a4f5 2f3d e5b5 33bc 0666 2e3d
00000230: 2141 67bd a319 583c c464 6f3a 4808 2fbc
00000240: 248d 3a3d 01f5 abbd 12ee 7f3d 2966 883c
00000250: 97a6 b2bd 0e18 db3c f4bb 30bd b6cc 9fbd
00000260: 34f2 53bd fa58 633c 86b8 6f3d 7275 31bb
00000270: cb70 86bd fa12 cb3c 8315 9bbd afe4 893d
00000280: c67f aebd e99b a5bd 9eda afbc 965e 9bbd
00000290: 434b d4b9 d4aa dfbc 3234 203a 7e32 873d
000002a0: e995 90bd db40 33bd 0686 513d 2263 d7bc
000002b0: 031d 913c de90 f13c f85d eabd a776 b3bd
000002c0: 7a1f 7dbb b10c 783d 61f7 86bd c530 2cbc
000002d0: ae8d ccbd 4cbe bd3c 0620 efbc 379a d3bc
000002e0: 86c8 a3bd 04ef 00bd 57f2 81bd a14f 6d3c
000002f0: c8bd c4bd 6cc9 e03c e797 a5bd a1af 87bc
00000300: 68fc 86bb 56db 8f3d b11a 153d 34a6 663d
00000310: 1fd3 613b 1c6d f33c 2384 58bc 70ea 5bbc
00000320: e10c a03c 5bb6 e9bc 4d01 bdbd 0144 98bd
00000330: cfa8 d13c d238 f0bd 17d2 0e3b e583 8ebd
00000340: b8cb 8dbd 11af 88bd 0aa4 64bc eb76 7bbd
00000350: 02dc d5bc 4c39 093d d709 9b3c 8150 a8bd
00000360: 886b e6bc f327 2ebc 03ab 2c3d 9ea8 5fbd
00000370: ca84 8a3d c58b f43b aeab f3bc e6c2 4c3d
00000380: 7dc5 773d 47d7 a53b 09a1 cb3c 0f4f 843d
00000390: b1c2 b73c 83d6 2dbd 6889 223d 1904 bebd
000003a0: efc0 a139 f767 5c3c a567 15bd 61cf 4cbd
000003b0: cd2d 84bd a83e 88bd f4c0 603d 060a 853c
000003c0: 5913 4cbc b7e9 a83c c7be 6abd cd34 9a3c
000003d0: aa5d d5bc 34a3 5a3d 88cc ea3c 476f 8bbd
000003e0: 3ee1 763d c70b f23c 7bf0 dcbc 8907 b0bd
000003f0: f3ef 6ebd a0f3 9fbd ae87 ccbd 88b4 efbc
-0.06511938 0.06319524 0.0048356014 -0.0872428 -0.03235649 -0.024729986 0.038369678 0.06386888
0.07503494 0.024469016 -0.095024735 -0.045198023 -0.024616405 -0.0030293658 -0.0055845142 0.012646207
-0.05987382 -0.0014496946 0.08043153 0.07400291 0.028499924 -0.073456295 -0.033082098 -0.06572481
0.034670394 -0.06247366 0.06517006 0.0141398795 0.09200076 0.07607885 0.05745531 0.034364875
-0.089707315 -0.053762753 -0.06643896 -0.0064185536 0.05781749 0.06760369 -0.051337987 0.08122462
0.03335483 -0.098307505 -0.035492048 0.04046713 0.042502552 -0.08742836 -0.014609559 0.033766005
-0.02735971 -0.07501718 -0.05501689 -0.0035981769 0.054641515 -0.08818673 -0.052749373 -0.0124652125
-0.026059464 -0.014598908 0.022784103 0.0557698 0.05281594 0.0069595487 -0.02778466 0.027987044
0.033288896 -0.07021768 -0.08097062 0.02830454 0.01184428 0.02647913 0.06341351 -0.076460525
-0.08510634 -0.06807591 -0.023698676 0.05111265 -0.03862231 -0.027880326 0.071509436 0.0165892
-0.07479778 0.015849253 -0.050585777 -0.058016278 0.04861337 -0.0152646 0.03900448 -0.07334536
-0.029776705 -0.06917878 -0.021835227 -0.06138859 -0.011034884 -0.0018818153 -0.07540759 0.057242148
0.0074520474 -0.008843473 0.012832388 -0.037462115 -0.05644263 0.05939609 -0.0071512433 -0.029992504
-0.007660366 -0.06533461 -0.016753407 0.07976695 0.0394703 -0.027024547 -0.015677072 0.010657769
-0.057890136 0.029926157 -0.024218945 0.05518951 0.026026003 -0.08474599 -0.08355687 0.025243578
-0.079012185 -0.05922215 -0.025352702 0.028188126 0.018224344 0.03669789 -0.053929396 -0.006268128
-0.08898994 -0.018462181 -0.054709498 -0.0027721003 -0.053061742 -0.08484593 0.079399385 -0.055435486
-0.05794708 0.04295887 -0.01096866 0.042577766 -0.056458596 0.013189706 0.0009132142 -0.010683127
0.04554476 -0.0839634 0.0624829 0.016650276 -0.08723181 0.026744869 -0.043147996 -0.078027174
-0.051744655 0.013876194 0.058525585 -0.002707806 -0.06564482 0.024789322 -0.075724624 0.06733071
-0.085204646 -0.08086378 -0.02146655 -0.075864 -0.00040491865 -0.027303137 0.00061112933 0.066014275
-0.07059843 -0.043763023 0.051153205 -0.026292387 0.01771403 0.029488023 -0.11443704 -0.087628655
-0.0038623498 0.06055898 -0.065901525 -0.010509674 -0.09987961 0.02316203 -0.029190075 -0.025830371
-0.07997231 -0.031477943 -0.06345051 0.014484317 -0.096065104 0.027439795 -0.08085614 -0.016563239
-0.0041194446 0.07024257 0.036402408 0.056310847 0.0034458113 0.029715113 -0.013215098 -0.0134225935
0.019537391 -0.028529337 -0.09228764 -0.07434846 0.02559319 -0.117295876 0.0021792704 -0.06958751
-0.06923622 -0.06674016 -0.013955126 -0.061392706 -0.026105884 0.03350191 0.01892559 -0.0821848
-0.028127447 -0.010629642 0.042155277 -0.054604165 0.06763609 0.007462951 -0.02974495 0.049990557
0.060491074 0.0050610634 0.024857061 0.06460392 0.022431703 -0.042440902 0.039681822 -0.09278125
0.0003085206 0.0134525215 -0.036475796 -0.05000246 -0.06454048 -0.06652576 0.054871514 0.016240131
-0.012455785 0.020619256 -0.057310846 0.018824005 -0.026045639 0.0533783 0.028661981 -0.06808334
0.0602734 0.029546632 -0.026970139 -0.08595187 -0.058334302 -0.0781014 -0.09986816 -0.029260889
