src/saved_models/grid_world_seed125_8_7_16_59_成了/125_85_model.pt (torch, 702727 bytes, 11 tensors)

FC1.weight f4 [256, 36]
0.098762 -0.003950623 -0.1518064 -0.16798092 0.020727204 0.09208691 0.35789755 -0.22239695
-0.14350536 0.6272983 0.06319034 0.21136048 -0.20098878 -0.027434058 0.27282572 -0.15949123
-0.33234876 -0.56489325 -0.111954294 -0.5256086 -0.053960994 0.14199443 0.46052355 -0.19961372
-0.2730635 1.5310154 0.02628081 0.19254278 0.1598356 -0.16080035 -0.06763141 -0.045787398
0.08143689 0.19877072 0.07341108 -0.030444378 -0.19561408 0.10027695 0.18964694 -0.025422817
0.28171495 0.9241118 0.1071375 0.08041754 0.1388128 0.54554516 -0.27620056 -0.09626292
-0.17283282 1.0955676 -0.25032732 0.13378076 0.07536781 0.40731782 0.19276828 0.14585564
-0.1059575 1.3270414 -0.46117568 0.2619182 0.27646315 0.21061957 0.52411383 -0.17669997
-0.119791605 -0.30024523 0.20427923 -0.12777384 0.08034894 -0.31875557 0.009666362 0.23206405
0.2683245 0.10250363 -0.06434171 0.26134402 -0.14517215 0.2434609 -0.03160274 0.01776611
-0.26174778 -0.22546715 -0.08236273 0.2072075 -0.16740118 0.057849467 -0.014090114 0.20012976
0.016992101 -0.10276361 -0.22416717 -0.44323468 0.043529764 -0.66943485 -0.031968594 0.0599727
-0.14665915 0.40639246 -0.29137504 0.12859099 0.33447823 -0.15849735 -0.22490093 0.041849233
0.21129346 -0.36868525 0.41990864 0.11145177 0.2675755 0.23412529 -0.06525807 0.08369229
0.36237127 -0.03599489 -0.07224898 0.28150478 -0.022937873 -0.023671914 -0.4571044 -0.055227615
0.060437996 0.078150205 -0.111260116 0.08026091 -0.10574024 0.19753382 -0.21431564 0.06831381
-0.26510367 0.06715718 -0.16365562 0.055043526 -0.16728191 0.30993056 0.72157824 -0.3567117
0.0695058 -0.0973111 -0.027938638 0.08403447 0.17782098 -0.6267283 -0.31844878 -0.0039707418
0.21271516 -0.09556078 -0.6219145 0.016416354 -0.034955528 -0.3098927 -1.0812804 -0.118727535
0.15054055 0.02897885 -0.4718581 -0.14932008 -0.35880566 0.021861605 -0.42354444 -0.09653322
-0.021024402 0.21292184 -0.19726138 0.14453037 -1.3710974 0.0069586495 -0.24886051 0.14751084
-0.1909088 -0.19727881 1.2872128 0.14695285 -0.0485737 -0.0014226058 -0.07426799 0.08393723
0.12538247 -0.34157872 0.21490297 -0.30806482 0.22352242 -0.100297086 -0.19423875 -0.5515673
-0.06174415 -0.38974208 -0.105191074 0.00276928 -0.07672054 0.9678798 -0.38262725 -0.27630407
0.17438005 -0.5555465 0.098320246 -0.2551104 0.13400556 -0.2080278 -0.39012626 -0.045191985
-0.2968754 -0.6823985 -0.014127868 -0.12579851 0.19620073 -0.38701397 0.29489094 0.09659273
-0.004168407 -0.082816556 -0.025686894 0.08566755 -0.3151597 0.47326094 -0.3943218 0.07051515
0.358826 0.042939935 -0.2164594 0.025527742 0.15955989 -0.04559975 -0.19157653 -0.14501503
-0.040423095 -0.50003123 -0.34990415 -0.15676288 -0.15010335 0.037137743 0.03990652 -0.21576242
-0.1148845 -0.1422572 0.041090973 0.2388787 -0.6484044 -0.17450891 -0.1437187 -0.21559963
-0.07749273 -0.39810055 0.751275 0.13007675 0.04243455 0.05560432 0.044224825 -0.05105047
0.30604222 -1.2878646 0.2663782 0.029987797 0.19968265 -0.13003425 -0.54062486 -0.053835813
00000000: bb43 ca3d 3a74 81bb 2373 1bbe 3103 2cbe
00000010: 19cc a93c 1098 bc3d 593e b73e 07bc 63be
00000020: 12f3 12be 9f96 203f f069 813d e26e 583e
00000030: 01d0 4dbe 64bd e0bc d0af 8b3e ab51 23be
00000040: 9e29 aabe d89c 10bf 4b48 e5bd 498e 06bf
00000050: 3406 5dbd fd66 113e bec9 eb3e 8a67 4cbe
00000060: fbce 8bbe 50f8 c33f da4a d73c ef29 453e
00000070: f2ab 233e d9a8 24be 5682 8abd 918b 3bbd
00000080: 62c8 a63d 8d8a 4b3e 8c58 963d 7d66 f9bc
00000090: 0f4f 48be 005e cd3d cf32 423e 8343 d0bc
000000a0: f13c 903e 9792 6c3f e86a db3d f4b1 a43d
000000b0: f124 0e3e d9a8 0b3f 296a 8dbe 7e25 c5bd
000000c0: 16fb 30be 8f3b 8c3f e72a 80be d3fd 083e
000000d0: 705a 9a3d f68b d03e 0c65 453e 2e5b 153e
000000e0: 3f00 d9bd 7edc a93f 381f ecbe 241a 863e
000000f0: 948c 8d3e a8ac 573e 532c 063f d6f0 34be
00000100: 4d55 f5bd beb9 99be 932e 513e 25d7 02be
00000110: fc8d a43d ee33 a3be a95f 1e3c 33a2 6d3e
00000120: d461 893e 6ced d13d 96c5 83bd e2ce 853e
00000130: 02a8 14be d04d 793e e071 01bd 3c8a 913c
00000140: ce03 86be dce0 66be caad a8bd 342e 543e
00000150: 376b 2bbe 90f3 6c3d 39da 66bc d1ee 4c3e
00000160: 0533 8b3c ba75 d2bd 148c 65be a8ef e2be
00000170: 444c 323d 1560 2bbf 80f1 02bd efa5 753d
00000180: d12d 16be ac12 d03e 1c2f 95be 5bad 033e
00000190: bb40 ab3e 214d 22be 6e4c 66be 1a6a 2b3d
000001a0: 505d 583e 50c4 bcbe 44fe d63e d340 e43d
000001b0: a8ff 883e 8abe 6f3e 06a6 85bd dd66 ab3d
000001c0: ba88 b93e 616f 13bd 46f7 93bd 6521 903e
000001d0: 35e8 bbbc 9aeb c1bc 9709 eabe 5a36 62bd
000001e0: d58d 773d 370d a03d 58dc e3bd d55f a43d
000001f0: 578e d8bd 4e46 4a3e 8f75 5bbe 1ce8 8b3d
00000200: abbb 87be b489 893d 5795 27be 5275 613d
00000210: f34b 2bbe 38af 9e3e 5ab9 383f eaa2 b6be
00000220: 0f59 8e3d 0b4b c7bd 92df e4bc 441a ac3d
00000230: b416 363e 4471 20bf b80b a3be ff1c 82bb
00000240: 01d2 593e 5fb5 c3bd ca35 1fbf 977b 863c
00000250: 872d 0fbd 42aa 9ebe 6567 8abf 6c27 f3bd
00000260: 4d27 1a3e 0e65 ed3c 6397 f1be 5de7 18be
00000270: 60b5 b7be 1c17 b33c d1da d8be 35b3 c5bd
00000280: 5e3b acbc 2f08 5a3e e3fe 49be c5ff 133e
00000290: 1f80 afbf 6205 e43b 4ad5 7ebe 150d 173e
000002a0: 997d 43be 7503 4abe 64c3 a43f cf7a 163e
000002b0: 37f5 46bd bb76 baba d119 98bd 48e7 ab3d
000002c0: 4364 003e 68e3 aebe 860f 5c3e acba 9dbe
000002d0: 10e3 643e 8f68 cdbd 86e6 46be 8433 0dbf
000002e0: 6fe7 7cbd 468c c7be 6b6e d7bd cf7c 353b
000002f0: a91f 9dbd f8c6 773f b8e7 c3be ba77 8dbe
00000300: af90 323e 4c38 0ebf 205c c93d d59d 82be
00000310: c138 093e 3d05 55be a1be c7be 3b1b 39bd
00000320: 0d00 98be abb1 2ebf 9378 67bc 53d1 00be
00000330: d8e8 483e b226 c6be f2fb 963e 69d2 c53d
00000340: 2297 88bb ba9b a9bd 526d d2bc 7872 af3d
00000350: 9d5c a1be 424f f23e 8ce4 c9be 3f6a 903d
00000360: 0bb8 b73e c9e1 2f3d 88a7 5dbe 8e1f d13c
00000370: ab63 233e cec6 3abd a32c 44be d27e 14be
00000380: b092 25bd 0c02 00bf a326 b3be 7386 20be
00000390: b1b4 19be bf1d 183d 0575 233d d3f0 5cbe
000003a0: 9148 ebbd dfab 11be 024f 283d 9e9c 743e
000003b0: d5fd 25bf 77b2 32be ff2a 13be 26c6 5cbe
000003c0: 82b4 9ebd d6d3 cbbe 8f53 403f d732 053e
000003d0: dacf 2d3d 5bc1 633d 1725 353d 4c1a 51bd
000003e0: 91b1 9c3e bfd8 a4bf b962 883e f8a8 f53c
000003f0: 9c79 4c3e b327 05be 6466 0abf f182 5cbd

FC1.bias f4 [256]
0.2164616 -0.061397728 0.14991136 -0.22794966 -0.0719153 0.14957091 0.07943179 0.037313607
-0.15146157 -0.033747435 -0.17129357 -0.20155154 -0.4031972 0.15946385 -0.14283322 -0.082336605
-0.106857896 0.034876563 0.048215307 0.015965944 -0.09781092 0.032433935 0.1295783 -0.12129753
0.08271497 -0.0011646443 0.0063046482 -0.2739989 -0.2556627 0.0754283 -0.16553448 0.15801895
-0.096371 -0.075646356 0.08339467 -0.020824913 -0.18043442 0.06943009 -0.115833595 -0.054710187
-0.21552286 -0.281839 -0.054903794 -0.1708415 -0.23906583 0.0993172 -0.33170083 0.20857045
-0.15060355 -0.2975999 0.14845628 0.019168409 -0.14580992 -0.16559145 0.11522881 0.018054923
0.13038105 -0.11250404 0.09615135 0.17695019 -0.3405192 -0.31756496 -0.123469755 -0.052512463
-0.3061648 -0.09364428 -0.078109525 -0.17257959 -0.25097165 -0.17462914 0.21743844 -0.08699692
-0.18021913 0.054788355 -0.04355215 -0.13331014 0.25810957 -0.061202556 8.594061e-05 -0.2260178
0.12986764 0.1898157 0.048257183 0.12890185 -0.11931366 -0.03919822 -0.14456584 -0.10197107
0.023163922 0.3101385 -0.1965198 0.06679563 0.0975384 -0.0008062624 0.13875385 -0.19817823
0.10005252 0.009811358 -0.01961673 -0.42872012 -0.26399764 -0.08840118 -0.056444656 -0.14935574
-0.098499246 0.071812175 0.12608683 -0.027092509 0.04345195 0.16526932 0.1325071 0.18094571
0.27731657 -0.15226129 0.008140434 -0.14883941 -0.12955196 0.22406209 0.28141147 0.2488067
-0.15998785 0.059882145 0.030081224 -0.025773102 -0.2676885 0.023167482 0.04695253 -0.19443841
0.038577013 -0.14855854 -0.09734022 -0.17997696 -0.24308494 -0.13350752 0.25840154 0.31307644
0.0012437366 -0.259527 0.036801025 0.12340137 -0.0026723812 -0.2572373 -0.25986108 -0.19612455
-0.10533489 -0.051277485 -0.015652755 0.07373988 0.20739932 0.20792255 0.11218883 -0.037103556
-0.18589626 0.16076715 -0.15940078 -0.14870474 -0.21081783 -0.13030052 -0.06672715 0.09072401
0.13800295 -0.3104353 -0.17723188 0.08579273 -0.13026053 0.15973935 -0.19730137 -0.022867018
0.043983832 -0.099126 0.21342713 -0.28891763 -0.081040554 0.08642672 -0.058576044 -0.19473332
-0.111478426 -0.19879039 -0.16745123 -0.32444176 0.09134021 0.027671605 -0.00966535 0.0057554613
0.033625577 -0.0023035964 0.028300006 -0.19288902 -0.11323467 0.14597195 0.008660627 -0.070919655
-0.13415591 -0.09470406 -0.019779576 -0.21420264 0.0012951571 -0.11316098 -0.112358235 -0.07883097
0.2592974 -0.021050591 0.11416066 0.07282367 -0.2199953 -0.24319373 0.079292215 -0.31773812
-0.044787575 -0.004679309 -0.06537919 0.24038418 0.042343777 0.115120456 -0.11543303 -0.19590718
-0.07002689 -0.018468294 -0.20677008 -0.2712229 -0.28747565 0.044757925 -0.0432197 -0.011035897
0.23954229 0.034370907 0.24496183 -0.13856609 0.16007252 -0.29244483 0.044811618 -0.16515784
-0.22954327 -0.010848337 -0.122341074 -0.12540142 -0.23615046 -0.080138944 0.08798186 0.057969633
-0.008706136 0.14665253 0.056011558 0.06170822 0.06908616 0.038156282 -0.018742517 -0.080479674
0.27804273 -0.19918351 -0.2525395 -0.23197594 0.10089544 -0.04254589 -0.21615338 0.18173245
00000000: 1ca8 5d3e 2f7c 7bbd 5d82 193e a36b 69be
00000010: 5448 93bd 1e29 193e 22ad a23d 27d6 183d
00000020: be18 1bbe c03a 0abd 9567 2fbe 8763 4ebe
00000030: dd6f cebe 7e4a 233e df42 12be 18a0 a8bd
00000040: 50d8 dabd bada 0e3d 6a7d 453d 03cb 823c
00000050: 1751 c8bd 72d9 043d 2db0 043e d76a f8bd
00000060: 7766 a93d faa6 98ba 3997 ce3b 9549 8cbe
00000070: 39e6 82be 277a 9a3d df81 29be b8cf 213e
00000080: 295e c5bd 7aec 9abd d3ca aa3d 0299 aabc
00000090: cdc3 38be 5d31 8e3d 2a3a edbd ca17 60bd
000000a0: 06b2 5cbe 344d 90be cde2 60bd 13f1 2ebe
000000b0: accd 74be d166 cb3d b1d4 a9be 7e93 553e
000000c0: d137 1abe 045f 98be ec04 183e 1107 9d3c
000000d0: 324f 15be ce90 29be 15fd eb3d ebe7 933c
000000e0: 9c82 053e 8568 e6bd 00eb c43d 6e32 353e
000000f0: 8858 aebe e097 a2be b6dd fcbd 4f17 57bd
00000100: a2c1 9cbe 93c8 bfbd e3f7 9fbd b4b8 30be
00000110: 5b7f 80be fbd1 32be 2fa8 5e3e 712b b2bd
00000120: 5d8b 38be c169 603d bd63 32bd 7482 08be
00000130: f026 843e 88af 7abd 033b b438 3671 67be
00000140: 06fc 043e 0c5f 423e 53a9 453d d9fe 033e
00000150: b85a f4bd 508e 20bd 1109 14be 35d6 d0bd
00000160: 44c2 bd3c 79ca 9e3e 7d3c 49be 26cc 883d
00000170: 36c2 c73d 5b5b 53ba 7d15 0e3e 3cef 4abe
00000180: 56e8 cc3d d1bf 203c 44b3 a0bc 3481 dbbe
00000190: b32a 87be ae0b b5bd 8332 67bd b6f0 18be
000001a0: f9b9 c9bd 4312 933d e81c 013e 1cf1 ddbc
000001b0: acfa 313d 5c3c 293e f1af 073e d549 393e
000001c0: 70fc 8d3e 62ea 1bbe 745f 053c 5c69 18be
000001d0: 45a9 04be 8870 653e 2a15 903e 2fc7 7e3e
000001e0: dbd3 23be fb46 753d e66c f63c 1d22 d3bc
000001f0: 780e 89be bbc9 bd3c 4c51 403d dd1a 47be
00000200: ee02 1e3d bb1f 18be 4f5a c7bd e14b 38be
00000210: 42eb 78be 32b6 08be 354d 843e 8e4b a03e
00000220: e004 a33a b9e0 84be acbc 163d dcb9 fc3d
00000230: 1e23 2fbb 9bb4 83be 830c 85be e0d4 48be
00000240: d2b9 d7bd 5708 52bd 353a 80bc ef04 973d
00000250: 7d60 543e a6e9 543e 42c3 e53d e6f9 17bd
00000260: 975b 3ebe 25a0 243e f539 23be 0e46 18be
00000270: a1e0 57be 806d 05be 3ea8 88bd 82cd b93d
00000280: a550 0d3e 60f1 9ebe 467c 35be 19b4 af3d
00000290: 0463 05be b692 233e 5f09 4abe 9d53 bbbc
000002a0: 6428 343d 9302 cbbd a48c 5a3e 03ed 93be
000002b0: 97f8 a5bd 7e00 b13d 6fed 6fbd 2c68 47be
000002c0: cd4e e4bd b58f 4bbe 5678 2bbe 3b1d a6be
000002d0: 9310 bb3d 90af e23c 6b5b 1ebc 4f98 bc3b
000002e0: f9ba 093d eff7 16bb 6ad5 e73c b384 45be
000002f0: 94e7 e7bd ac79 153e 4de5 0d3c 533e 91bd
00000300: 2b60 09be 34f4 c1bd c708 a2bc f057 5bbe
00000310: 43c2 a93a f2c0 e7bd 131c e6bd 2272 a1bd
00000320: a1c2 843e 4a72 acbc 10cd e93d 9424 953d
00000330: 7346 61be c707 79be f563 a23d 92ae a2be
00000340: 2d73 37bd e454 99bb 86e5 85bd 4527 763e
00000350: ab70 2d3d 46c4 eb3d 2768 ecbd e49b 48be
00000360: 426a 8fbd d24a 97bc 89bb 53be badd 8abe
00000370: 0230 93be 1654 373d 2407 31bd e8cf 34bc
00000380: 934a 753e 82c8 0c3d 46d7 7a3e 45e4 0dbe
00000390: 0dea 233e 54bb 95be 638c 373d 231f 29be
000003a0: 640d 6bbe 39bd 31bc f58d fabd 3b69 00be
000003b0: 6dd1 71be e31f a4bd d52f b43d 9171 6d3d
000003c0: 2ea4 0ebc 152c 163e 606c 653d c2c1 7c3d
000003d0: 0b7d 8d3d c349 1c3d e889 99bc 87d2 a4bd
000003e0: 9e5b 8e3e c3f6 4bbe db4c 81be 1a8b 6dbe
000003f0: 45a2 ce3d 9944 2ebd 5057 5dbe 1218 3a3e

FC2.weight f4 [256, 256]
-0.017489323 -0.0035695706 -0.024907174 0.012901525 -0.059072345 0.04609327 -0.018517734 0.017918622
0.028679565 -0.045428127 0.02454723 0.025113568 -0.059783168 -0.05829044 -0.057505514 -0.02348662
0.047905616 -0.06257222 -0.05052212 -0.006804339 -0.090823054 -0.03141297 -0.034571066 -0.050364982
0.019778024 -0.052287307 -0.057176024 -0.037742488 0.023408229 -0.02027913 -0.006005849 0.009003117
-0.004965515 0.0138035435 -0.051683746 -0.011508098 -0.038821273 0.011533876 -0.0012751768 -0.026542597
-0.0067880526 0.033360682 0.03461987 -0.032439567 0.0100313425 -0.053611 -0.03408704 -0.043502983
-0.05617308 0.012049944 -0.0117717115 -0.047239546 -0.020960415 -0.035977602 0.010082782 -0.066910766
-0.005825858 0.024180302 0.024559 -0.044350456 0.03226568 -0.023315586 0.039279424 -0.097229384
-0.04111453 -0.063855015 -0.036474813 0.04610726 -0.05265946 -0.011935649 -0.03593073 0.0073311757
-0.0707359 -0.026609441 0.010578821 0.030412477 0.037722547 -0.0023795308 -0.029567175 -0.035642426
0.022069283 -0.016467068 -0.03939688 0.035471674 -0.025903737 -0.06576713 0.00056093757 -0.004618523
-0.023147307 0.049010053 -0.06863529 0.033388834 -0.05844048 0.0051997364 0.030707402 -0.061024547
-0.030631073 0.007786846 0.0020723268 0.008891048 0.011267475 -0.002066722 -0.06645742 0.04754474
0.013676776 -0.056808177 0.04263139 -0.0083209695 -0.036738485 0.011944865 0.0593115 -0.04160059
0.03252747 0.019642416 0.016906021 0.029810138 -0.018479617 -0.02224663 -0.030365603 0.036957573
-0.033141863 -0.024414098 0.021033147 0.028817244 -0.054285835 -0.09286596 -0.038480908 -0.03927318
0.04137202 0.022868365 -0.025236188 -0.015402948 0.039408155 0.012988223 -0.020645 -0.029017426
-0.02631279 -0.016441025 -0.042400844 -0.0068419045 -0.07415424 0.055231296 -0.044883694 0.026531
0.06517052 -0.007889915 -0.008592595 0.009730885 -0.02193154 -0.022519855 0.034208685 -0.023308953
0.05262739 0.03772347 0.010729174 -0.06662548 -0.011209299 -0.020592883 -0.06383745 -0.046120536
-0.038950354 -0.0426822 -0.049512632 -0.056820568 -0.03523853 0.0023765157 0.0057838936 0.022728106
-0.023047833 -0.06994253 -0.05823828 0.03316017 0.0496084 -0.006153374 0.011355486 -0.058842294
-0.030516673 -0.032838892 0.019658847 -0.016166873 -0.056909464 0.0051632845 0.019647596 -0.03788077
-0.026484022 0.0017086864 -0.05781561 0.03053814 0.04336831 -0.009996026 -0.03271411 -0.019858083
-0.05924199 -0.018215049 -0.008018598 -0.021527428 0.028383292 -0.036285587 -0.052936766 -0.009068933
-0.010532491 0.047532022 0.015296608 -0.015761293 -0.021768061 -0.050623197 0.01247115 -0.017809879
-0.0072095916 -0.05758223 0.025792561 0.014468553 -0.036375437 -0.0071083084 -0.032288447 0.047165148
0.026321897 -0.039265037 -0.028416775 0.024282824 -0.017977808 -0.018492257 -0.032963175 -0.044166375
-0.042483453 0.0095625995 -0.014041458 0.026448594 0.034602802 0.018549403 -0.050417352 0.03628704
0.013944209 0.0041766 -0.03303886 0.0027943281 0.053422414 -0.04943984 0.011133819 0.010247405
0.022356186 -0.045100465 0.015702328 0.014058605 -0.04607044 -0.09208584 0.045949526 -0.05680806
-0.0693727 0.041669548 -0.070522405 0.029848281 0.03625142 -0.025469134 -0.018208506 0.021846807
00000000: c545 8fbc 75ef 69bb 210a ccbc eb60 533c
00000010: d8f5 71bd 4ccc 3c3d 81b2 97bc 13ca 923c
00000020: 68f1 ea3c d812 3abd 4617 c93c f8ba cd3c
00000030: 32df 74bd f5c1 6ebd e78a 6bbd 0367 c0bc
00000040: ae38 443d dd25 80bd 48f0 4ebd eff6 debb
00000050: 7001 babd e3aa 00bd 649a 0dbd 834b 4ebd
00000060: 8605 a23c 372b 56bd 6831 6abd de97 1abd
00000070: 9dc2 bf3c 6b20 a6bc b7cc c4bb cf81 133c
00000080: c2b5 a2bb 4228 623c 56b2 53bd 768c 3cbc
00000090: 0e03 1fbd 95f8 3c3c d523 a7ba dc6f d9bc
000000a0: 506e debb 36a5 083d 91cd 0d3d 5adf 04bd
000000b0: 805a 243c 3597 5bbd da9e 0bbd 2f30 32bd
000000c0: be15 66bd 216d 453c 23de 40bc 417e 41bd
000000d0: 2db5 abbc 405d 13bd 4132 253c 8308 89bd
000000e0: d7e6 bebb c515 c63c f52f c93c d3a8 35bd
000000f0: 0529 043d 5400 bfbc 76e3 203d 3320 c7bd
00000100: b667 28bd 6bc6 82bd 9d66 15bd f7da 3c3d
00000110: 72b1 57bd be8d 43bc 1a2c 13bd 5c3a f03b
00000120: fcdd 90bd 0bfc d9bc cb52 2d3c 9623 f93c
00000130: f582 1a3d e7f1 1bbb dc36 f2bc cbfd 11bd
00000140: a4ca b43c f2e5 86bc 9f5e 21bd bf4a 113d
00000150: 1334 d4bc ebb0 86bd e20b 133a fb56 97bb
00000160: 6c9f bdbc c4be 483d a990 8cbd bbc2 083d
00000170: 495f 6fbd 8d62 aa3b 178e fb3c e0f4 79bd
00000180: 04ee fabc cc28 ff3b e0cf 073b c2ab 113c
00000190: 379b 383c d771 07bb d41a 88bd 46be 423d
000001a0: 8e14 603c b1af 68bd 419e 2e3d ad54 08bc
000001b0: 187b 16bd 65b4 433c 9ef0 723d 6165 2abd
000001c0: 863b 053d 22e9 a03c 7f7e 8a3c 6434 f43c
000001d0: 9162 97bc 913e b6bc 49c1 f8bc d360 173d
000001e0: c3bf 07bd 1300 c8bc b54d ac3c 2412 ec3c
000001f0: d35a 5ebd 8230 bebd 289e 1dbd eadc 20bd
00000200: b575 293d 7056 bb3c 1fbc cebc a55c 7cbc
00000210: 726a 213d 8ecc 543c b41f a9bc f4b5 edbc
00000220: ec8d d7bc 54af 86bc 82ac 2dbd 0e32 e0bb
00000230: 2ede 97bd 363a 623d f7d7 37bd 8a57 d93c
00000240: 1f78 853d b444 01bc f5c7 0cbc 4a6e 1f3c
00000250: c6a9 b3bc 8f7b b8bc 681e 0c3d 6bf2 bebc
00000260: d18f 573d ed83 1a3d 6bc9 2f3c f172 88bd
00000270: 35a7 37bc 68b2 a8bc 36bd 82bd e3e8 3cbd
00000280: 688a 1fbd 88d3 2ebd c2cd 4abd afbc 68bd
00000290: 4756 10bd 51bf 1b3b d186 bd3b 4b30 ba3c
000002a0: cfce bcbc 073e 8fbd 438b 6ebd f5d2 073d
000002b0: 2d32 4b3d 3ea2 c9bb 5c0c 3a3c 9e04 71bd
000002c0: 1afe f9bc 1382 06bd 970b a13c 6470 84bc
000002d0: e619 69bd c530 a93b fff3 a03c de28 1bbd
000002e0: 05f5 d8bc 00f6 df3a 10d0 6cbd 1f2b fa3c
000002f0: f8a2 313d 5fc6 23bc 3bff 05bd 6bad a2bc
00000300: bba7 72bd ba37 95bc 7060 03bc 4a5a b0bc
00000310: 1484 e83c 32a0 14bd 39d4 58bd dd95 14bc
00000320: 7890 2cbc f0b0 423d a09e 7a3c d41d 81bc
00000330: ef52 b2bc 455a 4fbd cb53 4c3c 06e6 91bc
00000340: 703e ecbb 58db 6bbd ec4a d33c 820d 6d3c
00000350: 69fe 14bd d0ec e8bb e440 04bd 3e30 413d
00000360: 05a1 d73c 60d4 20bd 4cca e8bc c6ec c63c
00000370: 3246 93bc 137d 97bc 6504 07bd cde7 34bd
00000380: 2103 2ebd 73ac 1c3c 250e 66bc b9aa d83c
00000390: abbb 0d3d ebf4 973c 6d82 4ebd b8a1 143d
000003a0: 4076 643c dcdb 883b c153 07bd 0c21 373b
000003b0: 76d1 5a3d 6e81 4abd 9f6a 363c bbe4 273c
000003c0: 5224 b73c 44bb 38bd 2ba2 803c 1056 663c
000003d0: 5cb4 3cbd 8097 bcbd 9235 3c3d 91af 68bd
000003e0: 4613 8ebd b0ad 2a3d 0d6e 90bd 6284 f43c
000003f0: 5e7c 143d a5a4 d0bc 012a 95bc 13f8 b23c

FC2.bias f4 [256]
-0.049506918 -0.074961565 -0.05996983 -0.010580353 0.18024924 -0.07285767 0.014703654 -0.054137547
-0.013377523 -0.07893403 0.07808461 0.019243408 0.120726116 0.034983013 -0.019785576 0.13019839
0.10686074 -0.07261417 -0.04874528 0.032223083 -0.0059756315 0.09682806 -0.04306153 0.24734372
0.049402077 0.11117549 0.13937154 0.06166947 -0.08669254 -0.05016884 -0.11752828 -0.06168581
0.07425823 0.13470685 -0.08433444 0.069147356 0.14839034 0.021139065 0.10258991 0.14391765
0.06947841 0.011727887 -0.060977574 0.21481432 -0.0494701 0.08991195 -0.036337283 0.047582507
0.1609734 -0.010624285 0.082626864 -0.047685154 0.012845041 -0.024303846 0.103290126 -0.022476336
0.09356771 0.13531277 0.0966698 -0.088042855 -0.053602792 -0.085771464 -0.17938946 -0.032930426
-0.017477296 -0.07019529 0.053467974 -0.073165335 -0.07772662 0.12273036 0.2557391 0.117907144
-0.032612175 0.14314258 -0.058895618 -0.101094835 0.057006497 -0.08642978 -0.06700867 -0.12003029
0.08897963 -0.08535187 -0.050525356 0.24266951 -0.022957755 -0.09866245 0.0065167597 0.025224205
0.04709382 0.0356212 0.068755016 0.0076105045 0.017311182 -0.085105 -0.05820829 -0.010818718
0.019002935 0.15641932 -0.015606852 -0.15527597 -0.087356396 -0.07392049 -0.06743776 -0.025200961
0.04642859 -0.07970815 -0.11047812 0.1039011 -0.092247 0.059577215 -0.07157219 -0.08934455
-0.037667166 0.15144902 -0.09069621 0.2386418 0.05912234 -0.0685861 -0.012086547 0.1834034
0.05835412 0.31092903 -0.02154005 0.16667126 0.10857133 -0.12473174 0.10109989 0.2061106
-0.020423988 -0.06227969 -0.0029483058 -0.033503447 -0.057566367 -0.10346745 0.037612546 0.1278873
0.1604443 0.13132839 -0.06081726 -0.07149845 0.14297093 0.12699583 0.053403266 -0.16829655
0.014200827 -0.06311514 0.117903166 -0.096549086 0.100436404 0.07879652 -0.018090747 0.13075714
-0.07413143 0.016563028 -0.028858058 -0.011791158 -0.08313933 0.1522379 0.09166 -0.0061921827
0.14150342 0.06335282 0.04805253 -0.04447396 -0.024535572 0.081212424 0.12620871 -0.10377249
0.12527794 -0.06748076 -0.023906786 0.12215246 0.18010822 0.008875199 -0.07338075 -0.08532566
-0.104718514 -0.031479128 0.13417207 0.069704235 0.0748354 0.03657097 -0.1274616 0.04205772
-0.020844249 -0.0061186054 0.09714153 -0.012907796 0.11509256 -0.058228333 -0.0014527016 0.04667779
0.10893001 -0.019158904 -0.096809186 0.11114874 -0.07011606 0.16225706 0.07298923 -0.035334356
0.09008775 0.08381568 0.23097642 -0.059583947 0.14024276 0.123415954 0.17416066 0.08692038
-0.035714995 -0.036591142 0.009347436 0.06411153 -0.013348421 0.018055435 -0.10757137 -0.04055545
0.038703497 -0.023913233 0.091866605 0.11684827 0.0942185 -0.089401506 0.107621446 0.041550964
-0.07925147 -0.097289465 -0.038505603 -0.0120145995 -0.044937175 -0.03603748 0.06959675 -0.05193582
0.093557216 0.19331044 0.032513507 0.112129316 -0.0020192298 -0.031692892 -0.08584505 -0.019594405
0.00675486 0.14525755 0.010289415 0.1274682 -0.08031467 0.105674006 -0.03235995 0.1358277
0.103148095 0.0704887 -0.07315687 -0.083050214 -0.008440913 0.039510008 0.015756547 0.29836303
00000000: c4c7 4abd 7385 99bd eda2 75bd 3859 2dbc
00000010: 4293 383e 6736 95bd 98e7 703c 55bf 5dbd
00000020: 662d 5bbc 2aa8 a1bd d3ea 9f3d 5aa4 9d3c
00000030: 413f f73d 594a 0f3d 5c15 a2bc ba52 053e
00000040: ced9 da3d bdb6 94bd 21a9 47bd 5afc 033d
00000050: 3bcf c3bb ca4d c63d 4961 30bd ac47 7d3e
00000060: d559 4a3d faaf e33d 6ab7 0e3e 2099 7c3d
00000070: dc8b b1bd d77d 4dbd abb2 f0bd 43aa 7cbd
00000080: b314 983d 98f0 093e 89b7 acbd 219d 8d3d
00000090: a3f3 173e d52b ad3c a91a d23d 265f 133e
000000a0: b24a 8e3d 5326 403c 9fc3 79bd 49f8 5b3e
000000b0: 29a1 4abd c223 b83d 67d6 14bd e0e5 423d
000000c0: 36d6 243e 7b11 2ebc 4638 a93d 8251 43bd
000000d0: 0274 523c dc18 c7bc c689 d33d 4b20 b8bc
000000e0: 6da0 bf3d 6e8f 0a3e d1fa c53d d04f b4bd
000000f0: 9a8e 5bbd f3a8 afbd dfb1 37be 0ee2 06bd
00000100: 8c2c 8fbc 8cc2 8fbd 3c01 5b3d b5d7 95bd
00000110: 222f 9fbd 0e5a fb3d 3cf0 823e 4d79 f13d
00000120: 5894 05bd f893 123e 883c 71bd cf0a cfbd
00000130: a57f 693d 1902 b1bd d73b 89bd 71d2 f5bd
00000140: f43a b63d f6cc aebd adf3 4ebd 5b7e 783e
00000150: e711 bcbc 8a0f cabd 8b8a d53b fea2 ce3c
00000160: 73e5 403d 89e7 113d 6ecf 8c3d 8a61 f93b
00000170: 2ed0 8d3c 884b aebd d16b 6ebd fe40 31bc
00000180: 0bac 9b3c 632c 203e e2b3 7fbc aa00 1fbe
00000190: e9e7 b2bd a063 97bd cf1c 8abd 3f72 cebc
000001a0: e82b 3e3d 073e a3bd 5a42 e2bd 1aca d43d
000001b0: ffeb bcbd 3d07 743d 7194 92bd 47fa b6bd
000001c0: e348 1abd 7415 1b3e efbe b9bd 845e 743e
000001d0: 442a 723d df76 8cbd a706 46bc 1ace 3b3e
000001e0: bb04 6f3d 1732 9f3e c274 b0bc dfab 2a3e
000001f0: a55a de3d 5b73 ffbd 760d cf3d a80e 533e
00000200: 3550 a7bc fd18 7fbd 5d38 41bb e93a 09bd
00000210: b6ca 6bbd bee6 d3bd 9d0f 1a3d e3f4 023e
00000220: 834b 243e f37a 063e 851b 79bd c86d 92bd
00000230: f966 123e 320b 023e 62bd 5a3d ee55 2cbe
00000240: 96aa 683c 8342 81bd 3777 f13d 87bb c5bd
00000250: 9ab1 cd3d 1260 a13d 0c33 94bc 33e5 053e
00000260: 38d2 97bd 30af 873c bc67 ecbc b32f 41bc
00000270: f444 aabd 41e4 1b3e 3db8 bb3d cbe7 cabb
00000280: 46e6 103e 20bf 813d bbd2 443d 542a 36bd
00000290: d3fe c8bc b352 a63d db3c 013e ac86 d4bd
000002a0: dc48 003e 5a33 8abd 2ad8 c3bc 122b fa3d
000002b0: 4a6e 383e 4869 113c a648 96bd 38bf aebd
000002c0: a976 d6bd 42f0 00bd 6764 093e 18c1 8e3d
000002d0: 4d43 993d 71cb 153d 4b85 02be b744 2c3d
000002e0: 8fc1 aabc 957e c8bb 23f2 c63d 387b 53bc
000002f0: a6b5 eb3d d580 6ebd 9468 beba 3631 3f3d
00000300: b216 df3d 22f3 9cbc e543 c6bd f3a1 e33d
00000310: 0299 8fbd b726 263e 617b 953d c2ba 10bd
00000320: ed7f b83d 8ea7 ab3d 1585 6c3e 4c0e 74bd
00000330: cc9b 0f3e 81c1 fc3d 2c57 323e 5003 b23d
00000340: e349 12bd 98e0 15bd fd25 193c e84c 833d
00000350: 56b3 5abc fee8 933c 614e dcbd 791d 26bd
00000360: 8f87 1e3d afe5 c3bc 8f24 bc3d 254e ef3d
00000370: a1f5 c03d 2318 b7bd a268 dc3d 5831 2a3d
00000380: 984e a2bd b33f c7bd 0db8 1dbd e2d8 44bc
00000390: 0b10 38bd 099c 13bd be88 8e3d a8ba 54bd
000003a0: ed9a bf3d 2cf3 453e e22c 053d 0ea4 e53d
000003b0: 0e55 04bb 68d0 01bd 88cf afbd 7284 a0bc
000003c0: df57 dd3b 65be 143e ef94 283c 0687 023e
000003d0: 057c a4bd 9d6b d83d de8b 04bd 6b16 0b3e
000003e0: 4f3f d33d 615c 903d 45d3 95bd 3b16 aabd
000003f0: c14b 0abc 3fd5 213d e013 813c 0ac3 983e

action_out.weight f4 [5, 256]
0.048697777 0.021960482 0.025184639 -0.021515045 -0.8548215 -0.15806137 -0.10452533 -0.11658739
0.043658175 -0.17033596 -0.15453297 0.016281096 -0.041664742 0.113817096 0.04618466 -0.094398245
-1.6814994 -0.08395339 0.028398564 0.021833071 -0.7999171 -0.14411819 2.6911723e-05 -1.3678002
-0.015723309 -0.3667804 -0.17586216 -0.11711776 -0.13380101 0.052484658 -0.096233 0.000104470935
-0.11391511 -0.21029352 -1.0336782 -0.1244977 -0.012997643 -0.018430846 -0.25216052 -0.2217183
-0.07559236 -0.046575252 0.008993336 -0.027706968 -0.036923293 -0.100629196 0.019400224 -0.13340469
-0.15204197 -0.13396427 -0.1549494 -0.04683699 -0.0891389 0.043502893 -0.10633995 -0.067791425
-0.084059015 -0.03537624 -0.1688715 0.030643484 0.007788662 -0.04024136 -0.037381586 -0.035996918
-0.009247358 -0.017700598 -0.08881233 -0.1654991 0.047243506 -0.0141970785 -0.3017816 -0.018916262
-0.007303988 -0.060395446 -0.035840765 -0.21713758 -0.10561945 -0.08408162 -0.09945669 -0.022555627
-0.18598872 0.037054382 -0.14992478 -0.19901337 -0.21706945 0.03368337 -0.05490413 -0.0039807805
-0.22559993 -0.19802816 -0.025279831 -0.057236552 -0.008845566 0.033586804 -0.037741076 0.01949527
-0.2017031 -0.91763765 -0.18471798 -0.17184545 -0.006373655 0.031602826 0.049016036 -0.03281383
-0.08216975 0.0079219155 -0.035044145 -0.06712402 0.027940575 -0.0030748742 -1.0976 0.0065501234
0.026527386 -1.6407825 -0.055033382 -0.70476425 -0.19223922 0.007062727 0.03655184 -0.12993164
-0.388567 -0.64836806 -0.044419695 -0.05016471 -0.23660386 -0.14724253 -0.16179058 -0.38569036
0.04708809 0.025764303 -0.12792657 0.024265967 -0.109115556 -0.020933803 -0.18620497 -0.13088363
-0.102540225 -0.20506941 -0.16696897 -0.04584003 -0.083902754 -0.0385876 -0.1606866 -0.16281162
-0.115580924 0.004550953 -0.04582631 -0.041282855 -0.10973707 -0.07648844 0.0070561836 -0.5426877
-0.16817343 -0.057343163 0.032973286 -0.062101267 0.011417632 -0.09264241 -0.34258357 -0.02977019
-0.17746945 -0.22999308 -0.28103778 -0.22695863 -0.16346084 -0.18738003 -0.08923239 -0.041415542
-0.10132748 -0.04770501 -0.018526098 -0.0821498 -0.078690894 -0.095688805 -0.4042265 -0.16135438
0.00996256 -0.1486372 -0.2217576 -0.20331681 -0.13692227 -0.13036837 -0.079591654 -0.057885084
0.042456552 0.048884515 -0.11598267 0.023529436 -0.0833707 0.017460613 -0.123272724 -0.041191008
-0.1881828 -0.017608749 -0.09354226 -0.04903057 0.03796949 -0.071067095 -0.14446113 0.048284523
-0.48390692 -0.058454774 0.0011958923 0.046871766 -0.09976405 -0.11059094 -0.15077822 -0.11196517
0.02862689 0.012311999 -0.1364298 -0.04743828 -0.7242623 -0.027311891 -0.31753936 -0.06034757
-0.2029596 -0.21270007 -0.6014939 -0.09610638 -0.108056396 -0.10318397 -0.05766419 -0.20136228
-0.03866566 -0.0041062543 -0.006452424 0.048610374 0.06518876 0.057367686 -0.0776073 -0.14936414
-0.08562519 -0.09032619 -0.022907425 -0.08791864 0.058133245 -0.04791964 -0.054313537 0.026372578
0.043602645 -0.017441865 0.03224047 -1.7575647 0.029562294 -0.20834208 0.022203581 -0.27113944
-2.1513555 -0.084620565 -0.06251507 0.034804948 -0.2014678 -0.20605767 0.012847579 -0.58729404
00000000: 5277 473d 78e6 b33c 0450 ce3c 5240 b0bc
00000010: 95d5 5abf d7da 21be 6011 d6bd 5fc5 eebd
00000020: ead2 323d 8d6c 2ebe e43d 1ebe ef5f 853c
00000030: a6a8 2abd f018 e93d 202c 3d3d de53 c1bd
00000040: 5f3b d7bf c1ef abbd 1ba4 e83c 45db b23c
00000050: 5ec7 4cbf b893 13be 7cc0 e137 1414 afbf
00000060: 2bce 80bc a4ca bbbe 3615 34be 70db efbd
00000070: 2203 09be 27fa 563d cf15 c5bd 6817 db38
00000080: 534c e9bd 2f57 57be 914f 84bf a6f8 febd
00000090: 11f4 54bc 49fc 96bc 2f1b 81be 1f0a 63be
000000a0: 2bd0 9abd b1c5 3ebd c958 133c b9f9 e2bc
000000b0: e13c 17bd ae16 cebd 38ed 9e3c 3d9b 08be
000000c0: e4b0 1bbe ee2d 09be 0eab 1ebe 25d8 3fbd
000000d0: 758e b6bd 1730 323d c2c8 d9bd 3bd6 8abd
000000e0: 2227 acbd ade6 10bd a7ec 2cbe 0b08 fb3c
000000f0: 0838 ff3b 20d4 24bd 6f1d 19bd 8171 13bd
00000100: 3b82 17bc d800 91bc 3de3 b5bd 9978 29be
00000110: 6882 413d dd9a 68bc 1e83 9abe 47f6 9abc
00000120: 4b56 efbb 3761 77bd c4cd 12bd 5059 5ebe
00000130: 034f d8bd fc32 acbd f3af cbbd 94c6 b8bc
00000140: d473 3ebe 56c6 173d e285 19be 29ca 4bbe
00000150: 7447 5ebe 93f7 093d 27e3 60bd 3571 82bb
00000160: ab03 67be e5c7 4abe a617 cfbc e070 6abd
00000170: feec 10bc 5192 093d 6396 1abd 8bb4 9f3c
00000180: 428b 4ebe 4dea 6abf b626 3dbe 41f8 2fbe
00000190: 18da d0bb f771 013d 0ac5 483d cb67 06bd
000001a0: 9d48 a8bd ecca 013c 738a 0fbd 5178 89bd
000001b0: a2e3 e43c d483 49bb 287e 8cbf 6ba2 d63b
000001c0: f64f d93c 2905 d2bf af6a 61bd 6e6b 34bf
000001d0: 5cda 44be 736e e73b 62b7 153d cd0c 05be
000001e0: 41f2 c6be 73fb 25bf 6df1 35bd 8379 4dbd
000001f0: 4848 72be bfc6 16be 6eac 25be 3579 c5be
00000200: 71df 403d a90f d33c 2fff 02be 6cc9 c63c
00000210: fa77 dfbd 5e7d abbc 84ac 3ebe 5c06 06be
00000220: 9c00 d2bd b7fd 51be eaf9 2abe c1c2 3bbd
00000230: 35d5 abbd 080e 1ebd 078b 24be 17b8 26be
00000240: b1b5 ecbd 2920 953b 5eb4 3bbd 3618 29bd
00000250: d4bd e0bd f9a5 9cbd 8f37 e73b 95ed 0abf
00000260: a835 2cbe aae0 6abd ff0e 073d e65d 7ebd
00000270: 0511 3b3c 4ebb bdbd 1d67 afbe 9de0 f3bc
00000280: 8dba 35be 4e83 6bbe 2fe4 8fbe d867 68be
00000290: 4762 27be 8de0 3fbe 79bf b6bd 58a3 29bd
000002a0: c884 cfbd 5466 43bd 0bc4 97bc 283e a8bd
000002b0: b128 a1bd 7ef8 c3bd c7f6 cebe 153a 25be
000002c0: 013a 233c 5a34 18be 6d14 63be 4832 50be
000002d0: 5a35 0cbe 497f 05be f300 a3bd e918 6dbd
000002e0: ece6 2d3d 213b 483d 5288 edbd cec0 c03c
000002f0: 42be aabd 8f09 8f3c 6976 fcbd e7b7 28bd
00000300: feb2 40be 3940 90bc 1693 bfbd 47d4 48bd
00000310: e585 1b3d a08b 91bd 9eed 13be fec5 453d
00000320: a6c2 f7be 466e 6fbd 7dbf 9c3a 9cfc 3f3d
00000330: 1851 ccbd 817d e2bd 9b65 1abe ff4d e5bd
00000340: f182 ea3c 44b8 493c 41b4 0bbe a44e 42bd
00000350: 4169 39bf 30bd dfbc 8594 a2be 032f 77bd
00000360: a4d4 4fbe 0cce 59be 81fb 19bf 6cd3 c4bd
00000370: ac4c ddbd 1e52 d3bd 4931 6cbd ea31 4ebe
00000380: e25f 1ebd c28d 86bb db6e d3bb ac1b 473d
00000390: af81 853d 61fa 6a3d 93f0 9ebd eaf2 18be
000003a0: 425c afbd f0fc b8bd 5aa8 bbbc b00e b4bd
000003b0: 201d 6e3d 6247 44bd df77 5ebd 4e0b d83c
000003c0: b098 323d 3ee2 8ebc 950e 043d e1f7 e0bf
000003d0: a02c f23c a057 55be 49e4 b53c cad2 8abe
000003e0: cfaf 09c0 8c4d adbd e707 80bd a28f 0e3d
000003f0: 934d 4ebe c800 53be a77e 523c e758 16bf

action_out.bias f4 [5]
-0.22929059 -0.0489499 0.011733068 -0.020604856 0.062445164
00000000: 27cb 6abe b17f 48bd 0e3c 403c 84cb a8bc
00000010: 80c6 7f3d

weight f4 [256, 123]
0.10588495 -0.06741622 -0.07039674 -0.0197078 -0.13206562 0.38243058 0.15201353 -0.058249492
-0.09363733 0.05387149 0.06347252 -0.16405666 -0.15026137 0.45005706 0.029372452 -0.016511515
-0.12796274 0.02942291 0.008720073 0.04315328 0.11441192 0.4543659 -0.04900487 -0.10765558
-0.091236725 -0.17246331 -0.27686635 -0.13186799 0.03820555 -0.045958795 0.21065143 -0.06865998
-0.12972787 -0.06875043 -0.022821367 -0.031208344 0.11278167 -0.24736129 -0.18254049 -0.12553214
-0.13546006 0.41581917 0.06797594 -0.33049202 -0.21559863 -0.18921766 -0.102230646 -0.23331256
-0.10497643 0.48977172 -0.028202739 -0.23405413 -0.06929587 0.016375326 -0.00780493 -0.035480063
0.13555802 0.42906561 0.053529486 -0.23088099 -0.091220275 -0.24401629 -0.278653 -0.14354697
-0.056906927 -0.045980554 0.16005555 -0.16494972 0.011957005 -0.21175545 -0.045909803 -0.34438726
0.13043502 -0.078832865 0.27013677 -0.080175914 -0.16438252 0.3877783 0.13718519 0.047795407
0.15403959 0.2575145 0.22665444 -0.30052385 -0.17292824 0.5617729 0.039704807 0.06331605
0.194558 0.13497509 0.2910397 -0.026447248 0.19201949 0.42555434 -0.058696393 0.05219112
0.14475013 -0.05537482 -0.025372334 -0.210102 0.00036961885 -0.07233862 -0.042115953 -0.11091319
0.02555696 -0.0880739 -0.17439845 -0.0053401217 0.12013415 0.02260021 0.04196776 0.071781255
-0.10025367 -0.05116474 -0.00035479665 -0.09295098 -0.24458353 -0.34005818 0.114822246 -0.30898494
0.19636597 -0.24719703 -0.007656226 -0.0042726058 -0.056287907 -0.018766742 -0.058143698 -0.0893486
0.03027407 0.031028328 -0.082755454 0.083136074 0.071540795 -0.08166478 -0.08267101 0.01031392
0.012924239 0.0016548067 -0.026436878 0.0051951515 0.07146782 -0.10413208 -0.073771186 0.07679676
0.07541863 0.029703425 -0.06593987 -0.063031614 -0.0006149888 0.037544608 -0.062329732 -0.040450186
0.017442025 -0.056929313 0.037000854 0.013337917 0.052294828 -0.027770046 -0.027078673 -0.05850198
-0.07430909 0.0515349 -0.04327531 -0.0070155263 0.053328626 0.018444087 -0.05362411 0.026557656
-0.06266745 0.10716328 -0.006856116 -0.10878261 0.047949143 -0.06536695 -0.07857831 -0.0580742
0.046564557 -0.07334464 0.079328686 -0.028302602 0.03662453 -0.027779376 0.03645555 0.06885423
0.06527944 0.012598059 -0.09416475 -0.08321568 0.041429516 -0.11748477 -0.047159184 0.024463408
-0.08496233 -0.071058564 0.010705166 0.056226213 0.07557072 -0.033887777 0.076122545 0.048287157
-0.004347883 0.008708033 -0.009414754 -0.053152855 -0.023380663 0.121207796 -0.013792261 0.0014884403
-0.034190957 -0.07475151 -0.091702215 0.0140722 0.031718254 -0.019269718 0.034019895 -0.05577582
0.037903436 -0.0634337 -0.007311112 0.075335555 -0.008650981 0.061914824 -0.004958433 -0.049716763
-0.007385917 -0.008057661 -0.090215616 0.0021827146 0.082266204 -0.015454036 0.0322991 -0.0070581264
0.047352634 -0.05065513 0.0757302 -0.03344246 -0.021056445 -0.061491378 -0.069826245 0.02395926
0.009936057 0.046474062 0.04717563 -0.05668274 0.0053491923 0.06420427 0.0128244795 -0.098633066
0.08104697 -0.20833154 0.048315056 -0.013531625 -0.1079353 -0.0702447 0.018320464 -0.015864491
00000000: 35da d83d 8411 8abd 2b2c 90bd 4172 a1bc
00000010: 363c 07be f1cd c33e 6fa9 1b3e 0597 6ebd
00000020: eec4 bfbd 5aa8 5c3d e1fd 813d 78fe 27be
00000030: 1ede 19be e16d e63e 7f9e f03c 2843 87bc
00000040: aa08 03be 5108 f13c a3de 0e3c 7ec1 303d
00000050: cc50 ea3d a6a2 e83e 55b9 48bd 877a dcbd
00000060: 52da babd 399a 30be 6dc1 8dbe 6708 07be
00000070: 6c7d 1c3d 4a3f 3cbd 02b5 573e 9b9d 8cbd
00000080: 62d7 04be 07cd 8cbd e0f3 babc a4a8 ffbc
00000090: 14fa e63d 474c 7dbe e5eb 3abe 7f8b 00be
000000a0: 0bb6 0abe 40e6 d43e f836 8b3d 4036 a9be
000000b0: e3c5 5cbe 46c2 41be 4d5e d1bd 7de9 6ebe
000000c0: e2fd d6bd 5cc3 fa3e 6e09 e7bc e3ab 6fbe
000000d0: feea 8dbd 8c25 863c 80c0 ffbb 8b53 11bd
000000e0: b9cf 0a3e 7dae db3e bc41 5b3d 116c 6cbe
000000f0: b2d1 babd 68df 79be 9bab 8ebe fafd 12be
00000100: 3d17 69bd 1b56 3cbd 9ae5 233e 94e8 28be
00000110: 50e7 433c 6cd6 58be eb0b 3cbd 8753 b0be
00000120: c290 053e 2073 a1bd 5e4f 8a3e 4533 a4bd
00000130: e453 28be e18a c63e 467a 0c3e 1ec5 433d
00000140: 8ebc 1d3e f1d8 833e 1a18 683e 43de 99be
00000150: 1a14 31be 59d0 0f3f 82a1 223d d8ab 813d
00000160: 363a 473e e936 0a3e 2803 953e e6a7 d8bc
00000170: c2a0 443e 42e2 d93e a16b 70bd 5bc6 553d
00000180: 6139 143e b5d0 62bd a4d9 cfbc fb24 57be
00000190: 67c9 c139 4526 94bd c781 2cbd 7426 e3bd
000001a0: d45c d13c 1760 b4bd 8295 32be 30fc aebb
000001b0: e508 f63d 1324 b93c 63e6 2b3d 0d02 933d
000001c0: cc51 cdbd 1e92 51bd 0004 bab9 155d bebd
000001d0: 1b74 7abe 1b1c aebe ed27 eb3d 4633 9ebe
000001e0: 2914 493e 3821 7dbe 14e1 fabb 3701 8cbb
000001f0: 268e 66bd b6bc 99bc 1628 6ebd 66fc b6bd
00000200: 5401 f83c 1f2f fe3c b17b a9bd 3f43 aa3d
00000210: fb83 923d dd3f a7bd 6b4f a9bd b7fb 283c
00000220: 30c0 533c 19e6 d83a 2792 d8bc 173c aa3b
00000230: b85d 923d 3343 d5bd 5915 97bd 9f47 9d3d
00000240: 1575 9a3d 9954 f33c 7c0b 87bd b816 81bd
00000250: 3337 21ba 60c8 193d 764d 7fbd 18af 25bd
00000260: 94e2 8e3c b62e 69bd 358e 173d 4787 5a3c
00000270: 1a33 563d 027e e3bc 18d4 ddbc c69f 6fbd
00000280: 5d2f 98bd 4216 533d 7441 31bd 80e2 e5bb
00000290: 1e6f 5a3d 0e18 973c f4a4 5bbd 718f d93c
000002a0: cb57 80bd 6c78 db3d 45a9 e0bb 6bc9 debd
000002b0: 5266 443d 1cdf 85bd aaed a0bd 36df 6dbd
000002c0: 7aba 3e3d b735 96bd 1477 a23d dcda e7bc
000002d0: 9a03 163d 9391 e3bc 6a52 153d 7203 8d3d
000002e0: 3ab1 853d 1768 4e3c 73d9 c0bd fc6c aabd
000002f0: ffb1 293d db9b f0bd fd29 41bd 7c67 c83c
00000300: bb00 aebd 2787 91bd b864 2f3c 754d 663d
00000310: d2c4 9a3d e9cd 0abd 23e6 9b3d c1c8 453d
00000320: b078 8ebb 23ac 0e3c 5740 1abc cfb6 59bd
00000330: ce88 bfbc cb3b f83d eff8 61bc c517 c33a
00000340: d10b 0cbd 5217 99bd 5fce bbbd 168f 663c
00000350: 00eb 013d 87db 9dbc 7258 0b3d 3075 64bd
00000360: a240 1b3d 87e9 81bd 0d92 efbb 8749 9a3d
00000370: d8bc 0dbc 669a 7d3d 5a7a a2bb cea3 4bbd
00000380: 9005 f2bb 4804 04bc f7c2 b8bd e00b 0f3b
00000390: 2f7b a83d ed32 7dbc 104c 043d db47 e7bb
000003a0: d6f4 413d c17b 4fbd 6f18 9b3d f6fa 08bd
000003b0: 917e acbc 62de 7bbd 1001 8fbd 3646 c43c
000003c0: d8ca 223c 965b 3e3d 3c3b 413d 292c 68bd
000003d0: 4748 af3b 877d 833d c41d 523c 2200 cabd
000003e0: f4fb a53d dd54 55be 02e6 453d c0b3 5dbc
000003f0: 2f0d ddbd 74dc 8fbd cc14 963c 40f6 81bc

bias f4 [256]
-0.096178114 0.004155759 0.24482809 0.13130301 -0.19887188 0.19792898 -0.058939625 0.023566438
0.024781482 0.15069199 -0.1628477 0.020229591 0.07346399 0.16331813 -0.014149615 0.18637237
-0.11207815 -0.0073639457 0.17556368 -0.018624282 0.03519448 -0.0885373 -0.24370639 -0.046990562
0.05598393 0.05181584 -0.11648513 0.04733926 0.14196938 0.22197185 -0.0688316 -0.06923149
0.039819088 -0.058108255 -0.008576089 -0.073471725 -0.11086261 0.13434976 -0.06791723 -0.062174033
-0.052559942 0.1781805 -0.08846317 0.18879083 -0.1834473 0.00030694692 -0.012747138 0.05638038
0.036130257 -0.23765852 0.038499214 -0.013574036 -0.00968568 -0.10250578 -0.007348305 -0.15859818
-0.06637706 -0.11424148 0.26154807 -0.13377889 0.011099708 -0.2579385 0.057926275 0.115417644
-0.06436651 -0.07613137 -0.19229892 -0.01814349 -0.025663346 -0.0019415024 -0.23058198 -0.15236977
-0.08938452 -0.03679326 -0.18913785 0.03391945 0.14702605 0.13792764 -0.05096096 0.06191768
-0.1431621 -0.047644176 0.038312536 -0.008635032 0.07920818 -0.020221364 0.11220101 0.058734976
-0.034410432 -0.07176212 0.112205856 -0.009967003 -0.023107598 0.11295167 -0.0015964491 -0.015465984
-0.12875542 0.05529393 0.023896398 -0.14049564 0.06110409 -0.06284757 -0.009578888 0.22969688
0.02763523 -0.06730572 -0.084890105 0.15162648 0.043483254 -0.044230208 -0.018848758 -0.067612566
-0.0074542616 0.021924743 -0.044386588 -0.055046782 -0.020679986 -0.090748265 0.13018547 -0.14290078
-0.025369415 0.10615226 0.009777797 0.11659071 0.08334972 -0.12458286 -0.011355929 0.017694518
-0.15137693 -0.07742516 0.009356108 0.023024682 -0.06710941 0.31747392 0.08206614 -0.030038876
0.03201386 -0.017364303 -0.120072454 -0.09892929 0.21919772 0.26992902 -0.0553994 -0.07201329
-0.23703118 -0.091881454 -0.052897487 0.11742741 0.17507103 -0.09218929 -0.053101666 0.11929854
0.040787626 0.12907232 0.015038987 -0.13385962 0.107058115 -0.06628019 -0.025170777 0.14934257
0.07717906 -0.12700817 -0.01552794 -0.19920987 0.02564095 0.0055657746 -0.13230117 0.13766654
-0.06974037 -0.0019841606 -0.059670914 0.012796003 -0.27624664 -0.05667345 -0.049460646 -0.024639279
-0.030751819 -0.066361055 0.0037585713 0.2245486 0.20570765 -0.133325 -0.10708529 -0.09305846
0.032544576 -0.08315965 -0.027925516 0.0133196935 0.15192449 -0.07892841 0.038056612 -0.19294578
0.19844073 -0.076040655 0.013694355 -0.09471661 0.044481363 -0.05359353 -0.022127617 -0.04467626
0.02832371 0.046928223 0.012057565 -0.06131654 0.038183916 -0.10267487 0.0125263035 -0.18048637
-0.028489659 0.052414604 -0.07546034 -0.067499846 0.076359965 0.02405001 0.11719546 -0.19579832
0.13974369 0.12404914 -0.026051082 -0.008982324 -0.12367721 -0.12855603 0.19599362 -0.14749277
-0.17438935 0.14099635 0.04509742 -0.036994107 0.00018226872 -0.06660224 -0.1003346 -0.069632
-0.021664158 0.13838038 -0.011157574 0.018037818 -0.022143228 -0.02188137 0.055707555 -0.040682614
0.038952976 -0.014124377 -0.13280483 -0.039588705 -0.09987748 -0.14721282 0.10930935 -0.166076
0.015447292 -0.1352831 0.122998565 -0.23726477 -0.05452257 0.06510036 -0.05400359 -0.059235625
00000000: 08f9 c4bd 082d 883b 37b4 7a3e 4c74 063e
00000010: 12a5 4bbe e5ad 4a3e ad6a 71bd 670e c13c
00000020: 8902 cb3c 004f 1a3e 8cc1 26be 87b8 a53c
00000030: 4a74 963d de3c 273e c9d3 67bc 66d8 3e3e
00000040: 3b89 e5bd 414d f1bb f7c6 333e f391 98bc
00000050: 1628 103d 0b53 b5bd 2b8e 79be 2d79 40bd
00000060: 684f 653d d93c 543d c18f eebd d0e6 413d
00000070: 6c60 113e 974c 633e 95f7 8cbd 3dc9 8dbd
00000080: 5719 233d ec02 6ebd b982 0cbc 5878 96bd
00000090: f00b e3bd fc92 093e 3018 8bbd 33aa 7ebd
000000a0: 1849 57bd f374 363e 2e2c b5bd 6252 413e
000000b0: 9cd9 3bbe b8ed a039 5fd9 50bc 1def 663d
000000c0: 52fd 133d c15c 73be 5ab1 1d3d a265 5ebc
000000d0: b0b0 1ebc 8dee d1bd 0dca f0bb 9067 22be
000000e0: b2f0 87bd 70f7 e9bd a1e9 853e 55fd 08be
000000f0: 8ddb 353c 8410 84be 1a44 6d3d 1660 ec3d
00000100: 97d2 83bd c4ea 9bbd 02ea 44be a8a1 94bc
00000110: f03b d2bc 037a feba af1d 6cbe d206 1cbe
00000120: 3b0f b7bd 88b4 16bd 5aad 41be 1fef 0a3d
00000130: ff8d 163e e73c 0d3e 71bc 50bd 659d 7d3d
00000140: 1699 12be 8a26 43bd 9bed 1c3d f379 0dbc
00000150: e637 a23d 46a7 a5bc a5c9 e53d 1694 703d
00000160: f4f1 0cbd 05f8 92bd 2fcc e53d a44c 23bc
00000170: 254c bdbc 3553 e73d f13f d1ba 0a65 7dbc
00000180: 76d8 03be e37b 623d 61c2 c33c 17de 0fbe
00000190: 4848 7a3d 3ab6 80bd c5f0 1cbc a935 6b3e
000001a0: 4763 e23c 95d7 89bd ddda adbd f943 1b3e
000001b0: 7f1b 323d bc2a 35bd b668 9abc 7578 8abd
000001c0: e142 f4bb 859b b33c b6ce 35bd bc78 61bd
000001d0: 1369 a9bc 3ada b9bd 574f 053e 9554 12be
000001e0: 85d3 cfbc 5b66 d93d 0e33 203c 1cc7 ee3d
000001f0: 42b3 aa3d 4c25 ffbd 380e 3abc 18f4 903c
00000200: 8e02 1bbe 1591 9ebd 5c4a 193c 429e bc3c
00000210: a970 89bd f18b a23e 4b12 a83d 1714 f6bc
00000220: f720 033d 953f 8ebc 8ce8 f5bd 719b cabd
00000230: 5e75 603e 2334 8a3e 7bea 62bd b47b 93bd
00000240: 4db8 72be 582c bcbd 09ab 58bd c87d f03d
00000250: d245 333e bdcd bcbd 2281 59bd cb52 f43d
00000260: ed10 273d 892b 043e 1566 763c 7f12 09be
00000270: 4941 db3d e9bd 87bd f232 cebc 42ed 183e
00000280: 0e10 9e3d 6e0e 02be e768 7ebc acfd 4bbe
00000290: f80c d23c 1a61 b63b f579 07be 75f8 0c3e
000002a0: 0ad4 8ebd b108 02bb 7d69 74bd 54a6 513c
000002b0: 3370 8dbe 6b22 68bd 3f97 4abd 50d8 c9bc
000002c0: 3deb fbbc 4ee8 87bd 5d52 763b 11f0 653e
000002d0: 07a5 523e 5986 08be 884f dbbd 6f95 bebd
000002e0: 764d 053d 9b4f aabd 0dc4 e4bc d83a 5a3c
000002f0: 1892 1b3e 38a5 a1bd 40e1 1b3d 9493 45be
00000300: 0c34 4b3e 34bb 9bbd 4a5e 603c c8fa c1bd
00000310: 1732 363d e484 5bbd fa44 b5bc 74fe 36bd
00000320: 2007 e83c cf37 403d 188d 453c 0d27 7bbd
00000330: bd66 1c3d 3447 d2bd 203b 4d3c 6bd1 38be
00000340: 2563 e9bc b2b0 563d f38a 9abd 5c3d 8abd
00000350: 9d62 9c3d 8704 c53c 2c04 f03d 5b7f 48be
00000360: f818 0f3e 7a0d fe3d 1469 d5bc 992a 13bc
00000370: 7a4a fdbd 31a4 03be 8db2 483e 5808 17be
00000380: 1f93 32be 5961 103e 13b8 383d 2287 17bd
00000390: 631f 3f39 c166 88bd 3a7c cdbd 399b 8ebd
000003a0: 0879 b1bc 96b3 0d3e 42ce 36bc 0cc4 933c
000003b0: b765 b5bc 8f40 b3bc 9b2d 643d d0a2 26bd
000003c0: 288d 1f3d ee69 67bc fdfd 07be c427 22bd
000003d0: 908c ccbd f5be 16be 95dd df3d d40f 2abe
000003e0: a316 7d3c a787 0abe ace6 fb3d 89f5 72be
000003f0: 0f53 5fbd 5653 853d de32 5dbd 0ea1 72bd
