src/saved_models/grid_world_seed125_8_7_16_59_成了/125_69_model.pt (torch, 702727 bytes, 11 tensors)

FC1.weight f4 [256, 36]
00000000: ee56 8b3d 234a 95bb 5da6 963c ba3a 1dbe
00000010: bea3 933d b384 793d 76c7 c13e d045 64be
00000020: e483 4dba 65cf 133f f522 613e 7c13 813e
00000030: 7780 48be 9b9b bdbd 56e8 833e 99bd 23be
00000040: 1c80 2dbe b153 2dbf 584f a03d 4f82 06bf
00000050: 013f 953d 4d98 913d 36db d83e b4c8 4cbe
00000060: 3176 d4bd 487c c03f 101a 6c3d c9c6 423e
00000070: 0964 123e 9a66 06be bffd 86bc de99 803c
00000080: 4972 093e 142a 1e3e 5afd 6d3c 0760 a8bc
00000090: 45a6 33be 9e33 913d 12a2 193e 6dcd 41bc
000000a0: 6c0a 373e fe0f 2f3f b4a2 363e 0270 533d
000000b0: 383b c93d 661c b63e b7db 3ebe 498d 2cbe
000000c0: 1813 74be 819a 573f cac4 23be 6f10 d83d
000000d0: 2a92 3b3c 76ad d83e 1868 2d3e d8a1 2c3e
000000e0: 76ac 23be 29cc 8c3f 7281 95be 45b1 6f3e
000000f0: 4a37 193e d681 d43d 785b 123f 841e 1ebe
00000100: 4f5f c2bd ffb2 89be af85 743e 9ebf b6bd
00000110: 3021 c23d 52b1 d1be 5403 ca3c a161 013d
00000120: 7875 9f3e 20da 063e b66b 103d f971 8d3e
00000130: 8eff c3bd e874 d83d fb4d 4dbe 65a1 433d
00000140: 9b12 0ebe 8e4d 22be bb6d b8bc be5a 663e
00000150: beb7 33be e12d e23a 6bc3 99bc 4e8f 6b3e
00000160: 3616 053e 15ca 7dbd 003b ecbd 7b22 ddbe
00000170: 3a5b 8b3d 3881 d9be 689d 883b 5c85 b63d
00000180: 305f b5bd b1fc ee3e 4404 66be 0caf 193e
00000190: b83b b33e 0d01 08be 299d 49be 7406 663d
000001a0: 7158 5e3e f5ec c5be 0128 e93e f742 9d3d
000001b0: c990 3e3e f2c2 533e 2a7c 84bd c168 a13d
000001c0: da55 bd3e 235a 103e 8d71 7fbd 0906 823e
000001d0: e9c9 04bd 8531 06be cfa7 f5be f01d dfbc
000001e0: b230 83bc 2cb5 893e 563b f13c 81bb 573d
000001f0: 5cb6 40be f3d4 a73d 4f21 16be 2d40 9c3d
00000200: 7f3e 4dbe ad89 883e a3a6 05be 3cb9 e03c
00000210: 2d91 48be 4619 3b3e 8f95 1e3f 0449 adbe
00000220: cffd dc3d d6d7 17be e16a 8b3d 6331 243d
00000230: d646 213e a79c dbbe 509c 9cbe 3092 2c3c
00000240: 1506 3d3e ce04 96bd 62c5 11bf 43d9 063d
00000250: 4489 e6bc 42aa 9ebe f986 6fbf f676 c5bd
00000260: b841 f93d e2a1 533d b8cd e3be d6a8 b6bd
00000270: 23f2 74be 1c17 b33c 94f1 c2be a402 98bd
00000280: 921f c3bc 9a63 193e 62be 8fbe 3f53 1d3e
00000290: c0fe a0bf 6205 e43b 1dbf 6fbe 47e5 2d3e
000002a0: f3ea 39be 3521 16be ddc3 9b3f 9465 033e
000002b0: 083b 183d 0d10 f33c 50da 2fbe 15a9 ad3d
000002c0: 1c04 603e 00c0 b5be 5bbd 223e dff3 8dbe
000002d0: 7fd7 2e3e 7c78 dcbd de11 16be ddbd 09bf
000002e0: 15d6 c53c 7e8c 62be 41ed 14be c40e a1bb
000002f0: e3d7 5abc 81bf 693f 678d e1be 3faf 90be
00000300: c8c8 483e d1a8 cdbe aaec a73d 30aa 86be
00000310: 5bc9 3b3e aa3b 6bbe 6ea2 38be 814c ddbd
00000320: 265b 8fbe d41d e5be 5d29 dfbc a30d 09be
00000330: cadf 743e 999a 79be 5d30 a13e b672 943d
00000340: add5 b4b8 aa7a a0bd 30d8 83bc 74de ce3d
00000350: 73fd 99be d096 e33e ba41 b3be b5e1 8ab9
00000360: d416 a93e 0c67 493d 27aa 68be 332c 5b3c
00000370: d41f 243e 60f8 493e 8466 74be 9784 0ebe
00000380: 603f f3bc aea3 cbbe a189 bdbe 7137 03be
00000390: 1736 08be 54aa 7e3e e2bb 473c da0c 57be
000003a0: 900a d0bd 0fcb 41be 11c7 823c 726f 743e
000003b0: f8df 2bbf d5f9 363d 1241 1cbe 8dfa 56be
000003c0: 3a06 9bbd c271 bfbe b723 453f 1213 043e
000003d0: 81e7 413d deaa 783d 847b 1d3c 8067 78bd
000003e0: 7bad 983e 7532 91bf fe33 8a3e b9d1 a83d
000003f0: 8b20 863e f108 23be e4da c9be 2e09 b6bd
0.0680369 -0.004555957 0.018389875 -0.15354434 0.07208966 0.060917567 0.3784749 -0.22292256
-0.00078397826 0.57738334 0.21985991 0.25210178 -0.19580255 -0.09258195 0.25763196 -0.15990295
-0.16943401 -0.6770583 0.078276336 -0.52542585 0.07287408 0.07109127 0.42354745 -0.19998437
-0.10374106 1.5037928 0.057642043 0.19021143 0.14295973 -0.13125077 -0.016478417 0.01569837
0.13422503 0.15445739 0.014525736 -0.020553602 -0.17543896 0.07089923 0.15003231 -0.0118287625
0.1787507 0.6838378 0.17835504 0.05162049 0.09825748 0.3556854 -0.18638502 -0.16850771
-0.23835409 0.8422013 -0.15993038 0.105500095 0.011448422 0.4231984 0.1693424 0.16858613
-0.15983757 1.0999805 -0.2920032 0.23407467 0.14962497 0.10376327 0.5717082 -0.15441328
-0.09490835 -0.26894376 0.23879121 -0.08923267 0.09478986 -0.40955597 0.02465979 0.031587247
0.3114431 0.13169146 0.03525897 0.27626017 -0.095702276 0.10569173 -0.20049278 0.04776134
-0.13874285 -0.15849897 -0.022513261 0.22495553 -0.17550561 0.0017256105 -0.01876994 0.23003885
0.12996754 -0.0619603 -0.11534691 -0.4319037 0.068045095 -0.424814 0.004169155 0.08912155
-0.08856046 0.46677163 -0.22462565 0.15008181 0.350065 -0.13281651 -0.19688858 0.056158498
0.21713425 -0.38657346 0.45538333 0.07678788 0.18609919 0.20679834 -0.06468995 0.07881308
0.36979562 0.14096884 -0.06236415 0.2539523 -0.03241912 -0.13104828 -0.4797959 -0.027235955
-0.01601443 0.26896036 0.029447239 0.052669052 -0.18819565 0.08194914 -0.14661144 0.07629428
-0.20043372 0.26667538 -0.13051848 0.027432077 -0.1958663 0.1827136 0.6194696 -0.3384477
0.10790598 -0.14828429 0.06807495 0.04008616 0.15749678 -0.42892954 -0.30588007 0.010532901
0.18459351 -0.07325135 -0.5694181 0.03292204 -0.028141625 -0.3098927 -0.93565327 -0.096418306
0.12170738 0.051668055 -0.44492888 -0.08918922 -0.23920493 0.021861605 -0.38074934 -0.07422379
-0.023818765 0.14979401 -0.28074938 0.15363787 -1.2577744 0.0069586495 -0.23412748 0.16981994
-0.18156032 -0.14661105 1.2169148 0.12831718 0.03716567 0.02967074 -0.17173123 0.084795155
0.21876568 -0.35498047 0.15892546 -0.2772512 0.17074393 -0.10765168 -0.14655253 -0.53805333
0.024149934 -0.22123906 -0.1454363 -0.0049150903 -0.0133571355 0.91307837 -0.44053194 -0.28258702
0.19607842 -0.4016786 0.08199437 -0.26301718 0.1833853 -0.22971979 -0.18030712 -0.108056076
-0.27999228 -0.4474932 -0.027241403 -0.13384108 0.23913494 -0.2437538 0.3148221 0.07248442
-8.622869e-05 -0.07835896 -0.016094297 0.10101023 -0.3007618 0.44450998 -0.35011083 -0.00026489576
0.3302523 0.04917054 -0.22721158 0.013377237 0.16027766 0.19723654 -0.23867232 -0.13917767
-0.029693305 -0.39773315 -0.37019065 -0.12814118 -0.13301884 0.24869663 0.012190791 -0.21000996
-0.10158265 -0.18925117 0.015964063 0.23870638 -0.67138624 0.044671852 -0.15259197 -0.20994015
-0.07569547 -0.37391478 0.7700762 0.128979 0.04733992 0.060709827 0.009611968 -0.06064558
0.29819855 -1.1343523 0.26992792 0.082431264 0.26196703 -0.1592138 -0.39424813 -0.0888847

FC1.bias f4 [256]
00000000: f144 5b3e fd32 20bd 0f84 2f3e f4b7 56be
00000010: aa72 b9bd 4679 003e 666d a03d 49ce 2abb
00000020: be18 1bbe c03a 0abd 54de 22be bc96 27be
00000030: a4f0 c4be eb89 213e 34a8 17be 0296 72bd
00000040: 50d8 dabd 69fe ae3d fc71 013d 35b4 403c
00000050: a00a 9dbd 55b5 a53c 6617 ef3d dfae ecbd
00000060: bf10 933d ff8c e3bb f408 87bc f76e 76be
00000070: 1f57 88be 83d7 a03d c688 24be bc9b 1d3e
00000080: 93f2 c0bd ec88 8dbd 46be d93d 9a66 88bc
00000090: 2c75 36be dc4e 493d e961 82bd 6d64 0ebd
000000a0: d5d9 5cbe 2d83 7fbe 8924 e4bc febe 28be
000000b0: 56d9 5bbe 8dcb c03d 0e50 a3be 0a82 543e
000000c0: 534c 26be a03b 96be 46ee 133e 00c9 8d3b
000000d0: 0681 e1bd 6594 29be ee0a d63d 201a fc3b
000000e0: a87c 123e 8f75 efbd 392d d13d 4548 443e
000000f0: 939c a8be f228 9abe 177b 03be 84b7 27bd
00000100: 9165 95be 490a 9fbd 48ed 9cbd 06b8 18be
00000110: 52c7 6ebe 9b91 29be 6dd3 503e 9465 b8bd
00000120: 0d81 49be b322 8e3d bb87 0dbd 7bef f5bd
00000130: 8b49 7a3e 2e4e 6cbd 325c 483d a902 6ebe
00000140: 4ca7 c63d 7982 473e c681 063d 5068 f53d
00000150: 2517 afbd c038 2cbd 3690 15be 85a7 d8bd
00000160: e6b8 86ba 72a3 933e 4f8e 30be 1d85 8a3d
00000170: 9b1c f43d 0ad5 7dbc 4346 d43d ed86 4fbe
00000180: 6061 e63d f421 683c ff3a 893c d2ac cfbe
00000190: 248d 80be 75ba acbd 40a7 50bd 0bb4 e3bd
000001a0: 7b9e b2bd 36dd 673d 835f f73d d1ca 6ebd
000001b0: a52b 3d3d 746d 0a3e dd32 323e 10d3 353e
000001c0: 6cc9 783e 4591 f6bd 469c 2f3d 5172 07be
000001d0: 1649 c5bd 1dda 6e3e f37e 863e 748c 5a3e
000001e0: f564 14be bf4b 4c3d c90d 0a3d d569 8ebd
000001f0: 5bac 6fbe 0b33 553d 278f 2a3d d6ca 31be
00000200: 7319 bd3c bb1f 18be 2d80 8bbd a115 1ebe
00000210: 7271 63be 0b62 1bbe 6969 8c3e 326e 983e
00000220: e254 bd3b 83ef 6bbe 58bc 823c 406b e63d
00000230: f584 253d 831f 3fbe 0917 73be b545 2abe
00000240: d2b9 d7bd 1035 6dbd fcd5 8fbb 7839 683d
00000250: f69f 2a3e 9bdc 453e 1d41 f13d 9bb5 77bb
00000260: 3311 20be 9f3b 373e 1a2e 25be 0a24 1dbe
00000270: 882f 1cbe 806d 05be 5bd9 58bd cb7d c13d
00000280: 7809 123e 3941 9bbe 5379 17be 42e9 b83d
00000290: 0737 f3bd 5b5a 1a3e 03d0 2fbe 179b c6bc
000002a0: e8e2 0a3d a407 b1bd 1d23 5f3e 137c 90be
000002b0: 5931 71bd 0e2e 733d 1cec 57bd 67fd 36be
000002c0: 5bee acbd 6ee7 3cbe 5678 2bbe a081 89be
000002d0: ebd4 f23d 95eb ac3c 10df b9bb 7420 e93c
000002e0: 9880 1c3d eff7 16bb 610e 8e3d 5c5d 48be
000002f0: 6792 98bd 6ae6 113e fc66 e2bc a967 97bd
00000300: 268a b9bd c89d d5bd c708 a2bc 233c 41be
00000310: 0be1 1ebc 70cc f3bd 9433 d7bd fe43 88bd
00000320: 7989 8b3e 4a72 acbc 825b 3d3d f696 7e3d
00000330: 53d7 3ebe 2166 4dbe 75d8 8f3d 6ae3 a8be
00000340: 2d73 37bd c2ad 433c 86e5 85bd f645 933e
00000350: 7a7e 563d 77fa d03d a814 97bd e49b 48be
00000360: 7e42 cdbd 0073 9abc 1cd8 44be 23e0 86be
00000370: d798 8cbe a570 233d ed5d 7bbd 6a22 8cbc
00000380: a0ce 723e a6e9 c93c 84e1 853e 53e7 d1bd
00000390: c0af 3d3e 066e 89be 638c 373d 7d35 32be
000003a0: 19b7 65be 69d7 b0bc c4d2 45be c0d0 e4bd
000003b0: 9332 5fbe 43df 23bd 4444 dc3d 05ae 793d
000003c0: f612 66bc 3629 233e 5d63 393d a211 963d
000003d0: bfa3 e73c d56f a83d 81da 26bd f0fd 87bd
000003e0: 567f 813e 6655 43be 3046 6cbe 59c6 5abe
000003f0: ec55 b53d e1d5 ebbc 5057 5dbe ff2f 373e
0.21413018 -0.039111126 0.1714022 -0.2096861 -0.090550736 0.12546262 0.07833366 -0.0026062897
-0.15146157 -0.033747435 -0.15905124 -0.16366094 -0.38464844 0.15775268 -0.14810258 -0.05922509
-0.106857896 0.08544619 0.031602845 0.011761715 -0.07668042 0.020228067 0.11674385 -0.115567915
0.071809284 -0.0069442983 -0.016483761 -0.24065767 -0.26628968 0.078536056 -0.160678 0.15391439
-0.09421267 -0.069108814 0.10631995 -0.016650487 -0.17818135 0.04914747 -0.06366331 -0.034763742
-0.21567471 -0.24952383 -0.027849453 -0.16479108 -0.21469626 0.09413824 -0.31897014 0.20752731
-0.16240053 -0.29342365 0.14446363 0.0043269396 -0.110109374 -0.16560514 0.104513034 0.007693544
0.14305365 -0.116923444 0.10213704 0.19168194 -0.32931957 -0.30109364 -0.12839924 -0.0409465
-0.29179052 -0.077656336 -0.07662445 -0.1491395 -0.23318222 -0.1655945 0.20393153 -0.090037495
-0.19678135 0.06940212 -0.03455327 -0.12008568 0.24442117 -0.057691745 0.04891605 -0.23243202
0.09699878 0.19483365 0.032838605 0.11982787 -0.08549336 -0.04204631 -0.14605793 -0.10578827
-0.0010278493 0.28835636 -0.17241786 0.067636706 0.119195186 -0.015492687 0.10364964 -0.20266314
0.112490416 0.014168251 0.016751764 -0.4056154 -0.25107682 -0.08434001 -0.050940752 -0.11118325
-0.08721634 0.056607448 0.12078764 -0.05829889 0.0461842 0.13518316 0.17402215 0.17756295
0.24295586 -0.12039427 0.042873643 -0.13227202 -0.09633081 0.23325391 0.2626873 0.21342641
-0.14491637 0.049876925 0.033704553 -0.069537796 -0.23405592 0.05205063 0.041640427 -0.17362532
0.023083424 -0.14855854 -0.06811557 -0.15437938 -0.22211245 -0.15174119 0.27424172 0.29771572
0.005777941 -0.23040585 0.01595895 0.11250925 0.04041 -0.18664365 -0.23739256 -0.16628154
-0.10533489 -0.057911932 -0.0043895226 0.05669543 0.16662583 0.19322436 0.117799975 -0.0037797454
-0.15631561 0.17893837 -0.16130868 -0.15345779 -0.15252507 -0.13030052 -0.05294166 0.09447821
0.14261425 -0.30323198 -0.14792375 0.090288654 -0.1187573 0.1507353 -0.17169194 -0.024243874
0.0339078 -0.086440355 0.21790738 -0.2821966 -0.058884952 0.059370093 -0.052715406 -0.17870103
-0.084439 -0.18447658 -0.16745123 -0.2685671 0.11857017 0.021108428 -0.005672343 0.028457858
0.038208574 -0.0023035964 0.06936336 -0.19566864 -0.07449799 0.14248052 -0.027636997 -0.073928185
-0.09059553 -0.10430485 -0.019779576 -0.18870597 -0.009697209 -0.11904228 -0.105078846 -0.066535935
0.2725332 -0.021050591 0.046229847 0.062155686 -0.18636827 -0.2005849 0.07023708 -0.32986003
-0.044787575 0.011943283 -0.06537919 0.28764313 0.05236671 0.102040224 -0.07376987 -0.19590718
-0.10022448 -0.018853664 -0.19223064 -0.26342878 -0.27460358 0.039902348 -0.06136887 -0.017106254
0.23711634 0.024647545 0.26148617 -0.102492 0.18524075 -0.26841754 0.044811618 -0.17403217
-0.22433127 -0.02158709 -0.19318682 -0.111726284 -0.21796636 -0.04000784 0.10755208 0.060956974
-0.014042607 0.1593369 0.045260776 0.07327582 0.028276322 0.08224455 -0.040735725 -0.066402316
0.25292462 -0.19075546 -0.2307365 -0.21364726 0.08854279 -0.028788509 -0.21615338 0.17889403

FC2.weight f4 [256, 256]
00000000: c545 8fbc 75ef 69bb 210a ccbc eb60 533c
00000010: d8f5 71bd 4ccc 3c3d 81b2 97bc 13ca 923c
00000020: 68f1 ea3c d812 3abd 4617 c93c f8ba cd3c
00000030: 32df 74bd f5c1 6ebd e78a 6bbd 0367 c0bc
00000040: ae38 443d dd25 80bd 48f0 4ebd eff6 debb
00000050: 7001 babd e3aa 00bd 649a 0dbd 834b 4ebd
00000060: 8605 a23c 372b 56bd 6831 6abd de97 1abd
00000070: 9dc2 bf3c 6b20 a6bc b7cc c4bb cf81 133c
00000080: c2b5 a2bb 4228 623c 56b2 53bd 768c 3cbc
00000090: 0e03 1fbd 95f8 3c3c d523 a7ba dc6f d9bc
000000a0: 506e debb 36a5 083d 91cd 0d3d 5adf 04bd
000000b0: 805a 243c 3597 5bbd da9e 0bbd 2f30 32bd
000000c0: be15 66bd 216d 453c 23de 40bc 417e 41bd
000000d0: 2db5 abbc 405d 13bd 4132 253c 8308 89bd
000000e0: d7e6 bebb c515 c63c f52f c93c d3a8 35bd
000000f0: 0529 043d 5400 bfbc 76e3 203d 3320 c7bd
00000100: b667 28bd 6bc6 82bd 9d66 15bd f7da 3c3d
00000110: 72b1 57bd be8d 43bc 1a2c 13bd 5c3a f03b
00000120: fcdd 90bd 0bfc d9bc cb52 2d3c 9623 f93c
00000130: f582 1a3d e7f1 1bbb dc36 f2bc cbfd 11bd
00000140: a4ca b43c f2e5 86bc 9f5e 21bd bf4a 113d
00000150: 1334 d4bc ebb0 86bd e20b 133a fb56 97bb
00000160: 6c9f bdbc c4be 483d a990 8cbd bbc2 083d
00000170: 495f 6fbd 8d62 aa3b 178e fb3c e0f4 79bd
00000180: 04ee fabc cc28 ff3b e0cf 073b c2ab 113c
00000190: 379b 383c d771 07bb d41a 88bd 46be 423d
000001a0: 8e14 603c b1af 68bd 419e 2e3d ad54 08bc
000001b0: 187b 16bd 65b4 433c 9ef0 723d 6165 2abd
000001c0: 863b 053d 22e9 a03c 7f7e 8a3c 6434 f43c
000001d0: 9162 97bc 913e b6bc 49c1 f8bc d360 173d
000001e0: c3bf 07bd 1300 c8bc b54d ac3c 2412 ec3c
000001f0: d35a 5ebd 8230 bebd 289e 1dbd eadc 20bd
00000200: b575 293d 7056 bb3c 1fbc cebc a55c 7cbc
00000210: 726a 213d 8ecc 543c b41f a9bc f4b5 edbc
00000220: ec8d d7bc 54af 86bc 82ac 2dbd 0e32 e0bb
00000230: 2ede 97bd 363a 623d f7d7 37bd 8a57 d93c
00000240: 1f78 853d b444 01bc f5c7 0cbc 4a6e 1f3c
00000250: c6a9 b3bc 8f7b b8bc 681e 0c3d 6bf2 bebc
00000260: d18f 573d ed83 1a3d 6bc9 2f3c f172 88bd
00000270: 35a7 37bc 68b2 a8bc 36bd 82bd e3e8 3cbd
00000280: 688a 1fbd 88d3 2ebd c2cd 4abd afbc 68bd
00000290: 4756 10bd 51bf 1b3b d186 bd3b 4b30 ba3c
000002a0: cfce bcbc 073e 8fbd 438b 6ebd f5d2 073d
000002b0: 2d32 4b3d 3ea2 c9bb 5c0c 3a3c 9e04 71bd
000002c0: 1afe f9bc 1382 06bd 970b a13c 6470 84bc
000002d0: e619 69bd c530 a93b fff3 a03c de28 1bbd
000002e0: 05f5 d8bc 00f6 df3a 10d0 6cbd 1f2b fa3c
000002f0: f8a2 313d 5fc6 23bc 3bff 05bd 6bad a2bc
00000300: bba7 72bd ba37 95bc 7060 03bc 4a5a b0bc
00000310: 1484 e83c 32a0 14bd 39d4 58bd dd95 14bc
00000320: 7890 2cbc f0b0 423d a09e 7a3c d41d 81bc
00000330: ef52 b2bc 455a 4fbd cb53 4c3c 06e6 91bc
00000340: 703e ecbb 58db 6bbd ec4a d33c 820d 6d3c
00000350: 69fe 14bd d0ec e8bb e440 04bd 3e30 413d
00000360: 05a1 d73c 60d4 20bd 4cca e8bc c6ec c63c
00000370: 3246 93bc 137d 97bc 6504 07bd cde7 34bd
00000380: 2103 2ebd 73ac 1c3c 250e 66bc b9aa d83c
00000390: abbb 0d3d ebf4 973c 6d82 4ebd b8a1 143d
000003a0: 4076 643c dcdb 883b c153 07bd 0c21 373b
000003b0: 76d1 5a3d 6e81 4abd 9f6a 363c bbe4 273c
000003c0: 5224 b73c 44bb 38bd 2ba2 803c 1056 663c
000003d0: 5cb4 3cbd 8097 bcbd 9235 3c3d 91af 68bd
000003e0: 4613 8ebd b0ad 2a3d 0d6e 90bd 6284 f43c
000003f0: 5e7c 143d a5a4 d0bc 012a 95bc 13f8 b23c
-0.017489323 -0.0035695706 -0.024907174 0.012901525 -0.059072345 0.04609327 -0.018517734 0.017918622
0.028679565 -0.045428127 0.02454723 0.025113568 -0.059783168 -0.05829044 -0.057505514 -0.02348662
0.047905616 -0.06257222 -0.05052212 -0.006804339 -0.090823054 -0.03141297 -0.034571066 -0.050364982
0.019778024 -0.052287307 -0.057176024 -0.037742488 0.023408229 -0.02027913 -0.006005849 0.009003117
-0.004965515 0.0138035435 -0.051683746 -0.011508098 -0.038821273 0.011533876 -0.0012751768 -0.026542597
-0.0067880526 0.033360682 0.03461987 -0.032439567 0.0100313425 -0.053611 -0.03408704 -0.043502983
-0.05617308 0.012049944 -0.0117717115 -0.047239546 -0.020960415 -0.035977602 0.010082782 -0.066910766
-0.005825858 0.024180302 0.024559 -0.044350456 0.03226568 -0.023315586 0.039279424 -0.097229384
-0.04111453 -0.063855015 -0.036474813 0.04610726 -0.05265946 -0.011935649 -0.03593073 0.0073311757
-0.0707359 -0.026609441 0.010578821 0.030412477 0.037722547 -0.0023795308 -0.029567175 -0.035642426
0.022069283 -0.016467068 -0.03939688 0.035471674 -0.025903737 -0.06576713 0.00056093757 -0.004618523
-0.023147307 0.049010053 -0.06863529 0.033388834 -0.05844048 0.0051997364 0.030707402 -0.061024547
-0.030631073 0.007786846 0.0020723268 0.008891048 0.011267475 -0.002066722 -0.06645742 0.04754474
0.013676776 -0.056808177 0.04263139 -0.0083209695 -0.036738485 0.011944865 0.0593115 -0.04160059
0.03252747 0.019642416 0.016906021 0.029810138 -0.018479617 -0.02224663 -0.030365603 0.036957573
-0.033141863 -0.024414098 0.021033147 0.028817244 -0.054285835 -0.09286596 -0.038480908 -0.03927318
0.04137202 0.022868365 -0.025236188 -0.015402948 0.039408155 0.012988223 -0.020645 -0.029017426
-0.02631279 -0.016441025 -0.042400844 -0.0068419045 -0.07415424 0.055231296 -0.044883694 0.026531
0.06517052 -0.007889915 -0.008592595 0.009730885 -0.02193154 -0.022519855 0.034208685 -0.023308953
0.05262739 0.03772347 0.010729174 -0.06662548 -0.011209299 -0.020592883 -0.06383745 -0.046120536
-0.038950354 -0.0426822 -0.049512632 -0.056820568 -0.03523853 0.0023765157 0.0057838936 0.022728106
-0.023047833 -0.06994253 -0.05823828 0.03316017 0.0496084 -0.006153374 0.011355486 -0.058842294
-0.030516673 -0.032838892 0.019658847 -0.016166873 -0.056909464 0.0051632845 0.019647596 -0.03788077
-0.026484022 0.0017086864 -0.05781561 0.03053814 0.04336831 -0.009996026 -0.03271411 -0.019858083
-0.05924199 -0.018215049 -0.008018598 -0.021527428 0.028383292 -0.036285587 -0.052936766 -0.009068933
-0.010532491 0.047532022 0.015296608 -0.015761293 -0.021768061 -0.050623197 0.01247115 -0.017809879
-0.0072095916 -0.05758223 0.025792561 0.014468553 -0.036375437 -0.0071083084 -0.032288447 0.047165148
0.026321897 -0.039265037 -0.028416775 0.024282824 -0.017977808 -0.018492257 -0.032963175 -0.044166375
-0.042483453 0.0095625995 -0.014041458 0.026448594 0.034602802 0.018549403 -0.050417352 0.03628704
0.013944209 0.0041766 -0.03303886 0.0027943281 0.053422414 -0.04943984 0.011133819 0.010247405
0.022356186 -0.045100465 0.015702328 0.014058605 -0.04607044 -0.09208584 0.045949526 -0.05680806
-0.0693727 0.041669548 -0.070522405 0.029848281 0.03625142 -0.025469134 -0.018208506 0.021846807

FC2.bias f4 [256]
00000000: c4c7 4abd 7385 99bd eda2 75bd 3859 2dbc
00000010: 77b4 0e3e cd74 e0bd 3744 353c dcfe c3bc
00000020: 662d 5bbc e15a a1bd 8450 903d 5aa4 9d3c
00000030: 4c90 053e 4994 e23c 5c15 a2bc 6ed5 f23d
00000040: 50b4 f53d 31a5 1dbd 21a9 47bd 25fc 033d
00000050: 64db 573d 7bf9 a73d 4961 30bd f929 9a3e
00000060: 5e2f 483d 1d63 0b3e e7c3 f23d 2b4e ad3d
00000070: d6eb cfbd d77d 4dbd 3b44 d3bd 626e 13bd
00000080: 4861 533d 0d4d f23d d28e f3bd f624 9b3d
00000090: 8726 153e 07a0 e83c b3e8 d73d 7c0c 013e
000000a0: 870a 973d 8630 aa3c 9fc3 79bd 0ee5 543e
000000b0: 29a1 4abd e345 df3d 67d6 14bd 11d4 1b3d
000000c0: 2d75 173e 8ba9 53bc 5952 8e3d 8251 43bd
000000d0: 9c2f 293d dc18 c7bc fd6a b63d 3057 b1bb
000000e0: 6515 013e c2d7 c83d eb6a e73d d04f b4bd
000000f0: 9a8e 5bbd aca5 afbd 34f0 e4bd 56e2 f0bc
00000100: 8c2c 8fbc 8cc2 8fbd 1e8c 373d 01d7 d6bd
00000110: 222f 9fbd e3a5 e13d e436 5b3e 46aa 013e
00000120: e425 19bc 206b 0c3e 883c 71bd 8849 c0bd
00000130: 13b5 e53c 8d11 a9bd 93d2 e8bc 0dcf b5bd
00000140: 057f d03d f6cc aebd 013e 5ebd 03e4 4f3e
00000150: bfb7 54bd 5ab2 9abd 902b 193c fea2 ce3c
00000160: fb87 48b7 b786 bbbb 8858 713d 8a61 f93b
00000170: 2ed0 8d3c 884b aebd 1d07 f1bd 2481 a43c
00000180: 9949 cb3b eb74 423e a8bb d0bc b917 25be
00000190: e9e7 b2bd a063 97bd cf1c 8abd 3f72 cebc
000001a0: e0a1 673d 0a54 63bd 60dd 70bd de20 993d
000001b0: e820 bebd ba09 ca3d c1be b5bd 47fa b6bd
000001c0: e348 1abd 9e8d 203e efbe b9bd 2e03 683e
000001d0: 9c9e 1f3d df76 8cbd a706 46bc 7e54 363e
000001e0: fd2b 8c3d 2046 8b3e c274 b0bc f2a5 f83d
000001f0: 34d8 db3d b9a3 b5bd 9d4f a03d 52ba 483e
00000200: 3550 a7bc fd18 7fbd 6766 863c e93a 09bd
00000210: cd84 8dbc bee6 d3bd 96b3 083d 64b1 083e
00000220: 546c 193e a16e 0c3e dc02 8dbd c86d 92bd
00000230: a7d7 fe3d c542 e23d c29b 5b3c 31fd 34be
00000240: b10e 7f3d 8342 81bd 8759 c33d a4fd 94bd
00000250: 4bfc ea3d 0962 ef3d 0c33 94bc 25b6 c13d
00000260: d68d 2fbd 76a6 d73c fdad 5cbc 2fb0 e63c
00000270: f444 aabd 088d 1a3e 1edb 093e cbe7 cabb
00000280: 71cd c13d 44f5 3e3d 21d7 293d 096a c7bc
00000290: 6333 41ba 6c23 b63d 3029 093e 0894 7ebd
000002a0: dde3 de3d 5a33 8abd 2ad8 c3bc dbfd 053e
000002b0: b6a0 023e 7d8f e13c 85e4 c6bc f555 23bd
000002c0: a976 d6bd 5749 a7bc 531d 093e 72b0 113d
000002d0: a615 1f3d 4e66 923c 4f4f d8bd 4142 573d
000002e0: 8fc1 aabc 957e c8bb 9bfe c03d 387b 53bc
000002f0: 23a5 c43d de80 6ebd 7109 9e3d 8b2f 583d
00000300: 33f4 c03d 22f3 9cbc 4dc6 edbd 70b7 133e
00000310: 0299 8fbd d838 233e 987e b63d c2ba 10bd
00000320: 4112 e13d e12e 6f3d c43e 663e df9c 19bd
00000330: 028d e73d 69e5 f03d 5c1b 283e 44e0 8a3d
00000340: e349 12bd 98e0 15bd 7203 903a 0914 5c3d
00000350: 7cc0 873d fee8 933c 3820 fabd 791d 26bd
00000360: 363c ad3c ccf2 2dbd f163 e33d 2db2 a43d
00000370: 7627 613d 5708 89bd 4081 053e 5a99 953d
00000380: 0533 9ebd b33f c7bd 0db8 1dbd 5505 bdbc
00000390: 0b10 38bd 4a16 fabb 5e59 923d 9521 51bd
000003a0: 57c4 bc3d 3a1b 2e3e b9d1 483d b4e4 f23d
000003b0: 0e55 04bb 5a1d b8ba 630c 5ebd fec8 413c
000003c0: df57 dd3b aa93 c03d 2357 1b3d 0d6b 093e
000003d0: 057c a4bd 5448 f73d de8b 04bd 07d6 e93d
000003e0: 2257 fe3d b320 003d 45d3 95bd 3b16 aabd
000003f0: f0a9 1bbc 5544 6ebc a12f 813c b8f9 843e
-0.049506918 -0.074961565 -0.05996983 -0.010580353 0.1393603 -0.10959778 0.011063627 -0.023925237
-0.013377523 -0.07878662 0.07046607 0.019243408 0.13043326 0.027658598 -0.019785576 0.11857115
0.119972825 -0.038487617 -0.04874528 0.032222886 0.05269946 0.082018815 -0.04306153 0.30110148
0.048873298 0.13612027 0.11853772 0.08462175 -0.10152404 -0.05016884 -0.10315748 -0.03599394
0.051606447 0.118311025 -0.11892475 0.07575409 0.14565478 0.02839662 0.10542431 0.12602419
0.07375055 0.02077509 -0.060977574 0.20790502 -0.0494701 0.10902002 -0.036337283 0.03804404
0.14790793 -0.01291884 0.069493 -0.047685154 0.04130517 -0.024303846 0.08907125 -0.005412005
0.12605818 0.098067775 0.1129969 -0.088042855 -0.053602792 -0.08576521 -0.111786276 -0.0294048
-0.017477296 -0.07019529 0.04481136 -0.104902275 -0.07772662 0.110179685 0.21407658 0.1266261
-0.009347413 0.1371274 -0.058895618 -0.09389025 0.028040444 -0.08255301 -0.028420722 -0.088773824
0.10180477 -0.08535187 -0.05425835 0.20301823 -0.051933046 -0.07553549 0.009348765 0.025224205
-1.1952589e-05 -0.0057228464 0.05892232 0.0076105045 0.017311182 -0.085105 -0.11768935 0.02008111
0.006203842 0.18989913 -0.025480106 -0.1612233 -0.087356396 -0.07392049 -0.06743776 -0.025200961
0.05655086 -0.055500068 -0.05880487 0.07476972 -0.0928362 0.098651364 -0.08874274 -0.08934455
-0.037667166 0.15679023 -0.09069621 0.22657463 0.03896962 -0.0685861 -0.012086547 0.17805669
0.068443276 0.2720194 -0.02154005 0.121410266 0.10734597 -0.08869118 0.07827685 0.19602326
-0.020423988 -0.06227969 0.016406251 -0.033503447 -0.017275238 -0.10346745 0.03337439 0.13348919
0.1498273 0.13714077 -0.06885311 -0.07149845 0.12443476 0.110478915 0.013403835 -0.1767471
0.06226987 -0.06311514 0.0953856 -0.072749406 0.11473902 0.116886206 -0.018090747 0.094585694
-0.042859875 0.026324492 -0.013469216 0.028160183 -0.08313933 0.15092862 0.13462493 -0.0061921827
0.09463013 0.046620622 0.04146493 -0.024342554 -0.0007370023 0.08893475 0.13394618 -0.062152892
0.10883305 -0.06748076 -0.023906786 0.1308512 0.12756619 0.02753424 -0.024278888 -0.039876897
-0.104718514 -0.020420713 0.13390093 0.035568662 0.038839005 0.017871048 -0.10562002 0.05255342
-0.020844249 -0.0061186054 0.09423562 -0.012907796 0.0960181 -0.058228366 0.077166446 0.052779716
0.09421577 -0.019158904 -0.116100885 0.14425445 -0.07011606 0.15939653 0.089108646 -0.035334356
0.1098981 0.058394317 0.2248488 -0.03750312 0.11306192 0.117625065 0.16416687 0.067810565
-0.035714995 -0.036591142 0.0010987355 0.053730045 0.0662851 0.018055435 -0.122131765 -0.04055545
0.021146875 -0.042467877 0.11103047 0.08041797 0.054969274 -0.06691044 0.13037586 0.0730464
-0.07724575 -0.097289465 -0.038505603 -0.023073832 -0.044937175 -0.0076320516 0.07145952 -0.051057417
0.09217136 0.17002574 0.049028132 0.11860028 -0.0020192298 -0.0014046833 -0.05421103 0.011827705
0.00675486 0.09403165 0.037924897 0.13419743 -0.08031467 0.12074342 -0.03235995 0.114177756
0.12418963 0.031281184 -0.07315687 -0.083050214 -0.0095009655 -0.014542659 0.015769782 0.2597177

action_out.weight f4 [5, 256]
00000000: 5277 473d 78e6 b33c 0450 ce3c 5240 b0bc
00000010: ed9c 17bf a4b5 21be 8260 c5bd 9084 ebbd
00000020: ead2 323d 3c91 2cbe 7a0f 0fbe ef5f 853c
00000030: 42aa 29bd 366d 923d 202c 3d3d bcf0 d7bd
00000040: 5c2e b6bf 51dd acbd 1ba4 e83c 45db b23c
00000050: bb2d eabe ef11 dabd 7cc0 e137 1123 a7bf
00000060: 2797 7ebc 4850 79be 309a 91bd 5d0d eebd
00000070: 12a1 08be 27fa 563d e95e cfbd 6817 db38
00000080: 6d3c 8ebd ab8a dfbd 2eea 83bf ceaa ddbd
00000090: e7fe 48bc b69a 95bc 3a72 24be 24c8 b7bd
000000a0: 031f 98bd 084f 3ebd c958 133c fa27 bdbc
000000b0: e13c 17bd ae04 cbbd 38ed 9e3c 4b26 08be
000000c0: 233c 19be ae06 07be 8fd8 08be 25d8 3fbd
000000d0: fa13 9bbd 1730 323d 8c98 d8bd 1038 8abd
000000e0: e645 34bd b84c 0fbd 3085 cbbd 0b08 fb3c
000000f0: 0838 ff3b 20d4 24bd 141d 19bd 8171 13bd
00000100: 3b82 17bc d800 91bc ffcc a6bd 1491 2dbe
00000110: 6882 413d 6b49 28bc ea7d acbe 42cf 98bc
00000120: 4f21 b4bb 3808 98bd c4cd 12bd a8f1 64be
00000130: 40e5 d7bd e47e abbd 6feb cabd 94c6 b8bc
00000140: d530 d6bd 56c6 173d 8ab1 17be 4daf 4fbe
00000150: a77f 5bbe 93f7 093d 7dfe cfbd 3571 82bb
00000160: 033c 64be ba89 0bbe 9938 c4bc e070 6abd
00000170: feec 10bc 5192 093d 05cf d53b 8bb4 9f3c
00000180: a5b4 23be ea47 51bf 0ae0 09be ad59 e0bd
00000190: 18da d0bb f771 013d 0ac5 483d cb67 06bd
000001a0: cd88 7abd ecca 013c ab89 0cbd 7d6f 86bd
000001b0: a2e3 e43c b9c6 d3ba a2e5 8bbf 6ba2 d63b
000001c0: f64f d93c 36a3 a4bf af6a 61bd 3758 f5be
000001d0: ef04 10be 736e e73b 62b7 153d 3dac 01be
000001e0: 1f54 cfbe 17e5 22bf 6df1 35bd e0c1 41bd
000001f0: 248f ffbd 0af7 2bbe 46f6 ddbd fde1 b7be
00000200: 71df 403d a90f d33c fca2 59bd 6cc9 c63c
00000210: cdb5 afbd 5e7d abbc b311 35be 2799 04be
00000220: 57a4 c4bd efdf d9bd 2a7c 2cbe c1c2 3bbd
00000230: cb58 9bbd 0f9f 19bd fca6 e5bd c641 30be
00000240: f9c3 91bd 2920 953b 964d 98bc 3618 29bd
00000250: ee90 debd e98f 5abd 8f37 e73b bd39 03bf
00000260: efaa 2bbe 7496 69bd f62d d6bc a45d 7ebd
00000270: 0511 3b3c 8162 90bd 2b4c a9be 9de0 f3bc
00000280: 7f22 0abe 38f4 e0bd 288c 2fbe 3699 0dbe
00000290: 6865 16be 3d82 fabd 18dc b5bd 5e66 26bd
000002a0: 3633 51bd 5466 43bd 0bc4 97bc 2fee a6bd
000002b0: 2346 adbd c9e2 c2bd f3d7 86be 4753 19be
000002c0: 013a 233c 5fbe c9bd 301b b9bd d189 3fbe
000002d0: 9dd2 0bbe 6249 8dbd bc6f c0bd 339f 6abd
000002e0: ece6 2d3d 213b 483d 99af ebbd cec0 c03c
000002f0: 7195 a8bd 8f09 8f3c 1524 fbbd 10e6 23bd
00000300: 1a0f d7bd 3940 90bc 561c babd ce10 cebc
00000310: e585 1b3d bc83 a3bd 23f3 f4bd fec5 453d
00000320: b08d aabe 0832 6dbd d10b ee3c 9cfc 3f3d
00000330: 02dd c4bd e6b3 f2bd 84dd 16be 0827 9cbd
00000340: f182 ea3c 44b8 493c 6e64 09be ecd4 3fbd
00000350: 79a6 ddbe 30bd dfbc 9f67 12be 032f 77bd
00000360: 95b7 7bbd a967 56be c080 7cbe a91b c5bd
00000370: 2431 dcbd 5bc7 c1bd 4b4f 67bd 5a9b 49be
00000380: e25f 1ebd c28d 86bb db6e d3bb ac1b 473d
00000390: af81 853d 61fa 6a3d 5caf a5bd e2a6 21be
000003a0: c035 aebd e02e b8bd 480e a7bc 6cae adbd
000003b0: 201d 6e3d 6247 44bd df77 5ebd 4e0b d83c
000003c0: b098 323d 84e2 81bc 950e 043d 4d93 c1bf
000003d0: a02c f23c 3317 f7bd 49e4 b53c 3db2 19be
000003e0: 5db6 ebbf db6a 3cbd e707 80bd a28f 0e3d
000003f0: 7713 b3bd 8e0f 13be a77e 523c c086 5dbe
0.048697777 0.021960482 0.025184639 -0.021515045 -0.59223825 -0.15791947 -0.09637548 -0.11499894
0.043658175 -0.16852278 -0.13970748 0.016281096 -0.041422136 0.071497366 0.04618466 -0.10543963
-1.4232898 -0.0844065 0.028398564 0.021833071 -0.45738015 -0.10647952 2.6911723e-05 -1.3057576
-0.015538967 -0.24347031 -0.07109487 -0.116236426 -0.13342693 0.052484658 -0.101255246 0.000104470935
-0.06945119 -0.10915121 -1.0305841 -0.10823594 -0.012267805 -0.018262248 -0.16059199 -0.08973721
-0.0742779 -0.04646209 0.008993336 -0.023090351 -0.036923293 -0.09913002 0.019400224 -0.13295858
-0.14964347 -0.13186142 -0.1336386 -0.04683699 -0.075721696 0.043502893 -0.10575971 -0.06748974
-0.044011973 -0.034985274 -0.09937513 0.030643484 0.007788662 -0.04024136 -0.037381247 -0.035996918
-0.009247358 -0.017700598 -0.08144569 -0.16949874 0.047243506 -0.01027141 -0.33689815 -0.018653516
-0.0054971348 -0.074234426 -0.035840765 -0.2235781 -0.10541773 -0.08373812 -0.09908187 -0.022555627
-0.10458533 0.037054382 -0.1481382 -0.20281716 -0.21435414 0.03368337 -0.10155962 -0.0039807805
-0.22288518 -0.13626757 -0.02395277 -0.057236552 -0.008845566 0.033586804 0.006524923 0.01949527
-0.15986879 -0.8175036 -0.1346437 -0.10954604 -0.006373655 0.031602826 0.049016036 -0.03281383
-0.06116562 0.0079219155 -0.034310978 -0.065642335 0.027940575 -0.0016157246 -1.0929453 0.0065501234
0.026527386 -1.2862308 -0.055033382 -0.47918865 -0.14064382 0.007062727 0.03655184 -0.1266336
-0.40493867 -0.63630813 -0.044419695 -0.047304034 -0.12478474 -0.16793457 -0.108379886 -0.35914603
0.04708809 0.025764303 -0.05313395 0.024265967 -0.085795976 -0.020933803 -0.17682533 -0.12949048
-0.09601658 -0.10638415 -0.1684424 -0.04584003 -0.07585295 -0.037505206 -0.1121349 -0.1721259
-0.07117457 0.004550953 -0.018591683 -0.041282855 -0.10867487 -0.0533599 0.0070561836 -0.51259977
-0.16764425 -0.05702825 -0.026144963 -0.06210102 0.011417632 -0.07050038 -0.33065924 -0.02977019
-0.13489722 -0.10984081 -0.17143309 -0.13827977 -0.14687121 -0.12231872 -0.0887987 -0.04062497
-0.05107423 -0.04770501 -0.018526098 -0.08150899 -0.08460643 -0.09515912 -0.2633663 -0.14973174
0.00996256 -0.098507635 -0.09038389 -0.18704917 -0.13654561 -0.06898762 -0.09396312 -0.05728073
0.042456552 0.048884515 -0.11508102 0.023529436 -0.08231629 0.017460613 -0.122627415 -0.040014327
-0.10500927 -0.017608749 -0.09087436 -0.025154497 0.03796949 -0.07984111 -0.11960437 0.048284523
-0.33311224 -0.05790904 0.029058369 0.046871766 -0.096124664 -0.11850719 -0.14732939 -0.07624632
0.02862689 0.012311999 -0.13417217 -0.046833917 -0.4329107 -0.027311891 -0.14297341 -0.06034757
-0.061454374 -0.2093798 -0.24658489 -0.096244164 -0.1075156 -0.09461852 -0.056472104 -0.19688168
-0.03866566 -0.0041062543 -0.006452424 0.048610374 0.06518876 0.057367686 -0.08090088 -0.15786317
-0.08506346 -0.08993316 -0.020392552 -0.08480534 0.058133245 -0.04791964 -0.054313537 0.026372578
0.043602645 -0.015855081 0.03224047 -1.5123078 0.029562294 -0.12064972 0.022203581 -0.15009399
-1.8415028 -0.046000343 -0.06251507 0.034804948 -0.08743947 -0.14361402 0.012847579 -0.21633434

action_out.bias f4 [5]
00000000: 8cfd 1ebe 9b05 33bd cfc0 94bc 4e3d 85bb
00000010: 9307 943d
-0.15526408 -0.043706518 -0.018158345 -0.004066146 0.07228007

weight f4 [256, 123]
00000000: 43bd 963d 1d87 63bd 747b 06be 5774 00bc
00000010: 8ba1 45be 4d98 be3e 650a 163e 38b0 3bbd
00000020: 95f9 e7bd 5aa8 5c3d e1fd 813d 5546 07be
00000030: 4661 0bbe 4c34 d13e ac2c b43b f481 07bb
00000040: 3442 fabd cf00 f43c 7e3c bebd 4ef2 b43c
00000050: 7d63 d63d 3965 c03e d49b bcbd a748 b6bd
00000060: 52bd 7ebd ec6b ecbd 29bc 8dbe b202 f8bd
00000070: 84a2 923c 4c88 9cbc 7309 2b3e 02e1 b0bd
00000080: a3a0 f3bd 07cd 8cbd e0f3 babc a4a8 ffbc
00000090: 22dd a43d 2494 5cbe 0d6f 2cbe c9c8 e8bd
000000a0: 5d1b 49be 9cb0 cf3e 40f2 7f3d 4b37 98be
000000b0: d86a 52be 5821 42be 4a06 23ba 5a31 4ebe
000000c0: ff03 babd c789 e53e 494e 55bd 8dfe 46be
000000d0: 3c89 1bbd 8c25 863c 80c0 ffbb f69b 67bd
000000e0: 10d9 003e 1071 b33e d60d 2b3c da80 36be
000000f0: bc5a 16bd c1be 4cbe 8959 88be f3f6 07be
00000100: 2a4e bfbc 0cd5 8dbd 6d70 f13d b211 e2bd
00000110: 50e7 433c 65cf 4dbe eb0b 3cbd 8613 01be
00000120: 8504 c93d 5b97 ccbd f653 853e 31e5 8bbd
00000130: 37b9 66be 3d55 c13e 40db 063e cc3a df3c
00000140: 975f 133e a04d 4d3e 790d 683e 2782 89be
00000150: 4297 22be 9a33 053f d8af 813c 1fe7 383d
00000160: 4b30 4a3e 5c2c ba3d 16b1 8e3e 579c 42bd
00000170: 1baa 3a3e d5a4 b13e f774 d0bd f5f8 1e3d
00000180: 4392 253e b5d0 62bd a4d9 cfbc f41d 4cbe
00000190: e9e0 f03c b813 c5bc 9cdc 4abd e75b 04be
000001a0: d45c d13c 1760 b4bd 7b8e 27be 30fc aebb
000001b0: 15f3 1b3e 927e 033b c846 a33d 0090 613d
000001c0: 4efc 8abd ef05 283c 21f4 dabc 4e37 f4bd
000001d0: a2a6 9dbe 5548 bebe b005 2abd ab9d 97be
000001e0: 0525 7b3e 1d65 3ebe 46ec 02bd 3701 8cbb
000001f0: 268e 66bd b6bc 99bc 1628 6ebd 66fc b6bd
00000200: 5401 f83c 1f2f fe3c b17b a9bd 3f43 aa3d
00000210: fb83 923d dd3f a7bd 6b4f a9bd b7fb 283c
00000220: 30c0 533c 19e6 d83a 2792 d8bc 173c aa3b
00000230: b85d 923d 3343 d5bd 5915 97bd 9f47 9d3d
00000240: 1575 9a3d 9954 f33c 7c0b 87bd b816 81bd
00000250: 3337 21ba 60c8 193d 764d 7fbd 18af 25bd
00000260: 94e2 8e3c b62e 69bd 358e 173d 4787 5a3c
00000270: 1a33 563d 027e e3bc 18d4 ddbc c69f 6fbd
00000280: 5d2f 98bd 4216 533d 7441 31bd 80e2 e5bb
00000290: 1e6f 5a3d 0e18 973c f4a4 5bbd 718f d93c
000002a0: cb57 80bd 6c78 db3d 45a9 e0bb 6bc9 debd
000002b0: 5266 443d 1cdf 85bd aaed a0bd 36df 6dbd
000002c0: 7aba 3e3d b735 96bd 1477 a23d dcda e7bc
000002d0: 9a03 163d 9391 e3bc 6a52 153d 7203 8d3d
000002e0: 3ab1 853d 1768 4e3c 73d9 c0bd fc6c aabd
000002f0: ffb1 293d db9b f0bd fd29 41bd 7c67 c83c
00000300: bb00 aebd 2787 91bd b864 2f3c 754d 663d
00000310: d2c4 9a3d e9cd 0abd 23e6 9b3d c1c8 453d
00000320: b078 8ebb 23ac 0e3c 5740 1abc cfb6 59bd
00000330: ce88 bfbc cb3b f83d eff8 61bc c517 c33a
00000340: d10b 0cbd 5217 99bd 5fce bbbd 168f 663c
00000350: 00eb 013d 87db 9dbc 7258 0b3d 3075 64bd
00000360: a240 1b3d 87e9 81bd 0d92 efbb 8749 9a3d
00000370: d8bc 0dbc 669a 7d3d 5a7a a2bb cea3 4bbd
00000380: 9005 f2bb 4804 04bc f7c2 b8bd e00b 0f3b
00000390: 2f7b a83d ed32 7dbc 104c 043d db47 e7bb
000003a0: d6f4 413d c17b 4fbd 6f18 9b3d f6fa 08bd
000003b0: 917e acbc 62de 7bbd 1001 8fbd 3646 c43c
000003c0: d8ca 223c 965b 3e3d 3c3b 413d 292c 68bd
000003d0: 4748 af3b 877d 833d 9c77 473d 9161 b0bd
000003e0: ea0c ac3d 8f85 48be 0208 523d 233d cbbd
000003f0: a126 d0bd e535 6bbd 76c9 9b3c 40f6 81bc
0.073603176 -0.055548776 -0.13133031 -0.007840238 -0.19299905 0.3722557 0.14652403 -0.045822352
-0.11326901 0.05387149 0.06347252 -0.13210423 -0.13611326 0.40860212 0.0054984894 -0.0020676823
-0.122196585 0.029785542 -0.09288882 0.022088196 0.10468195 0.37577227 -0.09209409 -0.08900576
-0.06219227 -0.11544022 -0.27682617 -0.12109889 0.01789976 -0.01910796 0.16702823 -0.08636667
-0.118958734 -0.06875043 -0.022821367 -0.031208344 0.0804999 -0.21540886 -0.16839238 -0.11366422
-0.19639345 0.4056443 0.062486887 -0.29729685 -0.2054857 -0.18958032 -0.00062188937 -0.20136014
-0.090827934 0.44831678 -0.05207661 -0.19433041 -0.037972674 0.016375326 -0.00780493 -0.05654522
0.12582803 0.35047197 0.01044031 -0.1782259 -0.036707625 -0.19994642 -0.2663081 -0.13277797
-0.023352701 -0.06925401 0.11789022 -0.11038531 0.011957005 -0.20098646 -0.045909803 -0.12605104
0.09815315 -0.09989806 0.2604062 -0.06830824 -0.22531591 0.37760344 0.13169575 0.027249716
0.14391933 0.20049143 0.2266139 -0.2685711 -0.15878013 0.5203186 0.01583092 0.04514229
0.19744985 0.09090492 0.2786948 -0.04751238 0.18228953 0.3469607 -0.10178559 0.038811643
0.16169076 -0.05537482 -0.025372334 -0.19933301 0.02940412 -0.024057254 -0.049526796 -0.12925683
0.02555696 -0.0880739 -0.16362946 -0.0053401217 0.15229447 0.0020064455 0.07972485 0.05506897
-0.067864046 0.010255321 -0.026727738 -0.11924611 -0.30791193 -0.3716456 -0.04150933 -0.2961248
0.2452584 -0.18593259 -0.03196361 -0.0042726058 -0.056287907 -0.018766742 -0.058143698 -0.0893486
0.03027407 0.031028328 -0.082755454 0.083136074 0.071540795 -0.08166478 -0.08267101 0.01031392
0.012924239 0.0016548067 -0.026436878 0.0051951515 0.07146782 -0.10413208 -0.073771186 0.07679676
0.07541863 0.029703425 -0.06593987 -0.063031614 -0.0006149888 0.037544608 -0.062329732 -0.040450186
0.017442025 -0.056929313 0.037000854 0.013337917 0.052294828 -0.027770046 -0.027078673 -0.05850198
-0.07430909 0.0515349 -0.04327531 -0.0070155263 0.053328626 0.018444087 -0.05362411 0.026557656
-0.06266745 0.10716328 -0.006856116 -0.10878261 0.047949143 -0.06536695 -0.07857831 -0.0580742
0.046564557 -0.07334464 0.079328686 -0.028302602 0.03662453 -0.027779376 0.03645555 0.06885423
0.06527944 0.012598059 -0.09416475 -0.08321568 0.041429516 -0.11748477 -0.047159184 0.024463408
-0.08496233 -0.071058564 0.010705166 0.056226213 0.07557072 -0.033887777 0.076122545 0.048287157
-0.004347883 0.008708033 -0.009414754 -0.053152855 -0.023380663 0.121207796 -0.013792261 0.0014884403
-0.034190957 -0.07475151 -0.091702215 0.0140722 0.031718254 -0.019269718 0.034019895 -0.05577582
0.037903436 -0.0634337 -0.007311112 0.075335555 -0.008650981 0.061914824 -0.004958433 -0.049716763
-0.007385917 -0.008057661 -0.090215616 0.0021827146 0.082266204 -0.015454036 0.0322991 -0.0070581264
0.047352634 -0.05065513 0.0757302 -0.03344246 -0.021056445 -0.061491378 -0.069826245 0.02395926
0.009936057 0.046474062 0.04717563 -0.05668274 0.0053491923 0.06420427 0.048698053 -0.08612359
0.08400901 -0.19582199 0.051277168 -0.0992377 -0.10163618 -0.057424445 0.019016962 -0.015864491

bias f4 [256]
00000000: ddea aebd 082d 883b 66a0 5c3e cada f93d
00000010: d44a 45be 8fa9 3d3e ad6a 71bd 670e c13c
00000020: 6865 013d 6c0c 113e 7da8 0dbe 87b8 a53c
00000030: 83eb 893d 3e69 183e c9d3 67bc 32b8 263e
00000040: 3b89 e5bd 414d f1bb e443 233e ff37 f9bc
00000050: 1628 103d 2e3d 9ebd b8ab 5cbe 4796 07bd
00000060: 684f 653d d93c 543d c18f eebd d0e6 413d
00000070: d0c5 063e def9 513e 95f7 8cbd 1688 65bd
00000080: 5719 233d ec02 6ebd b982 0cbc 5878 96bd
00000090: bfaa eabd b680 e53d 3018 8bbd 33aa 7ebd
000000a0: a797 80bd a85a 233e 2e2c b5bd f659 2f3e
000000b0: 1826 2bbe 3d14 653b 5fd9 50bc 031a 413d
000000c0: 52fd 133d 44ef 65be 5ab1 1d3d a265 5ebc
000000d0: b0b0 1ebc 8dee d1bd 0dca f0bb 07eb 1fbe
000000e0: b2f0 87bd 8641 fbbd f81e 763e e98a 02be
000000f0: 8ddb 353c 2a24 74be 1a44 6d3d 74b6 dd3d
00000100: 97d2 83bd c4ea 9bbd 69c8 38be a8a1 94bc
00000110: f03b d2bc 037a feba 0ef6 4cbe 68d0 14be
00000120: 4d61 dbbd 88b4 16bd ed09 38be 5a6c 2c3d
00000130: 1010 0a3e a761 103e 382e 53bd 5fe8 2d3d
00000140: b805 08be a6ae 29bd 9bed 1c3d f379 0dbc
00000150: 9b55 973d d8ba 8cbc 2950 ce3d 34ab 3f3d
00000160: f4f1 0cbd 05f8 92bd d724 ba3d 77d2 88bd
00000170: e453 3cbc 05e4 d23d f13f d1ba 0a65 7dbc
00000180: 86e5 bfbd 314f 753d ad9c bb3c e2e3 06be
00000190: e285 393d 3ab6 80bd 3147 acbc 5b45 573e
000001a0: 9815 a43c 95d7 89bd ddda adbd e462 0e3e
000001b0: 7f1b 323d 0326 9cbc b668 9abc 7578 8abd
000001c0: e609 683c 0c9f d53a b6ce 35bd 7629 25bd
000001d0: 7dc4 4ebc 7e4a bdbd 802b f13d 9294 0dbe
000001e0: c6e5 05bd e342 b63d 0e33 203c 0260 dd3d
000001f0: 7e55 9e3d 7c13 e7bd 380e 3abc 18f4 903c
00000200: 0ce6 03be 974e aabd 893e b03c 8dd8 4b3c
00000210: 3d56 65bd 290b 933e 045b 953d 1714 f6bc
00000220: e962 4f3d 953f 8ebc db44 00be 12d4 acbd
00000230: 5bde 4a3e e2de 7f3e 7bea 62bd 635d 28bd
00000240: 6aa8 53be 6d61 aabd 09ab 58bd b009 c13d
00000250: 02bd 1b3e bdcd bcbd ed85 75bd f2e6 e63d
00000260: ed10 273d e62e f33d 3f68 fa3a aff8 ecbd
00000270: a605 f13d e9bd 87bd f232 cebc 26b2 123e
00000280: 3fbb 5f3d 3ccf bfbd e768 7ebc f686 32be
00000290: b8da 9a3c 1a61 b63b f579 07be 8266 de3d
000002a0: bbcf 8bbd b108 02bb 7d69 74bd 54a6 513c
000002b0: e014 81be 6b22 68bd 3f97 4abd 50d8 c9bc
000002c0: 3c23 0ebd 9525 81bd be11 993c bbfa 493e
000002d0: c305 3c3e bc43 d5bd 884f dbbd c1c6 bfbd
000002e0: 764d 053d d8ea 8cbd 0dc4 e4bc d83a 5a3c
000002f0: 939f 0a3e 38a5 a1bd c5d2 dd3c f91a 35be
00000300: f9f4 403e b055 85bd 8d9c ec3c c8fa c1bd
00000310: 1732 363d f480 3cbd f03b 46bd 9786 08bd
00000320: aa26 c83c 6f1b 3f3d 188d 453c 0d27 7bbd
00000330: 611b 353d 3447 d2bd 203b 4d3c e9b4 1fbe
00000340: 2563 e9bc 8571 473d f38a 9abd 42df 6fbd
00000350: fd23 823d ed84 4e3c af63 cf3d cfbe 24be
00000360: 1720 e93d 579b f03d 1469 d5bc 0337 07bc
00000370: 32af 00be 31a4 03be a3c7 2d3e 5eff 0dbe
00000380: 36ea 1bbe 73eb 013e 0fe0 d93c 2287 17bd
00000390: a1f5 b2bc c166 88bd 3a7c cdbd 399b 8ebd
000003a0: 0879 b1bc 9804 e33d 2b30 853c d07f c83c
000003b0: c8da a7bc e7aa 71bc 9b2d 643d 28f0 32bd
000003c0: 288d 1f3d 1302 f2bb 11dd fcbd c427 22bd
000003d0: cba2 a0bd d865 05be f4e6 ef3d c0c4 18be
000003e0: a316 7d3c e25b fbbd d743 f53d 386a 61be
000003f0: 0f53 5fbd 0106 a23d c895 5bbd 0ea1 72bd
-0.0854089 0.004155759 0.21545562 0.12199934 -0.19266826 0.18521713 -0.058939625 0.023566438
0.03159085 0.14164895 -0.13833804 0.020229591 0.067343734 0.14883897 -0.014149615 0.16281202
-0.11207815 -0.0073639457 0.15943867 -0.030422209 0.03519448 -0.07726513 -0.2154988 -0.0331023
0.05598393 0.05181584 -0.11648513 0.04733926 0.13161397 0.20505473 -0.0688316 -0.056037985
0.039819088 -0.058108255 -0.008576089 -0.073471725 -0.114583485 0.1120619 -0.06791723 -0.062174033
-0.062789254 0.15952551 -0.08846317 0.17124161 -0.1671375 0.003495469 -0.012747138 0.047143947
0.036130257 -0.22454554 0.038499214 -0.013574036 -0.00968568 -0.10250578 -0.007348305 -0.15617
-0.06637706 -0.12268357 0.24035251 -0.12748303 0.011099708 -0.2384192 0.057926275 0.10825816
-0.06436651 -0.07613137 -0.180452 -0.01814349 -0.025663346 -0.0019415024 -0.20015737 -0.14532626
-0.10711918 -0.03679326 -0.17972536 0.04209552 0.1348269 0.14099751 -0.05155775 0.042457934
-0.13283432 -0.041426323 0.038312536 -0.008635032 0.07389375 -0.017178938 0.10073883 0.04679413
-0.034410432 -0.07176212 0.09089058 -0.06680768 -0.01149461 0.102973975 -0.0015964491 -0.015465984
-0.0936995 0.059889976 0.022901857 -0.13172868 0.045293696 -0.06284757 -0.02103004 0.21022551
0.020029828 -0.06730572 -0.084890105 0.13904911 0.043483254 -0.019061094 -0.018848758 -0.067612566
0.014162516 0.001629801 -0.044386588 -0.040322743 -0.012620089 -0.09242724 0.11775875 -0.13826206
-0.032689832 0.088994764 0.009777797 0.10809328 0.0773115 -0.11283013 -0.011355929 0.017694518
-0.12880725 -0.08315771 0.021514194 0.012441766 -0.055990446 0.28719452 0.072927505 -0.030038876
0.050631437 -0.017364303 -0.12526266 -0.08438887 0.19811384 0.24987367 -0.0553994 -0.041104686
-0.20669714 -0.08319364 -0.052897487 0.09425676 0.1520882 -0.09218929 -0.059942175 0.11274518
0.040787626 0.118741795 0.0019104554 -0.1157087 0.117686555 -0.06628019 -0.025170777 0.1432577
0.05462193 -0.09365699 -0.01552794 -0.17434296 0.018903121 0.0055657746 -0.13230117 0.108593956
-0.06826731 -0.0019841606 -0.059670914 0.012796003 -0.2521124 -0.05667345 -0.049460646 -0.024639279
-0.03470157 -0.06305996 0.018685218 0.19724552 0.18361573 -0.1041331 -0.10708529 -0.09364081
0.032544576 -0.068807304 -0.027925516 0.0133196935 0.13537435 -0.07892841 0.027078042 -0.1768607
0.1884345 -0.06510484 0.028883243 -0.09471661 0.044481363 -0.046021417 -0.048397005 -0.03333148
0.024432499 0.046657022 0.012057565 -0.06131654 0.044215564 -0.10267487 0.0125263035 -0.15596355
-0.028489659 0.048692245 -0.07546034 -0.058562525 0.063545205 0.012604934 0.10126435 -0.16088413
0.11383074 0.11748379 -0.026051082 -0.008252862 -0.12566832 -0.12855603 0.16970687 -0.13866946
-0.15226063 0.12687473 0.026596097 -0.036994107 -0.02184564 -0.06660224 -0.1003346 -0.069632
-0.021664158 0.110848606 0.01625832 0.024475008 -0.020490065 -0.014750219 0.055707555 -0.043686062
0.038952976 -0.007385501 -0.123468526 -0.039588705 -0.0784355 -0.13027132 0.11713973 -0.14918804
0.015447292 -0.12273385 0.1197583 -0.22013175 -0.05452257 0.079113014 -0.05360964 -0.059235625
