src/saved_models/grid_world_seed125_8_7_16_59_成了/125_30_model.pt (torch, 702727 bytes, 11 tensors)

FC1.weight f4 [256, 36]
0	0x3da9d3e4	0.08292368
1	0x3daa9af0	0.08330333
2	0xbc8c8c7f	-0.017156838
3	0xbda438c0	-0.08018637
4	0x3e0fbc68	0.14036715
5	0x3d51b139	0.051194403
6	0x3dab6bc8	0.08370167
7	0xbe0977d7	-0.13424622
8	0x3d8e4d06	0.06948285
9	0x3f22fb35	0.6366456
10	0x3da34e55	0.07973925
11	0x3ea0bbbc	0.3139323
12	0xbdcb6672	-0.09931649
13	0xbdcccc38	-0.09999889
14	0xbde7bdb6	-0.11315481
15	0xbd929bf1	-0.0715865
16	0x3d175ddd	0.03695475
17	0xbf166e9c	-0.58762527
18	0xbdab1d03	-0.08355143
19	0xbeb2e988	-0.34943795
20	0x3da12646	0.07868628
21	0xbe612419	-0.21986426
22	0x3e2d56e8	0.16927683
23	0xbdde97b4	-0.10868779
24	0x3dc0a964	0.09407309
25	0x3f9bb9a3	1.2166027
26	0x3c7b7ad6	0.015349111
27	0x3de25df2	0.11053075
28	0x3d7c4c4e	0.061596207
29	0xbd9e2156	-0.07721202
30	0x3d0e4155	0.034730274
31	0xbca1f025	-0.01976783
32	0x3b2e971c	0.0026640361
33	0x3dec5dee	0.11541353
34	0xbb9f158d	-0.004854864
35	0xbdb47375	-0.08811084
36	0xbd159161	-0.036515597
37	0x3d50f788	0.051017314
38	0x3e1f19e4	0.1553722
39	0x3b3a2265	0.0028401848
40	0x3d794d80	0.060864925
41	0x3e437c73	0.19090442
42	0xbd674fd0	-0.0564726
43	0x3d078216	0.033083044
44	0x3e009027	0.1255499
45	0x3e6d0163	0.2314506
46	0x3b968c88	0.0045943893
47	0xbd4723aa	-0.048617996
48	0xbdbea5f1	-0.093089946
49	0x3e914140	0.28370094
50	0xbd8fdc7e	-0.070244774
51	0x3db4585b	0.08805915
52	0xbc8f7cc6	-0.017515551
53	0x3e7eb315	0.24873002
54	0x3d9797fb	0.07402035
55	0x3e0a31af	0.13495515
56	0xbc2bdff5	-0.010490407
57	0x3e8cdb47	0.27511045
58	0xbd47707b	-0.048691254
59	0x3e610887	0.21975909
60	0xba21b2cc	-0.00061683054
61	0x3d51426d	0.05108874
62	0x3e82cffd	0.25549307
63	0xbdbd3d3e	-0.09240197
64	0xbd4dac2d	-0.050213028
65	0xbd9d77a7	-0.076888375
66	0x3e0d3c01	0.13792421
67	0xbdbecdbf	-0.09316587
68	0x3e6e9e51	0.2330258
69	0xbe866d04	-0.26255047
70	0xbd2d92d3	-0.04237635
71	0xbd5e613f	-0.05429196
72	0x3eae9fe3	0.3410636
73	0x3e5328e8	0.20621073
74	0x3d0a1f93	0.033721518
75	0x3eb7695e	0.35822576
76	0xbb8afa49	-0.004241262
77	0x3e8d80ec	0.27637422
78	0xbde73bce	-0.11290704
79	0x3df94aab	0.12172445
80	0xbe1f1cfd	-0.15538402
81	0xbe478336	-0.19483647
82	0xbdf1b7be	-0.11802624
83	0x3ea3d9cd	0.32002106
84	0xbe3aadf6	-0.18230423
85	0x3e1bab96	0.15202174
86	0x3d11c098	0.035584062
87	0x3e9bc3bb	0.30422768
88	0x3dc1dfc7	0.0946651
89	0xbd8d9ba0	-0.06914449
90	0xbdeecc28	-0.116600335
91	0xbeb83645	-0.35978904
92	0x3d690763	0.05689181
93	0x3d0bcd53	0.03413136
94	0x3c8dcbdc	0.017309122
95	0x3e25e955	0.1620229
96	0xbdd653bf	-0.10465192
97	0x3ee4a7c7	0.44659254
98	0xbe574718	-0.21023214
99	0x3e1fdb68	0.1561104
100	0x3ecc9576	0.3995778
101	0xbde0ed1b	-0.10982724
102	0xbdfc1183	-0.123080276
103	0x3df74360	0.12073398
104	0x3e7a2ed7	0.2443193
105	0xbeb78c90	-0.35849428
106	0x3edfc8cc	0.43707883
107	0x3d86458a	0.06556232
108	0x3e3e567c	0.18587679
109	0x3e2df44f	0.16987728
110	0xbcd6fa24	-0.026242323
111	0x3c960796	0.018314164
112	0x3dbe0278	0.092778146
113	0xbd914e03	-0.07094958
114	0xbe0a69b6	-0.13516888
115	0x3e5ed1f9	0.21759786
116	0xbcb76be7	-0.022390319
117	0xbd09a9ec	-0.033609316
118	0x3d0c2682	0.03421641
119	0xbd89315e	-0.06698869
120	0xbdc241d1	-0.0948521
121	0x3d5d1995	0.053979475
122	0x3e0aa1cb	0.13538282
123	0x3c877317	0.016534371
124	0xbe896b8e	-0.2683987
125	0x3d11e6b5	0.03562041
126	0xbcb28c7a	-0.0217955
127	0x3df00c37	0.1172108
128	0xbe033752	-0.12814072
129	0x3dffa9da	0.124835685
130	0xbcff65de	-0.031176504
131	0xbc1a3544	-0.009412114
132	0xbe888f52	-0.26671845
133	0xbdda703a	-0.10665937
134	0x3f107782	0.56432354
135	0xbe7fb798	-0.24972379
136	0x3dd34530	0.10315931
137	0xbe018796	-0.12649378
138	0x3d840e3e	0.06448029
139	0x3d534dd5	0.0515879
140	0x3e03a3e7	0.12855493
141	0xbe80bff7	-0.25146458
142	0xbe399be0	-0.18125868
143	0x3d60f026	0.054916523
144	0x3e18cf41	0.14922811
145	0xbdc9cebb	-0.09853884
146	0xbea0ebdd	-0.3142995
147	0xbc42016e	-0.011841161
148	0x3dc74250	0.09729445
149	0xbda87a52	-0.08226456
150	0xbe4ae5dd	-0.19814248
151	0xbdfa3a8b	-0.122181974
152	0xbe17e48e	-0.1483328
153	0x3d9f4d6e	0.077784404
154	0xbea53ab2	-0.32271343
155	0xbe20d1a2	-0.15704969
156	0xbdf4e36b	-0.11957439
157	0x3e065e39	0.1312188
158	0xbcb2ecde	-0.021841463
159	0xbdcd42ef	-0.10022532
160	0xbe8037c5	-0.2504255
161	0x3e5e7f4f	0.21728252
162	0xbe09bca6	-0.1345087
163	0x3daba0c8	0.08380276
164	0xbf1da9f5	-0.6158746
165	0x3e83e03c	0.25757015
166	0xbcdd0195	-0.026978293
167	0x3e11b1da	0.14228001
168	0xbe999d97	-0.30003044
169	0x3d2a65c8	0.041600972
170	0x3f2bf9ee	0.6717824
171	0x3dcee640	0.101025105
172	0x3d8e04a4	0.06934479
173	0x3d3bdb68	0.04586354
174	0xbe006afd	-0.12540813
175	0x3d9da057	0.07696598
176	0x3e8ad8a4	0.2711841
177	0xbe9c29b3	-0.30500564
178	0x3d943534	0.0723671
179	0xbe4e4bcc	-0.20146102
180	0xbb2ba15a	-0.0026188702
181	0xbdfb2e1e	-0.122646555
182	0xbe6f6818	-0.23379552
183	0xbee13b69	-0.4399064
184	0xbdb36d39	-0.08761067
185	0x3e3f43a7	0.18678151
186	0xbe311438	-0.17292869
187	0xbcb8b006	-0.022544872
188	0xbdba07d8	-0.09083527
189	0x3f19323a	0.59842265
190	0xbea3fc58	-0.3202846
191	0xbe9a91b2	-0.30189282
192	0x3cdff44f	0.027338175
193	0x3d3cc4a4	0.04608597
194	0x3dc588a5	0.096452035
195	0xbe903959	-0.28168753
196	0x3dbeebc1	0.0932231
197	0xbc830d0d	-0.015997434
198	0xbd874e7c	-0.066067666
199	0xbd8fb500	-0.07016945
200	0xbf275583	-0.65364856
201	0x3dec241e	0.11530326
202	0x3b992f67	0.0046748403
203	0xbe1d543b	-0.15364163
204	0x3e1afa30	0.15134501
205	0xbeb69ebe	-0.35667986
206	0x3f199e2c	0.60006976
207	0x3d812e5f	0.06307673
208	0xbd9ba4a1	-0.0759976
209	0x3d2612d7	0.04054531
210	0xbc11f666	-0.008908844
211	0x3e53b854	0.20675784
212	0xbdeaf24b	-0.11471995
213	0x3ec7fb21	0.39058784
214	0xbe4c7998	-0.1996826
215	0xbe077c54	-0.13231021
216	0x3e705f3d	0.2347383
217	0x3d6b2e72	0.05741734
218	0xbe976808	-0.29571557
219	0x3d764644	0.060125604
220	0x3d91f9dc	0.07127735
221	0xbead9e34	-0.33909762
222	0xbd4ade41	-0.049528364
223	0xbe049f56	-0.12951407
224	0xbe15a320	-0.14613008
225	0xbf11f820	-0.57019234
226	0xbeae81c4	-0.34083378
227	0xbe2ad68c	-0.16683406
228	0xbe2cf040	-0.16888523
229	0xbe977b1e	-0.29586118
230	0x3dd085b6	0.10181753
231	0xbe4cb554	-0.19991046
232	0xbe856998	-0.26057124
233	0xbdad12c6	-0.084508464
234	0xbca67e96	-0.020324033
235	0x3e582204	0.21106726
236	0xbf216d6d	-0.63057595
237	0xbe97eeee	-0.29674476
238	0xbe03091b	-0.12796442
239	0xbe4d0060	-0.20019674
240	0xbe225e65	-0.15856321
241	0xbe4240ea	-0.18970075
242	0x3f17591e	0.5912036
243	0x3d9a938b	0.07547673
244	0x3c6f5fb4	0.01461022
245	0x3d7c432e	0.061587505
246	0x3d9a99a1	0.07548834
247	0xbd79e555	-0.061009724
248	0x3e8168ee	0.25275367
249	0xbf440483	-0.76569384
250	0x3e5bac67	0.21452485
251	0x3e1bee15	0.1522754
252	0x3e4a676a	0.19766012
253	0xbdf54810	-0.119766355
254	0xbe19a2d3	-0.15003519
255	0xbd11c0c4	-0.035584226

FC1.bias f4 [256]
0	0x3e09ad23	0.13444953
1	0x3cbb9a2a	0.02290066
2	0x3e35b069	0.17743076
3	0xbdf7bb3f	-0.12096261
4	0xbdf157a8	-0.11784297
5	0x3dedae1c	0.11605474
6	0x3ccb6b9c	0.024831586
7	0x3ccd1dde	0.025038656
8	0xbe1b18be	-0.15146157
9	0xbd0a3ac0	-0.033747435
10	0xbe151dcb	-0.14562146
11	0xbdb22d76	-0.08700077
12	0xbe76976d	-0.24081202
13	0x3e18196a	0.14853445
14	0xbd94fc63	-0.072747014
15	0x3a4aba71	0.00077334704
16	0xbddad850	-0.106857896
17	0x3d842318	0.06452006
18	0x3c850a6d	0.016240323
19	0xbc8e35ea	-0.017359693
20	0xbd941e63	-0.07232358
21	0xbd25d156	-0.04048284
22	0x3d69b3eb	0.05705635
23	0xbdff9dd8	-0.12481278
24	0x3d899e6f	0.06719672
25	0x3db52dbb	0.08846613
26	0xbbe51259	-0.0069907126
27	0xbde38c8a	-0.1111079
28	0xbe3f2338	-0.18665779
29	0x3d1f2083	0.038849365
30	0x3a8dc91a	0.0010817379
31	0x3df6c439	0.12049145
32	0xbe0e8f72	-0.13921908
33	0xbd78179f	-0.0605694
34	0x3e200a5d	0.15628953
35	0xbd84e573	-0.064890765
36	0xbdc25998	-0.09489745
37	0x3d6ce091	0.05783135
38	0xbc885a85	-0.016644726
39	0xbd25dd48	-0.040494233
40	0xbe2994e8	-0.1656071
41	0xbe0a8118	-0.13525808
42	0x3d837f15	0.06420723
43	0xbe19453f	-0.14967822
44	0xbe049382	-0.12946895
45	0x3d2d3087	0.042282607
46	0xbe8667c8	-0.26251054
47	0x3e33fc67	0.17576753
48	0xbe0a092b	-0.1348006
49	0xbe85726a	-0.26063854
50	0x3d849195	0.0647308
51	0xbd8b0aa2	-0.067891374
52	0xbd8db765	-0.06919745
53	0xbddf4032	-0.10900916
54	0x3c97eb2b	0.018544754
55	0x3ceea0f3	0.029129481
56	0x3df76bbe	0.12081097
57	0xbda0753c	-0.07834861
58	0x3e2d0e6e	0.16900036
59	0x3e354254	0.17701083
60	0xbe854441	-0.26028636
61	0xbe4ce1a3	-0.20007949
62	0xbe0b6c0c	-0.13615435
63	0xbd84b85c	-0.06480476
64	0xbde426a3	-0.11140182
65	0xbcd40468	-0.025881007
66	0x3d9624e2	0.073312536
67	0xbe23c109	-0.15991606
68	0xbe0a6fe1	-0.13519241
69	0xbdbff1f9	-0.093723245
70	0x3e194714	0.1496852
71	0xbdd0a134	-0.10186997
72	0xbd8b91ea	-0.0681494
73	0x3d45673c	0.048194155
74	0x3d252843	0.0403216
75	0xbd9531c0	-0.0728488
76	0x3e43c294	0.19117194
77	0xbc8e9991	-0.01740721
78	0xbc4892bd	-0.012242016
79	0xbe461ece	-0.19347689
80	0x3d880390	0.066413045
81	0x3e0a9bb7	0.13535963
82	0x3d21446e	0.0393719
83	0x3e1e56b6	0.15462765
84	0xbcc8cba2	-0.024511162
85	0x3d9e622b	0.07733568
86	0xbe2fa28a	-0.17151847
87	0xbda0482d	-0.078262664
88	0x3d7cf305	0.0617552
89	0x3e61fd52	0.2206929
90	0xbd3adeff	-0.045622822
91	0x3d2ee7b5	0.04270144
92	0x3e00737d	0.12544055
93	0xbdedc3f7	-0.11609643
94	0x3e003a34	0.12522203
95	0xbddbbe92	-0.10729708
96	0x3d482c83	0.048870575
97	0xbd25d455	-0.0404857
98	0xbcca0024	-0.02465827
99	0xbea174ae	-0.31534332
100	0xbe7aa1c8	-0.24475777
101	0x3c6617f4	0.014043797
102	0xbce2a01b	-0.027664235
103	0xbddbe5fd	-0.10737226
104	0xbd8b3846	-0.06797843
105	0x3d903c7a	0.07042785
106	0x3d76308a	0.060104884
107	0xbd8d375d	-0.06895325
108	0x3cb9f642	0.022700433
109	0x3ddecc6d	0.10878835
110	0x3e1b0684	0.15139204
111	0x3debc84a	0.115128115
112	0x3e06c509	0.131611
113	0xbd2bd52e	-0.04195135
114	0x3c252d48	0.010081597
115	0xbdbcbcbc	-0.09215686
116	0xbd403c6c	-0.046932623
117	0x3e4e119e	0.20123908
118	0x3e433f13	0.1906703
119	0x3e488b35	0.19584353
120	0xbcd636cb	-0.026149174
121	0x3cf9cb35	0.030492404
122	0x3c9e14f4	0.0192971
123	0xba8e1deb	-0.0010842656
124	0xbe5370a2	-0.20648435
125	0x3dafe1aa	0.08587964
126	0xbd241acb	-0.040064614
127	0xbe02eddb	-0.12786047
128	0x3d923451	0.07138885
129	0xbe181fbb	-0.14855854
130	0xbd51fb6e	-0.051265173
131	0xbda172a4	-0.07883194
132	0x3cd6158c	0.026133321
133	0xbd889198	-0.06668395
134	0x3e472e2b	0.19451205
135	0x3e7e7611	0.24849726
136	0xbca792ce	-0.020455744
137	0xbdfade06	-0.12249379
138	0xbc65bc00	-0.0140218735
139	0x3dbf192c	0.09330973
140	0x3d8870d5	0.06662146
141	0xbdb854c6	-0.09000544
142	0xbd9dbef4	-0.07702437
143	0xbdbfeb1c	-0.093710154
144	0xbdae55d9	-0.08512468
145	0xbcd2874a	-0.025699276
146	0x3be20b3f	0.0068983133
147	0xba8e4a61	-0.0010855907
148	0x3e33ea81	0.17569925
149	0x3e3f9542	0.18709281
150	0x3dc64b70	0.09682357
151	0xbd040101	-0.03222752
152	0xbdd57855	-0.10423342
153	0x3dcb4ca7	0.0992673
154	0xbd8c5980	-0.06853008
155	0xbd3908dc	-0.045174465
156	0xbd73fae3	-0.059565436
157	0xbdd63e06	-0.10461049
158	0xbe095bec	-0.13413972
159	0x3dab446e	0.08362661
160	0x3daca00d	0.08428965
161	0xbe815582	-0.2526055
162	0xbddf293d	-0.108965375
163	0x3d97f306	0.074194
164	0xbdab2c82	-0.083580986
165	0x3d56866f	0.0523743
166	0xbdcae3fb	-0.09906765
167	0x3c9d90cf	0.01923409
168	0x3c1ba84a	0.009500572
169	0x3d135428	0.03596893
170	0x3e485046	0.19561872
171	0xbe667ae4	-0.22507817
172	0xbcff1ae1	-0.031140747
173	0xbd38ea6d	-0.04514544
174	0xbcda3c5c	-0.02664011
175	0xbde868fd	-0.1134815
176	0xbdccadab	-0.09994062
177	0xbd4dbda0	-0.05022967
178	0xbe2b7856	-0.16745123
179	0xbe02ff47	-0.12792693
180	0x3df553e4	0.119788915
181	0xbadbe33f	-0.0016776099
182	0x3c8a45bd	0.016878957
183	0x3cd7e55d	0.026354486
184	0xbc43cf58	-0.01195129
185	0xbb16f7ef	-0.0023035964
186	0x3d606bcd	0.054790307
187	0xbe0fe58a	-0.14052406
188	0xbc6bf28d	-0.01440109
189	0x3de1e7d6	0.11030547
190	0xbd3592f6	-0.044329606
191	0xbd1f57d7	-0.03890213
192	0x3c89f7e7	0.016841842
193	0xbdb9b06c	-0.09066853
194	0xbc41dd9d	-0.011832622
195	0xbdc6d9ce	-0.09709512
196	0xbd3c6da5	-0.046003003
197	0xbde6516d	-0.112459995
198	0xbd9ccfb9	-0.076568075
199	0xbda13205	-0.078708686
200	0x3e7c2081	0.24621774
201	0xbc9d6120	-0.019211352
202	0x3c6b79a7	0.014372266
203	0x3d804218	0.062626064
204	0xbe1e9748	-0.15487397
205	0xbda0987b	-0.07841583
206	0x3d830c38	0.06398815
207	0xbe21f1be	-0.15814874
208	0xbd37732d	-0.044787575
209	0x3bdd027c	0.006744681
210	0xbd85e586	-0.06537919
211	0x3e70057a	0.23439589
212	0x3d670f88	0.056411296
213	0x3d866f6c	0.06564221
214	0xbd023f42	-0.03179861
215	0xbe489be4	-0.19590718
216	0xbd7702fb	-0.060305577
217	0x3d12825d	0.035768855
218	0xbe172874	-0.14761525
219	0xbe42fc0c	-0.19041461
220	0xbe40722b	-0.18793552
221	0x3c04824f	0.008087709
222	0xbdec903f	-0.1155095
223	0xbdba53c7	-0.090980105
224	0x3e419b92	0.18907002
225	0xbb3fe300	-0.002927959
226	0x3e46b78e	0.19405958
227	0xbb71d8c6	-0.0036902889
228	0x3e335eb9	0.17516603
229	0xbe64611a	-0.22302666
230	0x3d945444	0.07242635
231	0xbde67fe0	-0.11254859
232	0xbe1136ae	-0.14181015
233	0xbdd5230f	-0.104070775
234	0xbe5084e8	-0.203632
235	0xbd84eab0	-0.064900756
236	0xbe09d44b	-0.1345989
237	0xbbbf9630	-0.005846761
238	0x3d8ddef9	0.06927294
239	0x3d64b2a6	0.055834435
240	0xbc260cd8	-0.010134898
241	0x3e19d0ac	0.15021008
242	0xbc4d7c3b	-0.012541826
243	0x3ccc9605	0.024973879
244	0xbabde337	-0.0014487271
245	0x3d92ce28	0.071682274
246	0xbd979bd0	-0.07402766
247	0xbdb71e2a	-0.089413
248	0x3e8898dd	0.26679125
249	0xbe268956	-0.16263327
250	0xbe15b985	-0.14621551
251	0xbdc34fa1	-0.095366724
252	0x3d7910d3	0.06080706
253	0xbb127a9e	-0.0022350918
254	0xbe476a10	-0.19474053
255	0x3e1504a5	0.14552553

FC2.weight f4 [256, 256]
0	0xbc8f45c5	-0.017489323
1	0xbb69ef75	-0.0035695706
2	0xbccc0a21	-0.024907174
3	0x3c5360eb	0.012901525
4	0xbd71f5d8	-0.059072345
5	0x3d3ccc4c	0.04609327
6	0xbc97b281	-0.018517734
7	0x3c92ca13	0.017918622
8	0x3ceaf168	0.028679565
9	0xbd3a12d8	-0.045428127
10	0x3cc91746	0.02454723
11	0x3ccdbaf8	0.025113568
12	0xbd74df32	-0.059783168
13	0xbd6ec1f5	-0.05829044
14	0xbd6b8ae7	-0.057505514
15	0xbcc06703	-0.02348662
16	0x3d4438ae	0.047905616
17	0xbd8025dd	-0.06257222
18	0xbd4ef048	-0.05052212
19	0xbbdef6ef	-0.006804339
20	0xbdba0170	-0.090823054
21	0xbd00aae3	-0.03141297
22	0xbd0d9a64	-0.034571066
23	0xbd4e4b83	-0.050364982
24	0x3ca20586	0.019778024
25	0xbd562b37	-0.052287307
26	0xbd6a3168	-0.057176024
27	0xbd1a97de	-0.037742488
28	0x3cbfc29d	0.023408229
29	0xbca6206b	-0.02027913
30	0xbbc4ccb7	-0.006005849
31	0x3c1381cf	0.009003117
32	0xbba2b5c2	-0.004965515
33	0x3c622842	0.0138035435
34	0xbd53b256	-0.051683746
35	0xbc3c8c76	-0.011508098
36	0xbd1f030e	-0.038821273
37	0x3c3cf895	0.011533876
38	0xbaa723d5	-0.0012751768
39	0xbcd96fdc	-0.026542597
40	0xbbde6e50	-0.0067880526
41	0x3d08a536	0.033360682
42	0x3d0dcd91	0.03461987
43	0xbd04df5a	-0.032439567
44	0x3c245a80	0.0100313425
45	0xbd5b9735	-0.053611
46	0xbd0b9eda	-0.03408704
47	0xbd32302f	-0.043502983
48	0xbd6615be	-0.05617308
49	0x3c456d21	0.012049944
50	0xbc40de23	-0.0117717115
51	0xbd417e41	-0.047239546
52	0xbcabb52d	-0.020960415
53	0xbd135d40	-0.035977602
54	0x3c253241	0.010082782
55	0xbd890883	-0.066910766
56	0xbbbee6d7	-0.005825858
57	0x3cc615c5	0.024180302
58	0x3cc92ff5	0.024559
59	0xbd35a8d3	-0.044350456
60	0x3d042905	0.03226568
61	0xbcbf0054	-0.023315586
62	0x3d20e376	0.039279424
63	0xbdc72033	-0.097229384
64	0xbd2867b6	-0.04111453
65	0xbd82c66b	-0.063855015
66	0xbd15669d	-0.036474813
67	0x3d3cdaf7	0.04610726
68	0xbd57b172	-0.05265946
69	0xbc438dbe	-0.011935649
70	0xbd132c1a	-0.03593073
71	0x3bf03a5c	0.0073311757
72	0xbd90ddfc	-0.0707359
73	0xbcd9fc0b	-0.026609441
74	0x3c2d52cb	0.010578821
75	0x3cf92396	0.030412477
76	0x3d1a82f5	0.037722547
77	0xbb1bf1e7	-0.0023795308
78	0xbcf236dc	-0.029567175
79	0xbd11fdcb	-0.035642426
80	0x3cb4caa4	0.022069283
81	0xbc86e5f2	-0.016467068
82	0xbd215e9f	-0.03939688
83	0x3d114abf	0.035471674
84	0xbcd43413	-0.025903737
85	0xbd86b0eb	-0.06576713
86	0x3a130be2	0.00056093757
87	0xbb9756fb	-0.004618523
88	0xbcbd9f6c	-0.023147307
89	0x3d48bec4	0.049010053
90	0xbd8c90a9	-0.06863529
91	0x3d08c2bb	0.033388834
92	0xbd6f5f49	-0.05844048
93	0x3baa628d	0.0051997364
94	0x3cfb8e17	0.030707402
95	0xbd79f4e0	-0.061024547
96	0xbcfaee04	-0.030631073
97	0x3bff28cc	0.007786846
98	0x3b07cfe0	0.0020723268
99	0x3c11abc2	0.008891048
100	0x3c389b37	0.011267475
101	0xbb0771d7	-0.002066722
102	0xbd881ad4	-0.06645742
103	0x3d42be46	0.04754474
104	0x3c60148e	0.013676776
105	0xbd68afb1	-0.056808177
106	0x3d2e9e41	0.04263139
107	0xbc0854ad	-0.0083209695
108	0xbd167b18	-0.036738485
109	0x3c43b465	0.011944865
110	0x3d72f09e	0.0593115
111	0xbd2a6561	-0.04160059
112	0x3d053b86	0.03252747
113	0x3ca0e922	0.019642416
114	0x3c8a7e7f	0.016906021
115	0x3cf43464	0.029810138
116	0xbc976291	-0.018479617
117	0xbcb63e91	-0.02224663
118	0xbcf8c149	-0.030365603
119	0x3d1760d3	0.036957573
120	0xbd07bfc3	-0.033141863
121	0xbcc80013	-0.024414098
122	0x3cac4db5	0.021033147
123	0x3cec1224	0.028817244
124	0xbd5e5ad3	-0.054285835
125	0xbdbe3082	-0.09286596
126	0xbd1d9e28	-0.038480908
127	0xbd20dcea	-0.03927318
128	0x3d2975b5	0.04137202
129	0x3cbb5670	0.022868365
130	0xbccebc1f	-0.025236188
131	0xbc7c5ca5	-0.015402948
132	0x3d216a72	0.039408155
133	0x3c54cc8e	0.012988223
134	0xbca91fb4	-0.020645
135	0xbcedb5f4	-0.029017426
136	0xbcd78dec	-0.02631279
137	0xbc86af54	-0.016441025
138	0xbd2dac82	-0.042400844
139	0xbbe0320e	-0.0068419045
140	0xbd97de2e	-0.07415424
141	0x3d623a36	0.055231296
142	0xbd37d7f7	-0.044883694
143	0x3cd9578a	0.026531
144	0x3d85781f	0.06517052
145	0xbc0144b4	-0.007889915
146	0xbc0cc7f5	-0.008592595
147	0x3c1f6e4a	0.009730885
148	0xbcb3a9c6	-0.02193154
149	0xbcb87b8f	-0.022519855
150	0x3d0c1e68	0.034208685
151	0xbcbef26b	-0.023308953
152	0x3d578fd1	0.05262739
153	0x3d1a83ed	0.03772347
154	0x3c2fc96b	0.010729174
155	0xbd8872f1	-0.06662548
156	0xbc37a735	-0.011209299
157	0xbca8b268	-0.020592883
158	0xbd82bd36	-0.06383745
159	0xbd3ce8e3	-0.046120536
160	0xbd1f8a68	-0.038950354
161	0xbd2ed388	-0.0426822
162	0xbd4acdc2	-0.049512632
163	0xbd68bcaf	-0.056820568
164	0xbd105647	-0.03523853
165	0x3b1bbf51	0.0023765157
166	0x3bbd86d1	0.0057838936
167	0x3cba304b	0.022728106
168	0xbcbccecf	-0.023047833
169	0xbd8f3e07	-0.06994253
170	0xbd6e8b43	-0.05823828
171	0x3d07d2f5	0.03316017
172	0x3d4b322d	0.0496084
173	0xbbc9a23e	-0.006153374
174	0x3c3a0c5c	0.011355486
175	0xbd71049e	-0.058842294
176	0xbcf9fe1a	-0.030516673
177	0xbd068213	-0.032838892
178	0x3ca10b97	0.019658847
179	0xbc847064	-0.016166873
180	0xbd6919e6	-0.056909464
181	0x3ba930c5	0.0051632845
182	0x3ca0f3ff	0.019647596
183	0xbd1b28de	-0.03788077
184	0xbcd8f505	-0.026484022
185	0x3adff600	0.0017086864
186	0xbd6cd010	-0.05781561
187	0x3cfa2b1f	0.03053814
188	0x3d31a2f8	0.04336831
189	0xbc23c65f	-0.009996026
190	0xbd05ff3b	-0.03271411
191	0xbca2ad6b	-0.019858083
192	0xbd72a7bb	-0.05924199
193	0xbc9537ba	-0.018215049
194	0xbc036070	-0.008018598
195	0xbcb05a4a	-0.021527428
196	0x3ce88414	0.028383292
197	0xbd14a032	-0.036285587
198	0xbd58d439	-0.052936766
199	0xbc1495dd	-0.009068933
200	0xbc2c9078	-0.010532491
201	0x3d42b0f0	0.047532022
202	0x3c7a9ea0	0.015296608
203	0xbc811dd4	-0.015761293
204	0xbcb252ef	-0.021768061
205	0xbd4f5a45	-0.050623197
206	0x3c4c53cb	0.01247115
207	0xbc91e606	-0.017809879
208	0xbbec3e70	-0.0072095916
209	0xbd6bdb58	-0.05758223
210	0x3cd34aec	0.025792561
211	0x3c6d0d82	0.014468553
212	0xbd14fe69	-0.036375437
213	0xbbe8ecd0	-0.0071083084
214	0xbd0440e4	-0.032288447
215	0x3d41303e	0.047165148
216	0x3cd7a105	0.026321897
217	0xbd20d460	-0.039265037
218	0xbce8ca4c	-0.028416775
219	0x3cc6ecc6	0.024282824
220	0xbc934632	-0.017977808
221	0xbc977d13	-0.018492257
222	0xbd070465	-0.032963175
223	0xbd34e7cd	-0.044166375
224	0xbd2e0321	-0.042483453
225	0x3c1cac73	0.0095625995
226	0xbc660e25	-0.014041458
227	0x3cd8aab9	0.026448594
228	0x3d0dbbab	0.034602802
229	0x3c97f4eb	0.018549403
230	0xbd4e826d	-0.050417352
231	0x3d14a1b8	0.03628704
232	0x3c647640	0.013944209
233	0x3b88dbdc	0.0041766
234	0xbd0753c1	-0.03303886
235	0x3b37210c	0.0027943281
236	0x3d5ad176	0.053422414
237	0xbd4a816e	-0.04943984
238	0x3c366a9f	0.011133819
239	0x3c27e4bb	0.010247405
240	0x3cb72452	0.022356186
241	0xbd38bb44	-0.045100465
242	0x3c80a22b	0.015702328
243	0x3c665610	0.014058605
244	0xbd3cb45c	-0.04607044
245	0xbdbc9780	-0.09208584
246	0x3d3c3592	0.045949526
247	0xbd68af91	-0.05680806
248	0xbd8e1346	-0.0693727
249	0x3d2aadb0	0.041669548
250	0xbd906e0d	-0.070522405
251	0x3cf48462	0.029848281
252	0x3d147c5e	0.03625142
253	0xbcd0a4a5	-0.025469134
254	0xbc952a01	-0.018208506
255	0x3cb2f813	0.021846807

FC2.bias f4 [256]
0	0xbd4ac7c4	-0.049506918
1	0xbd998573	-0.074961565
2	0xbd47e314	-0.048800543
3	0xbc2d5938	-0.010580353
4	0x3e05c3ce	0.13062975
5	0xbd3b3d20	-0.04571259
6	0x3d692d15	0.05692776
7	0x3d37515b	0.04475532
8	0xbb2fae3a	-0.0026806728
9	0xbcb597fa	-0.022167195
10	0x3d134f1d	0.03596412
11	0x3c9da45a	0.019243408
12	0x3de1bb51	0.11022056
13	0x3ac7d2a3	0.001524527
14	0x3c3803e4	0.011231396
15	0x3d7968ec	0.060891077
16	0x3d658a9d	0.056040395
17	0x3d158a1f	0.036508676
18	0xbcf34ad2	-0.029698763
19	0x3d18749c	0.037220582
20	0x3cc960b3	0.024582243
21	0x3c8fb676	0.017543059
22	0xbd306149	-0.04306153
23	0x3df8627a	0.12128158
24	0x3d0310e0	0.031998515
25	0x3dfd2249	0.12360055
26	0x3c9f529e	0.019448575
27	0x3dad6eab	0.08468374
28	0xbc2c0f16	-0.010501644
29	0xbd4d7dd7	-0.05016884
30	0xbd01b759	-0.031668995
31	0xbd136e62	-0.03599394
32	0xbd8f68b6	-0.07002394
33	0x3da455ad	0.08024154
34	0xbd3db47a	-0.046314694
35	0x3c7dcab1	0.01549022
36	0x3e169e54	0.14708835
37	0x3d17342f	0.036915
38	0x3da0477d	0.07826135
39	0x3c016c86	0.007899409
40	0x3d1ee3f4	0.03879161
41	0xbc29c721	-0.010362417
42	0xbd00387f	-0.03130388
43	0x3dd45673	0.103680514
44	0xbc822a8d	-0.01588943
45	0x3daf5c28	0.08562499
46	0xbd14d667	-0.036337283
47	0x3d0156b1	0.031576816
48	0x3e03fd33	0.12889557
49	0x3d499890	0.04921776
50	0x3da563e5	0.08075694
51	0xbd435182	-0.047685154
52	0x3cf5f298	0.030022904
53	0x3bf57fc5	0.007492038
54	0x3dda7791	0.10667337
55	0x3d5b4da4	0.05354084
56	0x3d49914c	0.04921083
57	0x3d92e82f	0.07173192
58	0x3da51e83	0.0806246
59	0xbdb44fd0	-0.088042855
60	0xbd5b8e9a	-0.053602792
61	0xbd80bafb	-0.06285664
62	0xbd5d6be6	-0.054057978
63	0xbcf0e256	-0.0294048
64	0xbc8f2c8c	-0.017477296
65	0xbd8fc28c	-0.07019529
66	0x3ca609b4	0.020268299
67	0x3bc181d7	0.0059053707
68	0xbd9f2f22	-0.07772662
69	0x3d9917a7	0.074752145
70	0x3d85f9bb	0.06541773
71	0x3dc46c1d	0.095909335
72	0xbc192c9f	-0.009349017
73	0x3dd95259	0.1061141
74	0xbd713c88	-0.058895618
75	0xbc9cdeab	-0.019149145
76	0x3c6ec47e	0.014573215
77	0xbc8295d9	-0.015940594
78	0x3d270c4e	0.04078322
79	0xbd05be38	-0.03265211
80	0x3d138be4	0.036022082
81	0xbdaeccf6	-0.08535187
82	0x3d0228a0	0.031777024
83	0x3e0c5814	0.13705474
84	0x3cdcfe69	0.026976781
85	0xbd971c37	-0.073784284
86	0x3b737b53	0.0037152364
87	0x3d45e9a2	0.048318513
88	0x3da18f89	0.07888705
89	0xbd642f05	-0.055708904
90	0x3d09124c	0.033464715
91	0x3d00416d	0.031312395
92	0x3c8dd02e	0.017311182
93	0xbdae4b88	-0.085105
94	0x3d27406b	0.040832918
95	0x3ca48124	0.02008111
96	0x3c956f0d	0.01824143
97	0xbce972e3	-0.028497165
98	0x3c1553f3	0.009114253
99	0xbd58f934	-0.052972034
100	0xbdb2e7e9	-0.087356396
101	0xbd463c63	-0.048397433
102	0xbd48dc2d	-0.0490381
103	0xbc6be05e	-0.014396755
104	0x3bfd94b5	0.0077386745
105	0xbd62d2d5	-0.055376846
106	0xbd70d4bb	-0.058796626
107	0x3d091c1c	0.033474073
108	0xbdbe20e8	-0.0928362
109	0x3d327cdc	0.043576106
110	0xbcf36e7a	-0.029715765
111	0xbd88e3c8	-0.06684071
112	0xbd1a48e3	-0.037667166
113	0x3db4b6a8	0.088239014
114	0xbd8d556f	-0.06901061
115	0xbd672bc6	-0.05643823
116	0x3cb517a0	0.022105992
117	0xbd2f2f50	-0.04276973
118	0xbc4606a7	-0.012086547
119	0x3dd6d087	0.10488992
120	0xbd062fc7	-0.032760408
121	0x3e08f384	0.13374144
122	0xbcb074c2	-0.02154005
123	0x3db3cfa7	0.08779841
124	0x3de37940	0.11107111
125	0xbbf1b5e9	-0.0073764217
126	0xbaf1efa8	-0.0018458264
127	0x3e5b84a5	0.21437319
128	0xbca75035	-0.020423988
129	0xbcb56703	-0.022143846
130	0xbd26a256	-0.04068216
131	0xbd093ae9	-0.033503447
132	0x3b069e56	0.0020541153
133	0xbdb10f61	-0.086455114
134	0x3d58df78	0.05294749
135	0x3d9201b7	0.07129233
136	0x3dae91f5	0.08523933
137	0x3da668bb	0.081254445
138	0x3cd9f7d8	0.026607439
139	0xbd926dc8	-0.07149845
140	0x3d1b178f	0.037864264
141	0x3dd89142	0.10574581
142	0x3d9d660e	0.07685481
143	0xbd8fada2	-0.0701554
144	0x3d285da4	0.041104928
145	0xbd814283	-0.06311514
146	0x3aef9186	0.0018277622
147	0xbd94fda4	-0.072749406
148	0x3d8b1118	0.0679037
149	0x3d65e15b	0.05612312
150	0x3c924e37	0.017859561
151	0x3c9c924f	0.019112734
152	0x3da5d6a6	0.080975816
153	0xbadc4696	-0.0016805704
154	0xbbb7198e	-0.005587763
155	0x3ce6b02f	0.028160183
156	0xbdaa44f4	-0.08313933
157	0x3cc0ac70	0.023519725
158	0x3dcfa9f0	0.10139835
159	0x3c985f3f	0.018600104
160	0x3d80c209	0.06287009
161	0x3c2ba7da	0.010477031
162	0x3c3d8cd9	0.011569225
163	0xbd47c9d3	-0.04877646
164	0xbd8813bd	-0.0664439
165	0xbc33aca7	-0.0109664565
166	0x3df8fc9d	0.12157557
167	0xbcf1cf07	-0.029517664
168	0x3d700085	0.058594245
169	0xbd8a335a	-0.06748076
170	0xbcc3d831	-0.023906799
171	0x3dc9f64e	0.09861432
172	0x3e17a5b9	0.14809312
173	0x3cf6a8aa	0.030109722
174	0x3dbe26b6	0.09284727
175	0xbbabc8f8	-0.005242463
176	0xbd9b3a0b	-0.0757943
177	0xb8cdd611	-9.815035e-05
178	0x3ce004c8	0.02734603
179	0x3c81e9f4	0.015858628
180	0x3ccafca9	0.02477868
181	0xbb5f8290	-0.003410492
182	0xbd80c4e9	-0.06287558
183	0xbc8528fe	-0.016254898
184	0xbcaac18f	-0.020844249
185	0xbbc87e95	-0.0061186054
186	0x3d071c1e	0.0329858
187	0xbc537b38	-0.012907796
188	0x3d0f713d	0.0350201
189	0xbd6e80de	-0.058228366
190	0x3df460a7	0.119324975
191	0x3c4b512f	0.012409492
192	0x3d617f10	0.055052817
193	0xbc9cf322	-0.019158904
194	0xbd9fe39c	-0.07807085
195	0x3cc956d6	0.02457754
196	0xbd8f9902	-0.07011606
197	0x3dc16f33	0.09445038
198	0x3d89b2c5	0.06723551
199	0xbd10bac2	-0.035334356
200	0x3ddeed3c	0.108850926
201	0x3d4a12b0	0.049334228
202	0x3e5c85d5	0.21535428
203	0xbd10080c	-0.035163924
204	0x3d8d7afb	0.06908222
205	0x3dbdcb2b	0.09267267
206	0x3db6d73e	0.08927773
207	0x3ce5c93d	0.02805006
208	0xbc024e73	-0.007953274
209	0xbd163f97	-0.036681738
210	0x3d16e613	0.03684051
211	0xbc24ac74	-0.010050882
212	0x3c0defe0	0.008663148
213	0x3d1c8fc3	0.03822304
214	0xbd918820	-0.07106042
215	0xbd261d79	-0.04055545
216	0x3c7391e0	0.014866322
217	0x3d5918d0	0.05300218
218	0x3e0ad10d	0.13556309
219	0x3d21a49e	0.03946363
220	0x3c845959	0.016155886
221	0xbd202873	-0.039101075
222	0x3d900116	0.07031457
223	0x3e16d440	0.14729404
224	0xbd9e3305	-0.07724575
225	0xbd88bd1e	-0.06676696
226	0xbd1db80d	-0.038505603
227	0xbcbd0555	-0.023073832
228	0xbd196fcb	-0.03746013
229	0xbbfa164a	-0.0076320516
230	0x3ce5d960	0.028057754
231	0x3d661057	0.056167927
232	0x3d737461	0.05943716
233	0x3dcefdc0	0.10106993
234	0x3b2f0659	0.0026706664
235	0x3da4fc41	0.08055926
236	0xbb04550e	-0.0020192298
237	0xbab81d5a	-0.0014046833
238	0xbd5e0c63	-0.05421103
239	0x3c41c8fe	0.011827705
240	0x3bdd57df	0.00675486
241	0x3d8ce881	0.06880284
242	0x3d29c913	0.041451525
243	0x3d64fafa	0.055903412
244	0xbda47c05	-0.08031467
245	0x3c2c7bfd	0.010527608
246	0xbd048bde	-0.03235995
247	0x3db31a96	0.08745305
248	0x3d8c5811	0.06852735
249	0x3b2b424c	0.0026132045
250	0xbd2a7349	-0.04161385
251	0xbd847d42	-0.064692035
252	0xbd3c4357	-0.045962658
253	0xbb84d0d1	-0.004053213
254	0x3c812fa1	0.015769782
255	0x3d1c4a3e	0.03815674

action_out.weight f4 [5, 256]
0	0x3d477752	0.048697777
1	0x3cb3e678	0.021960482
2	0x3cce5004	0.025184639
3	0xbcb04052	-0.021515045
4	0xbdf2686b	-0.118363224
5	0xbe1e6e6b	-0.15471809
6	0xbc9df38a	-0.019281168
7	0xbdd10a4e	-0.102070436
8	0x3d32d2ea	0.043658175
9	0xbe28f745	-0.16500576
10	0xbe0ce10d	-0.13757725
11	0x3c855fef	0.016281096
12	0xbd25051b	-0.040288072
13	0x3c48f4c6	0.01226539
14	0x3d3d2c20	0.04618466
15	0xbdde6047	-0.10858207
16	0xbf48935b	-0.78349847
17	0xbdae820a	-0.08520897
18	0x3ce8a41b	0.028398564
19	0x3cb2db45	0.021833071
20	0x3ce9fd75	0.02856324
21	0xbdd52542	-0.10407497
22	0x37e1c07c	2.6911723e-05
23	0xbf1ce12a	-0.61281073
24	0xbc749727	-0.014928616
25	0xbde2c554	-0.110727936
26	0xbd6e3950	-0.058160126
27	0xbdec7c69	-0.11547167
28	0xbe068232	-0.13135603
29	0x3d56fa27	0.052484658
30	0xbdc56852	-0.09639038
31	0x38db1768	0.000104470935
32	0xbd10a87f	-0.03531694
33	0xbdc3014a	-0.0952173
34	0xbf45d788	-0.77282
35	0xbdd4bfd7	-0.10388153
36	0xbc187697	-0.009305618
37	0xbc8c8519	-0.01715331
38	0xbe16a239	-0.1471032
39	0xbd934fc2	-0.07192947
40	0xbd971c2f	-0.073784225
41	0xbd3d0dc3	-0.046155702
42	0x3c14b0eb	0.009075384
43	0xbcb2d974	-0.021832205
44	0xbd173ce1	-0.036923293
45	0xbdc918ce	-0.09819184
46	0x3c9eed38	0.019400224
47	0xbe050466	-0.12989959
48	0xbe164205	-0.14673622
49	0xbe011b0f	-0.12607978
50	0xbdb264c5	-0.087106265
51	0xbd3fd825	-0.04683699
52	0xbd51369e	-0.051077478
53	0x3d323017	0.043502893
54	0xbdd6cd4a	-0.104883745
55	0xbd86e417	-0.065864734
56	0xbd158ae8	-0.036509424
57	0xbd0b8c30	-0.03406924
58	0xbda24510	-0.07923329
59	0x3cfb080b	0.030643484
60	0x3bff3808	0.007788662
61	0xbd24d420	-0.04024136
62	0xbd191bea	-0.037380137
63	0xbd137181	-0.035996918
64	0xbc17823b	-0.009247358
65	0xbc9100d8	-0.017700598
66	0xbda3412f	-0.07971417
67	0xbe2d60ee	-0.16931507
68	0x3d418268	0.047243506
69	0xbc1789fb	-0.009249206
70	0xbd9f5949	-0.07780702
71	0xbc8e0c6d	-0.01733991
72	0xbbb4214f	-0.0054971348
73	0xbda462df	-0.08026671
74	0xbd12cdc4	-0.035840765
75	0xbe619bfb	-0.22032158
76	0xbdcffd9d	-0.10155795
77	0xbda72ebe	-0.08163212
78	0xbdc704d5	-0.097177185
79	0xbcb85d27	-0.022505356
80	0xbdbdea97	-0.0927326
81	0x3d17c656	0.037054382
82	0xbe11b57f	-0.14229392
83	0xbe40dd6d	-0.18834467
84	0xbe575dcb	-0.21031873
85	0x3d09f793	0.03368337
86	0x3d267fcf	0.04064923
87	0xbb827135	-0.0039807805
88	0xbe5cbe03	-0.21556859
89	0xbe045ff5	-0.1292723
90	0xbcbe0f21	-0.023200573
91	0xbd6a70e0	-0.057236552
92	0xbc10ecfe	-0.008845566
93	0x3d099251	0.033586804
94	0x3c13de8f	0.00902523
95	0x3c9fb48b	0.01949527
96	0xbe190ef8	-0.14947116
97	0xbd1c75b3	-0.038198184
98	0xbe022b31	-0.12711789
99	0xbddca65c	-0.10773918
100	0xbbd0da18	-0.006373655
101	0x3d0171f7	0.031602826
102	0x3d48c50a	0.049016036
103	0xbd0667cb	-0.03281383
104	0xbd6ab941	-0.05730558
105	0x3c01caec	0.0079219155
106	0xbd0c89ab	-0.034310978
107	0xbd6eb123	-0.0582744
108	0x3ce4e3a2	0.027940575
109	0xba6dd208	-0.00090721296
110	0xbf4b0976	-0.7931131
111	0x3bd6a26b	0.0065501234
112	0x3cd94ff6	0.026527386
113	0xbf3e6cff	-0.74385065
114	0xbd616aaf	-0.055033382
115	0x3cffa9a5	0.031208823
116	0xbe04e259	-0.1297697
117	0x3be76df6	0.007062669
118	0x3d15b762	0.03655184
119	0xbe00c02f	-0.12573312
120	0xbd7c8e75	-0.061659295
121	0xbf0e4976	-0.5558084
122	0xbd35f16d	-0.044419695
123	0xbd31686b	-0.04331247
124	0xbde01574	-0.10941592
125	0xbe2e6f77	-0.17034708
126	0xbdd67418	-0.10471362
127	0xbd88c475	-0.06678096
128	0x3d40df71	0.04708809
129	0x3cd30fa9	0.025764303
130	0xbd2adacf	-0.04171258
131	0x3cc6c96c	0.024265967
132	0xbc8ee261	-0.01744193
133	0xbcab7d5e	-0.020933803
134	0xbe086129	-0.13318314
135	0xbe03bba7	-0.12864552
136	0xbdc1abaf	-0.09456574
137	0xbdbebd7c	-0.09313485
138	0xbe270d07	-0.16313563
139	0xbd3bc2c1	-0.04584003
140	0xbd9b0640	-0.075695515
141	0xbd11d326	-0.035601757
142	0xbdd9d800	-0.10636902
143	0xbe2faebb	-0.17156498
144	0xbd6032c8	-0.05473593
145	0x3b952029	0.004550953
146	0xbc88261a	-0.01661973
147	0xbd291836	-0.041282855
148	0xbddd971a	-0.10819836
149	0xbd2e8338	-0.04260561
150	0x3be7378f	0.0070561836
151	0xbf025029	-0.50903565
152	0xbe212103	-0.15735249
153	0xbd64dc62	-0.055874236
154	0xb95a0377	-0.00020791391
155	0xbd7e5da4	-0.06210102
156	0x3c3b1105	0.011417632
157	0xbd71f9c7	-0.059076097
158	0xbe2d2551	-0.16908766
159	0xbcf3e09d	-0.02977019
160	0xbe0126f0	-0.1261251
161	0xbdbb3aa8	-0.09142047
162	0xbe1e03ec	-0.15431184
163	0xbe0361ee	-0.12830326
164	0xbe11a4cc	-0.14223021
165	0xbdf3b97d	-0.119006135
166	0xbdb15c00	-0.08660126
167	0xbd215ce9	-0.039395247
168	0xbd2f5de6	-0.042814158
169	0xbd436654	-0.04770501
170	0xbc97c40b	-0.018526098
171	0xbda4771d	-0.080305316
172	0xbd79d91f	-0.06099808
173	0xbdc0780e	-0.093978986
174	0xbdc03214	-0.09384552
175	0xbe125459	-0.14289989
176	0x3c233a01	0.00996256
177	0xbdb1f486	-0.08689217
178	0xbd969e4c	-0.073544115
179	0xbd1ca02b	-0.038238686
180	0xbe0aa979	-0.13541211
181	0xbd6dfdf5	-0.05810352
182	0xbdc13381	-0.09433652
183	0xbd663ecd	-0.056212235
184	0x3d2de6ec	0.042456552
185	0x3d483b21	0.048884515
186	0xbdea67cf	-0.11445581
187	0x3cc0c0ce	0.023529436
188	0xbd97e716	-0.07417123
189	0x3c8f098f	0.017460613
190	0xbdf46051	-0.119324334
191	0xbd20bfdd	-0.039245475
192	0xbdc300a3	-0.09521606
193	0xbc904039	-0.017608749
194	0x3c85a719	0.01631503
195	0xbca10bd5	-0.019658962
196	0x3d1b85e5	0.03796949
197	0xbdac9f63	-0.08428838
198	0xbde5a46b	-0.11213001
199	0x3d45c5fe	0.048284523
200	0xbdb47c59	-0.0881278
201	0xbd640e3d	-0.05567764
202	0x3d106b0e	0.035258345
203	0x3d3ffc9c	0.046871766
204	0xbdc5ee9b	-0.09664651
205	0xbdfb20b3	-0.12262096
206	0xbe1610ab	-0.14654796
207	0xbd9fb100	-0.07797432
208	0x3cea83da	0.028627325
209	0x3c49b844	0.012311999
210	0xbe05131d	-0.12995572
211	0xbd3ddd2b	-0.0463535
212	0x3c965607	0.018351568
213	0xbcdfbd11	-0.027311834
214	0xbc281519	-0.010258936
215	0xbd772f03	-0.06034757
216	0xbce2fe45	-0.027709136
217	0xbe4f2113	-0.2022746
218	0xbbe2a5c9	-0.006916736
219	0xbdcaaa46	-0.09895758
220	0xbdd9dd81	-0.10637952
221	0xbdb983f1	-0.09058369
222	0xbd65aa90	-0.056070864
223	0xbe1526fe	-0.14565656
224	0xbd1e5fe2	-0.03866566
225	0xbb868dc2	-0.0041062543
226	0xbbd36edb	-0.006452424
227	0x3d471bac	0.048610374
228	0x3d8581af	0.06518876
229	0x3d6afa61	0.057367686
230	0xbdab1b5f	-0.0835483
231	0xbe1eb563	-0.15498881
232	0xbdad66e4	-0.084668905
233	0xbdc26ca5	-0.094933785
234	0xbc90ea98	-0.017689988
235	0xbdad0bac	-0.08449492
236	0x3d6e1d20	0.058133245
237	0xbd444762	-0.04791964
238	0xbd5e77df	-0.054313537
239	0x3cd80b4e	0.026372578
240	0x3d3298b0	0.043602645
241	0xbc6757f8	-0.0141200945
242	0x3d040e95	0.03224047
243	0xbf5f083d	-0.87121946
244	0x3cf22ca0	0.029562294
245	0xbde41131	-0.111360915
246	0x3cb5e449	0.022203581
247	0xbe09429a	-0.13404313
248	0xbf30c74f	-0.6905412
249	0xbbd90564	-0.006622957
250	0xbd8007e7	-0.06251507
251	0x3d0e8fa2	0.034804948
252	0xbd8b3434	-0.06797066
253	0xbe06a3bb	-0.13148396
254	0x3c527ea7	0.012847579
255	0x3d06f151	0.03294498

action_out.bias f4 [5]
0	0xbe10770f	-0.14107917
1	0xbd853d3f	-0.065058224
2	0xbd817dc7	-0.06322818
3	0xbc9de38b	-0.01927354
4	0x3cd56e9f	0.026053725

weight f4 [256, 123]
0	0x3c51c698	0.012803696
1	0xbd271e70	-0.04080051
2	0xbce3b386	-0.027795564
3	0x3be25d4e	0.0069080954
4	0xbdb738f7	-0.08946412
5	0x3e279dd0	0.16368794
6	0xbcb55b26	-0.02213819
7	0xbcdf0e6f	-0.027228562
8	0x3d4172f5	0.047228772
9	0x3d5ca85a	0.05387149
10	0x3d81fde1	0.06347252
11	0xbd051fae	-0.032500915
12	0xbd8d44ee	-0.06897913
13	0x3e35068f	0.17678283
14	0xbd96c354	-0.07361475
15	0x3c9c7c7c	0.019102328
16	0x3d5eb5ed	0.054372717
17	0xbb1b0f5d	-0.002366028
18	0xbb754ca4	-0.0037429715
19	0x3d9019bc	0.070361584
20	0x3e03a821	0.12857105
21	0x3e1ab477	0.15107904
22	0xbdfd95d9	-0.12382097
23	0xbd886382	-0.066596046
24	0x3d758d98	0.059949487
25	0xbe46399b	-0.19357912
26	0xbe920b24	-0.28524125
27	0xbd90c845	-0.070694484
28	0xbce708e5	-0.028202483
29	0x3cf6b835	0.030117134
30	0x3d82a54c	0.06379184
31	0xbcdc7fe0	-0.026916444
32	0xbd8c663a	-0.06855436
33	0xbd8ccd07	-0.06875043
34	0xbcbaf3e0	-0.022821367
35	0xbcffa8a4	-0.031208344
36	0x3ca162b8	0.019700393
37	0xbded2b5c	-0.11580536
38	0xbdcf6095	-0.101258434
39	0xbdca946f	-0.09891593
40	0xbdbe2c9e	-0.09285854
41	0x3e49ce92	0.19707707
42	0xbdd9728c	-0.10617551
43	0xbe40e47f	-0.18837164
44	0x3a905c32	0.0011013804
45	0xbe213512	-0.15742901
46	0xbdb7d824	-0.089767724
47	0xbdd065a4	-0.101756364
48	0xbcc21928	-0.023693636
49	0x3e5db1a0	0.2164979
50	0xbe065689	-0.13118948
51	0xbda1d1f2	-0.07901372
52	0x3e178fc4	0.14800936
53	0x3c86258c	0.016375326
54	0xbbffc080	-0.00780493
55	0xbc0787d1	-0.008272127
56	0x3e194f67	0.14971696
57	0x3e00cc18	0.12577856
58	0xbcae61e2	-0.021286909
59	0xbd74e3fc	-0.059787735
60	0x3d572a2d	0.052530456
61	0xbe579b0f	-0.21055244
62	0xbe9151dd	-0.2838277
63	0xbda8b362	-0.082373396
64	0xbc73e2b3	-0.014885592
65	0xbde590ab	-0.11209234
66	0x3e010a1a	0.1260151
67	0xbd088893	-0.033333372
68	0x3c43e750	0.011957005
69	0xbe1a3227	-0.15058194
70	0xbd3c0beb	-0.045909803
71	0xbc568b2f	-0.013094707
72	0x3d19002d	0.037353683
73	0xbd537464	-0.05162467
74	0x3e918f38	0.2842958
75	0xbd5b61ce	-0.05356007
76	0xbdf96827	-0.121780686
77	0x3e2d17aa	0.16903558
78	0xbd176a68	-0.03696671
79	0x3da33ee6	0.07970981
80	0x3e39e96a	0.18155447
81	0x3e8ea893	0.27862987
82	0x3e70ab5e	0.23502871
83	0xbe2d05e3	-0.16896777
84	0xbdbbb10a	-0.09164627
85	0x3e93b636	0.28849953
86	0xbd819a2a	-0.063282326
87	0x3dcda400	0.10041046
88	0x3e77a457	0.24183784
89	0x3dcfe4b6	0.10151045
90	0x3e97a96a	0.2962144
91	0x3a477384	0.0007608461
92	0x3e53206d	0.20617838
93	0x3dfa6771	0.12226761
94	0xbe08b786	-0.13351259
95	0x3dc377c6	0.09544329
96	0x3e4f551d	0.20247312
97	0xbd62d0b5	-0.05537482
98	0xbccfd9a4	-0.025372334
99	0xbe1880b6	-0.1489285
100	0x3de7d0c8	0.11319119
101	0xbd8aa8ea	-0.06770499
102	0xbd1083d1	-0.03528196
103	0xbe133721	-0.14376499
104	0x3cd15cd4	0.02555696
105	0xbdb46017	-0.0880739
106	0xbde7e290	-0.1132251
107	0xbbaefc30	-0.0053401217
108	0x3db28f38	0.08718723
109	0xbd9ef6fc	-0.07761952
110	0x3d949a23	0.07255962
111	0xbcf6d7ba	-0.030132163
112	0x3c76d4a6	0.015065348
113	0x3d9f617f	0.07782268
114	0xbe1422af	-0.14466356
115	0xbe34096a	-0.17581716
116	0xbdf58895	-0.119889416
117	0xbe38ea58	-0.18058145
118	0xbde2dab2	-0.11076869
119	0xbe8a5bba	-0.27023107
120	0x3c77bd0b	0.015120755
121	0xbe0ab11f	-0.13544129
122	0x3db83561	0.08994556
123	0xbb8c0137	-0.0042726058
124	0xbd668e26	-0.056287907
125	0xbc99bcb6	-0.018766742
126	0xbd6e2816	-0.058143698
127	0xbdb6fc66	-0.0893486
128	0x3cf80154	0.03027407
129	0x3cfe2f1f	0.031028328
130	0xbda97bb1	-0.082755454
131	0x3daa433f	0.083136074
132	0x3d9283fb	0.071540795
133	0xbda73fdd	-0.08166478
134	0xbda94f6b	-0.08267101
135	0x3c28fbb7	0.01031392
136	0x3c53c030	0.012924239
137	0x3ad8e619	0.0016548067
138	0xbcd89227	-0.026436878
139	0x3baa3c17	0.0051951515
140	0x3d925db8	0.07146782
141	0xbdd54333	-0.10413208
142	0xbd971559	-0.073771186
143	0x3d9d479f	0.07679676
144	0x3d9a7515	0.07541863
145	0x3cf35499	0.029703425
146	0xbd870b7c	-0.06593987
147	0xbd8116b8	-0.063031614
148	0xba213733	-0.0006149888
149	0x3d19c860	0.037544608
150	0xbd7f4d76	-0.062329732
151	0xbd25af18	-0.040450186
152	0x3c8ee294	0.017442025
153	0xbd692eb6	-0.056929313
154	0x3d178e35	0.037000854
155	0x3c5a8747	0.013337917
156	0x3d56331a	0.052294828
157	0xbce37e02	-0.027770046
158	0xbcddd418	-0.027078673
159	0xbd6f9fc6	-0.05850198
160	0xbd982f5d	-0.07430909
161	0x3d531642	0.0515349
162	0xbd314174	-0.04327531
163	0xbbe5e280	-0.0070155263
164	0x3d5a6f1e	0.053328626
165	0x3c97180e	0.018444087
166	0xbd5ba4f4	-0.05362411
167	0x3cd98f71	0.026557656
168	0xbd8057cb	-0.06266745
169	0x3ddb786c	0.10716328
170	0xbbe0a945	-0.006856116
171	0xbddec96b	-0.10878261
172	0x3d446652	0.047949143
173	0xbd85df1c	-0.06536695
174	0xbda0edaa	-0.07857831
175	0xbd6ddf36	-0.0580742
176	0x3d3eba7a	0.046564557
177	0xbd9635b7	-0.07334464
178	0x3da27714	0.079328686
179	0xbce7dadc	-0.028302602
180	0x3d16039a	0.03662453
181	0xbce39193	-0.027779376
182	0x3d15526a	0.03645555
183	0x3d8d0372	0.06885423
184	0x3d85b13a	0.06527944
185	0x3c4e6817	0.012598059
186	0xbdc0d973	-0.09416475
187	0xbdaa6cfc	-0.08321568
188	0x3d29b1ff	0.041429516
189	0xbdf09bdb	-0.11748477
190	0xbd4129fd	-0.047159184
191	0x3cc8677c	0.024463408
192	0xbdae00bb	-0.08496233
193	0xbd918727	-0.071058564
194	0x3c2f64b8	0.010705166
195	0x3d664d75	0.056226213
196	0x3d9ac4d2	0.07557072
197	0xbd0acde9	-0.033887777
198	0x3d9be623	0.076122545
199	0x3d45c8c1	0.048287157
200	0xbb8e78b0	-0.004347883
201	0x3c0eac23	0.008708033
202	0xbc1a4057	-0.009414754
203	0xbd59b6cf	-0.053152855
204	0xbcbf88ce	-0.023380663
205	0x3df83bcb	0.121207796
206	0xbc61f8ef	-0.013792261
207	0x3ac317c5	0.0014884403
208	0xbd0c0bd1	-0.034190957
209	0xbd991752	-0.07475151
210	0xbdbbce5f	-0.091702215
211	0x3c668f16	0.0140722
212	0x3d01eb00	0.031718254
213	0xbc9ddb87	-0.019269718
214	0x3d0b5872	0.034019895
215	0xbd647530	-0.05577582
216	0x3d1b40a2	0.037903436
217	0xbd81e987	-0.0634337
218	0xbbef920d	-0.007311112
219	0x3d9a4987	0.075335555
220	0xbc0dbcd8	-0.008650981
221	0x3d7d9a66	0.061914824
222	0xbba27a5a	-0.004958433
223	0xbd4ba3ce	-0.049716763
224	0xbbf20590	-0.007385917
225	0xbc040448	-0.008057661
226	0xbdb8c2f7	-0.090215616
227	0x3b0f0be0	0.0021827146
228	0x3da87b2f	0.082266204
229	0xbc7d32ed	-0.015454036
230	0x3d044c10	0.0322991
231	0xbbe747db	-0.0070581264
232	0x3d41f4d6	0.047352634
233	0xbd4f7bc1	-0.05065513
234	0x3d9b186f	0.0757302
235	0xbd08faf6	-0.03344246
236	0xbcac7e91	-0.021056445
237	0xbd7bde62	-0.061491378
238	0xbd8f0110	-0.069826245
239	0x3cc44636	0.02395926
240	0x3c22cad8	0.009936057
241	0x3d3e5b96	0.046474062
242	0x3d413b3c	0.04717563
243	0xbd682c29	-0.05668274
244	0x3baf4847	0.0053491923
245	0x3d837d87	0.06420427
246	0x3d599a91	0.05312592
247	0xbd3aaeb3	-0.045576762
248	0x3d6fcdef	0.058546003
249	0xbe1f0086	-0.15527543
250	0x3cd3786f	0.025814263
251	0xbe0465b4	-0.12929422
252	0xbdaf9bb1	-0.08574618
253	0xbc8a3068	-0.016868785
254	0xbc88edc6	-0.016714942
255	0xbc81f640	-0.015864491

bias f4 [256]
0	0xbd0f60c3	-0.03500439
1	0x3b882d08	0.004155759
2	0x3e33b104	0.17547995
3	0x3dc4b82b	0.0960544
4	0xbe259764	-0.16171032
5	0x3e1e2361	0.15443183
6	0xbd716aad	-0.058939625
7	0x3cc10e67	0.023566438
8	0x3cfe711a	0.03105979
9	0x3e0120ab	0.12610118
10	0xbdb483c6	-0.08814196
11	0x3ca5b887	0.020229591
12	0x3d3865d7	0.045018997
13	0x3dc1a7a6	0.094558045
14	0xbc67d3c9	-0.014149615
15	0x3d9fa091	0.077942975
16	0xbde5893b	-0.11207815
17	0x3c88b838	0.016689405
18	0x3dcc34ed	0.09971032
19	0xbd377b00	-0.044795036
20	0x3d102816	0.03519448
21	0xbdabb478	-0.08384031
22	0xbe22cffc	-0.15899652
23	0xbd216cd9	-0.039410446
24	0x3d654f68	0.05598393
25	0x3d543cd9	0.05181584
26	0xbdbe4c3d	-0.09291885
27	0x3d41e6d0	0.04733926
28	0x3da90d1b	0.08254453
29	0x3e129f30	0.14318538
30	0xbd8cf795	-0.0688316
31	0xbcab4bcb	-0.020910164
32	0x3d7deae2	0.06199158
33	0xbd06a2c8	-0.032870084
34	0xbc0c82b9	-0.008576089
35	0xbd967858	-0.073471725
36	0xbddf66f3	-0.10908308
37	0x3d877ce5	0.066156186
38	0xbd2117f9	-0.039329503
39	0xbd5dda96	-0.054163538
40	0xbda44dab	-0.080226265
41	0x3dd0e939	0.10200734
42	0xbdb52c2e	-0.08846317
43	0x3dfe4fa6	0.124175355
44	0xbde7d562	-0.113199964
45	0x3c1fc927	0.009752548
46	0xbc50d95f	-0.012747138
47	0x3d0090c3	0.031388056
48	0x3d13fd52	0.036130257
49	0xbe284be8	-0.16435206
50	0x3d1db2fd	0.038500775
51	0xbc5e65a2	-0.013574036
52	0xbc1eb0b0	-0.00968568
53	0xbdd1ee8d	-0.10250578
54	0x3c962ca3	0.018331831
55	0xbdfe458b	-0.12415608
56	0xbd0dc855	-0.03461488
57	0xbdebc1ec	-0.11511597
58	0x3e3b2ae1	0.18278076
59	0xbd9ac5b1	-0.07557238
60	0x3cdd3f67	0.027007772
61	0xbe1ba497	-0.15199505
62	0x3d6d441a	0.057926275
63	0x3da428d7	0.08015602
64	0xbd6eb808	-0.058280975
65	0xbd9beac4	-0.07613137
66	0xbe095308	-0.1341058
67	0x3bca3510	0.0061708763
68	0xbcd23bf0	-0.025663346
69	0x3c64e4f3	0.013970601
70	0xbe098e59	-0.13433208
71	0xbda7cc05	-0.081932105
72	0xbd36b220	-0.044603467
73	0xbd16b488	-0.03679326
74	0xbe0afb11	-0.13572337
75	0x3d4d763c	0.050161585
76	0x3da3b622	0.079937235
77	0x3dedc625	0.11610059
78	0xbd35ec5e	-0.04441487
79	0xbcfa171d	-0.0305286
80	0xbdab5ed5	-0.08367697
81	0xbc2be342	-0.010491194
82	0x3d1ced9b	0.038312536
83	0xbc0d79f3	-0.008635032
84	0x3d4f7922	0.05065263
85	0xbcf4c15f	-0.029877363
86	0x3d631fe7	0.055450346
87	0xbc680e37	-0.014163545
88	0xbd0cf1f4	-0.034410432
89	0xbd92f805	-0.07176212
90	0x3ca59f39	0.020217525
91	0xbddb4e75	-0.10708324
92	0x3c71c81a	0.014757181
93	0x3d46eaaf	0.048563655
94	0xbad13ff1	-0.0015964491
95	0x3c854cd0	0.016271979
96	0xbd06e172	-0.032929845
97	0x3d9c3f38	0.076292455
98	0x3d7e0b84	0.0620227
99	0xbd8b23c9	-0.06793935
100	0xbc1d415d	-0.009598103
101	0xbd80b63a	-0.06284757
102	0xbd8a8642	-0.06763889
103	0x3e0a3fa1	0.13500835
104	0xbc4a4ce4	-0.012347434
105	0xbd89d795	-0.06730572
106	0xbdaddadd	-0.084890105
107	0x3df621d6	0.120181724
108	0x3d5e6d78	0.054303616
109	0xbaf60ff6	-0.0018773067
110	0xbc9a68b6	-0.018848758
111	0xbd8a7875	-0.067612566
112	0x3d5d63a2	0.054050095
113	0xbca6194e	-0.020275738
114	0xbd113a6a	-0.0354561
115	0xb8b2d89d	-8.528049e-05
116	0x3d0b511f	0.03401291
117	0xbd7fa508	-0.062413245
118	0x3de8f38f	0.1137458
119	0xbdef2fb4	-0.116790205
120	0xbd4a3670	-0.049368322
121	0x3d868473	0.065682314
122	0x3c20330e	0.009777797
123	0x3d85da71	0.06535805
124	0x3d537ac6	0.051630758
125	0xbd992aad	-0.07478843
126	0xbc3a0e38	-0.011355929
127	0x3d25f44a	0.040516175
128	0xbd1eadee	-0.03874009
129	0xbda36727	-0.07978659
130	0x3d3cbc83	0.046078216
131	0xbd112d2f	-0.03544348
132	0xbc0d7991	-0.008634941
133	0x3e52b86a	0.20578161
134	0x3d1c8cf7	0.038220372
135	0xbcf61417	-0.030038876
136	0x3ce58c5f	0.028021036
137	0xbc8e3f95	-0.017364303
138	0xbdd3e660	-0.10346675
139	0xbdba186a	-0.09086688
140	0x3e14d216	0.14533266
141	0x3e456577	0.19276987
142	0xbd62ea7b	-0.0553994
143	0xbbfa2110	-0.007633336
144	0xbdfff21f	-0.12497353
145	0xbd454a39	-0.048166487
146	0xbd58ab09	-0.052897487
147	0x3ceb5472	0.02872679
148	0x3da6931c	0.08133528
149	0xbdbccdbd	-0.09218929
150	0xbd6266f2	-0.055273958
151	0x3da5215c	0.080630034
152	0x3d2710ed	0.040787626
153	0x3d961509	0.07328231
154	0xbcfca391	-0.030839713
155	0xbda02b5b	-0.078207694
156	0x3dca3025	0.09872464
157	0xbd87bde9	-0.06628019
158	0xbcce32f2	-0.025170777
159	0x3deb00db	0.114747725
160	0xbc88286d	-0.016620839
161	0xbdac1fa9	-0.08404476
162	0xbc7e68e7	-0.01552794
163	0xbe0c2969	-0.13687672
164	0x3c054dd0	0.008136228
165	0x3bb6611a	0.0055657746
166	0xbde360d6	-0.11102454
167	0x3ad5fa1f	0.0016325152
168	0xbdba6030	-0.091003776
169	0xbb0208b1	-0.0019841606
170	0xbd74697d	-0.059670914
171	0x3c51a654	0.012796003
172	0xbe3341d0	-0.17505574
173	0xbd68226b	-0.05667345
174	0xbc2b793b	-0.010465915
175	0x3b8160da	0.003948313
176	0xbd408529	-0.04700199
177	0xbd5228c3	-0.051308405
178	0x3d0beb6f	0.034160074
179	0x3dde6b73	0.10860338
180	0x3e030058	0.127931
181	0xbd3e77d8	-0.04650101
182	0xbddb4f88	-0.10708529
183	0xbd6b4152	-0.05743534
184	0x3d054d76	0.032544576
185	0xbd2df3f4	-0.04246898
186	0xbce4c40d	-0.027925516
187	0x3c5a3ad8	0.0133196935
188	0x3dc4bd17	0.096063785
189	0xbd91c35f	-0.07117342
190	0x3b75f30d	0.0037528903
191	0xbde55eae	-0.11199699
192	0x3e26084e	0.16214105
193	0xbc54d718	-0.0129907355
194	0x3d628f2a	0.055312313
195	0xbdc1fac8	-0.09471661
196	0x3d363217	0.044481363
197	0xbd2af324	-0.041735783
198	0xbdd81328	-0.10550529
199	0x3cc0c6b0	0.023532242
200	0xbc8fc35a	-0.017549206
201	0x3db098d7	0.08622902
202	0x3c458d18	0.012057565
203	0xbd4eef4c	-0.05052118
204	0x3d8b37c3	0.06797745
205	0xbdd24734	-0.10267487
206	0x3c4d3b20	0.0125263035
207	0xbdc9b576	-0.09849064
208	0xbce96325	-0.028489659
209	0x3d19949a	0.037495233
210	0xbd51a479	-0.051182244
211	0xbd2c016c	-0.041993544
212	0x3d4b6c5a	0.04966388
213	0xbcc3a5b1	-0.023882719
214	0x3d59b16a	0.05314771
215	0xbda77842	-0.08177234
216	0x3d86cc21	0.06581903
217	0x3da98659	0.08277578
218	0xbbc58555	-0.0060278573
219	0xbcad30d5	-0.021141449
220	0xbdacb008	-0.08432013
221	0xbe03a42a	-0.12855592
222	0x3d9b0872	0.0756997
223	0xbd8058b5	-0.062669195
224	0xbde20b9c	-0.110373706
225	0x3db1f406	0.08689122
226	0x3b842fdc	0.0040340256
227	0xbd178722	-0.036994107
228	0xbb3f43d1	-0.002918471
229	0xbd8866c1	-0.06660224
230	0xbda7c4a3	-0.08191802
231	0xbd8e9b39	-0.069632
232	0x3b0b6fca	0.0021276348
233	0x3c4a5f3a	0.012351805
234	0x3d28ea38	0.041238993
235	0xbbb2fc2c	-0.00546219
236	0x3b8988c9	0.0041972143
237	0xbd0cd9ae	-0.034387283
238	0x3d642d9b	0.055707555
239	0xbc9db138	-0.019249544
240	0x3d1f8d28	0.038952976
241	0xbc97f6d1	-0.018550308
242	0xbd7c76e9	-0.06163684
243	0xbd2227c4	-0.039588705
244	0xbd62d109	-0.055375133
245	0xbdbec5a5	-0.093150415
246	0x3dbed8de	0.09318708
247	0xbd8ecaa7	-0.069722466
248	0x3c7d16a3	0.015447292
249	0xbdc3a1b5	-0.095523275
250	0x3dd8c448	0.10584313
251	0xbe2925da	-0.16518345
252	0xbd5f530f	-0.05452257
253	0x3de40f42	0.11135723
254	0xbd24ef6f	-0.040267404
255	0xbd72a10e	-0.059235625
