src/saved_models/grid_world_seed125_8_7_16_59_成了/125_11_model.pt (torch, 702727 bytes, 11 tensors)

FC1.weight f4 [256, 36]
000000 66 d5 a9 bc 71 a8 31 3e 59 08 72 bd aa 39 2a 3e
       -0.02073164 0.17349412 -0.059089992 0.1662356
000010 37 4d 18 3e 41 d5 0c 3e 3e a3 03 3e 4d 43 3d bd
       0.14873205 0.13753225 0.1285524 -0.04620676
000020 1e 1c e9 bc 11 e3 c5 3d 23 ac 36 bc c7 e4 1a 3e
       -0.02845579 0.0966245 -0.011149439 0.15126334
000030 c4 60 a1 bd 34 60 b4 bc 34 ec bc bd 1f d5 87 3c
       -0.07879785 -0.02201853 -0.0922474 0.016581116
000040 e4 cd 6d bd dd 41 30 bd 75 11 d8 bd e6 bb da 3d
       -0.05805768 -0.043031562 -0.10550205 0.1068037
000050 19 44 e8 bc cb 4e ed bd 2d ad 05 3e fe b6 ae bc
       -0.028352784 -0.11587294 0.13054343 -0.021327492
000060 5d 2b bd 3d 4b 66 b5 bb e5 63 97 bd 0e fc de 3d
       0.092367865 -0.005535876 -0.073921 0.10887919
000070 48 78 0a 3e 5b b1 bc 3d ba 77 c2 3d 1f ca c8 3d
       0.13522446 0.09213515 0.09495492 0.098041765
000080 12 4c 5b 3d 6b 7e 86 3c bc ba 03 3d c7 8c bf bd
       0.053539343 0.016417703 0.032160506 -0.09353023
000090 35 f5 7d 3c e0 52 9d bc 3b 5f 31 3e f0 11 71 3d
       0.015500356 -0.019204557 0.17321484 0.058854997
0000a0 c7 db e5 3d 49 bd c7 3d 8d 39 1b bd b5 92 1a bd
       0.1122356 0.097529 -0.03789668 -0.037737567
0000b0 e8 ea 03 3e 7d 29 40 bd 13 39 2b bd fb e9 ef bb
       0.12882578 -0.046914566 -0.041802477 -0.007321594
0000c0 2a 01 a7 bd 97 2b c9 3d e4 ec 05 bd 7d d5 96 3c
       -0.08154519 0.09822767 -0.03269662 0.018412346
0000d0 f8 c8 0d bd e2 ab a0 3d a8 c0 b1 3d da 13 e7 3d
       -0.034615487 0.07845284 0.086793244 0.11283083
0000e0 19 55 15 3e 84 e6 9a 3c 00 76 46 bb 60 61 1b 3e
       0.14583243 0.018908747 -0.0030282736 0.15173864
0000f0 6f 13 97 bc 93 40 06 bd 88 e5 5e bd 98 5f c1 3c
       -0.018441884 -0.032776427 -0.054418117 0.023605153
000100 5e 69 ef bb 8f 11 5a bc c3 e9 42 3e 9c e8 3e bd
       -0.007306262 -0.01330985 0.19034486 -0.046608552
000110 a3 dd 45 3e 3f 73 d7 bd 65 8d 7d 3c a1 cc 04 be
       0.19322829 -0.10520028 0.015475606 -0.12968685
000120 4c d8 5c 3e c5 0c 0e 3e 01 ae 0a 3e 92 ce 0e 3e
       0.21566886 0.13872059 0.1354294 0.13945988
000130 7f 5f 46 3e 71 41 f5 3d 49 33 82 3c 65 22 91 3d
       0.19372366 0.119753726 0.015893595 0.07086638
000140 21 1e 0a be ce a0 9d 3d 05 36 30 be f2 c5 1e 3e
       -0.13488056 0.07696687 -0.17208107 0.15505198
000150 49 32 98 bd 29 42 5d 3d d2 02 77 3e 0d 51 85 3e
       -0.07431466 0.054018173 0.2412217 0.260384
000160 eb a7 eb bc bc bf 35 3d 74 62 59 bd 82 28 ad 3d
       -0.028766593 0.044372305 -0.053072408 0.08454992
000170 09 3d 66 3e d8 62 8e 3d 0d 23 84 3e 17 19 fc 3d
       0.2248422 0.06952447 0.25807992 0.12309473
000180 51 8f 9c be 0d 7a 57 bd 22 df 54 be 41 69 a4 3e
       -0.30578092 -0.05260663 -0.20788243 0.32111552
000190 b2 ef 17 3e 7d bc 4f 3e e8 e8 e3 3d ef be 66 3e
       0.1483753 0.20286746 0.11128408 0.22533773
0001a0 c8 9b 8b 3e cf cf 5b 3d 8a a9 7c 3e a5 c6 95 bd
       0.2726729 0.05366498 0.24674049 -0.07313279
0001b0 b8 ae 3b 3e e5 6d 75 3d de bb fa 3d 6a f7 03 bd
       0.18328369 0.059919257 0.12242864 -0.032218374
0001c0 2b d9 10 3e 2e 02 59 3d e9 a6 6b bd 99 69 d7 3d
       0.14145343 0.052980594 -0.057532225 0.10518188
0001d0 90 da ef 3d f9 db 17 be 77 53 03 3e 7b 36 e7 bd
       0.11711609 -0.14830007 0.12824808 -0.11289688
0001e0 b4 2d 4a bd 20 24 9f 3d 9f 98 35 3e a4 9b c2 bd
       -0.049359992 0.07770562 0.17734002 -0.09502342
0001f0 a1 44 14 be dc f1 5d bd dc 6f 04 3e cf 0a a9 3d
       -0.14479305 -0.054185733 0.12933296 0.08254015
000200 21 fc 41 3e 42 e2 7c 3d 61 dc f1 3b ae 92 f5 bd
       0.18943836 0.061739214 0.0073810075 -0.119908676
000210 f6 a0 22 be 1e 13 20 be 0c 75 19 3e 75 50 02 be
       -0.15881714 -0.15632293 0.14986056 -0.12726004
000220 24 86 c6 3d a9 a7 95 bd e4 1b 3b 3e 49 9a 8f 3d
       0.09693554 -0.07307369 0.18272358 0.070118494
000230 38 1f 18 3e 48 c1 5d bd f7 c9 e9 bd 83 8b 23 bd
       0.14855659 -0.054139405 -0.11415475 -0.03992797
000240 b8 28 3b bd 35 57 c4 bd 22 21 42 bd b6 cb fa 3c
       -0.04569313 -0.09586946 -0.04739488 0.030614715
000250 7d 21 8d 3d 34 f3 ef bd 07 25 e0 bd e6 40 f7 bd
       0.06891153 -0.11716309 -0.109445624 -0.12072925
000260 c6 e2 2d 3d f8 46 d4 3c 64 a4 42 3d b7 0d 91 bc
       0.042452596 0.025912747 0.047520056 -0.017706735
000270 43 75 eb 3d 44 03 ce bc df 23 7a 3d 1d 7f c9 bd
       0.11496975 -0.025148042 0.061069366 -0.09838698
000280 48 6e ad bd a2 72 9d bc eb 3b 88 3c fc 69 bf 3d
       -0.084683 -0.0192197 0.016630134 0.09346387
000290 1e eb 3a bd e7 b2 93 3d b1 fd 46 3d 93 50 14 3e
       -0.04563438 0.07211857 0.048581783 0.14483862
0002a0 24 39 2a be 36 60 39 bc 58 77 01 3e c4 c4 46 3e
       -0.1662336 -0.011314442 0.12643182 0.19410998
0002b0 8d 3a 22 3e 79 af 2a 3e ae 0a b4 bc f8 db 10 3e
       0.15842648 0.166685 -0.021977749 0.14146411
0002c0 62 62 f8 3d 3e 1a 27 bd 44 17 1d 3e 0c f3 04 3c
       0.1212814 -0.04079651 0.15340906 0.0081145875
0002d0 02 9c ac 3d a4 03 7a 3d e2 b7 03 be 80 06 21 bd
       0.08428194 0.06103863 -0.12863114 -0.03931284
0002e0 12 76 0d be 80 3b bc 3b e7 97 01 be 92 ff 27 3e
       -0.13814571 0.0057443976 -0.12655602 0.16406086
0002f0 c1 f5 95 bd df 1d a0 3d 91 04 b1 bd 3f 4b ff bd
       -0.073222645 0.078181975 -0.08643449 -0.12465524
000300 f3 90 2d 3e b6 84 ad bd 14 92 21 3e d1 e7 c3 bd
       0.16949825 -0.08472578 0.1577838 -0.095657
000310 aa 9d 16 3d 03 b4 a8 bd bc 6b 86 ba 37 4c 83 bc
       0.036771454 -0.082374595 -0.0010255496 -0.016027553
000320 c1 83 bf bc 9a bf 02 3c 61 65 6f 3d c2 73 02 3d
       -0.023378255 0.007980252 0.05844629 0.031848677
000330 69 ff f1 3d 4d f9 2a be 55 58 41 3e 84 25 3f bd
       0.11816294 -0.16696663 0.18881352 -0.046666637
000340 e2 3e c2 bd 6a 6a 92 bd 08 b7 ed 3d eb c6 d1 3d
       -0.0948465 -0.07149203 0.11607176 0.10243019
000350 db d7 4c bd 2f 6a 05 3e 12 ce b8 bd fd 4a fe bb
       -0.050010543 0.13028787 -0.0902368 -0.007760404
000360 bb 3a 13 3e 52 95 04 3e 30 45 19 bd 80 46 48 bc
       0.14377873 0.12947586 -0.037419498 -0.01222384
000370 71 c4 01 3e eb 99 12 be 3f 8d c4 bb 3a 1d 68 bd
       0.12672593 -0.14316528 -0.005998283 -0.056668498
000380 b9 62 87 35 b6 00 e6 bc 33 f0 07 be 82 9e cd bd
       1.0087016e-06 -0.02807651 -0.13275222 -0.100399986
000390 0f c2 2c 3d fb a2 5a bc f6 08 23 3e 25 3e 04 be
       0.042177256 -0.013344522 0.15921387 -0.12914331
0003a0 d0 68 e4 bd 16 05 03 be 47 30 0f 3e 06 55 41 3e
       -0.11152804 -0.12794909 0.1398326 0.1888009
0003b0 b5 66 a3 bd eb 59 47 3d c6 f9 90 bd f0 4a 08 be
       -0.07978574 0.048669737 -0.070788905 -0.13309836
0003c0 a4 67 c4 bc 28 d9 4b bd 30 e5 19 3e 33 91 5c bb
       -0.023975201 -0.049767643 0.15028834 -0.0033655881
0003d0 81 f7 bd bc 5f b3 f6 3d 30 4c 16 3e f5 e8 d4 bd
       -0.023189308 0.12045931 0.146775 -0.103959955
0003e0 75 f7 10 3e 4e 63 e2 bd 9c 30 ef 3d 01 9c 97 3d
       0.14156897 -0.11054097 0.116791934 0.07402802
0003f0 28 af 1d 3e d0 ea f0 bd 90 a8 9f bd 9f dc ec bc
       0.15398848 -0.11763537 -0.077958226 -0.028913794

FC1.bias f4 [256]
000000 11 fc 07 3e ac 3d 0e 3e c1 53 af 3e d7 c1 c4 3a
       0.1327975 0.13890713 0.34243587 0.0015011382
000010 70 d2 ca bc ae cf ce 3b 6b 3a 5d bd 7a db 6e bd
       -0.024758548 0.0063113784 -0.05401079 -0.058314778
000020 be 18 1b be c0 3a 0a bd f0 60 7b bd 32 46 78 bd
       -0.15146157 -0.033747435 -0.061371744 -0.06061382
000030 64 be fb bd c8 61 28 3e 27 f9 e2 3c e5 be 23 bc
       -0.122921735 0.1644355 0.027706696 -0.009994243
000040 50 d8 da bd 3b ee f1 3a 7c 35 ff bd be 3c b5 bd
       -0.106857896 0.0018457839 -0.12461373 -0.08849476
000050 6f 3b 8d bc 47 d9 91 bd 6e f1 30 3e ef 7a 80 bd
       -0.017240254 -0.071215205 0.17279598 -0.06273448
000060 82 cf c1 3d 72 65 f9 3c 53 8c 35 bc 71 22 dc bb
       0.09463407 0.03044388 -0.011080819 -0.006717973
000070 41 79 c0 bd 70 3c 6b bb 1d c9 66 3d fa ae 01 3e
       -0.09398127 -0.0035894178 0.05634414 0.12664405
000080 31 64 a6 bd 65 fe d3 3c 60 98 09 3e bf 51 e4 bd
       -0.08124579 0.02587814 0.13437033 -0.11148404
000090 f6 7a a1 3c f6 d8 06 3e 91 e1 76 ba 9d 44 8e 3d
       0.019711953 0.13168702 -0.0009417767 0.06946681
0000a0 bf 95 c8 bc 9a 6d 15 be f4 26 2f 3e e5 6b d0 bd
       -0.024485467 -0.14592591 0.17104703 -0.10176829
0000b0 7d 94 2e bd 2e 62 b9 3c ce c2 06 be c8 1b 37 3e
       -0.04262208 0.022629824 -0.1316025 0.17881691
0000c0 f5 f0 0c be cc 20 e3 bd 3f 60 17 3e 75 3b e5 bd
       -0.13763793 -0.1109024 0.14782809 -0.11192981
0000d0 e8 f4 6c ba e5 cd 98 3c 7f 81 18 bd 24 3d 34 3e
       -0.00090391794 0.018652866 -0.037232872 0.17601448
0000e0 eb a8 d7 3d 2c 65 b2 3c 7a be 2e 3e cd 7d 33 3e
       0.105302654 0.021776758 0.17064849 0.17528458
0000f0 07 63 ea bd 13 6a 19 bd 4d c3 03 be 63 81 88 bd
       -0.11444669 -0.037454676 -0.1286747 -0.066653036
000100 c5 3f 03 bd 4c c1 46 3d 08 22 35 3e 43 41 30 be
       -0.032043237 0.048524186 0.17688763 -0.17212395
000110 d1 d4 6b 3c 48 bf 39 bd 8f 0d 69 3d cf 3e ca 3c
       0.014394001 -0.045348436 0.056897696 0.024688153
000120 a6 ef 03 bd 86 94 3a 3d 18 96 2b 3e fb 47 84 bd
       -0.03221097 0.0455518 0.16756475 -0.06459042
000130 70 43 8f 3d b0 44 24 3c 80 a3 3a bc 12 37 f7 bd
       0.069952846 0.010026142 -0.0113915205 -0.12071051
000140 f3 a9 e9 3d 40 35 00 3d 90 70 84 3c 04 be ce 3d
       0.11409368 0.031300783 0.016166955 0.10094836
000150 e9 df 80 3d f5 69 d2 3d cc ad c5 bd 2f 26 dc bb
       0.062927075 0.10274116 -0.0965229 -0.006718419
000160 15 10 c6 bc 85 d7 fd 3d 90 53 b2 bc 59 6a 96 ba
       -0.02417759 0.12394623 -0.021768361 -0.0011475786
000170 33 0b 7b 3d 78 71 1b be c7 95 9a 3d 86 94 67 3d
       0.061289977 -0.15180004 0.07548099 0.056538127
000180 b5 d7 f8 bc 63 fd 45 3c f5 1d a5 bd fd 1a 0c be
       -0.030376295 0.012084338 -0.080623545 -0.1368217
000190 73 8a e0 bd 62 d7 ee 3d a0 18 2f 3c e9 d1 aa bd
       -0.10963907 0.11662175 0.010687023 -0.083408184
0001a0 7c 07 24 3d 06 37 b5 3d a5 8b 04 b9 17 a5 9f 3d
       0.0400462 0.088483855 -0.00012640523 0.0779516
0001b0 62 e0 78 bd 9c 05 a7 3d dc b0 11 3e 02 47 f8 3c
       -0.060760863 0.08155367 0.14227623 0.030307297
0001c0 40 3c 19 3e 46 27 57 bd 06 87 95 3d 01 df 99 bd
       0.1496439 -0.05252769 0.07301144 -0.07513238
0001d0 42 3c 9b bc 1f cb 33 3e 7c d4 2d 3e b8 1d 1e 3e
       -0.018949632 0.17557953 0.16975588 0.15441024
0001e0 e5 50 f1 3d cb 0b 30 3d f5 86 74 bb 14 7f c0 3d
       0.117830075 0.042979997 -0.0037311886 0.09399238
0001f0 b0 ae 0a be 62 1a 12 3e 2e 20 8e bd 7a 0e 83 3a
       -0.135432 0.14267877 -0.069397315 0.0009998821
000200 97 49 76 3d cb cc 03 be a2 6f a3 bd 6e 25 c8 3b
       0.060128774 -0.12871091 -0.07980277 0.0061079776
000210 9a 15 e5 3d 84 f0 6f 3d ee c0 3d 3e 84 a7 3f 3e
       0.11185761 0.058578983 0.18530628 0.18716246
000220 86 b3 be bd 9d 98 18 be e8 07 ea bd 57 76 b6 3d
       -0.09311585 -0.14901967 -0.11427289 0.0890929
000230 e3 83 f8 3b 50 47 30 3d b8 a4 f7 3c 44 1b 6e bd
       0.0075840815 0.04303676 0.030229911 -0.05813147
000240 b6 ab ea ba 9b 16 c0 3d 05 fe 9f 3d 10 ac a7 bd
       -0.0017903957 0.09379312 0.07812122 -0.08187115
000250 58 a2 2e 3e c7 d9 42 3e ae 61 4e bc 55 28 98 bd
       0.17054117 0.19028388 -0.012596531 -0.07429568
000260 65 10 c2 bb 11 9f ca 3d 10 c9 13 3d 58 3f 4b bd
       -0.0059223645 0.09893621 0.03608042 -0.049620956
000270 3c 99 b4 3d 06 3e d6 bd b6 10 94 bd 01 32 f9 3d
       0.0881829 -0.10461049 -0.0722975 0.121677406
000280 54 61 13 bd 95 0d d7 bd 8c 44 d7 3c 74 1d 89 3c
       -0.03598149 -0.105006374 0.026277803 0.016737677
000290 80 ab d8 bd ea cf 34 3e f2 c8 b9 bb 24 a9 f8 3d
       -0.10579586 0.17657438 -0.0056697065 0.12141636
0002a0 5c f0 33 3e b8 af a6 3d 5e c8 fc 3d 22 63 c5 bd
       0.17572159 0.081389844 0.123429045 -0.09638049
0002b0 7b 5a 11 3c 7c 6d c2 bd 1e 79 9e bc f8 c0 02 be
       0.00887167 -0.09493539 -0.019344863 -0.12768924
0002c0 c4 92 c2 bd cf 5c bf 3d e8 bf 1c be 8c 8c 52 bd
       -0.095006496 0.09343874 -0.15307581 -0.051403567
0002d0 29 5c a4 3d 81 f4 d6 39 a6 11 3d 3e 14 b4 20 bd
       0.08025391 0.0004099943 0.18463764 -0.039234236
0002e0 32 50 22 be 86 30 d1 3c 84 ea 06 3e d7 b6 a8 bd
       -0.15850905 0.025535833 0.13175398 -0.08237999
0002f0 8c a9 af 3c 3e d1 be 3d f1 39 59 bd e6 1a 8a bd
       0.021443151 0.093172535 -0.053033773 -0.06743412
000300 c9 1e 00 3e 5b 2d 03 be 75 80 f1 3c a4 e1 78 3b
       0.12511744 -0.1281027 0.029480198 0.003797629
000310 71 3f 9f bd 27 88 19 bc b4 23 00 3d 1b 7e a1 bc
       -0.07775772 -0.00937084 0.03128405 -0.019713452
000320 9f 23 b5 3d 57 37 ac 3d df 26 8d 3d 3c c2 eb 3d
       0.08844685 0.08408993 0.0689218 0.11511657
000330 f7 a3 06 be 63 03 ce bd 91 d9 16 3e 24 9f 46 bd
       -0.13148485 -0.1005924 0.14731432 -0.048491612
000340 a8 22 b9 bc be 80 db bc 86 e5 85 bd 22 0d 2f 3e
       -0.022599533 -0.026794787 -0.06537919 0.17094854
000350 e3 8e d9 3c 8d a9 69 bd 9f d2 1d 3d 46 c8 17 be
       0.026557392 -0.05704646 0.038530942 -0.14822492
000360 51 d1 0b 3d 2e a6 0a 3e 4f 99 98 bd 4d ce a6 bc
       0.034135167 0.13539955 -0.07451116 -0.020362044
000370 77 db c9 bd 44 ac 7d 3d 8d 58 12 bd f2 24 50 bd
       -0.09856313 0.061931863 -0.03572898 -0.050816484
000380 33 60 07 3e e5 2c a1 bc 23 e8 3a 3e 22 6d e3 3d
       0.13220291 -0.019674728 0.18252616 0.111048
000390 c4 80 30 3e 51 f7 d2 bd 7f bf 1a 3e 1f 33 08 bd
       0.1723662 -0.10301078 0.15112112 -0.033251878
0003a0 c7 60 77 bd b4 a8 b0 bd 4c d2 92 bd 11 8b 00 bc
       -0.06039503 -0.086259276 -0.07169017 -0.007845656
0003b0 32 20 5d bc 7c 96 07 3e 10 14 7e 3d f5 1b 00 3e
       -0.0134964455 0.13240999 0.06203085 0.12510665
0003c0 ad 95 fa 3c 41 06 2d 3e 87 2f 88 bd 68 bf a5 3d
       0.03058895 0.16896917 -0.0664969 0.080931485
0003d0 bb 29 36 3e ef 99 42 3c c3 15 bd 3d 00 3a d8 bd
       0.17789356 0.011877521 0.09232666 -0.105579376
0003e0 d7 48 0f 3e b2 ed e8 bd ed 52 68 bc 50 ac c5 bc
       0.1399263 -0.11373462 -0.014179927 -0.024130017
0003f0 97 4c 2e 3d 06 88 ca bd d7 d5 e6 bd 9f 8c cd 3d
       0.04255351 -0.09889226 -0.112712555 0.10036587

FC2.weight f4 [256, 256]
000000 98 2b 8f bc 75 ef 69 bb 2b 0f 3e 3b 0a 11 18 3d
       -0.017476842 -0.0035695706 0.002900074 0.037125625
000010 d8 f5 71 bd 4c cc 3c 3d b8 b2 97 bc 13 ca 92 3c
       -0.059072345 0.04609327 -0.018517837 0.017918622
000020 68 f1 ea 3c d8 12 3a bd 51 11 08 3d 73 e4 de 3c
       0.028679565 -0.045428127 0.03321964 0.027208542
000030 15 9d 70 bd 92 95 57 bd 3d 04 52 bd 4e 0d 16 3b
       -0.058743555 -0.052632876 -0.051273573 0.0022896114
000040 ae 38 44 3d 16 59 79 bd dc ab 32 bd ef f6 de bb
       0.047905616 -0.060875975 -0.04362093 -0.006804339
000050 1f 78 77 bd e3 aa 00 bd 68 26 a2 bc a2 3b 01 bd
       -0.06041729 -0.03141297 -0.019793704 -0.03155101
000060 7d 05 a2 3c 37 2b 56 bd 68 31 6a bd 0f 61 12 bd
       0.019778008 -0.052287307 -0.057176024 -0.035737094
000070 9e 18 ed 3c 6b 20 a6 bc b7 cc c4 bb 55 d9 c0 3c
       0.028942402 -0.02027913 -0.006005849 0.023541132
000080 c2 b5 a2 bb 06 6b dd 3c a2 62 14 bd 76 8c 3c bc
       -0.004965515 0.027028572 -0.036226876 -0.011508098
000090 96 30 1b bd 33 8f a9 3c 5a 2f e3 3c 10 92 1e bc
       -0.037888132 0.020698166 0.02773254 -0.009678379
0000a0 50 6e de bb 36 a5 08 3d 0a a0 1c 3d 5a df 04 bd
       -0.0067880526 0.033360682 0.038238563 -0.032439567
0000b0 6d 1e 8f 3c 35 97 5b bd da 9e 0b bd 2e 1f 29 bd
       0.017470563 -0.053611 -0.03408704 -0.0412895
0000c0 14 a8 5b bd 21 6d 45 3c c8 20 26 bc 62 d0 2b bd
       -0.05362709 0.012049944 -0.010139652 -0.041946776
0000d0 aa bd 44 bc 40 5d 13 bd df 58 9b 3c f4 c4 88 bd
       -0.01200811 -0.035977602 0.018963275 -0.06678191
0000e0 5d 9b c1 3b 17 b3 09 3d be cf 4d 3d 98 8c db bc
       0.0059084133 0.03361806 0.050246947 -0.026800439
0000f0 90 19 19 3d b9 ab bb bc 76 e3 20 3d 0d f5 92 bd
       0.037377894 -0.022909032 0.039279424 -0.07175646
000100 b2 22 0b bd e7 ea 59 bd f1 da 10 bd eb 5e 47 3d
       -0.033968635 -0.053202536 -0.03536505 0.048674505
000110 3c 25 55 bd 70 f7 f6 3b 1a 2c 13 bd e1 81 c0 3c
       -0.052037463 0.007536821 -0.03593073 0.023499431
000120 fc dd 90 bd d7 6c c3 bc 63 18 78 3c 96 23 f9 3c
       -0.0707359 -0.02385561 0.015142533 0.030412477
000130 62 dd 83 3d fd f1 1b bb dc 36 f2 bc 98 45 38 bc
       0.0643871 -0.002379536 -0.029567175 -0.011247061
000140 ba b7 f7 3c f8 00 83 bc 10 40 02 bd 32 b1 44 3d
       0.030238975 -0.015991673 -0.031799376 0.04802055
000150 48 26 89 bc eb b0 86 bd 17 2a ed 3c 0c 17 93 3b
       -0.016741887 -0.06576713 0.028950734 0.0044888314
000160 d6 76 81 3b 24 00 4b 3d 1d 40 45 bd bb 35 67 3d
       0.003950934 0.04956068 -0.048156846 0.056447726
000170 49 5f 6f bd 8d 62 aa 3b 0d f7 07 3d bc 04 73 bd
       -0.05844048 0.0051997364 0.03319459 -0.059330687
000180 04 ee fa bc 7d 45 c3 3c e0 cf 07 3b c4 ab 11 3c
       -0.030631073 0.023836846 0.0020723268 0.00889105
000190 37 9b 38 3c a2 a5 58 3c 6a 9b 15 bd 46 be 42 3d
       0.011267475 0.013223084 -0.036525168 0.04754474
0001a0 bf 42 07 3d 69 84 5c bd 49 9e 2e 3d ad 54 08 bc
       0.03302264 -0.053837214 0.04263142 -0.0083209695
0001b0 18 7b 16 bd 65 54 52 3c 16 f3 72 3d 66 65 2a bd
       -0.036738485 0.012837504 0.059313856 -0.041600607
0001c0 d0 15 31 3d 58 0c 5e 3d 7f 7e 8a 3c 6f 0d fe 3c
       0.043233693 0.05421099 0.016906021 0.031012265
0001d0 aa d5 9c ba 3c 11 9d bc 49 c1 f8 bc 02 db 7b 3d
       -0.0011965532 -0.019173257 -0.030365603 0.06148816
0001e0 df 2e ce bc 69 d9 a6 bc 40 4b 20 3d e5 8a ed 3c
       -0.025168834 -0.020367341 0.039134264 0.028996894
0001f0 f2 30 1f bd 40 47 95 bd 28 9e 1d bd ea dc 20 bd
       -0.038865037 -0.072889805 -0.038480908 -0.03927318
000200 b5 75 29 3d 70 56 bb 3c 17 89 cc bc 6c 38 72 3b
       0.04137202 0.022868365 -0.024967713 0.00369599
000210 72 6a 21 3d f3 ce dd 3c b4 1f a9 bc f4 b5 ed bc
       0.039408155 0.02707622 -0.020645 -0.029017426
000220 18 b4 aa bb 54 af 86 bc 82 ac 2d bd d7 e3 9f 3c
       -0.005209457 -0.016441025 -0.042400844 0.019517822
000230 c3 ce 6f bd da da 64 3d ab f4 1f bd 20 2b 24 3d
       -0.058546793 0.055872776 -0.039051693 0.04008019
000240 1f 78 85 3d 3d 26 5d bb f5 c7 0c bc a6 ae 14 3d
       0.06517052 -0.0033744716 -0.008592595 0.03629937
000250 85 76 9c bc e5 02 86 bc 68 1e 0c 3d 7c bf bb bc
       -0.019099483 -0.016358802 0.034208685 -0.022918455
000260 7a c3 57 3d ed 83 1a 3d 96 02 f5 3c e2 00 5e bd
       0.052676655 0.03772347 0.02990846 -0.05420006
000270 b4 2a 9e bb 68 b2 a8 bc 36 bd 82 bd e3 e8 3c bd
       -0.004826868 -0.020592883 -0.06383745 -0.046120536
000280 68 8a 1f bd 88 d3 2e bd b8 cd 4a bd a4 74 b5 bc
       -0.038950354 -0.0426822 -0.049512595 -0.022150345
000290 b7 52 9a bc 51 bf 1b 3b d1 86 bd 3b b5 fb 2d 3d
       -0.01883827 0.0023765157 0.0057838936 0.042476375
0002a0 97 2b 90 bc 07 3e 8f bd 43 8b 6e bd bb e0 09 3d
       -0.01759891 -0.06994253 -0.05823828 0.033661585
0002b0 1d bd 92 3d e6 cb 35 3a 03 3a 93 3c 23 0c 38 bd
       0.07164977 0.0006934985 0.017971998 -0.04493345
0002c0 a1 7b 94 bc 36 9e 87 bc 97 0b a1 3c a6 df 1c 3c
       -0.018125357 -0.016554933 0.019658847 0.009574806
0002d0 65 f1 1a bd cd 19 0a 3c 57 00 f9 3c f5 32 7a bc
       -0.037827868 0.008429003 0.03039567 -0.015270938
0002e0 a6 02 d5 bc 00 f6 df 3a da f2 11 bd 1f 2b fa 3c
       -0.02600224 0.0017086864 -0.035631992 0.03053814
0002f0 5f c2 37 3d 89 16 86 3c 77 c1 e7 bc 60 aa 8f bc
       0.0448631 0.016368167 -0.028290493 -0.017537296
000300 6b 19 4d bd 97 af b9 bb 70 60 03 bc a8 94 d1 bb
       -0.05007307 -0.005666684 -0.008018598 -0.006395895
000310 1b 03 27 3d 0d 2e 12 bd 7c 68 16 bd f6 3f e0 3b
       0.040774446 -0.03568845 -0.036720738 0.0068435622
000320 78 90 2c bc f0 b0 42 3d 44 30 cc 3c cf 3b 12 bc
       -0.010532491 0.047532022 0.024925359 -0.008925392
000330 a1 21 91 3b 10 21 aa bc cb 53 4c 3c e5 2d 93 3b
       0.0044290577 -0.020767719 0.01247115 0.004491555
000340 70 3e ec bb 58 db 6b bd ec 4a d3 3c c3 83 01 3d
       -0.0072095916 -0.05758223 0.025792561 0.0316198
000350 d9 d8 10 bc 64 01 b4 bb 04 ff b8 bc 3e 30 41 3d
       -0.008840763 -0.00549333 -0.022582538 0.047165148
000360 fb 70 00 3d 60 d4 20 bd 97 f3 07 bc 77 b9 c7 3c
       0.031357747 -0.039265037 -0.008297822 0.024380429
000370 9a b2 52 bc 13 7d 97 bc b2 d6 aa bc cd e7 34 bd
       -0.012859965 -0.018492257 -0.020854328 -0.044166375
000380 21 03 2e bd a4 6c ab 3c 25 0e 66 bc dd 1e 06 3d
       -0.042483453 0.020925827 -0.014041458 0.032744277
000390 e7 0c 38 3d eb f4 97 3c 6d 82 4e bd a2 af 6b 3d
       0.04493418 0.018549403 -0.050417352 0.057540543
0003a0 49 b7 09 3d 45 72 e4 3c ed 33 ca bb e4 d9 a9 3c
       0.03362206 0.02788652 -0.006170741 0.020733781
0003b0 99 d1 5a 3d 6e 81 4a bd 56 d8 a5 3c da 9b 32 3c
       0.053422544 -0.04943984 0.020244759 0.010901416
0003c0 36 21 dd 3c 46 69 24 bd 2b a2 80 3c 2c f6 87 3c
       0.026993375 -0.04013946 0.015702328 0.016596876
0003d0 5c b4 3c bd 16 9a 81 bd 92 35 3c 3d 40 8b e2 bc
       -0.04607044 -0.06328218 0.045949526 -0.02765429
0003e0 85 7c 49 bd a2 da 8a 3d cf 3e 87 bd cb e2 69 3d
       -0.049191017 0.06779982 -0.06603777 0.057101052
0003f0 a5 24 72 3d 8f dc 6a 3b db de 20 bc 13 f8 b2 3c
       0.05911698 0.003583703 -0.009818758 0.021846807

FC2.bias f4 [256]
000000 d9 86 23 bd 9a 18 36 bd a6 a8 3a bd d0 f4 27 3c
       -0.039923523 -0.044457056 -0.045570992 0.010251239
000010 57 aa fe 3c 41 6f 7f bc dd 77 9f 3c 8f 47 bb 3c
       0.031087084 -0.01559049 0.019466335 0.02286127
000020 ea 31 81 3c 85 dd 6c bc e4 7a 65 3d 24 74 4b 3d
       0.015770871 -0.014457111 0.0560254 0.049671307
000030 a1 20 a1 3d 36 a2 7b 3c 84 59 dc 3c 36 90 70 3d
       0.078675516 0.015358498 0.026898153 0.05873128
000040 b0 6e b6 bb 60 b2 0f 3d f0 05 03 bb 9c 74 18 3d
       -0.005567394 0.03508222 -0.0019992553 0.037220582
000050 cc cc fb 3c 90 9a c3 3c ac 2d a5 bc f8 35 f2 3c
       0.030737303 0.023877412 -0.02016338 0.02956675
000060 b5 ca b6 3c cf 84 57 3b d5 f1 76 3b 33 1c ad 3d
       0.022313455 0.0032885557 0.0037680764 0.08452644
000070 54 ee 5d 3c ef 36 bc bc 17 f4 30 bd d3 de 13 3d
       0.013545591 -0.022975413 -0.043201532 0.036101174
000080 b6 68 8f bd 8a 47 89 3d 69 62 dc bc 0e 64 f9 bc
       -0.07002394 0.06703098 -0.026902394 -0.030443218
000090 dd 1f a4 3d a9 76 8d bb 35 f0 87 3d 1a 71 40 bc
       0.0801389 -0.004317124 0.06637613 -0.0117457155
0000a0 66 08 da 3c f5 5d b5 bc ec d5 b1 bc 65 20 b1 3d
       0.026615333 -0.022139529 -0.021708451 0.08648757
0000b0 e8 d3 31 3c 87 3e 72 3d 46 91 65 bc 44 4b ea bc
       0.010853745 0.059141662 -0.014011687 -0.028600343
0000c0 3c 1e 93 bb 83 b1 97 3d 6c ee e0 bc e1 31 91 bc
       -0.004489688 0.074069045 -0.027457438 -0.01772398
0000d0 76 49 3a bd fb 7f f5 3b 25 1f 9d 3d 61 da 94 3d
       -0.045480214 0.007492063 0.07671956 0.07268215
0000e0 72 c3 29 3d d2 0f 44 3d 55 e9 84 3d d4 00 3e bd
       0.041446157 0.04786665 0.06489817 -0.04638751
0000f0 e3 58 4e bd 02 97 59 bd 20 f7 48 bd 22 a0 8c ba
       -0.050377738 -0.053122528 -0.0490638 -0.0010728876
000100 44 62 2d bc b5 ea 6a bd 0e fa 17 3c ea ce 52 3d
       -0.01058251 -0.05735274 0.009275926 0.05146686
000110 f1 3c 65 bd 3c 4c 5c 3d ba 24 56 3d 6f 52 65 3d
       -0.05596632 0.05378364 0.05228112 0.055986818
000120 c9 0c fd bb fb fd 97 3d 58 dc 4a bd 95 db 86 bc
       -0.0077224714 0.0742149 -0.049526542 -0.016462127
000130 51 35 c8 bc bb 45 dc 3c 8f 57 81 3d 38 be 05 bd
       -0.024439486 0.026888719 0.063155286 -0.03265211
000140 3d 69 32 3d a6 17 62 bd ea 7b ea 3c 4b 46 54 3d
       0.043557394 -0.055198334 0.02862354 0.05182485
000150 f6 7a 1d 3d b4 c6 95 bd 7a 21 84 bc b5 41 47 3d
       0.038447343 -0.0731329 -0.016129244 0.048646647
000160 ce 2d f2 3c d3 48 fb bc d8 da e0 3a ba 18 3a 3d
       0.029562857 -0.030674374 0.0017155064 0.045433737
000170 f1 18 11 3d 1f 6d 61 bd 49 5b 27 3d a1 f0 27 3d
       0.035424177 -0.055035707 0.04085854 0.041000966
000180 a4 24 99 3c 7a 8a df bc 14 e4 29 3d cc 24 07 bd
       0.01869423 -0.02728771 0.041477278 -0.032994077
000190 58 d8 1d bd 63 3c 46 bd 8f 94 3b bd d0 b1 0f bc
       -0.0385364 -0.048397433 -0.045795973 -0.008770421
0001a0 22 4f ae 3c 7f 94 51 bd 4c 9a 02 bd 9b f3 29 bc
       0.021277968 -0.051167008 -0.03188543 -0.0103730215
0001b0 17 8e 7e bd c3 cc d9 3c d9 b2 b1 bc 8d ce 5d bd
       -0.062147226 0.026586896 -0.021691727 -0.05415206
0001c0 18 2d 34 bc 44 1e 71 bd 6f 55 8d bd 03 93 9c bc
       -0.010997079 -0.058866754 -0.06901061 -0.01911307
0001d0 93 4a a6 3c 50 2f 2f bd b5 18 1e bc 8c 7c b3 3d
       0.020299232 -0.04276973 -0.009649445 0.0876399
0001e0 c7 2f 06 bd 40 d9 1e 3d 75 64 db 3c 02 23 5e 3d
       -0.032760408 0.038781404 0.0267813 0.054232605
0001f0 60 0a 9d 3d 86 4a ce 3c 39 14 14 3c ac 8f 6a 3d
       0.076679945 0.02518202 0.009038025 0.057265922
000200 29 77 39 3b eb 74 aa bc d4 68 51 bc 7d 91 2c bc
       0.0028299785 -0.020807704 -0.012781341 -0.010532734
000210 e5 a4 06 3b 08 8c 7d bd a1 c3 05 bd 84 7d 8a 3d
       0.0020545062 -0.061901122 -0.03265727 0.067622215
000220 a3 63 a9 3c ed e3 b2 3d 46 ce a4 3c ef 5b 76 bd
       0.020677393 0.0873488 0.02011789 -0.06014627
000230 3e 5b 98 3b 7b ff 61 3d 24 df a0 3d 27 e3 c2 bc
       0.004649549 0.055175286 0.07855061 -0.023789955
000240 ec f1 a4 bc 25 59 69 bd b5 b1 ff bb 7b 44 51 bd
       -0.020134889 -0.05696978 -0.0078031668 -0.0510907
000250 d4 4a 83 3d 70 af 23 3d 03 54 96 3c 7c c8 b0 3d
       0.06410757 0.039962232 0.018350607 0.08631989
000260 34 83 2f 3d b3 29 16 bd 19 d1 2e 3c b0 1b 4d 3d
       0.042849734 -0.03666086 0.01066997 0.050075233
000270 ec 94 71 bd cc 2e fa 3c 54 ed aa 3c ab 0a 34 3d
       -0.058979914 0.030539893 0.02086512 0.043955486
000280 e6 4b 85 3c 57 cd a8 3c 54 89 86 bc c9 5f 09 bd
       0.016271543 0.020605726 -0.016422905 -0.033538613
000290 ef 47 f3 bc 33 37 9f 3a 9a 8b a4 3d 7d 71 ef bc
       -0.029697387 0.0012147188 0.080344394 -0.02922892
0002a0 ec b5 91 3d 63 c3 95 bc 12 79 ad 3c 37 50 93 3d
       0.07114777 -0.018281644 0.021175895 0.07193034
0002b0 43 2d 9d 3d f4 08 40 3c 26 f5 77 bc 08 b0 e1 bb
       0.076746486 0.011720885 -0.015134132 -0.0068874396
0002c0 9d c4 4f bd 0a 81 c4 ba ee f9 c8 3c 52 57 56 bd
       -0.050724614 -0.001499207 0.024533238 -0.05232937
0002d0 76 5e c4 3b 44 17 f6 bc 86 04 aa bc 99 b1 f8 bc
       0.005992706 -0.03004039 -0.02075411 -0.030358123
0002e0 0f 2e e2 3c 8c a6 fc 3c 7b 62 1f bc cb 44 20 3d
       0.027609853 0.030841134 -0.009728069 0.039128106
0002f0 ee de 3b bc ca 20 f5 bc 94 52 a7 3d 05 ee 17 bb
       -0.011466725 -0.029922862 0.081700474 -0.0023182642
000300 f0 90 30 3d d8 aa f7 3c 21 95 8d bd 90 ed ac 3c
       0.043106973 0.030232832 -0.0691321 0.021109372
000310 72 ab 21 bd 9f 3b a8 3d 64 b9 4c 3d 8c e7 ce bc
       -0.039470144 0.08214497 0.04998149 -0.025256895
000320 6d 8d b1 ba 17 3a 13 3b f6 3f 02 bd 0c 08 10 bd
       -0.0013546176 0.0022465044 -0.03179928 -0.035163924
000330 59 a9 02 3c b5 a8 93 3d ad f1 a4 3d 88 4c 42 3d
       0.007974946 0.07209913 0.080539085 0.047436267
000340 a2 48 ef bb cb 6e 06 bd ca 03 1b 3d e7 ee bf bc
       -0.0073023597 -0.032820504 0.03784541 -0.023429347
000350 f2 49 b3 bb 88 3a 33 3d 9f 89 93 bd c8 4c 1f bc
       -0.0054714615 0.04375699 -0.072039835 -0.009722896
000360 ad 42 e7 bc aa 75 8c 3c f3 38 2d 3d 39 4d 5d 3d
       -0.028230036 0.01714595 0.04229064 0.054028723
000370 d2 e6 04 bd cc 60 a3 bc 34 2e 81 3d ca b0 7b 3d
       -0.03244669 -0.019943617 0.06307641 0.061447896
000380 e1 cb 68 bd ff 57 88 bd aa 2f d6 bb 5e 9a 82 bb
       -0.05683506 -0.06657409 -0.0065364437 -0.003985687
000390 cb 6f 19 bd f4 14 63 3c 77 31 c0 3c 4f 1f db 3c
       -0.03746013 0.013859976 0.023461087 0.026748328
0003a0 5b 4d 75 3d 3b e0 aa 3d 9a e3 0d bd a8 00 6f 3d
       0.059888225 0.0834355 -0.034640886 0.058350235
0003b0 f2 cb 0b 3d d0 86 73 3c 8e 2f 1c bd a2 9b a5 3c
       0.034130044 0.014863685 -0.03813129 0.020215813
0003c0 bb c3 28 3c 78 62 02 3d 49 66 2c 3d 40 50 c0 bc
       0.010300572 0.03183219 0.042089734 -0.023475766
0003d0 de 46 4d bd 14 9e 38 bc 5b 07 71 3b a2 ad 92 3d
       -0.050116412 -0.0112681575 0.0036778066 0.07162024
0003e0 74 21 c5 bb 51 63 f8 3c 1b 0c 2a bd 42 7d 84 bd
       -0.006015951 0.030320795 -0.04151545 -0.064692035
0003f0 f8 21 e7 bc 1c 1c 09 bd bc 86 4b 3d c9 cb 46 3d
       -0.02821444 -0.033474073 0.04968904 0.04853419

action_out.weight f4 [5, 256]
000000 6a 77 47 3d 4c 1f 93 3c 04 50 ce 3c 52 40 b0 bc
       0.048697866 0.01795926 0.025184639 -0.021515045
000010 43 a5 50 3c 97 08 ce bc a1 47 64 bc ef af 10 3d
       0.012734714 -0.02515058 -0.013933093 0.035324033
000020 01 d3 32 3d 54 de 2d bd 08 92 ac bd d8 32 85 3c
       0.04365826 -0.042448357 -0.08426291 0.016259596
000030 8d 67 99 3b 56 da 69 3c 1e 2c 3d 3d a4 dd 5a bd
       0.0046815337 0.014273247 0.04618465 -0.05343403
000040 90 b0 d0 bb 91 cd 18 bd eb a4 e8 3c 45 db b2 3c
       -0.006368704 -0.03730542 0.028398952 0.021833071
000050 95 d7 ed 3c 03 1f 6a bd c7 c0 e1 37 97 a2 5e 3d
       0.029033462 -0.05715848 2.691186e-05 0.054354277
000060 2e 41 09 3d 6f ef 87 bb fa 71 e5 bb 4e 70 73 bd
       0.033509426 -0.0041484158 -0.0070021125 -0.059433274
000070 cb 10 db bc 44 fa 56 3d 9e 2e d9 bc be 88 c1 3c
       -0.026741406 0.052484766 -0.026511487 0.023624774
000080 7f a8 10 bd 7b 81 01 bd d4 82 47 3c 69 5b 33 bd
       -0.03531694 -0.031617623 0.012177188 -0.043788347
000090 e4 e8 05 3d bd bf b5 3c 2f 21 b1 bd 55 12 a0 bc
       0.032692805 0.022186154 -0.086489074 -0.019539991
0000a0 32 70 bd bc 55 8c 25 b9 fd b1 14 3c 12 b8 c4 3c
       -0.023124788 -0.00015787904 0.009075639 0.024013553
0000b0 2e 9f 17 bd 38 cd 56 bd 38 ed 9e 3c 47 a8 91 bd
       -0.03701704 -0.052441806 0.019400224 -0.071121745
0000c0 a5 8f 96 bd 3f 81 cb b9 40 06 3a bd 39 cc 12 bd
       -0.07351617 -0.00038815473 -0.045416117 -0.035839293
0000d0 82 eb 66 3d 17 30 32 3d 61 a8 81 bd 11 d3 bd 3c
       0.05637694 0.043502893 -0.06330944 0.023171933
0000e0 59 ab 75 3c 54 a5 53 3c 05 19 c2 bc 60 9e d7 3c
       0.014994466 0.012917835 -0.02369357 0.026320636
0000f0 0a 38 ff 3b 20 d4 24 bd ea 1b 19 bd 81 71 13 bd
       0.007788663 -0.04024136 -0.037380137 -0.035996918
000100 3b 82 17 bc d8 00 91 bc e6 78 f4 bc 2e a6 85 bd
       -0.009247358 -0.017700598 -0.029842805 -0.06525837
000110 8f 83 41 3d ff b5 16 3d 80 32 77 bc 51 8d ff 3c
       0.047244605 0.03679466 -0.015087724 0.031195315
000120 7d 26 b4 bb 7e 76 0a bd 60 cc 12 bd b2 7e a4 bd
       -0.005497752 -0.03380441 -0.03583944 -0.08031978
000130 df 5e 49 bd 4d d0 af 3c 08 7f 69 ba 27 5d b8 bc
       -0.04916274 0.02146163 -0.0008907174 -0.022505356
000140 43 3d 1b bd 8e b6 17 3d 60 43 3a bd 3f d2 2b bd
       -0.03790022 0.037039332 -0.04547441 -0.041948553
000150 68 bd 99 bd 93 f7 09 3d 4a 6f 9d 3d 35 71 82 bb
       -0.075068295 0.03368337 0.07687242 -0.0039807805
000160 0b ec 54 bd e6 c8 9d bd 64 8b 97 3c e0 70 6a bd
       -0.05198292 -0.07704334 0.018499084 -0.057236552
000170 fe ec 10 bc 51 92 09 3d 8f de 13 3c 94 7d a1 3c
       -0.008845566 0.033586804 0.00902523 0.0197132
000180 98 72 ab bd b3 75 1c bd f9 b3 29 bd 45 4e 3d bd
       -0.083714664 -0.038198184 -0.0414314 -0.04621722
000190 90 da 26 3c f7 71 01 3d 0a c5 48 3d cb 67 06 bd
       0.010183945 0.031602826 0.049016036 -0.03281383
0001a0 2a 52 50 bb ec ca 01 3c 9c 89 0c bd 9b c5 9b bb
       -0.0031787255 0.0079219155 -0.034310922 -0.004753781
0001b0 e7 e1 1b 3d 8b 9c 2e 3d 2a 8c bc 3b 72 a2 d6 3b
       0.038057234 0.04262976 0.0057540135 0.0065501267
0001c0 b8 a3 dc 3c 76 27 30 bd af 6a 61 bd aa ed d0 3c
       0.026933536 -0.043006383 -0.055033382 0.025503952
0001d0 95 0b 91 bd f6 6d e7 3b 62 b7 15 3d ee b3 a0 bd
       -0.07082287 0.007062669 0.03655184 -0.07846819
0001e0 75 8e 7c bd ef 48 17 3d 2b d3 35 bd 15 84 ac 3c
       -0.061659295 0.03693479 -0.04439084 0.021059075
0001f0 e7 85 25 bd 05 a7 9e bd 00 da 62 bd 10 d1 66 3d
       -0.040410902 -0.077467 -0.055383682 0.05635172
000200 71 df 40 3d a9 0f d3 3c 2a 24 3f 3c eb ca c6 3c
       0.04708809 0.025764303 0.011666337 0.02426668
000210 61 e2 8e bc 4c 52 90 bc 5b ad f3 bc f0 ef a6 bd
       -0.01744193 -0.017617367 -0.029745748 -0.08151233
000220 83 f1 58 bd 7b ed 1c bd 5d d5 77 bd 18 b2 3b bd
       -0.0529647 -0.038312417 -0.060506213 -0.04582414
000230 a6 1a 09 bd 13 75 13 3c e5 c5 37 bd 17 72 95 bd
       -0.03347268 0.009000081 -0.04486646 -0.072971515
000240 da e7 e2 3a 29 20 95 3b bc ae de 3c 36 18 29 bd
       0.0017311529 0.004550953 0.02718293 -0.041282855
000250 75 53 61 bd 7a 53 14 3c 8f 37 e7 3b 35 04 77 be
       -0.05501123 0.0090531055 0.0070561836 -0.24122699
000260 dc c8 c3 bc 2e aa 10 bc b6 24 bd 3c d5 24 67 bd
       -0.023899488 -0.0088296365 0.023088794 -0.05643161
000270 41 48 3b 3c cb 6a 6f bd 10 57 0a bd 0f c2 f3 bc
       0.011430801 -0.058451455 -0.033774436 -0.02975562
000280 d3 26 0c bd 0f 6f a9 bc 0e 1c af bd 12 ca 8f bd
       -0.034216713 -0.02068284 -0.08550273 -0.07020964
000290 47 c5 a8 bd e0 03 87 bd d8 03 37 bd 53 08 3e 3c
       -0.08240753 -0.06592536 -0.0446814 0.011598664
0002a0 ae 0e 1b 3c 02 fa 34 bd 02 4a 97 bc 37 ff 1d bd
       0.009463949 -0.04418374 -0.018467907 -0.03857347
0002b0 31 31 45 bc 9a 62 27 bd ac 5f 23 3d 5f 15 96 bd
       -0.012035654 -0.04086552 0.03988616 -0.07328295
0002c0 15 3a 23 3c 80 18 e3 bc 3e d8 8b bc 2e 05 94 3c
       0.009962578 -0.027721643 -0.017070886 0.018068876
0002d0 ba ac a5 bd 60 49 79 bc 55 d2 5c bb 47 1c c3 bb
       -0.080895856 -0.015215248 -0.0033694704 -0.0059542987
0002e0 67 2a 2f 3d b2 89 58 3d dc d5 95 bd 8d c1 c0 3c
       0.042765047 0.05286569 -0.07316181 0.023529792
0002f0 ed 4c 9b bc 3c b6 9b 3c 99 90 8b bd 7e 56 48 3c
       -0.01895758 0.019007795 -0.06814689 0.012227653
000300 bb 41 f8 bc 78 b3 47 bc f7 8e 90 3c c6 c5 fa 3c
       -0.03030478 -0.012188785 0.017646296 0.030611884
000310 f4 41 1c 3d 2d 70 1b bd 77 b9 7a bd 12 c7 45 3d
       0.038148835 -0.037948776 -0.06121203 0.04828555
000320 38 a9 10 bd 9e ef ef bb 81 b5 bf bd 9c fc 3f 3d
       -0.03531763 -0.0073222658 -0.09360791 0.046871766
000330 8d 2f 69 bd ec f1 8e bd 4e 48 b9 bd e7 19 c5 bc
       -0.056930114 -0.06979737 -0.09046994 -0.024060203
000340 e1 83 ea 3c e0 d1 49 3c 9b 41 6c bc 89 ca 16 3a
       0.028627338 0.0123181045 -0.014419938 0.0005752226
000350 d7 d5 a8 3c 11 bd df bc e8 bf 96 bb 98 18 4f bd
       0.02060978 -0.027311834 -0.0046005137 -0.050560564
000360 41 71 61 3c 57 5a 86 bd e7 fa 26 3d 54 9b 53 bd
       0.013759912 -0.065602 0.040766623 -0.051661804
000370 12 f7 78 bd f6 04 dc bb 53 92 31 bc 82 52 e0 bc
       -0.0607825 -0.0067144586 -0.010838109 -0.027383093
000380 cd 49 1e bd c2 8d 86 bb c0 ad d2 bb ac 1b 47 3d
       -0.0386446 -0.0041062543 -0.006429404 0.048610374
000390 af 81 85 3d 61 fa 6a 3d 16 fa 14 bd 90 b7 9f 3b
       0.06518876 0.057367686 -0.036371313 0.0048741773
0003a0 b7 9d 0b bd 16 6e 46 bd 04 6d 12 3d 89 04 06 bd
       -0.034085955 -0.04844483 0.035748497 -0.03271917
0003b0 c6 56 6c 3d b1 46 44 bd d8 77 5e bd 10 14 d8 3c
       0.05769994 -0.04791898 -0.05431351 0.026376754
0003c0 b0 98 32 3d c3 20 f7 3c 97 0e 04 3d fe cb 6a bd
       0.043602645 0.03016699 0.032240476 -0.05732345
0003d0 fa bf 4e 3d fa e2 79 bd d9 93 d3 3c 46 6e 8c bd
       0.050476052 -0.061007477 0.025827335 -0.068569705
0003e0 0e ec 75 bd 32 13 50 3c e7 07 80 bd a2 8f 0e 3d
       -0.060039572 0.012699889 -0.06251507 0.034804948
0003f0 2c 22 9f bc d3 93 73 bd 88 84 52 3c e3 fa 06 3d
       -0.019425474 -0.059467148 0.012848981 0.032954108

action_out.bias f4 [5]
000000 32 39 9b bd f6 c8 8f bc 85 ef ab bd 0e 6b 71 3c
       -0.075792685 -0.01755188 -0.08395294 0.0147349965
000010 6e c0 44 bd
       -0.048035078

weight f4 [256, 123]
000000 76 00 97 3c 68 61 29 bd cc 8f 50 3d 76 45 d0 3b
       0.018432837 -0.04135266 0.050918385 0.0063559366
000010 6b 21 30 bc ae b2 1f 3d f5 5a 2a bb ce 0a cc bc
       -0.010750155 0.03898876 -0.0025994156 -0.024907496
000020 13 00 cd 3d 5a a8 5c 3d e1 fd 81 3d ac 8a 63 39
       0.1000978 0.05387149 0.06347252 0.00021700066
000030 aa fd d7 3c 86 7e 32 3d 41 2e 29 bd d0 4c bc 3c
       0.026366074 0.043577693 -0.041303877 0.022985846
000040 e7 69 9c 3d cf 96 0a bd 33 3a 10 bd 18 c8 22 3d
       0.07637387 -0.03383523 -0.035211753 0.039741606
000050 f7 37 9f 3d 16 54 32 3d 08 52 e4 bd 02 46 81 bd
       0.07774346 0.04353722 -0.11148459 -0.06312181
000060 dd 2f a1 3d c0 4a 9d bd 1f 51 69 be 07 f9 47 bd
       0.07870457 -0.07680273 -0.22784851 -0.048821475
000070 bf 34 a9 bc 09 70 26 3d 8b 5d ad 3d 6e 11 c8 bb
       -0.020655034 0.04063419 0.084651075 -0.0061055934
000080 f0 34 3f bd 07 cd 8c bd e0 f3 ba bc a4 a8 ff bc
       -0.046681345 -0.06875043 -0.022821367 -0.031208344
000090 e6 7f cf 3c c1 29 aa bd 17 c4 c1 bb 20 b6 cb bd
       0.025329541 -0.08308745 -0.0059132683 -0.09946847
0000a0 8e be 67 bc c9 3a 94 3d a6 6e b1 bd 54 49 1a be
       -0.014144553 0.07237775 -0.08663683 -0.15067035
0000b0 76 fa 8e 3d a5 fb 00 be 10 cb 6e bd 09 64 8d bd
       0.069813654 -0.12595995 -0.058299124 -0.06903846
0000c0 21 be 92 3d 37 95 aa 3d e9 80 ca bd b8 b5 1d bd
       0.071651705 0.08329242 -0.09887869 -0.03850338
0000d0 2a 2d 4d 3e 8c 25 86 3c 80 c0 ff bb 3c 4d 1f bd
       0.2003676 0.016375326 -0.00780493 -0.038892016
0000e0 99 86 ca 3d db 64 95 3c a2 a6 12 bc 0b dc a4 bc
       0.09888954 0.018236568 -0.008950861 -0.020124456
0000f0 20 ae b0 3d b7 26 f1 bd 7b cb 64 be 45 cf 77 bd
       0.08626962 -0.117749624 -0.22343247 -0.060500402
000100 d4 33 a9 bc 0f c4 ce bd d1 a6 ed 3d 46 4f b0 bc
       -0.020654596 -0.10095989 0.11604083 -0.021522176
000110 50 e7 43 3c 4f cc 03 be eb 0b 3c bd 1a 33 54 3d
       0.011957005 -0.12870906 -0.045909803 0.051806547
000120 d6 0e 30 3d ca 6f a8 bd 49 12 6f 3e d4 a4 5d bd
       0.0429829 -0.08224447 0.23346819 -0.05411227
000130 ac 66 30 bd 16 9a 35 3d 36 c5 8e bc 05 f1 53 3d
       -0.043066666 0.0443364 -0.017428022 0.051743526
000140 68 ab 03 3e 08 bd 25 3e 5c e6 35 3e 1f 85 0b be
       0.12858355 0.16185391 0.17763656 -0.13625
000150 60 68 72 3b 5c 05 1f 3e cf b7 fd bc 53 68 97 3d
       0.0036988482 0.15529388 -0.030971436 0.07392945
000160 bf 31 3b 3e 14 aa 0e 3c 83 7a 71 3e c9 9a f4 bc
       0.18280695 0.008707542 0.23581891 -0.029858964
000170 4b 14 1f 3e da 43 71 3c 43 2b f8 bd df 59 8c 3d
       0.15535085 0.01472565 -0.121176265 0.06853079
000180 e6 16 0d 3e b5 d0 62 bd a4 d9 cf bc dd 1a 02 be
       0.13778266 -0.05537482 -0.025372334 -0.1270556
000190 f0 60 c0 3d 4f 49 cd bd 26 ca 28 bd d7 2b fb bd
       0.09393489 -0.10023748 -0.04120841 -0.12264221
0001a0 d4 5c d1 3c 17 60 b4 bd d7 16 bb bd 30 fc ae bb
       0.02555696 -0.0880739 -0.09135216 -0.0053401217
0001b0 8c a3 04 3c 10 57 9b bc 8b e7 05 3d e2 46 d0 bd
       0.008095633 -0.018962413 0.03269152 -0.1016977
0001c0 59 61 08 bd 5a 09 22 3d 11 68 25 be fd 91 19 be
       -0.033295963 0.0395597 -0.1615298 -0.14997096
0001d0 86 bc ea bb 82 bb 00 be e4 92 f7 bd 25 6e f2 bd
       -0.007163587 -0.12571529 -0.12088564 -0.11837415
0001e0 f6 58 b1 3d 3d 25 ca bd c5 09 75 bd 37 01 8c bb
       0.08659546 -0.09870384 -0.05982377 -0.0042726058
0001f0 26 8e 66 bd b6 bc 99 bc 16 28 6e bd 66 fc b6 bd
       -0.056287907 -0.018766742 -0.058143698 -0.0893486
000200 54 01 f8 3c 1f 2f fe 3c b1 7b a9 bd 3f 43 aa 3d
       0.03027407 0.031028328 -0.082755454 0.083136074
000210 fb 83 92 3d dd 3f a7 bd 6b 4f a9 bd b7 fb 28 3c
       0.071540795 -0.08166478 -0.08267101 0.01031392
000220 30 c0 53 3c 19 e6 d8 3a 27 92 d8 bc 17 3c aa 3b
       0.012924239 0.0016548067 -0.026436878 0.0051951515
000230 b8 5d 92 3d 33 43 d5 bd 59 15 97 bd 9f 47 9d 3d
       0.07146782 -0.10413208 -0.073771186 0.07679676
000240 15 75 9a 3d 99 54 f3 3c 7c 0b 87 bd b8 16 81 bd
       0.07541863 0.029703425 -0.06593987 -0.063031614
000250 33 37 21 ba 60 c8 19 3d 76 4d 7f bd 18 af 25 bd
       -0.0006149888 0.037544608 -0.062329732 -0.040450186
000260 94 e2 8e 3c b6 2e 69 bd 35 8e 17 3d 47 87 5a 3c
       0.017442025 -0.056929313 0.037000854 0.013337917
000270 1a 33 56 3d 02 7e e3 bc 18 d4 dd bc c6 9f 6f bd
       0.052294828 -0.027770046 -0.027078673 -0.05850198
000280 5d 2f 98 bd 42 16 53 3d 74 41 31 bd 80 e2 e5 bb
       -0.07430909 0.0515349 -0.04327531 -0.0070155263
000290 1e 6f 5a 3d 0e 18 97 3c f4 a4 5b bd 71 8f d9 3c
       0.053328626 0.018444087 -0.05362411 0.026557656
0002a0 cb 57 80 bd 6c 78 db 3d 45 a9 e0 bb 6b c9 de bd
       -0.06266745 0.10716328 -0.006856116 -0.10878261
0002b0 52 66 44 3d 1c df 85 bd aa ed a0 bd 36 df 6d bd
       0.047949143 -0.06536695 -0.07857831 -0.0580742
0002c0 7a ba 3e 3d b7 35 96 bd 14 77 a2 3d dc da e7 bc
       0.046564557 -0.07334464 0.079328686 -0.028302602
0002d0 9a 03 16 3d 93 91 e3 bc 6a 52 15 3d 72 03 8d 3d
       0.03662453 -0.027779376 0.03645555 0.06885423
0002e0 3a b1 85 3d 17 68 4e 3c 73 d9 c0 bd fc 6c aa bd
       0.06527944 0.012598059 -0.09416475 -0.08321568
0002f0 ff b1 29 3d db 9b f0 bd fd 29 41 bd 7c 67 c8 3c
       0.041429516 -0.11748477 -0.047159184 0.024463408
000300 bb 00 ae bd 27 87 91 bd b8 64 2f 3c 75 4d 66 3d
       -0.08496233 -0.071058564 0.010705166 0.056226213
000310 d2 c4 9a 3d e9 cd 0a bd 23 e6 9b 3d c1 c8 45 3d
       0.07557072 -0.033887777 0.076122545 0.048287157
000320 b0 78 8e bb 23 ac 0e 3c 57 40 1a bc cf b6 59 bd
       -0.004347883 0.008708033 -0.009414754 -0.053152855
000330 ce 88 bf bc cb 3b f8 3d ef f8 61 bc c5 17 c3 3a
       -0.023380663 0.121207796 -0.013792261 0.0014884403
000340 d1 0b 0c bd 52 17 99 bd 5f ce bb bd 16 8f 66 3c
       -0.034190957 -0.07475151 -0.091702215 0.0140722
000350 00 eb 01 3d 87 db 9d bc 72 58 0b 3d 30 75 64 bd
       0.031718254 -0.019269718 0.034019895 -0.05577582
000360 a2 40 1b 3d 87 e9 81 bd 0d 92 ef bb 87 49 9a 3d
       0.037903436 -0.0634337 -0.007311112 0.075335555
000370 d8 bc 0d bc 66 9a 7d 3d 5a 7a a2 bb ce a3 4b bd
       -0.008650981 0.061914824 -0.004958433 -0.049716763
000380 90 05 f2 bb 48 04 04 bc f7 c2 b8 bd e0 0b 0f 3b
       -0.007385917 -0.008057661 -0.090215616 0.0021827146
000390 2f 7b a8 3d ed 32 7d bc 10 4c 04 3d db 47 e7 bb
       0.082266204 -0.015454036 0.0322991 -0.0070581264
0003a0 d6 f4 41 3d c1 7b 4f bd 6f 18 9b 3d f6 fa 08 bd
       0.047352634 -0.05065513 0.0757302 -0.03344246
0003b0 91 7e ac bc 62 de 7b bd 10 01 8f bd 36 46 c4 3c
       -0.021056445 -0.061491378 -0.069826245 0.02395926
0003c0 d8 ca 22 3c 96 5b 3e 3d 3c 3b 41 3d 29 2c 68 bd
       0.009936057 0.046474062 0.04717563 -0.05668274
0003d0 47 48 af 3b 87 7d 83 3d f4 66 82 3d 34 d1 39 bc
       0.0053491923 0.06420427 0.06367293 -0.011341382
0003e0 a9 fa db 3d cc e3 f7 bd d0 f1 98 3d a8 e3 91 b9
       0.10741169 -0.12103996 0.07467997 -0.00027826172
0003f0 94 a4 6e bc a7 4a 87 3c ef 1a 6f bd 40 f6 81 bc
       -0.014565606 0.01651509 -0.058375295 -0.015864491

bias f4 [256]
000000 02 25 57 bc 08 2d 88 3b ee b1 02 3e 13 15 44 3d
       -0.013131382 0.004155759 0.12763187 0.04787166
000010 c8 a9 bc bd e9 9f bd 3d 61 3d da bc 67 0e c1 3c
       -0.09212071 0.09259016 -0.026640596 0.023566438
000020 90 1b 3d bc 7a d3 d7 3d d0 42 69 bd 50 6c 4e 3d
       -0.011542216 0.10538383 -0.056948483 0.050396264
000030 96 8f 32 3d 0f 81 98 3d de df 86 ba c0 86 fa 3c
       0.043593965 0.07446491 -0.0010290106 0.030581832
000040 3b 89 e5 bd 5a 2f 4c 3d ba 61 b5 3d 94 18 79 bd
       -0.11207815 0.049849845 0.088565305 -0.060814455
000050 16 28 10 3d fa 86 4d bd e0 5b c2 bd d2 b0 51 bd
       0.03519448 -0.05017755 -0.0949018 -0.05119402
000060 68 4f 65 3d d9 3c 54 3d 11 89 a0 bd d0 e6 41 3d
       0.05598393 0.05181584 -0.07838643 0.04733926
000070 14 08 5a 3d 7c 7f b5 3d 4a d7 21 bd 0d aa 11 3c
       0.05323036 0.08862206 -0.039511956 0.008890641
000080 e2 ea 7d 3d 1e d1 c6 bb b9 82 0c bc b2 69 60 bd
       0.06199158 -0.006067409 -0.008576089 -0.0547883
000090 5e 83 e4 bd 40 46 4c 3d 26 04 a7 bc 96 da 5d bd
       -0.11157869 0.049871683 -0.02038772 -0.054163538
0000a0 13 66 af bd d4 ce 84 3d 2e 2c b5 bd f6 90 be 3d
       -0.08564391 0.06484762 -0.08846317 0.09304993
0000b0 1d 42 b2 bd e0 63 f1 3c 40 fd 02 bc 05 81 02 3d
       -0.08704016 0.02946657 -0.00799495 0.031861324
0000c0 42 df 2a 3d bd c0 d5 bd 93 14 72 3d a2 65 5e bc
       0.04171682 -0.104371525 0.059101652 -0.013574036
0000d0 b0 b0 1e bc e9 34 91 bd 52 a2 17 3d 49 e4 24 bd
       -0.00968568 -0.0709017 0.037020035 -0.040256772
0000e0 55 c8 0d bd aa 9a b9 bd 3f 0a e9 3d 58 f9 19 bd
       -0.03461488 -0.09062703 0.113789074 -0.03759131
0000f0 67 3f dd 3c 9b a8 af bd 7b 45 a5 3d 02 e8 4d 3d
       0.027007772 -0.08577081 0.08069893 0.050270088
000100 08 b8 6e bd c4 ea 9b bd 94 16 8b bd 10 35 ca 3b
       -0.058280975 -0.07613137 -0.06791416 0.0061708763
000110 e9 97 c1 bc 2c 6b 28 3d a3 d2 ac bd e0 49 d8 bc
       -0.023632007 0.041117832 -0.08438613 -0.026402414
000120 bd e3 54 3a 88 b4 16 bd 02 9e df bd 22 25 86 3d
       0.0008121094 -0.03679326 -0.109188095 0.06550051
000130 53 f5 7e 3d 39 82 25 3d b4 52 95 bc 6a 3c 9d bd
       0.06224568 0.040407393 -0.018227912 -0.07677539
000140 d2 60 b4 bc de 52 41 3d 15 9c 22 3d 06 b9 7f 3c
       -0.022018824 0.04719817 0.039699633 0.015608078
000150 d8 14 13 3d d7 c4 a9 bb 9b 24 c3 3c 7f 16 ad bc
       0.03590855 -0.005180936 0.023821166 -0.021128891
000160 e0 a0 52 bb ec 5a 79 bd 0f 21 d2 3b 87 fe b0 bd
       -0.0032139346 -0.060877725 0.0064126323 -0.08642297
000170 4d 4b 44 3d fb 42 1a 3d f1 3f d1 ba d0 4c 85 3c
       0.047923375 0.037661534 -0.0015964491 0.016271979
000180 82 7f db 3c e7 8f 96 3d c6 01 9e 3d b4 78 45 bd
       0.026794199 0.07351666 0.07715182 -0.048210815
000190 f5 c9 bf bc f0 3d 4c bd ee 8f a3 bd c9 55 b0 3d
       -0.02341173 -0.049863756 -0.07986437 0.08610112
0001a0 d9 95 36 bc 95 d7 89 bd dd da ad bd 5b ae 98 3d
       -0.011144125 -0.06730572 -0.084890105 0.07455131
0001b0 78 6d 5e 3d 5e 42 50 ba ca 93 a4 bb 08 93 86 bd
       0.054303616 -0.000794446 -0.0050225006 -0.06571013
0001c0 6d 90 4e 3d b2 a3 61 bc 8f af 93 bc 3b 1b dd 3c
       0.050430704 -0.013771938 -0.018028049 0.026990524
0001d0 cf 1a 43 3d 9f bc 39 bd c9 ab 82 3d 6c 39 9f bd
       0.04763299 -0.0453459 0.06380422 -0.07774624
0001e0 20 c0 e8 bb ba 60 8a 3d 0e 33 20 3c b5 8c 6d 3d
       -0.007102981 0.067567304 0.009777797 0.057995517
0001f0 c9 c0 31 3d 05 79 81 3b 9f bb 29 bc 4a f4 25 3d
       0.043396745 0.003951194 -0.010359674 0.040516175
000200 b9 57 08 3d a8 65 55 bd 6b c5 88 3d 6c f4 c6 bc
       0.033286784 -0.0520989 0.066782795 -0.024286471
000210 00 c9 df 3b b1 66 0e 3e b6 4f fb 3c cc 77 40 bc
       0.006829381 0.13906361 0.030677658 -0.011747312
000220 cd de be bc 48 90 45 bc 5d 5a aa bd 5b a3 7b bd
       -0.023299599 -0.012058325 -0.08318017 -0.061435085
000230 53 9d e7 3d ba f1 12 3e dc 69 0d bd bd d3 b0 3c
       0.11309304 0.14350024 -0.034524783 0.02158534
000240 cf 9a 9c bd 2f aa 59 bd 09 ab 58 bd d8 82 0b bb
       -0.07646715 -0.053140815 -0.052897487 -0.0021287706
000250 c6 06 67 3d bd cd bc bd 19 3f 23 bd cf ba 87 3d
       0.056402944 -0.09218929 -0.039855096 0.06627428
000260 ed 10 27 3d 21 64 32 3d 8b fa 24 bd e3 21 7a bd
       0.040787626 0.04355252 -0.040278 -0.061067473
000270 2b 12 9b 3d e9 bd 87 bd 20 fc 5d 3c 75 f1 9c 3d
       0.07571825 -0.06628019 0.013548881 0.07663242
000280 e7 31 51 bd 59 c2 61 bd e7 68 7e bc ec dc d6 bd
       -0.05107298 -0.055116985 -0.01552794 -0.10491356
000290 1e 4f 24 bd bc 95 c6 3c 15 cc 93 bd 7e 69 06 bd
       -0.040114515 0.02424132 -0.0721666 -0.03281545
0002a0 3a 9c ce bd 04 91 0b 3d 7d 69 74 bd 0d 9c 96 3c
       -0.100883916 0.034073845 -0.059670914 0.018384958
0002b0 9c ad dd bd 6b 22 68 bd ab f8 54 3c df 9e fe 3c
       -0.10824129 -0.05667345 0.01299874 0.031081615
0002c0 d6 3e 44 bd 5a be 35 bd ec fb d1 3c ce 15 74 3d
       -0.047911488 -0.044370987 0.025632821 0.059591107
0002d0 a8 2a 5d 3d bb a8 b9 3b 08 91 c5 bd 4b 0a af bc
       0.05399576 0.005665866 -0.09646803 -0.021367213
0002e0 2d 3e 29 3d 9d b7 32 bc e1 74 a2 bb e6 30 12 3d
       0.04131906 -0.010908035 -0.0049577807 0.035691164
0002f0 bd 30 96 3d ec 44 53 bd ac 4f d4 bb 31 44 93 bd
       0.07333515 -0.0515794 -0.006479224 -0.07190741
000300 69 83 01 3e d3 93 e1 3c ec 3d 87 3d 08 74 8d bd
       0.12647785 0.027536308 0.066036075 -0.06906897
000310 17 32 36 3d a6 cb 02 bd 11 0b bc bd d9 eb 11 3d
       0.044481363 -0.031932496 -0.09181798 0.035625312
000320 1e db 5b bc dc e7 0a 3d 18 8d 45 3c b1 3c 1a bd
       -0.013418941 0.033912525 0.012057565 -0.037655536
000330 b8 99 e7 3d 34 47 d2 bd 77 bd fb 3c 31 a0 b2 bc
       0.113086164 -0.10267487 0.030729992 -0.0218049
000340 3e 4c e1 bc dc cc f8 3b 7f 6a 86 bc 55 d1 37 bd
       -0.027502175 0.0075927805 -0.016408203 -0.04487737
000350 a7 c8 2e 3d a6 1f d4 bc 43 3c 4c 3d 2f 2e cd bc
       0.042671826 -0.025893997 0.049862158 -0.025046436
000360 80 c6 26 3d c2 e4 1a 3d 37 be 07 3d d6 9a 99 bc
       0.040716648 0.037815817 0.033140387 -0.01875059
000370 8d c9 4e bd 6a d7 ca bd 65 56 00 3d 1e b7 22 bd
       -0.050485183 -0.09904368 0.031332392 -0.039725415
000380 55 fc 83 bd bd 4f 98 3d 8a ef 0f 3b 77 6c 0d bd
       -0.06444613 0.07437084 0.0021962845 -0.03452727
000390 e0 f6 8a bd 6b b4 6a bd 6c 37 9c bd 39 9b 8e bd
       -0.06785369 -0.057300966 -0.076277584 -0.069632
0003a0 fa c5 ac 3b c0 27 5d bb 8d 13 80 3d 06 2a 21 3c
       0.005272624 -0.0033745617 0.06253729 0.009836679
0003b0 80 27 3d bd ee c7 5e bd 9b 2d 64 3d 3a 2e bc bb
       -0.04618025 -0.054389887 0.055707555 -0.0057428153
0003c0 28 8d 1f 3d 7d c8 25 bd f4 ac 7d bc 27 26 78 bc
       0.038952976 -0.040474404 -0.01548313 -0.015145815
0003d0 95 a7 fe bc 6e 09 d3 bc 3a 43 85 3d 4d e2 44 bc
       -0.031085769 -0.025761332 0.06506963 -0.012016845
0003e0 a3 16 7d 3c 93 d9 df bc 9f 34 96 3d ed 0d 02 be
       0.015447292 -0.027325427 0.073342554 -0.12700625
0003f0 0f 53 5f bd 96 fd 83 3d 2b 26 c5 bc d4 b8 26 bd
       -0.05452257 0.06444852 -0.024066051 -0.04070361
