src/saved_models/grid_world_seed125_8_7_16_59_成了/125_87_model.pt (torch, 702727 bytes, 11 tensors)

FC1.weight f4 [256, 36]
0	0x3dcb1104	0.09915355
1	0xbbc08c6d	-0.005876115
2	0xbe186cef	-0.14885305
3	0xbe2707dc	-0.16311592
4	0x3c6f5139	0.014606767
5	0x3ddf8ab3	0.10915127
6	0x3eb7e55c	0.35917175
7	0xbe65bc63	-0.22435145
8	0xbe11e4a0	-0.1424737
9	0x3f1a0d38	0.6017642
10	0x3d9ca3ef	0.07648455
11	0x3e59fdfa	0.2128829
12	0xbe4926c0	-0.19643688
13	0xbbee4d6c	-0.007272413
14	0x3e8d668f	0.27617308
15	0xbe2556de	-0.16146418
16	0xbeaad53c	-0.3336581
17	0xbf13500d	-0.5754402
18	0xbde43d92	-0.11144556
19	0xbf0584e1	-0.5215588
20	0xbd5f5863	-0.05452765
21	0x3e23c954	0.1599477
22	0x3eee6a3a	0.4656542
23	0xbe4e6d64	-0.20158917
24	0xbe8da265	-0.2766296
25	0x3fc268b9	1.5188209
26	0x3cf6ab12	0.03011087
27	0x3e4f5319	0.20246543
28	0x3e2f6a06	0.17130288
29	0xbe18b74e	-0.14913675
30	0xbd94be06	-0.072628066
31	0xbd4740e9	-0.048645888
32	0x3dbdac04	0.09261325
33	0x3e37b532	0.17940214
34	0x3dc7f151	0.09762824
35	0xbd219ab8	-0.039454192
36	0xbe388d22	-0.18022588
37	0x3dc00f48	0.09377915
38	0x3e5599df	0.20859478
39	0xbc57bba2	-0.013167294
40	0x3e980241	0.2968922
41	0x3f773f04	0.9658053
42	0x3d39dddf	0.04537761
43	0x3d971571	0.073771365
44	0x3e22920d	0.15876026
45	0x3ef2414b	0.4731544
46	0xbe8862f1	-0.26637986
47	0xbdabb034	-0.083832175
48	0xbe2a7eaf	-0.16649888
49	0x3f90869f	1.1291083
50	0xbe6d6e09	-0.23186506
51	0x3e021bb7	0.12705885
52	0x3dc00ae7	0.093770795
53	0x3ec4fc99	0.38473967
54	0x3e5a04d6	0.21290907
55	0x3e2d32da	0.1691393
56	0xbdbfbf83	-0.093627
57	0x3fadecf0	1.3587933
58	0xbee5e317	-0.44899818
59	0x3e829f8e	0.25512356
60	0x3e97b282	0.29628378
61	0x3e24aea8	0.16082251
62	0x3f08fbe9	0.53509384
63	0xbe268424	-0.16261345
64	0xbde1cb4d	-0.11025105
65	0xbe8941d4	-0.26808035
66	0x3e68feb9	0.22753419
67	0xbdf9c274	-0.12195292
68	0x3d60666f	0.05478519
69	0xbe9c3078	-0.3050573
70	0x3d878375	0.0661687
71	0x3e7de5b2	0.24794653
72	0x3e8bcbf9	0.27304056
73	0x3ddd82a9	0.10815937
74	0xbd9419c8	-0.0723148
75	0x3e86fa1b	0.2636269
76	0xbe2320af	-0.15930437
77	0x3e841898	0.25800014
78	0xbc9ad071	-0.01889822
79	0x3cbf70a0	0.023369133
80	0xbe8b814b	-0.2724708
81	0xbe5c8b47	-0.21537505
82	0xbd96064a	-0.07325418
83	0x3e592d88	0.21208775
84	0xbe22ee37	-0.15911184
85	0x3d91b586	0.07114701
86	0xbca66c5f	-0.020315347
87	0x3e52aa56	0.2057279
88	0x3c3aa11c	0.0113909505
89	0xbdc9db34	-0.09856263
90	0xbe73404a	-0.23754993
91	0xbee17c4b	-0.4404014
92	0x3d068967	0.03284588
93	0xbf306e01	-0.6891785
94	0xbd0c0319	-0.03418264
95	0x3d869a14	0.06572357
96	0xbe1cfc12	-0.15330532
97	0x3ed45367	0.4146988
98	0xbe9133eb	-0.28359923
99	0x3e04858c	0.12941569
100	0x3eaa27a6	0.33233374
101	0xbe1fb29a	-0.15595475
102	0xbe57f971	-0.21091248
103	0x3d3c9257	0.046037998
104	0x3e59cd2a	0.2126967
105	0xbeb29588	-0.34879708
106	0x3ed1f6b9	0.41008547
107	0x3ddd29b2	0.107989684
108	0x3e879258	0.2647884
109	0x3e598e28	0.21245635
110	0xbd99b8be	-0.0750594
111	0x3d826e44	0.06368688
112	0x3eb094d1	0.34488538
113	0xbd13facb	-0.036127847
114	0xbda791b0	-0.081820846
115	0x3e850944	0.25983632
116	0xbd0208a4	-0.03174652
117	0xbd2449d7	-0.04010948
118	0xbee0047d	-0.43753424
119	0xbd6140e4	-0.054993525
120	0x3d00b12e	0.03141897
121	0x3d9fcab7	0.07802337
122	0xbe037cac	-0.12840527
123	0x3d6ffe5b	0.05859218
124	0xbddb9b00	-0.10722923
125	0x3e12c13d	0.14331527
126	0xbe50ae42	-0.20378974
127	0x3d72d03b	0.059280615
128	0xbe986c25	-0.29770008
129	0x3d9011ed	0.07034669
130	0xbe3d11e5	-0.18463857
131	0x3d08b15c	0.033372268
132	0xbe219214	-0.1577838
133	0x3e86b027	0.2630627
134	0x3f422a01	0.7584534
135	0xbebceb25	-0.3689815
136	0x3d78c8c1	0.06073833
137	0xbddf7fe5	-0.10913066
138	0xbcb9670d	-0.022632146
139	0x3d8ae27f	0.06781482
140	0x3e2e6cd8	0.17033708
141	0xbf232327	-0.63725513
142	0xbea7e72a	-0.32793552
143	0xbc12613c	-0.008934315
144	0x3e5e5f42	0.21716025
145	0xbddb7c48	-0.10717064
146	0xbf296e36	-0.66183794
147	0x38bb3052	8.925855e-05
148	0xbd85f518	-0.065408885
149	0xbe9eaa42	-0.3098927
150	0xbf8a4cc4	-1.0804677
151	0xbe05772b	-0.1303374
152	0x3de4473c	0.111463994
153	0x3d0d7894	0.03453882
154	0xbee9fa2a	-0.45698673
155	0xbe2117e1	-0.15731765
156	0xbeb0cbb4	-0.34530413
157	0x3cb3171c	0.021861605
158	0xbee1c065	-0.44092098
159	0xbddd7a1e	-0.10814308
160	0xbce7f18f	-0.028313426
161	0x3e4aaecf	0.19793247
162	0xbe6a09aa	-0.22855249
163	0x3e051e2a	0.12999788
164	0xbfb68278	-1.4258566
165	0x3be40562	0.0069586495
166	0xbe88718e	-0.26649135
167	0x3e0b29a2	0.135901
168	0xbe3d6f02	-0.18499377
169	0xbe2cd5f4	-0.16878492
170	0x3fa56217	1.292056
171	0x3e044184	0.12915617
172	0xbd8db937	-0.069200926
173	0xbcacfbb2	-0.021116111
174	0xbdcbd033	-0.0995182
175	0x3d7961d0	0.060884297
176	0x3df889a9	0.121356316
177	0xbeb3a046	-0.35083216
178	0x3e4bb241	0.19892217
179	0xbe9dbaac	-0.30806482
180	0x3e71eef5	0.23626311
181	0xbdb57be9	-0.088615246
182	0xbe65d3fa	-0.22444144
183	0xbf0c3dfa	-0.5478207
184	0xbd9e26ab	-0.07722219
185	0xbeddcf4b	-0.43322214
186	0xbdda45f7	-0.10657876
187	0x3c6d99e4	0.014502022
188	0xbdb75c09	-0.08953101
189	0x3f7c1014	0.98462033
190	0xbec45f77	-0.38354084
191	0xbe877b0f	-0.26461074
192	0x3e193910	0.14963174
193	0xbf184f97	-0.59496444
194	0x3dc847dd	0.09779332
195	0xbe793297	-0.24335705
196	0x3df942bc	0.12170932
197	0xbe55af48	-0.20867646
198	0xbeda453f	-0.42630956
199	0xbd2d2ffc	-0.04228209
200	0xbe9a2f61	-0.30114272
201	0xbf37e0a2	-0.7182714
202	0xbc79de99	-0.015250825
203	0xbde99058	-0.114044845
204	0x3e3f066f	0.18654798
205	0xbec14d84	-0.37754452
206	0x3e8fdfe0	0.2810049
207	0x3dc37e9b	0.095456325
208	0xbc2c6826	-0.010522878
209	0xbda665fc	-0.08124921
210	0xbd18a575	-0.037267167
211	0x3da87455	0.082253136
212	0xbe9ad8c9	-0.3024352
213	0x3ef11287	0.47084448
214	0xbec5e20c	-0.38649023
215	0x3d54cec7	0.05195501
216	0x3eb7d7af	0.3590674
217	0x3d2a2e2c	0.04154794
218	0xbe5b606f	-0.21423505
219	0x3cdc3681	0.026881458
220	0x3e296e33	0.16545944
221	0xbd46f256	-0.048570953
222	0xbe450f7b	-0.19244187
223	0xbe15e975	-0.14639838
224	0xbd1beff8	-0.03807065
225	0xbf03371f	-0.51255983
226	0xbeb69ff6	-0.35668916
227	0xbe24ff9e	-0.16113135
228	0xbe1ae257	-0.15125404
229	0x3d12a726	0.035803936
230	0x3d143ce2	0.036190875
231	0xbe5e5aad	-0.21714278
232	0xbde062a6	-0.10956316
233	0xbe0bdca0	-0.1365838
234	0x3d34651b	0.044041734
235	0x3e71d44e	0.23616144
236	0xbf28492b	-0.65736645
237	0xbe3026d2	-0.17202309
238	0xbe17ea9e	-0.14835593
239	0xbe5e328d	-0.21698971
240	0xbd91268c	-0.0708743
241	0xbec8669b	-0.39140782
242	0x3f44c625	0.76864845
243	0x3dfe3b01	0.12413598
244	0x3d17409a	0.036926843
245	0x3d420336	0.047366343
246	0x3d62bbac	0.05535476
247	0xbd69a649	-0.057043348
248	0x3e9b1f73	0.3029743
249	0xbfaa3461	-1.3297235
250	0x3e859132	0.26087338
251	0x3c52f0fb	0.012874837
252	0x3e446d13	0.19182234
253	0xbe0d9371	-0.13825776
254	0xbf0d2cd0	-0.55146503
255	0xbd859683	-0.065228485

FC1.bias f4 [256]
0	0x3e67d146	0.22638425
1	0xbd41c978	-0.047311276
2	0x3e1a5a8d	0.15073605
3	0xbe75fc1c	-0.24021953
4	0xbdb7bad7	-0.08971184
5	0x3e17ff2f	0.14843439
6	0x3d968270	0.07349098
7	0x3d0addc7	0.03390291
8	0xbe1b18be	-0.15146157
9	0xbd0a3ac0	-0.033747435
10	0xbe290e9b	-0.16509478
11	0xbe580505	-0.21095665
12	0xbed1adeb	-0.40953
13	0x3e26a8b8	0.16275299
14	0xbe10bd9a	-0.14134827
15	0xbdd4221b	-0.103580676
16	0xbddad850	-0.106857896
17	0x3cddd79e	0.027080353
18	0x3d514d52	0.05109913
19	0x3c9f9d71	0.019484254
20	0xbdc4dc41	-0.096123226
21	0x3d1d34a6	0.038380288
22	0x3e0b69bb	0.13614552
23	0xbe0869b8	-0.13321579
24	0x3db56e8f	0.08858978
25	0x3c4ac962	0.012377115
26	0x3c311990	0.010809317
27	0xbe8eef92	-0.27917153
28	0xbe85e990	-0.26154757
29	0x3da65be8	0.081229985
30	0xbe21ba13	-0.15793638
31	0x3e11a5f0	0.14223456
32	0xbdc11621	-0.09428049
33	0xbd8f5823	-0.069992326
34	0x3db51ec7	0.08843761
35	0xbd12ff7d	-0.035888184
36	0xbe3afee9	-0.18261303
37	0x3d9f9b7f	0.077933304
38	0xbdf7cb8b	-0.120993696
39	0xbd4924fa	-0.04910753
40	0xbe58be9c	-0.21166462
41	0xbe93ebee	-0.28890938
42	0xbd7c411a	-0.061585523
43	0xbe2cfbf4	-0.16892987
44	0xbe6816b5	-0.22664912
45	0x3ddbe390	0.107367635
46	0xbea9cfb8	-0.3316629
47	0x3e513cb6	0.20433316
48	0xbe1063f8	-0.14100635
49	0xbe9962a8	-0.2995808
50	0x3e198ad1	0.1499436
51	0x3cb059ed	0.021527255
52	0xbe13ffc5	-0.14453037
53	0xbe2c39cf	-0.16818927
54	0x3e06d20a	0.13166061
55	0x3c485529	0.012227335
56	0x3dfd66d5	0.12373129
57	0xbdee20a9	-0.11627323
58	0x3dc4bd50	0.09606421
59	0x3e3ee6f3	0.18642788
60	0xbeb07949	-0.34467533
61	0xbea0c704	-0.31401837
62	0xbdf91a95	-0.12163273
63	0xbd76636f	-0.06015342
64	0xbe9d7255	-0.3075129
65	0xbdcc2986	-0.099688575
66	0xbdaa473e	-0.083143696
67	0xbe34396e	-0.17600033
68	0xbe7e6648	-0.24843705
69	0xbe34950f	-0.17634986
70	0x3e585f45	0.21130092
71	0xbda0f2af	-0.07858788
72	0xbe381bdd	-0.17979379
73	0x3d981202	0.0742531
74	0xbd24ea09	-0.040262256
75	0xbe04fc0c	-0.12986773
76	0x3e83a39a	0.25710756
77	0xbd93579a	-0.07194443
78	0xbc044e4d	-0.008075309
79	0xbe6c4cd2	-0.2307618
80	0x3e0bf0bf	0.13666056
81	0x3e418078	0.18896663
82	0x3d47eef6	0.048811875
83	0x3e02cf10	0.127743
84	0xbe025574	-0.1272791
85	0xbd32a3b7	-0.043613162
86	0xbe135f46	-0.14391813
87	0xbdbfdcf8	-0.09368318
88	0x3cd17aec	0.025571309
89	0x3e9e60fb	0.30933365
90	0xbe58ea9b	-0.21183245
91	0x3d7cbc70	0.061703146
92	0x3dde6ab9	0.108601995
93	0x3aa8ec3f	0.001288779
94	0x3e009f2f	0.12560724
95	0xbe4aef3c	-0.19817823
96	0x3de0753e	0.10959862
97	0x3ca1ad0b	0.019735834
98	0xbca6205c	-0.020279102
99	0xbed6d96a	-0.4196275
100	0xbe8355cc	-0.25651395
101	0xbda0cc5e	-0.0785148
102	0xbd703f6a	-0.058654226
103	0xbe1a6a1b	-0.15079539
104	0xbdd9a116	-0.10626428
105	0x3da6d137	0.08145373
106	0x3e022f0f	0.12713264
107	0xbcccb9fc	-0.024991028
108	0x3d65538d	0.055987883
109	0x3e26cad2	0.16288307
110	0x3e0ab98f	0.13547347
111	0x3e307f0f	0.17235969
112	0x3e8eae63	0.27867422
113	0xbe19a022	-0.15002492
114	0x3c06e138	0.008232407
115	0xbe0aedb5	-0.1356724
116	0xbe0dff4f	-0.13866924
117	0x3e69dc55	0.22837956
118	0x3e8f6975	0.28010145
119	0x3e80afb6	0.25134057
120	0xbe28f43e	-0.16499421
121	0x3d6a6db6	0.057233535
122	0x3caf25d1	0.021380337
123	0xbcd2d2b6	-0.02573524
124	0xbe857cae	-0.26071686
125	0x3ce51560	0.027964294
126	0x3d61428b	0.0549951
127	0xbe404bf7	-0.18778978
128	0x3cd74b66	0.02628107
129	0xbe181fbb	-0.14855854
130	0xbdd0efd2	-0.10201992
131	0xbe3b0ac3	-0.18265824
132	0xbe7d5b89	-0.24741949
133	0xbe075e7b	-0.13219635
134	0x3e865dc6	0.26243418
135	0x3ea24dc0	0.31699944
136	0x3c6b980e	0.014379514
137	0xbe85df08	-0.26146722
138	0x3cde0aad	0.0271047
139	0x3e10bbf8	0.14134204
140	0x3c676249	0.014122554
141	0xbe83aac7	-0.2571623
142	0xbe95e8cd	-0.29279175
143	0xbe4b424c	-0.19849509
144	0xbdd7b9d2	-0.10533489
145	0xbd5ce960	-0.0539335
146	0xbc5b3d72	-0.013381349
147	0x3da372ce	0.07980882
148	0x3e4db886	0.20089921
149	0x3e546923	0.20743231
150	0x3dfe70ef	0.12423884
151	0xbd54241b	-0.051792245
152	0xbe33d014	-0.17559844
153	0x3e26e9ea	0.16300169
154	0xbe2651d5	-0.16242154
155	0xbe1c4058	-0.1525892
156	0xbe57e6dd	-0.21084161
157	0xbe056d80	-0.13030052
158	0xbd9661f7	-0.07342904
159	0x3dc8446c	0.097786754
160	0x3e176ad1	0.14786841
161	0xbea4ade5	-0.3216392
162	0xbe2a41e3	-0.16626696
163	0x3dcc7633	0.09983482
164	0xbe0e041d	-0.13868757
165	0x3e2367de	0.15957591
166	0xbe45c35e	-0.19312808
167	0xbd1b4d02	-0.037915237
168	0x3d18de7d	0.037321556
169	0xbdcb02df	-0.09912657
170	0x3e51e1dd	0.20496316
171	0xbe9442bd	-0.28957167
172	0xbdae8233	-0.08520927
173	0x3da8e41d	0.08246634
174	0xbd6b36a2	-0.05742515
175	0xbe4294da	-0.19002095
176	0xbdf56f09	-0.11984069
177	0xbe483d33	-0.19554596
178	0xbe2b7856	-0.16745123
179	0xbeae549f	-0.34048936
180	0x3dda974d	0.106733896
181	0x3d12b6da	0.035818912
182	0xbc8788b8	-0.016544685
183	0xbc69bb71	-0.014265881
184	0x3d211e89	0.03933576
185	0xbb16f7ef	-0.0023035964
186	0x3cc347ab	0.023837885
187	0xbe4584ad	-0.19288893
188	0xbdc25408	-0.09488684
189	0x3e149605	0.14510353
190	0x3c1afabd	0.009459195
191	0xbd968851	-0.07350219
192	0xbe0c7bf0	-0.13719153
193	0xbdc460f8	-0.09588808
194	0xbca208c7	-0.019779576
195	0xbe5cf18b	-0.21576516
196	0x3c1452bd	0.0090529295
197	0xbdcba083	-0.099427246
198	0xbdf1b2cc	-0.11801681
199	0xbdaaf7e0	-0.0834806
200	0x3e83d1d8	0.25746036
201	0xbcac724a	-0.021050591
202	0x3df204ea	0.118173435
203	0x3d8a5023	0.06753566
204	0xbe6365b4	-0.22206765
205	0xbe7ae173	-0.24500065
206	0x3d90853e	0.07056664
207	0xbe9ebe7d	-0.31004706
208	0xbd37732d	-0.044787575
209	0xbbbfde80	-0.0058553815
210	0xbd85e586	-0.06537919
211	0x3e7cf9ff	0.24704741
212	0x3d1cd220	0.03828633
213	0x3df5818a	0.11987598
214	0xbdc3fc7a	-0.095696405
215	0xbe489be4	-0.19590718
216	0xbd8022f5	-0.062566675
217	0xbc875a5f	-0.016522584
218	0xbe550780	-0.20803642
219	0xbe86b116	-0.2630698
220	0xbe920fca	-0.2852767
221	0x3d53900c	0.051651046
222	0xbd2f4dfe	-0.04279899
223	0xbc197c88	-0.0093680695
224	0x3e786162	0.24255899
225	0x3d05dc36	0.032680713
226	0x3e809395	0.25112596
227	0xbe17ce1c	-0.14824718
228	0x3e20999a	0.15683594
229	0xbe931be7	-0.28732225
230	0x3d378c63	0.044811618
231	0xbe1b4a4a	-0.15165058
232	0xbe6c0427	-0.23048459
233	0xbb2e89d0	-0.0026632436
234	0xbe000ef8	-0.1250571
235	0xbe0b933e	-0.13630387
236	0xbe6c7575	-0.23091681
237	0xbda2de38	-0.07952541
238	0x3d967479	0.07346434
239	0x3d4ef88c	0.05053
240	0xbc5cfdae	-0.013488216
241	0x3e0e4523	0.13893561
242	0x3d74290a	0.05960945
243	0x3d8c8b4b	0.068625055
244	0x3d8b99d3	0.06816449
245	0x3cd9c075	0.026581028
246	0xbcacdbd1	-0.02110091
247	0xbd9cb62a	-0.076519325
248	0x3e94f769	0.2909501
249	0xbe4826c7	-0.19546042
250	0xbe7ff55e	-0.24995944
251	0xbe63dce3	-0.2225223
252	0x3de015f4	0.10941687
253	0xbce570ef	-0.028007952
254	0xbe5d5750	-0.21615338
255	0x3e393065	0.18084867

FC2.weight f4 [256, 256]
0	0xbc8f45c5	-0.017489323
1	0xbb69ef75	-0.0035695706
2	0xbccc0a21	-0.024907174
3	0x3c5360eb	0.012901525
4	0xbd71f5d8	-0.059072345
5	0x3d3ccc4c	0.04609327
6	0xbc97b281	-0.018517734
7	0x3c92ca13	0.017918622
8	0x3ceaf168	0.028679565
9	0xbd3a12d8	-0.045428127
10	0x3cc91746	0.02454723
11	0x3ccdbaf8	0.025113568
12	0xbd74df32	-0.059783168
13	0xbd6ec1f5	-0.05829044
14	0xbd6b8ae7	-0.057505514
15	0xbcc06703	-0.02348662
16	0x3d4438ae	0.047905616
17	0xbd8025dd	-0.06257222
18	0xbd4ef048	-0.05052212
19	0xbbdef6ef	-0.006804339
20	0xbdba0170	-0.090823054
21	0xbd00aae3	-0.03141297
22	0xbd0d9a64	-0.034571066
23	0xbd4e4b83	-0.050364982
24	0x3ca20586	0.019778024
25	0xbd562b37	-0.052287307
26	0xbd6a3168	-0.057176024
27	0xbd1a97de	-0.037742488
28	0x3cbfc29d	0.023408229
29	0xbca6206b	-0.02027913
30	0xbbc4ccb7	-0.006005849
31	0x3c1381cf	0.009003117
32	0xbba2b5c2	-0.004965515
33	0x3c622842	0.0138035435
34	0xbd53b256	-0.051683746
35	0xbc3c8c76	-0.011508098
36	0xbd1f030e	-0.038821273
37	0x3c3cf895	0.011533876
38	0xbaa723d5	-0.0012751768
39	0xbcd96fdc	-0.026542597
40	0xbbde6e50	-0.0067880526
41	0x3d08a536	0.033360682
42	0x3d0dcd91	0.03461987
43	0xbd04df5a	-0.032439567
44	0x3c245a80	0.0100313425
45	0xbd5b9735	-0.053611
46	0xbd0b9eda	-0.03408704
47	0xbd32302f	-0.043502983
48	0xbd6615be	-0.05617308
49	0x3c456d21	0.012049944
50	0xbc40de23	-0.0117717115
51	0xbd417e41	-0.047239546
52	0xbcabb52d	-0.020960415
53	0xbd135d40	-0.035977602
54	0x3c253241	0.010082782
55	0xbd890883	-0.066910766
56	0xbbbee6d7	-0.005825858
57	0x3cc615c5	0.024180302
58	0x3cc92ff5	0.024559
59	0xbd35a8d3	-0.044350456
60	0x3d042905	0.03226568
61	0xbcbf0054	-0.023315586
62	0x3d20e376	0.039279424
63	0xbdc72033	-0.097229384
64	0xbd2867b6	-0.04111453
65	0xbd82c66b	-0.063855015
66	0xbd15669d	-0.036474813
67	0x3d3cdaf7	0.04610726
68	0xbd57b172	-0.05265946
69	0xbc438dbe	-0.011935649
70	0xbd132c1a	-0.03593073
71	0x3bf03a5c	0.0073311757
72	0xbd90ddfc	-0.0707359
73	0xbcd9fc0b	-0.026609441
74	0x3c2d52cb	0.010578821
75	0x3cf92396	0.030412477
76	0x3d1a82f5	0.037722547
77	0xbb1bf1e7	-0.0023795308
78	0xbcf236dc	-0.029567175
79	0xbd11fdcb	-0.035642426
80	0x3cb4caa4	0.022069283
81	0xbc86e5f2	-0.016467068
82	0xbd215e9f	-0.03939688
83	0x3d114abf	0.035471674
84	0xbcd43413	-0.025903737
85	0xbd86b0eb	-0.06576713
86	0x3a130be2	0.00056093757
87	0xbb9756fb	-0.004618523
88	0xbcbd9f6c	-0.023147307
89	0x3d48bec4	0.049010053
90	0xbd8c90a9	-0.06863529
91	0x3d08c2bb	0.033388834
92	0xbd6f5f49	-0.05844048
93	0x3baa628d	0.0051997364
94	0x3cfb8e17	0.030707402
95	0xbd79f4e0	-0.061024547
96	0xbcfaee04	-0.030631073
97	0x3bff28cc	0.007786846
98	0x3b07cfe0	0.0020723268
99	0x3c11abc2	0.008891048
100	0x3c389b37	0.011267475
101	0xbb0771d7	-0.002066722
102	0xbd881ad4	-0.06645742
103	0x3d42be46	0.04754474
104	0x3c60148e	0.013676776
105	0xbd68afb1	-0.056808177
106	0x3d2e9e41	0.04263139
107	0xbc0854ad	-0.0083209695
108	0xbd167b18	-0.036738485
109	0x3c43b465	0.011944865
110	0x3d72f09e	0.0593115
111	0xbd2a6561	-0.04160059
112	0x3d053b86	0.03252747
113	0x3ca0e922	0.019642416
114	0x3c8a7e7f	0.016906021
115	0x3cf43464	0.029810138
116	0xbc976291	-0.018479617
117	0xbcb63e91	-0.02224663
118	0xbcf8c149	-0.030365603
119	0x3d1760d3	0.036957573
120	0xbd07bfc3	-0.033141863
121	0xbcc80013	-0.024414098
122	0x3cac4db5	0.021033147
123	0x3cec1224	0.028817244
124	0xbd5e5ad3	-0.054285835
125	0xbdbe3082	-0.09286596
126	0xbd1d9e28	-0.038480908
127	0xbd20dcea	-0.03927318
128	0x3d2975b5	0.04137202
129	0x3cbb5670	0.022868365
130	0xbccebc1f	-0.025236188
131	0xbc7c5ca5	-0.015402948
132	0x3d216a72	0.039408155
133	0x3c54cc8e	0.012988223
134	0xbca91fb4	-0.020645
135	0xbcedb5f4	-0.029017426
136	0xbcd78dec	-0.02631279
137	0xbc86af54	-0.016441025
138	0xbd2dac82	-0.042400844
139	0xbbe0320e	-0.0068419045
140	0xbd97de2e	-0.07415424
141	0x3d623a36	0.055231296
142	0xbd37d7f7	-0.044883694
143	0x3cd9578a	0.026531
144	0x3d85781f	0.06517052
145	0xbc0144b4	-0.007889915
146	0xbc0cc7f5	-0.008592595
147	0x3c1f6e4a	0.009730885
148	0xbcb3a9c6	-0.02193154
149	0xbcb87b8f	-0.022519855
150	0x3d0c1e68	0.034208685
151	0xbcbef26b	-0.023308953
152	0x3d578fd1	0.05262739
153	0x3d1a83ed	0.03772347
154	0x3c2fc96b	0.010729174
155	0xbd8872f1	-0.06662548
156	0xbc37a735	-0.011209299
157	0xbca8b268	-0.020592883
158	0xbd82bd36	-0.06383745
159	0xbd3ce8e3	-0.046120536
160	0xbd1f8a68	-0.038950354
161	0xbd2ed388	-0.0426822
162	0xbd4acdc2	-0.049512632
163	0xbd68bcaf	-0.056820568
164	0xbd105647	-0.03523853
165	0x3b1bbf51	0.0023765157
166	0x3bbd86d1	0.0057838936
167	0x3cba304b	0.022728106
168	0xbcbccecf	-0.023047833
169	0xbd8f3e07	-0.06994253
170	0xbd6e8b43	-0.05823828
171	0x3d07d2f5	0.03316017
172	0x3d4b322d	0.0496084
173	0xbbc9a23e	-0.006153374
174	0x3c3a0c5c	0.011355486
175	0xbd71049e	-0.058842294
176	0xbcf9fe1a	-0.030516673
177	0xbd068213	-0.032838892
178	0x3ca10b97	0.019658847
179	0xbc847064	-0.016166873
180	0xbd6919e6	-0.056909464
181	0x3ba930c5	0.0051632845
182	0x3ca0f3ff	0.019647596
183	0xbd1b28de	-0.03788077
184	0xbcd8f505	-0.026484022
185	0x3adff600	0.0017086864
186	0xbd6cd010	-0.05781561
187	0x3cfa2b1f	0.03053814
188	0x3d31a2f8	0.04336831
189	0xbc23c65f	-0.009996026
190	0xbd05ff3b	-0.03271411
191	0xbca2ad6b	-0.019858083
192	0xbd72a7bb	-0.05924199
193	0xbc9537ba	-0.018215049
194	0xbc036070	-0.008018598
195	0xbcb05a4a	-0.021527428
196	0x3ce88414	0.028383292
197	0xbd14a032	-0.036285587
198	0xbd58d439	-0.052936766
199	0xbc1495dd	-0.009068933
200	0xbc2c9078	-0.010532491
201	0x3d42b0f0	0.047532022
202	0x3c7a9ea0	0.015296608
203	0xbc811dd4	-0.015761293
204	0xbcb252ef	-0.021768061
205	0xbd4f5a45	-0.050623197
206	0x3c4c53cb	0.01247115
207	0xbc91e606	-0.017809879
208	0xbbec3e70	-0.0072095916
209	0xbd6bdb58	-0.05758223
210	0x3cd34aec	0.025792561
211	0x3c6d0d82	0.014468553
212	0xbd14fe69	-0.036375437
213	0xbbe8ecd0	-0.0071083084
214	0xbd0440e4	-0.032288447
215	0x3d41303e	0.047165148
216	0x3cd7a105	0.026321897
217	0xbd20d460	-0.039265037
218	0xbce8ca4c	-0.028416775
219	0x3cc6ecc6	0.024282824
220	0xbc934632	-0.017977808
221	0xbc977d13	-0.018492257
222	0xbd070465	-0.032963175
223	0xbd34e7cd	-0.044166375
224	0xbd2e0321	-0.042483453
225	0x3c1cac73	0.0095625995
226	0xbc660e25	-0.014041458
227	0x3cd8aab9	0.026448594
228	0x3d0dbbab	0.034602802
229	0x3c97f4eb	0.018549403
230	0xbd4e826d	-0.050417352
231	0x3d14a1b8	0.03628704
232	0x3c647640	0.013944209
233	0x3b88dbdc	0.0041766
234	0xbd0753c1	-0.03303886
235	0x3b37210c	0.0027943281
236	0x3d5ad176	0.053422414
237	0xbd4a816e	-0.04943984
238	0x3c366a9f	0.011133819
239	0x3c27e4bb	0.010247405
240	0x3cb72452	0.022356186
241	0xbd38bb44	-0.045100465
242	0x3c80a22b	0.015702328
243	0x3c665610	0.014058605
244	0xbd3cb45c	-0.04607044
245	0xbdbc9780	-0.09208584
246	0x3d3c3592	0.045949526
247	0xbd68af91	-0.05680806
248	0xbd8e1346	-0.0693727
249	0x3d2aadb0	0.041669548
250	0xbd906e0d	-0.070522405
251	0x3cf48462	0.029848281
252	0x3d147c5e	0.03625142
253	0xbcd0a4a5	-0.025469134
254	0xbc952a01	-0.018208506
255	0x3cb2f813	0.021846807

FC2.bias f4 [256]
0	0xbd4ac7c4	-0.049506918
1	0xbd998573	-0.074961565
2	0xbd75a2ed	-0.05996983
3	0xbc2d5938	-0.010580353
4	0x3e34b3fb	0.17646782
5	0xbd92366a	-0.07139285
6	0x3c41c183	0.011825922
7	0xbd376dee	-0.04478257
8	0xbc5b2d66	-0.013377523
9	0xbda4bb51	-0.0804354
10	0x3d8fdaa5	0.07024125
11	0x3c9da45a	0.019243408
12	0x3df2b5b2	0.11851062
13	0x3d0282e0	0.031863093
14	0xbca2155c	-0.019785576
15	0x3dfe346a	0.12412341
16	0x3ddc4407	0.10755163
17	0xbd9da4a1	-0.07697416
18	0xbd47a921	-0.04874528
19	0x3d03fc5a	0.032223083
20	0xbb6a7bbb	-0.0035779316
21	0x3dd0b55b	0.10190841
22	0xbd306149	-0.04306153
23	0x3e7afda6	0.24510822
24	0x3d75c179	0.059998963
25	0x3ddd2cff	0.10799598
26	0x3e18f886	0.14938554
27	0x3d8d48ab	0.06898626
28	0xbdabe7c0	-0.08393812
29	0xbd4d7dd7	-0.05016884
30	0xbde81d06	-0.11333661
31	0xbd7caa43	-0.06168581
32	0x3da6e664	0.08149412
33	0x3e05da25	0.13071497
34	0xbda76d19	-0.081751056
35	0x3d9eb992	0.077502385
36	0x3e0fb860	0.14035177
37	0x3c83251e	0.01600891
38	0x3dbbfb64	0.09178808
39	0x3e1d93d1	0.15388419
40	0x3d804e6a	0.06264956
41	0x3bc1dfbd	0.0059165643
42	0xbd79c39f	-0.060977574
43	0x3e6d50c9	0.23175348
44	0xbd4aa129	-0.0494701
45	0x3dbc150d	0.091837026
46	0xbd14d667	-0.036337283
47	0x3d3411d7	0.043962326
48	0x3e0e25aa	0.13881555
49	0xbbda84f2	-0.0066686803
50	0x3dada22d	0.08478198
51	0xbd435182	-0.047685154
52	0x3c8d6916	0.017262023
53	0xbcc718dc	-0.024303846
54	0x3dcebbcb	0.100944124
55	0xbc54d99c	-0.012991335
56	0x3dc17a07	0.09447103
57	0x3e020f10	0.12701058
58	0x3dffd4b4	0.12491742
59	0xbdb44fd0	-0.088042855
60	0xbd5b8e9a	-0.053602792
61	0xbdafa8f3	-0.085771464
62	0xbe37b1df	-0.17938946
63	0xbd06e20e	-0.032930426
64	0xbc8f2c8c	-0.017477296
65	0xbd8fc28c	-0.07019529
66	0x3d7797ab	0.060447376
67	0xbd9de860	-0.07710338
68	0xbd9f2f22	-0.07772662
69	0x3df3ae7b	0.11898514
70	0x3e812929	0.25226715
71	0x3de3fcb4	0.11132184
72	0xbcda6860	-0.026661098
73	0x3e164d9c	0.14678043
74	0xbd713c88	-0.058895618
75	0xbdbd7520	-0.092508554
76	0x3d574fee	0.05256646
77	0xbda5864f	-0.08082258
78	0xbdadcc20	-0.084861994
79	0xbdf5d271	-0.12003029
80	0x3db14a9e	0.0865681
81	0xbdaeccf6	-0.08535187
82	0xbd39d24e	-0.045366578
83	0x3e85fe10	0.26170397
84	0xbcdfb8c0	-0.027309775
85	0xbdca0f8a	-0.09866245
86	0x3cd2f23e	0.025750276
87	0x3ccea2fe	0.025224205
88	0x3d5a0a7f	0.053232666
89	0x3d27d6f8	0.040976495
90	0x3d7ccfaa	0.06172148
91	0x3bf9618a	0.0076105045
92	0x3c8dd02e	0.017311182
93	0xbdae4b88	-0.085105
94	0xbd2dc6ba	-0.04242585
95	0xbc3140fe	-0.010818718
96	0x3c998c3b	0.018743625
97	0x3e1536b4	0.14571649
98	0xbcb50bcb	-0.02210035
99	0xbe220937	-0.15823828
100	0xbdb2e7e9	-0.087356396
101	0xbd9763a0	-0.07392049
102	0xbd8a1ccf	-0.06743776
103	0xbcce723f	-0.025200961
104	0x3d045496	0.03230723
105	0xbda33e07	-0.07970815
106	0xbdcc008c	-0.09961042
107	0x3dcb9f3d	0.09942482
108	0xbdf9f16c	-0.12204251
109	0x3d5128a2	0.05106414
110	0xbd9728c0	-0.07380819
111	0xbdb6fa47	-0.08934455
112	0xbd1a48e3	-0.037667166
113	0x3e19484c	0.14968985
114	0xbdb9beef	-0.09069621
115	0x3e75bdb3	0.23998146
116	0x3d820dbd	0.063502766
117	0xbd8c76df	-0.0685861
118	0xbc4606a7	-0.012086547
119	0x3e3d2eda	0.18474904
120	0x3d9656df	0.07340788
121	0x3ea009fd	0.3125762
122	0xbcb074c2	-0.02154005
123	0x3e2c62a8	0.1683451
124	0x3dca2d38	0.09871906
125	0xbe1a1139	-0.15045632
126	0x3dca9114	0.09890953
127	0x3e4c3d61	0.19945289
128	0xbca75035	-0.020423988
129	0xbd7f18fd	-0.06227969
130	0x3b81793e	0.003951221
131	0xbd093ae9	-0.033503447
132	0xbd9afb47	-0.075674586
133	0xbdd3e6be	-0.10346745
134	0x3d31785b	0.04332767
135	0x3e04adc1	0.12956907
136	0x3e26fb8a	0.16306892
137	0x3e0a8c84	0.13530165
138	0xbd6c3ffd	-0.05767821
139	0xbd926dc8	-0.07149845
140	0x3e127de8	0.14305842
141	0x3defe1c4	0.11712983
142	0x3d762c7a	0.06010101
143	0xbe3ab479	-0.18232907
144	0x3aa9db1a	0.0012958974
145	0xbdbf883a	-0.09352155
146	0x3e104151	0.14087416
147	0xbdc5bb87	-0.096549086
148	0x3ddd0d4d	0.107935525
149	0x3d9ac0ba	0.07556291
150	0xbc94330c	-0.018090747
151	0x3e0d2b44	0.13786036
152	0xbda37e15	-0.079830326
153	0x3c8560a6	0.016281437
154	0xbc41c003	-0.011825564
155	0xbc412fb3	-0.011791158
156	0xbdaa44f4	-0.08313933
157	0x3e29689a	0.16543809
158	0x3dc1fa2f	0.09471547
159	0xbbcae7cb	-0.0061921827
160	0x3e14fd10	0.1454966
161	0x3d6faf18	0.05851659
162	0x3d2529d5	0.040323097
163	0xbd25abd7	-0.040447082
164	0xbc820e6a	-0.015876014
165	0x3dad9651	0.08475936
166	0x3dec6dae	0.11544357
167	0xbdfe89ce	-0.12428628
168	0x3dfe93f9	0.12430567
169	0xbd8a335a	-0.06748076
170	0xbcc3d82a	-0.023906786
171	0x3df5408b	0.11975201
172	0x3e3efd94	0.1865142
173	0x3bdad1fa	0.006677863
174	0xbd8c9796	-0.0686485
175	0xbdc3651b	-0.09540769
176	0xbdd676a9	-0.104718514
177	0xbd2bd2a7	-0.04194894
178	0x3e12aa07	0.14322673
179	0x3d7a0447	0.061039235
180	0x3d7e7557	0.062123623
181	0x3ce8bf43	0.028411513
182	0xbe04af86	-0.12957582
183	0x3d098aa6	0.03357949
184	0xbcaac18f	-0.020844249
185	0xbbc87e95	-0.0061186054
186	0x3db336f5	0.087507166
187	0xbc537b38	-0.012907796
188	0x3df10a75	0.11769573
189	0xbd6e7d2b	-0.05822484
190	0xba0327a7	-0.0005003162
191	0x3d1b340e	0.03789144
192	0x3dd94c29	0.106102295
193	0xbc9cf322	-0.019158904
194	0xbdc9bf86	-0.09850983
195	0x3dfba524	0.122873574
196	0xbd8f9902	-0.07011606
197	0x3e268e36	0.16265187
198	0x3d7099e6	0.05874052
199	0xbd10bac2	-0.035334356
200	0x3db0fbba	0.08641763
201	0x3d99e762	0.07514836
202	0x3e6b98ce	0.23007509
203	0xbd740e4c	-0.059583947
204	0x3e0eced2	0.13946083
205	0x3de27f8a	0.110594824
206	0x3e2f640e	0.17128012
207	0x3da8d3d7	0.0824353
208	0xbd18e7d3	-0.03733046
209	0xbd15e098	-0.036591142
210	0x3b1ff28b	0.0024406041
211	0x3d8d2440	0.0689168
212	0xbca88b0c	-0.020574115
213	0x3c93e8fe	0.018055435
214	0xbe05d92c	-0.13071126
215	0xbd261d79	-0.04055545
216	0x3d25a014	0.040435866
217	0xbc859c97	-0.01631002
218	0x3dbd317d	0.09237955
219	0x3e0b3ae3	0.13596682
220	0x3da75759	0.08170957
221	0xbd9f69d2	-0.077838555
222	0x3de946b1	0.113904364
223	0x3d2ef0d8	0.042710155
224	0xbda24e98	-0.07925147
225	0xbdc73fb3	-0.097289465
226	0xbd1db80d	-0.038505603
227	0xbce7cd8b	-0.028296253
228	0xbd38100b	-0.044937175
229	0xbd139c09	-0.03603748
230	0x3d6fb659	0.05852351
231	0xbd3fea2c	-0.046854183
232	0x3dd7757b	0.105204545
233	0x3e4c3409	0.19941725
234	0x3cfd58d4	0.030926146
235	0x3df17010	0.11788952
236	0xbb04550e	-0.0020192298
237	0xbd01d068	-0.031692892
238	0xbdafcf88	-0.08584505
239	0xbca08472	-0.019594405
240	0x3bdd57df	0.00675486
241	0x3e15597d	0.14584918
242	0x3c2894ef	0.010289415
243	0x3e09ab8e	0.13444349
244	0xbda47c05	-0.08031467
245	0x3deb1989	0.1147948
246	0xbd048bde	-0.03235995
247	0x3e00e4d7	0.12587295
248	0x3dceec0c	0.10103616
249	0x3d88aeb7	0.06673949
250	0xbd95d345	-0.07315687
251	0xbdaa163b	-0.083050214
252	0xbb3e1bae	-0.0029008198
253	0x3d2f4c0d	0.042797137
254	0x3c81137c	0.015756361
255	0x3e9c0629	0.3047345

action_out.weight f4 [5, 256]
0	0x3d477752	0.048697777
1	0x3cb3e678	0.021960482
2	0x3cce5004	0.025184639
3	0xbcb04052	-0.021515045
4	0xbf5e8966	-0.86928403
5	0xbe227c7a	-0.15867797
6	0xbdd66403	-0.104682945
7	0xbdef0975	-0.11671726
8	0x3d32d2ea	0.043658175
9	0xbe2ea62f	-0.17055582
10	0xbe1fe5c9	-0.15615
11	0x3c855fef	0.016281096
12	0xbd2ace45	-0.04170062
13	0x3de1c075	0.110230364
14	0x3d3d2c20	0.04618466
15	0xbdc23ea8	-0.09484607
16	0xbfd7d42a	-1.6861622
17	0xbdabf931	-0.08397139
18	0x3ce8a41b	0.028398564
19	0x3cb2db45	0.021833071
20	0xbf4f9d1d	-0.8109911
21	0xbe18dd76	-0.1492823
22	0x37e1c07c	2.6911723e-05
23	0xbfaf9d3a	-1.3719857
24	0xbc81073d	-0.015750522
25	0xbebf4634	-0.37358248
26	0xbe3d832e	-0.18507072
27	0xbdf0a77b	-0.11750694
28	0xbe0921ba	-0.13391772
29	0x3d56fa27	0.052484658
30	0xbdc58110	-0.09643757
31	0x38db1768	0.000104470935
32	0xbdeb94aa	-0.11502965
33	0xbe60bed4	-0.21947795
34	0xbf84598e	-1.033983
35	0xbe0107a3	-0.1260057
36	0xbc55c2d8	-0.013046943
37	0xbc9737bb	-0.018459192
38	0xbe84e9ec	-0.25959718
39	0xbe6de8cc	-0.23233336
40	0xbd9af46e	-0.075661525
41	0xbd3ee969	-0.046609316
42	0x3c1358c9	0.008993336
43	0xbce50760	-0.027957618
44	0xbd173ce1	-0.036923293
45	0xbdce6617	-0.10078066
46	0x3c9eed38	0.019400224
47	0xbe08a956	-0.13345847
48	0xbe1c5623	-0.15267234
49	0xbe0967f2	-0.13418558
50	0xbe1f6930	-0.1556747
51	0xbd3fd825	-0.04683699
52	0xbdb734b6	-0.08945601
53	0x3d323017	0.043502893
54	0xbdd9dff0	-0.10638416
55	0xbd8af9ad	-0.06785903
56	0xbdad7271	-0.084690936
57	0xbd110ebe	-0.03541445
58	0xbe30cd12	-0.17265728
59	0x3cfb080b	0.030643484
60	0x3bff3808	0.007788662
61	0xbd24d420	-0.04024136
62	0xbd191d6f	-0.037381586
63	0xbd137181	-0.035996918
64	0xbc17823b	-0.009247358
65	0xbc9100d8	-0.017700598
66	0xbdb7c53e	-0.08973168
67	0xbe29da02	-0.1658707
68	0x3d418268	0.047243506
69	0xbc6cc821	-0.014452011
70	0xbe9d65db	-0.30741772
71	0xbc9b2f62	-0.018943492
72	0xbbfa7886	-0.007643762
73	0xbd7981ae	-0.060914688
74	0xbd12cdc4	-0.035840765
75	0xbe5f0e88	-0.21782887
76	0xbdd85ee2	-0.105649725
77	0xbdac6336	-0.084173605
78	0xbdcbb300	-0.09946251
79	0xbcb8c694	-0.022555627
80	0xbe434673	-0.19069843
81	0x3d17c656	0.037054382
82	0xbe19b6df	-0.15011166
83	0xbe4c9f0d	-0.19982548
84	0xbe5eab48	-0.21745026
85	0x3d09f793	0.03368337
86	0xbd76c060	-0.060242057
87	0xbb827135	-0.0039807805
88	0xbe676db8	-0.22600448
89	0xbe51ebc2	-0.2050009
90	0xbcd33b50	-0.025785118
91	0xbd6a70e0	-0.057236552
92	0xbc10ecfe	-0.008845566
93	0x3d099251	0.033586804
94	0xbd3c9f6b	-0.04605047
95	0x3c9fb48b	0.01949527
96	0xbe50d993	-0.20395498
97	0xbf6bd037	-0.92114586
98	0xbe41e0ab	-0.1893336
99	0xbe358b4f	-0.17728923
100	0xbbd0da18	-0.006373655
101	0x3d0171f7	0.031602826
102	0x3d48c50a	0.049016036
103	0xbd0667cb	-0.03281383
104	0xbdab0105	-0.08349804
105	0x3c01caec	0.0079219155
106	0xbd0f9627	-0.035055306
107	0xbd89b62c	-0.067242
108	0x3ce4e3a2	0.027940575
109	0xbb4a3dee	-0.0030859667
110	0xbf8c8c98	-1.0980406
111	0x3bd6a26b	0.0065501234
112	0x3cd94ff6	0.026527386
113	0xbfd39851	-1.6530858
114	0xbd616aaf	-0.055033382
115	0xbf367f8d	-0.7128838
116	0xbe481657	-0.19539772
117	0x3be76e73	0.007062727
118	0x3d15b762	0.03655184
119	0xbe052ab1	-0.13004567
120	0xbec735e4	-0.38908303
121	0xbf261c3f	-0.6488685
122	0xbd35f16d	-0.044419695
123	0xbd4ecf20	-0.0504905
124	0xbe7b3b24	-0.24534279
125	0xbe1785d2	-0.14797142
126	0xbe2ac4b2	-0.16676596
127	0xbec59c34	-0.38595736
128	0x3d40df71	0.04708809
129	0x3cd30fa9	0.025764303
130	0xbe0a06aa	-0.13479105
131	0x3cc6c96c	0.024265967
132	0xbddfc8ae	-0.109269485
133	0xbcab7d5e	-0.020933803
134	0xbe3f0179	-0.18652906
135	0xbe0610ab	-0.13092296
136	0xbdd2b982	-0.10289289
137	0xbe587a56	-0.21140417
138	0xbe2b3826	-0.16720638
139	0xbd3bc2c1	-0.04584003
140	0xbdb01da3	-0.08599403
141	0xbd1e5380	-0.03865385
142	0xbe28823c	-0.1645593
143	0xbe26f2bc	-0.16303533
144	0xbdeda128	-0.11603004
145	0x3b952029	0.004550953
146	0xbd4b7324	-0.049670354
147	0xbd291836	-0.041282855
148	0xbde0fe30	-0.109859824
149	0xbd9e62de	-0.07733701
150	0x3be7378f	0.0070561836
151	0xbf0ccbfb	-0.5499875
152	0xbe2c3dd8	-0.16820467
153	0xbd6afde9	-0.057371054
154	0x3d045a26	0.032312535
155	0xbd7e5de6	-0.062101267
156	0x3c3b1105	0.011417632
157	0xbdc2b5a4	-0.095073014
158	0xbeaf95c1	-0.3429394
159	0xbcf3e09d	-0.02977019
160	0xbe3a371c	-0.18185085
161	0xbe74ecc5	-0.23918445
162	0xbe940ee0	-0.289176
163	0xbe6ec38e	-0.23316786
164	0xbe279bad	-0.1636798
165	0xbe430cea	-0.19047895
166	0xbdb6d754	-0.08927789
167	0xbd29c5b4	-0.04144831
168	0xbdd7552a	-0.10514291
169	0xbd436654	-0.04770501
170	0xbc97c40b	-0.018526098
171	0xbda84fa2	-0.08218314
172	0xbda563cd	-0.08075676
173	0xbdc40c9f	-0.0957272
174	0xbed00368	-0.406276
175	0xbe25bd3e	-0.16185471
176	0x3c233a01	0.00996256
177	0xbe1b3ff0	-0.15161109
178	0xbe6b82a8	-0.2299906
179	0xbe51274f	-0.20425151
180	0xbe0c3d4b	-0.13695256
181	0xbe0925be	-0.13393304
182	0xbda464d3	-0.08027043
183	0xbd6d1dc7	-0.057889726
184	0x3d2de6ec	0.042456552
185	0x3d483b21	0.048884515
186	0xbded945e	-0.116005644
187	0x3cc0c0ce	0.023529436
188	0xbdaaf1b1	-0.0834688
189	0x3c8f098f	0.017460613
190	0xbdfc7887	-0.12327676
191	0xbd290b7f	-0.04127073
192	0xbe49327a	-0.19648162
193	0xbc904039	-0.017608749
194	0xbdc0013f	-0.09375238
195	0xbd4a4b6c	-0.049388334
196	0x3d1b85e5	0.03796949
197	0xbd9317e8	-0.07182294
198	0xbe155a9c	-0.14585346
199	0x3d45c5fe	0.048284523
200	0xbefabd7e	-0.48972696
201	0xbd6f991f	-0.058495637
202	0xbab58560	-0.0013848953
203	0x3d3ffc9c	0.046871766
204	0xbdcd08fc	-0.10011479
205	0xbde2d092	-0.11074938
206	0xbe1a85ee	-0.15090153
207	0xbdeebff9	-0.1165771
208	0x3cea82f1	0.02862689
209	0x3c49b844	0.012311999
210	0xbe0bfb36	-0.13670048
211	0xbd4292b5	-0.047503192
212	0xbf3c2937	-0.7350039
213	0xbcdfbd30	-0.027311891
214	0xbea8b884	-0.32953274
215	0xbd772f03	-0.06034757
216	0xbe575544	-0.2102862
217	0xbe5a24aa	-0.21303049
218	0xbf1c32dc	-0.61015105
219	0xbdc5fa3c	-0.09666869
220	0xbddd74b3	-0.10813274
221	0xbdd3fcb3	-0.10350933
222	0xbd6c421a	-0.057680227
223	0xbe4eb139	-0.20184793
224	0xbd1e5fe2	-0.03866566
225	0xbb868dc2	-0.0041062543
226	0xbbd36edb	-0.006452424
227	0x3d471bac	0.048610374
228	0x3d8581af	0.06518876
229	0x3d6afa61	0.057367686
230	0xbd9f29fd	-0.077716805
231	0xbe196685	-0.14980514
232	0xbdaf9be5	-0.085746564
233	0xbdbf1db8	-0.0933184
234	0xbcbc5d5d	-0.022993738
235	0xbdb60fb4	-0.08889714
236	0x3d6e1d20	0.058133245
237	0xbd444762	-0.04791964
238	0xbd5e77df	-0.054313537
239	0x3cd80b4e	0.026372578
240	0x3d3298b0	0.043602645
241	0xbc9019af	-0.017590372
242	0x3d040e95	0.03224047
243	0xbfe1cafe	-1.7640073
244	0x3cf22ca0	0.029562294
245	0xbe5b0bed	-0.21391268
246	0x3cb5e449	0.022203581
247	0xbe90899c	-0.28229988
248	0xc00a1dfd	-2.1580803
249	0xbdb06256	-0.08612506
250	0xbd8007e7	-0.06251507
251	0x3d0e8fa2	0.034804948
252	0xbe567616	-0.20943484
253	0xbe5857ea	-0.21127287
254	0x3c527ea7	0.012847579
255	0xbf18d699	-0.5970245

action_out.bias f4 [5]
0	0xbe710eb7	-0.2354077
1	0xbd458a59	-0.04822764
2	0x3c4747d7	0.012163124
3	0xbcbb1bf5	-0.02284048
4	0x3d81c6d5	0.06336752

weight f4 [256, 123]
0	0x3de8fae0	0.113759756
1	0xbd9cbf4f	-0.07653677
2	0xbd93bab6	-0.07213347
3	0xbcec295b	-0.028828314
4	0xbe09037a	-0.13380232
5	0x3ec3bd51	0.38230374
6	0x3e1d3a87	0.15354358
7	0xbd8a0222	-0.06738688
8	0xbdc4edbf	-0.09615659
9	0x3d5ca85a	0.05387149
10	0x3d81fde1	0.06347252
11	0xbe29bf27	-0.16576825
12	0xbe13efb5	-0.1444691
13	0x3ee722be	0.45143694
14	0x3cff4dbe	0.031165
15	0xbcd2f08d	-0.02574947
16	0xbe05e163	-0.1307426
17	0x3ca2358f	0.01980093
18	0x39cf2178	0.00039507053
19	0x3d501805	0.050804157
20	0x3deadf8e	0.11468421
21	0x3eee67be	0.46563524
22	0xbd3f83eb	-0.046756666
23	0xbdf15494	-0.1178371
24	0xbdc1c592	-0.09461512
25	0xbe4c9019	-0.19976844
26	0xbe8e0f91	-0.2774625
27	0xbe06a8af	-0.13150285
28	0x3cfbfc97	0.030760093
29	0xbd35b0f4	-0.04435821
30	0x3e572224	0.21009117
31	0xbd879ef9	-0.066221185
32	0xbe0477ac	-0.12936276
33	0xbd8ccd07	-0.06875043
34	0xbcbaf3e0	-0.022821367
35	0xbcffa8a4	-0.031208344
36	0x3df71abf	0.12065648
37	0xbe7f0cec	-0.24907273
38	0xbe34fd7c	-0.17674822
39	0xbe09e265	-0.13465269
40	0xbe0c7d4f	-0.13719676
41	0x3ed4d5a0	0.41569233
42	0x3d8e5926	0.069505975
43	0xbeaa202e	-0.33227676
44	0xbe5d14d1	-0.21589972
45	0xbe37e7ed	-0.17959566
46	0xbdc051a2	-0.0939057
47	0xbe70aa2c	-0.23502415
48	0xbdcb210e	-0.09918414
49	0x3efb7839	0.4911516
50	0xbcd85a3a	-0.02641021
51	0xbe71d52c	-0.23616475
52	0xbd8f83c9	-0.07007558
53	0x3c86258c	0.016375326
54	0xbbffc080	-0.00780493
55	0xbce3fa0a	-0.027829189
56	0x3e0b1715	0.13583024
57	0x3ee17395	0.44033495
58	0x3d647726	0.05577769
59	0xbe71a62f	-0.2359855
60	0xbdbd7ce1	-0.092523344
61	0xbe82593f	-0.25458714
62	0xbe8e51d7	-0.27796814
63	0xbe129e41	-0.14318182
64	0xbd63b62a	-0.055593647
65	0xbd3ac864	-0.045601264
66	0x3e2a0df4	0.16606885
67	0xbe2fd3d8	-0.17170656
68	0x3c43e750	0.011957005
69	0xbe5876b3	-0.2113903
70	0xbd3c0beb	-0.045909803
71	0xbeb53ac1	-0.35396388
72	0x3e0da10c	0.13830966
73	0xbd91c7e8	-0.07118207
74	0x3e8a7307	0.27040884
75	0xbdb6e110	-0.08929646
76	0xbe2a1b28	-0.16611922
77	0x3ec67a41	0.38765147
78	0x3e0e0b5e	0.13871524
79	0x3d631017	0.055435266
80	0x3e1cbc36	0.15306172
81	0x3e91d3e1	0.28481963
82	0x3e68b472	0.22725084
83	0xbe9abe8d	-0.30223504
84	0xbe2b25b1	-0.16713597
85	0x3f102acd	0.5631531
86	0x3d29f916	0.041497312
87	0x3d91179a	0.0708458
88	0x3e45abe3	0.19303851
89	0x3e150a04	0.14554602
90	0x3e94a964	0.29035485
91	0xbc99fadf	-0.018796382
92	0x3e44e81e	0.1922917
93	0x3edfa75a	0.43682367
94	0xbd673637	-0.056448188
95	0x3d705119	0.05867109
96	0x3e121491	0.14265658
97	0xbd62d0b5	-0.05537482
98	0xbccfd9a4	-0.025372334
99	0xbe56c542	-0.20973685
100	0xbc9f8311	-0.019471677
101	0xbd80af85	-0.06283478
102	0xbd0e31f2	-0.0347156
103	0xbdb09afe	-0.086233124
104	0x3cd15cd4	0.02555696
105	0xbdb46017	-0.0880739
106	0xbe3235c9	-0.1740333
107	0xbbaefc30	-0.0053401217
108	0x3ddf9ed4	0.10918966
109	0x3d508c82	0.05091525
110	0x3d09a597	0.033605184
111	0x3d21c422	0.039493687
112	0xbdc84463	-0.09778669
113	0xbd97897e	-0.073992714
114	0x3bd55143	0.0065099313
115	0xbdb515cc	-0.08842048
116	0xbe8b3e80	-0.2719612
117	0xbeb307bf	-0.34966847
118	0x3dd9a848	0.106278
119	0xbe96dd62	-0.29465777
120	0x3e293dcb	0.16527478
121	0xbe8695ee	-0.26286262
122	0xbcb20e21	-0.021735253
123	0xbb8c0137	-0.0042726058
124	0xbd668e26	-0.056287907
125	0xbc99bcb6	-0.018766742
126	0xbd6e2816	-0.058143698
127	0xbdb6fc66	-0.0893486
128	0x3cf80154	0.03027407
129	0x3cfe2f1f	0.031028328
130	0xbda97bb1	-0.082755454
131	0x3daa433f	0.083136074
132	0x3d9283fb	0.071540795
133	0xbda73fdd	-0.08166478
134	0xbda94f6b	-0.08267101
135	0x3c28fbb7	0.01031392
136	0x3c53c030	0.012924239
137	0x3ad8e619	0.0016548067
138	0xbcd89227	-0.026436878
139	0x3baa3c17	0.0051951515
140	0x3d925db8	0.07146782
141	0xbdd54333	-0.10413208
142	0xbd971559	-0.073771186
143	0x3d9d479f	0.07679676
144	0x3d9a7515	0.07541863
145	0x3cf35499	0.029703425
146	0xbd870b7c	-0.06593987
147	0xbd8116b8	-0.063031614
148	0xba213733	-0.0006149888
149	0x3d19c860	0.037544608
150	0xbd7f4d76	-0.062329732
151	0xbd25af18	-0.040450186
152	0x3c8ee294	0.017442025
153	0xbd692eb6	-0.056929313
154	0x3d178e35	0.037000854
155	0x3c5a8747	0.013337917
156	0x3d56331a	0.052294828
157	0xbce37e02	-0.027770046
158	0xbcddd418	-0.027078673
159	0xbd6f9fc6	-0.05850198
160	0xbd982f5d	-0.07430909
161	0x3d531642	0.0515349
162	0xbd314174	-0.04327531
163	0xbbe5e280	-0.0070155263
164	0x3d5a6f1e	0.053328626
165	0x3c97180e	0.018444087
166	0xbd5ba4f4	-0.05362411
167	0x3cd98f71	0.026557656
168	0xbd8057cb	-0.06266745
169	0x3ddb786c	0.10716328
170	0xbbe0a945	-0.006856116
171	0xbddec96b	-0.10878261
172	0x3d446652	0.047949143
173	0xbd85df1c	-0.06536695
174	0xbda0edaa	-0.07857831
175	0xbd6ddf36	-0.0580742
176	0x3d3eba7a	0.046564557
177	0xbd9635b7	-0.07334464
178	0x3da27714	0.079328686
179	0xbce7dadc	-0.028302602
180	0x3d16039a	0.03662453
181	0xbce39193	-0.027779376
182	0x3d15526a	0.03645555
183	0x3d8d0372	0.06885423
184	0x3d85b13a	0.06527944
185	0x3c4e6817	0.012598059
186	0xbdc0d973	-0.09416475
187	0xbdaa6cfc	-0.08321568
188	0x3d29b1ff	0.041429516
189	0xbdf09bdb	-0.11748477
190	0xbd4129fd	-0.047159184
191	0x3cc8677c	0.024463408
192	0xbdae00bb	-0.08496233
193	0xbd918727	-0.071058564
194	0x3c2f64b8	0.010705166
195	0x3d664d75	0.056226213
196	0x3d9ac4d2	0.07557072
197	0xbd0acde9	-0.033887777
198	0x3d9be623	0.076122545
199	0x3d45c8c1	0.048287157
200	0xbb8e78b0	-0.004347883
201	0x3c0eac23	0.008708033
202	0xbc1a4057	-0.009414754
203	0xbd59b6cf	-0.053152855
204	0xbcbf88ce	-0.023380663
205	0x3df83bcb	0.121207796
206	0xbc61f8ef	-0.013792261
207	0x3ac317c5	0.0014884403
208	0xbd0c0bd1	-0.034190957
209	0xbd991752	-0.07475151
210	0xbdbbce5f	-0.091702215
211	0x3c668f16	0.0140722
212	0x3d01eb00	0.031718254
213	0xbc9ddb87	-0.019269718
214	0x3d0b5872	0.034019895
215	0xbd647530	-0.05577582
216	0x3d1b40a2	0.037903436
217	0xbd81e987	-0.0634337
218	0xbbef920d	-0.007311112
219	0x3d9a4987	0.075335555
220	0xbc0dbcd8	-0.008650981
221	0x3d7d9a66	0.061914824
222	0xbba27a5a	-0.004958433
223	0xbd4ba3ce	-0.049716763
224	0xbbf20590	-0.007385917
225	0xbc040448	-0.008057661
226	0xbdb8c2f7	-0.090215616
227	0x3b0f0be0	0.0021827146
228	0x3da87b2f	0.082266204
229	0xbc7d32ed	-0.015454036
230	0x3d044c10	0.0322991
231	0xbbe747db	-0.0070581264
232	0x3d41f4d6	0.047352634
233	0xbd4f7bc1	-0.05065513
234	0x3d9b186f	0.0757302
235	0xbd08faf6	-0.03344246
236	0xbcac7e91	-0.021056445
237	0xbd7bde62	-0.061491378
238	0xbd8f0110	-0.069826245
239	0x3cc44636	0.02395926
240	0x3c22cad8	0.009936057
241	0x3d3e5b96	0.046474062
242	0x3d413b3c	0.04717563
243	0xbd682c29	-0.05668274
244	0x3baf4847	0.0053491923
245	0x3d837d87	0.06420427
246	0xbba96a73	-0.0051701604
247	0xbdc6a1f6	-0.0969886
248	0x3da8e4cf	0.08246767
249	0xbe53a5ca	-0.20668712
250	0x3d4bb7bb	0.049735766
251	0xbce7c61b	-0.028292706
252	0xbdf971cf	-0.121799104
253	0xbd8c5e3f	-0.068539135
254	0x3cc2dd4e	0.023787167
255	0xbc81f640	-0.015864491

bias f4 [256]
0	0xbdc439a7	-0.09581309
1	0x3b882d08	0.004155759
2	0x3e7dc366	0.2478157
3	0x3dff8eab	0.12478384
4	0xbe4dc29a	-0.20093766
5	0x3e504d83	0.20342068
6	0xbd716aad	-0.058939625
7	0x3cc10e67	0.023566438
8	0x3cc326f3	0.023822283
9	0x3e1bd158	0.15216577
10	0xbe2abc47	-0.16673385
11	0x3ca5b887	0.020229591
12	0x3d971cd7	0.07378548
13	0x3e2a4e6f	0.16631483
14	0xbc67d3c9	-0.014149615
15	0x3e4054d6	0.18782362
16	0xbde5893b	-0.11207815
17	0xbbf14d41	-0.0073639457
18	0x3e37e56b	0.1795861
19	0xbccdf646	-0.025141846
20	0x3d102816	0.03519448
21	0xbdcc4ae0	-0.09975219
22	0xbe7a45ce	-0.24440691
23	0xbd09a605	-0.033605594
24	0x3d654f68	0.05598393
25	0x3d543cd9	0.05181584
26	0xbdee8fc1	-0.11648513
27	0x3d41e6d0	0.04733926
28	0x3e1310fb	0.14361946
29	0x3e64608c	0.22302455
30	0xbd8cf795	-0.0688316
31	0xbd94f5f2	-0.07273473
32	0x3d231957	0.039819088
33	0xbd6e02ec	-0.058108255
34	0xbc0c82b9	-0.008576089
35	0xbd967858	-0.073471725
36	0xbde4c3f2	-0.11170186
37	0x3e0dea50	0.13858914
38	0xbd8b1830	-0.06791723
39	0xbd7eaa33	-0.062174033
40	0xbd4f89f0	-0.050668657
41	0x3e3862af	0.18006395
42	0xbdb52c2e	-0.08846317
43	0x3e441a77	0.1915072
44	0xbe3c149c	-0.18367237
45	0xba60bc4a	-0.0008572979
46	0xbc50d95f	-0.012747138
47	0x3d7a557d	0.061116684
48	0x3d13fd52	0.036130257
49	0xbe7539f9	-0.23947896
50	0x3d1db15a	0.038499214
51	0xbc5e65a2	-0.013574036
52	0xbc1eb0b0	-0.00968568
53	0xbdd1ee8d	-0.10250578
54	0xbbf0ca0d	-0.007348305
55	0xbe1d1671	-0.15340592
56	0xbd87f0b2	-0.06637706
57	0xbde50ba4	-0.11183861
58	0x3e86f06f	0.2635531
59	0xbe0d8171	-0.13818909
60	0x3c35db8d	0.011099708
61	0xbe85b3c3	-0.2611371
62	0x3d6d441a	0.057926275
63	0x3df4e210	0.119571805
64	0xbd83d297	-0.06436651
65	0xbd9beac4	-0.07613137
66	0xbe45c578	-0.1931361
67	0xbc94a1a8	-0.01814349
68	0xbcd23bf0	-0.025663346
69	0xbafe7a03	-0.0019415024
70	0xbe6f42c7	-0.23365317
71	0xbe218279	-0.15772428
72	0xbda36113	-0.079775
73	0xbd16b488	-0.03679326
74	0xbe45c3e0	-0.19313002
75	0x3d1dc1a9	0.038514767
76	0x3e15e3f6	0.14637741
77	0x3e0b1d8e	0.13585493
78	0xbd46988a	-0.048485316
79	0x3d845dfa	0.06463237
80	0xbe0ffade	-0.14060542
81	0xbd36f0d5	-0.04466327
82	0x3d1ced9b	0.038312536
83	0xbc0d79f3	-0.008635032
84	0x3da29477	0.07938474
85	0xbca6e2ee	-0.02037188
86	0x3de8fc89	0.11376292
87	0x3d8705ef	0.065929286
88	0xbd0cf1f4	-0.034410432
89	0xbd92f805	-0.07176212
90	0x3ded7d14	0.115961224
91	0xbc669111	-0.014072672
92	0xbcc900d2	-0.024536524
93	0x3dfcced9	0.123441406
94	0xbad13ff1	-0.0015964491
95	0xbc7d650a	-0.015465984
96	0xbe00cd90	-0.12578416
97	0x3d7e78f3	0.062127065
98	0x3cc3dbc4	0.023908503
99	0xbe0ec6a0	-0.13942957
100	0x3d81eed8	0.06344384
101	0xbd80b63a	-0.06284757
102	0xbc2e323e	-0.010632096
103	0x3e6de04a	0.2323009
104	0x3caf19bc	0.021374576
105	0xbd89d795	-0.06730572
106	0xbdaddadd	-0.084890105
107	0x3e1d5673	0.15365009
108	0x3d321b7f	0.043483254
109	0xbd319c88	-0.04336217
110	0xbc9a68b6	-0.018848758
111	0xbd8a7875	-0.067612566
112	0xbc36f157	-0.011165938
113	0x3cc9e2b2	0.02464423
114	0xbd35ceb6	-0.044386588
115	0xbd801a77	-0.06255048
116	0xbc9506f9	-0.018191801
117	0xbdc0f9b3	-0.09422626
118	0x3e0986a6	0.1343027
119	0xbe0a8ea6	-0.13530979
120	0xbcbbcb11	-0.022923978
121	0x3de204d6	0.11036079
122	0x3c20330e	0.009777797
123	0x3def4d08	0.116846144
124	0x3db1ee45	0.086880244
125	0xbe038f4a	-0.12847629
126	0xbc3a0e38	-0.011355929
127	0x3c90f418	0.017694518
128	0xbe1e8f7b	-0.15484421
129	0xbd976ea1	-0.07394148
130	0x3bbefead	0.0058286996
131	0x3ca38640	0.019961476
132	0xbd8ee86f	-0.06977927
133	0x3ea4b01c	0.3216561
134	0x3db3177e	0.08744715
135	0xbcf61417	-0.030038876
136	0x3d01fe07	0.0317364
137	0xbc8e3f95	-0.017364303
138	0xbdf77621	-0.12083078
139	0xbdd3708f	-0.10324203
140	0x3e5ec1b4	0.2175358
141	0x3e8ad11c	0.27112663
142	0xbd62ea7b	-0.0553994
143	0xbd9c6a38	-0.07637447
144	0xbe78f9d9	-0.2431406
145	0xbdbd516c	-0.092440456
146	0xbd58ab09	-0.052897487
147	0x3df7b82e	0.12095676
148	0x3e356d03	0.17717366
149	0xbdbccdbd	-0.09218929
150	0xbd53da81	-0.051722053
151	0x3df40954	0.11915842
152	0x3d2710ed	0.040787626
153	0x3e04d19d	0.12970586
154	0x3c862b2e	0.016378012
155	0xbe093333	-0.13398437
156	0x3de116ea	0.10990699
157	0xbd87bde9	-0.06628019
158	0xbcce32f2	-0.025170777
159	0x3e1a3458	0.1505903
160	0x3da287cb	0.07936057
161	0xbe059bad	-0.13047667
162	0xbc7e68e7	-0.01552794
163	0xbe4a3b46	-0.19749174
164	0x3ce0805e	0.02740496
165	0x3bb6611a	0.0055657746
166	0xbe0779f5	-0.13230117
167	0x3e1022a4	0.14075714
168	0xbd889629	-0.06669266
169	0xbb0208b1	-0.0019841606
170	0xbd74697d	-0.059670914
171	0x3c51a654	0.012796003
172	0xbe8f06c0	-0.27934837
173	0xbd68226b	-0.05667345
174	0xbd4a973f	-0.049460646
175	0xbcc9d850	-0.024639279
176	0xbccce760	-0.025012672
177	0xbd9d2201	-0.07672501
178	0x3b09945e	0.0020992975
179	0x3e6902ab	0.22754924
180	0x3e5335e7	0.20626031
181	0xbe0b2f55	-0.13592274
182	0xbddb4f88	-0.10708529
183	0xbdbaa1f8	-0.09112924
184	0x3d054d76	0.032544576
185	0xbda69df0	-0.08135593
186	0xbce4c40d	-0.027925516
187	0x3c5a3ad8	0.0133196935
188	0x3e1ca012	0.15295437
189	0xbda1a538	-0.07892841
190	0x3d265b44	0.04061438
191	0xbe46db25	-0.19419535
192	0x3e4d9d71	0.2007959
193	0xbdad120d	-0.084507085
194	0x3c6f7a98	0.014616631
195	0xbdc1fac8	-0.09471661
196	0x3d363217	0.044481363
197	0xbd614f3d	-0.05500721
198	0xbcb45d79	-0.022017227
199	0xbd3f3403	-0.04668046
200	0x3d0479be	0.032342665
201	0x3d3a1338	0.045428485
202	0x3c458d18	0.012057565
203	0xbd7b270d	-0.06131654
204	0x3d0df28e	0.034655146
205	0xbdd24734	-0.10267487
206	0x3c4d3b20	0.0125263035
207	0xbe3ae84f	-0.18252681
208	0xbce96325	-0.028489659
209	0x3d4db66a	0.05022279
210	0xbd9a8af3	-0.07546034
211	0xbd8a2436	-0.06745188
212	0x3d9bd878	0.076096475
213	0x3cb0e36d	0.02159282
214	0x3df3a926	0.11897497
215	0xbe4c0bc4	-0.19926363
216	0x3e1390d9	0.14410724
217	0x3df8db17	0.12151163
218	0xbcd56914	-0.026051082
219	0xbc108167	-0.008819914
220	0xbdd6bebe	-0.104856
221	0xbe03a431	-0.12855603
222	0x3e4b7dd7	0.19872223
223	0xbe1d4d16	-0.15361437
224	0xbe326219	-0.17420234
225	0x3e0ee30a	0.13953796
226	0x3d335eef	0.043791708
227	0xbd178722	-0.036994107
228	0x3b44f8e6	0.0030055582
229	0xbd8866c1	-0.06660224
230	0xbdcd7c3a	-0.1003346
231	0xbd8e9b39	-0.069632
232	0xbcb17908	-0.021664158
233	0x3e10c044	0.14135844
234	0xbc1d0ba4	-0.009585295
235	0x3c6b6d08	0.014369257
236	0xbcbb24da	-0.02284472
237	0xbca5cb00	-0.0202384
238	0x3d642d9b	0.055707555
239	0xbd232f49	-0.039840017
240	0x3d1f8d28	0.038952976
241	0xbc723d05	-0.014785056
242	0xbe085c94	-0.13316566
243	0xbd2227c4	-0.039588705
244	0xbdd2a09e	-0.102845415
245	0xbe17fa69	-0.14841618
246	0x3ddf8070	0.109131694
247	0xbe2dd471	-0.16975571
248	0x3c7d16a3	0.015447292
249	0xbe083ade	-0.13303706
250	0x3e03b195	0.12860711
251	0xbe781a00	-0.24228668
252	0xbd5f530f	-0.05452257
253	0x3d8471cf	0.0646702
254	0xbd637d83	-0.05553962
255	0xbd72a10e	-0.059235625
