src/saved_models/grid_world_seed125_8_4_18_45/125_11_model.pt (torch, 702535 bytes, 11 tensors)

FC1.weight f4 [256, 36]
000000 47 5b 4c 3e 65 11 e0 bc f1 4c 85 3d 0a d4 54 bd
       0.19956695 -0.027352044 0.06508816 -0.05196003
000010 4a 7f 14 3c 04 20 0e 3e 8b bd 70 bb c3 58 80 bd
       0.009063551 0.138794 -0.003673407 -0.0626693
000020 73 00 29 3e be 57 28 be 21 0e 07 3e d2 ed 4b 3d
       0.16504078 -0.16439721 0.13188984 0.04978735
000030 d1 91 9c bc e6 03 50 3e aa 6a 88 3d 01 9d 82 3e
       -0.0191125 0.20313987 0.066609696 0.2551041
000040 df c7 14 3e 63 82 b0 3d 27 b5 03 3d 9b a5 31 3e
       0.1452937 0.08618619 0.032155182 0.1734833
000050 90 2c b3 bd 16 11 d8 3d 83 9a 81 3e 7a 45 cd 3d
       -0.08748734 0.10550134 0.25313196 0.10023017
000060 19 e6 24 bd c5 3d 62 bc 79 93 94 3e 90 ed f2 3d
       -0.0402585 -0.013808672 0.29018763 0.11861718
000070 45 ad a4 3c e9 39 33 3e da a8 03 bc d1 86 4a 3e
       0.020102153 0.1750256 -0.008035863 0.19777991
000080 56 27 d4 bd e0 14 d5 3d db 97 a4 bd ed 04 0f 3e
       -0.10359065 0.10404372 -0.08036777 0.13966723
000090 4b 32 f3 bc 6b 4e 03 3e ff 60 7b 3d 82 e1 ca 3d
       -0.029687067 0.12822883 0.0613718 0.099062935
0000a0 33 94 61 3d 4f 71 f5 3c 3c 56 f4 bd 31 18 e7 3d
       0.055072974 0.029961256 -0.119305104 0.11283911
0000b0 63 9d 27 3d e2 fa f0 bc 32 cc ff bb a0 af 98 bd
       0.04092158 -0.029416505 -0.0078063244 -0.07455373
0000c0 4a d0 1c bd 5a 51 f9 3c a0 a1 e7 3c a1 76 98 3d
       -0.038284577 0.0304343 0.028275311 0.07444502
0000d0 e5 f8 2b 3e b4 3d 0b 3e df 5f 2d bc a4 a9 e5 3d
       0.16794164 0.13597757 -0.0105819395 0.11213997
0000e0 d7 a3 7f 3d fb 32 bd bc c5 36 6c 3d f3 10 23 be
       0.06241211 -0.023095598 0.05766942 -0.15924434
0000f0 bf e7 63 bd 51 4f 1c 3d 50 b3 43 3d 5c 73 fa bd
       -0.055640932 0.03816158 0.047778428 -0.12229034
000100 83 fe 1f 3d cf 5d a3 bd d5 83 85 bd ed 9b 60 bd
       0.03906108 -0.07976877 -0.065192856 -0.054836202
000110 16 59 cf 3c 68 45 fd bc 39 93 21 bb 81 04 03 3e
       0.025311034 -0.030916885 -0.0024654402 0.12794687
000120 15 c9 03 3e 11 3b 27 3c 74 d2 b2 bc 24 78 5c bc
       0.12869675 0.010206954 -0.021828867 -0.013456378
000130 e6 2b 67 3e 66 78 65 3e f0 8d 2b bc 3c 4a 5c 3e
       0.2257534 0.2240921 -0.010470852 0.21512693
000140 df e5 a8 3d f2 fb 95 3c 64 b9 8d bd 49 3c 9b 3d
       0.082469694 0.018308613 -0.06920126 0.07579858
000150 27 8c 74 3e 11 4f 15 3e 51 25 57 bd 25 cc 3d 3e
       0.23881589 0.14580943 -0.052525822 0.18534906
000160 75 86 07 3e 82 a4 38 bd 9b 0f 16 bd 3d 30 a9 bd
       0.13234885 -0.045078762 -0.036635976 -0.08261154
000170 2b 55 31 bd bb 4f 23 3e 67 26 1c 3d c7 31 53 bd
       -0.043294113 0.15948384 0.03812256 -0.051561143
000180 f3 b2 6c 3c 38 ec 88 bc c0 ba e3 3d 1e 34 06 3e
       0.014446962 -0.0167142 0.11119604 0.13105819
000190 f3 e6 dd 3d 1a 2f d4 bc 2a 51 97 bd fe 3e 6d 3e
       0.10835066 -0.025901366 -0.07388528 0.23168561
0001a0 37 99 ec 3c 12 0b e6 3d a0 d8 f6 bd ba 89 f8 3d
       0.028881652 0.1123258 -0.12053037 0.12135644
0001b0 19 18 cf bd e9 da 8e 3c 9b b1 44 3d a6 28 0c bd
       -0.10112018 0.017438369 0.04802094 -0.034218453
0001c0 71 96 a0 3d fb ed 84 bd 22 bc d2 bd ec 59 44 bd
       0.078411944 -0.06490704 -0.1028979 -0.04793732
0001d0 92 f1 57 bd 42 d3 19 3e 34 7a 02 3e 07 14 05 be
       -0.052720614 0.15021995 0.1274193 -0.12995921
0001e0 1b 53 89 3c 06 24 d8 bd 3f 48 04 3e 05 37 8f 3d
       0.01676326 -0.10553746 0.12918185 0.06992916
0001f0 8e 65 ab 3c 68 31 2c be 9e ce eb 3d cb 07 2e bd
       0.020922448 -0.16815722 0.115140185 -0.0424879
000200 cf 99 1e be 32 9b 26 be 9c ff f3 3c 87 17 8e 3d
       -0.15488361 -0.1627014 0.02978497 0.06938081
000210 af 7d aa bd 46 d5 d7 3d 68 8b d4 3d e0 d2 ef bd
       -0.083247535 0.105387256 0.10378152 -0.11710143
000220 cf 43 8f 3d 94 89 07 3d 7e e2 f1 3d d3 43 9b bd
       0.06995355 0.03309019 0.11810778 -0.07581296
000230 66 80 5d bd f0 c3 20 be 11 0c a4 bc 76 9d c6 3d
       -0.05407753 -0.15699744 -0.020025285 0.09698002
000240 46 f8 18 3e e2 b8 27 3e 6a c8 36 3e cb fd 83 3c
       0.14938459 0.16379121 0.1784989 0.016112229
000250 ed cd c4 bc 0c 90 cb 3d 2a dd fa 3d 61 3f b5 3c
       -0.024023974 0.09939584 0.12249215 0.022124948
000260 18 1b 9a bd 98 73 07 be 1a 6f b0 3d 94 67 3f bc
       -0.07524699 -0.1322769 0.08614941 -0.01168241
000270 9a f1 b2 bc 1d 61 2d 3e 78 01 e4 3c 7b 46 33 3e
       -0.02184372 0.16931577 0.027832732 0.17507355
000280 bb 27 7b 3c a0 d4 16 3e 3a c3 be bd 87 98 c2 bd
       0.015329297 0.14729548 -0.0931458 -0.095017485
000290 a2 8e b9 3d 92 8e 96 bd e8 02 57 bd 1f 9d cf bd
       0.09060408 -0.07351412 -0.052493006 -0.1013739
0002a0 c9 93 d4 bd 33 16 1f bc 19 40 fe bc 3a 91 d5 3c
       -0.1037975 -0.009709883 -0.031036424 0.026070226
0002b0 eb 13 84 3d 04 03 e1 bd 69 03 23 3e be b6 81 3d
       0.064491116 -0.10986903 0.1591927 0.063336834
0002c0 2d 9f 06 be af 89 a4 bd a2 f0 53 bc 2b c3 98 bd
       -0.13146658 -0.080340736 -0.012935789 -0.074591
0002d0 59 ed 73 3d 0f dd 9f bd 38 15 44 3d 1c 98 94 bd
       0.059552524 -0.078058355 0.0478718 -0.07255575
0002e0 c3 f6 10 be ec 65 48 bd ce 8c fd 3c 71 51 80 3c
       -0.14156632 -0.048925325 0.03095093 0.015663834
0002f0 45 96 13 be 4e d2 cb 3d f7 3a 33 bc a6 dd ca bd
       -0.14412792 0.09952222 -0.010939351 -0.09905557
000300 57 e0 07 be bf e6 2f bb 31 ad 97 bd 45 c7 ba bd
       -0.13269173 -0.0026840416 -0.074060805 -0.09120039
000310 05 32 ca 3d 3d a1 e1 bd fe e9 11 3e af 3e c9 bd
       0.09872822 -0.11017082 0.14249417 -0.09826409
000320 50 2e 24 be de 83 2c be 6d 40 3c bd 43 be 93 3d
       -0.16033292 -0.16847178 -0.04595988 0.07214024
000330 b7 e1 00 bd 89 c3 b3 bd 87 85 dc bd b5 1b d4 bc
       -0.03146526 -0.0877753 -0.10767656 -0.025892118
000340 59 61 01 bc b0 80 ef bd af 7f 5e 3c 52 9c 37 be
       -0.007896745 -0.11694467 0.013580247 -0.17930725
000350 2f 4e 21 be 98 d1 fa bd b8 af ad 3d 40 31 8d 3d
       -0.15752481 -0.12247008 0.08480781 0.06894159
000360 42 2b 96 bd f3 bb 15 be 96 5f c4 3d cc 3c 3d bd
       -0.073324695 -0.14622478 0.09588544 -0.04620056
000370 64 87 83 3d ff 3f 96 bd 13 dc fd 3d f2 5d 9c 3c
       0.06422308 -0.07336425 0.123954915 0.019087765
000380 a8 52 b9 bd aa cf a7 bd 94 7d 2b bd 52 7f 9f 3d
       -0.090489686 -0.08193906 -0.041867808 0.07787956
000390 bc 7d 04 3e 5a 12 b1 3d 7b 73 3c bd 22 19 2e be
       0.12938589 0.086460784 -0.04600857 -0.17001775
0003a0 45 76 0e 3e b6 4a 13 3d 84 27 e0 bd 82 31 52 bd
       0.13912304 0.03595992 -0.10945037 -0.051316746
0003b0 41 f7 40 3d 4a 12 1a be 3e 7f 9c 3b 09 ff 28 3d
       0.0471108 -0.15046039 0.0047759106 0.041258845
0003c0 8a 36 76 bd f5 51 89 3c 65 c0 af bd 95 11 fc bc
       -0.060110606 0.016762713 -0.08581618 -0.030770103
0003d0 6c fb 9b 3c 21 6c 15 bd 62 1b 16 be 4c 20 54 bd
       0.019040786 -0.036480073 -0.14658883 -0.051788613
0003e0 37 d5 ed bd 8a 27 e7 bd b3 60 18 3e 10 4f df bd
       -0.11612933 -0.11286838 0.14880638 -0.10903752
0003f0 9b 30 44 3d ab 78 46 3d 52 54 13 3e 64 b8 1d 3e
       0.047897916 0.04845492 0.14387634 0.1540237

FC1.bias f4 [256]
000000 66 f0 ef 3c ea 7a f9 bc 40 7d a7 bc 96 cb ca bd
       0.029289436 -0.030454118 -0.020445466 -0.09902112
000010 12 1d 3e 3e fe af f5 3d 69 fa a6 3d d8 18 25 3e
       0.18565777 0.119964585 0.08153231 0.16122758
000020 fe 04 c2 3d 0c 65 24 bc 87 99 cc 3d 99 0c 97 bd
       0.094736084 -0.010033857 0.099902205 -0.0737545
000030 76 e2 0d 3e e7 c6 29 3e 88 54 08 be 1b d8 b2 3d
       0.13855919 0.16579781 -0.13313496 0.08732625
000040 b6 7f 27 bd b3 9e cb 3c ed 57 f3 bd 80 c4 22 bd
       -0.04089328 0.024855947 -0.11882005 -0.03973818
000050 00 62 31 be 4b 7e 24 be 6b 27 91 bd 6a 62 f7 3d
       -0.1732254 -0.16063802 -0.070875965 0.12079318
000060 e2 38 5b bd 02 9d 2d 3c 95 fe 99 bd 0d f1 a3 3c
       -0.053521045 0.010596516 -0.07519261 0.020012403
000070 d7 0b 08 3d ec 5b 16 bd 1b 38 d8 bd ce 94 fb bd
       0.033214416 -0.036708757 -0.10557576 -0.122842416
000080 a6 df 48 bc 32 de 8d 3d 60 c1 33 3e 9a 60 1c 3e
       -0.012260353 0.06927146 0.17554235 0.15271226
000090 3b a4 17 bd 8c cb f3 3d 2e 82 b7 bd d1 8b 25 be
       -0.037021857 0.11904058 -0.08960377 -0.16166617
0000a0 74 2e dc 3c d8 e3 e4 3d cc 62 35 3e 1c 13 99 3d
       0.02687762 0.1117627 0.1771347 0.07474348
0000b0 b1 8b 32 bd 99 c6 29 3e 0c 8b d6 3d 4a 9c ce bd
       -0.04359025 0.16579665 0.1047574 -0.100884035
0000c0 74 48 c7 3d f6 ac ea 3d 1a 95 8e 3d c4 cd 77 3d
       0.09730616 0.11458771 0.069620326 0.060498968
0000d0 dd cf c6 3d 85 5b 28 3e b6 b2 84 bd dc 9b 5c bd
       0.097076155 0.16441162 -0.06479399 -0.053859577
0000e0 fe 82 eb bd ee d0 fb 3d 5a 28 2d be 01 71 e7 39
       -0.11499594 0.122957096 -0.16909924 0.00044143948
0000f0 31 a1 17 3e fe 1d 2e be 45 66 c7 3d cd fa 1d be
       0.14807583 -0.17003629 0.09736303 -0.15427704
000100 2e e9 96 bd c1 d2 6f 3d f2 38 d3 bc 48 15 44 3e
       -0.07368694 0.0585506 -0.02578399 0.19148743
000110 88 7c c9 3d 14 3a 87 bd 7c c1 40 be 08 7f f4 bd
       0.098382056 -0.066028744 -0.18823808 -0.11938292
000120 d4 8e 0c be 36 13 9b 3d 45 72 6d 3d 32 ee c6 3d
       -0.1372636 0.075720236 0.057970304 0.09713401
000130 82 7a d2 bc d4 8e b2 3d 90 b0 1a 3e bb 77 c0 b8
       -0.025693182 0.087186486 0.15106416 -9.177575e-05
000140 bd f3 b0 3d 32 f2 9e 3d ce 76 0b bd ba 04 f6 bd
       0.086402394 0.07761039 -0.034048848 -0.1201262
000150 ac b8 84 bd 16 12 18 be bb 2d 9f bd 07 03 09 3d
       -0.06480536 -0.14850649 -0.07772394 0.033450153
000160 34 2d 6b 3d ca 48 5a 3d e6 5d dc 3d 86 4a 36 3e
       0.057416156 0.053292073 0.10760097 0.17801866
000170 98 d5 2d 3e 0f 4f 4c bd 05 41 2a 3e 20 9e 02 3c
       0.16976011 -0.049880084 0.16626365 0.00797227
000180 14 b3 dc bd 38 95 dc bd f4 ba 2c bd ec 05 e6 bd
       -0.10776344 -0.10770649 -0.04217048 -0.11231598
000190 8f 89 2f 3e b3 b4 01 be fc 27 00 3e b0 bb 18 3e
       0.17142318 -0.12666588 0.12515253 0.14915347
0001a0 78 e8 0b 3e af 07 1c bd d8 0f 67 bd 31 3e 16 3d
       0.13662899 -0.038093265 -0.056411594 0.036680404
0001b0 26 4e 9c bb a8 1d 00 be bc c4 c6 bd 38 57 c7 bd
       -0.004770058 -0.12511313 -0.09705493 -0.097334325
0001c0 c4 39 14 bd 1c 31 db 3d 04 0d 6a 3d 1f 11 06 bd
       -0.036187902 0.10702726 0.05714132 -0.03273117
0001d0 61 d6 9b 3d 9b 08 33 3e ce d4 da 3d 54 f2 96 3c
       0.07609249 0.17483751 0.106851205 0.018426098
0001e0 05 2c 14 3d ee 72 1c be 4c de 1d 3e ac b9 cc bd
       0.036174793 -0.15278217 0.15416831 -0.099963516
0001f0 76 28 26 be 75 d6 8a bc e3 39 ff bd ad b9 b5 3d
       -0.16226372 -0.016947964 -0.12462213 0.088733055
000200 25 07 98 bd f8 b0 32 3e e5 b5 83 3d d6 e9 a6 bd
       -0.07423238 0.1745032 0.06431178 -0.081500694
000210 09 9f 71 bb 76 05 88 bc a2 93 22 be 70 31 3b 3e
       -0.0036868474 -0.016604166 -0.1587663 0.18280578
000220 aa c2 11 be 45 e0 78 3d 86 48 b3 bc e4 0d fb 3d
       -0.14234415 0.060760755 -0.021885168 0.12258509
000230 58 2b 1f 3a 15 10 b4 3d aa 8e 6f 3d ff 34 27 be
       0.00060718274 0.0879213 0.058485664 -0.1632881
000240 9d 63 be bd 91 3b 0e be c0 ec b4 bd 98 f0 96 3d
       -0.092963435 -0.1388991 -0.08834219 0.07370108
000250 47 be e9 3d 17 2b 7b 3d 3c b3 f9 bd ec c9 ce 3d
       0.11413246 0.06132039 -0.12192389 0.10097107
000260 f7 f0 0f 3e 21 a4 35 bd 36 4b 94 bc cd 06 53 bd
       0.14056765 -0.04434598 -0.01810227 -0.051520158
000270 78 6b 48 3e 5e 08 1e 3e ec 0b 28 bc 3b ef d6 bd
       0.19572246 0.1543288 -0.010256749 -0.10494848
000280 04 6c 27 3d ee 1e 56 3e 3b 54 0f 3e ad d9 36 3e
       0.040874496 0.20910236 0.13996975 0.17856474
000290 7a ee 8c 3d f2 65 27 3e 1a f5 72 3d b3 62 39 3e
       0.06881423 0.16347483 0.05931578 0.18104057
0002a0 f7 54 7e bd 1f e0 b4 bd 74 02 e1 bd ff ca 59 3b
       -0.062092748 -0.0883181 -0.10986796 0.0033232567
0002b0 79 e4 b3 bc 1c de 54 3d fd 6c 3c 3e b6 50 11 3e
       -0.02195953 0.051969633 0.1840095 0.14190945
0002c0 fc ad 4c 3a 31 9b f3 bd dc 75 6d bd e2 6a 9e bc
       0.0007807908 -0.11894835 -0.057973728 -0.019338075
0002d0 c5 a4 3e 3e 3b 3b 35 be 06 68 ca bd 16 4c 83 3e
       0.18617542 -0.17698376 -0.09883122 0.25643986
0002e0 d8 91 ab bd 7c 53 08 bb 24 1d 74 3d 54 90 e7 bc
       -0.08377427 -0.0020801714 0.059598103 -0.028267063
0002f0 e6 52 e1 bd 6a 90 92 bd 08 f4 89 3d 48 15 81 bd
       -0.1100214 -0.07156451 0.067359984 -0.06302887
000300 b2 ec 27 be e6 19 15 bd 77 17 d5 bd cc 87 b7 3d
       -0.16398886 -0.03640165 -0.10404866 0.08961448
000310 6d 14 72 3d 01 a2 01 3e 38 a4 26 3e 76 95 23 be
       0.05910151 0.12659456 0.16273582 -0.15974984
000320 e8 66 d9 3d f2 98 c2 bb 4d c2 cc bc d0 35 67 3d
       0.10615331 -0.0059386427 -0.024994994 0.056447804
000330 1c dc d0 bd a2 ef f1 bd 2f b1 cc 3d 5b d6 11 be
       -0.101982325 -0.118132845 0.099947326 -0.14241926
000340 88 0b b6 3d 05 71 20 3d ba 92 cc 3d 4f e6 1a 3e
       0.08888918 0.039170284 0.09988923 0.15126918
000350 52 b0 19 be 82 5f 01 3e 18 9f cf bd 31 74 0c bd
       -0.15008667 0.1263409 -0.101377666 -0.034290496
000360 35 7a a4 bd 4f b9 31 bc 4b 7d 5b 3c 8f 8d 01 3e
       -0.08031122 -0.010847404 0.013396571 0.12651657
000370 3f 2c 0b bb 6c f6 f0 3d 7d 9e 46 be 8e 94 b8 bd
       -0.002123609 0.11765751 -0.19396396 -0.090127096
000380 39 8b 13 be 8a 7b d1 bd 99 e8 a3 3d 01 27 ea 3d
       -0.14408578 -0.10228641 0.08003349 0.11433221
000390 f0 c9 11 3e a3 88 10 be da 55 4f 3d 9f b9 0f be
       0.1423719 -0.14114623 0.050618984 -0.14035653
0003a0 6e 91 22 bd 70 35 2a 3d ca 7b e3 bd a9 38 20 be
       -0.039689474 0.04155487 -0.11107595 -0.15646614
0003b0 be 7f 69 bd ec de e4 3d 34 29 01 be 13 81 0e be
       -0.05700659 0.111753315 -0.12613374 -0.13916425
0003c0 7d 6f 3a 3e 75 4a bb bd 8c 32 fc 3d f5 77 34 bc
       0.18206592 -0.09145061 0.123143286 -0.011014928
0003d0 71 91 25 3e d3 56 b3 3d 76 fa 0f be 24 17 d8 3d
       0.16168763 0.08756795 -0.14060387 0.10551289
0003e0 97 12 59 3d 66 e7 c0 bd 27 70 3e bd 39 4d 2b 3e
       0.052996244 -0.09419136 -0.046493676 0.16728677
0003f0 2e 9c 38 be 65 4a 1d be 34 3c 16 be af cc 28 3e
       -0.18028328 -0.1536041 -0.14671403 0.1648433

FC2.weight f4 [256, 256]
000000 0a 03 d1 bd 48 62 39 3d e8 45 c7 bd 8b 68 51 bd
       -0.10205658 0.045259744 -0.097301304 -0.05112509
000010 32 ff 6b bd c6 16 17 bb 59 3f 2c bc 2f 7b 2b bd
       -0.05761642 -0.0023054346 -0.01051315 -0.041865524
000020 14 ee 1a 3d a8 ff 33 ba ec 4f 1e 3c bd d0 cc bd
       0.037824705 -0.0006866404 0.00966261 -0.10000751
000030 2b 82 d7 bd 7d df 26 3c a3 0f fc 3b 42 43 a8 bc
       -0.105228744 0.01018512 0.0076922937 -0.020539884
000040 de a0 38 3c 7d 78 80 bc e8 42 36 3c 48 dc 39 bc
       0.0112688225 -0.015682453 0.01112435 -0.011344023
000050 3b b2 ce 3c 78 4c 18 3d e9 b4 64 bd 7d 8c f4 3c
       0.025231471 0.0371823 -0.055836592 0.029852146
000060 f8 f3 80 3c cf bd 27 bd b5 db ee 3b e8 01 1a bd
       0.015741333 -0.0409525 0.0072893747 -0.037599474
000070 d6 fe 66 bd 9e b1 1d 3c 59 c9 11 3d 5d a4 79 bd
       -0.056395374 0.009624867 0.03559241 -0.060947765
000080 b6 9e 5a 3c 41 0e 4c bd 2f 66 bd 3c 8f a8 8e bb
       0.013343504 -0.04981828 0.023120014 -0.00435359
000090 16 da f0 3c a3 40 74 3c 95 c5 9f bd 47 a6 92 b9
       0.029400866 0.014907989 -0.07801358 -0.00027971176
0000a0 cb 94 0d bb 3f 33 ed bc 17 1c b8 bc 3e ae 25 3d
       -0.002160358 -0.0289551 -0.022474332 0.040449373
0000b0 f5 c1 2b 3c 75 61 98 bd e1 7f 94 bd 92 41 a6 bd
       0.010483255 -0.074404635 -0.072509535 -0.08117975
0000c0 6e 25 74 bd ef 0c 1e 3c eb a8 7a bd 52 2f 8e 3c
       -0.05960601 0.009646638 -0.06119625 0.017356548
0000d0 71 a6 15 3d 67 c3 ea 3c 4c fd 5e bd 6a 7d 0d bd
       0.036535684 0.028657628 -0.05444078 -0.034543432
0000e0 8a 0f 7f bc 12 15 8e bc 65 f2 23 3d 5b 99 f7 bc
       -0.01556767 -0.017344031 0.040026087 -0.030224493
0000f0 04 10 32 3d 8e f7 43 bd 72 06 8c bd 38 c7 bc 3b
       0.043472305 -0.04784351 -0.06837167 0.0057610534
000100 d5 59 88 bd 36 6a 20 bd c5 ee 0a bd b2 5c 11 bd
       -0.06657759 -0.03916379 -0.033919115 -0.03548879
000110 17 c6 6c bd 15 d0 af ba 56 40 27 3d 2a 5e 83 bc
       -0.0578061 -0.0013413454 0.04083284 -0.016036112
000120 29 95 7e bd f1 ea 95 bc 9d 2a 8f bd 44 4a a5 bd
       -0.06215397 -0.018300505 -0.0699055 -0.08070806
000130 14 b4 c9 bd 53 13 18 be 5d 4d ab bd 3d c0 ee 3c
       -0.098488 -0.14851122 -0.08364365 0.0291444
000140 10 74 19 bd 3c 35 57 bd 17 ae 36 3d e9 8f ad 3c
       -0.0374642 -0.052541003 0.04459962 0.021186786
000150 5c b0 0f 3c f0 aa 07 bd fc 75 bd bd 0d 78 fa 3c
       0.008770075 -0.033122003 -0.09251019 0.030574823
000160 eb 87 ba bc 38 50 4c bd 8b f9 28 bc ab 08 1d 3d
       -0.022769889 -0.04988119 -0.010313402 0.038338345
000170 89 05 2b bb 9a eb 8b bd a9 c0 33 bd 28 56 b5 bd
       -0.0026095829 -0.06832047 -0.043884907 -0.088543236
000180 79 be d8 3c 11 a4 31 3d 2a 3d b3 bc 7b c6 79 bd
       0.026458012 0.043369357 -0.021879751 -0.0609803
000190 dd a7 24 bd 55 71 70 bc c4 7a 7d bd 06 4e f3 3b
       -0.04019915 -0.014675458 -0.061884657 0.0074250726
0001a0 11 91 72 be fe f8 e2 bc a2 86 8b 3c f1 bc 24 3d
       -0.23688151 -0.02770662 0.017031971 0.04021925
0001b0 99 1e bb bd b8 39 57 bd 02 68 b3 3b 96 e5 34 3d
       -0.091366954 -0.05254528 0.005475045 0.044164263
0001c0 35 07 ac bc 7f a7 5d bc 6b ef b0 bd 25 4b 2b bd
       -0.02099953 -0.013528704 -0.08639415 -0.04181971
0001d0 b3 82 a9 bc fe 57 81 bd d4 2f 8a bd 3e b1 52 3d
       -0.020692205 -0.06315611 -0.06747404 0.051438563
0001e0 e3 bd 17 3d 16 94 69 bd 55 4a 15 3d 55 df 88 3c
       0.037046324 -0.05702599 0.03644784 0.016708056
0001f0 c4 6d e3 3c f8 95 04 be a8 b7 c0 bc 6a 63 b8 bd
       0.027762301 -0.12947834 -0.023525074 -0.09003337
000200 63 43 a4 bd d8 e4 6e bb 72 46 5e bd 0a a0 11 bd
       -0.080206655 -0.003645232 -0.0542664 -0.035553016
000210 8a 33 9b 3c 4a 3b 45 bd ba ec d1 3c 37 df 3d bd
       0.018945474 -0.048152246 0.025625575 -0.046355452
000220 76 6b 1b 3d 12 c0 30 bd 7b 8c 06 3d 8d 2e a6 bc
       0.03794428 -0.043151923 0.032848816 -0.020285869
000230 ab eb cc 3c 70 10 b6 3c 78 87 07 bd 31 69 0b bd
       0.025014719 0.022224635 -0.033088177 -0.034035865
000240 96 8a e4 bc e8 f7 89 bc c5 14 02 bd 45 3b 25 bd
       -0.027898114 -0.016841844 -0.03175809 -0.040339727
000250 61 b7 ab bd e1 0c 43 bd cc 0c 26 bb a3 b1 2c bd
       -0.08384586 -0.047619704 -0.0025337217 -0.042161595
000260 0f 4b 1e bc e7 b3 7a 3b 42 b6 83 bc ab fc a8 bd
       -0.00966145 0.0038254203 -0.016078118 -0.082513176
000270 26 d5 6a bd 3f 9b 43 bd 16 cf 39 bd c2 a4 4c bd
       -0.05733218 -0.047755476 -0.04536351 -0.049961813
000280 74 3d 2f 3c 21 18 54 bc ef 2e 16 bd 38 97 14 bd
       0.010695804 -0.012945206 -0.036665853 -0.036277026
000290 6d a4 aa bc 32 ad 3e bc 94 c4 c1 bc a7 46 9f bd
       -0.020830357 -0.011637973 -0.023653306 -0.07777148
0002a0 93 57 ae bc a7 af c4 bd 8f 7d 86 bb 80 db 35 3d
       -0.021281993 -0.096038155 -0.004104323 0.044398785
0002b0 28 0f 16 bb 10 d4 20 bc f8 85 40 bd a0 e1 4a bd
       -0.0022897217 -0.009816185 -0.047002763 -0.04953158
0002c0 98 b9 95 3c 59 df 88 bc 88 ef 4b bb 8f 48 a5 bc
       0.018276975 -0.016708063 -0.0031118114 -0.0201762
0002d0 56 26 1b 3d ed 14 38 3d 63 59 65 bc 0d 1c 10 be
       0.037878357 0.04494183 -0.013998362 -0.140732
0002e0 b3 0b f5 bc db 49 1f 3d d1 d9 54 bd 68 e4 2b bc
       -0.029912805 0.038888793 -0.05196554 -0.010491468
0002f0 01 ae 89 bd 10 eb 7e 3c f0 69 c5 bd f6 f1 18 bd
       -0.06722642 0.015558973 -0.096393466 -0.037340127
000300 b6 9b 6e bd bf 35 40 3d f9 f8 54 3c e8 e9 24 bc
       -0.058253966 0.046926256 0.012998813 -0.010065533
000310 8b cc 8a bd 8d 26 23 bd cc c8 1f 3d 5e d5 0a 3d
       -0.06777295 -0.039831687 0.039009854 0.03389489
000320 d2 8f f3 3c 68 70 e9 bc ec 1a 72 bd ff 45 28 bd
       0.029731665 -0.028495982 -0.059107706 -0.04108238
000330 01 fe b4 bd c4 00 f4 3b 04 6a 0a 3c a4 f5 8a bd
       -0.0883751 0.0074463803 0.008448128 -0.067851335
000340 b2 e9 02 bd 33 80 bb bc 2a 10 b5 bc d4 44 b1 bd
       -0.03196115 -0.022888279 -0.022102434 -0.08655706
000350 b4 ae 3f bd 0d 03 59 bc b8 37 08 bd e2 b7 3f 3c
       -0.04679747 -0.013245356 -0.033256263 0.011701556
000360 46 4c 64 bd ca b0 18 bd 02 16 d0 bc 46 93 9b bd
       -0.055736803 -0.037277974 -0.02540112 -0.075964496
000370 53 65 e4 bc 05 39 ae bb 72 b3 47 3d 2d f0 b0 bd
       -0.027880346 -0.005316856 0.048755117 -0.0863956
000380 12 67 fa 3c e1 cd ab bd a5 8e 6d bd 69 f9 16 bd
       0.030566726 -0.08388878 -0.057997365 -0.03685895
000390 5f 0c 02 bd c9 d5 d9 3c cd 11 6a bd 53 c1 6c bd
       -0.03175008 0.026591199 -0.057145882 -0.057801556
0003a0 3d 29 5e bc b8 34 ed bd bd 06 a2 3c ed 6e 35 bd
       -0.013559637 -0.11582321 0.019778604 -0.04429524
0003b0 b6 ac ce 3c c0 3d de 3c bc a2 6e bd b9 cd a2 bd
       0.02522884 0.027129054 -0.058260664 -0.07949395
0003c0 7c 1c 76 bd 93 6b 64 bd 10 ac 37 bb 47 a9 34 3b
       -0.06008576 -0.055766653 -0.0028026141 0.0027566717
0003d0 7f 37 7d bc ad 64 81 bd 46 db ce bc 3f ae f0 ba
       -0.015455126 -0.063180305 -0.025251042 -0.0018362476
0003e0 54 36 3a bc f5 09 b1 3c ae 16 03 3d 90 34 9d bd
       -0.011365492 0.021611193 0.03200405 -0.07676041
0003f0 d0 91 22 bd 4a 6e 40 3c b0 6e 59 3d c2 c9 0b bd
       -0.03968984 0.011745045 0.053084075 -0.034127958

FC2.bias f4 [256]
000000 cc 63 67 bc 1b 7f 0c 3c 49 7c c4 3c 3f 03 0b bd
       -0.0141229145 0.008575226 0.023985045 -0.033938643
000010 6d ff 73 bb fd 73 72 bc 29 a3 e3 bb b1 8a aa 3d
       -0.0037231103 -0.014798162 -0.0069469404 0.083272345
000020 47 8f 72 3d 9b 8a 62 3d 12 2c 1e bd 6d 7d dd bb
       0.05921867 0.055307966 -0.038616247 -0.0067593367
000030 2f d4 bb bb ec bc cb bc 39 39 ed 3b 87 67 92 3d
       -0.0057320814 -0.024870358 0.0072394875 0.071486525
000040 45 2a 3d bd 57 4e ef bb d7 32 c4 3c f2 ac 80 bc
       -0.04618289 -0.00730304 0.023950024 -0.015707467
000050 06 5f 07 3d c0 17 bb 3c c6 b2 23 3c ed de ad bd
       0.033049606 0.022838473 0.009991353 -0.08489785
000060 54 cb 4c bb 6f a1 73 3c a9 e8 e7 3c 3d 6b 33 bc
       -0.0031249123 0.014870032 0.028309183 -0.010950861
000070 17 53 0c 3e 2b a1 56 3c 7a 1d 53 3d 7f a2 87 bd
       0.13703571 0.013099949 0.051541783 -0.066227905
000080 c5 a1 97 3d ce da 24 3d 12 39 21 3d cd 54 9b 3d
       0.07403902 0.04024773 0.039361067 0.07584534
000090 de a8 10 3d a5 44 17 3d a0 c8 dc 3c a7 0e 0a 3c
       0.035317294 0.0369307 0.026951134 0.008426345
0000a0 12 6f 26 3d 8c 93 0a 3d 39 63 8b bd 56 56 54 3d
       0.04063327 0.033832118 -0.068060346 0.05184015
0000b0 5c 4e d8 3c 7d 2d 98 3d e6 bd a5 3d 71 99 ff bc
       0.026404552 0.07430551 0.08092861 -0.031201096
0000c0 51 7b 12 bc 50 ce 88 bd 1a 6d 36 bc f8 e1 9b 3c
       -0.008940534 -0.06679976 -0.01113441 0.019028649
0000d0 9c b1 39 3c 98 bd c7 3d e7 83 95 bd 20 02 40 bd
       0.011333849 0.09752959 -0.07300549 -0.046877027
0000e0 41 07 4b bd 99 77 ef 3c 41 3c 46 bd 14 4a f4 3d
       -0.049567465 0.029231833 -0.048397306 0.11928192
0000f0 7c f3 f9 bc d2 1f f3 3c 37 7f 79 bd b4 1e 7c bc
       -0.03051161 0.029678259 -0.060912337 -0.01538818
000100 04 c7 5e bc 5b 6e 3a 3c 5d 6c 85 bd 15 2f 0b 3d
       -0.013597254 0.01137885 -0.06514809 0.033980448
000110 c0 ad 47 3d a5 f8 ad 3d a1 1b ec 3b b1 ff f0 bc
       0.048749685 0.08494691 0.007205442 -0.029418798
000120 4e 7c 74 bc aa 7e 66 3c a4 71 0e bc 6a 0d d9 3c
       -0.014922215 0.014068285 -0.008694086 0.026495654
000130 1d 13 34 3c 5a 43 dd ba 05 d6 bb 3c 43 c1 80 bc
       0.010990885 -0.0016881034 0.0229292 -0.015717154
000140 0b ef 71 3c cc 97 78 3c f5 87 62 3d 2a af cb 3b
       0.014766465 0.01517291 0.05530544 0.0062159495
000150 5a f0 32 3d 49 88 76 bd 2e cc 73 bc 8b b4 81 bd
       0.04368625 -0.060188565 -0.014880223 -0.06333264
000160 23 13 5d bd 07 de c5 3c a9 90 3f bc 37 5d b5 3c
       -0.05397333 0.024153722 -0.0116922045 0.022139175
000170 7b b6 44 3c 97 a0 87 3d 8c 69 bb bb 28 ba 37 bc
       0.012006397 0.06622427 -0.0057193693 -0.011213817
000180 fe d7 a2 3d 82 9a 65 bd 13 18 5f bd 90 e2 58 3d
       0.079513535 -0.056055553 -0.05446632 0.05295044
000190 e9 76 86 bd 08 41 84 bd b8 7b 12 3d 4c f5 95 3b
       -0.06565649 -0.06457716 0.03576252 0.004576361
0001a0 9b c2 88 bc e1 c0 a6 3d 5a 0d 16 3d 19 72 82 3d
       -0.016694358 0.081422575 0.036633827 0.06369419
0001b0 63 00 82 bd 18 89 9d bd 5a ea 81 3d 38 28 29 bd
       -0.0634773 -0.07692164 0.06343527 -0.04129812
0001c0 03 83 c4 3c ef 26 fb bc 31 93 c5 bc bc f3 2f 3d
       0.023988253 -0.030658213 -0.024118038 0.042957053
0001d0 c9 20 14 3d af 32 b8 3c 3d a5 eb bc c5 46 89 3d
       0.03616408 0.022485105 -0.028765315 0.06702951
0001e0 6b 04 62 3d 00 9a ac bc 01 80 89 3d a2 eb 8f 3b
       0.055179995 -0.021069527 0.06713868 0.0043921033
0001f0 fb dc 72 3b a0 a7 34 3c 36 d8 1e bd 14 29 b0 3c
       0.0037057984 0.011026293 -0.038780414 0.021503963
000200 9c 85 60 bd 4e 5d ca bc 98 c6 7b bd 47 6b 5a 3d
       -0.05481492 -0.024702694 -0.06146869 0.053324964
000210 b7 0e 9c 3b 29 ea da 3c 92 07 ef bc 32 d3 10 bc
       0.0047624963 0.026722984 -0.029178414 -0.008839415
000220 81 df 8b 3c eb f1 7a bc a9 43 6e bd ed 60 4a 3d
       0.017074348 -0.015316467 -0.058169995 0.049408842
000230 2d 7f 1f 3d e3 07 19 3e 9d 75 f3 3c f4 ef e7 3c
       0.038939644 0.14944415 0.029719168 0.02831266
000240 7c 94 ae bd 24 0f 2a bd c5 d9 a2 3c a7 70 35 bd
       -0.08524415 -0.041518345 0.019879231 -0.044296887
000250 41 e0 96 3c e3 65 13 3d 72 bb 4e bd 84 d2 e1 3b
       0.01841748 0.03598584 -0.05047173 0.0068915505
000260 0f 03 50 3d 90 8c 2c bd bb 46 5b 3d 84 b6 a9 bb
       0.050784167 -0.04212624 0.05353425 -0.0051792283
000270 69 e6 88 3d 74 cb 5b 3d b9 9a 57 bd f2 53 ae bc
       0.06684572 0.053660825 -0.05263779 -0.021280263
000280 64 c1 5f 3c 8c cc d3 3d 88 af 50 bd e9 86 b0 3d
       0.013656948 0.103417486 -0.05094865 0.08619482
000290 d0 cb 90 3c c9 c8 ef 3c 17 05 12 3d 57 bf 2b 3d
       0.01767531 0.029270547 0.035649385 0.041930523
0002a0 b6 24 21 3d 17 25 12 bd 8a 76 fe 3c 9d 4f e7 bc
       0.03934165 -0.035679903 0.031062383 -0.028236205
0002b0 2d 9c 9f bc a4 b8 61 3a 5a 80 c4 3c 79 de 87 ba
       -0.01948365 0.00086105824 0.023986984 -0.0010365985
0002c0 f4 9e 9c 3c 72 80 22 3b 7e bb aa 3c a0 b9 c6 3d
       0.019118764 0.0024795798 0.020841356 0.09703374
0002d0 0c 3c 96 3c 1b 35 90 bd 03 61 29 3d 7e 7b 6a 3d
       0.01833918 -0.07041379 0.041352283 0.057246678
0002e0 22 49 53 3d 9c 6f b2 3d 59 a0 ba 3b 08 40 6e 3c
       0.051583417 0.08712694 0.0056953845 0.014541633
0002f0 48 c8 8a 3d fc e6 8e 3d e0 64 c0 3c 74 97 83 bd
       0.06776482 0.069776505 0.023485601 -0.06425372
000300 3c 65 2f 3d 9a 9f 99 bc e2 2c 99 3d ea 4d 1e 3d
       0.042821154 -0.018752862 0.07479264 0.038648523
000310 ff 32 77 ba 5e 22 6e 3c e3 48 90 3c 92 19 18 bd
       -0.0009429901 0.014534561 0.01761288 -0.03713376
000320 0b d0 a1 3c b7 d8 80 3d c1 4c 8d bc 2f cd 68 bd
       0.019752523 0.06291335 -0.017248513 -0.056836303
000330 f6 41 74 bd 74 62 a1 bd 8b 9e e7 bb 65 96 81 bd
       -0.059633218 -0.078801066 -0.0070684603 -0.063275136
000340 3d 48 f3 3c c0 65 d8 ba 23 f4 0c bd 58 a6 4c bd
       0.029697532 -0.0016509816 -0.034412514 -0.049963325
000350 78 66 c9 bc f4 b3 e9 bc dd ef a0 3c d5 0b 9c 3c
       -0.024584994 -0.028528191 0.019645626 0.01904861
000360 6b 48 d6 3d eb a5 8a 3d 4b fa 53 3c c2 7e 8a 3a
       0.104630314 0.067699276 0.012938092 0.0010566341
000370 6b 79 47 3c 7e 9f 2b 3d 1e 6d 7a 3d 5d 69 25 bc
       0.012174944 0.04190015 0.06113922 -0.010095921
000380 82 85 86 bd 5e 81 bd 3d 4d 2f 11 3d 27 9c e9 bb
       -0.06568433 0.092531905 0.0354455 -0.0071292105
000390 8f 52 72 bd 0d 96 12 3c 46 a9 04 3d 6a 62 f9 bb
       -0.059160765 0.008946908 0.032387994 -0.007610609
0003a0 5d 23 6e bd 02 9e 63 3d a3 fc b6 bc bc bd 21 3d
       -0.058139194 0.05557061 -0.022337263 0.039487585
0003b0 46 63 86 3d a2 b5 45 bd 2f ad db 3c 18 cf 32 3c
       0.06561904 -0.04826892 0.026815979 0.010913633
0003c0 cf 48 c4 bc 16 81 58 bc bc 26 23 3d c1 5f ed bb
       -0.0239605 -0.01321437 0.03983186 -0.007244081
0003d0 be 46 41 3d 4f 27 eb bc 62 14 2d 3c 85 b6 fd bc
       0.047186606 -0.028705267 0.010563942 -0.030970821
0003e0 c8 5d a8 bc 77 7c ea 3c ce cd 5f 3d a5 22 1d bd
       -0.02055253 0.028623803 0.05463963 -0.038363118
0003f0 4d 70 fd bb 5f 6c da 3d 0c 65 6b bd 20 4d 30 bd
       -0.0077343346 0.106652014 -0.057469413 -0.043042302

action_out.weight f4 [5, 256]
000000 a9 f9 15 3d 6a f0 eb bc d1 cf 3b bb c3 91 67 bb
       0.036615048 -0.028801162 -0.0028657804 -0.0035334683
000010 42 5f dd 3b 50 ac 0c 3c d5 78 c6 bb ba a5 b7 bc
       0.0067557404 0.008586004 -0.006056885 -0.022417892
000020 18 84 38 3d 11 bf 29 bd ba 19 6f bd f8 65 e0 bc
       0.04504785 -0.04144198 -0.058374144 -0.027392372
000030 c6 40 5f bd 1c 6c 65 3d c1 bc 39 3d bb 7f 05 bc
       -0.054505132 0.056011304 0.045346025 -0.008148129
000040 3b de a3 bc 6c 0c 51 bd ec 5d 1c 3d 8a fe 39 3d
       -0.020003429 -0.051037237 0.03817551 0.045408763
000050 7f 43 3f bd f0 66 c2 bd 1d db 43 3d 74 c4 ce bd
       -0.04669523 -0.0949229 0.047816385 -0.10096064
000060 d5 87 30 3d d0 6f 36 bd 02 e8 01 3d ce bf 73 bc
       0.04309829 -0.044540226 0.0317154 -0.014877273
000070 b8 e8 08 be 51 a5 2d 3d e7 e7 a9 bc 86 bc dc bc
       -0.13370025 0.042393986 -0.020740462 -0.026945364
000080 a0 78 7a 3c 1a 51 c6 3c 15 ab 88 3a 98 67 77 bc
       0.015287548 0.024208594 0.0010426963 -0.015100382
000090 e8 88 8d 3c ad 5a d0 bc 89 1a 08 3c 92 d9 f5 bd
       0.017277196 -0.025433863 0.008307108 -0.12004389
0000a0 c2 4a 6b bd af b8 3e 3d 67 42 9b bc f8 4c 43 3d
       -0.05744434 0.046562847 -0.018952562 0.047680825
0000b0 47 32 ca bb 12 8d 07 3d a2 99 26 bd 87 88 8b bc
       -0.0061705443 0.03309352 -0.04067386 -0.017032875
0000c0 a4 0e 39 3a 38 3a 35 bd dd cd 41 bd fb 92 b0 3c
       0.00070593716 -0.044244975 -0.047315467 0.02155446
0000d0 4b c8 23 bd 63 9d 9e bd bc 5c a5 bd ce aa 4c bd
       -0.039985936 -0.07744863 -0.08074328 -0.04996758
0000e0 c2 b6 28 3d 47 e9 cb bc f0 86 5d 3d d3 33 d8 bc
       0.041189916 -0.024891509 0.054083765 -0.0263919
0000f0 8b 47 44 3d a9 3d a8 bc 9a 1c ac bb b3 20 6f 3c
       0.04791979 -0.020537214 -0.005252433 0.014595198
000100 5e 22 f6 3c 83 cb 1e bd 00 5e 40 bb 8c 84 ae 3c
       0.030045684 -0.038768303 -0.0029352903 0.021303438
000110 9c d5 fd 3b 5d dd 14 3d 19 07 8b 3c 64 5b 3e bd
       0.0077464115 0.03634392 0.016971158 -0.046473876
000120 2a 16 8b bc b8 0d 0d 3d eb 53 3a 3d 65 eb bd 3c
       -0.016978342 0.03443691 0.045490187 0.023183534
000130 22 51 6a 3d 38 61 97 bc 38 8a 78 3c cc 94 49 bc
       0.05720628 -0.018478975 0.015169673 -0.012303542
000140 0f 93 a3 bd b0 57 b0 3c a3 67 04 be a6 6d 08 bd
       -0.079870336 0.021526188 -0.1293016 -0.033307694
000150 45 3d 07 3d 22 0d 64 3d f0 46 2e 3d 3a 81 63 3d
       0.033017416 0.055676587 0.04254812 0.055543162
000160 5a 2d 3e 3c 15 5f c5 3c b0 d7 ed 3c e6 2b 84 bc
       0.011607492 0.02409319 0.029033512 -0.016134214
000170 46 b9 62 3d 78 67 08 3d 56 87 28 3b 14 cf b7 3c
       0.05535247 0.0333018 0.0025715432 0.02243761
000180 af 09 a5 bd cf d1 b6 3c 9f 09 1b bc 29 74 e4 bd
       -0.080584876 0.022316841 -0.009462743 -0.11154968
000190 d2 c7 8a bd 17 4d 0e bd 03 27 b4 bd 91 44 3c bd
       -0.06776394 -0.034741487 -0.087965034 -0.045963828
0001a0 ec 9e 43 3d c3 e7 c9 bd 2a 1f 06 bd ec 9e 12 3d
       0.04775898 -0.09858658 -0.032744564 0.03579609
0001b0 3c 90 25 bd 7d 8f 23 bd ee 56 d0 bd a2 c9 47 3b
       -0.040420756 -0.039931763 -0.101728305 0.0030485173
0001c0 be 32 85 3c aa dc 53 3d f6 d0 73 bb 75 23 94 ba
       0.016259547 0.051724114 -0.0037203408 -0.0011302071
0001d0 bf 4d 2b bd 0f dc d1 3c da 45 24 bd 74 c3 86 3c
       -0.04182219 0.025617627 -0.04010568 0.016450621
0001e0 65 6b f1 3c 79 ba 16 bb 10 c4 ca bd 11 ad fd bc
       0.029470155 -0.002299933 -0.09900677 -0.030966314
0001f0 60 96 2e 3d 9f 1d f2 bc 0e 9c 1d 3d 29 4e 38 3b
       0.042623878 -0.02955514 0.038478903 0.002812276
000200 6b cc 66 3d 44 e6 f1 bd a0 5a 7b 3c 98 a0 39 bd
       0.056347292 -0.11811498 0.015341431 -0.04531917
000210 5d a4 28 bc 27 de 2f bb c3 84 95 bc 61 4a a5 bc
       -0.0102930935 -0.0026835294 -0.018251782 -0.020177068
000220 40 cc 38 3d 49 df 10 bc 9c 1a 6d bb b3 b9 28 be
       0.045116663 -0.008842298 -0.003617919 -0.16477089
000230 f1 7b 05 3d 56 6e 2e be e5 5c 23 bd 2c b1 f5 3c
       0.032588903 -0.17034277 -0.039883513 0.029991709
000240 38 33 05 bd 82 50 57 3d f9 33 86 ba b4 47 f6 3b
       -0.03251955 0.052567013 -0.0010238878 0.007515872
000250 b2 fc 4b bc 54 5f f3 bc 41 fc 5d 3d f3 29 a8 ba
       -0.012450384 -0.029708542 0.054195646 -0.0012829885
000260 3e fe 66 3d 08 38 79 3d 2f a7 22 3d 1e 27 5e 3c
       0.056394808 0.06084445 0.03971022 0.013559131
000270 87 bc b7 bd 85 73 8c 3b 8d 6d f7 3c 02 4c 6f bc
       -0.089715056 0.004286232 0.030203605 -0.014605524
000280 92 81 be 3c a9 b9 b4 3a 43 50 d4 bb 81 b2 83 bd
       0.023255143 0.0013788241 -0.0064792945 -0.06430531
000290 28 60 ac 3c 81 8e 0a bd 3d 9a 0b 3a 9f 76 24 bd
       0.021041945 -0.03382731 0.00053254125 -0.04015219
0002a0 62 20 34 3d 8a c3 87 3c bb 6b 6d 3d 59 32 04 3d
       0.043976195 0.016572732 0.057964068 0.032274578
0002b0 41 88 cc 3c 78 a0 3d bd 8f a2 f1 3c ec 1e b9 bd
       0.024967315 -0.046295613 0.02949646 -0.09039101
0002c0 49 07 94 bc 8e 47 39 3c 1e 88 f1 3c b5 71 02 3c
       -0.01806988 0.011308564 0.029483851 0.00796168
0002d0 c4 88 f6 3c d3 0b 65 3c c9 cf a2 3c cb 38 ce ba
       0.030094512 0.01397987 0.01987447 -0.0015733478
0002e0 ac 45 b1 bd 0a ca 4f bd 72 53 de bc 96 6e 3c 3c
       -0.08655867 -0.05072979 -0.0271394 0.011500975
0002f0 6b 08 8f 3d e4 30 65 3b e8 66 1d 3c 96 b1 dc bd
       0.069840275 0.0034971768 0.009607054 -0.10776059
000300 d4 46 d0 3c c4 17 3c 3c 61 22 fb bd c8 91 83 bd
       0.025424398 0.011480276 -0.12262417 -0.0642429
000310 51 2d 37 3d 67 86 53 bc 44 1a 71 bd f7 ff 69 bc
       0.04472095 -0.012910462 -0.05886294 -0.014282218
000320 98 aa cc bc c1 c9 36 3d c1 ce 6f 3d 51 a9 ce 3b
       -0.02498369 0.044626 0.058546785 0.006306805
000330 48 94 5c 3c 0f c2 cb bd 34 7d d9 bd 6e e4 a2 3c
       0.013463087 -0.09949123 -0.10619584 0.019884314
000340 6e 23 ca bc 82 a8 9c bd 3c df 2f 3d 1c c3 ee bc
       -0.024675097 -0.07649328 0.042937502 -0.02914577
000350 16 c0 8c 3c 5d 28 3c 3d 29 c3 5a bd 7e 9f 90 3c
       0.017181437 0.04593693 -0.053408775 0.017654177
000360 3a 80 0b bd ad bf 86 bd f4 f0 1d 3b 0a 2f ea 3c
       -0.034057833 -0.06579528 0.0024099918 0.028586883
000370 b4 38 57 bd f3 4f 54 bd 02 7c 32 3c 5b e3 f5 bc
       -0.05254431 -0.051834058 0.010893824 -0.030015638
000380 1a 3e f3 bc 75 4b d3 bc fc 62 d6 3c 11 d0 c0 bd
       -0.029692698 -0.025792817 0.026170246 -0.094146855
000390 4f d2 b1 bc 2b 4b 3d 3c b2 91 68 3c 74 8b a6 bd
       -0.021706728 0.011553566 0.014194893 -0.08132067
0003a0 0c f1 fc bb a8 65 9a 3c 61 15 03 3d ed 6a 39 3d
       -0.0077191647 0.018847302 0.03200281 0.045267988
0003b0 b4 0f 2d 3d 46 37 02 bd b9 bb 40 bd 26 2c 7d bd
       0.042251304 -0.031790994 -0.047054026 -0.06180968
0003c0 e1 18 70 bd 6e 1b 56 bd a0 ab 99 bd e4 10 a3 3c
       -0.058617476 -0.052272253 -0.07503438 0.019905515
0003d0 89 4d f6 bc 80 55 a0 3c fa 22 92 3b 37 78 98 3c
       -0.030066269 0.01957202 0.004459736 0.01861201
0003e0 25 06 6e bc 4e 2d 68 bc 2f 5b 27 bb ff 1d 2a 3d
       -0.014527832 -0.014170958 -0.0025536527 0.041532513
0003f0 79 94 5c 3c 77 cd a4 3c 40 4a bb 3b 2e 77 59 3c
       0.013463133 0.020117505 0.0057156384 0.013273044

action_out.bias f4 [5]
000000 80 55 b4 bc a8 72 1a bb 49 a9 eb bd 63 80 2c 3d
       -0.022013426 -0.0023566876 -0.11506898 0.042114627
000010 7f 63 df 3c
       0.027269123

weight f4 [256, 123]
000000 f5 1e 93 bd 35 7b 62 bd 5d 64 77 bd da ed 6e 3d
       -0.07183639 -0.05529328 -0.06039845 0.0583323
000010 ec d2 90 bd 5c cf 12 bc 0a bf 96 bd 81 c9 cf bd
       -0.0707148 -0.008960571 -0.073606566 -0.10145856
000020 0c be 5c bd 4d ad 92 bd 17 d0 97 3d 8c 12 8f bd
       -0.05389218 -0.07161961 0.07412737 -0.069859594
000030 1c 1e 58 bb a7 83 02 3d b9 41 51 3d 1b b6 8d 3d
       -0.003297693 0.031863835 0.05108807 0.069194995
000040 f3 05 37 bd d9 75 db bd 64 50 77 bd a1 fd c8 bd
       -0.044683408 -0.10715837 -0.0603794 -0.09814001
000050 bd 98 68 bd 15 cc 2d bd 94 99 84 bd 9c 34 13 bd
       -0.056786288 -0.042430956 -0.06474605 -0.035938844
000060 5a b5 93 bd c3 9f 26 3d 9d d7 b7 bd 42 4f a3 bd
       -0.072123244 0.040679704 -0.08976672 -0.079741016
000070 02 32 e1 bd 2e 95 00 3d 59 cc a7 bd 9a b1 e0 3d
       -0.10995866 0.03139227 -0.08193273 0.10971375
000080 a2 9a a6 bb b7 79 87 bd f3 78 3c bd b3 27 90 bd
       -0.0050843516 -0.06615012 -0.046013784 -0.07038822
000090 c1 0b 17 be 78 7a 49 bd 6a 48 a6 bc 8b 74 d8 3c
       -0.14750578 -0.04918906 -0.020298202 0.02642276
0000a0 a4 c5 93 bd 3a fd 9b bd 3d f9 64 bd 81 87 f7 3c
       -0.07215431 -0.076166585 -0.055901755 0.03021598
0000b0 39 d6 30 bb 61 cb de 3d d7 27 f6 3d e2 0c ca bc
       -0.0026983155 0.10878635 0.120193176 -0.024664346
0000c0 49 9e c7 bd 2e d4 f6 bc 52 68 94 3d a8 84 81 3c
       -0.097469874 -0.030130472 0.0724646 0.015810326
0000d0 e5 4a d3 bd e8 72 81 bc db c6 b3 3d 60 70 90 bd
       -0.103170194 -0.015801862 0.08778163 -0.07052684
0000e0 97 69 63 bc 61 5c 75 bd 64 4f 6e bc 63 43 b9 3c
       -0.013880155 -0.059902553 -0.014545295 0.02261514
0000f0 67 21 98 bd 56 a4 39 bd fa 44 c3 3b 34 6e c5 3a
       -0.07428246 -0.04532274 0.0059591504 0.001506275
000100 a2 72 a7 bd fe 60 a6 3c 95 7c 0e bd b2 ff 04 bd
       -0.08176161 0.020309921 -0.03478678 -0.032470413
000110 c5 09 66 bd c5 5f a4 3c 37 a7 5c bd 5c f2 b4 bc
       -0.05616166 0.020065198 -0.053870406 -0.022088222
000120 7a 28 13 bc 21 8e 67 bc 9f 90 57 bd d5 d6 7e bd
       -0.008981818 -0.014133007 -0.052628156 -0.0622166
000130 89 54 a8 38 82 7b 8b bc ad 39 6b 3d 08 c9 34 3d
       8.02661e-05 -0.017026667 0.05742805 0.04413703
000140 c9 c7 a8 bc 17 61 55 3d 3d ee 33 bd 40 7d b7 3d
       -0.020603077 0.052094545 -0.043928374 0.089594364
000150 cb ba 88 bd c2 2d c9 3c 4a 50 03 bd bd 1a 2f 3d
       -0.06676253 0.024557952 -0.03205899 0.04275011
000160 28 15 6e bd 38 e4 b1 bd 84 69 b8 bd 2b ac 7a bd
       -0.058125645 -0.086861074 -0.090045005 -0.06119935
000170 73 5a b5 3c 91 c4 9b bc 3d bd 8e bc b0 29 ff 3c
       0.022137856 -0.019014629 -0.01742422 0.031147808
000180 e6 c2 44 3d c2 dd 6b 3d 5c c5 4c bd 9f 28 f0 bc
       0.048037432 0.05758453 -0.049992904 -0.029316245
000190 93 74 95 3d ab 59 4c bd 69 86 34 3d ff 48 20 3d
       0.072976254 -0.0498902 0.044073496 0.039132114
0001a0 43 66 48 bd c0 d9 e6 3b 08 c4 63 3d 2f bd 83 bd
       -0.04892565 0.007045001 0.05560687 -0.06432568
0001b0 4f 9b 16 bc 6b 81 6a bd a5 25 63 3d 3d 87 a3 bd
       -0.009192302 -0.05725233 0.055455822 -0.07984779
0001c0 54 1a 14 3d a0 9b b1 bc 91 a6 34 3d fc 9d eb 3d
       0.03615792 -0.021680653 0.044104163 0.115047425
0001d0 6b 97 bc bc dd 7b fc bd d3 13 14 bd b0 80 c6 3d
       -0.02302142 -0.123283125 -0.03615172 0.09692514
0001e0 fb 92 b5 bd 7b 64 05 3d 3b 1d c9 3c 3d d9 1b be
       -0.08865925 0.03256653 0.024550071 -0.15219589
0001f0 47 f5 68 bd 52 cc 1a bd 58 dc 78 3c 51 3a f2 3c
       -0.05687454 -0.03779251 0.015189253 0.029568823
000200 d0 bc 89 3d 2f b8 d9 3c 7f 16 02 bd ae d5 4d 3d
       0.06725466 0.026577083 -0.031759735 0.05025261
000210 dc 00 a1 bd 6b 1d a2 3d 00 dc 6c 3d de 21 a2 3d
       -0.07861492 0.07915767 0.057826996 0.07916616
000220 ef 93 69 3d 97 d5 dd 3c d7 08 77 bd 9c f0 8e bc
       0.057025846 0.027079387 -0.060311165 -0.017448716
000230 d9 b5 47 bd 3a 5a 87 bd fb d7 71 bd 42 17 69 be
       -0.048757408 -0.06609006 -0.059043866 -0.22762778
000240 97 07 6c 3c ec cd 9b 3d a5 ba d2 bd 20 2b cd 3d
       0.014406106 0.07607636 -0.10289506 0.10017991
000250 56 d6 9e 3b 3a 60 de 3d 3f 2e 52 bd 96 d9 d7 bd
       0.004847328 0.108581975 -0.051313635 -0.10539548
000260 79 0a 85 3d 83 60 4c bd 76 43 a0 bd 01 ba 8f bd
       0.06496138 -0.04989673 -0.07825367 -0.07017899
000270 00 e1 d0 3c c7 25 9d 3d 10 d8 dc 3c b9 1f 12 be
       0.025497913 0.07673221 0.026958495 -0.14269914
000280 99 ed b2 bd a6 66 6c bb 64 0f 9b 3c 44 5c b3 3d
       -0.087367244 -0.0036071925 0.018928237 0.08757833
000290 38 a0 36 bd b3 8d 1e 3e c1 15 bf bd 80 54 32 3d
       -0.04458639 0.15483741 -0.09330321 0.043537617
0002a0 4a f7 2e 3c ef 8a 9b ba 65 55 3b 3d 2f ff 8c bb
       0.0106790755 -0.0011866967 0.045735735 -0.004302881
0002b0 32 48 dc 3d 84 ec 59 bc 35 40 ed bd 0c d5 24 3d
       0.10755958 -0.013301019 -0.11584512 0.04024224
0002c0 50 19 9f bc 12 c9 4a 3d 3d d5 48 bd 34 75 62 be
       -0.01942125 0.04950816 -0.049031485 -0.22115022
0002d0 9a cb c1 3d e8 52 04 3d 3b 45 ca bd bd d2 88 bd
       0.09462662 0.032305628 -0.09876486 -0.0668082
0002e0 d3 27 09 bc 93 93 d1 3d 29 20 a2 3d 10 8d 62 bc
       -0.008371311 0.10233226 0.0791629 -0.013827577
0002f0 f3 4e 1e 3e f7 86 c9 3c 30 7e 23 3c 64 45 c5 bc
       0.15459804 0.024600489 0.009978816 -0.02408094
000300 1e 2d f7 bc 30 a0 50 3c 08 2e 95 bc 2a 88 2a be
       -0.03017288 0.012733504 -0.018210426 -0.16653505
000310 8b f5 81 3d fb e5 5a be e1 44 16 3d f6 61 66 bc
       0.06345662 -0.21376793 0.03668678 -0.014061442
000320 e3 77 d4 3d 07 87 8a 3d 8d 22 4a bd 3b a0 5e be
       0.10374429 0.06764036 -0.049349356 -0.2174081
000330 4e 01 ce bc be ff 0d be 65 3a 8e bd 93 3e bb bc
       -0.025147106 -0.13867089 -0.069447316 -0.022856986
000340 9e 15 87 3d 98 e4 4e 3d 01 45 05 bc a3 c0 52 be
       0.0659592 0.050510973 -0.008134128 -0.20581298
000350 08 48 36 3d db dc 25 be 5b f4 2a bd f1 4e 66 be
       0.044502288 -0.16197531 -0.04173694 -0.22491051
000360 a5 65 23 3d 29 84 d0 3c 7a 46 c6 bd 52 e0 5c be
       0.039891858 0.025453644 -0.09681411 -0.21569946
000370 0f b0 a8 3d 70 e0 ee bb a3 e1 4d 3d d3 50 1f bd
       0.082367055 -0.0072899386 0.050264012 -0.03889544
000380 62 50 ab 3d f9 59 79 bd b7 54 70 3d 0d 6c 49 bd
       0.08364941 -0.06087682 0.05867454 -0.04917531
000390 f8 14 bf 3c 9a 74 9f 3c ab 92 9e 3d 9f 1d e1 bd
       0.023325428 0.01946478 0.077428184 -0.10991978
0003a0 a9 a4 90 3d da 28 bb 3c cd 07 af bc 3d 7f 9c bd
       0.070626564 0.022846628 -0.021366024 -0.07641456
0003b0 51 d3 6e bc 29 74 94 3d b6 a3 8c bd 48 50 db 3d
       -0.014576749 0.07248718 -0.06867163 0.10708672
0003c0 36 52 40 bc b2 aa cf bc 42 b0 97 3a 8f 95 4d bd
       -0.011738351 -0.025349949 0.0011572915 -0.05019146
0003d0 3f a6 20 3d fc 18 af bc d2 be 9b bd 97 cd 69 bd
       0.039221045 -0.021374218 -0.076047555 -0.05708083
0003e0 17 84 01 3d ca 56 0a 3d 19 9d f1 3c 7e 6b 93 bc
       0.03162011 0.033774175 0.029493855 -0.017995592
0003f0 da b1 c0 bd 25 25 8d bd e0 93 41 bd 57 5d 5f bd
       -0.094089225 -0.068918504 -0.047260165 -0.054532375

bias f4 [256]
000000 23 6c 97 3d fb ed 81 3d e9 5b 9c bd fb 76 3c 3d
       0.07393672 0.06344219 -0.07634718 0.046011906
000010 c5 f3 b4 3d 66 ed 55 3d c1 3c 4a 3d 07 f0 a2 3c
       0.08835558 0.052228354 0.049374346 0.019889845
000020 a9 07 78 3d b3 5f c6 3b d3 c6 9b 3d c3 2a ba bb
       0.06055418 0.0060538887 0.07606282 -0.005681367
000030 94 5a 46 3d 84 6f 12 3d 79 44 29 bd 8b 65 9c bd
       0.048426226 0.03575088 -0.041325066 -0.07636555
000040 92 25 88 3c 11 44 99 3d 28 a1 4d bd 82 74 ad bd
       0.016619477 0.07483686 -0.05020252 -0.08469488
000050 92 b1 0d bb db 38 7d bd b4 5c ac bd d9 b8 52 bd
       -0.0021620733 -0.0618218 -0.08416119 -0.051445816
000060 03 9d 1d bd 10 54 78 3d 71 cf 8f 3c 35 e9 b8 3c
       -0.038479816 0.060627043 0.01755497 0.02257214
000070 48 43 cf bd 3e a8 9d 3d ed fa 4b bd c4 ef fd 3c
       -0.10120255 0.07698105 -0.04979985 0.030998118
000080 75 c0 14 3d 84 2a 6d 3d b2 30 72 3d 2f 8e 93 bd
       0.036316354 0.057901874 0.05912847 -0.07204854
000090 ad 8b ae 3b 3a 5f 49 bd ef b4 c1 bd 7a 0f 8e bd
       0.0053267092 -0.04916308 -0.094583385 -0.06936546
0000a0 6b 99 44 3c 13 74 40 bd 3f df 7f 3d 20 4b 4f bd
       0.011999468 -0.046985697 0.062468763 -0.050608754
0000b0 e7 a0 89 bd c5 fb 7d bc 2c 76 c7 bc 5a 2d 53 bd
       -0.06720143 -0.015501921 -0.02434834 -0.051556922
0000c0 2a c2 5c 3c 32 c3 ad bb 25 6c a5 bd 81 f5 3d bd
       0.013474027 -0.00530281 -0.080772676 -0.04637671
0000d0 29 05 b5 bd 4e 21 82 3b 41 94 b4 bc 72 d7 41 3d
       -0.08838875 0.0039712554 -0.02204335 0.047324605
0000e0 ab 9a 6b bd 4c 02 39 3d ce ab 6c 3d 6d 91 2c 3d
       -0.05752055 0.045168206 0.057781033 0.042130876
0000f0 4a 49 85 3c 34 45 ac 3c 3d d8 18 3d ff 9d c9 bd
       0.016270299 0.021029092 0.037315596 -0.098445885
000100 f7 bf b5 3b e6 5c 9d 3c 3a 22 69 bd 33 67 25 3d
       0.0055465656 0.019209336 -0.056917407 0.04038162
000110 0e bd c4 3c 09 46 58 3d cd f9 ad 3c d0 a2 d3 bd
       0.02401593 0.052801166 0.021237278 -0.103337884
000120 ce 3f 8f bd 7f 42 e3 bd 8e 55 f4 3c 16 a1 cd 3b
       -0.06994592 -0.110966675 0.029825952 0.0062753065
000130 a9 c7 7f 3c 03 d8 73 bd 65 84 d6 3c 07 78 11 bc
       0.015611568 -0.059532177 0.026186178 -0.008878714
000140 8e ae 04 3d 63 56 39 3d c7 95 27 bd 37 aa 4b bd
       0.03239303 0.0452484 -0.040914323 -0.049722876
000150 e1 db fd bc 1e 13 7a 3b e2 bf 48 3d a4 47 a0 bd
       -0.030988635 0.0038158367 0.04901112 -0.07826164
000160 0f a4 e8 bc 26 f4 82 3c a7 8b 53 bc 96 62 27 3d
       -0.028398542 0.01598556 -0.012911714 0.040865503
000170 57 96 20 3d 3f 64 b4 bd a6 90 66 bd 5c d1 6b bd
       0.039205875 -0.08808183 -0.05629029 -0.057572708
000180 b1 dc 5e 3d 3a 1c c8 bd 16 8c aa bd 17 80 65 3d
       0.054409686 -0.09771009 -0.083275005 0.05603036
000190 65 50 cb bd 7f ee 23 3d 1b 3d 24 3d 79 b8 37 bd
       -0.099274434 0.04002237 0.040097337 -0.04485366
0001a0 71 dd 9a 3c ac 74 db 3c 58 17 a0 bd 2b 59 a0 bc
       0.01890442 0.026789032 -0.078169525 -0.019573769
0001b0 a4 c4 85 3c de 35 00 bd b8 e1 ba bd b4 e0 58 bd
       0.016329117 -0.03130137 -0.09125084 -0.05294867
0001c0 d7 5f 5c bc c8 5a 97 3c 31 f4 18 3d 9d 8c 68 3d
       -0.013450584 0.018475905 0.037342254 0.056774724
0001d0 d8 14 34 3d b6 a8 a4 3d 11 b7 a2 bd 34 0d ee 3c
       0.04396519 0.080399916 -0.079450734 0.02905903
0001e0 c1 b8 ac bd 09 73 55 3c a1 c3 d2 3a 5a 00 9f 3c
       -0.084336765 0.013027915 0.001608003 0.019409347
0001f0 fb b9 98 bd 3c 22 77 3d 47 73 3f 3c 16 f8 bd bd
       -0.07457348 0.060335383 0.011685199 -0.09275834
000200 85 3e a6 3c 77 05 96 bd ec 7a 96 bc 36 8b ba bd
       0.020293484 -0.07325261 -0.01836916 -0.09108584
000210 79 09 45 bc af 05 86 3d 58 2e a3 bd ad 00 a4 bd
       -0.012026184 0.06544053 -0.07967824 -0.080079414
000220 25 cd 9e 3d 03 6a a4 bd 3c 99 1a bd 2c 4f a1 3d
       0.07753972 -0.08028033 -0.037743792 0.07876429
000230 7e 4a e7 3b 49 f3 8d 3d a0 1c 49 bd 43 d6 a2 ba
       0.0070584407 0.069311686 -0.049099565 -0.0012423474
000240 0e 36 72 3d 32 d5 b7 3c fd a2 7b 3c 5a 4c 30 3d
       0.05913358 0.022440527 0.015358684 0.043041565
000250 56 82 94 3d 0d 9a 31 bc 58 41 1d bd 15 ec 25 3d
       0.07251422 -0.010839951 -0.038392395 0.04050835
000260 11 36 bf 3c 3d 0a c8 bc dc 0e fc bb 86 99 80 3c
       0.02334121 -0.024418944 -0.007692201 0.015698206
000270 59 0a b0 3c a0 2f 3e 3c b5 4a 6d 3c 64 fc 8c bd
       0.02148931 0.011608034 0.014483144 -0.06884077
000280 c9 70 2a 3c 82 5a 4c bd 96 e8 95 bd d4 fa c9 3c
       0.010402867 -0.049891002 -0.07319753 0.024655737
000290 23 4b 82 3d 84 48 6c bc cb 8a 8d 3d d7 24 a1 bd
       0.063619874 -0.014421586 0.06911238 -0.07868355
0002a0 4c 74 a3 3d ed 84 16 bd 0d b3 80 bd c5 a5 c4 3c
       0.07981166 -0.03674786 -0.06284151 0.024004826
0002b0 f5 9a 8e bc 48 a8 a4 bd 3d 1e c5 bb 75 52 42 bd
       -0.017407874 -0.080399096 -0.0060155676 -0.04744192
0002c0 e6 a9 a4 bd c9 46 98 3d 82 42 01 3c ee ea d0 bc
       -0.08040218 0.07435376 0.007889392 -0.025502648
0002d0 d7 49 d5 bc 2a b3 8c 3b 82 fa 3d 3d e8 0e 7e 3c
       -0.026036186 0.004293819 0.04638148 0.015506484
0002e0 18 bc 9c bd ef 00 24 3d 54 59 23 3d 16 c3 99 3d
       -0.076530635 0.040039953 0.03988011 0.07507913
0002f0 54 03 78 3d ec 1b 28 3d bc 78 d6 bc 07 94 8a bd
       0.06055005 0.041042253 -0.026180618 -0.06766515
000300 f9 0c a9 3d c8 ea 25 bd f8 00 75 3c 12 a7 c1 bd
       0.082544275 -0.040507108 0.014953844 -0.09455694
000310 c4 16 cf bd 2c a0 56 bc cf ca 01 3c f2 d3 b8 bb
       -0.10111764 -0.013099711 0.0079218885 -0.0056405
000320 3c 23 43 3d 9e f6 98 bd cc 2b 67 bc 47 64 81 3d
       0.047641024 -0.074689135 -0.014109563 0.063179545
000330 84 55 5f 3d 00 bf 1d bc f1 9b cc bd b4 92 97 3d
       0.054524913 -0.0096280575 -0.09990681 0.07401028
000340 41 a9 8f 3d 24 33 b1 bd 2e d2 a2 bc c1 11 59 3d
       0.070147045 -0.086523324 -0.019875612 0.052995447
000350 b9 d5 3d 3c 13 4b 35 3d 49 50 5a bd f2 ff 47 3d
       0.0115866 0.04426105 -0.053299222 0.048828073
000360 80 57 73 3b 36 c0 8c bd f8 fc ab bd 3a 75 df bc
       0.0037131011 -0.06872599 -0.08397859 -0.027277578
000370 dc 4b b0 bd 16 e4 c6 3c 40 97 2f 3d 38 14 95 bd
       -0.08608219 0.024278682 0.042868853 -0.07279247
000380 ac 14 d3 3b 3a f5 68 3d be d8 99 3d 04 41 c4 bd
       0.0064416733 0.05687449 0.075120434 -0.09582713
000390 c8 83 59 3d f0 db 61 bb d3 b8 cf bd 1d 63 9a bd
       0.053104192 -0.0034463368 -0.10142674 -0.075384356
0003a0 6f e2 9f bd 9d a4 da 3c 8d bd 62 bd 13 00 94 bb
       -0.07806861 0.026689822 -0.05535655 -0.0045166104
0003b0 8b 1d dd bc f8 59 f6 3c 89 ae a0 bd 39 b1 ba bd
       -0.026991626 0.030072197 -0.0784579 -0.09115834
0003c0 f6 f0 c7 bd 94 6d 32 3d e2 3e d2 3c 22 5d 65 3d
       -0.097627565 0.043561533 0.02566475 0.05599702
0003d0 f6 78 32 bd 80 8e 54 3d 03 06 9f bd d4 d9 b4 bd
       -0.04357239 0.05189371 -0.077648185 -0.0883061
0003e0 cf 90 69 bd 57 6a 85 bd 5c 5a cc 3c a0 bc 62 bd
       -0.057022866 -0.06514423 0.02494543 -0.055355668
0003f0 c0 9f 55 3d b7 1a 9f 3d 0f 59 0c 3d bb cc 46 bd
       0.052154303 0.07768767 0.03426462 -0.04853509
