src/saved_models/grid_world_seed125_8_4_18_45/125_3_model.pt (torch, 702521 bytes, 11 tensors)

FC1.weight f4 [256, 36]
0	0x3e4c12e0	0.19929075
1	0xbce2b130	-0.02767238
2	0x3d84aad3	0.06477895
3	0xbd561d23	-0.05227388
4	0x3c0f6e50	0.008754328
5	0x3e0dcf99	0.13848723
6	0xbb83a4fa	-0.0040174695
7	0xbd8101ce	-0.06299172
8	0x3e28b0d4	0.16473705
9	0xbe281275	-0.16413291
10	0x3e06e157	0.13171898
11	0x3d4a9f30	0.04946822
12	0xbc9f248d	-0.019426608
13	0x3e4fb476	0.20283684
14	0x3d87b98a	0.06627186
15	0x3e8272ae	0.2547812
16	0x3e1478eb	0.14499252
17	0x3dafda81	0.08586598
18	0x3d02bccd	0.031918336
19	0x3e314f0e	0.17315313
20	0xbdb3cbfb	-0.087791406
21	0x3dd773d8	0.10520142
22	0x3e816ec3	0.25279817
23	0x3dcc9c06	0.099906966
24	0xbd262200	-0.04055977
25	0xbc5c93cf	-0.013462975
26	0x3e9465cb	0.28983912
27	0x3df244c8	0.11829525
28	0x3ca20a6e	0.019780364
29	0x3e32e65e	0.1747069
30	0xbc08ffc9	-0.008361765
31	0x3e4a3e86	0.19750413
32	0xbdd4d114	-0.10391441
33	0x3dd54ce4	0.10415056
34	0xbda5369d	-0.08067057
35	0x3e0f04ed	0.13966723
36	0xbcf29e7a	-0.029616583
37	0x3e0372d0	0.12836766
38	0x3d7bddf5	0.06149097
39	0x3dcb29d0	0.099200845
40	0x3d620f7b	0.055190545
41	0x3cf64a2f	0.03006467
42	0xbdf40209	-0.11914451
43	0x3de76522	0.112985864
44	0x3d281623	0.041036736
45	0xbcf1e9ae	-0.029530372
46	0xbbfed80e	-0.0077772206
47	0xbd98648e	-0.07441054
48	0xbd1c5b0d	-0.03817277
49	0x3cfa1f26	0.03053243
50	0x3ce8eea5	0.028434107
51	0x3d98c4a6	0.07459383
52	0x3e2c161d	0.1680531
53	0x3e0b5b9f	0.1360917
54	0xbc2a495f	-0.01039347
55	0x3de5fd2f	0.112299316
56	0x3d800bed	0.06252275
57	0xbcbc6cb4	-0.023001052
58	0x3d6cd682	0.057821758
59	0xbe22e976	-0.15909371
60	0xbd637539	-0.055531714
61	0x3d1b83f9	0.037967656
62	0x3d44bfaa	0.048034348
63	0xbdfa2b87	-0.122153334
64	0x3d209a24	0.0392095
65	0xbda3151f	-0.07963013
66	0xbd853372	-0.06503953
67	0xbd5fe339	-0.054660056
68	0x3cd05b3c	0.025434129
69	0xbcfe288c	-0.031025194
70	0xbb145cf9	-0.0022638424
71	0x3e030481	0.12794687
72	0x3e03759a	0.1283783
73	0x3c21999d	0.009863284
74	0xbcb58b2d	-0.02216109
75	0xbc6201e0	-0.013794392
76	0x3e66d3fb	0.22541802
77	0x3e652023	0.2237554
78	0xbc31954a	-0.010838816
79	0x3e5befe6	0.21478233
80	0x3da83ad0	0.082143426
81	0x3c982e79	0.018576847
82	0xbd8d476a	-0.06898387
83	0x3d9a8436	0.075447485
84	0x3e743288	0.23847401
85	0x3e14f7ee	0.14547703
86	0xbd58a5a8	-0.052892357
87	0x3e3d719b	0.18500368
88	0x3e0731f0	0.13202643
89	0xbd39f0de	-0.045395724
90	0xbd16b3ab	-0.03679244
91	0xbda9e9df	-0.082965605
92	0xbd32b456	-0.043629013
93	0x3e22f949	0.15915407
94	0x3d1aad5f	0.037762996
95	0xbd549c81	-0.051907066
96	0x3c676b9a	0.014124775
97	0xbc85e536	-0.016344648
98	0x3de33099	0.11093254
99	0x3e05d7bd	0.13070579
100	0x3ddd2e99	0.107999034
101	0xbcd6fbbc	-0.026243083
102	0xbd980e45	-0.07424597
103	0x3e6ce1ca	0.23133007
104	0x3ce9dbf7	0.02854727
105	0x3de58a8d	0.11208067
106	0xbdf77a73	-0.12083902
107	0x3df889ba	0.12135644
108	0xbdcf1364	-0.1011112
109	0x3c8f02ea	0.017457444
110	0x3d44cfa7	0.048049595
111	0xbd0c1085	-0.03419544
112	0x3da0a3a9	0.07843716
113	0xbd84e113	-0.06488242
114	0xbdd2a904	-0.102861434
115	0xbd444700	-0.047919273
116	0xbd57d4a1	-0.052693013
117	0x3e19d45d	0.15022416
118	0x3e029315	0.1275142
119	0xbe050dda	-0.12993565
120	0x3c8975ac	0.016779743
121	0xbdd81792	-0.10551371
122	0x3e0451c0	0.1292181
123	0x3d8f4086	0.06994729
124	0x3cab9e33	0.020949459
125	0xbe2c2e05	-0.1681443
126	0x3dec3bfd	0.11534879
127	0xbd2de1e3	-0.04245175
128	0xbe1e9723	-0.15487342
129	0xbe269530	-0.16267848
130	0x3cf45369	0.02982493
131	0x3d8e2114	0.06939903
132	0xbdaa706d	-0.08322225
133	0x3dd7ce75	0.105374254
134	0x3dd4f263	0.10397794
135	0xbdefc33a	-0.117071584
136	0x3d8f537c	0.06998345
137	0x3d07a7c3	0.033118974
138	0x3df1f23d	0.118137814
139	0xbd9b0dbd	-0.0757098
140	0xbd5d5305	-0.05403425
141	0xbe20bf40	-0.15697956
142	0xbca3f40f	-0.020013837
143	0x3dc69d76	0.09698002
144	0x3e18ca9e	0.14921042
145	0x3e279fc7	0.16369544
146	0x3e36a6a7	0.1783701
147	0x3c82f52a	0.015986044
148	0xbcc5e3a0	-0.024156392
149	0x3dcb4879	0.099259324
150	0x3dfab88e	0.12242232
151	0x3cb49328	0.022042826
152	0xbd9a6080	-0.07537937
153	0xbe073487	-0.13203631
154	0x3db0be16	0.08630006
155	0xbc413da2	-0.01179448
156	0xbcb3f643	-0.021968013
157	0x3e2d3d20	0.16917849
158	0x3ce34de0	0.027747095
159	0x3e33313a	0.17499247
160	0x3c78ee6b	0.015193562
161	0x3e16cae3	0.14725833
162	0xbdbefca5	-0.09325532
163	0xbdc2ce69	-0.09512026
164	0x3db94a52	0.090473786
165	0xbd96d434	-0.07364693
166	0xbd576d84	-0.052594677
167	0xbdcfc770	-0.101454616
168	0xbdd4da4f	-0.103932016
169	0xbc1e8977	-0.009676329
170	0xbcfe0e9f	-0.031012831
171	0x3cd4a075	0.025955418
172	0x3d83dee5	0.06438998
173	0xbde142de	-0.10999082
174	0x3e22e6ae	0.1590831
175	0x3d819840	0.063278675
176	0xbe069358	-0.13142145
177	0xbda515da	-0.080608085
178	0xbc53f734	-0.012937356
179	0xbd98c32b	-0.074591
180	0x3d74c48c	0.059757754
181	0xbd9f5189	-0.077792235
182	0x3d452595	0.048131544
183	0xbd940a50	-0.072285295
184	0xbe10b3e5	-0.14131124
185	0xbd47778a	-0.048697986
186	0x3cff2099	0.031143473
187	0x3c828820	0.01593405
188	0xbe13514e	-0.14386484
189	0x3dcc25f8	0.099681795
190	0xbc2f017a	-0.010681504
191	0xbdca5a01	-0.09880448
192	0xbe079cd1	-0.13243414
193	0xbb20f1e1	-0.0024558234
194	0xbd9737d7	-0.073836975
195	0xbdba3988	-0.090930045
196	0x3dcabc27	0.098991685
197	0xbde10905	-0.109880485
198	0x3e1221ee	0.14270756
199	0xbdc8b3f3	-0.097999476
200	0xbe23eaa4	-0.16007477
201	0xbe2c4821	-0.1682439
202	0xbd3b49ee	-0.0457248
203	0x3d944c12	0.07241072
204	0xbcff9a59	-0.031201528
205	0xbdb3af10	-0.08773625
206	0xbddc3e9e	-0.10754131
207	0xbcd20422	-0.025636736
208	0xbbfa79f7	-0.007643934
209	0xbdeef986	-0.116686866
210	0x3c62a0a0	0.013832241
211	0xbe37a113	-0.17932539
212	0xbe213427	-0.15742551
213	0xbdfa7a48	-0.122303545
214	0x3dae2fa6	0.08505182
215	0x3d8d3140	0.06894159
216	0xbd961dd9	-0.07329912
217	0xbe1594d9	-0.14607562
218	0x3dc4877c	0.09596154
219	0xbd3cbb24	-0.04607691
220	0x3d83af25	0.064298905
221	0xbd9626d5	-0.07331625
222	0x3dfe179b	0.12406846
223	0x3c9de36a	0.019273479
224	0xbdb92c93	-0.09041705
225	0xbda7e13f	-0.08197259
226	0xbd2b7f46	-0.041869424
227	0x3d9fbd1e	0.07799743
228	0x3e049148	0.12946045
229	0x3db12982	0.08650495
230	0xbd3bf2ed	-0.04588597
231	0xbe2de731	-0.16982724
232	0x3e0e8801	0.13919069
233	0x3d144241	0.036195997
234	0xbde01f3c	-0.109434575
235	0xbd5189fe	-0.05115699
236	0x3d414bb7	0.047191348
237	0xbe1a077b	-0.15041916
238	0x3ba04207	0.0048906836
239	0x3d29caea	0.04145328
240	0xbd75f29b	-0.06004582
241	0x3c87dd3d	0.016584987
242	0xbdaffb39	-0.08592839
243	0xbcfb2c6a	-0.030660827
244	0x3c9d14c4	0.01917494
245	0xbd14f60e	-0.03636747
246	0xbe15f912	-0.14645794
247	0xbd53597c	-0.05159901
248	0xbded5694	-0.11588779
249	0xbde79bd2	-0.11309017
250	0x3e188374	0.14893895
251	0xbddf4f10	-0.10903752
252	0x3d42aeb7	0.047529902
253	0x3d454695	0.048163015
254	0x3e1301ea	0.14356199
255	0x3e1d6801	0.15371706

FC1.bias f4 [256]
0	0x3ced4f4b	0.028968474
1	0xbcf85b85	-0.030317077
2	0xbcaa5a4e	-0.020795014
3	0xbdcabbf0	-0.098991275
4	0x3e3dfe95	0.18554147
5	0x3df63563	0.120219015
6	0x3da73357	0.08164089
7	0x3e24cdf8	0.16094196
8	0x3dc24e3b	0.094875775
9	0xbc1e9cd7	-0.009680948
10	0x3dccd856	0.100022
11	0xbd96e331	-0.07367552
12	0x3e0dcd28	0.13847792
13	0x3e29d2f5	0.1658438
14	0xbe0807c1	-0.13284208
15	0x3db35dba	0.08758111
16	0xbd26c0f2	-0.04071135
17	0x3cc83b91	0.024442466
18	0xbdf37f6e	-0.1188954
19	0xbd22c254	-0.039736107
20	0xbe313282	-0.17304423
21	0xbe243f69	-0.16039814
22	0xbd90b215	-0.070652165
23	0x3df727ce	0.12068139
24	0xbd5bc662	-0.05365599
25	0x3c295659	0.010335528
26	0xbd998429	-0.07495911
27	0x3ca309a3	0.019902056
28	0x3d0808a7	0.033211377
29	0xbd171561	-0.036885623
30	0xbdd7fa07	-0.10545736
31	0xbdfb7f88	-0.12280184
32	0xbc460a9f	-0.012087493
33	0x3d8dd24b	0.06924876
34	0x3e337aa3	0.17527251
35	0x3e1c6c9a	0.15275803
36	0xbd17c82e	-0.03705614
37	0x3df3edca	0.11910589
38	0xbdb6f569	-0.08933527
39	0xbe257aa3	-0.16160063
40	0x3cdafec1	0.026732804
41	0x3de4b454	0.11167207
42	0x3e355a26	0.1771017
43	0x3d9908ac	0.07472357
44	0xbd3217af	-0.043479618
45	0x3e29729c	0.16547626
46	0x3dd5d394	0.10440746
47	0xbdcf1ac9	-0.10112531
48	0x3dc6b8b9	0.09703202
49	0x3dea388b	0.11436566
50	0x3d8ea003	0.069641136
51	0x3d79251b	0.060826402
52	0x3dc6f216	0.09714143
53	0x3e285ec0	0.16442394
54	0xbd850b8e	-0.064963445
55	0xbd5d4b5b	-0.054026943
56	0xbdeb9faf	-0.115050666
57	0x3dfc219d	0.12311099
58	0xbe2d2164	-0.16907269
59	0x39e77101	0.00044143948
60	0x3e179d9a	0.14806214
61	0xbe2df0ba	-0.16986361
62	0x3dc76ce1	0.09737564
63	0xbe1dac11	-0.1539767
64	0xbd965bfd	-0.07341764
65	0x3d707385	0.058703918
66	0xbcd2e05f	-0.025741754
67	0x3e43ed83	0.19133572
68	0x3dc9b767	0.09849434
69	0xbd86a06b	-0.06573566
70	0xbe40846f	-0.1880052
71	0xbdf454df	-0.119302504
72	0xbe0c92c9	-0.13727869
73	0x3d9abc0b	0.075553976
74	0x3d6e46c0	0.05817294
75	0x3dc6a7f3	0.097000025
76	0xbcd4160c	-0.025889419
77	0x3db1dd22	0.08684756
78	0x3e1a5ce3	0.15074496
79	0x37807aa8	1.5315905e-05
80	0x3db10e25	0.08645276
81	0x3d9f011e	0.07763885
82	0xbd0c10ee	-0.034195833
83	0xbdf59282	-0.11990835
84	0xbd843c75	-0.06456844
85	0xbe17e06f	-0.14831708
86	0xbd9fe3a1	-0.07807089
87	0x3d095051	0.03352386
88	0x3d6ace1c	0.057325467
89	0x3d5a2ec5	0.05326726
90	0x3ddc5b37	0.10759585
91	0x3e362f47	0.17791472
92	0x3e2d898e	0.16947004
93	0xbd4cef58	-0.050032943
94	0x3e2a2900	0.16617203
95	0x3c0768f0	0.008264765
96	0xbddc9484	-0.107705146
97	0xbddc4a85	-0.10756401
98	0xbd2d4fae	-0.042312317
99	0xbde5602f	-0.11199986
100	0x3e2f3581	0.17110254
101	0xbe016f70	-0.12640166
102	0x3e0040b2	0.1252468
103	0x3e18f066	0.14935455
104	0x3e0b90b8	0.13629425
105	0xbd1b5758	-0.037925094
106	0xbd661741	-0.05617452
107	0x3d168650	0.036749184
108	0xbba303bf	-0.004974812
109	0xbe000cee	-0.12504932
110	0xbdc640df	-0.09680342
111	0xbdc76e69	-0.09737856
112	0xbd154f6b	-0.036452692
113	0x3ddb725d	0.107151724
114	0x3d68ef22	0.05686868
115	0xbd04b871	-0.03240246
116	0x3d9b3fbd	0.075805165
117	0x3e32bb77	0.17454325
118	0x3ddb311c	0.10702726
119	0x3c981244	0.018563397
120	0x3d137217	0.035997476
121	0xbe1c17f7	-0.15243517
122	0x3e1dfbf0	0.15428138
123	0xbdcc807a	-0.099854425
124	0xbe262876	-0.16226372
125	0xbc8d8334	-0.017274477
126	0xbdff39e3	-0.12462213
127	0x3db5b67c	0.08872697
128	0xbd9897e8	-0.07450849
129	0x3e32a769	0.17446674
130	0x3d836cb1	0.064172156
131	0xbda74aa2	-0.08168532
132	0xbb6a8c45	-0.0035789174
133	0xbc86b8ee	-0.016445603
134	0xbe22935c	-0.15876526
135	0x3e3ae604	0.18251806
136	0xbe11c0dd	-0.14233728
137	0x3d78c6c2	0.060736425
138	0xbcb148c0	-0.021641135
139	0x3dfb240f	0.12262737
140	0x3a3cdb51	0.00072043116
141	0x3db463cc	0.08808097
142	0x3d6eb983	0.058282387
143	0xbe2728f0	-0.1632421
144	0xbdbddc28	-0.09270507
145	0xbe0e542d	-0.13899298
146	0xbdb4d35d	-0.08829377
147	0x3d964625	0.07337598
148	0x3de94552	0.11390175
149	0x3d7ada8c	0.06124358
150	0xbdf9eef7	-0.12203782
151	0x3dce865c	0.10084221
152	0x3e0fe141	0.14050771
153	0xbd366def	-0.044538435
154	0xbc94dd36	-0.018171888
155	0xbd51eb90	-0.05125004
156	0x3e4825f0	0.19545722
157	0x3e1dd1d1	0.1541207
158	0xbc280c00	-0.010256767
159	0xbdd67c84	-0.10472968
160	0x3d272f59	0.04081664
161	0x3e55ce04	0.2087937
162	0x3e0ef43c	0.13960356
163	0x3e367f32	0.17821959
164	0x3d8ca8d3	0.06868138
165	0x3e276576	0.16347298
166	0x3d73181b	0.05934916
167	0x3e390e00	0.18071747
168	0xbd7def3c	-0.06199573
169	0xbdb559f0	-0.08855045
170	0xbde13728	-0.10996848
171	0x3b651dd4	0.0034960406
172	0xbcb62d23	-0.02223832
173	0x3d55379a	0.05205498
174	0x3e3c3144	0.18378168
175	0x3e1157e7	0.14193688
176	0x3a4c9500	0.0007804185
177	0xbdf3db77	-0.11907094
178	0xbd6e8d15	-0.058240015
179	0xbc9e1e97	-0.019301696
180	0x3e3e96c5	0.18612202
181	0xbe3526af	-0.17690538
182	0xbdcb2b50	-0.099203706
183	0x3e8325df	0.2561483
184	0xbdab54b5	-0.08365766
185	0xbafae0fb	-0.0019140536
186	0x3d7500f3	0.05981536
187	0xbce67afc	-0.028134815
188	0xbde1ce16	-0.11025636
189	0xbd92171e	-0.071333155
190	0x3d8948da	0.067033485
191	0xbd814f2a	-0.063139275
192	0xbe27e2cc	-0.1639511
193	0xbd13fa15	-0.03612717
194	0xbdd56744	-0.10420087
195	0x3db7b869	0.0897072
196	0x3d70ebea	0.058818735
197	0x3e01be13	0.12670164
198	0x3e2667fd	0.16250606
199	0xbe2344e6	-0.15944251
200	0x3dd9690f	0.106157415
201	0xbbcc66ac	-0.0062378254
202	0xbccf60db	-0.025314739
203	0x3d65e091	0.056122366
204	0xbdd17f08	-0.102293074
205	0xbdf1d4d2	-0.118081704
206	0x3dcccfb7	0.10000556
207	0xbe119fed	-0.14221163
208	0x3db6553d	0.08902977
209	0x3d21264a	0.039343156
210	0x3dccc9e9	0.09999449
211	0x3e1ad114	0.1511882
212	0xbe197ed8	-0.14989793
213	0x3e016dfe	0.12639615
214	0xbdd00264	-0.10156706
215	0xbd0bae76	-0.034101926
216	0xbda46120	-0.080263376
217	0xbc2ea8f8	-0.0106604025
218	0x3c5fb4b7	0.013653926
219	0x3e0180be	0.12646767
220	0xbb16575a	-0.002294025
221	0x3df15229	0.11783249
222	0xbe467bc0	-0.19383144
223	0xbdb91d6f	-0.09038817
224	0xbe137ff7	-0.14404283
225	0xbdd1d7be	-0.10246228
226	0x3da351bf	0.07974576
227	0x3dea650c	0.114450544
228	0x3e117899	0.1420616
229	0xbe103685	-0.14083298
230	0x3d5086ae	0.05090969
231	0xbe0fbdb9	-0.14037217
232	0xbd22395f	-0.039605495
233	0x3d2aea8c	0.041727588
234	0xbde3c96b	-0.11122402
235	0xbe1ff5e9	-0.15621151
236	0xbd699980	-0.057031155
237	0x3de4cd01	0.11171914
238	0xbe012934	-0.12613374
239	0xbe0e3e81	-0.13891031
240	0x3e3a5d83	0.18199734
241	0xbdbba280	-0.09161854
242	0x3dfcd316	0.12344949
243	0xbc3079f3	-0.010771262
244	0x3e258da5	0.16167314
245	0x3db36ee0	0.08761382
246	0xbe0fc9c2	-0.14041808
247	0x3dd7e28d	0.10541258
248	0x3d59202e	0.053009205
249	0xbdc0e766	-0.09419136
250	0xbd3e9cf8	-0.046536416
251	0x3e2b0034	0.16699296
252	0xbe386099	-0.18005599
253	0xbe1d2130	-0.15344691
254	0xbe163c34	-0.14671403
255	0x3e28cf41	0.16485311

FC2.weight f4 [256, 256]
0	0xbdd05142	-0.10171749
1	0x3d3a7fb8	0.04553196
2	0xbdc69419	-0.09696216
3	0xbd513212	-0.05107314
4	0xbd6ab899	-0.057304952
5	0xbb03e854	-0.0020127492
6	0xbc27bfa0	-0.010238558
7	0xbd2a1ed2	-0.0415333
8	0x3d1c031f	0.038088914
9	0xb9ba5782	-0.00035541883
10	0x3c230cf7	0.0099518215
11	0xbdcc23bc	-0.09967753
12	0xbdd6bf1d	-0.10485671
13	0x3c2b5213	0.01045658
14	0x3c037c26	0.008025205
15	0xbca6422d	-0.020295227
16	0x3c3d44aa	0.011552015
17	0xbc7b7550	-0.015347794
18	0x3c3abacd	0.011397076
19	0xbc34f4c4	-0.011044685
20	0x3cd11ceb	0.025526484
21	0x3d199441	0.0374949
22	0xbd63aad0	-0.05558282
23	0x3cf6d5d3	0.030131256
24	0x3c832ddc	0.016013078
25	0xbd26a14d	-0.040681172
26	0x3bf52d4b	0.007482206
27	0xbd18e2e5	-0.03732576
28	0xbd65cbb2	-0.056102462
29	0x3c229dc0	0.009925306
30	0x3d11fd0b	0.03564171
31	0xbd79a2af	-0.060946163
32	0x3c601ac0	0.013678253
33	0xbd4af0b2	-0.04954595
34	0x3cbfcc33	0.0234128
35	0xbb8627cb	-0.004094099
36	0x3cf2c872	0.029636595
37	0x3c787786	0.015165215
38	0xbd9f1f0b	-0.07769593
39	0xb81ab5b5	-3.688569e-05
40	0xbaf20dfe	-0.0018467305
41	0xbcead805	-0.02866746
42	0xbcb59450	-0.022165447
43	0x3d26c7c6	0.040717863
44	0x3c2f4e01	0.01069975
45	0xbd97b3d5	-0.07407347
46	0xbd9404ca	-0.07227476
47	0xbda58dcd	-0.08083687
48	0xbd72f2bb	-0.059313517
49	0x3c238c3a	0.009982163
50	0xbd79c307	-0.06097701
51	0x3c8fb867	0.017543985
52	0x3d16e285	0.03683712
53	0x3cecd2ac	0.02890905
54	0xbd5de682	-0.054174908
55	0xbd0d0ce4	-0.03443612
56	0xbc7a97a8	-0.015294947
57	0xbc8cfb7a	-0.017209757
58	0x3d24b2ad	0.04020946
59	0xbcf7995b	-0.030224493
60	0x3d333685	0.043753166
61	0xbd43d52a	-0.04781071
62	0xbd8b6c56	-0.06807773
63	0x3bc4f715	0.0060109
64	0xbd88020d	-0.06641016
65	0xbd1f4720	-0.03888619
66	0xbd0adf17	-0.03390416
67	0xbd101c4c	-0.035183236
68	0xbd6bc41e	-0.05756008
69	0xba83461d	-0.0010015402
70	0x3d2767f2	0.040870614
71	0xbc81081f	-0.015750943
72	0xbd7d3c3f	-0.061825033
73	0xbc933c8c	-0.017973207
74	0xbd8eac37	-0.06966441
75	0xbda4b27b	-0.08041855
76	0xbdc9017c	-0.09814736
77	0xbe17b6e8	-0.14815867
78	0xbdaa9a80	-0.0833025
79	0x3cef2cdb	0.029196193
80	0xbd1941f9	-0.037416432
81	0xbd55fe28	-0.052244335
82	0x3d37b386	0.04484894
83	0x3cae4057	0.021270914
84	0x3c140c46	0.009036129
85	0xbd066e4e	-0.03282004
86	0xbdbcc279	-0.0921678
87	0x3cfc733f	0.030816672
88	0xbcb87a42	-0.022519235
89	0xbd4b34ef	-0.04961103
90	0xbc28f98b	-0.010313402
91	0x3d1e0f5e	0.038588874
92	0xbb18b7ae	-0.002330284
93	0xbd8b4349	-0.06799943
94	0xbd32ac04	-0.043621078
95	0xbdb4a005	-0.08819584
96	0x3cdb0bb6	0.026738983
97	0x3d32c841	0.04364801
98	0xbcb13320	-0.021630824
99	0xbd7868be	-0.060646765
100	0xbd23ee5e	-0.040022247
101	0xbc6d8152	-0.014496164
102	0xbd7c1fea	-0.061553873
103	0x3bfd26e7	0.007725585
104	0xbe72364c	-0.23653525
105	0xbce10607	-0.027468694
106	0x3c8da190	0.017288953
107	0x3d24bcf5	0.040219266
108	0xbdba70a6	-0.09103517
109	0xbd573c7f	-0.052547928
110	0x3bbcb4cf	0.0057588588
111	0x3d36048a	0.044437923
112	0xbca9aa75	-0.020711163
113	0xbc5934f8	-0.013257258
114	0xbdb03b60	-0.08605075
115	0xbd2a0d90	-0.04151684
116	0xbca6a22d	-0.020341003
117	0xbd80a008	-0.062805235
118	0xbd8986e1	-0.06715179
119	0x3d53c77d	0.05170392
120	0x3d1890bd	0.03724741
121	0xbd681afb	-0.056666356
122	0x3d16778e	0.03673511
123	0x3c8946ec	0.016757451
124	0x3ce36dc4	0.027762301
125	0xbe043bb4	-0.129134
126	0xbcc0b7a8	-0.023525074
127	0xbdb7bb06	-0.08971219
128	0xbda388ba	-0.07985063
129	0xbb5c0751	-0.0033573697
130	0xbd5cfe74	-0.053953603
131	0xbd10af4b	-0.035323422
132	0x3c9d6995	0.019215384
133	0xbd4447c5	-0.047920007
134	0x3cd1ecba	0.025625575
135	0xbd3c9a3a	-0.04604552
136	0x3d1c7f85	0.03820755
137	0xbd2f867d	-0.042852867
138	0x3d07a9fd	0.033121098
139	0xbca3b195	-0.019982139
140	0x3ccd09d0	0.025029093
141	0x3cb80cd2	0.02246705
142	0xbd0643a9	-0.03277937
143	0xbd0a071f	-0.033698197
144	0xbce2e923	-0.027699059
145	0xbc89ca2f	-0.016820041
146	0xbd00a7e4	-0.031410113
147	0xbd23e167	-0.040009882
148	0xbdaafeae	-0.083493575
149	0xbd41d513	-0.047322344
150	0xbb14a77f	-0.0022682843
151	0xbd2b940f	-0.041889247
152	0xbc195591	-0.0093587795
153	0x3b884d9a	0.0041596415
154	0xbc8118c1	-0.015758874
155	0xbda85c96	-0.08220784
156	0xbd69a64d	-0.057043362
157	0xbd423d65	-0.04742183
158	0xbd39cf16	-0.04536351
159	0xbd4b93e2	-0.04970158
160	0x3c33848a	0.010956893
161	0xbc4eaef0	-0.012614951
162	0xbd14c0d2	-0.0363167
163	0xbd137fff	-0.03601074
164	0xbca830b3	-0.020531034
165	0xbc3a58bb	-0.011373694
166	0xbcbfbf07	-0.023406519
167	0xbd9e8f9b	-0.07742234
168	0xbcabaa5d	-0.020955259
169	0xbdc40550	-0.09571326
170	0xbb7d9da5	-0.00386987
171	0x3d35ea00	0.044412613
172	0xbb066ea5	-0.0020512727
173	0xbc1c706d	-0.009548289
174	0xbd3f1c8e	-0.04665809
175	0xbd49db2d	-0.049281288
176	0x3c95b998	0.018276975
177	0xbc86f8ae	-0.016476002
178	0xbb3bc55d	-0.0028651573
179	0xbca35f3c	-0.019942872
180	0x3d1c1b1a	0.038111784
181	0x3d38755c	0.045033798
182	0xbc602c6f	-0.013682469
183	0xbe0fc0af	-0.14038347
184	0xbcf2e49f	-0.02965003
185	0x3d205213	0.039140772
186	0xbd53d555	-0.05171712
187	0xbc27307e	-0.0102044325
188	0xbd88f7fc	-0.06687924
189	0x3c81b881	0.015835049
190	0xbdc4cd6e	-0.09609495
191	0xbd17a76f	-0.03702491
192	0xbd6ea200	-0.058259964
193	0x3d40d103	0.04707433
194	0x3c59d07b	0.0132943345
195	0xbc203711	-0.009778754
196	0xbd8a0c48	-0.06740624
197	0xbd222895	-0.039589483
198	0x3d20e06a	0.039276518
199	0x3d0bf0c3	0.034165155
200	0x3cf55292	0.0299466
201	0xbce6b8da	-0.028164316
202	0xbd70b516	-0.058766447
203	0xbd26d89d	-0.040733922
204	0xbdb44961	-0.088030584
205	0x3bfdb678	0.0077426992
206	0x3c0de59c	0.0086607
207	0xbd8a4656	-0.06751697
208	0xbd01ecea	-0.03172008
209	0xbcb9997c	-0.022656195
210	0xbcb24628	-0.021761969
211	0xbdb090d6	-0.08621375
212	0xbd3eb91c	-0.046563253
213	0xbc54d144	-0.012989346
214	0xbd07a6a0	-0.03311789
215	0x3c438ca4	0.011935387
216	0xbd644c46	-0.055736803
217	0xbd17c4ee	-0.03705304
218	0xbccee1cf	-0.025254158
219	0xbd9b0371	-0.07569016
220	0xbce19e7a	-0.027541388
221	0xbba6a6fd	-0.0050858245
222	0x3d47bdb4	0.0487649
223	0xbdb030de	-0.08603071
224	0x3cfb52d9	0.030679153
225	0xbdab18b0	-0.08354318
226	0xbd6caef6	-0.057784043
227	0xbd15c944	-0.036568895
228	0xbd009742	-0.03139425
229	0x3cdc1ee6	0.026870202
230	0xbd68b72d	-0.056815315
231	0xbd6cc0da	-0.057801105
232	0xbc5adbd4	-0.013358075
233	0xbdec7b3f	-0.11546945
234	0x3ca49271	0.02008936
235	0xbd34245e	-0.043979995
236	0x3cd11a36	0.025525194
237	0x3ce06da2	0.027396027
238	0xbd6ea2bc	-0.058260664
239	0xbda22ab7	-0.079183035
240	0xbd752ba3	-0.05985607
241	0xbd646d60	-0.05576837
242	0xbb2248ac	-0.0024762554
243	0x3b485582	0.0030568545
244	0xbc78f883	-0.015195969
245	0xbd80ecaa	-0.0629514
246	0xbccc1bd5	-0.024915615
247	0xbaca20b8	-0.0015421128
248	0xbc384490	-0.011246815
249	0x3cb109f5	0.021611193
250	0x3d041c88	0.032253772
251	0xbd9c7eec	-0.07641396
252	0xbd22051b	-0.03955565
253	0x3c448612	0.0119948555
254	0x3d596eb0	0.053084075
255	0xbd0adba7	-0.033900883

FC2.bias f4 [256]
0	0xbc63b7c3	-0.013898793
1	0x3c0c7f1b	0.008575226
2	0x3cc1f94a	0.02367844
3	0xbd0b215e	-0.03396737
4	0xbb7422e7	-0.0037252249
5	0xbc6e950e	-0.014561905
6	0xbbe3a329	-0.0069469404
7	0x3da9d201	0.08292008
8	0x3d726a41	0.059183363
9	0x3d610f71	0.054946367
10	0xbd1e2c12	-0.038616247
11	0xbbd2dd6d	-0.0064350874
12	0xbbbbd42f	-0.0057320814
13	0xbccbbcec	-0.024870358
14	0x3bed0dd5	0.007234315
15	0x3d91e8f2	0.07124509
16	0xbd3d2a45	-0.04618289
17	0xbbef4e57	-0.00730304
18	0x3cc432d7	0.023950024
19	0xbc7ddfee	-0.0154952835
20	0x3d075f06	0.033049606
21	0x3cbcf090	0.023063928
22	0x3c241f51	0.010017232
23	0xbdad308f	-0.084565274
24	0xbb3f0a28	-0.002915034
25	0x3c725d87	0.0147928065
26	0x3ce5ed30	0.028067201
27	0xbc336b3d	-0.010950861
28	0x3e0bf38e	0.13667127
29	0x3c579728	0.013158597
30	0x3d53c016	0.05169686
31	0xbd87a27f	-0.066227905
32	0x3d97785d	0.07396004
33	0x3d24d7bb	0.0402448
34	0x3d21ab2e	0.03946989
35	0x3d9abe96	0.07555883
36	0x3d10429a	0.035219766
37	0x3d1744a5	0.0369307
38	0x3cdf28a9	0.027241068
39	0x3c044329	0.008072653
40	0x3d24ed83	0.04026557
41	0x3d0ad0fe	0.033890717
42	0xbd8b6339	-0.068060346
43	0x3d55588e	0.052086405
44	0x3cd834d0	0.02639237
45	0x3d9832ac	0.0743154
46	0x3da5114e	0.08059941
47	0xbcff9971	-0.031201096
48	0xbc0f5198	-0.008747481
49	0xbd88ce50	-0.06679976
50	0xbc359b3d	-0.011084375
51	0x3c9d65f2	0.01921365
52	0x3c3a0e2d	0.011355919
53	0x3dc6faa1	0.097157724
54	0xbd94c020	-0.072632074
55	0xbd400220	-0.046877027
56	0xbd4b0741	-0.049567465
57	0x3cef7799	0.029231833
58	0xbd458913	-0.048226427
59	0x3df38ce7	0.11892109
60	0xbcf83ce6	-0.030302476
61	0x3cf31fd2	0.029678259
62	0xbd797f37	-0.060912337
63	0xbc7de7a6	-0.015497124
64	0xbc5b6a51	-0.013392047
65	0x3c3a6e5b	0.01137885
66	0xbd856c5d	-0.06514809
67	0x3d0c07c6	0.0341871
68	0x3d48780f	0.04894262
69	0x3dad8496	0.084725544
70	0x3bf36039	0.007427242
71	0xbcf0ffb1	-0.029418798
72	0xbc7a4034	-0.015274096
73	0x3c67ed74	0.014155734
74	0xbc0a53d0	-0.008442834
75	0x3cd8d53c	0.026468866
76	0x3c34135d	0.010990945
77	0xbb0169a5	-0.0019746807
78	0x3cbcd99a	0.02305298
79	0xbc80c143	-0.015717154
80	0x3c6bea92	0.014399188
81	0x3c7808af	0.015138789
82	0x3d61c0e8	0.05511561
83	0x3bd4a19d	0.0064889924
84	0x3d33e283	0.04391719
85	0xbd761789	-0.06008104
86	0xbc73ca50	-0.014879778
87	0xbd81b48b	-0.06333264
88	0xbd5d1323	-0.05397333
89	0x3cc5bce9	0.024137931
90	0xbc429989	-0.011877426
91	0x3cb55d37	0.022139175
92	0x3c47f82a	0.012205163
93	0x3d87a7c6	0.06623797
94	0xbbc43b62	-0.0059885243
95	0xbc37ba28	-0.011213817
96	0x3da28104	0.07934764
97	0xbd659a82	-0.056055553
98	0xbd5f1813	-0.05446632
99	0x3d584f5b	0.052810054
100	0xbd85d4c9	-0.06534726
101	0xbd844108	-0.06457716
102	0x3d1322f8	0.03592202
103	0x3b95f54c	0.004576361
104	0xbc8a38b9	-0.01687275
105	0x3da60337	0.08106082
106	0x3d1690ed	0.036759306
107	0x3d829e5d	0.06377862
108	0xbd820063	-0.0634773
109	0xbd9cf88b	-0.07664593
110	0x3d81291b	0.06306668
111	0xbd292838	-0.04129812
112	0x3cc484e1	0.023989143
113	0xbcf97c75	-0.030454854
114	0xbcc46fa5	-0.023979018
115	0x3d2ff3bc	0.042957053
116	0x3d141abf	0.03615832
117	0x3cb7dcbf	0.022444127
118	0xbced0214	-0.028931655
119	0x3d89397b	0.06700417
120	0x3d62aa24	0.05533804
121	0xbcac99f7	-0.02106951
122	0x3d88df11	0.066831715
123	0x3b9a3ccc	0.0047069546
124	0x3b7e3c4f	0.003879327
125	0x3c34a7a0	0.011026293
126	0xbd1de997	-0.038552847
127	0x3cb27577	0.021784527
128	0xbd6087e4	-0.054817095
129	0xbcc79124	-0.0243612
130	0xbd7bc698	-0.06146869
131	0x3d5a6b47	0.053324964
132	0x3ba4f834	0.005034471
133	0x3cdb1c96	0.02674703
134	0xbcef0792	-0.029178414
135	0xbc10d332	-0.008839415
136	0x3c8c1386	0.017099153
137	0xbc7701ea	-0.01507614
138	0xbd6dee7c	-0.058088765
139	0x3d48e258	0.049043983
140	0x3d2065ed	0.039159704
141	0x3e18b715	0.1491359
142	0x3cf377a6	0.029720139
143	0x3ce61bb6	0.028089385
144	0xbdadef35	-0.08492891
145	0xbd29d7cd	-0.04146557
146	0x3ca34800	0.019931793
147	0xbd3570a7	-0.044296887
148	0x3c96e041	0.01841748
149	0x3d11ea5c	0.035623893
150	0xbd4e2c2b	-0.05033509
151	0x3be85b61	0.0070909713
152	0x3d50e042	0.05099512
153	0xbd2c8c90	-0.04212624
154	0x3d5a2821	0.053260926
155	0xbba95a5d	-0.005168243
156	0x3d889e4f	0.0667082
157	0x3d5a7244	0.05333163
158	0xbd56e37f	-0.05246305
159	0xbcae53f2	-0.021280263
160	0x3c5fc6f5	0.013658275
161	0x3dd33077	0.10311978
162	0xbd4fc9ec	-0.050729677
163	0x3dafc171	0.08581818
164	0x3c8dda86	0.017316114
165	0x3cefc8c9	0.029270547
166	0x3d12b69e	0.03581869
167	0x3d2bbf57	0.041930523
168	0x3d21d567	0.039510157
169	0xbd122517	-0.035679903
170	0x3cfe768a	0.031062383
171	0xbce74f9d	-0.028236205
172	0xbc9da035	-0.019241432
173	0x3a713e17	0.00092026725
174	0x3cc60167	0.02417059
175	0xbab74dcb	-0.0013984976
176	0x3c9c9ef4	0.019118764
177	0x3b0f6436	0.0021879799
178	0x3cac5ff1	0.021041842
179	0x3dc64dec	0.09682831
180	0x3c963c0c	0.01833918
181	0xbd8f98a4	-0.07011536
182	0x3d28b48d	0.04118781
183	0x3d6a2c25	0.057171006
184	0x3d51e8ff	0.051247593
185	0x3db1b251	0.08676589
186	0x3bc3bebe	0.005973666
187	0x3c6e4008	0.014541633
188	0x3d8ab483	0.06772711
189	0x3d8f0015	0.069824375
190	0x3cbe891f	0.023258744
191	0xbd82e2ef	-0.063909404
192	0x3d2ebd94	0.042661265
193	0xbc999f9a	-0.018752862
194	0x3d986fba	0.07443185
195	0x3d1cce84	0.038282886
196	0xba8174d9	-0.0009876742
197	0x3c6838ba	0.014173681
198	0x3c8ce31a	0.017198134
199	0xbd181992	-0.03713376
200	0x3ca1d00b	0.019752523
201	0x3d80539f	0.062659495
202	0xbc8bdd23	-0.01707322
203	0xbd68cd15	-0.056836206
204	0xbd7441f6	-0.059633218
205	0xbda10717	-0.078626804
206	0xbbe95def	-0.0071217935
207	0xbd813f93	-0.06310954
208	0x3cf3483d	0.029697532
209	0xbb0451a7	-0.002019027
210	0xbd0cedb1	-0.034406368
211	0xbd4ca658	-0.049963325
212	0xbcc70b0f	-0.024297265
213	0xbce8b1a1	-0.028405013
214	0x3c9e26da	0.019305635
215	0x3c9d353a	0.01919042
216	0x3dd58de9	0.10427458
217	0x3d8a13bb	0.067420445
218	0x3c53fa4b	0.012938092
219	0x3aa0938a	0.0012251001
220	0x3c47796b	0.012174944
221	0x3d2b9f7e	0.04190015
222	0x3d79fa0f	0.06102949
223	0xbc216c74	-0.009852517
224	0xbd868582	-0.06568433
225	0x3dbd3167	0.092379384
226	0x3d126f8b	0.035750907
227	0xbbdde96e	-0.0067722118
228	0xbd7182f4	-0.058962777
229	0x3c13e635	0.009027054
230	0x3d0557bb	0.03255437
231	0xbbffcfbf	-0.0078067477
232	0xbd6e235d	-0.058139194
233	0x3d62a0af	0.05532902
234	0xbcb7275d	-0.022357637
235	0x3d21bdbc	0.039487585
236	0x3d861991	0.06547845
237	0xbd45b5a2	-0.04826892
238	0x3cdbad2f	0.026815979
239	0x3c32cf18	0.010913633
240	0xbcc2da58	-0.023785755
241	0xbc588116	-0.01321437
242	0x3d222845	0.039589185
243	0xbbe54d61	-0.0069977497
244	0x3d4146be	0.047186606
245	0xbce9ad71	-0.028525086
246	0x3c2ff7b7	0.010740212
247	0xbcfd0bf1	-0.030889483
248	0xbca5dd15	-0.020247022
249	0x3ceb58ca	0.028728861
250	0x3d5eeccc	0.054425046
251	0xbd1cdad5	-0.038294632
252	0xbbf71b78	-0.0075411163
253	0x3dd9d6f6	0.10636704
254	0xbd6b650c	-0.057469413
255	0xbd304d20	-0.043042302

action_out.weight f4 [5, 256]
0	0x3d16f77e	0.03685712
1	0xbcebf06a	-0.028801162
2	0xbb277522	-0.0025551994
3	0xbb57d705	-0.0032934558
4	0x3be6ac8b	0.0070396117
5	0x3c108079	0.008819693
6	0xbbc678d5	-0.006056885
7	0xbcb5267d	-0.02211308
8	0x3d398f6d	0.045302797
9	0xbd286d70	-0.041119993
10	0xbd6f19ba	-0.058374144
11	0xbcdde5ff	-0.02708721
12	0xbd5f40c6	-0.054505132
13	0x3d656c1c	0.056011304
14	0x3d3aca0e	0.04560285
15	0xbc00c6c8	-0.007859893
16	0xbca3de3b	-0.020003429
17	0xbd510c6c	-0.051037237
18	0x3d1c5dec	0.03817551
19	0x3d3acc35	0.045604903
20	0xbd3f437f	-0.04669523
21	0xbdc1d1e5	-0.09463862
22	0x3d44ccf1	0.04804701
23	0xbdce12b9	-0.10062165
24	0x3d312c8d	0.043255378
25	0xbd34ded7	-0.04415783
26	0x3d02ec8e	0.031963877
27	0xbc73bfce	-0.014877273
28	0xbe088caa	-0.13334909
29	0x3d2eb6a4	0.04265465
30	0xbca7f990	-0.020504743
31	0xbcdcbc86	-0.026945364
32	0x3c7e97d0	0.015539125
33	0x3cc6511a	0.024208594
34	0x3aa7bd26	0.001279746
35	0xbc72a477	-0.014809719
36	0x3c9024b8	0.017595634
37	0xbcd05aad	-0.025433863
38	0x3c0c5b84	0.008566741
39	0xbdf5232e	-0.119696006
40	0xbd6a184a	-0.05715207
41	0x3d3fbc6a	0.046810545
42	0xbc9b4267	-0.018952562
43	0x3d445cd8	0.047940105
44	0xbbc93e7f	-0.0061414833
45	0x3d08c711	0.03339297
46	0xbd25571b	-0.040366273
47	0xbc8b8887	-0.017032875
48	0x3a8112cb	0.000984752
49	0xbd353a38	-0.044244975
50	0xbd41cb08	-0.047312766
51	0x3cb2a040	0.021804929
52	0xbd23bd68	-0.039975554
53	0xbd9de999	-0.07710571
54	0xbda49e8d	-0.08038054
55	0xbd4caace	-0.04996758
56	0x3d28b6c2	0.041189916
57	0xbccbe947	-0.024891509
58	0x3d5e52a9	0.05427805
59	0xbcd5fe96	-0.026122373
60	0x3d455be4	0.048183337
61	0xbca83da9	-0.020537214
62	0xbbac1c9a	-0.005252433
63	0x3c7428d3	0.014902311
64	0x3cf7a2d3	0.030229008
65	0xbd1ecb83	-0.038768303
66	0xbb405e00	-0.0029352903
67	0x3cb0aba8	0.021566227
68	0x3c03ae45	0.008037155
69	0x3d15f7f4	0.03661342
70	0x3c8d8823	0.01727683
71	0xbd3e5b64	-0.046473876
72	0xbc8aec22	-0.0169583
73	0x3d0e380f	0.03472143
74	0x3d3b621e	0.04574787
75	0x3cc0244c	0.023454808
76	0x3d6a5122	0.05720628
77	0xbc950408	-0.018190399
78	0x3c7b9a40	0.0153566
79	0xbc4994cc	-0.012303542
80	0xbda2e3df	-0.07953619
81	0x3cb2955a	0.021799732
82	0xbe040c5d	-0.12895341
83	0xbd077078	-0.033066243
84	0x3d0868cb	0.033303063
85	0x3d640eeb	0.05567829
86	0x3d2e46f0	0.04254812
87	0x3d63813a	0.055543162
88	0x3c3e2d5a	0.011607492
89	0x3cc7aa89	0.02437331
90	0x3ceff65c	0.029292278
91	0xbc842be6	-0.016134214
92	0x3d639d0f	0.055569705
93	0x3d09522d	0.033525635
94	0x3b3d5fe5	0.002889627
95	0x3cb7cf14	0.02243761
96	0xbda45112	-0.080232754
97	0x3cb6d1cf	0.022316841
98	0xbc1b099f	-0.009462743
99	0xbde3b95f	-0.11119341
100	0xbd8a0d93	-0.0674087
101	0xbd0e4d17	-0.034741487
102	0xbdb36bbe	-0.087607846
103	0xbd3c4491	-0.045963828
104	0x3d44b358	0.048022598
105	0xbdc93213	-0.09824004
106	0xbd04b769	-0.032401476
107	0x3d13ce36	0.03608533
108	0xbd25903c	-0.040420756
109	0xbd224b23	-0.039622437
110	0xbdcfb111	-0.101411946
111	0x3b47c9a2	0.0030485173
112	0x3c8532c4	0.016259558
113	0x3d54d6b5	0.051962573
114	0xbb63974d	-0.0034727633
115	0xba942375	-0.0011302071
116	0xbd2b4c69	-0.041820917
117	0x3cd2a865	0.025715062
118	0xbd243d53	-0.040097546
119	0x3c894040	0.01675427
120	0x3cf3a409	0.029741304
121	0xbb16ba79	-0.002299933
122	0xbdca1464	-0.098671705
123	0xbcfb6ce1	-0.030691566
124	0x3d2f9a14	0.04287155
125	0xbcf21d9f	-0.02955514
126	0x3d1ea70d	0.03873353
127	0x3b48db9a	0.003064847
128	0x3d66cc6b	0.056347292
129	0xbdf12a4f	-0.11775648
130	0x3c7b5aa0	0.015341431
131	0xbd39a098	-0.04531917
132	0xbc2372bf	-0.009976088
133	0xbb1db5bc	-0.002406462
134	0xbc9584c3	-0.018251782
135	0xbca54a61	-0.020177068
136	0x3d38ced3	0.045119118
137	0xbc0e8f16	-0.0087011065
138	0xbb649ff4	-0.0034885379
139	0xbe285ea9	-0.1644236
140	0x3d065063	0.032791506
141	0xbe2e125e	-0.16999194
142	0xbd235cca	-0.039883412
143	0x3cf7f8a2	0.030269925
144	0xbd03c144	-0.032166734
145	0x3d58218e	0.052766375
146	0xba60b498	-0.00085718324
147	0x3bf647b4	0.007515872
148	0xbc4bfcb2	-0.012450384
149	0xbcf0c78d	-0.029392028
150	0x3d5ecd1a	0.05439482
151	0xba819042	-0.0009884911
152	0x3d67d622	0.056600697
153	0x3d793808	0.06084445
154	0x3d2385a9	0.03992239
155	0x3c5e31a5	0.013561641
156	0xbdb7042b	-0.08936342
157	0x3b8ca10f	0.0042916606
158	0x3cf9167d	0.030406231
159	0xbc6f4c02	-0.014605524
160	0x3cbe8192	0.023255143
161	0x3ade36e9	0.001695362
162	0xbbcaa044	-0.006183656
163	0xbd832f0a	-0.06405456
164	0x3cade454	0.02122704
165	0xbd0a8e81	-0.03382731
166	0x3a20920b	0.0006125278
167	0xbd24769f	-0.04015219
168	0x3d354f14	0.044264868
169	0x3c87c38a	0.016572732
170	0x3d6d6bbb	0.057964068
171	0x3d043259	0.032274578
172	0x3cce8409	0.025209444
173	0xbd3c6824	-0.045997754
174	0x3cf3d1ed	0.029763186
175	0xbdb86f7c	-0.09005639
176	0xbc940749	-0.01806988
177	0x3c3de5ce	0.011590434
178	0x3cf389bd	0.029728765
179	0x3c06cbf9	0.008227342
180	0x3cf688c4	0.030094512
181	0x3c68fd17	0.014220498
182	0x3ca2d380	0.019876242
183	0xbaa14a7b	-0.0012305522
184	0xbdb0a0b2	-0.086244
185	0xbd4ebf11	-0.050475184
186	0xbcdbc8c8	-0.026829138
187	0x3c3c6e96	0.011500975
188	0x3d8f473d	0.069960095
189	0x3b76f4b0	0.0037682466
190	0x3c212c17	0.009837172
191	0xbddbf49d	-0.10740016
192	0x3cd29c47	0.025709284
193	0x3c3c17c4	0.011480276
194	0xbdfa7234	-0.12228814
195	0xbd82e773	-0.06391802
196	0x3d385a4b	0.045007985
197	0xbc4e4271	-0.012589083
198	0xbd6e5318	-0.058184713
199	0xbc69fff7	-0.014282218
200	0xbcccaa98	-0.02498369
201	0x3d37b7dc	0.044853076
202	0x3d6fd06c	0.058548376
203	0x3bcea951	0.006306805
204	0x3c5c9448	0.013463087
205	0xbdcb0457	-0.09912937
206	0xbdd8c2ac	-0.10584006
207	0x3ca38118	0.019959018
208	0xbcca236e	-0.024675097
209	0xbd9bf228	-0.07614547
210	0x3d2fe295	0.042940695
211	0xbceec31c	-0.02914577
212	0x3c8edffd	0.01744079
213	0x3d3cfec7	0.046141412
214	0xbd5a446d	-0.053287912
215	0x3c91f69a	0.017817784
216	0xbd0a70ca	-0.03379897
217	0xbd861535	-0.06547014
218	0x3b1df0f4	0.0024099918
219	0x3cec6ea5	0.028861353
220	0xbd5738b4	-0.05254431
221	0xbd544ff3	-0.051834058
222	0x3c34f640	0.011045039
223	0xbcf3127a	-0.029671896
224	0xbcf33e1a	-0.029692698
225	0xbcd0ece1	-0.025503578
226	0x3cd8fc52	0.026487503
227	0xbdc013b6	-0.093787596
228	0xbcafe593	-0.021471774
229	0x3c41b2da	0.011822427
230	0x3c6d125c	0.014469709
231	0xbda5d060	-0.08096385
232	0xbbfcf10c	-0.0077191647
233	0x3c9cbda4	0.019133396
234	0x3d03ef69	0.03221074
235	0x3d396aed	0.045267988
236	0x3d2e0343	0.04248358
237	0xbd023746	-0.031790994
238	0xbd40bbb9	-0.047054026
239	0xbd7d2c26	-0.06180968
240	0xbd6f4aa4	-0.058420792
241	0xbd561b6e	-0.052272253
242	0xbd9900d6	-0.074708626
243	0x3ca56648	0.020190373
244	0xbcf64d89	-0.030066269
245	0x3ca24445	0.019807944
246	0x3b94f209	0.0045454544
247	0x3c99a924	0.01875741
248	0xbc6a2d86	-0.01429308
249	0xbc6452a7	-0.0139357215
250	0xbb1a5f5a	-0.002355537
251	0x3d2ae456	0.041721664
252	0x3c5fcc70	0.013659582
253	0x3ca70f5d	0.020393068
254	0x3bbb4a40	0.0057156384
255	0x3c59772e	0.013273044

action_out.bias f4 [5]
0	0xbcb32d4b	-0.021872183
1	0xbb1ab153	-0.0023604229
2	0xbdeafbf6	-0.11473839
3	0x3d2afb60	0.041743636
4	0x3cdfbdbe	0.027312156

weight f4 [256, 123]
0	0xbc93defc	-0.018050663
1	0xbd7717fb	-0.060325604
2	0xbce56775	-0.028003434
3	0x3d5a5106	0.053299926
4	0xbd1cf52a	-0.038319744
5	0x3c78f304	0.015194658
6	0xbd44ec73	-0.048077058
7	0xbde54575	-0.111948885
8	0xbceb9d6d	-0.02876159
9	0xbd92ad4d	-0.07161961
10	0x3d97d017	0.07412737
11	0xbdaa7cea	-0.08324607
12	0x3ccdbc27	0.025114132
13	0x3d66a9be	0.056314223
14	0x3d8f9a74	0.070118815
15	0x3d6fe94b	0.058572095
16	0xbc857334	-0.016290285
17	0xbdb6aeec	-0.089200824
18	0xbd609e9b	-0.054838758
19	0xbd9c61e4	-0.07635859
20	0xbd21521a	-0.03938494
21	0xbc9c2287	-0.019059433
22	0xbd327c56	-0.043575607
23	0xbd3f6387	-0.046725776
24	0xbd356d87	-0.044293907
25	0x3cb3e07a	0.021957625
26	0xbd926fc5	-0.071502246
27	0xbd997b5f	-0.07494234
28	0xbddef4e5	-0.10886554
29	0x3cbc371d	0.022975499
30	0xbcf66fd6	-0.030082624
31	0x3dce239d	0.100653864
32	0xb995ad65	-0.00028548684
33	0xbd8779b7	-0.06615012
34	0xbd3c78f3	-0.046013784
35	0xbd9027b3	-0.07038822
36	0xbdbff044	-0.09371999
37	0xbd8027a5	-0.062575616
38	0x3c04ef0b	0.008113633
39	0x3caf3af8	0.021390423
40	0xbd22da9a	-0.039759256
41	0xbd5509c6	-0.052011274
42	0xbcf8cf00	-0.030372143
43	0x3be5fa46	0.0070183603
44	0x3ca82c6e	0.020528998
45	0x3dba0474	0.090828806
46	0x3deacf04	0.11465266
47	0xbd1bdb4b	-0.03805093
48	0xbd8d6e4e	-0.069058046
49	0xbbba2017	-0.005680095
50	0x3dbb61e8	0.091495335
51	0xbbf70797	-0.0075387466
52	0xbd9bc92b	-0.07606729
53	0xbc8172e8	-0.015801862
54	0x3db3c6db	0.08778163
55	0xbd47a951	-0.048745457
56	0x3b66c3a6	0.003521183
57	0xbd15a195	-0.03653105
58	0x3bd9187a	0.0066252323
59	0xba621bd4	-0.00086253625
60	0xbd402e28	-0.046919018
61	0xbdb505c8	-0.08838993
62	0x3ca8b7b8	0.020595416
63	0x3bce9b66	0.006305146
64	0xbda76bd2	-0.08174862
65	0x3bf30570	0.0074164197
66	0xbc264e55	-0.010150512
67	0xbd1c75cc	-0.038198277
68	0xbd6609c5	-0.05616166
69	0x3ccbafc0	0.024864078
70	0xbd5ca737	-0.053870406
71	0xbcb4f25c	-0.022088222
72	0x3d378462	0.044803984
73	0x3bfa9f2d	0.0076483698
74	0xbd1049fc	-0.035226807
75	0xbd89b9c7	-0.06724887
76	0x3d0504b6	0.032475196
77	0x3be996b3	0.0071285604
78	0x3da9e5ab	0.08295759
79	0x3d80ec20	0.06295037
80	0xbc32260e	-0.010873331
81	0x3d910851	0.07081664
82	0xbd7ebdd5	-0.062192757
83	0x3d9c12e2	0.07620789
84	0xbd1d1591	-0.038350645
85	0x3d48bcfe	0.049008362
86	0xbc557430	-0.01302819
87	0x3d7b8b62	0.061412223
88	0xbd3fc2f3	-0.046816777
89	0xbd33612a	-0.043793835
90	0xbdd66334	-0.1046814
91	0xbd2174c5	-0.039418
92	0x3d21f3ca	0.039539136
93	0x3b8ec463	0.004356907
94	0x3b758478	0.003746299
95	0x3d4c1df6	0.04983326
96	0x3d6f3ac3	0.05840565
97	0x3d6bddc2	0.05758453
98	0xbd4cc55c	-0.049992904
99	0xbcc8d8b9	-0.024517404
100	0x3d94e556	0.07270305
101	0xbd5e5ce7	-0.054287817
102	0x3cb1d272	0.021706793
103	0x3cd8c7fb	0.026462546
104	0xbd486643	-0.04892565
105	0x3be6d9c0	0.007045001
106	0x3d776bfe	0.060405724
107	0xbd83bd2f	-0.06432568
108	0xbc2759cc	-0.01021428
109	0xbd97bc35	-0.074089445
110	0x3cd62689	0.026141422
111	0xbd85dfb2	-0.06536807
112	0x3d422899	0.047402
113	0xbba32fc4	-0.0049800593
114	0x3d5f1169	0.054459963
115	0x3d421b38	0.04738924
116	0xbc8ace08	-0.016943946
117	0xbdada412	-0.084785596
118	0xbb84dcc3	-0.004054637
119	0x3d779432	0.060444064
120	0xbd96de28	-0.07366592
121	0x3cadbdc6	0.021208655
122	0xbc581da3	-0.01319066
123	0xbdaa3bb9	-0.083121724
124	0xbd5234af	-0.051319774
125	0xbd654b3f	-0.055979963
126	0x3ca9ef83	0.02074409
127	0x3c3a78d0	0.011381343
128	0x3d6ec096	0.058289133
129	0x3b5d3c39	0.003375782
130	0xbcb95b14	-0.022626437
131	0x3d189824	0.037254468
132	0xbda100dc	-0.07861492
133	0x3da21d6b	0.07915767
134	0x3d9da7b7	0.07698005
135	0x3d9c3787	0.076277785
136	0x3d3839a9	0.044976864
137	0x3c41f1f3	0.01183747
138	0xbd4df97f	-0.050286766
139	0xbd0b0c3e	-0.033947222
140	0xbd69caf3	-0.057078313
141	0xbdd76db0	-0.10518968
142	0xbd727afc	-0.05919932
143	0xbdf73c14	-0.12072006
144	0x3b41a850	0.0029549785
145	0x3d964711	0.073377736
146	0xbdbdc4de	-0.09266065
147	0x3d9bb71a	0.07603283
148	0x3c1d3b5e	0.009596674
149	0x3d764a29	0.06012932
150	0xbd5cc93f	-0.05390286
151	0xbd8f4172	-0.069949046
152	0x3d9116c1	0.07084418
153	0xbd3e3384	-0.046435848
154	0xbd7deddb	-0.061994415
155	0xbd95077d	-0.07276819
156	0x3cd0e100	0.025497913
157	0x3d9d25c7	0.07673221
158	0x3cdcd810	0.026958495
159	0xbd96c8c0	-0.07362509
160	0xbd8bb3db	-0.06821414
161	0xbbd4d89a	-0.0064955475
162	0x3cc890b5	0.024483064
163	0x3d8e1cd9	0.06939096
164	0xbd5b593f	-0.05355191
165	0x3e06cb9d	0.1316361
166	0xbd7b69c5	-0.061380167
167	0x3d47e2ad	0.04880016
168	0x3c9ba619	0.0190001
169	0x3d1b4a93	0.037912916
170	0x3d84e468	0.064888775
171	0xbbeba47c	-0.007191239
172	0x3dc39b10	0.0955106
173	0xbce9d2df	-0.028542934
174	0xbda7646b	-0.0817345
175	0x3d35fa47	0.044428136
176	0xbc9f1950	-0.01942125
177	0x3d4ac912	0.04950816
178	0xbd49782c	-0.04918687
179	0xbde9f7ec	-0.114242405
180	0x3daa57e9	0.08317549
181	0x3cf28a3f	0.029606936
182	0xbd82fe3a	-0.06396146
183	0xbd8eeb73	-0.06978502
184	0x3bd1c0e7	0.0064011696
185	0x3d8aea8c	0.067830175
186	0x3d9cd2ad	0.07657371
187	0xbca03bc4	-0.019559748
188	0x3dd1a6af	0.102368705
189	0x3c92fc74	0.017942645
190	0x3bc1a4b1	0.0059095253
191	0xbcc54564	-0.02408094
192	0xbd06318f	-0.032762107
193	0x3c50a030	0.012733504
194	0xbc952e08	-0.018210426
195	0xbdc79997	-0.09746092
196	0x3d81a421	0.06330133
197	0xbddad972	-0.10686006
198	0x3d2d058d	0.04224162
199	0xbd041761	-0.03224886
200	0x3dc21b5f	0.09477877
201	0x3d3605ec	0.04443924
202	0xbd40b069	-0.047043238
203	0xbd9f991c	-0.07792875
204	0xbcf4e94c	-0.0298964
205	0xbdb8c463	-0.09021833
206	0xbd4e0150	-0.05029422
207	0xbcd2e806	-0.025745403
208	0x3d5cd0fd	0.053910244
209	0x3d107639	0.035268996
210	0xbba072b5	-0.0048964866
211	0xbdc0af8d	-0.09408484
212	0x3cf38bec	0.029729806
213	0xbe02884d	-0.12747307
214	0xbd2b973c	-0.041892275
215	0xbdf1ab70	-0.11800277
216	0x3ce8fc93	0.02844075
217	0x3cba6882	0.022754911
218	0xbdbf3c01	-0.09337617
219	0xbe0f9fa1	-0.14025737
220	0x3da8b00f	0.082367055
221	0xbbeee070	-0.0072899386
222	0x3d43469f	0.04767477
223	0xbd015696	-0.031576715
224	0x3d054d1f	0.03254425
225	0xbda452a6	-0.080235764
226	0x3d088c14	0.033336714
227	0xbd496c0d	-0.04917531
228	0x3cbf14f8	0.023325428
229	0x3c8a3ea4	0.016875573
230	0x3d9e92ab	0.077428184
231	0xbdacbcb9	-0.084344335
232	0x3c64edb2	0.013972687
233	0x3c3b954a	0.0114491675
234	0xbce6e3cf	-0.0281848
235	0xbd63e252	-0.055635758
236	0x3cbcccdc	0.023046903
237	0x3da4144b	0.08011683
238	0xbd8a2f78	-0.06747335
239	0x3dc391c2	0.095492855
240	0xbc939598	-0.018015668
241	0xbcbdcca2	-0.023168866
242	0xbd1adb9b	-0.03780709
243	0xbd45a516	-0.04825314
244	0xbc4a2081	-0.012336851
245	0xbc44467a	-0.011979694
246	0xbd9bbed2	-0.076047555
247	0xbd69cd97	-0.05708083
248	0x3d018417	0.03162011
249	0x3d0a56ca	0.033774175
250	0x3cf19d19	0.029493855
251	0xbc936b7e	-0.017995592
252	0xbdc0b1da	-0.094089225
253	0xbd8d2525	-0.068918504
254	0xbd4193e0	-0.047260165
255	0xbd5f5d57	-0.054532375

bias f4 [256]
0	0x3da14006	0.078735396
1	0x3d794100	0.060853004
2	0xbd9c5be9	-0.07634718
3	0x3d6fde70	0.058561742
4	0x3d8fc68e	0.07020293
5	0x3d668091	0.056274954
6	0x3d3190cc	0.04335098
7	0x3cb7c6c1	0.02243364
8	0x3d871ec6	0.065976664
9	0x3b82b586	0.0039889244
10	0x3d9c4c0f	0.076316945
11	0xbbba2ac3	-0.005681367
12	0x3d118a57	0.03553232
13	0x3d3787cf	0.04480725
14	0xbd188318	-0.037234396
15	0xbd8aaa18	-0.06770724
16	0x3cea31d1	0.028588207
17	0x3da61ef7	0.08111375
18	0xbd3a0a57	-0.045420017
19	0xbdad6852	-0.08467163
20	0xba9a55c6	-0.001177483
21	0xbd79e2ce	-0.061007313
22	0xbd9b24a4	-0.07575348
23	0xbd4db653	-0.050222706
24	0xbd033ee8	-0.032042414
25	0x3d73eb20	0.059550405
26	0x3cd089b1	0.025456281
27	0xbaccef8f	-0.0015635359
28	0xbda3bf17	-0.07995432
29	0x3da6395d	0.0811641
30	0xbd347cbd	-0.044064272
31	0x3d1e808a	0.038696803
32	0x3d186e5f	0.037214633
33	0x3d6f81c4	0.058473364
34	0x3d7d482a	0.0618364
35	0xbd938e2f	-0.07204854
36	0x3ca02e87	0.019553436
37	0xbd3d3a53	-0.0461982
38	0xbdc1b4ef	-0.094583385
39	0xbd7b9917	-0.061425295
40	0x3c73e8dc	0.014887061
41	0xbd04549f	-0.032307263
42	0x3d84498a	0.06459339
43	0xbd4f4b20	-0.050608754
44	0xbd661b2c	-0.056178257
45	0xbbf1287d	-0.007359563
46	0xbc939e9b	-0.018019965
47	0xbd3e6154	-0.046479538
48	0x3cb9c7f4	0.022678353
49	0x3ba7ef49	0.0051249606
50	0xbda56c25	-0.080772676
51	0xbd1aea23	-0.037820946
52	0xbd9fdaec	-0.07805428
53	0x3b8d46e0	0.0043114275
54	0xbcb49441	-0.02204335
55	0x3d641a43	0.055689108
56	0xbd2acdc6	-0.041700147
57	0x3d5a01d2	0.053224392
58	0x3d8c3ac0	0.06847143
59	0x3d23c0f4	0.039978936
60	0x3c6f4f9f	0.0146063855
61	0x3ce64a27	0.02811153
62	0x3d0d1ce3	0.034451377
63	0xbdb8b206	-0.0901833
64	0x3a82d752	0.0009982383
65	0x3ca00fa5	0.01953871
66	0xbd2e524c	-0.042558953
67	0x3d337095	0.04380854
68	0x3d1da475	0.038486917
69	0x3d6b7bac	0.05749099
70	0x3ccc2d15	0.02492384
71	0xbdb52d45	-0.08846525
72	0xbd8f3fce	-0.06994592
73	0xbdbef737	-0.09324496
74	0x3d221394	0.039569452
75	0x3c95d02f	0.018287746
76	0x3ce321a3	0.027726
77	0xbd903993	-0.070422314
78	0x3d299d3a	0.04140971
79	0xb9e66505	-0.00043944284
80	0x3d1deb6b	0.03855459
81	0x3d823655	0.06358019
82	0xbd261144	-0.04054381
83	0xbd11b85e	-0.035576217
84	0xbbead241	-0.0071661775
85	0x3cd88b1d	0.026433522
86	0x3d67c50b	0.0565844
87	0xbdb58910	-0.08864033
88	0xbc4a5fa2	-0.012351902
89	0x3d098554	0.033574417
90	0xbc288dcf	-0.010287716
91	0x3d56d039	0.05244467
92	0x3d309a8d	0.04311614
93	0xbdb2d6b1	-0.087323554
94	0xbd509127	-0.050919678
95	0xbd69f231	-0.057115737
96	0x3d832025	0.064026155
97	0xbd8aedf4	-0.06783667
98	0xbda9d8c1	-0.08293296
99	0x3d7c5104	0.0616007
100	0xbd93054d	-0.071787454
101	0x3d376df8	0.04478261
102	0x3d22f082	0.039780147
103	0xbd017db9	-0.03161404
104	0x3c9add71	0.01890442
105	0x3d03ed85	0.03220894
106	0xbda0172a	-0.07816918
107	0xbc4d04f1	-0.012513385
108	0x3c9750d4	0.018471159
109	0xbd0c86ea	-0.03430835
110	0xbd9a98cd	-0.07548676
111	0xbd56a66a	-0.0524048
112	0xbbe9353f	-0.007116943
113	0x3cc6b3f0	0.024255723
114	0x3d18f431	0.037342254
115	0x3d6a1ab8	0.057154387
116	0x3d4cda17	0.050012674
117	0x3db14570	0.08655822
118	0xbd9ecb76	-0.07753651
119	0x3ce421a0	0.027848065
120	0xbd7c8cdc	-0.06165777
121	0x3cb4330a	0.021996994
122	0x3c0e1f9b	0.0086745275
123	0x3cb2002a	0.021728594
124	0xbd801332	-0.06253661
125	0x3d8b7a5b	0.06810447
126	0x3c6a31c9	0.014294096
127	0xbdb0647c	-0.08612916
128	0x3cfa1183	0.030525928
129	0xbd8bd6b4	-0.06828061
130	0xbc84d155	-0.016213099
131	0xbdac8b8b	-0.08425053
132	0xbc03878f	-0.008027925
133	0x3d95b570	0.07309997
134	0xbd98c8d8	-0.07460183
135	0xbda400ad	-0.080079414
136	0x3db1a829	0.08674652
137	0xbd9a8a20	-0.075458765
138	0xbcc0a2ed	-0.023515189
139	0x3db3932e	0.08768307
140	0x3c0b0de7	0.008487201
141	0x3d97591f	0.073900454
142	0xbd6a3948	-0.057183534
143	0xb8c8a00c	-9.566554e-05
144	0x3d866633	0.06562462
145	0x3d00c171	0.03143448
146	0x3b4ab7e8	0.003093237
147	0x3d318dbe	0.043348067
148	0x3d990099	0.07470817
149	0xbbf37244	-0.007429393
150	0xbcee4701	-0.029086592
151	0x3d29087a	0.04126785
152	0x3cf15c19	0.02946286
153	0xbbb9d8ff	-0.00567162
154	0xbb3471a6	-0.002753356
155	0x3cb04306	0.021516334
156	0x3ce23cf9	0.027616965
157	0x3c96efba	0.018424857
158	0x3c85dee5	0.016341636
159	0xbd82bd50	-0.06383765
160	0x3c86c0f3	0.016449427
161	0xbd261e93	-0.0405565
162	0xbd90da63	-0.07072904
163	0x3d2f94bf	0.042866465
164	0x3d88583f	0.066574566
165	0xbc00e96b	-0.007868151
166	0x3d95ac8f	0.073083036
167	0xbda124d7	-0.07868355
168	0x3da903e2	0.08252694
169	0xbce69dc0	-0.028151393
170	0xbd7025e7	-0.058629896
171	0x3ce9a2ef	0.028520076
172	0xbc7e9c04	-0.015540127
173	0xbd92dc92	-0.07170977
174	0x3cc33394	0.023828305
175	0xbd2fd10d	-0.042923976
176	0xbd8b71ec	-0.06808838
177	0x3da4c6d9	0.0804574
178	0x3c6131c9	0.01374478
179	0xbcd0eaee	-0.025502648
180	0xbc8111d9	-0.01575558
181	0x3c46b738	0.012128644
182	0x3d57a6de	0.05264937
183	0x3ca62d32	0.020285223
184	0xbd9367c7	-0.07197528
185	0x3d61f960	0.055169463
186	0x3d4c2251	0.049837414
187	0x3da413ea	0.08011611
188	0x3da12cdc	0.07869884
189	0x3d27c61c	0.040960416
190	0xbcd678bc	-0.026180618
191	0xbd6deda2	-0.058087952
192	0x3dad2d27	0.08455878
193	0xbd1bc5bf	-0.038030382
194	0x3ca9ad20	0.020712435
195	0xbdbabddd	-0.09118245
196	0xbdba7c48	-0.09105736
197	0xbc09409c	-0.0083772205
198	0xbc5a092a	-0.013307849
199	0x3b9d62b8	0.004803028
200	0x3d57f496	0.05272349
201	0xbd8f0a65	-0.069844045
202	0xbbee55d6	-0.007273416
203	0x3d9696a9	0.07352955
204	0x3d73613b	0.059418898
205	0xbc1dbf00	-0.0096280575
206	0xbdc1bc21	-0.09459711
207	0x3da11b82	0.07866575
208	0x3d98d52f	0.074625365
209	0xbdad2b04	-0.0845547
210	0xbc9babbd	-0.01900279
211	0x3d34e66d	0.044165064
212	0x3cc68ba6	0.024236511
213	0x3d428913	0.047494005
214	0xbd43c148	-0.04779175
215	0x3d4d6307	0.050143268
216	0xbb14c163	-0.0022698275
217	0xbd84fa40	-0.06493044
218	0xbdaa49c5	-0.08314852
219	0xbc915237	-0.017739398
220	0xbdb04bdc	-0.08608219
221	0x3cdd8340	0.027040124
222	0x3d08a696	0.033361994
223	0xbd8f7a74	-0.07005778
224	0x3c8752ad	0.016518915
225	0x3d68f53a	0.05687449
226	0x3da16b42	0.07881786
227	0xbdb2a750	-0.087233186
228	0x3d59858a	0.05310587
229	0x3c2564f7	0.010094873
230	0xbdc0ce1e	-0.09414314
231	0xbd9a1f60	-0.075255156
232	0xbd9fe26f	-0.07806861
233	0x3cf33805	0.029689798
234	0xbd34c168	-0.04412976
235	0xbb940013	-0.0045166104
236	0xbbaa3568	-0.005194355
237	0x3cf7e169	0.030258851
238	0xbda6bd08	-0.081415236
239	0xbda6479b	-0.081191264
240	0xbdada84f	-0.08479368
241	0x3d3051bd	0.0430467
242	0x3cfb5035	0.030677894
243	0x3d777b7f	0.06042051
244	0xbd2f5479	-0.04280517
245	0x3d870655	0.065930046
246	0xbd8d111a	-0.068880275
247	0xbda07934	-0.07835618
248	0xbd49b723	-0.04924692
249	0xbd856a57	-0.06514423
250	0x3cce0c5d	0.02515238
251	0xbd43d490	-0.047810137
252	0x3d6b7beb	0.057491224
253	0x3d9a2ad0	0.07527697
254	0x3d2ed3b3	0.04268236
255	0xbd3729ac	-0.044717476
