src/saved_models/grid_world_seed125_8_4_18_45/125_4_model.pt (torch, 702521 bytes, 11 tensors)

FC1.weight f4 [256, 36]
00000000: 475b 4c3e 0011 e0bc f14c 853d 07d4 54bd
00000010: 4a7f 143c 0920 0e3e 1223 70bb c358 80bd
00000020: 7300 293e bf57 28be 210e 073e 2af2 4b3d
00000030: d191 9cbc e903 503e e26d 883d 019d 823e
00000040: dfc7 143e 427d b03d f1b4 033d 9ba5 313e
00000050: 902c b3bd bf11 d83d 859a 813e 7a45 cd3d
00000060: 1be7 24bd 073f 62bc 7993 943e 7cee f23d
00000070: 31b1 a43c e939 333e daa8 03bc b588 4a3e
00000080: 4325 d4bd cd14 d53d 0c97 a4bd ed04 0f3e
00000090: 4b32 f3bc 6b4e 033e ff60 7b3d 82e1 ca3d
000000a0: 3394 613d 4f71 f53c 3c56 f4bd 3118 e73d
000000b0: 639d 273d e2fa f0bc 32cc ffbb a0af 98bd
000000c0: 4ad0 1cbd 5a51 f93c a0a1 e73c a176 983d
000000d0: e5f8 2b3e b43d 0b3e df5f 2dbc a4a9 e53d
000000e0: d7a3 7f3d fb32 bdbc c536 6c3d f310 23be
000000f0: bfe7 63bd 514f 1c3d 50b3 433d 5c73 fabd
00000100: 83fe 1f3d cf5d a3bd d583 85bd ed9b 60bd
00000110: 1659 cf3c 6845 fdbc 3993 21bb 8104 033e
00000120: 15c9 033e 013e 273c 74d2 b2bc 1d74 5cbc
00000130: e62b 673e 9078 653e 5a59 2bbc 3c4a 5c3e
00000140: dfe5 a83d eff7 953c 64b9 8dbd 353f 9b3d
00000150: 278c 743e 304f 153e 511c 57bd 25cc 3d3e
00000160: 7586 073e 2db1 38bd 3b10 16bd 3d30 a9bd
00000170: 2b55 31bd d44f 233e fc2d 1c3d c931 53bd
00000180: b0aa 6c3c 0eed 88bc c0ba e33d 5a34 063e
00000190: 80e7 dd3d 9c2c d4bc 2a51 97bd ce41 6d3e
000001a0: ffa5 ec3c ba09 e63d 72d6 f6bd ba89 f83d
000001b0: 1918 cfbd e9da 8e3c 9bb1 443d a628 0cbd
000001c0: 7196 a03d fbed 84bd 22bc d2bd ec59 44bd
000001d0: 92f1 57bd 42d3 193e 347a 023e 0714 05be
000001e0: 1b53 893c 0624 d8bd 3f48 043e 0537 8f3d
000001f0: 8e65 ab3c 6831 2cbe 9ece eb3d cb07 2ebd
00000200: cf99 1ebe 329b 26be 9cff f33c 8717 8e3d
00000210: af7d aabd 46d5 d73d 688b d43d e0d2 efbd
00000220: cf43 8f3d 9489 073d 7ee2 f13d d343 9bbd
00000230: 6680 5dbd f0c3 20be 110c a4bc 769d c63d
00000240: 46f8 183e e2b8 273e 6ac8 363e 4001 843c
00000250: edcd c4bc a092 cb3d 1ae7 fa3d 0b3f b53c
00000260: 5c1b 9abd 7274 07be 1a6f b03d 903e 3fbc
00000270: 99f1 b2bc c161 2d3e 711e e43c 7b46 333e
00000280: 001d 7b3c 10d0 163e 70c5 bebd 7e98 c2bd
00000290: a28e b93d 6b8c 96bd 7ef6 56bd 1f9d cfbd
000002a0: 3a95 d4bd 691a 1fbc 8b47 febc 9a9e d53c
000002b0: 2d16 843d 9302 e1bd 6903 233e 6ebf 813d
000002c0: ef9c 06be b989 a4bd 79da 53bc 2bc3 98bd
000002d0: 51ee 733d 0fdd 9fbd 3815 443d 1c98 94bd
000002e0: c3f6 10be 6765 48bd 1595 fd3c 7151 803c
000002f0: 4596 13be 4ed2 cb3d f73a 33bc 23dd cabd
00000300: 57e0 07be 33d9 2fbb d4ab 97bd 45c7 babd
00000310: 0532 ca3d f2a3 e1bd fee9 113e af3e c9bd
00000320: 502e 24be de83 2cbe cc3d 3cbd 43be 933d
00000330: eae1 00bd 89c3 b3bd 8785 dcbd 0219 d4bc
00000340: 5861 01bc b080 efbd af7f 5e3c 5799 37be
00000350: 2f4e 21be 98d1 fabd e8af ad3d 4031 8d3d
00000360: 422b 96bd f3bb 15be 965f c43d 483c 3dbd
00000370: 6487 833d 373f 96bd d9df fd3d 0c5d 9c3c
00000380: a852 b9bd 40d1 a7bd 947d 2bbd c580 9f3d
00000390: bc7d 043e fc12 b13d 846e 3cbd 2219 2ebe
000003a0: 4576 0e3e 5a39 133d 8c27 e0bd 8231 52bd
000003b0: 41f7 403d 4a12 1abe 95a0 9c3b e7fe 283d
000003c0: 6937 76bd f551 893c 65c0 afbd c30c fcbc
000003d0: f4fc 9b3c 216c 15bd 621b 16be fc18 54bd
000003e0: 37d5 edbd 8a27 e7bd f760 183e 104f dfbd
000003f0: 1232 443d 9b7a 463d 5254 133e 64b8 1d3e
0.19956695 -0.027351856 0.06508816 -0.051960018 0.009063551 0.13879408 -0.0036641997 -0.0626693
0.16504078 -0.16439722 0.13188984 0.049791493 -0.0191125 0.20313992 0.066615835 0.2551041
0.1452937 0.08617641 0.03215498 0.1734833 -0.08748734 0.1055026 0.25313202 0.10023017
-0.04025946 -0.013808972 0.29018763 0.118618935 0.020104023 0.1750256 -0.008035863 0.19778712
-0.103586696 0.10404358 -0.080366224 0.13966723 -0.029687067 0.12822883 0.0613718 0.099062935
0.055072974 0.029961256 -0.119305104 0.11283911 0.04092158 -0.029416505 -0.0078063244 -0.07455373
-0.038284577 0.0304343 0.028275311 0.07444502 0.16794164 0.13597757 -0.0105819395 0.11213997
0.06241211 -0.023095598 0.05766942 -0.15924434 -0.055640932 0.03816158 0.047778428 -0.12229034
0.03906108 -0.07976877 -0.065192856 -0.054836202 0.025311034 -0.030916885 -0.0024654402 0.12794687
0.12869675 0.010207654 -0.021828867 -0.013455418 0.2257534 0.22409272 -0.010458315 0.21512693
0.082469694 0.0183067 -0.06920126 0.07580415 0.23881589 0.14580989 -0.05251724 0.18534906
0.13234885 -0.045090843 -0.036636572 -0.08261154 -0.043294113 0.15948421 0.03812979 -0.05156115
0.014444992 -0.016714599 0.11119604 0.13105908 0.10835171 -0.025900178 -0.07388528 0.23169634
0.028887747 0.11232324 -0.12052621 0.12135644 -0.10112018 0.017438369 0.04802094 -0.034218453
0.078411944 -0.06490704 -0.1028979 -0.04793732 -0.052720614 0.15021995 0.1274193 -0.12995921
0.01676326 -0.10553746 0.12918185 0.06992916 0.020922448 -0.16815722 0.115140185 -0.0424879
-0.15488361 -0.1627014 0.02978497 0.06938081 -0.083247535 0.105387256 0.10378152 -0.11710143
0.06995355 0.03309019 0.11810778 -0.07581296 -0.05407753 -0.15699744 -0.020025285 0.09698002
0.14938459 0.16379121 0.1784989 0.016113877 -0.024023974 0.09940076 0.122511104 0.022124788
-0.0752475 -0.13228014 0.08614941 -0.011672631 -0.021843718 0.16931821 0.027846547 0.17507355
0.015326738 0.14727807 -0.09315002 -0.09501742 0.09060408 -0.07351001 -0.052481167 -0.1013739
-0.10380025 -0.0097108865 -0.031039974 0.026076604 0.06449542 -0.10986819 0.1591927 0.063353404
-0.13145803 -0.08034081 -0.012930506 -0.074591 0.059553448 -0.078058355 0.0478718 -0.07255575
-0.14156632 -0.04892483 0.030954877 0.015663834 -0.14412792 0.09952222 -0.010939351 -0.0990546
-0.13269173 -0.0026832342 -0.074058205 -0.09120039 0.09872822 -0.11017598 0.14249417 -0.09826409
-0.16033292 -0.16847178 -0.04595737 0.07214024 -0.03146545 -0.0877753 -0.10767656 -0.02589083
-0.007896744 -0.11694467 0.013580247 -0.17929588 -0.15752481 -0.12247008 0.08480817 0.06894159
-0.073324695 -0.14622478 0.09588544 -0.046200067 0.06422308 -0.07336276 0.12396211 0.019087337
-0.090489686 -0.08194208 -0.041867808 0.07788233 0.12938589 0.08646199 -0.046003833 -0.17001775
0.13912304 0.035943367 -0.10945043 -0.051316746 0.0471108 -0.15046039 0.004779885 0.04125872
-0.060111437 0.016762713 -0.08581618 -0.030767804 0.019041516 -0.036480073 -0.14658883 -0.05178164
-0.11612933 -0.11286838 0.14880739 -0.10903752 0.047899313 0.04845677 0.14387634 0.1540237

FC1.bias f4 [256]
00000000: 24f6 ef3c ea7a f9bc 4675 a7bc 96cb cabd
00000010: 5a1e 3e3e 2eb0 f53d 42fb a63d fe1a 253e
00000020: fe04 c23d 0c65 24bc 249c cc3d 990c 97bd
00000030: efe9 0d3e 87c9 293e 8854 08be 39d8 b23d
00000040: b67f 27bd dbbe cb3c 2653 f3bd 3fbf 22bd
00000050: 0062 31be 4b7e 24be 6b27 91bd 7162 f73d
00000060: 2235 5bbd 49d1 2d3c 95fe 99bd 9200 a43c
00000070: 010f 083d 6a55 16bd 1b38 d8bd df62 fbbd
00000080: 62d2 48bc 04df 8d3d 64c2 333e ec60 1c3e
00000090: 8536 17bd 8ccb f33d 2e82 b7bd d18b 25be
000000a0: 303c dc3c 21e7 e43d c664 353e c913 993d
000000b0: e08a 32bd 8ac7 293e 488e d63d 3892 cebd
000000c0: 894b c73d 70b1 ea3d a497 8e3d 1cdd 773d
000000d0: 46d2 c63d 925b 283e afb2 84bd 3694 5cbd
000000e0: fe7e ebbd 69e8 fb3d 3a28 2dbe 0171 e739
000000f0: cba1 173e fe1d 2ebe 4566 c73d cdfa 1dbe
00000100: 2ee9 96bd b7d5 6f3d f238 d3bc 4316 443e
00000110: 737e c93d 9238 87bd 7cc1 40be 087f f4bd
00000120: b386 0cbe 9f15 9b3d 6374 6d3d 80f0 c63d
00000130: cc68 d2bc d48e b23d 3eb2 1a3e f185 dab8
00000140: 62ba b03d 6bf5 9e3d ee71 0bbd ba04 f6bd
00000150: acb8 84bd 1512 18be e02a 9fbd 5b0b 093d
00000160: 8e31 6b3d 3b4b 5a3d 375b dc3d a94b 363e
00000170: 6fda 2d3e 0749 4cbd e142 2a3e 3f9b 023c
00000180: 14b3 dcbd b493 dcbd ffb1 2cbd ec05 e6bd
00000190: 8f8a 2f3e b3b4 01be 8f2b 003e 37bc 183e
000001a0: 78e8 0b3e c501 1cbd d80f 67bd 2a86 163d
000001b0: 0854 9cbb 8824 00be bcc4 c6bd b356 c7bd
000001c0: d935 14bd 5333 db3d fa15 6a3d 1f11 06bd
000001d0: 48dc 9b3d d90a 333e 7dd5 da3d 54f2 963c
000001e0: 6433 143d ee72 1cbe 00df 1d3e c6b3 ccbd
000001f0: 7628 26be 61d3 8abc e339 ffbd a5ba b53d
00000200: 4400 98bd 65b1 323e 0abc 833d 72e9 a6bd
00000210: de7f 71bb 7605 88bc 5c93 22be 5539 3b3e
00000220: aac2 11be 9ae6 783d 3c46 b3bc d610 fb3d
00000230: 582b 1f3a 5212 b43d ee8e 6f3d ff34 27be
00000240: 9d63 bebd 1934 0ebe 6ae8 b4bd 69f4 963d
00000250: b8c2 e93d 4133 7b3d ddac f9bd d5cd ce3d
00000260: f7f0 0f3e 9e9c 35bd f949 94bc cd06 53bd
00000270: 816f 483e 310b 1e3e 000c 28bc 3bef d6bd
00000280: 8173 273d 2f21 563e 2157 0f3e 77da 363e
00000290: 5cf5 8c3d bd66 273e d9fa 723d b362 393e
000002a0: e94e 7ebd c6da b4bd 6e00 e1bd ffca 593b
000002b0: f7d6 b3bc cbe1 543d 3571 3c3e 9f51 113e
000002c0: 0095 4c3a 299a f3bd b7fd 6cbd e067 9ebc
000002d0: c5a6 3e3e 3244 35be 1062 cabd 164c 833e
000002e0: d891 abbd 7c53 08bb 621e 743d 5490 e7bc
000002f0: 8f4e e1bd 6a90 92bd fc21 8a3d f312 81bd
00000300: 2eef 27be e619 15bd 7a14 d5bd b689 b73d
00000310: a11f 723d 18a2 013e d7a5 263e 7695 23be
00000320: ef69 d93d 7a70 c2bb 47a5 ccbc 2f37 673d
00000330: e8d9 d0bd caeb f1bd d9b2 cc3d 5bd6 11be
00000340: 880b b63d 0571 203d f994 cc3d 4ded 1a3e
00000350: 52b0 19be 4260 013e 9966 cfbd d573 0cbd
00000360: 2061 a4bd 94a5 31bc ae98 5b3c d98e 013e
00000370: cf9c 0abb aaf6 f03d 7d9e 46be 2788 b8bd
00000380: df8a 13be 4d77 d1bd 5aea a33d 0127 ea3d
00000390: b0ca 113e a388 10be a557 4f3d 73bb 0fbe
000003a0: 6586 22bd ba47 2a3d dc78 e3bd a938 20be
000003b0: 367c 69bd 18e2 e43d 3429 01be 1381 0ebe
000003c0: 1f70 3a3e ed87 bbbd 8c32 fc3d 3749 34bc
000003d0: 3292 253e dc56 b33d 76fa 0fbe a41e d83d
000003e0: 1923 593d 66e7 c0bd 616b 3ebd 394d 2b3e
000003f0: 2e9c 38be 3e4a 1dbe 343c 16be 4ccd 283e
0.029292174 -0.030454118 -0.020441663 -0.09902112 0.18566266 0.11996494 0.081533924 0.16123578
0.094736084 -0.010033857 0.09990719 -0.0737545 0.1385877 0.16580783 -0.13313496 0.087326474
-0.04089328 0.02487128 -0.11881094 -0.039733168 -0.1732254 -0.16063802 -0.070875965 0.12079323
-0.05351747 0.0106089795 -0.07519261 0.020019803 0.033217434 -0.03670255 -0.10557576 -0.122747175
-0.01225719 0.069273025 0.17554623 0.15271348 -0.03691723 0.11904058 -0.08960377 -0.16166617
0.026884168 0.11176897 0.17714223 0.07474477 -0.043589473 0.16580024 0.10476357 -0.10086483
0.09731204 0.11459625 0.06962517 0.0605136 0.09708075 0.16441181 -0.06479394 -0.053852282
-0.11498831 0.12300188 -0.16909876 0.00044143948 0.14807813 -0.17003629 0.09736303 -0.15427704
-0.07368694 0.058553424 -0.02578399 0.19149117 0.098385714 -0.06602587 -0.18823808 -0.11938292
-0.13723259 0.07572483 0.057972323 0.097138405 -0.025684737 0.087186486 0.15107056 -0.000104199986
0.086293 0.077616535 -0.0340442 -0.1201262 -0.06480536 -0.14850648 -0.0777185 0.033458095
0.057420306 0.0532944 0.10759585 0.178023 0.16977857 -0.04987433 0.16627075 0.007971584
-0.10776344 -0.1077036 -0.042161938 -0.11231598 0.171427 -0.12666588 0.12516616 0.14915548
0.13662899 -0.038087625 -0.056411594 0.036749043 -0.0047707595 -0.12513936 -0.09705493 -0.097333334
-0.036184166 0.10703149 0.057149865 -0.03273117 0.07610375 0.17484607 0.10685251 0.018426098
0.036181822 -0.15278217 0.15417099 -0.099952266 -0.16226372 -0.016946496 -0.12462213 0.0887349
-0.07421926 0.17450483 0.0643235 -0.08149995 -0.0036849896 -0.016604166 -0.15876526 0.18283589
-0.14234415 0.060766794 -0.021884076 0.122590706 0.00060718274 0.08792557 0.058485918 -0.1632881
-0.092963435 -0.13887061 -0.08833392 0.07370836 0.11414093 0.061328176 -0.12191174 0.10097853
0.14056765 -0.044338815 -0.01810168 -0.051520158 0.19573785 0.15433957 -0.010256767 -0.10494848
0.040881637 0.20911096 0.13998081 0.17856775 0.06882736 0.16347785 0.05932126 0.18104057
-0.062086973 -0.0883079 -0.1098641 0.0033232567 -0.02195309 0.051973145 0.1840256 0.14191292
0.0007804185 -0.11894638 -0.05785915 -0.01933664 0.18618305 -0.17701796 -0.09881985 0.25643986
-0.08377427 -0.0020801714 0.059599288 -0.028267063 -0.11001312 -0.07156451 0.06744763 -0.063024424
-0.16399834 -0.03640165 -0.10404296 0.08961813 0.059112195 0.1265949 0.162742 -0.15974984
0.10615908 -0.0059338184 -0.024981154 0.05644911 -0.10197812 -0.11812551 0.0999505 -0.14241926
0.08888918 0.039170284 0.09989352 0.15129586 -0.15008667 0.12634376 -0.10126991 -0.034290154
-0.080263376 -0.0108427 0.013403101 0.12652148 -0.0021150594 0.117657974 -0.19396396 -0.09010344
-0.14408444 -0.10227833 0.080036834 0.11433221 0.14237475 -0.14114623 0.050620694 -0.1403635
-0.03967895 0.04157231 -0.111070365 -0.15646614 -0.057003222 0.111759365 -0.12613374 -0.13916425
0.18206833 -0.09156785 0.123143286 -0.011003784 0.1616905 0.087568015 -0.14060387 0.10552719
0.053011987 -0.09419136 -0.046489123 0.16728677 -0.18028328 -0.15360352 -0.14671403 0.16484565

FC2.weight f4 [256, 256]
00000000: 0a03 d1bd 4862 393d e845 c7bd 8b68 51bd
00000010: 32ff 6bbd c616 17bb 593f 2cbc 2f7b 2bbd
00000020: 14ee 1a3d a8ff 33ba ec4f 1e3c bdd0 ccbd
00000030: 2b82 d7bd 7ddf 263c a30f fc3b 4243 a8bc
00000040: dea0 383c 7d78 80bc e842 363c 48dc 39bc
00000050: 3bb2 ce3c 784c 183d e9b4 64bd 7d8c f43c
00000060: f8f3 803c cfbd 27bd b5db ee3b e801 1abd
00000070: d6fe 66bd 9eb1 1d3c 59c9 113d 5da4 79bd
00000080: b69e 5a3c 410e 4cbd 2f66 bd3c 8fa8 8ebb
00000090: 16da f03c a340 743c 95c5 9fbd 47a6 92b9
000000a0: cb94 0dbb 3f33 edbc 171c b8bc 3eae 253d
000000b0: f5c1 2b3c 7561 98bd e17f 94bd 9241 a6bd
000000c0: 6e25 74bd ef0c 1e3c eba8 7abd 522f 8e3c
000000d0: 71a6 153d 67c3 ea3c 4cfd 5ebd 6a7d 0dbd
000000e0: 8a0f 7fbc 1215 8ebc 65f2 233d 5b99 f7bc
000000f0: 0410 323d 8ef7 43bd 7206 8cbd 38c7 bc3b
00000100: d559 88bd 366a 20bd c5ee 0abd b25c 11bd
00000110: 17c6 6cbd 15d0 afba 5640 273d 2a5e 83bc
00000120: 2995 7ebd f1ea 95bc 9d2a 8fbd 444a a5bd
00000130: 14b4 c9bd 5313 18be 5d4d abbd 3dc0 ee3c
00000140: 1074 19bd 3c35 57bd 17ae 363d e98f ad3c
00000150: 5cb0 0f3c f0aa 07bd fc75 bdbd 0d78 fa3c
00000160: eb87 babc 3850 4cbd 8bf9 28bc ab08 1d3d
00000170: 8905 2bbb 9aeb 8bbd a9c0 33bd 2856 b5bd
00000180: 79be d83c 11a4 313d 2a3d b3bc 7bc6 79bd
00000190: dda7 24bd 5571 70bc c47a 7dbd 064e f33b
000001a0: 1191 72be fef8 e2bc a286 8b3c f1bc 243d
000001b0: 991e bbbd b839 57bd 0268 b33b 96e5 343d
000001c0: 3507 acbc 7fa7 5dbc 6bef b0bd 254b 2bbd
000001d0: b382 a9bc fe57 81bd d42f 8abd 3eb1 523d
000001e0: e3bd 173d 1694 69bd 554a 153d 55df 883c
000001f0: c46d e33c f895 04be a8b7 c0bc 6a63 b8bd
00000200: 6343 a4bd d8e4 6ebb 7246 5ebd 0aa0 11bd
00000210: 8a33 9b3c 4a3b 45bd baec d13c 37df 3dbd
00000220: 766b 1b3d 12c0 30bd 7b8c 063d 8d2e a6bc
00000230: abeb cc3c 7010 b63c 7887 07bd 3169 0bbd
00000240: 968a e4bc e8f7 89bc c514 02bd 453b 25bd
00000250: 61b7 abbd e10c 43bd cc0c 26bb a3b1 2cbd
00000260: 0f4b 1ebc e7b3 7a3b 42b6 83bc abfc a8bd
00000270: 26d5 6abd 3f9b 43bd 16cf 39bd c2a4 4cbd
00000280: 743d 2f3c 2118 54bc ef2e 16bd 3897 14bd
00000290: 6da4 aabc 32ad 3ebc 94c4 c1bc a746 9fbd
000002a0: 9357 aebc a7af c4bd 8f7d 86bb 80db 353d
000002b0: 280f 16bb 10d4 20bc f885 40bd a0e1 4abd
000002c0: 98b9 953c 59df 88bc 88ef 4bbb 8f48 a5bc
000002d0: 5626 1b3d ed14 383d 6359 65bc 0d1c 10be
000002e0: b30b f5bc db49 1f3d d1d9 54bd 68e4 2bbc
000002f0: 01ae 89bd 10eb 7e3c f069 c5bd f6f1 18bd
00000300: b69b 6ebd bf35 403d f9f8 543c e8e9 24bc
00000310: 8bcc 8abd 8d26 23bd ccc8 1f3d 5ed5 0a3d
00000320: d28f f33c 6870 e9bc ec1a 72bd ff45 28bd
00000330: 01fe b4bd c400 f43b 046a 0a3c a4f5 8abd
00000340: b2e9 02bd 3380 bbbc 2a10 b5bc d444 b1bd
00000350: b4ae 3fbd 0d03 59bc b837 08bd e2b7 3f3c
00000360: 464c 64bd cab0 18bd 0216 d0bc 4693 9bbd
00000370: 5365 e4bc 0539 aebb 72b3 473d 2df0 b0bd
00000380: 1267 fa3c e1cd abbd a58e 6dbd 69f9 16bd
00000390: 5f0c 02bd c9d5 d93c cd11 6abd 53c1 6cbd
000003a0: 3d29 5ebc b834 edbd bd06 a23c ed6e 35bd
000003b0: b6ac ce3c c03d de3c bca2 6ebd b9cd a2bd
000003c0: 7c1c 76bd 936b 64bd 10ac 37bb 47a9 343b
000003d0: 7f37 7dbc ad64 81bd 46db cebc 3fae f0ba
000003e0: 5436 3abc f509 b13c ae16 033d 9034 9dbd
000003f0: d091 22bd 4a6e 403c b06e 593d c2c9 0bbd
-0.10205658 0.045259744 -0.097301304 -0.05112509 -0.05761642 -0.0023054346 -0.01051315 -0.041865524
0.037824705 -0.0006866404 0.00966261 -0.10000751 -0.105228744 0.01018512 0.0076922937 -0.020539884
0.0112688225 -0.015682453 0.01112435 -0.011344023 0.025231471 0.0371823 -0.055836592 0.029852146
0.015741333 -0.0409525 0.0072893747 -0.037599474 -0.056395374 0.009624867 0.03559241 -0.060947765
0.013343504 -0.04981828 0.023120014 -0.00435359 0.029400866 0.014907989 -0.07801358 -0.00027971176
-0.002160358 -0.0289551 -0.022474332 0.040449373 0.010483255 -0.074404635 -0.072509535 -0.08117975
-0.05960601 0.009646638 -0.06119625 0.017356548 0.036535684 0.028657628 -0.05444078 -0.034543432
-0.01556767 -0.017344031 0.040026087 -0.030224493 0.043472305 -0.04784351 -0.06837167 0.0057610534
-0.06657759 -0.03916379 -0.033919115 -0.03548879 -0.0578061 -0.0013413454 0.04083284 -0.016036112
-0.06215397 -0.018300505 -0.0699055 -0.08070806 -0.098488 -0.14851122 -0.08364365 0.0291444
-0.0374642 -0.052541003 0.04459962 0.021186786 0.008770075 -0.033122003 -0.09251019 0.030574823
-0.022769889 -0.04988119 -0.010313402 0.038338345 -0.0026095829 -0.06832047 -0.043884907 -0.088543236
0.026458012 0.043369357 -0.021879751 -0.0609803 -0.04019915 -0.014675458 -0.061884657 0.0074250726
-0.23688151 -0.02770662 0.017031971 0.04021925 -0.091366954 -0.05254528 0.005475045 0.044164263
-0.02099953 -0.013528704 -0.08639415 -0.04181971 -0.020692205 -0.06315611 -0.06747404 0.051438563
0.037046324 -0.05702599 0.03644784 0.016708056 0.027762301 -0.12947834 -0.023525074 -0.09003337
-0.080206655 -0.003645232 -0.0542664 -0.035553016 0.018945474 -0.048152246 0.025625575 -0.046355452
0.03794428 -0.043151923 0.032848816 -0.020285869 0.025014719 0.022224635 -0.033088177 -0.034035865
-0.027898114 -0.016841844 -0.03175809 -0.040339727 -0.08384586 -0.047619704 -0.0025337217 -0.042161595
-0.00966145 0.0038254203 -0.016078118 -0.082513176 -0.05733218 -0.047755476 -0.04536351 -0.049961813
0.010695804 -0.012945206 -0.036665853 -0.036277026 -0.020830357 -0.011637973 -0.023653306 -0.07777148
-0.021281993 -0.096038155 -0.004104323 0.044398785 -0.0022897217 -0.009816185 -0.047002763 -0.04953158
0.018276975 -0.016708063 -0.0031118114 -0.0201762 0.037878357 0.04494183 -0.013998362 -0.140732
-0.029912805 0.038888793 -0.05196554 -0.010491468 -0.06722642 0.015558973 -0.096393466 -0.037340127
-0.058253966 0.046926256 0.012998813 -0.010065533 -0.06777295 -0.039831687 0.039009854 0.03389489
0.029731665 -0.028495982 -0.059107706 -0.04108238 -0.0883751 0.0074463803 0.008448128 -0.067851335
-0.03196115 -0.022888279 -0.022102434 -0.08655706 -0.04679747 -0.013245356 -0.033256263 0.011701556
-0.055736803 -0.037277974 -0.02540112 -0.075964496 -0.027880346 -0.005316856 0.048755117 -0.0863956
0.030566726 -0.08388878 -0.057997365 -0.03685895 -0.03175008 0.026591199 -0.057145882 -0.057801556
-0.013559637 -0.11582321 0.019778604 -0.04429524 0.02522884 0.027129054 -0.058260664 -0.07949395
-0.06008576 -0.055766653 -0.0028026141 0.0027566717 -0.015455126 -0.063180305 -0.025251042 -0.0018362476
-0.011365492 0.021611193 0.03200405 -0.07676041 -0.03968984 0.011745045 0.053084075 -0.034127958

FC2.bias f4 [256]
00000000: cc63 67bc 1b7f 0c3c de7e c43c 59ff 0abd
00000010: 48f2 73bb fd73 72bc 29a3 e3bb 248d aa3d
00000020: a38f 723d a78c 623d 122c 1ebd 6d7d ddbb
00000030: 2fd4 bbbb ecbc cbbc 3939 ed3b cf67 923d
00000040: 452a 3dbd 574e efbb d732 c43c f2ac 80bc
00000050: 065f 073d c017 bb3c c6b2 233c edde adbd
00000060: 54cb 4cbb 25bb 733c 8cea e73c 3d6b 33bc
00000070: 1753 0c3e 2ba1 563c 7a1d 533d 7fa2 87bd
00000080: c5a1 973d bbd7 243d 1239 213d aa55 9b3d
00000090: aeaa 103d a544 173d a0c8 dc3c 0e14 0a3c
000000a0: d66f 263d 8c93 0a3d 3963 8bbd 5656 543d
000000b0: af98 d83c d02d 983d e6bd a53d 7199 ffbc
000000c0: 517b 12bc 50ce 88bd ac63 35bc f8e1 9b3c
000000d0: 9cb1 393c 98bd c73d e783 95bd 2002 40bd
000000e0: 4107 4bbd 9977 ef3c 413c 46bd 144a f43d
000000f0: 7cf3 f9bc d21f f33c 377f 79bd 9b14 7cbc
00000100: 04c7 5ebc 5b6e 3a3c 5d6c 85bd 152f 0b3d
00000110: c0ad 473d a6f8 ad3d a11b ec3b b1ff f0bc
00000120: a16f 74bc aa7e 663c a471 0ebc ab10 d93c
00000130: 5d13 343c affd dcba 05d6 bb3c 43c1 80bc
00000140: 6bf6 713c bd9b 783c df89 623d 2aaf cb3b
00000150: 5af0 323d 4988 76bd 50ca 73bc 8bb4 81bd
00000160: 2313 5dbd c2e0 c53c de8b 3fbc 375d b53c
00000170: 7bb6 443c 97a0 873d 5255 bbbb 28ba 37bc
00000180: 79db a23d 829a 65bd 1318 5fbd dae4 583d
00000190: e976 86bd 0841 84bd b87b 123d 4cf5 953b
000001a0: d3bf 88bc ecc0 a63d 5a0d 163d 1972 823d
000001b0: 6300 82bd 1889 9dbd 5cea 813d 3828 29bd
000001c0: 0383 c43c ef26 fbbc 3193 c5bc bcf3 2f3d
000001d0: c920 143d d232 b83c a7c1 ecbc e146 893d
000001e0: 6b04 623d f799 acbc 0180 893d a2eb 8f3b
000001f0: fbdc 723b a0a7 343c 36d8 1ebd 1429 b03c
00000200: 7a87 60bd 4e5d cabc 98c6 7bbd 476b 5a3d
00000210: b70e 9c3b 29ea da3c 9207 efbc 32d3 10bc
00000220: 81df 8b3c ebf1 7abc a943 6ebd ed60 4a3d
00000230: 2d7f 1f3d e307 193e 9d75 f33c 9ef2 e73c
00000240: 7c94 aebd 240f 2abd c5d9 a23c a770 35bd
00000250: 41e0 963c 6b68 133d 72bb 4ebd 84d2 e13b
00000260: 0f03 503d 908c 2cbd 5847 5b3d 84b6 a9bb
00000270: 34e7 883d 88cf 5b3d b99a 57bd f253 aebc
00000280: f5c6 5f3c cdcc d33d 88af 50bd ed86 b03d
00000290: 00d0 903c c9c8 ef3c 1705 123d 57bf 2b3d
000002a0: b624 213d 1725 12bd 8a76 fe3c 9d4f e7bc
000002b0: 2d9c 9fbc a4b8 613a 5a80 c43c e242 87ba
000002c0: f49e 9c3c 00a8 223b 7ebb aa3c a2b9 c63d
000002d0: 0c3c 963c 1b35 90bd b264 293d d47e 6a3d
000002e0: f049 533d c46f b23d 59a0 ba3b 0840 6e3c
000002f0: 48c8 8a3d fce6 8e3d 3c67 c03c 7497 83bd
00000300: e065 2f3d 9a9f 99bc e42c 993d 324f 1e3d
00000310: f5c7 76ba e62b 6e3c 778c 903c 9219 18bd
00000320: 0bd0 a13c b9d8 803d 23dd 8bbc 15cd 68bd
00000330: f641 74bd 7462 a1bd da8d e7bb 6596 81bd
00000340: 3d48 f33c 4a24 d8ba 23f4 0cbd 58a6 4cbd
00000350: 7866 c9bc f4b3 e9bc d6f2 a03c d50b 9c3c
00000360: 8848 d63d eba5 8a3d 4bfa 533c c27e 8a3a
00000370: 6b79 473c 7e9f 2b3d 6c6d 7a3d 5d69 25bc
00000380: 8285 86bd c083 bd3d 4d2f 113d 279c e9bb
00000390: 8f52 72bd 0d96 123c 46a9 043d f643 f9bb
000003a0: 5d23 6ebd b79e 633d 3bfc b6bc bcbd 213d
000003b0: 4663 863d a2b5 45bd 2fad db3c 18cf 323c
000003c0: cf48 c4bc 1681 58bc 2929 233d c15f edbb
000003d0: be46 413d 4f27 ebbc 6214 2d3c 85b6 fdbc
000003e0: c85d a8bc 777c ea3c bace 5f3d a522 1dbd
000003f0: 4d70 fdbb a26c da3d 0c65 6bbd 204d 30bd
-0.0141229145 0.008575226 0.023986276 -0.033934925 -0.0037223268 -0.014798162 -0.0069469404 0.08327702
0.059219014 0.055309918 -0.038616247 -0.0067593367 -0.0057320814 -0.024870358 0.0072394875 0.07148706
-0.04618289 -0.00730304 0.023950024 -0.015707467 0.033049606 0.022838473 0.009991353 -0.08489785
-0.0031249123 0.014876162 0.028310083 -0.010950861 0.13703571 0.013099949 0.051541783 -0.066227905
0.07403902 0.0402448 0.039361067 0.075846985 0.035319023 0.0369307 0.026951134 0.008427633
0.040634 0.033832118 -0.068060346 0.05184015 0.026439993 0.07430613 0.08092861 -0.031201096
-0.008940534 -0.06679976 -0.011071127 0.019028649 0.011333849 0.09752959 -0.07300549 -0.046877027
-0.049567465 0.029231833 -0.048397306 0.11928192 -0.03051161 0.029678259 -0.060912337 -0.015385772
-0.013597254 0.01137885 -0.06514809 0.033980448 0.048749685 0.084946916 0.007205442 -0.029418798
-0.0149191925 0.014068285 -0.008694086 0.026497206 0.010990945 -0.0016860272 0.0229292 -0.015717154
0.014768223 0.01517385 0.055307265 0.0062159495 0.04368625 -0.060188565 -0.014879778 -0.06333264
-0.05397333 0.024155024 -0.011691062 0.022139175 0.012006397 0.06622427 -0.005716958 -0.011213817
0.07952017 -0.056055553 -0.05446632 0.052952625 -0.06565649 -0.06457716 0.03576252 0.004576361
-0.016693031 0.08142266 0.036633827 0.06369419 -0.0634773 -0.07692164 0.06343529 -0.04129812
0.023988253 -0.030658213 -0.024118038 0.042957053 0.03616408 0.02248517 -0.028900934 0.06702972
0.055179995 -0.02106951 0.06713868 0.0043921033 0.0037057984 0.011026293 -0.038780414 0.021503963
-0.0548167 -0.024702694 -0.06146869 0.053324964 0.0047624963 0.026722984 -0.029178414 -0.008839415
0.017074348 -0.015316467 -0.058169995 0.049408842 0.038939644 0.14944415 0.029719168 0.028313931
-0.08524415 -0.041518345 0.019879231 -0.044296887 0.01841748 0.035988253 -0.05047173 0.0068915505
0.050784167 -0.04212624 0.053534836 -0.0051792283 0.066847235 0.053664714 -0.05263779 -0.021280263
0.013658275 0.10341797 -0.05094865 0.08619485 0.017677307 0.029270547 0.035649385 0.041930523
0.03934165 -0.035679903 0.031062383 -0.028236205 -0.01948365 0.00086105824 0.023986984 -0.0010319615
0.019118764 0.0024819374 0.020841356 0.097033754 0.01833918 -0.07041379 0.041355796 0.05724986
0.051584184 0.08712724 0.0056953845 0.014541633 0.06776482 0.069776505 0.023486726 -0.06425372
0.042821765 -0.018752862 0.07479265 0.038649745 -0.0009413951 0.014536833 0.017645104 -0.03713376
0.019752523 0.062913366 -0.01707322 -0.056836206 -0.059633218 -0.078801066 -0.0070664706 -0.063275136
0.029697532 -0.0016490307 -0.034412514 -0.049963325 -0.024584994 -0.028528191 0.019647043 0.01904861
0.10463053 0.067699276 0.012938092 0.0010566341 0.012174944 0.04190015 0.06113951 -0.010095921
-0.06568433 0.09253645 0.0354455 -0.0071292105 -0.059160765 0.008946908 0.032387994 -0.0076069785
-0.058139194 0.055571284 -0.02233707 0.039487585 0.06561904 -0.04826892 0.026815979 0.010913633
-0.0239605 -0.01321437 0.039834175 -0.007244081 0.047186606 -0.028705267 0.010563942 -0.030970821
-0.02055253 0.028623803 0.05464051 -0.038363118 -0.0077343346 0.10665251 -0.057469413 -0.043042302

action_out.weight f4 [5, 256]
00000000: a9f9 153d 6af0 ebbc 0ece 3bbb 8a8e 67bb
00000010: 425f dd3b 50ac 0c3c d578 c6bb 4ca4 b7bc
00000020: 1884 383d 11bf 29bd ba19 6fbd f865 e0bc
00000030: c640 5fbd 1c6c 653d c1bc 393d bb7f 05bc
00000040: 3bde a3bc 6c0c 51bd ec5d 1c3d 8afe 393d
00000050: 7f43 3fbd f066 c2bd 1ddb 433d 74c4 cebd
00000060: d587 303d d06f 36bd 02e8 013d cebf 73bc
00000070: b8e8 08be 51a5 2d3d e7e7 a9bc 86bc dcbc
00000080: a078 7a3c 1a51 c63c 15ab 883a 9867 77bc
00000090: e888 8d3c ad5a d0bc 891a 083c 92d9 f5bd
000000a0: c24a 6bbd afb8 3e3d 6742 9bbc f84c 433d
000000b0: 555c c9bb 128d 073d a299 26bd 8788 8bbc
000000c0: a40e 393a 383a 35bd 36cb 41bd fb92 b03c
000000d0: 4bc8 23bd 639d 9ebd bc5c a5bd ceaa 4cbd
000000e0: c2b6 283d 47e9 cbbc f086 5d3d d333 d8bc
000000f0: 8b47 443d a93d a8bc 9a1c acbb b320 6f3c
00000100: 5e22 f63c 83cb 1ebd 005e 40bb 8c84 ae3c
00000110: 9cd5 fd3b 5ddd 143d 1907 8b3c 645b 3ebd
00000120: 2a16 8bbc b80d 0d3d eb53 3a3d 65eb bd3c
00000130: 2251 6a3d 3861 97bc 388a 783c cc94 49bc
00000140: 0f93 a3bd b057 b03c a367 04be a66d 08bd
00000150: 453d 073d 220d 643d f046 2e3d 3a81 633d
00000160: 5a2d 3e3c 155f c53c b0d7 ed3c e62b 84bc
00000170: 46b9 623d 7867 083d 2688 283b 14cf b73c
00000180: af09 a5bd cfd1 b63c 9f09 1bbc 2974 e4bd
00000190: d2c7 8abd 174d 0ebd 0327 b4bd 9144 3cbd
000001a0: ec9e 433d c3e7 c9bd 2a1f 06bd ec9e 123d
000001b0: 3c90 25bd 7d8f 23bd ee56 d0bd a2c9 473b
000001c0: be32 853c aadc 533d f6d0 73bb 7523 94ba
000001d0: bd4d 2bbd 0fdc d13c 0340 24bd 74c3 863c
000001e0: 656b f13c 79ba 16bb 10c4 cabd 11ad fdbc
000001f0: 6096 2e3d 9f1d f2bc 0e9c 1d3d 294e 383b
00000200: 6bcc 663d 44e6 f1bd a05a 7b3c 98a0 39bd
00000210: 5da4 28bc 27de 2fbb c384 95bc 614a a5bc
00000220: 40cc 383d 49df 10bc 9c1a 6dbb b3b9 28be
00000230: f17b 053d 566e 2ebe e55c 23bd 2cb1 f53c
00000240: 3833 05bd 8250 573d f933 86ba b447 f63b
00000250: b2fc 4bbc 545f f3bc 41fc 5d3d f329 a8ba
00000260: 3efe 663d 0838 793d 2fa7 223d 1e27 5e3c
00000270: 87bc b7bd 3374 8c3b 8d6d f73c 024c 6fbc
00000280: 9281 be3c c1bc b43a 4350 d4bb 81b2 83bd
00000290: 2860 ac3c 818e 0abd 3d9a 0b3a 9f76 24bd
000002a0: 6220 343d 8ac3 873c bb6b 6d3d 5932 043d
000002b0: 4188 cc3c 78a0 3dbd 8fa2 f13c ec1e b9bd
000002c0: 4907 94bc 8e47 393c 1e88 f13c b571 023c
000002d0: c488 f63c d30b 653c c9cf a23c 7636 ceba
000002e0: ac45 b1bd 0aca 4fbd 7253 debc 966e 3c3c
000002f0: 6b08 8f3d e430 653b e866 1d3c 96b1 dcbd
00000300: d446 d03c c417 3c3c 6122 fbbd c891 83bd
00000310: 512d 373d 6786 53bc 25fd 6fbd f7ff 69bc
00000320: 98aa ccbc c1c9 363d 6cd0 6f3d 51a9 ce3b
00000330: 4894 5c3c 0fc2 cbbd 347d d9bd 6ee4 a23c
00000340: 6e23 cabc 82a8 9cbd 3cdf 2f3d 1cc3 eebc
00000350: 16c0 8c3c 5d28 3c3d 29c3 5abd 7e9f 903c
00000360: 3a80 0bbd adbf 86bd f4f0 1d3b 0a2f ea3c
00000370: b438 57bd f34f 54bd 027c 323c 5be3 f5bc
00000380: 1a3e f3bc 754b d3bc fc62 d63c 11d0 c0bd
00000390: 4fd2 b1bc 2b4b 3d3c b291 683c 748b a6bd
000003a0: 0cf1 fcbb a865 9a3c 6115 033d ed6a 393d
000003b0: b40f 2d3d 4637 02bd b9bb 40bd 262c 7dbd
000003c0: e118 70bd 6e1b 56bd a0ab 99bd e410 a33c
000003d0: 894d f6bc 8055 a03c fa22 923b 3778 983c
000003e0: 2506 6ebc 4e2d 68bc 215b 27bb ff1d 2a3d
000003f0: 7994 5c3c 77cd a43c 404a bb3b 2e77 593c
0.036615048 -0.028801162 -0.0028656754 -0.0035332763 0.0067557404 0.008586004 -0.006056885 -0.02241721
0.04504785 -0.04144198 -0.058374144 -0.027392372 -0.054505132 0.056011304 0.045346025 -0.008148129
-0.020003429 -0.051037237 0.03817551 0.045408763 -0.04669523 -0.0949229 0.047816385 -0.10096064
0.04309829 -0.044540226 0.0317154 -0.014877273 -0.13370025 0.042393986 -0.020740462 -0.026945364
0.015287548 0.024208594 0.0010426963 -0.015100382 0.017277196 -0.025433863 0.008307108 -0.12004389
-0.05744434 0.046562847 -0.018952562 0.047680825 -0.00614504 0.03309352 -0.04067386 -0.017032875
0.00070593716 -0.044244975 -0.047312938 0.02155446 -0.039985936 -0.07744863 -0.08074328 -0.04996758
0.041189916 -0.024891509 0.054083765 -0.0263919 0.04791979 -0.020537214 -0.005252433 0.014595198
0.030045684 -0.038768303 -0.0029352903 0.021303438 0.0077464115 0.03634392 0.016971158 -0.046473876
-0.016978342 0.03443691 0.045490187 0.023183534 0.05720628 -0.018478975 0.015169673 -0.012303542
-0.079870336 0.021526188 -0.1293016 -0.033307694 0.033017416 0.055676587 0.04254812 0.055543162
0.011607492 0.02409319 0.029033512 -0.016134214 0.05535247 0.0333018 0.0025715916 0.02243761
-0.080584876 0.022316841 -0.009462743 -0.11154968 -0.06776394 -0.034741487 -0.087965034 -0.045963828
0.04775898 -0.09858658 -0.032744564 0.03579609 -0.040420756 -0.039931763 -0.101728305 0.0030485173
0.016259547 0.051724114 -0.0037203408 -0.0011302071 -0.041822184 0.025617627 -0.04010011 0.016450621
0.029470155 -0.002299933 -0.09900677 -0.030966314 0.042623878 -0.02955514 0.038478903 0.002812276
0.056347292 -0.11811498 0.015341431 -0.04531917 -0.0102930935 -0.0026835294 -0.018251782 -0.020177068
0.045116663 -0.008842298 -0.003617919 -0.16477089 0.032588903 -0.17034277 -0.039883513 0.029991709
-0.03251955 0.052567013 -0.0010238878 0.007515872 -0.012450384 -0.029708542 0.054195646 -0.0012829885
0.056394808 0.06084445 0.03971022 0.013559131 -0.089715056 0.004286313 0.030203605 -0.014605524
0.023255143 0.0013789163 -0.0064792945 -0.06430531 0.021041945 -0.03382731 0.00053254125 -0.04015219
0.043976195 0.016572732 0.057964068 0.032274578 0.024967315 -0.046295613 0.02949646 -0.09039101
-0.01806988 0.011308564 0.029483851 0.00796168 0.030094512 0.01397987 0.01987447 -0.0015732783
-0.08655867 -0.05072979 -0.0271394 0.011500975 0.069840275 0.0034971768 0.009607054 -0.10776059
0.025424398 0.011480276 -0.12262417 -0.0642429 0.04472095 -0.012910462 -0.058591027 -0.014282218
-0.02498369 0.044626 0.058548376 0.006306805 0.013463087 -0.09949123 -0.10619584 0.019884314
-0.024675097 -0.07649328 0.042937502 -0.02914577 0.017181437 0.04593693 -0.053408775 0.017654177
-0.034057833 -0.06579528 0.0024099918 0.028586883 -0.05254431 -0.051834058 0.010893824 -0.030015638
-0.029692698 -0.025792817 0.026170246 -0.094146855 -0.021706728 0.011553566 0.014194893 -0.08132067
-0.0077191647 0.018847302 0.03200281 0.045267988 0.042251304 -0.031790994 -0.047054026 -0.06180968
-0.058617476 -0.052272253 -0.07503438 0.019905515 -0.030066269 0.01957202 0.004459736 0.01861201
-0.014527832 -0.014170958 -0.0025536495 0.041532513 0.013463133 0.020117505 0.0057156384 0.013273044

action_out.bias f4 [5]
00000000: 8055 b4bc 7f87 1abb 49a9 ebbd 7580 2c3d
00000010: 7163 df3c
-0.022013426 -0.0023579297 -0.11506898 0.042114694 0.027269097

weight f4 [256, 123]
00000000: 4ead abbc feaf 78bd 2067 f0bc 03b9 583d
00000010: 0775 22bd 35a6 753c b934 51bd 4825 e6bd
00000020: 101e f0bc 4dad 92bd 17d0 973d 1a19 a9bd
00000030: 0fb4 bf3c e2bf 653d b17c 8a3d d431 6e3d
00000040: b7bb 89bc 009f b9bd 4b9e 5abd 44a0 9dbd
00000050: 22ed 24bd b5cf 99bc 8927 3dbd e7e4 41bd
00000060: d194 36bd 24b7 b63c b215 95bd d4ff 9abd
00000070: eca7 debd b40a c03c 9fba 10bd e990 cd3d
00000080: b98b 86ba b779 87bd f378 3cbd b327 90bd
00000090: dde3 c5bd a787 7dbd bfbd d13b e90a ac3c
000000a0: 775a 28bd fbdc 55bd c8af 08bd b5a8 023c
000000b0: 50f6 9e3c 88f4 bc3d d0ce e73d a713 19bd
000000c0: 54f0 90bd ed6e c1bb 2544 b63d 414b d7bb
000000d0: 9c30 9ebd e872 81bc dbc6 b33d 0a26 4abd
000000e0: 9112 2d3b 2a78 14bd d0be 833b a299 d1b8
000000f0: df49 44bd 0f7d b1bd f80a 953c 4e53 b63b
00000100: 812e a9bd d1c3 973a 0803 3abc 8cec 23bd
00000110: c509 66bd bf9d c53c 37a7 5cbd 5cf2 b4bc
00000120: 409d 2b3d 71b9 e63b 04e5 13bd d085 8abd
00000130: b509 ff3c 13fd e23b 8cc1 a33d b9e4 7e3d
00000140: a047 33bc a952 903d 0072 79bd b276 9d3d
00000150: 9f19 24bd 22d3 473d 5c62 7ebc c49e 783d
00000160: f4c5 3fbd 9872 3abd 0578 d1bd 7ef1 23bd
00000170: c258 1e3d af0f 983b 25a2 953a d668 483d
00000180: a155 703d c2dd 6b3d 5cc5 4cbd baea cebc
00000190: dd2e 933d 5a5d 2fbd f078 b03c 075d c93c
000001a0: 4366 48bd c0d9 e63b f262 743d 2fbd 83bd
000001b0: 7d2d a8bc ca0a 94bd 5448 9b3c a670 96bd
000001c0: e5a9 333d 92e0 79bc 19af 613d 003a 0d3d
000001d0: 81c4 e8bc 3717 b3bd cfa2 0abc 7a0c 8f3d
000001e0: d6e4 95bd db4c 7e3c 4812 76bc f476 d4bd
000001f0: 6b44 6abd 84ff 5fbd 27a0 733c bea7 4f3c
00000200: cbde 693d 7329 773a 6a6b f0bc 6d38 223d
00000210: dc00 a1bd 6b1d a23d 2850 9d3d cdc5 9e3d
00000220: aa79 343d 86a2 b83c 3fc3 69bd 8e6c 1bbd
00000230: 4f17 85bd 6508 d9bd 23b0 71bd e24d fcbd
00000240: ea1f 893b 11d1 a43d d4aa ccbd 4278 953d
00000250: de26 b639 c586 803d a915 65bd 8a52 9ebd
00000260: cb23 8b3d c90e 3cbd 085c 89bd b52d 99bd
00000270: 00e1 d03c c725 9d3d 10d8 dc3c fb03 c1bd
00000280: 6a0b 8cbd 37f4 abbb 4671 983c afc2 903d
00000290: 093b 60bd ce4d 043e dc29 79bd c0ba 513d
000002a0: 786d dc3c f87f 1e3d dd8c 843d 17c0 c2bb
000002b0: 14bb c13d 5429 92bc cf90 a6bd f002 243d
000002c0: 5019 9fbc 12c9 4a3d 53ad 48bd b909 efbd
000002d0: a9dc ac3d 2459 163d 4581 84bd f0f6 95bd
000002e0: ef77 c13b 953b 903d 75ac 983d 4709 91bc
000002f0: e537 d23d 4b27 4d3c 5e56 81bb 6445 c5bc
00000300: f87d 0ebd 30a0 503c 082e 95bc d2d4 f1bd
00000310: 9009 823d 3feb dfbd d1f5 143d 4c97 fdbc
00000320: 7aaa bf3d ca0e 2c3d 468e 3ebd c5e8 a0bd
00000330: 3424 a9bc 1626 bebd 5cb0 4ebd e6ae c8bc
00000340: fe10 593d 084b 3c3d 2a81 91bb c168 efbd
00000350: 259e f73c d630 05be 63cc 2abd 3dbd f6bd
00000360: 7f0f f33c 8590 f43c bf5a bfbd e9a3 1ebe
00000370: 0fb0 a83d 70e0 eebb 35fa 3a3d 5c79 10bd
00000380: fa49 323d de21 a3bd 1672 0b3d 0d6c 49bd
00000390: f814 bf3c 954b 733c ab92 9e3d ea9a d1bd
000003a0: 9d4d c23c 26c1 913c dd6e 99bc 9481 38bd
000003b0: 6690 793c 58c6 eb3d 6f64 13bd 7a04 e43d
000003c0: a0fd 903c 6a63 fcbc b3c3 3bbd d6ac 05bd
000003d0: 1115 51bc 7a24 a0bc d2be 9bbd 97cd 69bd
000003e0: 1784 013d ca56 0a3d 199d f13c 7e6b 93bc
000003f0: dab1 c0bd 2525 8dbd e093 41bd 575d 5fbd
-0.020956662 -0.060714714 -0.029346049 0.052910816 -0.039662387 0.01499324 -0.05107567 -0.112375796
-0.02931121 -0.07161961 0.07412737 -0.08256741 0.023401288 0.056091197 0.06762064 0.05815299
-0.016813142 -0.0906353 -0.053373616 -0.07696584 -0.04026521 -0.0187758 -0.04618028 -0.04733744
-0.044575516 0.022304125 -0.07279529 -0.075683266 -0.10871872 0.023442604 -0.035334226 0.10037405
-0.0010265029 -0.06615012 -0.046013784 -0.07038822 -0.09662602 -0.061896946 0.0064007933 0.021001296
-0.0411019 -0.052212697 -0.033370763 0.007974793 0.01940456 0.09226328 0.11318743 -0.037372258
-0.07077089 -0.005903116 0.08899716 -0.0065702503 -0.07724115 -0.015801862 0.08778163 -0.049352683
0.0026408772 -0.03624741 0.0040205494 -9.994513e-05 -0.04792201 -0.08666431 0.018193707 0.00556413
-0.08260823 0.0011578744 -0.011353262 -0.04002051 -0.05616166 0.02412307 -0.053870406 -0.022088222
0.041898012 0.0070411493 -0.03610708 -0.06763804 0.031132558 0.0069271415 0.079959005 0.062229846
-0.01094237 0.07047016 -0.060899734 0.07688655 -0.040063497 0.048785336 -0.01552638 0.060698286
-0.046819642 -0.04551944 -0.1022797 -0.040025227 0.038658865 0.0046405415 0.0011416121 0.048928104
0.058675412 0.05758453 -0.049992904 -0.02525841 0.07186673 -0.042813636 0.021542042 0.024580492
-0.04892565 0.007045001 0.059664674 -0.06432568 -0.020529503 -0.0722862 0.018955387 -0.07345705
0.043863196 -0.015251296 0.055098627 0.03447914 -0.028414013 -0.08744662 -0.008461668 0.069848016
-0.073190376 0.015521253 -0.015019007 -0.10374251 -0.057194155 -0.054687038 0.014869726 0.01267427
0.057097238 0.00094284787 -0.029348094 0.039604593 -0.07861492 0.07915767 0.07681304 0.07752571
0.04406134 0.022538435 -0.057070967 -0.037945323 -0.064985864 -0.10597304 -0.059005868 -0.123195425
0.0041847127 0.08047689 -0.099935204 0.07298328 0.00034742703 0.06275705 -0.05592886 -0.07730587
0.06793936 -0.045912538 -0.06707007 -0.07479421 0.025497913 0.07673221 0.026958495 -0.09424587
-0.068381146 -0.0052476185 0.0186087 0.07068383 -0.0547438 0.12920305 -0.060830936 0.05120349
0.026907668 0.03869626 0.0647218 -0.005943309 0.094595104 -0.017841972 -0.08133089 0.040041864
-0.01942125 0.04950816 -0.04899342 -0.11671776 0.08440525 0.036706105 -0.06469969 -0.0732249
0.00590419 0.07042614 0.074547686 -0.01770462 0.10264567 0.012521575 -0.0039470633 -0.02408094
-0.034788102 0.012733504 -0.018210426 -0.118081704 0.0634948 -0.109335415 0.03636724 -0.030955933
0.09358688 0.04200629 -0.0465224 -0.07856897 -0.020647146 -0.09284608 -0.05046116 -0.02449746
0.05299472 0.045969993 -0.0044404464 -0.11689902 0.030226776 -0.1300691 -0.041698825 -0.12047813
0.029670475 0.029854069 -0.0934348 -0.15492214 0.082367055 -0.0072899386 0.045648772 -0.035271987
0.04352758 -0.07965444 0.034044348 -0.04917531 0.023325428 0.014849563 0.077428184 -0.10234626
0.02371865 0.017792296 -0.018729622 -0.04504545 0.015232181 0.115124404 -0.035984453 0.11133666
0.017699063 -0.030809123 -0.04584093 -0.032635532 -0.01276137 -0.019548643 -0.076047555 -0.05708083
0.03162011 0.033774175 0.029493855 -0.017995592 -0.094089225 -0.068918504 -0.047260165 -0.054532375

bias f4 [256]
00000000: 91bb 9f3d 95f4 703d e95b 9cbd 1ec2 6c3d
00000010: 09f9 7e3d 5af0 5c3d 9eec 1f3d 7554 b73c
00000020: a877 7e3d 72b9 9f3b d157 9a3d c32a babb
00000030: 274f 263d 7400 303d 8c6a 16bd 5041 90bd
00000040: 3816 dd3c f338 a13d 686e 20bd 5268 adbd
00000050: c019 8d3a 06e5 79bd 87e9 9bbd 5260 4cbd
00000060: 383a 01bd 1a3f 763d b092 c53c 0a36 843b
00000070: 17bf a3bd e021 a93d ebff 32bd cd32 133d
00000080: 2710 153d 8f06 723d 90e1 793d 2f8e 93bd
00000090: 1907 8c3c dc39 3ebd efb4 c1bd 3171 74bd
000000a0: dce8 733c fda9 17bd 732b 813d 204b 4fbd
000000b0: 651a 65bd 5906 01bc 46ed a0bc 505a 3fbd
000000c0: d8f1 a23c 3b27 66b9 256c a5bd 3250 1bbd
000000d0: 3cda a3bd e2f5 a23b 4194 b4bc 9ef9 6d3d
000000e0: a3d7 31bd d201 5a3d 7997 883d 5b19 173d
000000f0: d9b5 603c 1eaa e03c 2bd6 103d 2505 bbbd
00000100: 545a 5eb8 8a57 a53c 9042 41bd c29b 333d
00000110: ee90 1d3d 6c5a 6d3d 6343 c23c 8bb1 b6bd
00000120: ce3f 8fbd a7ba d0bd 1dae 193d 9738 953c
00000130: 9eee b23c c301 8cbd 21ba 193d 1314 94ba
00000140: f84f 1c3d 5536 823d 4411 26bd 5eb8 11bd
00000150: 41d2 eabb 1d8b d83c f8d0 673d 1089 b5bd
00000160: df7f 1fbc 1655 853c 0cbd 33bc 55f2 533d
00000170: fa6f 2f3d 7db7 b4bd 785c 4cbd 31f2 69bd
00000180: 7e45 823d d6da 8abd e152 aabd 7c9c 783d
00000190: bd52 aabd ccd3 3c3d facb 223d 058b 22bd
000001a0: 71dd 9a3c 71ee 043d 5817 a0bd ddc5 53bc
000001b0: 3dd4 8a3c 0aa6 0fbd 0138 9ebd 3904 5abd
000001c0: 1d38 e4bb 1a67 ae3c 31f4 183d b81a 6a3d
000001d0: 7617 463d dc7d af3d 0072 9ebd 7e38 d63c
000001e0: dc8c 7cbd 6d47 9a3c ea17 0e3c 8e9a a03c
000001f0: fc98 88bd 30f7 823d 924f 503c 0a71 b6bd
00000200: a292 cd3c b4d6 8bbd 8ff1 6bbc 1d0c acbd
00000210: 335b edbb b466 923d 82bb 9cbd ad00 a4bd
00000220: 1ce7 b33d b4cb a6bd 4444 cbbc 3d08 b13d
00000230: e270 d43b 90d8 963d 10ca 5dbd 9488 47ba
00000240: cf28 833d 841d fe3c 2f59 0f3c 55cc 343d
00000250: be3b 983d 4472 f3bb 27a3 f8bc 15ec 253d
00000260: f377 f43c b1bb c5bb 95a2 eaba 8750 b33c
00000270: 00f8 cf3c 7354 993c 0610 713c 3a39 81bd
00000280: 4afd 7a3c 380d 2cbd 9068 95bd 686d 343d
00000290: f659 883d e33a f5bb 8fac 953d d724 a1bd
000002a0: 07e8 a83d 0627 e3bc 641d 70bd 9ab8 dd3c
000002b0: 34c3 80bc 92dc 92bd 0896 3c3c 177a 35bd
000002c0: 85dd a5bd c248 a23d 4f2d 233c eeea d0bc
000002d0: 0a02 72bc 1ebc 523c 34e6 503d 8e40 b53c
000002e0: c767 93bd 26ff 503d d127 4a3d 02fb a03d
000002f0: dc2c a13d bb68 1e3d bc78 d6bc dfba 60bd
00000300: a599 a73d 32f0 1dbd c1f1 9b3c 044d bbbd
00000310: 487c babd 647c eebb 4c92 7ebc e0fd ce3a
00000320: 148b 543d 3694 8fbd 1825 f3bb 9103 813d
00000330: 3b61 733d 00bf 1dbc dd02 bbbd d690 a13d
00000340: 7556 983d 8de8 aabd 98f9 8fbc d8b9 363d
00000350: 881e b53c 2f70 433d b7ab 47bd 1a59 4b3d
00000360: c759 59bb 6483 8abd c549 aabd d7e3 a7bc
00000370: dc4b b0bd 74aa d53c 65b1 093d 2944 8ebd
00000380: 025e 683c 3af5 683d 9a0b 9f3d 6973 b9bd
00000390: c883 593d e380 143c 9727 c1bd defd 99bd
000003a0: 6fe2 9fbd 1dce f53c e307 39bd 1300 94bb
000003b0: 6835 aabb 447b ed3c ee5d a9bd fdbf adbd
000003c0: d0bc b2bd 00d9 2a3d abc4 fe3c d43c 743d
000003d0: 9674 34bd 5f06 843d 1a11 8dbd f6a1 a0bd
000003e0: ec3d 4fbd 576a 85bd 5d0c ce3c 6dc1 56bd
000003f0: e19d 6a3d 45e1 983d 4078 283d 9b3b 3abd
0.07799447 0.058827 -0.07634718 0.057802312 0.062249217 0.053940155 0.039044015 0.02237914
0.06212583 0.0048744017 0.07536281 -0.005681367 0.04060283 0.042969182 -0.036722705 -0.07043707
0.026988134 0.0787219 -0.03916779 -0.08467163 0.001076512 -0.06100943 -0.07612901 -0.049896546
-0.031549662 0.060118772 0.024117798 0.0040347623 -0.07995432 0.08258414 -0.043701094 0.03593712
0.036392357 0.059088286 0.06100613 -0.07204854 0.017093228 -0.046441898 -0.094583385 -0.05967826
0.014887061 -0.037027348 0.063071154 -0.050608754 -0.055933375 -0.007875049 -0.01964439 -0.046716988
0.01989071 -0.00021949124 -0.080772676 -0.037918277 -0.08000609 0.004973159 -0.02204335 0.05809938
-0.043418538 0.053224392 0.06669516 0.036889415 0.013715231 0.027424868 0.035360496 -0.091318406
-5.301305e-05 0.020183343 -0.04718262 0.043849714 0.038468294 0.05794756 0.023713773 -0.089205824
-0.06994592 -0.10191851 0.037519563 0.01821546 0.021842297 -0.068362735 0.037531022 -0.0011297486
0.0381622 0.06358019 -0.04054381 -0.035576217 -0.0071661775 0.026433522 0.056595773 -0.08864033
-0.009735077 0.016275924 -0.010970365 0.051744778 0.0428314 -0.0882406 -0.049892873 -0.057115737
0.06360911 -0.06780021 -0.08316589 0.06069611 -0.08316562 0.046100423 0.03974531 -0.03968336
0.01890442 0.032453958 -0.078169525 -0.012925592 0.016946906 -0.035070457 -0.07725526 -0.053226683
-0.006964697 0.021289397 0.037342254 0.057154387 0.048362218 0.08568928 -0.077365875 0.026149984
-0.06165777 0.018832887 0.008672694 0.019604947 -0.066698045 0.063948035 0.012714284 -0.08908279
0.025094334 -0.06828061 -0.014400854 -0.08400748 -0.007243538 0.07148495 -0.07652952 -0.080079414
0.08784315 -0.08144322 -0.024812825 0.086441495 0.0064831832 0.07365525 -0.05414778 -0.0007611599
0.06404268 0.031019934 0.00874929 0.04414018 0.0743327 -0.007429393 -0.030351235 0.04050835
0.029842352 -0.0060343374 -0.0017901236 0.021888984 0.02538681 0.018717026 0.014713293 -0.06309743
0.015319178 -0.042004794 -0.07295334 0.04404965 0.06657784 -0.0074838265 0.073083036 -0.07868355
0.08247381 -0.027728569 -0.05862178 0.027065564 -0.01571808 -0.07170977 0.01151038 -0.044305887
-0.08098892 0.07924034 0.009959533 -0.025502648 -0.014770994 0.012862233 0.05100079 0.022125509
-0.07197528 0.05102458 0.049354378 0.07860376 0.07869884 0.038674098 -0.026180618 -0.054865714
0.08183602 -0.038559146 0.019036176 -0.09145549 -0.09105736 -0.007278012 -0.01553781 0.0015792213
0.051890448 -0.07010691 -0.0074201934 0.06299508 0.059418898 -0.0096280575 -0.091314055 0.078889534
0.07438365 -0.08345137 -0.01757507 0.04461083 0.022109285 0.04771441 -0.048747744 0.04964552
-0.0033165084 -0.06763342 -0.08314852 -0.020494385 -0.08608219 0.026082255 0.033616442 -0.06946594
0.014182569 0.05687449 0.07765885 -0.09055216 0.053104192 0.009063932 -0.09431379 -0.075191244
-0.07806861 0.030005509 -0.045173537 -0.0045166104 -0.005194355 0.028989442 -0.08269869 -0.084838845
-0.087274194 0.041710854 0.031099638 0.059628323 -0.044056498 0.06446528 -0.068880275 -0.078433916
-0.050596163 -0.06514423 0.02515238 -0.05243056 0.05727947 0.07464842 0.041130304 -0.045467
