src/saved_models/grid_world_seed125_8_4_18_45/125_16_model.pt (torch, 702535 bytes, 11 tensors)

FC1.weight f4 [256, 36]
0.19956675 -0.02735375 0.06508816 -0.051963996 0.009063551 0.13878171 -0.0037071698 -0.0626693
0.16504082 -0.16438618 0.13188984 0.049773496 -0.019112505 0.20312843 0.066586554 0.2551041
0.14529398 0.086218126 0.032155555 0.1734833 -0.08748734 0.10549072 0.2531128 0.10023017
-0.04025334 -0.013810712 0.29018763 0.118606746 0.020097403 0.1750256 -0.008035863 0.19774619
-0.103588015 0.10404567 -0.080383845 0.13966723 -0.029687067 0.12822883 0.0613718 0.099062935
0.055072974 0.029961256 -0.119305104 0.11283911 0.04092158 -0.029416505 -0.0078063244 -0.07455373
-0.038284577 0.0304343 0.028275311 0.07444502 0.16794164 0.13597757 -0.0105819395 0.11213997
0.06241211 -0.023095598 0.05766942 -0.15924434 -0.055640932 0.03816158 0.047778428 -0.12229034
0.03906108 -0.07976877 -0.065192856 -0.054836202 0.025311034 -0.030916885 -0.0024654402 0.12794687
0.12869592 0.010204635 -0.021828867 -0.0134618 0.2257534 0.22407605 -0.0105156815 0.21512693
0.08247255 0.01832687 -0.06920126 0.07577904 0.23881589 0.14579418 -0.052557036 0.18534906
0.13235009 -0.04503954 -0.036635183 -0.08261154 -0.043294113 0.15946914 0.038096074 -0.051560603
0.014454159 -0.016717212 0.11119601 0.13104272 0.1083441 -0.025904601 -0.07388528 0.23163736
0.028885294 0.11233333 -0.12055669 0.12135644 -0.10112018 0.017438369 0.04802094 -0.034218453
0.078411944 -0.06490704 -0.1028979 -0.04793732 -0.052720614 0.15021995 0.1274193 -0.12995921
0.01676326 -0.10553746 0.12918185 0.06992916 0.020922448 -0.16815722 0.115140185 -0.0424879
-0.15488361 -0.1627014 0.02978497 0.06938081 -0.083247535 0.105387256 0.10378152 -0.11710143
0.06995355 0.03309019 0.11810778 -0.07581296 -0.05407753 -0.15699744 -0.020025285 0.09698002
0.1493818 0.16379118 0.1784989 0.016102988 -0.024023974 0.09937413 0.12242298 0.022126282
-0.07523944 -0.13224587 0.08614943 -0.011714639 -0.021843774 0.16929528 0.027781924 0.17507356
0.015338792 0.14735335 -0.0931422 -0.09501973 0.09060408 -0.07353327 -0.052536998 -0.101373285
-0.10378529 -0.009714799 -0.031035136 0.026045967 0.06447901 -0.109874904 0.1591927 0.06326322
-0.13146333 -0.0803396 -0.012975676 -0.074591 0.05954927 -0.078058355 0.0478718 -0.07255575
-0.14156632 -0.04892775 0.03093904 0.015664078 -0.14412792 0.0995229 -0.010939246 -0.099060014
-0.13269173 -0.0026865667 -0.07406968 -0.09120039 0.09872849 -0.11015505 0.14249417 -0.09826409
-0.16033292 -0.1684719 -0.045967687 0.07214024 -0.031463545 -0.0877753 -0.10767656 -0.025896251
-0.007896745 -0.11694467 0.013580247 -0.17934133 -0.15752481 -0.12247008 0.08480439 0.06894159
-0.07333042 -0.14622478 0.09588544 -0.046207126 0.06422308 -0.07337833 0.1239103 0.019090192
-0.09048586 -0.08192168 -0.0418678 0.077861115 0.12938589 0.086447604 -0.046041146 -0.17001773
0.13912442 0.03606154 -0.10945005 -0.05131894 0.0471108 -0.15047474 0.004747351 0.041261274
-0.060102835 0.016762683 -0.08581625 -0.030785704 0.019034784 -0.036483444 -0.14658883 -0.051837984
-0.116129324 -0.11286838 0.14878623 -0.10903752 0.047889758 0.048448145 0.14387634 0.1540105
00000000: 3a5b 4c3e f914 e0bc f14c 853d 33d8 54bd
00000010: 4a7f 143c cb1c 0e3e fdf3 72bb c358 80bd
00000020: 7600 293e da54 28be 210e 073e 4bdf 4b3d
00000030: d491 9cbc e600 503e 885e 883d 019d 823e
00000040: f2c7 143e 2193 b03d 8bb5 033d 9ba5 313e
00000050: 902c b3bd 850b d83d 0098 813e 7a45 cd3d
00000060: b0e0 24bd 5346 62bc 7993 943e 18e8 f23d
00000070: 4fa3 a43c e939 333e daa8 03bc fa7d 4a3e
00000080: f425 d4bd e515 d53d 49a0 a4bd ed04 0f3e
00000090: 4b32 f3bc 6b4e 033e ff60 7b3d 82e1 ca3d
000000a0: 3394 613d 4f71 f53c 3c56 f4bd 3118 e73d
000000b0: 639d 273d e2fa f0bc 32cc ffbb a0af 98bd
000000c0: 4ad0 1cbd 5a51 f93c a0a1 e73c a176 983d
000000d0: e5f8 2b3e b43d 0b3e df5f 2dbc a4a9 e53d
000000e0: d7a3 7f3d fb32 bdbc c536 6c3d f310 23be
000000f0: bfe7 63bd 514f 1c3d 50b3 433d 5c73 fabd
00000100: 83fe 1f3d cf5d a3bd d583 85bd ed9b 60bd
00000110: 1659 cf3c 6845 fdbc 3993 21bb 8104 033e
00000120: ddc8 033e 5731 273c 74d2 b2bc e28e 5cbc
00000130: e62b 673e 3174 653e f749 2cbc 3c4a 5c3e
00000140: 5ee7 a83d 3b22 963c 64b9 8dbd 0b32 9b3d
00000150: 278c 743e 124b 153e 0c46 57bd 25cc 3d3e
00000160: c886 073e 617b 38bd c60e 16bd 3d30 a9bd
00000170: 2b55 31bd e14b 233e a10a 1c3d 3631 53bd
00000180: 23d1 6c3c 89f2 88bc bcba e33d 1030 063e
00000190: 83e3 dd3d e335 d4bc 2a51 97bd 5832 6d3e
000001a0: daa0 ec3c 040f e63d 6de6 f6bd ba89 f83d
000001b0: 1918 cfbd e9da 8e3c 9bb1 443d a628 0cbd
000001c0: 7196 a03d fbed 84bd 22bc d2bd ec59 44bd
000001d0: 92f1 57bd 42d3 193e 347a 023e 0714 05be
000001e0: 1b53 893c 0624 d8bd 3f48 043e 0537 8f3d
000001f0: 8e65 ab3c 6831 2cbe 9ece eb3d cb07 2ebd
00000200: cf99 1ebe 329b 26be 9cff f33c 8717 8e3d
00000210: af7d aabd 46d5 d73d 688b d43d e0d2 efbd
00000220: cf43 8f3d 9489 073d 7ee2 f13d d343 9bbd
00000230: 6680 5dbd f0c3 20be 110c a4bc 769d c63d
00000240: 8bf7 183e e0b8 273e 6ac8 363e 6aea 833c
00000250: edcd c4bc aa84 cb3d e6b8 fa3d 2d42 b53c
00000260: 2317 9abd 766b 07be 1d6f b03d c2ee 3fbc
00000270: b7f1 b2bc be5b 2d3e eb96 e33c 7c46 333e
00000280: 8f4f 7b3c cce3 163e 56c1 bebd b499 c2bd
00000290: a28e b93d 9c98 96bd 0931 57bd cc9c cfbd
000002a0: 628d d4bd d22a 1fbc 663d febc 5a5e d53c
000002b0: 920d 843d 1806 e1bd 6903 233e 2690 813d
000002c0: 539e 06be 1789 a4bd ee97 54bc 2bc3 98bd
000002d0: efe9 733d 0fdd 9fbd 3815 443d 1c98 94bd
000002e0: c3f6 10be 7768 48bd df73 fd3c f451 803c
000002f0: 4596 13be aad2 cb3d 863a 33bc fadf cabd
00000300: 57e0 07be 1c11 30bb d8b1 97bd 45c7 babd
00000310: 2a32 ca3d f998 e1bd fee9 113e af3e c9bd
00000320: 502e 24be e683 2cbe 9d48 3cbd 43be 933d
00000330: ebdf 00bd 89c3 b3bd 8785 dcbd 6024 d4bc
00000340: 5961 01bc b080 efbd af7f 5e3c 41a5 37be
00000350: 2f4e 21be 98d1 fabd edad ad3d 4031 8d3d
00000360: 422e 96bd f3bb 15be 965f c43d af43 3dbd
00000370: 6487 833d 6147 96bd afc4 fd3d 0963 9c3c
00000380: a750 b9bd 8ec6 a7bd 927d 2bbd a675 9f3d
00000390: bc7d 043e 710b b13d a495 3cbd 2119 2ebe
000003a0: a276 0e3e 44b5 133d 5927 e0bd cf33 52bd
000003b0: 41f7 403d 0d16 1abe ab8f 9b3b 9501 293d
000003c0: 642e 76bd e551 893c 6ec0 afbd 4d32 fcbc
000003d0: d6ee 9b3c aa6f 15bd 621b 16be 1154 54bd
000003e0: 36d5 edbd 8a27 e7bd 6b5b 183e 104f dfbd
000003f0: 0d28 443d 9071 463d 5254 133e eeb4 1d3e

FC1.bias f4 [256]
0.029279072 -0.030454118 -0.020459725 -0.09902112 0.18563387 0.119961165 0.08151676 0.16119476
0.094736084 -0.010033857 0.09988323 -0.0737545 0.13845323 0.16575854 -0.13313496 0.08732588
-0.04089328 0.024799049 -0.11882475 -0.039740317 -0.1732254 -0.16063802 -0.07087649 0.1207878
-0.05352562 0.01054991 -0.07519261 0.019977089 0.033211987 -0.03673212 -0.10557576 -0.123030506
-0.012262237 0.06926696 0.17552103 0.15269578 -0.03740722 0.11904058 -0.08960377 -0.16166617
0.026852526 0.11173904 0.17710356 0.07472983 -0.04359059 0.16577585 0.10473362 -0.1009543
0.097283415 0.11453314 0.06960149 0.060450986 0.0970578 0.16441348 -0.06479015 -0.05387986
-0.11502272 0.122820236 -0.16909927 0.00044143948 0.14805771 -0.17003629 0.09736303 -0.15427704
-0.07368694 0.058531407 -0.025783999 0.19146648 0.098370865 -0.06600933 -0.18823808 -0.11938292
-0.13742253 0.07569892 0.057968058 0.09712115 -0.025733003 0.08718255 0.1510372 -8.673848e-05
0.08702463 0.07757943 -0.03406687 -0.1201262 -0.06480536 -0.14851138 -0.077744156 0.033419687
0.057401158 0.053295955 0.107639775 0.17799653 0.16966647 -0.049901355 0.16623396 0.007974048
-0.10776385 -0.1077193 -0.042204387 -0.11231598 0.17140046 -0.12666588 0.12510733 0.14915618
0.13662899 -0.03811388 -0.056411594 0.036462072 -0.0047679045 -0.12511042 -0.09705493 -0.097335555
-0.036206264 0.10700186 0.057110015 -0.03273117 0.076050326 0.17480311 0.10684965 0.018426089
0.036147997 -0.15278217 0.15414077 -0.09996819 -0.16226372 -0.016953774 -0.12462213 0.0887355
-0.07426839 0.17448562 0.064267665 -0.08150391 -0.0036971506 -0.016604166 -0.15876848 0.18269962
-0.14234415 0.060736526 -0.021887103 0.12256349 0.0006071827 0.08790631 0.05848171 -0.1632881
-0.09296745 -0.13900991 -0.08837418 0.07367368 0.11410046 0.0612888 -0.121969834 0.10093418
0.14056765 -0.04437306 -0.018100495 -0.051520158 0.19566345 0.15428677 -0.010256624 -0.10494848
0.040847324 0.20906852 0.13992783 0.17854527 0.06876331 0.16345356 0.059295136 0.18103962
-0.062109213 -0.08832888 -0.10988367 0.0033232567 -0.021983277 0.051960967 0.18394917 0.14189336
0.00078079314 -0.11894585 -0.058388453 -0.01934414 0.18614481 -0.17679377 -0.09887785 0.2564398
-0.08377427 -0.0020801714 0.05959727 -0.028267063 -0.110052824 -0.071564734 0.06703896 -0.063042074
-0.16401772 -0.03640165 -0.10407175 0.08960981 0.059077583 0.12658073 0.16270946 -0.15974984
0.106133014 -0.005956756 -0.025084574 0.05644158 -0.10201232 -0.11816033 0.09993395 -0.14241967
0.08888918 0.039170284 0.09988152 0.15106972 -0.15008667 0.12632172 -0.101487935 -0.034290686
-0.08055379 -0.010865229 0.013366631 0.12649275 -0.0021350437 0.117647834 -0.19396396 -0.09024439
-0.14412907 -0.10231686 0.08003056 0.11433221 0.14235286 -0.14114623 0.050624486 -0.14035153
-0.039663702 0.041503094 -0.111098096 -0.15646614 -0.057008967 0.11172958 -0.12613374 -0.13916425
0.18204741 -0.09141751 0.12314331 -0.011056135 0.1616685 0.08756781 -0.14060387 0.10542418
0.05292955 -0.09419136 -0.046510704 0.16728547 -0.18028328 -0.15361808 -0.14671403 0.16482946
00000000: aada ef3c ea7a f9bc 279b a7bc 96cb cabd
00000010: ce16 3e3e 33ae f53d 42f2 a63d 3d10 253e
00000020: fe04 c23d 0c65 24bc 948f cc3d 990c 97bd
00000030: afc6 0d3e 9bbc 293e 8854 08be e9d7 b23d
00000040: b67f 27bd 6027 cb3c 645a f3bd bec6 22bd
00000050: 0062 31be 4b7e 24be b127 91bd 985f f73d
00000060: ae3d 5bbd 88d9 2c3c 95fe 99bd fea6 a33c
00000070: 4b09 083d 6b74 16bd 1b38 d8bd 6bf7 fbbd
00000080: 8de7 48bc d6db 8d3d c9bb 333e 485c 1c3e
00000090: 5038 19bd 8ccb f33d 2e82 b7bd d18b 25be
000000a0: d4f9 db3c 70d7 e43d a35a 353e f40b 993d
000000b0: 0c8c 32bd 25c1 293e 957e d63d 21c1 cebd
000000c0: 873c c73d 5a90 ea3d 3a8b 8e3d 749b 773d
000000d0: 3dc6 c63d 025c 283e b3b0 84bd 21b1 5cbd
000000e0: 0891 ebbd 2d89 fb3d 5c28 2dbe 0171 e739
000000f0: 719c 173e fe1d 2ebe 4566 c73d cdfa 1dbe
00000100: 2ee9 96bd a1be 6f3d f738 d3bc ca0f 443e
00000110: aa76 c93d e62f 87bd 7cc1 40be 087f f4bd
00000120: 7eb8 0cbe 0908 9b3d ea6f 6d3d 74e7 c63d
00000130: 05ce d2bc c48c b23d 7fa9 1a3e 5ee7 b5b8
00000140: f839 b23d f7e1 9e3d b489 0bbd ba04 f6bd
00000150: acb8 84bd 5e13 18be 5438 9fbd 15e3 083d
00000160: 7a1d 6b3d dc4c 5a3d 3e72 dc3d b944 363e
00000170: 0cbd 2d3e 5d65 4cbd 3c39 2a3e 95a5 023c
00000180: 4bb3 dcbd f09b dcbd 82de 2cbd ec05 e6bd
00000190: 9a83 2f3e b3b4 01be 231c 003e 66bc 183e
000001a0: 78e8 0b3e 4d1d 1cbd d80f 67bd 4159 153d
000001b0: 153c 9cbb f21c 00be bcc4 c6bd dd57 c7bd
000001c0: 054d 14bd cb23 db3d 31ec 693d 1f11 06bd
000001d0: 46c0 9b3d 96ff 323e fdd3 da3d 4ff2 963c
000001e0: ec0f 143d ee72 1cbe 14d7 1d3e 1fbc ccbd
000001f0: 7628 26be a4e2 8abc e339 ffbd f5ba b53d
00000200: 071a 98bd 5cac 323e c49e 833d 86eb a6bd
00000210: e54b 72bb 7605 88bc 3494 22be 9c15 3b3e
00000220: aac2 11be ddc6 783d 954c b3bc 9102 fb3d
00000230: 572b 1f3a 3908 b43d 848a 6f3d ff34 27be
00000240: b865 bebd 9d58 0ebe 86fd b4bd 3ae2 963d
00000250: 81ad e93d f709 7b3d 52cb f9bd 94b6 ce3d
00000260: f7f0 0f3e 87c0 35bd 7d47 94bc cd06 53bd
00000270: 005c 483e 5afd 1d3e 660b 28bc 3bef d6bd
00000280: 864f 273d 0f16 563e 3e49 0f3e 92d4 363e
00000290: c7d3 8c3d 5f60 273e 75df 723d 7362 393e
000002a0: 3b66 7ebd c6e5 b4bd b10a e1bd ffca 593b
000002b0: 4616 b4bc 06d5 543d 2c5d 3c3e 7e4c 113e
000002c0: 24ae 4c3a e299 f3bd bb28 6fbd 9a77 9ebc
000002d0: bf9c 3e3e 6d09 35be 7880 cabd 144c 833e
000002e0: d891 abbd 7c53 08bb 441c 743d 5490 e7bc
000002f0: 6063 e1bd 8890 92bd b94b 893d 341c 81bd
00000300: 43f4 27be e619 15bd 9223 d5bd 5985 b73d
00000310: 56fb 713d 619e 013e 4f9d 263e 7695 23be
00000320: 445c d93d e430 c3bb 2a7e cdbc 492f 673d
00000330: d6eb d0bd 0bfe f1bd 2caa cc3d 76d6 11be
00000340: 880b b63d 0571 203d af8e cc3d 05b2 1a3e
00000350: 52b0 19be 7b5a 013e e8d8 cfbd 6474 0cbd
00000360: 63f9 a4bd 1304 32bc b7ff 5a3c 5187 013e
00000370: 17ec 0bbb 59f1 f03d 7d9e 46be 0dd2 b8bd
00000380: 9296 13be 808b d1bd 10e7 a33d 0127 ea3d
00000390: f3c4 113e a388 10be 9f5b 4f3d 50b8 0fbe
000003a0: 6876 22bd 26ff 293d 6687 e3bd a938 20be
000003b0: 3c82 69bd 7ad2 e43d 3429 01be 1381 0ebe
000003c0: a36a 3a3e 1a39 bbbd 8f32 fc3d cb24 35bc
000003d0: 6d8c 253e c156 b33d 76fa 0fbe a2e8 d73d
000003e0: a8cc 583d 66e7 c0bd 0282 3ebd e24c 2b3e
000003f0: 2e9c 38be 0f4e 1dbe 343c 16be 0ec9 283e

FC2.weight f4 [256, 256]
-0.10205658 0.045259744 -0.097301304 -0.05112509 -0.05761642 -0.0023054346 -0.01051315 -0.041865524
0.037824705 -0.0006866404 0.00966261 -0.10000751 -0.105228744 0.01018512 0.0076922937 -0.020539884
0.0112688225 -0.015682453 0.01112435 -0.011344023 0.025231471 0.0371823 -0.055836592 0.029852146
0.015741333 -0.0409525 0.0072893747 -0.037599474 -0.056395374 0.009624867 0.03559241 -0.060947765
0.013343504 -0.04981828 0.023120014 -0.00435359 0.029400866 0.014907989 -0.07801358 -0.00027971176
-0.002160358 -0.0289551 -0.022474332 0.040449373 0.010483255 -0.074404635 -0.072509535 -0.08117975
-0.05960601 0.009646638 -0.06119625 0.017356548 0.036535684 0.028657628 -0.05444078 -0.034543432
-0.01556767 -0.017344031 0.040026087 -0.030224493 0.043472305 -0.04784351 -0.06837167 0.0057610534
-0.06657759 -0.03916379 -0.033919115 -0.03548879 -0.0578061 -0.0013413454 0.04083284 -0.016036112
-0.06215397 -0.018300505 -0.0699055 -0.08070806 -0.098488 -0.14851122 -0.08364365 0.0291444
-0.0374642 -0.052541003 0.04459962 0.021186786 0.008770075 -0.033122003 -0.09251019 0.030574823
-0.022769889 -0.04988119 -0.010313402 0.038338345 -0.0026095829 -0.06832047 -0.043884907 -0.088543236
0.026458012 0.043369357 -0.021879751 -0.0609803 -0.04019915 -0.014675458 -0.061884657 0.0074250726
-0.23688151 -0.02770662 0.017031971 0.04021925 -0.091366954 -0.05254528 0.005475045 0.044164263
-0.02099953 -0.013528704 -0.08639415 -0.04181971 -0.020692205 -0.06315611 -0.06747404 0.051438563
0.037046324 -0.05702599 0.03644784 0.016708056 0.027762301 -0.12947834 -0.023525074 -0.09003337
-0.080206655 -0.003645232 -0.0542664 -0.035553016 0.018945474 -0.048152246 0.025625575 -0.046355452
0.03794428 -0.043151923 0.032848816 -0.020285869 0.025014719 0.022224635 -0.033088177 -0.034035865
-0.027898114 -0.016841844 -0.03175809 -0.040339727 -0.08384586 -0.047619704 -0.0025337217 -0.042161595
-0.00966145 0.0038254203 -0.016078118 -0.082513176 -0.05733218 -0.047755476 -0.04536351 -0.049961813
0.010695804 -0.012945206 -0.036665853 -0.036277026 -0.020830357 -0.011637973 -0.023653306 -0.07777148
-0.021281993 -0.096038155 -0.004104323 0.044398785 -0.0022897217 -0.009816185 -0.047002763 -0.04953158
0.018276975 -0.016708063 -0.0031118114 -0.0201762 0.037878357 0.04494183 -0.013998362 -0.140732
-0.029912805 0.038888793 -0.05196554 -0.010491468 -0.06722642 0.015558973 -0.096393466 -0.037340127
-0.058253966 0.046926256 0.012998813 -0.010065533 -0.06777295 -0.039831687 0.039009854 0.03389489
0.029731665 -0.028495982 -0.059107706 -0.04108238 -0.0883751 0.0074463803 0.008448128 -0.067851335
-0.03196115 -0.022888279 -0.022102434 -0.08655706 -0.04679747 -0.013245356 -0.033256263 0.011701556
-0.055736803 -0.037277974 -0.02540112 -0.075964496 -0.027880346 -0.005316856 0.048755117 -0.0863956
0.030566726 -0.08388878 -0.057997365 -0.03685895 -0.03175008 0.026591199 -0.057145882 -0.057801556
-0.013559637 -0.11582321 0.019778604 -0.04429524 0.02522884 0.027129054 -0.058260664 -0.07949395
-0.06008576 -0.055766653 -0.0028026141 0.0027566717 -0.015455126 -0.063180305 -0.025251042 -0.0018362476
-0.011365492 0.021611193 0.03200405 -0.07676041 -0.03968984 0.011745045 0.053084075 -0.034127958
00000000: 0a03 d1bd 4862 393d e845 c7bd 8b68 51bd
00000010: 32ff 6bbd c616 17bb 593f 2cbc 2f7b 2bbd
00000020: 14ee 1a3d a8ff 33ba ec4f 1e3c bdd0 ccbd
00000030: 2b82 d7bd 7ddf 263c a30f fc3b 4243 a8bc
00000040: dea0 383c 7d78 80bc e842 363c 48dc 39bc
00000050: 3bb2 ce3c 784c 183d e9b4 64bd 7d8c f43c
00000060: f8f3 803c cfbd 27bd b5db ee3b e801 1abd
00000070: d6fe 66bd 9eb1 1d3c 59c9 113d 5da4 79bd
00000080: b69e 5a3c 410e 4cbd 2f66 bd3c 8fa8 8ebb
00000090: 16da f03c a340 743c 95c5 9fbd 47a6 92b9
000000a0: cb94 0dbb 3f33 edbc 171c b8bc 3eae 253d
000000b0: f5c1 2b3c 7561 98bd e17f 94bd 9241 a6bd
000000c0: 6e25 74bd ef0c 1e3c eba8 7abd 522f 8e3c
000000d0: 71a6 153d 67c3 ea3c 4cfd 5ebd 6a7d 0dbd
000000e0: 8a0f 7fbc 1215 8ebc 65f2 233d 5b99 f7bc
000000f0: 0410 323d 8ef7 43bd 7206 8cbd 38c7 bc3b
00000100: d559 88bd 366a 20bd c5ee 0abd b25c 11bd
00000110: 17c6 6cbd 15d0 afba 5640 273d 2a5e 83bc
00000120: 2995 7ebd f1ea 95bc 9d2a 8fbd 444a a5bd
00000130: 14b4 c9bd 5313 18be 5d4d abbd 3dc0 ee3c
00000140: 1074 19bd 3c35 57bd 17ae 363d e98f ad3c
00000150: 5cb0 0f3c f0aa 07bd fc75 bdbd 0d78 fa3c
00000160: eb87 babc 3850 4cbd 8bf9 28bc ab08 1d3d
00000170: 8905 2bbb 9aeb 8bbd a9c0 33bd 2856 b5bd
00000180: 79be d83c 11a4 313d 2a3d b3bc 7bc6 79bd
00000190: dda7 24bd 5571 70bc c47a 7dbd 064e f33b
000001a0: 1191 72be fef8 e2bc a286 8b3c f1bc 243d
000001b0: 991e bbbd b839 57bd 0268 b33b 96e5 343d
000001c0: 3507 acbc 7fa7 5dbc 6bef b0bd 254b 2bbd
000001d0: b382 a9bc fe57 81bd d42f 8abd 3eb1 523d
000001e0: e3bd 173d 1694 69bd 554a 153d 55df 883c
000001f0: c46d e33c f895 04be a8b7 c0bc 6a63 b8bd
00000200: 6343 a4bd d8e4 6ebb 7246 5ebd 0aa0 11bd
00000210: 8a33 9b3c 4a3b 45bd baec d13c 37df 3dbd
00000220: 766b 1b3d 12c0 30bd 7b8c 063d 8d2e a6bc
00000230: abeb cc3c 7010 b63c 7887 07bd 3169 0bbd
00000240: 968a e4bc e8f7 89bc c514 02bd 453b 25bd
00000250: 61b7 abbd e10c 43bd cc0c 26bb a3b1 2cbd
00000260: 0f4b 1ebc e7b3 7a3b 42b6 83bc abfc a8bd
00000270: 26d5 6abd 3f9b 43bd 16cf 39bd c2a4 4cbd
00000280: 743d 2f3c 2118 54bc ef2e 16bd 3897 14bd
00000290: 6da4 aabc 32ad 3ebc 94c4 c1bc a746 9fbd
000002a0: 9357 aebc a7af c4bd 8f7d 86bb 80db 353d
000002b0: 280f 16bb 10d4 20bc f885 40bd a0e1 4abd
000002c0: 98b9 953c 59df 88bc 88ef 4bbb 8f48 a5bc
000002d0: 5626 1b3d ed14 383d 6359 65bc 0d1c 10be
000002e0: b30b f5bc db49 1f3d d1d9 54bd 68e4 2bbc
000002f0: 01ae 89bd 10eb 7e3c f069 c5bd f6f1 18bd
00000300: b69b 6ebd bf35 403d f9f8 543c e8e9 24bc
00000310: 8bcc 8abd 8d26 23bd ccc8 1f3d 5ed5 0a3d
00000320: d28f f33c 6870 e9bc ec1a 72bd ff45 28bd
00000330: 01fe b4bd c400 f43b 046a 0a3c a4f5 8abd
00000340: b2e9 02bd 3380 bbbc 2a10 b5bc d444 b1bd
00000350: b4ae 3fbd 0d03 59bc b837 08bd e2b7 3f3c
00000360: 464c 64bd cab0 18bd 0216 d0bc 4693 9bbd
00000370: 5365 e4bc 0539 aebb 72b3 473d 2df0 b0bd
00000380: 1267 fa3c e1cd abbd a58e 6dbd 69f9 16bd
00000390: 5f0c 02bd c9d5 d93c cd11 6abd 53c1 6cbd
000003a0: 3d29 5ebc b834 edbd bd06 a23c ed6e 35bd
000003b0: b6ac ce3c c03d de3c bca2 6ebd b9cd a2bd
000003c0: 7c1c 76bd 936b 64bd 10ac 37bb 47a9 343b
000003d0: 7f37 7dbc ad64 81bd 46db cebc 3fae f0ba
000003e0: 5436 3abc f509 b13c ae16 033d 9034 9dbd
000003f0: d091 22bd 4a6e 403c b06e 593d c2c9 0bbd

FC2.bias f4 [256]
-0.0141229145 0.008575226 0.02398028 -0.03396105 -0.0037234758 -0.014798162 -0.0069469404 0.08325158
0.059214678 0.05529977 -0.038616247 -0.0067593367 -0.0057320814 -0.024870358 0.0072394875 0.07147833
-0.04618289 -0.00730304 0.023950024 -0.015707467 0.033049606 0.022838473 0.009991353 -0.08489785
-0.0031249123 0.014847831 0.028305387 -0.010950861 0.13703544 0.013099949 0.051541783 -0.066227905
0.07403507 0.040261853 0.039361067 0.075835474 0.035310626 0.0369307 0.026951134 0.008421449
0.04062854 0.033832118 -0.068060346 0.05184015 0.026294213 0.07429822 0.08092438 -0.031201096
-0.008940534 -0.06679976 -0.0113521395 0.019028649 0.011333849 0.0975266 -0.07300549 -0.046877027
-0.049567465 0.029231833 -0.048397306 0.119277574 -0.03051161 0.029678259 -0.060912337 -0.015397566
-0.013597254 0.01137885 -0.06514809 0.033980448 0.048749685 0.08494214 0.007205442 -0.029418798
-0.014933088 0.014068285 -0.008694086 0.02649014 0.010990584 -0.0016955609 0.0229292 -0.015717154
0.014760138 0.0151695935 0.055295326 0.0062159495 0.04368625 -0.060188565 -0.0148802055 -0.06333264
-0.05397333 0.024148766 -0.0116965445 0.022139175 0.012006397 0.06622427 -0.0057281465 -0.011213817
0.07948867 -0.056055553 -0.05446632 0.052942064 -0.06565649 -0.06457716 0.03576252 0.004576361
-0.016698956 0.08141498 0.036633827 0.06369419 -0.0634773 -0.07692164 0.063428864 -0.04129812
0.023988253 -0.030658213 -0.024118038 0.042957053 0.03616408 0.022484647 -0.0287798 0.067022555
0.055179995 -0.021067942 0.06713539 0.0043921033 0.0037057984 0.011026293 -0.038780414 0.021503963
-0.054816976 -0.024702694 -0.06146869 0.053324964 0.0047624963 0.026722984 -0.029178414 -0.008839415
0.017074348 -0.015316467 -0.058169995 0.049408834 0.038939644 0.14944361 0.029719168 0.028307736
-0.08524415 -0.041518345 0.019879231 -0.044296887 0.01841748 0.035976596 -0.05047173 0.0068915505
0.050784167 -0.04212624 0.05352984 -0.0051792283 0.066835925 0.053646453 -0.05263779 -0.021280263
0.013656801 0.10340998 -0.05094865 0.08618918 0.01766797 0.029270547 0.035649385 0.041930523
0.03934165 -0.035679903 0.031062383 -0.028235871 -0.01948365 0.00086105824 0.023986984 -0.0010542661
0.019118764 0.0024711746 0.020841356 0.09702842 0.01833918 -0.07041379 0.041340835 0.057234436
0.05157847 0.087119274 0.0056953845 0.014541633 0.06776381 0.069776505 0.023481248 -0.06425372
0.04281654 -0.018752862 0.07478824 0.038642813 -0.00094860484 0.014525455 0.017500445 -0.03713376
0.019752523 0.062908836 -0.017155357 -0.05683594 -0.059633218 -0.078801066 -0.007076036 -0.063275136
0.029697532 -0.0016581321 -0.034412514 -0.049963325 -0.024584994 -0.028528191 0.01964057 0.01904861
0.10462261 0.067697585 0.012938092 0.0010566341 0.012174944 0.04190015 0.061138093 -0.010095921
-0.06568433 0.092514895 0.0354455 -0.0071292105 -0.059160765 0.008946908 0.032387994 -0.007623388
-0.058139194 0.05556583 -0.022339614 0.039487585 0.065617085 -0.04826892 0.026815979 0.010913633
-0.0239605 -0.01321437 0.039823327 -0.007244081 0.047186606 -0.028705267 0.010563942 -0.030970821
-0.02055253 0.028623803 0.054634582 -0.038363118 -0.0077343346 0.10664446 -0.057469413 -0.043042302
00000000: cc63 67bc 1b7f 0c3c 4b72 c43c be1a 0bbd
00000010: 8f05 74bb fd73 72bc 29a3 e3bb ce7f aa3d
00000020: 178b 723d 0382 623d 122c 1ebd 6d7d ddbb
00000030: 2fd4 bbbb ecbc cbbc 3939 ed3b 3b63 923d
00000040: 452a 3dbd 574e efbb d732 c43c f2ac 80bc
00000050: 065f 073d c017 bb3c c6b2 233c edde adbd
00000060: 54cb 4cbb 5144 733c b3e0 e73c 3d6b 33bc
00000070: 0553 0c3e 2ba1 563c 7a1d 533d 7fa2 87bd
00000080: b39f 973d 9de9 243d 1239 213d a14f 9b3d
00000090: e0a1 103d a544 173d a0c8 dc3c 1efa 093c
000000a0: 1d6a 263d 8c93 0a3d 3963 8bbd 5656 543d
000000b0: f666 d73c aa29 983d aebb a53d 7199 ffbc
000000c0: 517b 12bc 50ce 88bd 53fe 39bc f8e1 9b3c
000000d0: 9cb1 393c 07bc c73d e783 95bd 2002 40bd
000000e0: 4107 4bbd 9977 ef3c 413c 46bd cd47 f43d
000000f0: 7cf3 f9bc d21f f33c 377f 79bd 1346 7cbc
00000100: 04c7 5ebc 5b6e 3a3c 5d6c 85bd 152f 0b3d
00000110: c0ad 473d 25f6 ad3d a11b ec3b b1ff f0bc
00000120: e9a9 74bc aa7e 663c a471 0ebc da01 d93c
00000130: da11 343c 953d deba 05d6 bb3c 43c1 80bc
00000140: 81d4 713c e389 783c 5a7d 623d 2aaf cb3b
00000150: 5af0 323d 4988 76bd 1bcc 73bc 8bb4 81bd
00000160: 2313 5dbd a2d3 c53c dda2 3fbc 375d b53c
00000170: 7bb6 443c 97a0 873d 2db3 bbbb 28ba 37bc
00000180: f5ca a23d 829a 65bd 1318 5fbd c7d9 583d
00000190: e976 86bd 0841 84bd b87b 123d 4cf5 953b
000001a0: 40cc 88bc e6bc a63d 5a0d 163d 1972 823d
000001b0: 6300 82bd 1889 9dbd fee6 813d 3828 29bd
000001c0: 0383 c43c ef26 fbbc 3193 c5bc bcf3 2f3d
000001d0: c920 143d b931 b83c 9dc3 ebbc 1f43 893d
000001e0: 6b04 623d ad96 acbc 487e 893d a2eb 8f3b
000001f0: fbdc 723b a0a7 343c 36d8 1ebd 1429 b03c
00000200: c487 60bd 4e5d cabc 98c6 7bbd 476b 5a3d
00000210: b70e 9c3b 29ea da3c 9207 efbc 32d3 10bc
00000220: 81df 8b3c ebf1 7abc a943 6ebd eb60 4a3d
00000230: 2d7f 1f3d bf07 193e 9d75 f33c a0e5 e73c
00000240: 7c94 aebd 240f 2abd c5d9 a23c a770 35bd
00000250: 41e0 963c 325c 133d 72bb 4ebd 84d2 e13b
00000260: 0f03 503d 908c 2cbd 1b42 5b3d 84b6 a9bb
00000270: 46e1 883d 62bc 5b3d b99a 57bd f253 aebc
00000280: c6c0 5f3c 9dc8 d33d 88af 50bd f483 b03d
00000290: 6bbc 903c c9c8 ef3c 1705 123d 57bf 2b3d
000002a0: b624 213d 1725 12bd 8a76 fe3c ea4e e7bc
000002b0: 2d9c 9fbc a4b8 613a 5a80 c43c 4d2f 8aba
000002c0: f49e 9c3c 6ef3 213b 7ebb aa3c d6b6 c63d
000002d0: 0c3c 963c 1b35 90bd 0255 293d a86e 6a3d
000002e0: f243 533d 976b b23d 59a0 ba3b 0840 6e3c
000002f0: c1c7 8a3d fce6 8e3d bf5b c03c 7497 83bd
00000300: 6560 2f3d 9a9f 99bc 942a 993d ed47 1e3d
00000310: cbab 78ba 2dfc 6d3c 185d 8f3c 9219 18bd
00000320: 0bd0 a13c 59d6 803d 6489 8cbc cdcc 68bd
00000330: f641 74bd 7462 a1bd 18de e7bb 6596 81bd
00000340: 3d48 f33c ae55 d9ba 23f4 0cbd 58a6 4cbd
00000350: 7866 c9bc f4b3 e9bc 43e5 a03c d50b 9c3c
00000360: 6144 d63d 08a5 8a3d 4bfa 533c c27e 8a3a
00000370: 6b79 473c 7e9f 2b3d f06b 7a3d 5d69 25bc
00000380: 8285 86bd 7378 bd3d 4d2f 113d 279c e9bb
00000390: 8f52 72bd 0d96 123c 46a9 043d 9dcd f9bb
000003a0: 5d23 6ebd ff98 633d 9101 b7bc bcbd 213d
000003b0: 4062 863d a2b5 45bd 2fad db3c 18cf 323c
000003c0: cf48 c4bc 1681 58bc c91d 233d c15f edbb
000003d0: be46 413d 4f27 ebbc 6214 2d3c 85b6 fdbc
000003e0: c85d a8bc 777c ea3c 83c8 5f3d a522 1dbd
000003f0: 4d70 fdbb 6968 da3d 0c65 6bbd 204d 30bd

action_out.weight f4 [5, 256]
0.036615048 -0.028801162 -0.002865785 -0.0035334611 0.0067557404 0.008586004 -0.006056885 -0.02241791
0.04504785 -0.04144198 -0.058374144 -0.027392372 -0.054505132 0.056011304 0.045346025 -0.008148129
-0.020003429 -0.051037237 0.03817551 0.045408763 -0.04669523 -0.0949229 0.047816385 -0.10096064
0.04309829 -0.044540226 0.0317154 -0.014877273 -0.13370025 0.042393986 -0.020740462 -0.026945364
0.015287548 0.024208594 0.0010426963 -0.015100382 0.017277196 -0.025433863 0.008307108 -0.12004389
-0.05744434 0.046562847 -0.018952562 0.047680825 -0.0061710402 0.03309352 -0.04067386 -0.017032875
0.00070593716 -0.044244975 -0.047315508 0.02155446 -0.039985936 -0.07744863 -0.08074328 -0.04996758
0.041189916 -0.024891509 0.054083765 -0.0263919 0.04791979 -0.020537214 -0.005252433 0.014595198
0.030045684 -0.038768303 -0.0029352903 0.021303438 0.0077464115 0.03634392 0.016971158 -0.046473876
-0.016978342 0.03443691 0.045490187 0.023183534 0.05720628 -0.018478975 0.015169673 -0.012303542
-0.079870336 0.021526188 -0.1293016 -0.033307694 0.033017416 0.055676587 0.04254812 0.055543162
0.011607492 0.02409319 0.029033512 -0.016134214 0.05535247 0.0333018 0.0025715432 0.02243761
-0.080584876 0.022316841 -0.009462743 -0.11154968 -0.06776394 -0.034741487 -0.087965034 -0.045963828
0.04775898 -0.09858658 -0.032744564 0.03579609 -0.040420756 -0.039931763 -0.101728305 0.0030485173
0.016259547 0.051724114 -0.0037203408 -0.0011302071 -0.04182219 0.025617627 -0.04010451 0.016450621
0.029470155 -0.002299933 -0.09900677 -0.030966314 0.042623878 -0.02955514 0.038478903 0.002812276
0.056347292 -0.11811498 0.015341431 -0.04531917 -0.0102930935 -0.0026835294 -0.018251782 -0.020177068
0.045116663 -0.008842298 -0.003617919 -0.16477089 0.032588903 -0.17034277 -0.039883513 0.029991709
-0.03251955 0.052567013 -0.0010238878 0.007515872 -0.012450384 -0.029708542 0.054195646 -0.0012829885
0.056394808 0.06084445 0.03971022 0.013559131 -0.089715056 0.004286232 0.030203605 -0.014605524
0.023255143 0.0013788223 -0.0064792945 -0.06430531 0.021041945 -0.03382731 0.00053254125 -0.04015219
0.043976195 0.016572732 0.057964068 0.032274578 0.024967315 -0.046295613 0.02949646 -0.09039101
-0.01806988 0.011308564 0.029483851 0.00796168 0.030094512 0.01397987 0.01987447 -0.0015733489
-0.08655867 -0.05072979 -0.0271394 0.011500975 0.069840275 0.0034971768 0.009607054 -0.10776059
0.025424398 0.011480276 -0.12262417 -0.0642429 0.04472095 -0.012910462 -0.058863703 -0.014282218
-0.02498369 0.044626 0.058546722 0.006306805 0.013463087 -0.09949123 -0.10619584 0.019884314
-0.024675097 -0.07649328 0.042937502 -0.02914577 0.017181437 0.04593693 -0.053408775 0.017654177
-0.034057833 -0.06579528 0.0024099918 0.028586883 -0.05254431 -0.051834058 0.010893824 -0.030015638
-0.029692698 -0.025792817 0.026170246 -0.094146855 -0.021706728 0.011553566 0.014194893 -0.08132067
-0.0077191647 0.018847302 0.03200281 0.045267988 0.042251304 -0.031790994 -0.047054026 -0.06180968
-0.058617476 -0.052272253 -0.07503438 0.019905515 -0.030066269 0.01957202 0.004459736 0.01861201
-0.014527832 -0.014170958 -0.0025536527 0.041532513 0.013463133 0.020117505 0.0057156384 0.013273044
00000000: a9f9 153d 6af0 ebbc e5cf 3bbb a491 67bb
00000010: 425f dd3b 50ac 0c3c d578 c6bb c4a5 b7bc
00000020: 1884 383d 11bf 29bd ba19 6fbd f865 e0bc
00000030: c640 5fbd 1c6c 653d c1bc 393d bb7f 05bc
00000040: 3bde a3bc 6c0c 51bd ec5d 1c3d 8afe 393d
00000050: 7f43 3fbd f066 c2bd 1ddb 433d 74c4 cebd
00000060: d587 303d d06f 36bd 02e8 013d cebf 73bc
00000070: b8e8 08be 51a5 2d3d e7e7 a9bc 86bc dcbc
00000080: a078 7a3c 1a51 c63c 15ab 883a 9867 77bc
00000090: e888 8d3c ad5a d0bc 891a 083c 92d9 f5bd
000000a0: c24a 6bbd afb8 3e3d 6742 9bbc f84c 433d
000000b0: 7036 cabb 128d 073d a299 26bd 8788 8bbc
000000c0: a40e 393a 383a 35bd e8cd 41bd fb92 b03c
000000d0: 4bc8 23bd 639d 9ebd bc5c a5bd ceaa 4cbd
000000e0: c2b6 283d 47e9 cbbc f086 5d3d d333 d8bc
000000f0: 8b47 443d a93d a8bc 9a1c acbb b320 6f3c
00000100: 5e22 f63c 83cb 1ebd 005e 40bb 8c84 ae3c
00000110: 9cd5 fd3b 5ddd 143d 1907 8b3c 645b 3ebd
00000120: 2a16 8bbc b80d 0d3d eb53 3a3d 65eb bd3c
00000130: 2251 6a3d 3861 97bc 388a 783c cc94 49bc
00000140: 0f93 a3bd b057 b03c a367 04be a66d 08bd
00000150: 453d 073d 220d 643d f046 2e3d 3a81 633d
00000160: 5a2d 3e3c 155f c53c b0d7 ed3c e62b 84bc
00000170: 46b9 623d 7867 083d 5687 283b 14cf b73c
00000180: af09 a5bd cfd1 b63c 9f09 1bbc 2974 e4bd
00000190: d2c7 8abd 174d 0ebd 0327 b4bd 9144 3cbd
000001a0: ec9e 433d c3e7 c9bd 2a1f 06bd ec9e 123d
000001b0: 3c90 25bd 7d8f 23bd ee56 d0bd a2c9 473b
000001c0: be32 853c aadc 533d f6d0 73bb 7523 94ba
000001d0: bf4d 2bbd 0fdc d13c a044 24bd 74c3 863c
000001e0: 656b f13c 79ba 16bb 10c4 cabd 11ad fdbc
000001f0: 6096 2e3d 9f1d f2bc 0e9c 1d3d 294e 383b
00000200: 6bcc 663d 44e6 f1bd a05a 7b3c 98a0 39bd
00000210: 5da4 28bc 27de 2fbb c384 95bc 614a a5bc
00000220: 40cc 383d 49df 10bc 9c1a 6dbb b3b9 28be
00000230: f17b 053d 566e 2ebe e55c 23bd 2cb1 f53c
00000240: 3833 05bd 8250 573d f933 86ba b447 f63b
00000250: b2fc 4bbc 545f f3bc 41fc 5d3d f329 a8ba
00000260: 3efe 663d 0838 793d 2fa7 223d 1e27 5e3c
00000270: 87bc b7bd 8573 8c3b 8d6d f73c 024c 6fbc
00000280: 9281 be3c 99b9 b43a 4350 d4bb 81b2 83bd
00000290: 2860 ac3c 818e 0abd 3d9a 0b3a 9f76 24bd
000002a0: 6220 343d 8ac3 873c bb6b 6d3d 5932 043d
000002b0: 4188 cc3c 78a0 3dbd 8fa2 f13c ec1e b9bd
000002c0: 4907 94bc 8e47 393c 1e88 f13c b571 023c
000002d0: c488 f63c d30b 653c c9cf a23c d438 ceba
000002e0: ac45 b1bd 0aca 4fbd 7253 debc 966e 3c3c
000002f0: 6b08 8f3d e430 653b e866 1d3c 96b1 dcbd
00000300: d446 d03c c417 3c3c 6122 fbbd c891 83bd
00000310: 512d 373d 6786 53bc 111b 71bd f7ff 69bc
00000320: 98aa ccbc c1c9 363d b0ce 6f3d 51a9 ce3b
00000330: 4894 5c3c 0fc2 cbbd 347d d9bd 6ee4 a23c
00000340: 6e23 cabc 82a8 9cbd 3cdf 2f3d 1cc3 eebc
00000350: 16c0 8c3c 5d28 3c3d 29c3 5abd 7e9f 903c
00000360: 3a80 0bbd adbf 86bd f4f0 1d3b 0a2f ea3c
00000370: b438 57bd f34f 54bd 027c 323c 5be3 f5bc
00000380: 1a3e f3bc 754b d3bc fc62 d63c 11d0 c0bd
00000390: 4fd2 b1bc 2b4b 3d3c b291 683c 748b a6bd
000003a0: 0cf1 fcbb a865 9a3c 6115 033d ed6a 393d
000003b0: b40f 2d3d 4637 02bd b9bb 40bd 262c 7dbd
000003c0: e118 70bd 6e1b 56bd a0ab 99bd e410 a33c
000003d0: 894d f6bc 8055 a03c fa22 923b 3778 983c
000003e0: 2506 6ebc 4e2d 68bc 2f5b 27bb ff1d 2a3d
000003f0: 7994 5c3c 77cd a43c 404a bb3b 2e77 593c

action_out.bias f4 [5]
-0.022013426 -0.0023524752 -0.11506898 0.042111367 0.02727098
00000000: 8055 b4bc fc2b 1abb 49a9 ebbd f87c 2c3d
00000010: 6467 df3c

weight f4 [256, 123]
-0.06811081 -0.049736496 -0.059808873 0.06388906 -0.07012518 -0.010146591 -0.06126527 -0.09479211
-0.06010274 -0.07161961 0.07412737 -0.06799959 -0.0045399643 0.030854305 0.06407849 0.0758287
-0.05317138 -0.102179684 -0.054479532 -0.09863455 -0.057333373 -0.04389167 -0.04849697 -0.029154409
-0.08481921 0.048250813 -0.0881049 -0.0730645 -0.09853005 0.039824583 -0.07735054 0.11709746
0.0015921944 -0.06615012 -0.046013784 -0.07038822 -0.1437802 -0.04732911 -0.021540465 0.03197956
-0.07156469 -0.07735281 -0.0435604 0.03267771 -0.010907534 0.103807665 0.11429328 -0.022804359
-0.098712206 -0.03114006 0.085455045 0.018232822 -0.114141494 -0.015801862 0.08778163 -0.071021385
-0.014427174 -0.061363008 0.0017036637 0.02517207 -0.09029559 -0.041733008 0.0053137843 0.008182831
-0.07988809 0.036907215 -0.033519547 -0.025921794 -0.05616166 0.026741745 -0.053870406 -0.022088222
-0.005256207 -0.014627528 -0.05317524 -0.056659706 0.00066987344 -0.018212708 0.06976947 0.043855842
-0.026100146 0.044523437 -0.045590464 0.09145437 -0.06800486 0.023548407 -0.019068632 0.042414617
-0.0654249 -0.09045069 -0.08939961 -0.061693925 0.021590838 -0.020475268 -0.0011752645 0.03099192
0.037402455 0.05758453 -0.049992904 -0.022639686 0.0824208 -0.032576926 0.052726172 0.047947057
-0.04892565 0.007045001 0.062283468 -0.06432568 0.009192952 -0.058309622 0.08486716 -0.08699301
0.042610534 -0.011337655 0.043466937 0.14713971 -0.035879157 -0.12930034 -0.030970529 0.09857719
-0.07764987 0.020036303 0.030030662 -0.16401021 -0.050533734 -0.032755423 0.021530049 0.034605872
0.06466984 0.046878304 -0.023654865 0.05095758 -0.07861492 0.07915767 0.054681685 0.07176593
0.0552692 0.048656896 -0.05242105 -0.01949074 -0.035966594 -0.041968416 -0.06310644 -0.27844295
0.017099954 0.10412314 -0.09619758 0.091347374 0.025664251 0.123700194 -0.05132606 -0.1414588
0.040034607 -0.048685104 -0.09491258 -0.07019154 0.025497913 0.07673221 0.026958495 -0.15451352
-0.090512596 -0.011007539 0.025269028 0.09261539 -0.047171116 0.1751387 -0.09656526 0.028391073
-0.0021117986 -0.025308214 0.042590424 -0.011703228 0.10580299 0.008276535 -0.119743295 0.018605145
-0.01942125 0.04950816 -0.053094067 -0.27196553 0.09732062 0.060352527 -0.10586926 -0.10040703
-0.004954288 0.10626698 0.07915036 -0.019530494 0.2354116 0.042502504 -0.0030557106 -0.02408094
-0.030185342 0.012733504 -0.018210426 -0.17834939 0.059394 -0.26458332 0.04302762 -0.009024409
0.101159394 0.08794156 -0.05363645 -0.29544383 -0.045964032 -0.15378915 -0.07259267 -0.030257335
0.06420259 0.07208851 -0.012679338 -0.27575204 0.04108532 -0.16590993 -0.045799524 -0.27572563
0.0425857 0.053500574 -0.10256227 -0.28280112 0.082367055 -0.0072899386 0.05025159 -0.038852982
0.08688861 -0.055748843 0.05803463 -0.04917531 0.023325428 0.019452307 0.077428184 -0.080447786
0.051123396 -0.024713578 -0.020104352 -0.09884598 -0.010905139 0.032986764 -0.07522272 0.111405574
-0.055139177 -0.028096454 -0.047106564 -0.05981967 0.0773604 -0.07464374 -0.076047555 -0.05708083
0.03162011 0.033774175 0.029493855 -0.017995592 -0.094089225 -0.068918504 -0.047260165 -0.054532375
00000000: ae7d 8bbd 7fb8 4bbd 26fa 74bd 44d8 823d
00000010: ca9d 8fbd e33d 26bc 4bf1 7abd 5e22 c2bd
00000020: 4a2e 76bd 4dad 92bd 17d0 973d 5e43 8bbd
00000030: fbc3 94bb 2bc2 fc3c 953b 833d 144c 9b3d
00000040: 3cca 59bd 9543 d1bd ee25 5fbd e900 cabd
00000050: 66d6 6abd c0c7 33bd c2a4 46bd 3ad5 eebc
00000060: b2b5 adbd a5a2 453d 5870 b4bd d7a2 95bd
00000070: 1fca c9bd 1a1f 233d f669 9ebd cbd0 ef3d
00000080: 2eb1 d03a b779 87bd f378 3cbd b327 90bd
00000090: 1e3b 13be 2bdc 41bd a175 b0bc 00fd 023d
000000a0: 8290 92bd 266b 9ebd 646c 32bd 10d9 053d
000000b0: 83b5 32bc 1d99 d43d 9812 ea3d 35d0 babc
000000c0: a029 cabd 7019 ffbc 0e03 af3d 005d 953c
000000d0: 04c3 e9bd e872 81bc dbc6 b33d a973 91bd
000000e0: f45f 6cbc c757 7bbd 784d df3a a835 ce3c
000000f0: e5ec b8bd 3bf0 2abd 411f ae3b 4811 063c
00000100: 5e9c a3bd 052c 173d cb4b 09bd f159 d4bc
00000110: c509 66bd 8111 db3c 37a7 5cbd 5cf2 b4bc
00000120: 433c acbb 4da8 6fbc 48ce 59bd 0214 68bd
00000130: 729a 2f3a d132 95bc 4ce3 8e3d 2fa2 333d
00000140: f9cf d5bc 355e 363d 11bd 3abd 6e4c bb3d
00000150: 2246 8bbd 97e8 c03c d235 9cbc f3ba 2d3d
00000160: 7dfd 85bd 363e b9bd 2517 b7bd c5b2 7cbd
00000170: 45df b03c c0bb a7bc 550b 9aba c4e2 fd3c
00000180: 5133 193d c2dd 6b3d 5cc5 4cbd dd76 b9bc
00000190: 3dcc a83d 626f 05bd 66f7 573d 2264 443d
000001a0: 4366 48bd c0d9 e63b f31c 7f3d 2fbd 83bd
000001b0: 099e 163c 12d6 6ebd d5ce ad3d 6429 b2bd
000001c0: 6288 2e3d 92c1 39bc 630a 323d cbab 163e
000001d0: 06f6 12bd 4f67 04be e8b5 fdbc d6e2 c93d
000001e0: e506 9fbd 2c23 a43c dd02 f63c 4bf2 27be
000001f0: 76fc 4ebd 8d2a 06bd c95f b03c e3be 0d3d
00000200: 9f71 843d 7703 403d d9c7 c1bc e5b8 503d
00000210: dc00 a1bd 6b1d a23d e7f9 5f3d 04fa 923d
00000220: f561 623d 744c 473d 74b7 56bd 0bab 9fbc
00000230: b551 13bd 13e7 2bbd f33d 81bd 1390 8ebe
00000240: 3415 8c3c 833e d53d 3d03 c5bd 5514 bb3d
00000250: d63d d23c 8756 fd3d 463b 52bd 93da 10be
00000260: 54fb 233d 086a 47bd 8761 c2bd 95c0 8fbd
00000270: 00e1 d03c c725 9d3d 10d8 dc3c cb38 1ebe
00000280: ab5e b9bd f758 34bc fe00 cf3c 23ad bd3d
00000290: 8036 41bd 8f57 333e 02c4 c5bd 6594 e83c
000002a0: 1a66 0abb 2c53 cfbc 4c73 2e3d e5be 3fbc
000002b0: 3daf d83d 4e9a 073c f93b f5bd d169 983c
000002c0: 5019 9fbc 12c9 4a3d 2a79 59bd 113f 8bbe
000002d0: 0950 c73d 3634 773d fcd1 d8bd 33a2 cdbd
000002e0: 9457 a2bb 81a2 d93d 9519 a23d 6afe 9fbc
000002f0: bd0f 713e 1b17 2e3d 5142 48bb 6445 c5bc
00000300: 4047 f7bc 30a0 503c 082e 95bc 39a1 36be
00000310: 1f47 733d 7777 87be bb3d 303d 1ddb 13bc
00000320: a82c cf3d b41a b43d e5b1 5bbd 6a44 97be
00000330: c844 3cbd e77a 1dbe 77ab 94bd 3bde f7bc
00000340: a67c 833d 24a3 933d 00bd 4fbc 5f2f 8dbe
00000350: 1549 283d 4be4 29be 4898 3bbd e92b 8dbe
00000360: 586e 2e3d 6b23 5b3d 2b0c d2bd 4fcb 90be
00000370: 0fb0 a83d 70e0 eebb 9cd4 4d3d 4e24 1fbd
00000380: a8f2 b13d e658 64bd b8b5 6d3d 0d6c 49bd
00000390: f814 bf3c 725a 9f3c ab92 9e3d cfc1 a4bd
000003a0: c466 513d 2174 cabc e2b1 a4bc c36f cabd
000003b0: 78ab 32bc 211d 073d 5f0e 9abd 9b28 e43d
000003c0: 9ed9 61bd 892a e6bc d0f2 40bd 7805 75bd
000003d0: 216f 9e3d d1de 98bd d2be 9bbd 97cd 69bd
000003e0: 1784 013d ca56 0a3d 199d f13c 7e6b 93bc
000003f0: dab1 c0bd 2525 8dbd e093 41bd 575d 5fbd

bias f4 [256]
0.08061323 0.0634297 -0.07634718 0.044032 0.093062915 0.052833606 0.056999326 0.018995896
0.06006862 0.01632734 0.06930462 -0.005681367 0.04732156 0.034235988 -0.043583333 -0.08732554
0.013503999 0.06682824 -0.054206632 -0.086781904 -0.01072164 -0.06201592 -0.08416119 -0.05014501
-0.04229911 0.0607722 0.004080205 0.03177915 -0.10120255 0.0717652 -0.052695315 0.025688434
0.035020713 0.060575783 0.056796946 -0.07204854 -0.001702 -0.05277403 -0.094583385 -0.0705243
0.011999468 -0.048013587 0.05871232 -0.050608754 -0.07027603 -0.023220798 -0.02856188 -0.048202936
0.011557648 -0.004906534 -0.09217386 -0.04637671 -0.087491065 0.005791467 -0.02204335 0.049745604
-0.07162277 0.045168206 0.047357913 0.029581508 0.012500311 0.016218849 0.028982371 -0.09858493
0.00823708 0.018473955 -0.058864083 0.032160513 0.021000639 0.045754496 0.00751865 -0.10243546
-0.06994592 -0.11164681 0.029695434 0.0046897903 0.013971313 -0.055075347 0.021145716 -0.015249699
0.03353019 0.0452484 -0.040914323 -0.049722876 -0.030988635 0.0038158367 0.04901112 -0.0979321
-0.02936002 0.016373465 -0.013107017 0.03935697 0.037925515 -0.09251917 -0.0580978 -0.05939406
0.051017366 -0.09771009 -0.083226524 0.052782852 -0.099274434 0.032735806 0.04282249 -0.054263733
0.01890442 0.022240235 -0.078169525 -0.02892779 0.015723914 -0.024817158 -0.0983107 -0.059871104
-0.013450584 0.010050836 0.037342254 0.05733201 0.043895308 0.07651595 -0.0803043 0.020547861
-0.084336765 0.01414594 0.001608003 0.020639876 -0.08646274 0.05767514 0.00012671956 -0.092811644
0.022793896 -0.07325261 -0.021127688 -0.095419556 -0.011359953 0.06665791 -0.08357127 -0.080079414
0.07497628 -0.08496107 -0.03809658 0.07857284 -0.00019540728 0.065358244 -0.046901308 -0.0065656444
0.058658153 0.022440527 0.018530326 0.04561537 0.06998976 -0.010839951 -0.037956696 0.04050835
0.024147354 -0.023323176 -0.0026579695 0.015698206 0.011211181 -0.0038915419 0.015607438 -0.078303926
0.004955284 -0.049891002 -0.08473361 0.024655737 0.05786924 -0.018368708 0.06911238 -0.089031465
0.0847966 -0.03333178 -0.06284151 0.019536946 -0.016284227 -0.080399096 -0.0060155676 -0.04974746
-0.0723862 0.07408737 0.0028781376 -0.025502648 -0.02570314 0.0026341025 0.04337474 0.01598841
-0.076530635 0.037310343 0.03988011 0.07483165 0.06055005 0.036324367 -0.026180618 -0.07161186
0.09237287 -0.04176608 0.010112493 -0.10057293 -0.10111764 -0.016748793 0.017059494 -0.019268788
0.044694513 -0.08131269 -0.01768789 0.059838515 0.054524913 -0.0096280575 -0.10164017 0.06969994
0.061778814 -0.088975295 -0.021418504 0.049907353 0.0115866 0.0444501 -0.056162182 0.052343678
-0.0039150924 -0.06902623 -0.10945237 -0.021859698 -0.08608219 0.021580514 0.043193024 -0.07216565
0.009198983 0.05687449 0.07205906 -0.09428784 0.053104192 -0.0034463368 -0.10358091 -0.09000431
-0.07806861 0.026852699 -0.06322053 -0.0045166104 -0.026992582 0.025409527 -0.07477268 -0.090947
-0.09441772 0.035143785 0.02162058 0.061243054 -0.049588203 0.049787067 -0.07787426 -0.08960535
-0.06314016 -0.06514423 0.02494543 -0.055777747 0.041647453 0.08252729 0.040571462 -0.048246723
00000000: 8d18 a53d 6ee7 813d e95b 9cbd e65a 343d
00000010: c597 be3d 0d68 583d 2078 693d 489d 9b3c
00000020: 830a 763d eac0 853c 95ef 8d3d c32a babb
00000030: 41d4 413d 093b 0c3d 7084 32bd bcd7 b2bd
00000040: e13f 5d3c 3fdd 883d c607 5ebd b6ba b1bd
00000050: d1a9 2fbc 6804 7ebd b45c acbd db64 4dbd
00000060: d541 2dbd 45ec 783d 3eb3 853b db2a 023d
00000070: 4843 cfbd a2f9 923d 0bd7 57bd 8d70 d23c
00000080: e171 0f3d 501e 783d eaa3 683d 2f8e 93bd
00000090: a515 dfba 9529 58bd efb4 c1bd 0b6f 90bd
000000a0: 6b99 443c e5a9 44bd 547c 703d 204b 4fbd
000000b0: e1ec 8fbd 8b39 bebc 9bfa e9bc 7170 45bd
000000c0: 4a5c 3d3c fec6 a0bb a6c5 bcbd 81f5 3dbd
000000d0: 842e b3bd 59c6 bd3b 4194 b4bc 0cc2 4b3d
000000e0: f5ae 92bd 4c02 393d 5ffa 413d eb54 f23c
000000f0: 1bce 4c3c 64dd 843c 706c ed3c e5e6 c9bd
00000100: d1f4 063c b156 973c 771b 71bd beba 033d
00000110: 8809 ac3c 1169 3b3d 025f f63b afc9 d1bd
00000120: ce3f 8fbd 15a7 e4bd d743 f33c d0ac 993b
00000130: efe7 643c b096 61bd c839 ad3c e0d9 79bc
00000140: f456 093d 6356 393d c795 27bd 37aa 4bbd
00000150: e1db fdbc 1e13 7a3b e2bf 483d a090 c8bd
00000160: 6d84 f0bc a521 863c d0be 56bc c634 213d
00000170: c957 1b3d b17a bdbd f5f7 6dbd 3047 73bd
00000180: 96f7 503d 3a1c c8bd ab72 aabd d532 583d
00000190: 6550 cbbd fb15 063d a366 2f3d a643 5ebd
000001a0: 71dd 9a3c 2731 b63c 5817 a0bd f9f9 ecbc
000001b0: 70cf 803c 5a4d cbbc 1f57 c9bd 673b 75bd
000001c0: d75f 5cbc 43ac 243c 31f4 183d f8d4 6a3d
000001d0: 91cb 333d 65b4 9c3d 9576 a4bd fd53 a83c
000001e0: c1b8 acbd 5fc4 673c a1c3 d23a f514 a93c
000001f0: 6113 b1bd c53c 6c3d 06e0 0439 0814 bebd
00000200: 44ba ba3c 7705 96bd f913 adbc 546b c3bd
00000210: 191f 3abc f183 883d 6a27 abbd ad00 a4bd
00000220: 2a8d 993d 1200 aebd 290b 1cbd ccea a03d
00000230: 3ee6 4cb9 8bda 853d 961b 40bd 9e24 d7bb
00000240: 8843 703d 32d5 b73c e9cc 973c 2fd7 3a3d
00000250: cb56 8f3d 0d9a 31bc 7b78 1bbd 15ec 253d
00000260: acd0 c53c 3f10 bfbc 5431 2ebb 8699 803c
00000270: 1aaf 373c 3d09 7fbb 57b6 7f3c cf5d a0bd
00000280: ef5f a23b 825a 4cbd d188 adbd d4fa c93c
00000290: 4c08 6d3d f979 96bc cb8a 8d3d 2156 b6bd
000002a0: d7a9 ad3d e886 08bd 0db3 80bd f20b a03c
000002b0: 8066 85bc 48a8 a4bd 3d1e c5bb fec3 4bbd
000002c0: 373f 94bd 1ebb 973d 239f 3c3b eeea d0bc
000002d0: 648f d2bc e8a0 2c3b b6a9 313d 20fa 823c
000002e0: 18bc 9cbd bbd2 183d 5459 233d 5641 993d
000002f0: 5403 783d dcc8 143d bc78 d6bc 3da9 92bd
00000300: fd2d bd3d e912 2bbd dfae 253c 2ef9 cdbd
00000310: c416 cfbd c434 89bc 5ac0 8b3c 94d9 9dbc
00000320: 9811 373d 4587 a6bd 32e6 90bc 3b19 753d
00000330: 8455 5f3d 00bf 1dbc b928 d0bd d8be 8e3d
00000340: c80b 7d3d ae38 b6bd dc75 afbc a76b 4c3d
00000350: b9d5 3d3c 4f11 363d 510a 66bd 5366 563d
00000360: 2d4a 80bb a05d 8dbd 9028 e0bd 1c13 b3bc
00000370: dc4b b0bd 9ec9 b03c 2beb 303d 96cb 93bd
00000380: 55b7 163c 3af5 683d b393 933d fc19 c1bd
00000390: c883 593d f0db 61bb 3a22 d4bd 2e54 b8bd
000003a0: 6fe2 9fbd 31fa db3c c479 81bd 1300 94bb
000003b0: 8c1f ddbc a427 d03c 6b22 99bd 6c42 babd
000003c0: 145e c1bd eef2 0f3d a51d b13c ffd9 7a3d
000003d0: 001d 4bbd 86ed 4b3d 8a7c 9fbd 0283 b7bd
000003e0: a14f 81bd 576a 85bd 5c5a cc3c 3577 64bd
000003f0: 8596 2a3d 1104 a93d 432e 263d 5b9e 45bd
