src/saved_models/grid_world_seed125_8_5_11_22/125_2_model.pt (torch, 702521 bytes, 11 tensors)

FC1.weight f4 [256, 36]
00000000: f104 873d 279c 00be 5e4d 8cbd cce6 233e
00000010: 7fa1 4d3e 73ad c1bd a79c 283e bbd2 8d3d
00000020: 9e2d d9bb 4a0b 573c 6e4b 36bc 7dc3 fb3d
00000030: 4b23 2cbd 9e43 2d3d b80b 3d3e 9171 9dbc
00000040: 1c6e 4d3e 0ca3 393d 820b 2b3e ad36 03be
00000050: 1f8f 513d 7cca 163e a1f3 9e3d c58a ee3d
00000060: 4351 643c ef2c 40bd a5df e1bd d3b3 e0bb
00000070: 863f 81bc dc17 93bd d141 313e 47ca ebbd
00000080: 692e 5f3d 3bf1 36bd b19f 1a3e 4989 033e
00000090: ce76 793c 3538 19be 9d7b a5bd 71bf ffbd
000000a0: df9a 053e 332b 8f3d f5c5 9bbc 932e 1cbe
000000b0: a833 65bd b08b 093e 23c7 e6bd f99b 743d
000000c0: 3322 afbd 91b7 e9bd 8ede d73d 625c a4bd
000000d0: fe52 e13d 2974 fa3d e562 1ebd 98f4 193d
000000e0: 6738 03bd 200d 063d 61c7 03be d405 7ebb
000000f0: 3bb0 16bd ad05 c8bd b513 e63d 6cb1 cfbd
00000100: df00 3c3d 1290 abbd 2922 17be e4dc 2ebe
00000110: 3be9 b83d 5df0 1bbe fc85 9bbd 502b 3dbc
00000120: 1e31 42be 01ff 0b3e 0e6a 0a3e 503a 23be
00000130: 14f7 50bc b931 9fbd 596a 963b 8123 0ebe
00000140: e271 ad3d 0c43 0c3d 179f 963d ec90 21bc
00000150: 6052 9e3c 9a6a bebd 0baf acbd 56bf 023e
00000160: 28e0 e23d 83ae c83d d0e6 a83d 409f 47bc
00000170: b580 d4bd 4d72 9fbd f658 1cbe 7cd1 0b3e
00000180: 6657 22be a9d3 0dbc 32a2 3f3d 834d 04be
00000190: dc1f adbc 91e7 00bc 3546 843d 85cd 59bd
000001a0: e10b 21be 2189 0abe cd38 cabd 7865 a93c
000001b0: a653 a43d 238d 233e adbf 343d c315 203d
000001c0: e27e d23b e6d2 dbbd b9cd 403e b646 62bd
000001d0: a112 a7bc 4904 2f3e 3a47 1a3d 6b56 f43d
000001e0: 19bf cc3d 42e3 6dbd 8ab9 d53c fc40 043e
000001f0: 3fee c83d 9c3c 233e ff89 24be 2b6c 6a3d
00000200: c35a 32bd 1b93 5cbd 2ea8 3dbd f94b ddbd
00000210: 27ff e4bd c2a6 c33d 9c71 f43d 2ac4 d63d
00000220: 3a22 bcbc bc30 bf3d 2b8e d33d 688a 683c
00000230: 0c7c 01be d382 86bd 5bb9 e73d b3d3 c9bd
00000240: da32 18be 712f 83bd 16f4 f8bd bd71 c33d
00000250: 353c 0abe f419 103e b93b a73d c644 8c3d
00000260: 870a f6bd 77a6 123e 280c 03be c1e9 2cbc
00000270: 8eae a03d 64aa 883d 14bb 16be 8c42 78bd
00000280: aaca 363d fcf0 503d f6a0 e6bd c0f0 37bc
00000290: 7e2a dabd 31c6 143e 595b a0bd a704 b1bd
000002a0: 246c 18be 422d 74b9 6a0c f53d 440e 94bd
000002b0: c6fb 88bd a67a 05be 30f4 47bc d41b 91bc
000002c0: 3670 943d ef01 0c3e 4a66 d03d d3b2 013e
000002d0: 11ca bbbd 8395 95bd a856 dc3d af27 073e
000002e0: b589 163e 44b1 2f3e 7cd5 d4bd 38f0 2e3e
000002f0: 1f95 823d 0312 ba3d 3836 313c 1f90 da3d
00000300: bea2 193e 7259 633d 1845 ba3d 7c37 3d3d
00000310: 1aa0 773d 61dd d83d 2a3b 9c3d e187 91bd
00000320: 1436 533d f2ca f03d 40f5 01be 9123 a03d
00000330: 8f84 43bd 267b 57bd 7811 f4bd f7e3 88bd
00000340: 3ff3 273e da79 673d 01a1 2a3e b738 203e
00000350: c87b 663c 0b21 28bd 966f 2f3e d084 2d3d
00000360: 0b00 b6bc 52f9 d3bd 6bf4 8a3d 781b 06bd
00000370: 8911 36bd b1d0 87bd d7a3 a4bd 4cdb 9cbd
00000380: 8d90 17be c452 a83c d8f9 8dbc fc4f 08be
00000390: 3077 e43d e7d9 0f3c 7376 f1bd 681d 6d3d
000003a0: 21a2 61bc b69c c9bd 21b1 013e 3d29 0bbe
000003b0: 59c4 1abd f841 8a3d 1d66 a83d c287 17bc
000003c0: 016f 2a3e 613a 663d d688 e53d 7a47 f8bd
000003d0: 0119 60bc d859 85bd 1bb4 f4bd 7980 173d
000003e0: 47e3 9c3d 3780 1e3d 2b92 9bbd 7c4f 0b3d
000003f0: a134 1dbe 1fa7 b4bb 436d 093c 74c0 f6bd
0.065927394 -0.12559567 -0.06850694 0.16006011 0.20081137 -0.09456911 0.16466008 0.06924959
-0.0066277524 0.01312525 -0.011126382 0.12293146 -0.042025845 0.042300813 0.18461502 -0.019219192
0.20061535 0.04532151 0.16703609 -0.12813826 0.05116188 0.14725679 0.07761312 0.11647562
0.01393539 -0.046917852 -0.11028985 -0.006857374 -0.01577736 -0.07182285 0.17310263 -0.11513191
0.05448762 -0.04466365 0.1509998 0.12845339 0.015226079 -0.14962848 -0.08080218 -0.124876864
0.1304736 0.069906615 -0.019015292 -0.15252142 -0.055957466 0.13432193 -0.11268451 0.05971906
-0.08551445 -0.11411966 0.10540496 -0.08025433 0.11002158 0.12229187 -0.038668532 0.03758678
-0.03203621 0.03272736 -0.12869026 -0.0038760798 -0.03678916 -0.097667076 0.112342276 -0.101412624
0.04589927 -0.083770886 -0.14759125 -0.1707645 0.0902886 -0.1522841 -0.07593915 -0.011545971
-0.18964049 0.13671495 0.13517019 -0.15940213 -0.0127542205 -0.07773156 0.0045903143 -0.13880731
0.08468987 0.03424363 0.07354563 -0.009861212 0.019326389 -0.092976764 -0.08431824 0.12768301
0.11077911 0.097989105 0.08247149 -0.012183964 -0.103761114 -0.07785473 -0.15268311 0.1365413
-0.15853652 -0.008656421 0.04678554 -0.12920193 -0.021133356 -0.00786771 0.064587034 -0.053174514
-0.15727188 -0.13528873 -0.09874115 0.020678267 0.08023767 0.15971808 0.04412811 0.039083254
0.006423817 -0.10733585 0.18828477 -0.055243216 -0.020394625 0.17091478 0.037665583 0.119305454
0.099973865 -0.058078058 0.026089448 0.12915415 0.09811067 0.1594109 -0.16068266 0.057232063
-0.04354359 -0.05385123 -0.046302967 -0.10805506 -0.11181479 0.09553291 0.11935732 0.10486634
-0.02296554 0.09335467 0.10329851 0.014193155 -0.12644976 -0.065679215 0.113146506 -0.098548315
-0.14863148 -0.06405533 -0.12155931 0.09543178 -0.1349953 0.140724 0.08165688 0.06849055
-0.12013727 0.14321314 -0.12797606 -0.010553778 0.07845794 0.066731244 -0.14719802 -0.06061034
0.04462687 0.05101107 -0.112611696 -0.011226833 -0.10652636 0.14528729 -0.07829923 -0.086434655
-0.14885002 -0.00023286513 0.119652584 -0.072292835 -0.06688647 -0.13035068 -0.012204215 -0.017713465
0.07247965 0.13672613 0.1017576 0.12665872 -0.091694005 -0.07303908 0.10758716 0.13198732
0.14700969 0.17157465 -0.103922814 0.17083824 0.06376099 0.09085467 0.010816149 0.1067202
0.15003487 0.055505224 0.0909521 0.046195492 0.06045542 0.105891 0.07628472 -0.07105995
0.051565245 0.11757459 -0.12691212 0.07819284 -0.04773384 -0.052607678 -0.119173944 -0.06684106
0.16401385 0.05651269 0.1666298 0.15646635 0.014067598 -0.041047137 0.1713241 0.042362988
-0.022216817 -0.103502885 0.067849 -0.03274104 -0.044450317 -0.066316016 -0.080390625 -0.07659015
-0.14801235 0.020547278 -0.017331049 -0.13311762 0.11155546 0.008779979 -0.117901705 0.057889372
-0.013771565 -0.09844343 0.12665226 -0.1358995 -0.037784908 0.06750864 0.082226016 -0.009248676
0.16643907 0.05620802 0.1120774 -0.12123008 -0.013677836 -0.06511277 -0.11948415 0.036987755
0.07660537 0.038696494 -0.07596239 0.03401135 -0.15352108 -0.0055130864 0.008387866 -0.12048426

FC1.bias f4 [256]
00000000: a37a 293e 060a 713d 9d98 f5bd e3e9 363e
00000010: 0d52 0abe bdd4 8d3d 4604 c7bb 0a50 f8bd
00000020: eca2 c0bc 78a5 73bd 1742 923d fb3b 963d
00000030: 8257 a23d 2c31 12be ae79 413d 69af 163d
00000040: de56 6fbd ee4b a53d 7327 f73d ef64 0c3e
00000050: 8671 0c3e 7bbe 9dbd eb0e 643e 677e 1b3e
00000060: a81d 92bc 652f 0e3d 6ecb 593d 26f2 7abc
00000070: 39a6 423d 5701 133e 69c0 6f3d b8d8 533d
00000080: a21f 20be 8dce f33d a88a 083e 12b8 8fbd
00000090: f3ec a63c 479c 323d 8e67 133e 9a5b 4c3e
000000a0: eea6 1b3b ec02 283d 0147 c2bd 3436 d33d
000000b0: 5158 fc3d 535f 233e 3523 29be 43b4 f83d
000000c0: 78eb 19be db98 dc3c 2f57 493e affe 9b3d
000000d0: c3b6 613d ee9b 273d ba81 dfbd 6d45 963e
000000e0: 1f64 b6bd 4927 1fbb 6e4f 3a3c faf2 babd
000000f0: 7b62 a6bc b6ca 96bb a9c8 453e 4311 1d3d
00000100: 0a7d 003d c33c d33d 7427 2fbd 6e96 923d
00000110: 6d13 ba3d d00e 1a3e 20a1 9f3d f030 0c3d
00000120: 4a7f 8c3d bee6 50bd 6e84 063e 04a2 83bc
00000130: ddd0 433e 0ba1 743d 8a49 16be 97c7 a53d
00000140: 679d 3d3c b3db f73d a0d3 0c3e a670 b83d
00000150: f0ca fd3d 3618 953d 2ed1 00be e139 ecbd
00000160: e4cf 053e e544 cf3d afaf 05be bc54 c33d
00000170: cbeb 25be 1bb5 853d a55b 34bd 29ee 31be
00000180: b7fa 31bd 655f 383d 7679 af3d 5951 8bbd
00000190: 6d24 8bbd 014a 8cbd 8049 26bc 2dea 423e
000001a0: 4129 0bbc b418 0f3e bc46 113e bc32 debd
000001b0: 10c6 1d3e 1039 c5bd fc23 bdbd 6935 5cbd
000001c0: 92c7 18be 2570 923d 1415 b3bd d166 3e3d
000001d0: 9e1d ad3c 70b0 32bd 74b8 0cbd e428 5dbd
000001e0: ff79 ffbc e405 4b3e f023 8cbd db5d 70bd
000001f0: 2685 473d 11fd 86bd 6aee 18bd c2de b33d
00000200: 4b2d 5a3d 6146 6b3c 3870 8ebd ea14 91bd
00000210: 3275 053e e379 c2bb fab9 d3bd 1f6d 69bc
00000220: 1724 a8bd 4a5f 223e f9b8 a3bd 2847 88bd
00000230: 3e4f 08be 9639 223e ecfc 76bb a3a0 08be
00000240: f24b 753d 90cf dfbd 40f7 0dbc 0c0d 4bbd
00000250: db3f c43d f1eb 3e3d 580f 87bd 46d0 23be
00000260: 93fd 93bd 5e6a 94bd a6a2 38bc d6ca e8bd
00000270: 9609 d2bd f737 2e3d 81f1 e9bc 4d71 d1bd
00000280: eb7c 813d a285 453e 78ac 9f3d 0493 093e
00000290: 5439 6ebd 30ef ed3d 99b8 3abd e953 dcbb
000002a0: 54ab 223e c53a 0bbe 2b5b fa3d 937d 9ebc
000002b0: 1756 e0ba 5f7f 983d c800 4d3d 04b4 d7bb
000002c0: 062d 02be 4f79 f73d ab1f 9b3d 22b9 c9bc
000002d0: 0052 dbbd b30b 18be 6d76 c33d 9406 883d
000002e0: f186 973d b6da 163e 49e9 debd 5178 263e
000002f0: f118 d93d 7a0a ffbd 7a1d 0d3d e276 d0bd
00000300: 3d03 b43d 9fb8 b7bd 06f1 fb3d fe97 2bbe
00000310: b4a0 32bd d255 523d e5e3 86bd 0c22 b8bd
00000320: 4972 f53d 7938 febd 9dc4 02bd 7206 fdbc
00000330: fe56 8dbd 7ac5 663d 9633 153e b685 273d
00000340: e7e1 103e 6218 8c3d 594c 5bbd 5355 9bbc
00000350: ec88 123e 72cb 253e 1d4e debd 6b5e aebd
00000360: 1d97 8cbd a3cf 5e3d 036d 15be 3b81 b83d
00000370: d6fa bbbd 5014 23be c642 8d3d fb0c 63bd
00000380: d3e7 f7bd 2287 f93d 9690 2dbd 6426 483d
00000390: 375a 1d3e e88d 973a 9490 0dbc c8a5 c2bd
000003a0: 1864 003c 1a53 b93d 4c3c 143e 205e 273e
000003b0: 1295 b23d 0cf5 003e 8da8 283e 5935 993d
000003c0: aec2 bc3d cb1e 353e 3e4f d23d 0ae1 143e
000003d0: 59d1 b73a 55e2 49bd 1fc6 14be 37ed cabd
000003e0: 65d7 c2bd 3a42 503d c298 0bbe bbf9 8fbd
000003f0: 3cec edbd 4125 383d cf29 eebd 71ed a83d
0.16550688 0.05884745 -0.11991999 0.17862658 -0.13507862 0.06925342 -0.0060735075 -0.12124641
-0.023515187 -0.059483975 0.07141512 0.07335659 0.07926847 -0.1427657 0.047235183 0.036788378
-0.058432452 0.08071123 0.12068071 0.13710378 0.13715181 -0.07702347 0.22271316 0.15184937
-0.017836407 0.034713168 0.05317252 -0.015316522 0.047521804 0.1435598 0.058533106 0.05172035
-0.15637067 0.11904631 0.13334143 -0.070175305 0.020376658 0.04360607 0.14394972 0.19956818
0.002375062 0.04101841 -0.09486199 0.10313073 0.123215325 0.15954332 -0.16517337 0.12143757
-0.1503123 0.026928356 0.19662164 0.076169364 0.055105936 0.04092019 -0.10913415 0.29349843
-0.08905815 -0.002428489 0.011371477 -0.09128375 -0.020310631 -0.0046018017 0.19314827 0.03834654
0.031369247 0.10314324 -0.042762235 0.071575984 0.090857364 0.15044713 0.07794404 0.034226358
0.06860216 -0.051001303 0.13136455 -0.016068466 0.19122644 0.059723895 -0.1467649 0.08094709
0.011573172 0.12102451 0.13752604 0.09005861 0.12392223 0.072800085 -0.12579796 -0.11534477
0.13067585 0.101205625 -0.13055299 0.09537646 -0.16203229 0.06528684 -0.04403271 -0.17376007
-0.04345199 0.04501285 0.08568089 -0.06802625 -0.06794057 -0.068500526 -0.01014936 0.19034643
-0.008493722 0.13974267 0.1418714 -0.108495206 0.15407586 -0.096300244 -0.09235379 -0.053761873
-0.1491988 0.07150296 -0.08744255 0.046484772 0.021132287 -0.043625295 -0.034355596 -0.053994074
-0.031186102 0.19826466 -0.06842792 -0.058683258 0.048710965 -0.06591237 -0.037336744 0.08782722
0.05326585 0.014360041 -0.06954998 -0.07084067 0.13032988 -0.00593494 -0.103382066 -0.014247208
-0.082100086 0.15856662 -0.07994265 -0.06654197 -0.13311478 0.1584228 -0.0037687374 -0.13342528
0.05988688 -0.10928261 -0.008664906 -0.04957299 0.09582492 0.04661173 -0.065947235 -0.15997419
-0.072261 -0.072468504 -0.011269247 -0.11366813 -0.102557346 0.04253384 -0.02855754 -0.102266885
0.06322654 0.19289258 0.07796568 0.13434988 -0.05816014 0.11617887 -0.045586202 -0.00672387
0.15885669 -0.13596638 0.1222442 -0.019346988 -0.00171155 0.07446169 0.050049573 -0.006582739
-0.12712488 0.12083685 0.075743996 -0.024624411 -0.10709 -0.14848213 0.09544072 0.0664188
0.07398785 0.14731869 -0.10884339 0.16256835 0.1060046 -0.1245317 0.03445194 -0.10178925
0.0878968 -0.089707606 0.12301831 -0.16757199 -0.04361029 0.051351376 -0.06586436 -0.08990869
0.11984689 -0.12413115 -0.031925786 -0.030886862 -0.06901358 0.056340672 0.1457046 0.040899
0.14148675 0.06840588 -0.053539608 -0.018961584 0.14310044 0.1619089 -0.10854743 -0.085141025
-0.0686476 0.054397237 -0.14592366 0.09009024 -0.091787025 -0.15925717 0.06897502 -0.0554323
-0.12104764 0.12183978 -0.042374216 0.048864737 0.15366445 0.0011562677 -0.008640427 -0.095042765
0.007836364 0.090490535 0.14476126 0.163445 0.08719839 0.12593478 0.16470547 0.074808784
0.0921682 0.17687528 0.102690205 0.1453897 0.0014024182 -0.049288113 -0.14528702 -0.099085264
-0.095137395 0.05084441 -0.13632491 -0.07030054 -0.11617324 0.044957403 -0.11629068 0.08248413

FC2.weight f4 [256, 256]
00000000: 5be6 b1bd e049 b1bc b9be e33b 9bb2 2dbd
00000010: da10 553d 51b9 8cbc 379c 9f3c a62a 0abd
00000020: 3152 3dbd ea62 cdbc 3f57 963c 460a 3a3c
00000030: 211a 7a3b f9bd 4d3d 5ece a4bc cc37 eabb
00000040: 87f6 b23c e99d f03b 2095 d73c b31c 82bd
00000050: fa9a 35bb 3e28 633c a0ef 72bc d16d e63a
00000060: fda8 58bd b335 df3c e2e2 66bd ce13 95bd
00000070: 4c79 28ba f9cd 1d3d 9eb5 83bc 9d87 623d
00000080: 4e66 52bd b958 61ba 993f 0f3d 2908 5a3c
00000090: e0e9 db3b 05a0 8b3d be1f 253d efba 83bd
000000a0: f06d 67bc 310b 2abd 5f04 20bc 2de2 5dbc
000000b0: 3094 30bc fb8f b7bb 2aae 623b a531 923c
000000c0: cf12 e23c 30c5 7c3b 7bbb 5abc 90d7 543d
000000d0: cb5e a13b 01d9 1bbc 3f12 f23c 7274 c5bd
000000e0: eec1 7abd 0eb9 5a3d 0e1f dfba 8ba8 8f3c
000000f0: c23f f33c ec9c 813b 97d8 05be 9002 d03c
00000100: d87e 0a3d d2d3 1c3d b8fa c8bc 53de 0f3d
00000110: e3c7 323b 8a1b 603d d897 6fbc 0cc7 4bbc
00000120: 6e30 f5bc ecd6 92bd 8292 1a3d f6b9 abbc
00000130: 52a0 f23c 4805 3a3c 10c6 5bbd b22e 003c
00000140: 073a 28bd 46c1 063d a3fc bc3b bb3c bb3a
00000150: 9ff1 75bb fffd 2cbd e594 233d ae9f ee3c
00000160: 1f16 fa3c 0502 6c3d cffc 71bd ec79 63bc
00000170: 4d99 6e3d 1491 f0bc 74f6 833c 42ac 05bd
00000180: c9e8 4ebd 1a6c 87bd 9d08 0cbd 8915 203d
00000190: a9cf d93c 8e67 283c dc2b c8bd 1b5f 13bc
000001a0: afbc 27bd 348c dd3c c87d 1abd 1a2c 153d
000001b0: cafd c0bc 6eb7 a4bc 631e 3abd 9a8f 153d
000001c0: 3a7e 29bd d1c1 59bd b208 343d 0d5d 86bd
000001d0: a8e3 383d e3fc 7a39 4b5c 1dbd 2d0e 0e3d
000001e0: 1888 f0bd 524f 59bd 80cd 703d c7ce 1f3d
000001f0: f8d5 c83b d679 873c 7153 f1bd 7a55 003d
00000200: 6a4b 57bd dc2c 3bbd 7693 ecbc 5797 5e3d
00000210: 201a 203b 064e cc3c 9c0a 76bd 3cb3 a8bb
00000220: 592c 523c ebfd bbbc 2414 4e3d 54b3 a43c
00000230: 0107 35bd 9a79 2bbe e1f6 e73c 9dd8 6fbd
00000240: 17b8 ca3c aa5a e5bc 0f67 eb3c a265 82bd
00000250: 734f 9e3c 6ca6 003d 1045 3bbd b0fd c1bc
00000260: c5b3 0fbd 4b1a f83c c318 b93b ef4d 22bd
00000270: 593d 193d bcc6 89bc 5fd8 903c 1548 5f3c
00000280: b32e 08bd a8a5 c6bd f507 cb3c 9327 c8bc
00000290: 7349 71bd e2fe c63c 6058 48bd cb60 7cbd
000002a0: 37de 27bd 96d5 0d3c f84b d1bc 2b20 63bd
000002b0: b4de 1ebb 60be 553d 1193 cebc d7e5 8abd
000002c0: 3515 0bbd 0dcf 303d 9803 92bc e72c 19bd
000002d0: f0ea 6ebc e127 34bd d506 1d3c 7fc2 f33c
000002e0: 8120 67bd 2391 84bd 22d3 97bc 6567 a3bd
000002f0: 118e a9bd 1dc8 893d ec8d d1bd 5801 2b3d
00000300: c025 a8bc c344 2ebd d06b 8dbc d0c3 c73c
00000310: 5f78 7abd 694b 27bc 4518 a7bc 81f3 fb3c
00000320: 9070 b23c 7c27 9bbd 2d87 9e3c 642a a9bb
00000330: ac78 01bd 12ec 53bd 5778 55bc 4ccc e5bd
00000340: a9c7 673d e4ea a5bc 058c 0fbc 9421 16bc
00000350: b9fc 533d 1c4c 23bc cca9 d9bb 6b1d c83c
00000360: e4a2 c9bd a76b d8bc 557b 0c3d bf53 1a3d
00000370: dba2 1ebd 0e9a 453d 1f29 2abd dc4c 55bd
00000380: e9f2 893d 12c4 28bc 69e1 5bbd 36d0 7c3c
00000390: e5d7 28bc 64ef 4abd bf07 723d 5ba0 74bd
000003a0: 8a02 953b 8cae 98bc ecca c1bc cb27 4dbb
000003b0: 0e98 2fbc 6792 c83c 22c4 86bd 692e 8cbc
000003c0: ae08 ac3c bc8d 21bd f19b b73c 0fef ed3c
000003d0: eb79 45bd 76f9 093d c2c9 63bd 1aa8 29bd
000003e0: 89d2 c3bc 6863 273c a797 46bd a8f4 063d
000003f0: d8a6 2dbc 7caa e9bd a042 eebc bb9a 7d3d
-0.08686515 -0.021641672 0.006950226 -0.04240666 0.052018024 -0.01717821 0.019483669 -0.03373208
-0.046220962 -0.02507158 0.018352149 0.011354988 0.0038162547 0.05023 -0.020117935 -0.007147765
0.021846069 0.007343043 0.026316226 -0.0635313 -0.0027710781 0.013864575 -0.014827639 0.0017580335
-0.052895535 0.027247285 -0.056368716 -0.07279168 -0.0006426766 0.03852651 -0.016077813 0.055305112
-0.051367097 -0.00085962896 0.03497276 0.01330761 0.0067112297 0.06817631 0.040313475 -0.06432139
-0.014125332 -0.04151458 -0.009766667 -0.013542694 -0.010777518 -0.0056018806 0.0034588673 0.017845938
0.02759686 0.0038569681 -0.013350363 0.05196339 0.0049246303 -0.009512187 0.029549716 -0.09641351
-0.061220102 0.05339914 -0.0017022805 0.017536422 0.029693488 0.003955474 -0.13070904 0.025391847
0.033812374 0.038287945 -0.024533615 0.035124134 0.0027279786 0.054713763 -0.014623605 -0.012437593
-0.02993032 -0.07169899 0.037737377 -0.020962697 0.029617462 0.011353798 -0.053655684 0.007823633
-0.041070964 0.032899164 0.0057674213 0.0014285067 -0.003752805 -0.042234417 0.03993692 0.029128876
0.030528126 0.057619113 -0.059078988 -0.013884049 0.058251668 -0.029366054 0.016108729 -0.03263498
-0.05051497 -0.066124156 -0.0341879 0.039083038 0.026588278 0.010278596 -0.097739905 -0.008994843
-0.040951427 0.027044393 -0.03771761 0.03641901 -0.023558516 -0.020106997 -0.045439135 0.036513902
-0.041380145 -0.053163353 0.043953605 -0.06560717 0.045138985 0.00023936066 -0.038418096 0.034681488
-0.11744708 -0.05305416 0.05878973 0.039015558 0.0061290227 0.016537588 -0.11783493 0.031331517
-0.052562155 -0.045697078 -0.028878909 0.054343548 0.0024429634 0.024939548 -0.06006871 -0.0051483195
0.012827956 -0.022948226 0.050312176 0.020105042 -0.044196133 -0.16745606 0.028315963 -0.058556188
0.024745984 -0.027997334 0.028735666 -0.06367041 0.019324994 0.031408712 -0.04572016 -0.023680538
-0.03508355 0.030285975 0.005648704 -0.039625105 0.03741202 -0.016818397 0.017681299 0.013628026
-0.03324766 -0.09699565 0.024784068 -0.024432933 -0.058907937 0.02429146 -0.048912406 -0.061615746
-0.040983405 0.00865688 -0.02554892 -0.0554506 -0.0024241628 0.05218351 -0.025216611 -0.0678212
-0.03395577 0.04316621 -0.01782398 -0.037396338 -0.014582381 -0.043983344 0.009584148 0.029755829
-0.056427483 -0.06472995 -0.018533293 -0.07978705 -0.0827905 0.06727622 -0.102321476 0.04174933
-0.020525813 -0.042546045 -0.017263323 0.024385363 -0.06114995 -0.01021085 -0.020397315 0.03075576
0.02178219 -0.075758904 0.019351566 -0.005162524 -0.031609222 -0.051738806 -0.01302918 -0.11220607
0.056586895 -0.020253606 -0.008761411 -0.009163279 0.051754687 -0.009966876 -0.006642556 0.02442809
-0.09845522 -0.02641852 0.034297306 0.037677523 -0.03872953 0.04824262 -0.041543122 -0.052075252
0.067357846 -0.010300653 -0.053681765 0.015430501 -0.0103053795 -0.049544707 0.05908942 -0.05972324
0.004547422 -0.018637918 -0.023656331 -0.0031304236 -0.010717405 0.024483873 -0.06580378 -0.017111974
0.021000233 -0.03944181 0.022413226 0.029044656 -0.048211973 0.03368517 -0.055612333 -0.04142008
-0.023904102 0.010216571 -0.04848447 0.032948166 -0.010598861 -0.114094704 -0.029084504 0.06191514

FC2.bias f4 [256]
00000000: b0a7 80bd ceba 9cbc fcc3 7b3d b6ed a83c
00000010: 7ffe b33d 918b ba3d 5227 54bc bee8 cf3d
00000020: aeb5 ae3c 4a9e 14bd 8a75 4f3d df0d 34bd
00000030: 4dd4 25bd 9735 46bd bc75 27bc 7dcf fc3c
00000040: 7a44 23bd 26f5 8cbc 463d 91bb 7d81 b43c
00000050: 2320 d13c 3f3d e73c cad3 20bc 333f b73c
00000060: f2bf 12bd bc24 183d 1578 17bc 67ac e13c
00000070: 398d 47bc d47a 993c 5937 8c3d 4be1 1cbd
00000080: 22ef 68bd 1270 d23c ecd4 95bd 2990 b2bc
00000090: fa2b 6c3d 25b5 3ebd d764 023d 5ddc 6cbc
000000a0: 27ae 37bc f2ec 26bd 9461 7f3c 89c1 8dbb
000000b0: 1e10 383d 28eb 67bd dc91 013d 4bd0 413d
000000c0: e443 a7bc 2224 363d 2c4e aabc d62e cf3c
000000d0: eaf9 393c 54fa 52bd 2d8f 053c 5301 2e3b
000000e0: 00cf ebbb 6a6a 183d c3cf 0e3d 965b a63c
000000f0: 0c66 0d3d c27d c83c e593 8e3a 09e9 62bc
00000100: de3d b8bc 9aa6 c7bc 9352 ff3b cfd5 523d
00000110: 8195 5e3d 023d 713d 0012 54bd 2e29 10ba
00000120: c281 80bd 5f3a 15bd a506 283c 926c 58bd
00000130: 32fc 91bc 66c6 803d d933 89bd dd5a c1bc
00000140: 92e6 4dbd 74d8 e03c 7dea c1bb a2ef b93d
00000150: 00cc 273d ff40 8d3d ebae 133d 0d36 9d3d
00000160: 6b07 22bb b49b 0bbc 076b 9f3c b8f0 33bd
00000170: f73c f8bc 0e2c 453d 7231 87bd 5468 1ebd
00000180: c171 3a3d 8506 7bbd 9c16 2dbd 765f 2fbc
00000190: ffd7 be3c 9e27 02bc 977a 81bb ecf4 133d
000001a0: f55a 673c dc08 17bd 69c5 05bd 1334 98bb
000001b0: 791d 58bd 126d 65bc 11a5 64bd 3f29 11bd
000001c0: 1ff6 e2bc c009 703d 88d6 b53c e9c2 493c
000001d0: f868 933c 0db1 823b 21a1 ccbc 6699 1b3d
000001e0: 71b1 64bc cc2c 343d 6911 afbb 70ea 4b3d
000001f0: c33f 7c3d 017b 423d f678 bc3d 6802 333d
00000200: e55b 7dbb 679a 953c 6e58 0d3d 3522 7c3d
00000210: c117 533d 05a0 e3bb 2417 39bc 4c61 1ebd
00000220: a0ee 5e3a fab3 6dbd cf85 253d 1c57 a03d
00000230: f04c 243d 65b4 543d 61d8 1e3d 66e6 e33b
00000240: 235c 753c b0b5 803d a52a 5abc 53c4 453c
00000250: 138e 4a3d 8bae 6fbd 441f dabc b8d2 8bba
00000260: 9a65 39bb 6554 00bd 250f 3d3c 348e 5dbc
00000270: a59d b93c 823f cebc b04b dcbc bcdf b33d
00000280: 462c 6abc d9f7 cdbc 77d0 9d3d d320 43bd
00000290: f4ab cd3c 3b3b 1cbc e8de 05bd 5b90 01bd
000002a0: 8349 423c 96b3 5f3d a5bc 31bd 48e0 d8bc
000002b0: 698f 6c3d 30c2 903d f7bd 98bc e20a 403d
000002c0: 06f4 543c 9d9a bd3d 292c ed3c 3e53 77bc
000002d0: 0900 1cbc a2e0 e0bc be8e 243d 6f06 1bbd
000002e0: dd53 9dbc 43ff 11bd 78fa 64bc 3be6 fd3c
000002f0: 81b1 d63c 5b60 11bd c365 ab3c 922c bc3d
00000300: 77e3 7cbd f5d2 1c3c 2b99 8bbd b142 293d
00000310: b471 bc3c 8444 e4bb b10c 17bd 98a9 c33c
00000320: 49a0 283d f760 2a3c 0f85 73bd c056 2e3d
00000330: ba91 6c3d 0d07 57bd bf47 ef3c 7ab8 263d
00000340: 437a 173d a85e 413c 71db e43b caee 86bd
00000350: 69d9 153d fc93 28bd 053d 59bd 3aaa 103d
00000360: 823d 4e3d 48f9 cfbb 8b5c d1bc ec0f 973b
00000370: 9fdb 3dbd 73cc 75bb 5a74 623d 266e 993c
00000380: eb1b d9ba ce1f 55bd ba07 a6bd d045 83bb
00000390: 6512 ba3c 91b9 21bd cc7f 4b3d 8a94 613d
000003a0: c1b6 77bd 9d99 433d b76f 7ebd d6ec 9c3c
000003b0: 265c 0839 c48a 4dbd 6fdb 4d3d 7499 e83c
000003c0: 0ec6 5dbd be16 193d 8260 66bd d466 15bd
000003d0: d064 58bc 4e2c 963b 7b03 833d 324c acb9
000003e0: 004e 113d 5ae7 c83d 6474 72bd f9bd 3fbd
000003f0: 72c7 09bd afb9 b9bc 8ab7 fe3c 1488 f73a
-0.06281984 -0.019132044 0.061466202 0.020621162 0.08788776 0.091086514 -0.012948828 0.10151814
0.021326866 -0.03628377 0.050649203 -0.04395854 -0.04048567 -0.04839095 -0.010220941 0.030860657
-0.039860226 -0.01720674 -0.004432353 0.022034401 0.02552802 0.028227447 -0.009816119 0.022369003
-0.035827585 0.037144408 -0.009244938 0.027548028 -0.012179666 0.018735327 0.06846494 -0.038300794
-0.05686868 0.025688205 -0.07316002 -0.021797257 0.057659127 -0.04655947 0.03183445 -0.014456836
-0.011210955 -0.040753312 0.015587229 -0.0043260497 0.044937246 -0.056620747 0.031633243 0.047317784
-0.020418115 0.044468053 -0.020789228 0.025290888 0.011351088 -0.051508263 0.008151812 0.0026551082
-0.007196307 0.03721086 0.034866106 0.020307343 0.034521148 0.024474028 0.0010877816 -0.013849505
-0.022490438 -0.024371434 0.007791826 0.051473435 0.054341797 0.058896072 -0.05177498 -0.00054993003
-0.06274749 -0.03643262 0.01025549 -0.052837916 -0.017820451 0.062878415 -0.06699342 -0.023602897
-0.050268717 0.027446963 -0.0059178458 0.090789095 0.040966034 0.06897163 0.036055487 0.07676325
-0.002472366 -0.008521009 0.019460214 -0.04393074 -0.030302508 0.048137717 -0.06601228 -0.038673714
0.04551864 -0.061285514 -0.04225789 -0.010703912 0.023296354 -0.007944016 -0.0039513814 0.036122248
0.014120807 -0.036873683 -0.032658968 -0.0046448796 -0.052762482 -0.014003055 -0.055821482 -0.035439726
-0.02770525 0.05860305 0.022197023 0.012314537 0.017994389 0.0039883913 -0.024979176 0.03798809
-0.013958321 0.043988034 -0.0053426516 0.049784124 0.061584245 0.047480587 0.09202759 0.043703467
-0.003865951 0.018262101 0.03450816 0.06155606 0.051536325 -0.006946566 -0.011297021 -0.03866701
0.0008504186 -0.058032967 0.040410813 0.07829115 0.040112436 0.05192985 0.038780574 0.006954956
0.01497558 0.06284654 -0.013315831 0.012070733 0.0494519 -0.058516067 -0.026626237 -0.0010667657
-0.002828932 -0.031330485 0.011539255 -0.013522673 0.022658179 -0.025176767 -0.02689156 0.08782908
-0.014292782 -0.025142597 0.07705777 -0.047638725 0.025106408 -0.009535606 -0.032683283 -0.03163181
0.011858347 0.054614626 -0.043392796 -0.026474133 0.057753954 0.07068288 -0.01864527 0.04688538
0.012997633 0.09258006 0.028951721 -0.01509553 -0.009521493 -0.027450863 0.040175192 -0.037847932
-0.019205028 -0.035643827 -0.013975732 0.030993572 0.026207687 -0.035492282 0.020922547 0.091881886
-0.061740365 0.00957178 -0.06816324 0.041323368 0.023003437 -0.0069661755 -0.036877338 0.02388458
0.041168485 0.010399095 -0.059453066 0.0425632 0.057756163 -0.05249696 0.029209016 0.040703274
0.036981832 0.011802353 0.0069841673 -0.06588514 0.03658429 -0.041156754 -0.05303671 0.03531859
0.050351627 -0.0063468553 -0.025556823 0.0046100523 -0.046352025 -0.0037505894 0.055286743 0.01872928
-0.0016564106 -0.052032284 -0.081069425 -0.004006125 0.02271385 -0.03948361 0.049682423 0.0550733
-0.060477022 0.04775392 -0.06211826 0.0191559 0.00013004299 -0.050181165 0.050258096 0.028393485
-0.054143958 0.037375204 -0.05624438 -0.036475018 -0.013207629 0.0045829182 0.06397148 -0.00032863166
0.035474777 0.09809752 -0.05919303 -0.04681203 -0.03363747 -0.022671549 0.031093378 0.0018885159

action_out.weight f4 [5, 256]
00000000: da61 563d d08d ab3c e089 5f3d e2a5 01bd
00000010: 1535 37bd 3fe1 85bd ebec 1ebd c4c5 01be
00000020: 0343 a3bc a01d 133b 59c7 b93c 6798 ed3c
00000030: 7e25 0b3d 4e3d 04bd 055c 4cbb 8918 13bd
00000040: b91a 903b 611c fdba a685 29bd 4fb5 11bc
00000050: c877 bb3c ceb9 cd3b f308 40bd b856 3dbd
00000060: c764 a43c 41b8 cf3c bad9 603d d9af 12bd
00000070: 5bee 533d a062 9d3c 70d6 37bd 17d8 f33c
00000080: 02e6 62bd b379 3b3d d691 9abc 4dfc 63bc
00000090: 0a4d fd3c 5def 5f3d 30ce 4abd 117b 7f3d
000000a0: 31d7 3dbd d320 cd3c b924 fb3b f77c 34bd
000000b0: 8cc0 c4bc be9e c2bc c66b 343d f1e6 c3bc
000000c0: e0bd 593d 29d2 24bd 5f0b 363c 8f4d b13c
000000d0: 4ff6 24bd 2ff0 58bd dfc5 6f3c 06cf 89bc
000000e0: 6cad 6f3d e855 25bd 4f68 d1bc 6093 46bc
000000f0: 802c b3bc bd25 d0bb 0fc8 57bc 2b1f a03b
00000100: 713e 673d 45cd 4ebd 8586 963c 63c0 14bd
00000110: 8f6b 133d 69a2 99bc 94cb c4bc fb1c b43c
00000120: 3d90 0c3d fd88 1cbd 30c4 46bd 675d 9bbc
00000130: 89d9 ff3c f12e 4d3d 566b 3d3b 9d49 df3a
00000140: f079 15bd 22fa 373d cb30 a33c ad04 eabc
00000150: db6b 49bd c8c4 9b3c 1c4b f0bc 9b47 eb3c
00000160: 154d 8e3c db48 033d 7b80 4b3d f3c7 17bd
00000170: 45f6 4b3d 6aba 20bd 965c 773b 1872 213d
00000180: 378e 2b3c 0d6e a4bc 9373 873c 85ab 8abc
00000190: ddcc f83c 2696 6ebc f005 05bd 56c1 d43a
000001a0: b7aa 8c3c 0c1b 9a3c 7ac7 f33c b4e4 293d
000001b0: 3004 32bd a2a5 3e3c 1d13 debc a311 623d
000001c0: 456b 79bb 4e82 b43c 386b 0d3c 0450 cbbc
000001d0: 130c 593d 5325 873a 1fd6 2dbd bd86 6b3d
000001e0: a086 403d 5bb6 043d fb9f 093c 8a4e 8d3b
000001f0: e0dc 13bd 76d7 d8bc 3ade 86bd e1a3 29bc
00000200: 11e9 80bc 8d99 bf3c 224f 263d b462 bb3c
00000210: c258 02bd 678e 59bd 1d8e 24b9 b952 2dbd
00000220: 6602 dd3c 008c 0fbd a508 473d 008f babc
00000230: d6c9 1b3c 0719 1ebd 3646 d53c 02f7 5ebc
00000240: 3f10 a73c 00b2 adba 166e 013c ec75 2bbc
00000250: 0240 67bd 6870 efbc b8d5 c7bc 2c85 173b
00000260: a935 9fbc b96f 69bd c134 0abd f442 443c
00000270: 68d0 00bd 1c07 013d 10ea 66bd 761e 87bd
00000280: 6cc7 3f3d ef68 b43c dd9a d8bc 0551 e9bc
00000290: a59a da3b be74 f3bb 3663 84bc 3d37 35bb
000002a0: 28f0 4abd 6096 2b3c 7748 633c d198 1fbb
000002b0: cee2 09bd 11d7 8ebc 1190 d13c f740 db3c
000002c0: 0551 313d cfe3 25bd f253 f2bc 77d6 c7bb
000002d0: 3c7e 3d3d b751 f43b f4dc f13c e453 3b3d
000002e0: 875d 20bd 387a 893d 9081 ca3c b7d5 4d3c
000002f0: c6e1 65bc 49a3 333d 0c10 abbd 55cd 85bd
00000300: a6ed ec3c 3868 1ebd 30fd 813b cbfe 33bc
00000310: 98d6 1f3d 4fec 0b3d 51a0 b53c a3c6 83bd
00000320: d596 f0bc c4c2 323d 6826 e93c 3fc8 2cbc
00000330: 5026 543d dbf5 0bbc 4ee9 8dbc b2ed a53c
00000340: 2c6b 353d a10a 073d e048 e2bc 7d6d 21bd
00000350: 3080 0c3d 03d5 a0bc 082b adbb a244 f0bc
00000360: 00e0 97bc 100b 52bd 8bc9 e93b 0d50 523d
00000370: 3d98 223d 3a08 f73c 563c 1c3d a8f5 073d
00000380: 6351 c1bb 7cb7 583c e395 bbbb ae4d e23b
00000390: 3b30 1bbd 6042 31bd c8bb b9bc 04f9 38bd
000003a0: 4e29 323c dfaf 4cbd 5977 9f3c 51e6 a1bc
000003b0: 1d64 b83a 2c15 74bd b381 673d 4d68 6dbc
000003c0: ce59 29bd 42ab b4bc 0060 1c3d ac4d 2b3d
000003d0: b10d 2cbd cad4 35bd 5a0d c73b 6a8f 00be
000003e0: 33c1 0b3d 43e0 50bc c02f 58bc e906 15bc
000003f0: 2311 1dbd 2c2d 553d d2d9 173c e88f 46b8
0.052339412 0.020941645 0.054574847 -0.03165234 -0.044728357 -0.06537103 -0.03880016 -0.12673098
-0.019929415 0.0022448078 0.022678064 0.029003335 0.033971302 -0.032285027 -0.0031182778 -0.03591207
0.004397717 -0.0019310826 -0.041387223 -0.008893325 0.022884265 0.006278253 -0.046883535 -0.04622528
0.020067586 0.025356414 0.05489514 -0.035812233 0.051740985 0.019212067 -0.044882238 0.029766126
-0.055395134 0.04577036 -0.018868368 -0.013915134 0.030920524 0.054671634 -0.049513042 0.062373225
-0.0463478 0.025040066 0.00766429 -0.04406449 -0.024017595 -0.023757335 0.044048093 -0.023913832
0.053159595 -0.040239487 0.0111111095 0.021643428 -0.04027396 -0.052963432 0.0146345785 -0.01682235
0.058514997 -0.04036513 -0.025562434 -0.012120098 -0.021871805 -0.006352155 -0.013170256 0.004886528
0.056456033 -0.05048873 0.01837469 -0.036316287 0.035991248 -0.018754201 -0.024022855 0.021986475
0.034317244 -0.03821658 -0.048526943 -0.018965436 0.031231659 0.050093595 0.0028903089 0.0017035488
-0.03649324 0.04491628 0.019920727 -0.028566683 -0.049175125 0.019014731 -0.02933269 0.028720668
0.01737074 0.032051902 0.049683075 -0.03705592 0.049795408 -0.03924028 0.0037744395 0.03941545
0.010470918 -0.020072008 0.016534602 -0.01692749 0.030371124 -0.014562165 -0.032476366 0.0016231935
0.017171247 0.018811725 0.029758204 0.041477874 -0.043461025 0.01163617 -0.027108723 0.0551926
-0.0038058322 0.02203479 0.00863152 -0.024818428 0.05299003 0.0010310806 -0.04244053 0.057501543
0.04700339 0.03240047 0.008399959 0.004312341 -0.036099315 -0.026469927 -0.06585355 -0.010354013
-0.015736135 0.023388648 0.04060281 0.022874214 -0.031822927 -0.05311432 -0.000156932 -0.04231522
0.026978683 -0.035045624 0.04859223 -0.022773266 0.009508571 -0.038598087 0.026034456 -0.013608696
0.020393489 -0.0013251901 0.007899782 -0.0104651265 -0.056457527 -0.029228404 -0.024393901 0.0023120148
-0.019434767 -0.056991313 -0.033741716 0.0119788535 -0.03144875 0.03150092 -0.056375563 -0.06597607
0.046821043 0.022022692 -0.026441032 -0.028481016 0.006671267 -0.0074296882 -0.016160589 -0.0027651333
-0.049545437 0.010472864 0.013872257 -0.002435256 -0.033663563 -0.017436536 0.025581392 0.026764376
0.043290157 -0.04050046 -0.029581044 -0.0060985642 0.046262965 0.00745603 0.029524304 0.0457343
-0.039151695 0.067127645 0.024719983 0.012563161 -0.014030879 0.043856893 -0.0835267 -0.065333046
0.028921913 -0.03867361 0.00396695 -0.01098604 0.039023012 0.03416091 0.022171171 -0.06434371
-0.029368797 0.043642774 0.028460696 -0.010545789 0.05179435 -0.008542503 -0.017323162 0.020254944
0.04429166 0.03296912 -0.02762264 -0.039411057 0.034301937 -0.019632822 -0.0052846707 -0.029329602
-0.018539429 -0.05128008 0.0071346215 0.051345874 0.039695967 0.03015529 0.03814348 0.03319326
-0.0058995946 0.01322734 -0.005724655 0.006906233 -0.037887793 -0.04327619 -0.022672549 -0.045159355
0.010874106 -0.04997241 0.01946609 -0.019763144 0.0014067922 -0.059590504 0.056520175 -0.014490199
-0.04134541 -0.022054318 0.03817749 0.04182212 -0.042005245 -0.044392385 0.0060745897 -0.12554708
0.034119796 -0.012748781 -0.013194978 -0.009095886 -0.03834642 0.052045032 0.009268241 -4.73409e-05

action_out.bias f4 [5]
00000000: 4fed 12bc 08d9 80bd ff91 0d3d 8a10 a5bc
00000010: 67bb b0bc
-0.008967712 -0.062913954 0.03456306 -0.020149488 -0.021573735

weight f4 [256, 123]
00000000: 3dd0 143d 3d14 cbbd abec ae3d 2bcc 093b
00000010: 2241 893d 7316 8b3c 0dc8 a63c e0e0 6fbd
00000020: cbfc ba3d 0811 d33c 81f0 af3d a5d7 3abd
00000030: 5f30 613d dc6e 653c b6c0 943d 15b8 f2bd
00000040: c872 713d dfc5 50bd aa6c b43d 9106 0c3c
00000050: 48e4 773d f1c8 99bc 5c60 d7bc 266f c9bc
00000060: f682 62bd 4045 82bd becd b13d 8e32 813d
00000070: e7e1 f4bd 4e26 f7bb 0cce 6dbd a66a 5e3d
00000080: feb6 bcbc dda4 abbd 720b 5fbd d593 29bd
00000090: 5f7a a33d 047d dcbd 2fad 2abd dd86 e7bd
000000a0: 4451 853d 7e01 4c3d f258 b8bd eff0 f4bd
000000b0: 748b 8c3d 7f9f 793d f354 c4bc be9c 7a3c
000000c0: 55eb 0abd 13e9 6a3d 5270 fabc 2fc1 3ebd
000000d0: 92d0 ad3c 40f8 ffba 5337 9d3d efdd c83c
000000e0: 9c05 8cbd 7af9 163d f10f 893d 6dff c8bd
000000f0: d0dd fcbc b5e2 c33d 4e01 9d3d fbd9 89bc
00000100: cf7e 7ebb c478 32bd 0e37 e83d 5245 d03c
00000110: 8b62 aabd 2011 753d a14b 8a3d 4081 01bb
00000120: b205 ad3c e173 463c 1858 cabc 3184 babd
00000130: b974 12bd d06d 2b3d 9516 033d e614 e53c
00000140: d643 94bd e82a 303b af03 02bd f64b 863d
00000150: 2e36 81b9 b6d6 853d 7c84 8fbd f4e8 b6bc
00000160: fb17 b6bd cf4f 823d 7527 86bd 477e c93c
00000170: 8be1 bbbd 8534 b5bc 856e b03d 09d7 90bd
00000180: e81a aebd 946f a93c ee81 8bbd d584 88bc
00000190: 756b 82bd 26d7 3b3d 5e1a 61bc ebab 87bd
000001a0: 008a ddb9 0800 43bc 7c5d 303d 6f2a 86bd
000001b0: bb0c 4f3c 17bb 913d 17da 763b 5dde 4dbd
000001c0: 2e43 30bb 63ae 9ebd 9788 8f3c 0730 f63c
000001d0: 5d24 323d 2562 cbbc cf9a 753d ff0f 43bd
000001e0: 437c b8bc 580c 04bd fced 17bd 0905 233d
000001f0: 5fcb 773d a82c ac3c e450 26bd 4404 d9bc
00000200: 7821 f7bc 6211 b3bd 43c8 32bd dc02 503d
00000210: 5363 70bd a17e 973d b1b1 923d 44d5 c0bd
00000220: c7ca 6e3d d33d ce3c 7693 4dbb 50d9 adbc
00000230: b308 4a3d aac6 733c 13c3 9abd 1af9 923d
00000240: 0382 eb39 22a7 2e3d 0589 c93c 8ffe 86bd
00000250: 4126 88bd 1c0e 7dbd 34cb 4fbd 4b9b 50bd
00000260: 24bd 093d b880 31bd fe49 003d ed66 6d3d
00000270: 2455 a6bc aeda 85bd 6e92 263d 362a a2bd
00000280: 6723 7f3d 7c17 063d 0c84 5f3d cebc 3ebc
00000290: 423b 59bd 38ec 5dbd 3261 5fbb f16e a63b
000002a0: 4c59 30bc d46e abbc a8e3 a1bd 5cdb 1f3d
000002b0: fa80 9c3a 04fb b6bd d16b 7bbd cb10 68bc
000002c0: c6a5 533d e473 eabc 23d0 643d 5f97 a3bd
000002d0: 07eb 30bb ef94 103c 0603 7c3c 1f59 053d
000002e0: 25ce dabb 75f3 c9bc 6ed0 b8bc 8200 843b
000002f0: 0cca 0c3d 2152 1fbd 22bb 87bd 2dce 8c3d
00000300: 6f47 b5bd 069c 543d 5035 b93b 10b1 72bc
00000310: a0ec a8bc 2eb2 bcbd 4090 4ebc ea08 9dbd
00000320: 3966 59bd 77f3 9bbd 24c3 cc3c f974 f6bb
00000330: a1e2 7d3d bbbf 993d 43b4 943d 1234 90bd
00000340: 25ba 20bd 346f c4bd 55a7 6b3d 3850 1c3d
00000350: 8ff5 9a3c e3ba 87bd e257 683d 0664 54bd
00000360: 95a4 6abd fb6f 8e3c d033 6ebd 30f3 a1bd
00000370: 2d5c 933d 26c1 0e3d 7a4d 89bd d11e 6e3d
00000380: 1129 a3bd b10f 413a 7440 5a3b 6116 973d
00000390: 8724 863d 63dc 86bd 4a42 51bd 0bac 84bd
000003a0: 4ef9 19bd aa14 8a3d 02a4 53bd 10cc a83d
000003b0: 1eb9 283d 9978 253d 4a05 5dbd 18c2 4dbd
000003c0: 6155 a63d eaa2 013d 542f 193c dfcf 333d
000003d0: aa53 d1bc ecf1 8dbd 44dd 97ba b071 b73d
000003e0: 5cbc a43c 92df 43bd 4111 aa3d 2492 25bd
000003f0: 651c 3ebc 25ed 6c3d 3dbb ca3c 60ba 72bc
0.036331404 -0.099159695 0.085412346 0.0021026235 0.06701876 0.016978478 0.020359064 -0.058564067
0.09130248 0.025764957 0.08590794 -0.04561581 0.05497777 0.014003482 0.07263319 -0.11851517
0.058947355 -0.050969955 0.088097885 0.008546487 0.06052044 -0.018772574 -0.026291065 -0.024589133
-0.055300675 -0.06360865 0.0868182 0.06308471 -0.1195715 -0.007542408 -0.05805783 0.054300927
-0.023036476 -0.083810546 -0.054454274 -0.04140075 0.07982325 -0.10766032 -0.041669067 -0.1130502
0.06509641 0.04980611 -0.0900134 -0.11960017 0.06862536 0.060943123 -0.023966288 0.015296159
-0.033915836 0.057351183 -0.030571137 -0.046570953 0.021217618 -0.001952894 0.07676568 0.024519889
-0.068370074 0.036859013 0.06692494 -0.098143436 -0.030867487 0.09564725 0.076662645 -0.016827574
-0.0038832908 -0.043572202 0.11338626 0.02542368 -0.08319577 0.059830785 0.06752706 -0.0019760877
0.02112088 0.012112589 -0.02470021 -0.09107245 -0.035755847 0.041852772 0.032003958 0.027964067
-0.07239501 0.0026881043 -0.031741794 0.06557457 -0.00024645164 0.065350935 -0.07007691 -0.022327878
-0.08891293 0.063628785 -0.065504946 0.024596347 -0.09173878 -0.02211977 0.0861483 -0.07072265
-0.08501226 0.020683087 -0.068118915 -0.016664902 -0.06368152 0.04585948 -0.013739197 -0.066245876
-0.00042255223 -0.011901863 0.043057904 -0.06551062 0.0126373125 0.07115763 0.0037666613 -0.05026089
-0.002689551 -0.077481054 0.017521186 0.030052198 0.04349171 -0.024827072 0.05996209 -0.047622677
-0.02252019 -0.032238334 -0.037092194 0.039799724 0.060496684 0.021017388 -0.040604487 -0.026491292
-0.030167326 -0.0874355 -0.043648016 0.050783977 -0.058688473 0.073971994 0.07162798 -0.09415677
0.058298852 0.025175964 -0.003136841 -0.021221787 0.049324702 0.014878908 -0.07556739 0.071764186
0.0004491956 0.04263986 0.024601469 -0.06591522 -0.06647921 -0.061781034 -0.0507309 -0.05092935
0.033627644 -0.043335646 0.031320564 0.057959486 -0.02030427 -0.065358505 0.04066699 -0.07918207
0.06228962 0.03273724 0.05456929 -0.011641694 -0.05303503 -0.054180354 -0.0034085033 0.005079143
-0.0107634775 -0.02092687 -0.0790475 0.039027557 0.0011940293 -0.08934596 -0.06138212 -0.01416416
0.051671766 -0.028619714 0.055862557 -0.07987856 -0.0026995556 0.008824571 0.01538158 0.032555696
-0.0066774064 -0.024652222 -0.022560325 0.004028381 0.034372374 -0.038896684 -0.066274896 0.068752624
-0.088515155 0.051906608 0.0056521073 -0.014812723 -0.020620644 -0.092136726 -0.012607634 -0.07667716
-0.053076003 -0.076147966 0.024995394 -0.0075212684 0.06198371 0.07507273 0.07260945 -0.070411816
-0.03924002 -0.09591523 0.057532627 0.03816244 0.01891592 -0.06627443 0.056724437 -0.051853202
-0.057285864 0.01738738 -0.05815488 -0.079077125 0.071953155 0.03485217 -0.067042306 0.058134858
-0.07966817 0.0007364704 0.0033302577 0.07377315 0.06549936 -0.06585004 -0.05108861 -0.06478127
-0.03759127 0.067422226 -0.051670082 0.08242047 0.041192167 0.040398214 -0.053960122 -0.05023393
0.081217535 0.031649508 0.009349663 0.043899413 -0.02555259 -0.069309086 -0.0011586328 0.08957231
0.020109348 -0.047820635 0.08304072 -0.040422574 -0.0116034495 0.057843346 0.024747485 -0.014814943

bias f4 [256]
00000000: 6a3f 453c fae6 3cbd 54c5 c73d 68dc adbc
00000010: fce2 75bd c258 77bb e490 da3c 6b66 9ebd
00000020: 11b5 653d b00b bc3c 5cdd 7bbb f241 80bd
00000030: ea98 743d a8fe 923d d69c a8bd 0882 9dbd
00000040: f05d 5bbc 680a 99bc b892 79bd 85fe 16bd
00000050: 12db 943d 7f9b 6b3d 01c5 2bbc ce22 a2bd
00000060: 4b27 9c3a 21cb 8f3d 5143 42bd 1762 b3bc
00000070: eef2 99bd 1a0b 37ba c2bf 19bd 9917 a2bd
00000080: 6729 0c3c c5a1 82bd 43a6 15bd 539c 3b3d
00000090: 0097 e6bd eb78 843d cea1 a1bd a852 883d
000000a0: 1a5f 71bd 096b 7c3d d34a d93c 1981 e6bc
000000b0: 08fc a6bd ecf9 06bd b2fd 9ebd c005 a33d
000000c0: 2311 863d 72f1 4ebc 8dfe 783d c6b3 ad3d
000000d0: d68d 543d 25d0 ac3d bcd5 d7bb 2c75 ce3b
000000e0: 8c34 7cbd 46c9 58bd 3b03 833d 76b3 2c3c
000000f0: 0b81 b73c 6887 83b8 8418 733d f7f1 433c
00000100: 04b4 4e3d 4d2f 06bd 463e a93c 56fa 1fbd
00000110: f880 70bd bc20 babd 69e7 10bd e7f7 c0bd
00000120: 86c3 09bd ec20 c9bc 62ec 8a3c bf11 89bd
00000130: 6a73 63bd 067a cbbb 0a0e 6dbd 3f38 e0bc
00000140: 3775 6e3c daf6 26bd d86e e3bc 1aa6 89bd
00000150: 8bc3 033d e26e aebd 1c15 b33d 632c 1a3d
00000160: cce6 8bbd 16a0 003d 9227 b8bd 43c5 a33d
00000170: d98a 84bd ba9c 183d c994 143d cc93 953d
00000180: a665 70bd 7fdc 46bd 9419 1d3d fc5d 8ebd
00000190: 3674 8dbc 4acf e0bb 2375 1f3d 357b 6f3d
000001a0: 7c1b 77bc 5b1e 7b3c dd60 f33c 07ab 203d
000001b0: 3432 dabb 959b 913d 41c9 5fbd ce9f b2bd
000001c0: da71 d8bc df43 2fbd 0271 b1bd 07d3 c3bd
000001d0: d10b 223d 9a31 763d 6b0f b0bc c6b5 c0bc
000001e0: 3e51 9f3d 97be 4f3c 9832 8d3c cb0a 443d
000001f0: e2bb 853d df45 3a3d 08a6 dfbc 047a 86bd
00000200: 50d9 92bd 3742 2fbd 689e 1b3c 19cb aa3d
00000210: bdd8 18bb 1aec 2c3d 8ab9 0d3d 85c3 38bc
00000220: 5c8e b3bc 4d15 a1bd cbb1 c03c d849 26bd
00000230: c1ff a53b ea98 c4bd af34 7c3d 340b b6bd
00000240: c6de 92bd dd80 80bd 8eea 0cbd 3c40 463c
00000250: f3bd 6f3d 5170 353d c4d5 a5bd db07 613d
00000260: 814d 0fbd 1865 d83c f436 63bc 1b17 813c
00000270: 657a 13bd 4fcb 8b3d b70d 9dbc 8f21 eebc
00000280: 0c15 fe3c 863d 523c aa43 613d 76ce 323c
00000290: 2c79 8abd 52e8 c8bd 145f b6bd 2ae4 a63c
000002a0: d5c4 c9bd 1419 7dbd ed1a 5d3d 8589 553d
000002b0: 27a2 3a3c 7344 e23b 0edb ba3c 319c 883b
000002c0: 1c1b 213d 7a31 1c3c b093 5e3d 534b 793d
000002d0: bfe2 35bd fdb4 4ebc 4bc7 613d cec0 c0bd
000002e0: 83d8 ca3c 961f b43b 7996 82bd 87df 183d
000002f0: d6f2 71bc f966 3c3d 39a5 a5bc fc77 c33b
00000300: d45d 41bd 784b 0abb 8b4c a1bc 52f5 acbd
00000310: 74ae 18bd 46da 10bc 86a6 e5bc c268 3b3c
00000320: 7345 cdbc c526 bb3c 91f4 cc3c 0318 683c
00000330: 544b fd3c 8c46 e13c c645 5e3c 9512 4cbd
00000340: 153e acbd df9c f9bb 082d 5f3c f90c e1bd
00000350: 6c40 c0bc 9d90 453d 4cd4 0cbc ecad 523d
00000360: 8def a23d fef9 dd3c 173b 593d a1c5 acbc
00000370: a737 bebd ee3a 103d 9ebc 15bd 9475 193c
00000380: db97 52bb 4345 d3bc fdc7 933d 4dbe 07bd
00000390: 08e4 8d3d ea9d 783d b02f ae3c 7613 8dbd
000003a0: 6ae6 6bbd ada2 bdbc 59ab 6abd f517 c03c
000003b0: 9358 093d 922c 45bd 8c8b 85bd 4983 573c
000003c0: a03e a53d 0398 81bd 8702 9fbd d735 823d
000003d0: 5415 89bc 7e30 023c 4b53 76bd d03e f0bc
000003e0: 5900 11bc 8aa3 163d 160a 80bd 7c45 5ebd
000003f0: 4171 debb 4207 67bd 1bf6 8dbd a9f8 c4bd
0.012039045 -0.046118714 0.09754434 -0.021223262 -0.060030922 -0.0037742113 0.026680417 -0.077343784
0.05608088 0.022954792 -0.00384315 -0.06262578 0.059716143 0.07177478 -0.08233039 -0.07690817
-0.013389096 -0.01868172 -0.060930938 -0.036863822 0.07268347 0.05752134 -0.010483981 -0.07916795
0.0011913566 0.07021166 -0.04742748 -0.021897359 -0.07517038 -0.000698255 -0.03753639 -0.07914657
0.008554793 -0.06378511 -0.036535513 0.04580338 -0.1125927 0.06468376 -0.0789219 0.066563904
-0.058928587 0.061625514 0.026524937 -0.02813773 -0.0815354 -0.032953188 -0.07763232 0.07960081
0.06546237 -0.012630807 0.060789634 0.08481555 0.051893078 0.08438138 -0.0065867584 0.006300589
-0.06157355 -0.052926324 0.063971005 0.010540834 0.0224004 -6.271788e-05 0.05934955 0.011959544
0.050464645 -0.032759953 0.020659577 -0.0390571 -0.058716744 -0.09088275 -0.03537694 -0.094222836
-0.03363373 -0.024551831 0.01695842 -0.06692838 -0.05552999 -0.0062096147 -0.057874717 -0.02737057
0.014554313 -0.04076276 -0.027762815 -0.067211345 0.032168906 -0.08517243 0.08744261 0.037639987
-0.068311304 0.03140267 -0.089919224 0.07996609 -0.064717956 0.03725884 0.036274705 0.07303581
-0.05869069 -0.048550125 0.03835447 -0.0695152 -0.017267328 -0.0068606483 0.03893007 0.05846711
-0.015082236 0.0153270615 0.029709274 0.039225604 -0.0066588167 0.07109753 -0.05463529 -0.087218866
-0.026421476 -0.042789336 -0.08664133 -0.09561735 0.03956205 0.060105897 -0.021491727 -0.023524176
0.077791676 0.0126797175 0.017236039 0.047861855 0.065299764 0.04547679 -0.02730085 -0.065662414
-0.07170355 -0.042787757 0.009498216 0.08339519 -0.0023322545 0.04221735 0.034600772 -0.011277084
-0.021918468 -0.07865391 0.023522278 -0.040597767 0.0050658886 -0.095994785 0.06157368 -0.088888556
-0.07171397 -0.06274579 -0.034403376 0.012100276 0.05853076 0.044296566 -0.08097413 0.054939132
-0.034986023 0.026415393 -0.013868082 0.015758088 -0.036005396 0.068258874 -0.019171579 -0.029068736
0.031015895 0.012832051 0.05499617 0.010913482 -0.06761393 -0.098099366 -0.089048535 0.020372469
-0.09851996 -0.061791494 0.053980757 0.052133102 0.011391199 0.0069051324 0.022809532 0.00416901
0.039332494 0.0095332805 0.054340065 0.06086285 -0.044405695 -0.012616393 0.0551217 -0.094117746
0.024761444 0.0054969294 -0.06376357 0.037322547 -0.014767369 0.04599664 -0.020220386 0.005965231
-0.047208622 -0.0021102112 -0.019689819 -0.08445229 -0.037275746 -0.008841103 -0.028033506 0.01143855
-0.02505753 0.022845635 0.025018962 0.014165881 0.030919708 0.02749946 0.01356644 -0.04982241
-0.08410279 -0.0076175774 0.013621576 -0.109888025 -0.023468219 0.048233617 -0.008595537 0.051435396
0.07955847 0.027096745 0.053034868 -0.02109033 -0.092879586 0.03521245 -0.036556832 0.009366412
-0.003213397 -0.025789862 0.07215879 -0.03314047 0.06928259 0.060697474 0.021262974 -0.068884775
-0.057592787 -0.023148859 -0.057292316 0.023448924 0.033531737 -0.04813821 -0.06520757 0.013153859
0.080685854 -0.06327822 -0.07764154 0.063579254 -0.016733803 0.007946132 -0.060138028 -0.029326826
-0.008850181 0.036777057 -0.06251924 -0.054265484 -0.0067884033 -0.056403406 -0.069317065 -0.09617741
