src/saved_models/grid_world_seed125_8_5_11_22/125_9_model.pt (torch, 702521 bytes, 11 tensors)

FC1.weight f4 [256, 36]
0.066043265 -0.12551141 -0.06846764 0.160138 0.20094243 -0.09443293 0.16478965 0.06932293
-0.006620813 0.013216827 -0.011383725 0.12305153 -0.041983105 0.042438984 0.18474665 -0.019146493
0.20060053 0.044994827 0.1670136 -0.12799919 0.051264677 0.14740135 0.07774584 0.116546564
0.013892729 -0.047535527 -0.11051252 -0.006722287 -0.01568105 -0.07166689 0.17316233 -0.11498627
0.054638434 -0.044418514 0.15100858 0.12845339 0.015227513 -0.14962848 -0.08080218 -0.124876864
0.1304736 0.06990807 -0.019014379 -0.15252227 -0.05595728 0.13432193 -0.11268525 0.05971915
-0.08551443 -0.114118196 0.10540536 -0.08025555 0.11002158 0.12229187 -0.038668245 0.037587248
-0.03203598 0.03272908 -0.1286901 -0.0038778968 -0.03678905 -0.0976673 0.112342276 -0.101412244
0.045899443 -0.08377074 -0.14759125 -0.17076337 0.09028875 -0.15228389 -0.07593812 -0.011545971
-0.18964049 0.13671495 0.13517019 -0.15940213 -0.0127542205 -0.07773156 0.0045903143 -0.13880731
0.08468987 0.03424363 0.07354563 -0.009861212 0.019326389 -0.092976764 -0.08431824 0.12768301
0.11077911 0.097989105 0.08247149 -0.012183964 -0.103761114 -0.07785473 -0.15268311 0.1365413
-0.15853652 -0.008656421 0.04678554 -0.12920193 -0.021133356 -0.00786771 0.064587034 -0.053174514
-0.15727188 -0.13528873 -0.09874115 0.020678267 0.08030786 0.15976812 0.044156704 0.039134234
0.0065104547 -0.10724554 0.18836644 -0.05520224 -0.020389078 0.17094542 0.03752343 0.119381696
0.10000483 -0.057986498 0.026172986 0.12919497 0.09809998 0.15927953 -0.16069134 0.05731264
-0.043468658 -0.053756043 -0.046218418 -0.10801526 -0.11184486 0.095202014 0.1192129 0.104953766
-0.022908548 0.09345797 0.10333989 0.014283927 -0.12636687 -0.065562434 0.11315322 -0.098548315
-0.14863148 -0.06405533 -0.12155931 0.09543178 -0.1349953 0.140724 0.08165688 0.06849055
-0.12013727 0.14321314 -0.12797606 -0.010553778 0.07845794 0.066731244 -0.14719802 -0.06061034
0.04462687 0.05101107 -0.112611696 -0.011226833 -0.10652636 0.14528729 -0.07829923 -0.086434655
-0.14885002 -0.0002328649 0.119652584 -0.072292835 -0.06688647 -0.13035068 -0.012204215 -0.017713465
0.07247965 0.13672613 0.1017576 0.12665872 -0.091596074 -0.07296448 0.107633546 0.13206562
0.14713491 0.17169926 -0.103809394 0.17090355 0.06377038 0.090907626 0.010558026 0.10682817
0.15008181 0.055630744 0.0910698 0.0462602 0.060434315 0.105619505 0.076267034 -0.07094164
0.05168235 0.117703624 -0.12679079 0.078255996 -0.047795415 -0.05312556 -0.119460925 -0.06671268
0.16410209 0.056664404 0.16669008 0.15659736 0.014162247 -0.04083017 0.17134209 0.042362988
-0.02222552 -0.103502885 0.06783716 -0.03274163 -0.044462435 -0.06631617 -0.08039078 -0.076589994
-0.1480227 0.020547997 -0.017331049 -0.13311762 0.111543745 0.008779163 -0.11790285 0.057889923
-0.013782098 -0.09844341 0.12665226 -0.1358995 -0.037796035 0.06750848 0.082223944 -0.009247878
0.16643056 0.05620802 0.11207716 -0.121243685 -0.013677968 -0.065112814 -0.11948415 0.03697401
0.07660533 0.03868277 -0.07596239 0.03401135 -0.1535155 -0.005502861 0.0084209675 -0.12047277
00000000: b141 873d 1086 00be c338 8cbd 37fb 233e
00000010: dac3 4d3e 0d66 c1bd 9ebe 283e 2ef9 8d3d
00000020: 68f3 d8bb 648b 583c ce82 3abc 7102 fc3d
00000030: 7af6 2bbd 80d4 2d3d 3a2e 3d3e 1bd9 9cbc
00000040: 3a6a 4d3e 7f4c 383d 9d05 2b3e 3812 03be
00000050: e9fa 513d 61f0 163e 3639 9f3d f7af ee3d
00000060: 549e 633c 9db4 42bd 6354 e2bd a146 dcbb
00000070: 8c75 80bc 17c6 92bd 7751 313e ec7d ebbd
00000080: 8dcc 5f3d 30f0 35bd fea1 1a3e 4989 033e
00000090: d27c 793c 3538 19be 9d7b a5bd 71bf ffbd
000000a0: df9a 053e f62b 8f3d 0bc4 9bbc cc2e 1cbe
000000b0: 7633 65bd b08b 093e 86c7 e6bd 119c 743d
000000c0: 3122 afbd cdb6 e9bd c4de d73d 065d a4bd
000000d0: fe52 e13d 2974 fa3d 9862 1ebd 16f5 193d
000000e0: 2938 03bd ee0e 063d 56c7 03be 5024 7ebb
000000f0: 1db0 16bd cb05 c8bd b513 e63d 39b1 cfbd
00000100: 0e01 3c3d fe8f abbd 2922 17be 98dc 2ebe
00000110: 4fe9 b83d 4ff0 1bbe 7285 9bbd 502b 3dbc
00000120: 1e31 42be 01ff 0b3e 0e6a 0a3e 503a 23be
00000130: 14f7 50bc b931 9fbd 596a 963b 8123 0ebe
00000140: e271 ad3d 0c43 0c3d 179f 963d ec90 21bc
00000150: 6052 9e3c 9a6a bebd 0baf acbd 56bf 023e
00000160: 28e0 e23d 83ae c83d d0e6 a83d 409f 47bc
00000170: b580 d4bd 4d72 9fbd f658 1cbe 7cd1 0b3e
00000180: 6657 22be a9d3 0dbc 32a2 3f3d 834d 04be
00000190: dc1f adbc 91e7 00bc 3546 843d 85cd 59bd
000001a0: e10b 21be 2189 0abe cd38 cabd 7865 a93c
000001b0: 7378 a43d 419a 233e a9dd 343d 384b 203d
000001c0: a755 d53b 8da3 dbbd 22e3 403e be1b 62bd
000001d0: ff06 a7bc 510c 2f3e 2bb2 193d 647e f43d
000001e0: 55cf cc3d 4083 6dbd bb68 d63c b04b 043e
000001f0: a4e8 c83d 2c1a 233e 458c 24be a9c0 6a3d
00000200: 310c 32bd 4c2f 5cbd 864f 3dbd 1b37 ddbd
00000210: eb0e e5bd 46f9 c23d e525 f43d 00f2 d63d
00000220: b5aa bbbc e466 bf3d dda3 d33d 2207 6a3c
00000230: 5166 01be 9945 86bd e0bc e73d b3d3 c9bd
00000240: da32 18be 712f 83bd 16f4 f8bd bd71 c33d
00000250: 353c 0abe f419 103e b93b a73d c644 8c3d
00000260: 870a f6bd 77a6 123e 280c 03be c1e9 2cbc
00000270: 8eae a03d 64aa 883d 14bb 16be 8c42 78bd
00000280: aaca 363d fcf0 503d f6a0 e6bd c0f0 37bc
00000290: 7e2a dabd 31c6 143e 595b a0bd a704 b1bd
000002a0: 246c 18be 322d 74b9 6a0c f53d 440e 94bd
000002b0: c6fb 88bd a67a 05be 30f4 47bc d41b 91bc
000002c0: 3670 943d ef01 0c3e 4a66 d03d d3b2 013e
000002d0: b996 bbbd 676e 95bd fa6e dc3d 363c 073e
000002e0: 89aa 163e eed1 2f3e 059a d4bd 5701 2f3e
000002f0: 0c9a 823d c72d ba3d 92fb 2c3c bac8 da3d
00000300: 0caf 193e 10dd 633d ce82 ba3d 567b 3d3d
00000310: f989 773d 0a4f d83d e431 9c3d da49 91bd
00000320: dfb0 533d 990e f13d 72d5 01be ae44 a03d
00000330: 20c5 43bd 309a 59bd eea7 f4bd a8a0 88bd
00000340: 610a 283e ef18 683d ceb0 2a3e 0f5b 203e
00000350: c508 683c 893d 27bd 4d74 2f3e d084 2d3d
00000360: 4b12 b6bc 52f9 d3bd 35ee 8a3d 161c 06bd
00000370: 3e1e 36bd c6d0 87bd eca3 a4bd 37db 9cbd
00000380: 4393 17be 4654 a83c d8f9 8dbc fc4f 08be
00000390: 0c71 e43d 7ad6 0f3c 0d77 f1bd fc1d 6d3d
000003a0: 4fce 61bc b39c c9bd 21b1 013e 3d29 0bbe
000003b0: 04d0 1abd e341 8a3d 0765 a83d 6984 17bc
000003c0: c66c 2a3e 613a 663d b688 e53d 9c4e f8bd
000003d0: 8e19 60bc de59 85bd 1bb4 f4bd 0f72 173d
000003e0: 41e3 9c3d d371 1e3d 2b92 9bbd 7c4f 0b3d
000003f0: 2b33 1dbe 5851 b4bb 19f8 093c 6dba f6bd

FC1.bias f4 [256]
0.16564226 0.058848344 -0.11991999 0.17871356 -0.13507862 0.0693818 -0.006087609 -0.12122464
-0.023515036 -0.059387065 0.071582414 0.07337451 0.07932734 -0.1427657 0.04733812 0.036830906
-0.057697278 0.08071123 0.12070968 0.13731962 0.13720806 -0.07700389 0.22278309 0.1520931
-0.017730279 0.034752525 0.053176433 -0.015267237 0.047723275 0.1435598 0.05858825 0.051732898
-0.15637067 0.11904631 0.13343222 -0.07011306 0.020508343 0.04360607 0.14405565 0.1996898
0.0024252438 0.041053943 -0.09486145 0.103183456 0.12328516 0.1596164 -0.16517337 0.12154156
-0.15029158 0.027037205 0.19672935 0.07618956 0.055129226 0.04093845 -0.10910885 0.29351732
-0.0889887 -0.0023918843 0.011389108 -0.091269724 -0.018268019 -0.004556246 0.19318114 0.038449224
0.031403564 0.103183515 -0.04263964 0.07164859 0.09103729 0.15052915 0.07805927 0.03428875
0.06871677 -0.050868224 0.13146944 -0.01600642 0.19138424 0.059906743 -0.14672984 0.080982804
0.0116654355 0.121149324 0.13758467 0.09005861 0.12397726 0.0728008 -0.12579758 -0.11534477
0.13077156 0.10123286 -0.13055284 0.095444754 -0.162006 0.065449916 -0.04403271 -0.17376007
-0.043306097 0.045064725 0.085749164 -0.06802625 -0.067939825 -0.068500526 -0.010069528 0.19051465
-0.008493661 0.13979481 0.14187846 -0.10831252 0.15422551 -0.096298285 -0.092161655 -0.053761873
-0.14914295 0.071506485 -0.08734911 0.04664379 0.021169402 -0.04353308 -0.034353897 -0.053979807
-0.031110248 0.19829686 -0.06842792 -0.058632437 0.048720837 -0.06589365 -0.03730353 0.08782722
0.053272642 0.014479259 -0.06946053 -0.07082202 0.1304932 -0.005923252 -0.10325043 -0.014080544
-0.08209992 0.15876327 -0.07993718 -0.06653514 -0.13311473 0.15844291 -0.0037406874 -0.13337311
0.060045544 -0.10926343 -0.008656202 -0.049479645 0.09591036 0.046615273 -0.06594273 -0.15997419
-0.07200099 -0.07244562 -0.011239487 -0.11362168 -0.10254202 0.04269021 -0.028541695 -0.102257565
0.06324859 0.19298705 0.07796485 0.13434988 -0.05810541 0.11618585 -0.04558106 -0.0065260194
0.15902804 -0.1359371 0.12236752 -0.0192602 -0.0017000319 0.07446158 0.050113108 -0.006476495
-0.12699047 0.120935425 0.07589675 -0.024611026 -0.10709 -0.14848213 0.0955441 0.066421494
0.07413502 0.14742368 -0.10884339 0.16273889 0.10610989 -0.1245317 0.034548838 -0.1017593
0.08800473 -0.0896502 0.12311921 -0.16757199 -0.043464467 0.051356968 -0.06575029 -0.089897215
0.119935356 -0.124056675 -0.031925768 -0.030702038 -0.06897881 0.056350786 0.14572218 0.040982965
0.14148821 0.06850051 -0.05349982 -0.018961584 0.14316744 0.16202137 -0.10845208 -0.085074924
-0.06846433 0.054394037 -0.14592277 0.09010943 -0.0916992 -0.15922372 0.06914137 -0.05533679
-0.12104764 0.12193174 -0.042304788 0.04921576 0.15375723 0.0013391858 -0.008580588 -0.0949806
0.0081077805 0.090528935 0.14493781 0.16354151 0.08720219 0.12597437 0.16481915 0.07483526
0.09217979 0.17698132 0.102690205 0.14541496 0.001470387 -0.04924362 -0.14528702 -0.09908214
-0.095137395 0.05098213 -0.13632491 -0.07030054 -0.11617295 0.045023493 -0.11629068 0.082494624
00000000: 209e 293e f60a 713d 9d98 f5bd b000 373e
00000010: 0d52 0abe 0c18 8e3d 917a c7bb a044 f8bd
00000020: 9ba2 c0bc da3f 73bd cd99 923d 6045 963d
00000030: 5f76 a23d 2c31 12be 9ee5 413d 01dc 163d
00000040: fb53 6cbd ee4b a53d a336 f73d 849d 0c3e
00000050: 4580 0c3e 37b4 9dbd 4021 643e 4bbe 1b3e
00000060: 173f 91bc aa58 0e3d 88cf 593d 6f23 7abc
00000070: 7b79 433d 5701 133e 3cfa 6f3d e0e5 533d
00000080: a21f 20be 8dce f33d 75a2 083e 7097 8fbd
00000090: 1d01 a83c 479c 323d 5383 133e 7c7b 4c3e
000000a0: d7f0 1e3b 2e28 283d b846 c2bd d951 d33d
000000b0: ee7c fc3d 7b72 233e 3523 29be c8ea f83d
000000c0: 09e6 19be 217d dd3c 6b73 493e 4609 9c3d
000000d0: 2fcf 613d 13af 273d 7674 dfbd e747 963e
000000e0: b53f b6bd 29c1 1cbb 6299 3a3c 9feb babd
000000f0: d0a6 95bc 904c 95bb 47d1 453e ef7c 1d3d
00000100: 06a1 003d e151 d33d e7a6 2ebd 7fbc 923d
00000110: c271 ba3d 5024 1a3e 8add 9f3d 5c72 0c3d
00000120: 61bb 8c3d 335b 50bd ed9f 063e e51f 83bc
00000130: 3bfa 433e c660 753d 5940 16be 50da a53d
00000140: 6220 3f3c 231d f83d ffe2 0c3e a670 b83d
00000150: cae7 fd3d 9618 953d 15d1 00be e139 ecbd
00000160: fbe8 053e 2c53 cf3d a5af 05be 8a78 c33d
00000170: e7e4 25be 9b0a 863d a55b 34bd 29ee 31be
00000180: bc61 31bd ca95 383d 429d af3d 5951 8bbd
00000190: 0924 8bbd 014a 8cbd a9fa 24bc 4616 433e
000001a0: ff28 0bbc 5f26 0f3e 9648 113e f4d2 ddbd
000001b0: 4bed 1d3e 0938 c5bd 40bf bcbd 6935 5cbd
000001c0: eeb8 18be fe71 923d 17e4 b2bd 8f0d 3f3d
000001d0: 746b ad3c be4f 32bd acb6 0cbd ee19 5dbd
000001e0: ebda febc 550e 4b3e f023 8cbd 9128 70bd
000001f0: 808f 473d 40f3 86bd 96cb 18bd c2de b33d
00000200: 6a34 5a3d 6a3a 6d3c 5341 8ebd 230b 91bd
00000210: 02a0 053e d717 c2bb f674 d3bd 15b2 66bc
00000220: 0124 a8bd d792 223e 1bb6 a3bd 9343 88bd
00000230: 3a4f 08be dc3e 223e 5226 75bb f692 08be
00000240: 51f2 753d 81c5 dfbd bed2 0dbc 2bab 4abd
00000250: a76c c43d a8ef 3e3d fb0c 87bd 46d0 23be
00000260: 4175 93bd 5f5e 94bd d325 38bc 7cb2 e8bd
00000270: 8d01 d2bd eedb 2e3d 46d0 e9bc 6a6c d1bd
00000280: 7a88 813d 669e 453e 09ac 9f3d 0493 093e
00000290: f0ff 6dbd d9f2 ed3d 35b3 3abd 38d8 d5bb
000002a0: 3fd8 223e 1833 0bbe d39b fa3d 91c7 9dbc
000002b0: 9bd3 deba 507f 983d 6743 4d3d c738 d4bb
000002c0: ca09 02be feac f73d c16f 9b3d 109d c9bc
000002d0: 0052 dbbd b30b 18be a0ac c33d fe07 883d
000002e0: 1ad4 973d 3cf6 163e 49e9 debd 06a5 263e
000002f0: 2450 d93d 7a0a ffbd 1583 0d3d 2e67 d0bd
00000300: d33b b43d 869a b7bd ed25 fc3d fe97 2bbe
00000310: cc07 32bd af5b 523d 17a8 86bd 081c b8bd
00000320: aba0 f53d 6d11 febd 98c4 02bd d782 fbbc
00000330: c344 8dbd 15d0 663d 3238 153e c1dd 273d
00000340: 49e2 103e ff49 8c3d a122 5bbd 5355 9bbc
00000350: 7c9a 123e eee8 253e 201c debd c33b aebd
00000360: 0737 8cbd 48cc 5e3d c76c 15be 4b8b b83d
00000370: cacc bbbd 8b0b 23be fe99 8d3d d4a8 62bd
00000380: d3e7 f7bd 59b7 f93d c947 2dbd 7796 493d
00000390: 8972 1d3e 9e87 af3a 9895 0cbc 3085 c2bd
000003a0: 7fd6 043c 3c67 b93d 946a 143e 6d77 273e
000003b0: 1097 b23d 6dff 003e 5ac6 283e 3b43 993d
000003c0: c2c8 bc3d 973a 353e 3e4f d23d a9e7 143e
000003d0: 00ba c03a aeb3 49bd 1fc6 14be 94eb cabd
000003e0: 65d7 c2bd a3d2 503d c298 0bbe bbf9 8fbd
000003f0: 15ec edbd 8e6a 383d cf29 eebd f1f2 a83d

FC2.weight f4 [256, 256]
-0.08686515 -0.021641672 0.006950226 -0.04240666 0.052018024 -0.01717821 0.019483669 -0.03373208
-0.046220962 -0.02507158 0.018352149 0.011354988 0.0038162547 0.05023 -0.020117935 -0.007147765
0.021846069 0.007343043 0.026316226 -0.0635313 -0.0027710781 0.013864575 -0.014827639 0.0017580335
-0.052895535 0.027247285 -0.056368716 -0.07279168 -0.0006426766 0.03852651 -0.016077813 0.055305112
-0.051367097 -0.00085962896 0.03497276 0.01330761 0.0067112297 0.06817631 0.040313475 -0.06432139
-0.014125332 -0.04151458 -0.009766667 -0.013542694 -0.010777518 -0.0056018806 0.0034588673 0.017845938
0.02759686 0.0038569681 -0.013350363 0.05196339 0.0049246303 -0.009512187 0.029549716 -0.09641351
-0.061220102 0.05339914 -0.0017022805 0.017536422 0.029693488 0.003955474 -0.13070904 0.025391847
0.033812374 0.038287945 -0.024533615 0.035124134 0.0027279786 0.054713763 -0.014623605 -0.012437593
-0.02993032 -0.07169899 0.037737377 -0.020962697 0.029617462 0.011353798 -0.053655684 0.007823633
-0.041070964 0.032899164 0.0057674213 0.0014285067 -0.003752805 -0.042234417 0.03993692 0.029128876
0.030528126 0.057619113 -0.059078988 -0.013884049 0.058251668 -0.029366054 0.016108729 -0.03263498
-0.05051497 -0.066124156 -0.0341879 0.039083038 0.026588278 0.010278596 -0.097739905 -0.008994843
-0.040951427 0.027044393 -0.03771761 0.03641901 -0.023558516 -0.020106997 -0.045439135 0.036513902
-0.041380145 -0.053163353 0.043953605 -0.06560717 0.045138985 0.00023936066 -0.038418096 0.034681488
-0.11744708 -0.05305416 0.05878973 0.039015558 0.0061290227 0.016537588 -0.11783493 0.031331517
-0.052562155 -0.045697078 -0.028878909 0.054343548 0.0024429634 0.024939548 -0.06006871 -0.0051483195
0.012827956 -0.022948226 0.050312176 0.020105042 -0.044196133 -0.16745606 0.028315963 -0.058556188
0.024745984 -0.027997334 0.028735666 -0.06367041 0.019324994 0.031408712 -0.04572016 -0.023680538
-0.03508355 0.030285975 0.005648704 -0.039625105 0.03741202 -0.016818397 0.017681299 0.013628026
-0.03324766 -0.09699565 0.024784068 -0.024432933 -0.058907937 0.02429146 -0.048912406 -0.061615746
-0.040983405 0.00865688 -0.02554892 -0.0554506 -0.0024241628 0.05218351 -0.025216611 -0.0678212
-0.03395577 0.04316621 -0.01782398 -0.037396338 -0.014582381 -0.043983344 0.009584148 0.029755829
-0.056427483 -0.06472995 -0.018533293 -0.07978705 -0.0827905 0.06727622 -0.102321476 0.04174933
-0.020525813 -0.042546045 -0.017263323 0.024385363 -0.06114995 -0.01021085 -0.020397315 0.03075576
0.02178219 -0.075758904 0.019351566 -0.005162524 -0.031609222 -0.051738806 -0.01302918 -0.11220607
0.056586895 -0.020253606 -0.008761411 -0.009163279 0.051754687 -0.009966876 -0.006642556 0.02442809
-0.09845522 -0.02641852 0.034297306 0.037677523 -0.03872953 0.04824262 -0.041543122 -0.052075252
0.067357846 -0.010300653 -0.053681765 0.015430501 -0.0103053795 -0.049544707 0.05908942 -0.05972324
0.004547422 -0.018637918 -0.023656331 -0.0031304236 -0.010717405 0.024483873 -0.06580378 -0.017111974
0.021000233 -0.03944181 0.022413226 0.029044656 -0.048211973 0.03368517 -0.055612333 -0.04142008
-0.023904102 0.010216571 -0.04848447 0.032948166 -0.010598861 -0.114094704 -0.029084504 0.06191514
00000000: 5be6 b1bd e049 b1bc b9be e33b 9bb2 2dbd
00000010: da10 553d 51b9 8cbc 379c 9f3c a62a 0abd
00000020: 3152 3dbd ea62 cdbc 3f57 963c 460a 3a3c
00000030: 211a 7a3b f9bd 4d3d 5ece a4bc cc37 eabb
00000040: 87f6 b23c e99d f03b 2095 d73c b31c 82bd
00000050: fa9a 35bb 3e28 633c a0ef 72bc d16d e63a
00000060: fda8 58bd b335 df3c e2e2 66bd ce13 95bd
00000070: 4c79 28ba f9cd 1d3d 9eb5 83bc 9d87 623d
00000080: 4e66 52bd b958 61ba 993f 0f3d 2908 5a3c
00000090: e0e9 db3b 05a0 8b3d be1f 253d efba 83bd
000000a0: f06d 67bc 310b 2abd 5f04 20bc 2de2 5dbc
000000b0: 3094 30bc fb8f b7bb 2aae 623b a531 923c
000000c0: cf12 e23c 30c5 7c3b 7bbb 5abc 90d7 543d
000000d0: cb5e a13b 01d9 1bbc 3f12 f23c 7274 c5bd
000000e0: eec1 7abd 0eb9 5a3d 0e1f dfba 8ba8 8f3c
000000f0: c23f f33c ec9c 813b 97d8 05be 9002 d03c
00000100: d87e 0a3d d2d3 1c3d b8fa c8bc 53de 0f3d
00000110: e3c7 323b 8a1b 603d d897 6fbc 0cc7 4bbc
00000120: 6e30 f5bc ecd6 92bd 8292 1a3d f6b9 abbc
00000130: 52a0 f23c 4805 3a3c 10c6 5bbd b22e 003c
00000140: 073a 28bd 46c1 063d a3fc bc3b bb3c bb3a
00000150: 9ff1 75bb fffd 2cbd e594 233d ae9f ee3c
00000160: 1f16 fa3c 0502 6c3d cffc 71bd ec79 63bc
00000170: 4d99 6e3d 1491 f0bc 74f6 833c 42ac 05bd
00000180: c9e8 4ebd 1a6c 87bd 9d08 0cbd 8915 203d
00000190: a9cf d93c 8e67 283c dc2b c8bd 1b5f 13bc
000001a0: afbc 27bd 348c dd3c c87d 1abd 1a2c 153d
000001b0: cafd c0bc 6eb7 a4bc 631e 3abd 9a8f 153d
000001c0: 3a7e 29bd d1c1 59bd b208 343d 0d5d 86bd
000001d0: a8e3 383d e3fc 7a39 4b5c 1dbd 2d0e 0e3d
000001e0: 1888 f0bd 524f 59bd 80cd 703d c7ce 1f3d
000001f0: f8d5 c83b d679 873c 7153 f1bd 7a55 003d
00000200: 6a4b 57bd dc2c 3bbd 7693 ecbc 5797 5e3d
00000210: 201a 203b 064e cc3c 9c0a 76bd 3cb3 a8bb
00000220: 592c 523c ebfd bbbc 2414 4e3d 54b3 a43c
00000230: 0107 35bd 9a79 2bbe e1f6 e73c 9dd8 6fbd
00000240: 17b8 ca3c aa5a e5bc 0f67 eb3c a265 82bd
00000250: 734f 9e3c 6ca6 003d 1045 3bbd b0fd c1bc
00000260: c5b3 0fbd 4b1a f83c c318 b93b ef4d 22bd
00000270: 593d 193d bcc6 89bc 5fd8 903c 1548 5f3c
00000280: b32e 08bd a8a5 c6bd f507 cb3c 9327 c8bc
00000290: 7349 71bd e2fe c63c 6058 48bd cb60 7cbd
000002a0: 37de 27bd 96d5 0d3c f84b d1bc 2b20 63bd
000002b0: b4de 1ebb 60be 553d 1193 cebc d7e5 8abd
000002c0: 3515 0bbd 0dcf 303d 9803 92bc e72c 19bd
000002d0: f0ea 6ebc e127 34bd d506 1d3c 7fc2 f33c
000002e0: 8120 67bd 2391 84bd 22d3 97bc 6567 a3bd
000002f0: 118e a9bd 1dc8 893d ec8d d1bd 5801 2b3d
00000300: c025 a8bc c344 2ebd d06b 8dbc d0c3 c73c
00000310: 5f78 7abd 694b 27bc 4518 a7bc 81f3 fb3c
00000320: 9070 b23c 7c27 9bbd 2d87 9e3c 642a a9bb
00000330: ac78 01bd 12ec 53bd 5778 55bc 4ccc e5bd
00000340: a9c7 673d e4ea a5bc 058c 0fbc 9421 16bc
00000350: b9fc 533d 1c4c 23bc cca9 d9bb 6b1d c83c
00000360: e4a2 c9bd a76b d8bc 557b 0c3d bf53 1a3d
00000370: dba2 1ebd 0e9a 453d 1f29 2abd dc4c 55bd
00000380: e9f2 893d 12c4 28bc 69e1 5bbd 36d0 7c3c
00000390: e5d7 28bc 64ef 4abd bf07 723d 5ba0 74bd
000003a0: 8a02 953b 8cae 98bc ecca c1bc cb27 4dbb
000003b0: 0e98 2fbc 6792 c83c 22c4 86bd 692e 8cbc
000003c0: ae08 ac3c bc8d 21bd f19b b73c 0fef ed3c
000003d0: eb79 45bd 76f9 093d c2c9 63bd 1aa8 29bd
000003e0: 89d2 c3bc 6863 273c a797 46bd a8f4 063d
000003f0: d8a6 2dbc 7caa e9bd a042 eebc bb9a 7d3d

FC2.bias f4 [256]
-0.06281984 -0.019091813 0.061483342 0.020621162 0.08792356 0.091116026 -0.012948828 0.101537086
0.021374404 -0.03628377 0.050649203 -0.04395854 -0.04048567 -0.04839095 -0.010220941 0.030860657
-0.039860226 -0.01720674 -0.004432353 0.022034401 0.025549354 0.028227447 -0.009816119 0.022421446
-0.035827585 0.037144408 -0.009244938 0.02757378 -0.012179666 0.018735327 0.0684948 -0.038300794
-0.05686868 0.025688205 -0.07316002 -0.021761531 0.057713777 -0.04655947 0.03189275 -0.014456836
-0.011170792 -0.040753312 0.015587229 -0.0042922674 0.044971004 -0.05645987 0.031633243 0.047317784
-0.020418115 0.044468053 -0.020789053 0.025290888 0.011351088 -0.051508263 0.008151812 0.13269162
-0.007196307 0.03721086 0.034866106 0.020307343 0.034521148 0.024474028 0.0010877816 -0.013849505
-0.022490438 -0.024371434 0.007791826 0.051473435 0.054341797 0.05892939 -0.05177498 -0.00054993003
-0.06274749 -0.03643262 0.010287047 -0.052837916 -0.017811682 0.062878415 -0.06699342 -0.023602897
-0.052096527 0.027446963 -0.0059178458 0.09082096 0.041016586 0.068982914 0.036055487 0.07679465
-0.00243103 -0.008521009 0.019460214 -0.04393074 -0.030288959 0.048169903 -0.06601228 -0.038671754
0.04551864 -0.061285514 -0.04225789 -0.010703912 0.02329664 -0.007944016 -0.0039513814 0.0362274
0.014120807 -0.036873683 -0.032637164 -0.0046448796 -0.052762482 -0.014003055 -0.055821557 -0.035439726
-0.02770525 0.0586436 0.022197023 0.012314537 0.017994389 0.0039883913 -0.024979176 0.03798809
-0.013956419 0.044020128 -0.0053426516 0.049784124 0.06160519 0.047480587 0.09206232 0.043703467
-0.003865951 0.018262101 0.034538794 0.06158417 0.05160391 -0.006899362 -0.011297021 -0.03867792
0.0008504186 -0.058032967 0.040410813 0.0783189 0.040154792 0.052231666 0.038780574 0.0069951266
0.015028322 0.06287946 -0.013284572 0.012070733 0.0494519 -0.058516067 -0.026626237 -0.0010691863
-0.00279017 -0.031330485 0.011539255 -0.013522673 0.022658179 -0.025139201 -0.02689156 0.0878526
-0.014268459 -0.025142597 0.07709681 -0.047638725 0.025106408 -0.009535606 -0.032652333 -0.03163181
0.011858347 0.054614626 -0.043392796 -0.02643675 0.057753954 0.07070828 -0.01864527 0.046905912
0.012997633 0.09262331 0.028982854 -0.01509553 -0.009521493 -0.02741996 0.040175192 -0.037847932
-0.019205028 -0.035647996 -0.013975732 0.030993572 0.026251499 -0.035492282 0.020944586 0.09191254
-0.06174259 0.009603285 -0.06816324 0.041323368 0.023003437 -0.0069420594 -0.036877338 0.023943448
0.041168485 0.010399095 -0.059453066 0.0425632 0.057756163 -0.05249696 0.029209016 0.040703274
0.037008215 0.011802353 0.0069841673 -0.06588514 0.03658429 -0.041156754 -0.05301646 0.03531859
0.050403576 -0.006038795 -0.025556823 0.004588292 -0.046352025 -0.0037505894 0.05531187 0.01872928
-0.0016564106 -0.052032284 -0.081069425 -0.004006125 0.02271385 -0.039482836 0.04971864 0.055122767
-0.06047822 0.04775392 -0.06211826 0.019251835 0.00013100376 -0.050181165 0.050258953 0.028393485
-0.054143958 0.037375204 -0.05624438 -0.036475018 -0.013207629 0.0045829182 0.06400621 -0.00031013988
0.035474777 0.09813562 -0.05919303 -0.04681203 -0.03363747 -0.022671944 0.031093378 0.0018885159
00000000: b0a7 80bd 6f66 9cbc f5d5 7b3d b6ed a83c
00000010: 4411 b43d 0a9b ba3d 5227 54bc adf2 cf3d
00000020: 6019 af3c 4a9e 14bd 8a75 4f3d df0d 34bd
00000030: 4dd4 25bd 9735 46bd bc75 27bc 7dcf fc3c
00000040: 7a44 23bd 26f5 8cbc 463d 91bb 7d81 b43c
00000050: e14c d13c 3f3d e73c cad3 20bc 2ead b73c
00000060: f2bf 12bd bc24 183d 1578 17bc 68e2 e13c
00000070: 398d 47bc d47a 993c 0047 8c3d 4be1 1cbd
00000080: 22ef 68bd 1270 d23c ecd4 95bd 3d45 b2bc
00000090: 4865 6c3d 25b5 3ebd f9a1 023d 5ddc 6cbc
000000a0: b305 37bc f2ec 26bd 9461 7f3c 26a6 8cbb
000000b0: 8433 383d 7742 67bd dc91 013d 4bd0 413d
000000c0: e443 a7bc 2224 363d ce4d aabc d62e cf3c
000000d0: eaf9 393c 54fa 52bd 2d8f 053c 50e0 073e
000000e0: 00cf ebbb 6a6a 183d c3cf 0e3d 965b a63c
000000f0: 0c66 0d3d c27d c83c e593 8e3a 09e9 62bc
00000100: de3d b8bc 9aa6 c7bc 9352 ff3b cfd5 523d
00000110: 8195 5e3d f25f 713d 0012 54bd 2e29 10ba
00000120: c281 80bd 5f3a 15bd 018b 283c 926c 58bd
00000130: cee9 91bc 66c6 803d d933 89bd dd5a c1bc
00000140: 2b63 55bd 74d8 e03c 7dea c1bb 5700 ba3d
00000150: 0201 283d ea46 8d3d ebae 133d 8346 9d3d
00000160: ea51 1fbb b49b 0bbc 076b 9f3c b8f0 33bd
00000170: 8d20 f8bc ce4d 453d 7231 87bd 4666 1ebd
00000180: c171 3a3d 8506 7bbd 9c16 2dbd 765f 2fbc
00000190: 98d8 be3c 9e27 02bc 977a 81bb 2f63 143d
000001a0: f55a 673c dc08 17bd 8cae 05bd 1334 98bb
000001b0: 791d 58bd 126d 65bc 25a5 64bd 3f29 11bd
000001c0: 1ff6 e2bc 4634 703d 88d6 b53c e9c2 493c
000001d0: f868 933c 0db1 823b 21a1 ccbc 6699 1b3d
000001e0: 77a9 64bc 734e 343d 6911 afbb 70ea 4b3d
000001f0: b955 7c3d 017b 423d 2b8b bc3d 6802 333d
00000200: e55b 7dbb 679a 953c 8d78 0d3d af3f 7c3d
00000210: 9f5e 533d 0b14 e2bb 2417 39bc bd6c 1ebd
00000220: a0ee 5e3a fab3 6dbd cf85 253d a965 a03d
00000230: 5a79 243d dff0 553d 61d8 1e3d 6037 e53b
00000240: 5a39 763c f2c6 803d 89a7 59bc 53c4 453c
00000250: 138e 4a3d 8bae 6fbd 441f dabc f023 8cba
00000260: 49db 36bb 6554 00bd 250f 3d3c 348e 5dbc
00000270: a59d b93c baf0 cdbc b04b dcbc 10ec b33d
00000280: 41c6 69bc d9f7 cdbc efe4 9d3d d320 43bd
00000290: f4ab cd3c 3b3b 1cbc 74be 05bd 5b90 01bd
000002a0: 8349 423c 96b3 5f3d a5bc 31bd e291 d8bc
000002b0: 698f 6c3d 81cf 903d f7bd 98bc 6a20 403d
000002c0: 06f4 543c 4ab1 bd3d 736d ed3c 3e53 77bc
000002d0: 0900 1cbc d39f e0bc be8e 243d 6f06 1bbd
000002e0: dd53 9dbc a203 12bd 78fa 64bc 3be6 fd3c
000002f0: 620d d73c 5b60 11bd fb93 ab3c a43c bc3d
00000300: cce5 7cbd 1957 1d3c 2b99 8bbd b142 293d
00000310: b471 bc3c 377a e3bb b10c 17bd 0d25 c43c
00000320: 49a0 283d f760 2a3c 0f85 73bd c056 2e3d
00000330: ba91 6c3d 0d07 57bd bf47 ef3c 7ab8 263d
00000340: ed95 173d a85e 413c 71db e43b caee 86bd
00000350: 69d9 153d fc93 28bd ca27 59bd 3aaa 103d
00000360: fb73 4e3d 16e1 c5bb 8b5c d1bc 6259 963b
00000370: 9fdb 3dbd 73cc 75bb b38e 623d 266e 993c
00000380: eb1b d9ba ce1f 55bd ba07 a6bd d045 83bb
00000390: 6512 ba3c c1b8 21bd c6a5 4b3d 69c8 613d
000003a0: 03b8 77bd 9d99 433d b76f 7ebd 06b6 9d3c
000003b0: 0e5e 0939 c48a 4dbd 55dc 4d3d 7499 e83c
000003c0: 0ec6 5dbd be16 193d 8260 66bd d466 15bd
000003d0: d064 58bc 4e2c 963b b015 833d 459a a2b9
000003e0: 004e 113d 54fb c83d 6474 72bd f9bd 3fbd
000003f0: 72c7 09bd 83ba b9bc 8ab7 fe3c 1488 f73a

action_out.weight f4 [5, 256]
0.052339412 0.020937262 0.054574754 -0.03165234 -0.04474577 -0.065395735 -0.03880016 -0.12673694
-0.01994624 0.0022448078 0.022678064 0.029003335 0.033971302 -0.032285027 -0.0031182778 -0.03591207
0.004397717 -0.0019310826 -0.041387223 -0.008893325 0.022878569 0.006278253 -0.046883535 -0.046251427
0.020067586 0.025356414 0.05489514 -0.035825334 0.051740985 0.019212067 -0.04489458 0.029766126
-0.055395134 0.04577036 -0.018868368 -0.0139223775 0.030906644 0.054671634 -0.04954661 0.062373225
-0.04637156 0.025040066 0.00766429 -0.04407845 -0.024039688 -0.02474288 0.044048093 -0.023913832
0.053159595 -0.040239487 0.0111111095 0.021643428 -0.04027396 -0.052963432 0.0146345785 -0.18309176
0.058514997 -0.04036513 -0.025562434 -0.012120098 -0.021871805 -0.006352155 -0.013170256 0.004886528
0.056456033 -0.05048873 0.01837469 -0.036316287 0.035991248 -0.018766198 -0.024022855 0.021986475
0.034317244 -0.03821658 -0.04854609 -0.018965436 0.031231659 0.050093595 0.0028903089 0.0017035488
-0.036685597 0.04491628 0.019920727 -0.028587746 -0.049194116 0.019014731 -0.02933269 0.028717514
0.017366461 0.032051902 0.049683075 -0.03705592 0.049795408 -0.039255578 0.0037744395 0.03941545
0.010470918 -0.020072008 0.016534602 -0.01692749 0.030371124 -0.014562165 -0.032476366 0.0016040638
0.017171247 0.018811725 0.029757218 0.041477874 -0.043461025 0.01163617 -0.027108723 0.0551926
-0.0038058322 0.022025082 0.00863152 -0.024818428 0.05299003 0.0010310806 -0.04244053 0.057501543
0.04700339 0.032398514 0.008399959 0.004312341 -0.03612624 -0.026469927 -0.06587782 -0.010354013
-0.015736135 0.023388648 0.040598106 0.022866072 -0.031832896 -0.05312498 -0.000156932 -0.042325374
0.026978683 -0.035045624 0.04859223 -0.022790538 0.009484718 -0.03999123 0.026034456 -0.01362057
0.020392826 -0.0013368527 0.007889042 -0.0104651265 -0.056457527 -0.029228404 -0.024393901 0.0023072306
-0.019442497 -0.056991313 -0.033741716 0.0119788535 -0.03144875 0.03149332 -0.056375563 -0.06599236
0.046819497 0.022022692 -0.026476461 -0.028481016 0.006671267 -0.0074296882 -0.01616809 -0.0027651333
-0.049545437 0.010472864 0.013872257 -0.0024466189 -0.033663563 -0.017461043 0.025581392 0.02675849
0.043290157 -0.04053142 -0.029593352 -0.0060985642 0.046262965 0.007447391 0.029524304 0.0457343
-0.039151695 0.067127645 0.024719983 0.012563161 -0.01410519 0.043856893 -0.083542705 -0.065353915
0.02892181 -0.03868684 0.00396695 -0.01098604 0.039023012 0.034159772 0.022171171 -0.06435799
-0.029368797 0.043642774 0.028460696 -0.010545789 0.05179435 -0.008542503 -0.017323162 0.020254944
0.04429166 0.03296912 -0.02762264 -0.039411057 0.034301937 -0.019632822 -0.005286589 -0.029329602
-0.018608848 -0.05137894 0.0071346215 0.05134496 0.039695967 0.03015529 0.038142446 0.03319326
-0.0058995946 0.01322734 -0.005724655 0.006906233 -0.037887793 -0.04332925 -0.022695877 -0.04517139
0.0108726155 -0.04997241 0.01946609 -0.019771518 0.0014067922 -0.059590504 0.056520175 -0.014490199
-0.04134541 -0.022054318 0.03817749 0.04182212 -0.042005245 -0.044392385 0.006063712 -0.12555417
0.034119796 -0.012780314 -0.013194978 -0.009095886 -0.03834642 0.052045032 0.009268241 -4.73409e-05
00000000: da61 563d 9f84 ab3c c789 5f3d e2a5 01bd
00000010: 5747 37bd 33ee 85bd ebec 1ebd 54c7 01be
00000020: 4c66 a3bc a01d 133b 59c7 b93c 6798 ed3c
00000030: 7e25 0b3d 4e3d 04bd 055c 4cbb 8918 13bd
00000040: b91a 903b 611c fdba a685 29bd 4fb5 11bc
00000050: d66b bb3c ceb9 cd3b f308 40bd 2372 3dbd
00000060: c764 a43c 41b8 cf3c bad9 603d 96bd 12bd
00000070: 5bee 533d a062 9d3c 61e3 37bd 17d8 f33c
00000080: 02e6 62bd b379 3b3d d691 9abc af1a 64bc
00000090: ee2f fd3c 5def 5f3d 63f1 4abd 117b 7f3d
000000a0: 1bf0 3dbd d320 cd3c b924 fb3b 9b8b 34bd
000000b0: e1ee c4bc 95b1 cabc c66b 343d f1e6 c3bc
000000c0: e0bd 593d 29d2 24bd 5f0b 363c 8f4d b13c
000000d0: 4ff6 24bd 2ff0 58bd dfc5 6f3c 687c 3bbe
000000e0: 6cad 6f3d e855 25bd 4f68 d1bc 6093 46bc
000000f0: 802c b3bc bd25 d0bb 0fc8 57bc 2b1f a03b
00000100: 713e 673d 45cd 4ebd 8586 963c 63c0 14bd
00000110: 8f6b 133d 92bb 99bc 94cb c4bc fb1c b43c
00000120: 3d90 0c3d fd88 1cbd 44d8 46bd 675d 9bbc
00000130: 89d9 ff3c f12e 4d3d 566b 3d3b 9d49 df3a
00000140: a343 16bd 22fa 373d cb30 a33c d930 eabc
00000150: c57f 49bd c8c4 9b3c 1c4b f0bc fe40 eb3c
00000160: 1c44 8e3c db48 033d 7b80 4b3d f3c7 17bd
00000170: 45f6 4b3d 75ca 20bd 965c 773b 1872 213d
00000180: 378e 2b3c 0d6e a4bc 9373 873c 85ab 8abc
00000190: ddcc f83c 2696 6ebc f005 05bd 733f d23a
000001a0: b7aa 8c3c 0c1b 9a3c 69c5 f33c b4e4 293d
000001b0: 3004 32bd a2a5 3e3c 1d13 debc a311 623d
000001c0: 456b 79bb f26d b43c 386b 0d3c 0450 cbbc
000001d0: 130c 593d 5325 873a 1fd6 2dbd bd86 6b3d
000001e0: a086 403d 4eb4 043d fb9f 093c 8a4e 8d3b
000001f0: 1cf9 13bd 76d7 d8bc f3ea 86bd e1a3 29bc
00000200: 11e9 80bc 8d99 bf3c 334a 263d a151 bb3c
00000210: 3663 02bd 9499 59bd 1d8e 24b9 5f5d 2dbd
00000220: 6602 dd3c 008c 0fbd a508 473d 39b3 babc
00000230: ca65 1b3c d8cd 23bd 3646 d53c d028 5fbc
00000240: db0e a73c 5539 afba 0a41 013c ec75 2bbc
00000250: 0240 67bd 6870 efbc b8d5 c7bc e834 173b
00000260: df45 9fbc b96f 69bd c134 0abd f442 443c
00000270: 68d0 00bd 24ff 003d 10ea 66bd 0127 87bd
00000280: cdc5 3f3d ef68 b43c 2ae5 d8bc 0551 e9bc
00000290: a59a da3b be74 f3bb f172 84bc 3d37 35bb
000002a0: 28f0 4abd 6096 2b3c 7748 633c 7457 20bb
000002b0: cee2 09bd 760a 8fbc 1190 d13c 9f34 db3c
000002c0: 0551 313d 4604 26bd c26d f2bc 77d6 c7bb
000002d0: 3c7e 3d3d 3e09 f43b f4dc f13c e453 3b3d
000002e0: 875d 20bd 387a 893d 9081 ca3c b7d5 4d3c
000002f0: 7419 67bc 49a3 333d 7018 abbd 46d8 85bd
00000300: 6fed ec3c 1876 1ebd 30fd 813b cbfe 33bc
00000310: 98d6 1f3d 1eeb 0b3d 51a0 b53c 1fce 83bd
00000320: d596 f0bc c4c2 323d 6826 e93c 3fc8 2cbc
00000330: 5026 543d dbf5 0bbc 4ee9 8dbc b2ed a53c
00000340: 2c6b 353d a10a 073d e048 e2bc 7d6d 21bd
00000350: 3080 0c3d 03d5 a0bc 1f3b adbb a244 f0bc
00000360: 9571 98bc b972 52bd 8bc9 e93b 184f 523d
00000370: 3d98 223d 3a08 f73c 413b 1c3d a8f5 073d
00000380: 6351 c1bb 7cb7 583c e395 bbbb ae4d e23b
00000390: 3b30 1bbd 037a 31bd b4ec b9bc a305 39bd
000003a0: 0e23 323c dfaf 4cbd 5977 9f3c e1f7 a1bc
000003b0: 1d64 b83a 2c15 74bd b381 673d 4d68 6dbc
000003c0: ce59 29bd 42ab b4bc 0060 1c3d ac4d 2b3d
000003d0: b10d 2cbd cad4 35bd 1ab2 c63b 4691 00be
000003e0: 33c1 0b3d 8664 51bc c02f 58bc e906 15bc
000003f0: 2311 1dbd 2c2d 553d d2d9 173c e88f 46b8

action_out.bias f4 [5]
-0.008972655 -0.06293041 0.034578793 -0.020159503 -0.021578949
00000000: 0b02 13bc a9e1 80bd 7ea2 0d3d 8b25 a5bc
00000010: 56c6 b0bc

weight f4 [256, 123]
0.020911165 -0.09687841 0.09031339 0.0043839137 0.07191975 0.02842365 0.045566294 -0.058900535
0.09148416 0.025764957 0.08590794 -0.04352599 0.030147908 0.041609094 0.07985835 -0.12308721
0.06289951 -0.057024933 0.12736225 0.00081375515 -0.0072387904 0.017041357 -0.029416125 -0.03247581
-0.0448226 -0.04998247 0.14090809 0.06838225 -0.04526681 -0.07449213 -0.050224263 0.066386856
-0.017738974 -0.083810546 -0.054454274 -0.04140075 0.064403 -0.10557055 -0.06649888 -0.110768914
0.06999734 0.06125125 -0.06480635 -0.11923846 0.034687877 0.066998 -0.06323063 0.01738595
-0.058745727 0.08495673 -0.023346024 -0.048717786 -0.011880114 -0.001952894 0.07676568 0.016787179
-0.1361294 0.072673 0.06379983 -0.10223749 -0.061568413 0.121660344 0.093954384 -0.011530118
0.024594322 -0.15917894 0.15172106 0.009353006 -0.08319577 0.06512824 0.06752706 -0.0019760877
0.005700629 0.004379862 -0.092459396 -0.08879116 -0.030854981 0.053297926 0.057211157 0.017791513
-0.16368233 -0.010938004 -0.08583143 0.06766435 -0.02507628 0.092956476 -0.06285169 -0.03459767
-0.17689814 0.03761586 -0.08279669 0.016863644 -0.15949814 0.01369416 0.08302308 -0.08455915
-0.15774755 0.020683087 -0.068118915 -0.0113674365 -0.16443789 0.10621416 0.007135959 -0.05529283
-0.00042255223 -0.011901863 0.048355363 -0.06551062 0.047573455 0.10375942 0.028760415 -0.031275418
-0.011634801 -0.09309955 0.00214312 0.04304788 0.040809605 -0.057968695 0.06106889 -0.035220295
0.003688931 -0.039633755 -0.033667166 0.038241297 0.059609506 0.014386196 -0.04149166 -0.033122472
-0.03415717 -0.090856284 -0.044216394 0.052401256 -0.058688473 0.073971994 0.0655766 -0.10293704
0.054309025 0.021480478 -0.0037052627 -0.026821628 0.05910368 0.010377524 -0.079702355 0.046096284
-0.0035406644 0.038815774 0.024033051 -0.07347748 -0.06269565 -0.06567664 -0.054820307 -0.056432802
0.02951304 -0.049277067 0.027088305 0.05387008 -0.02030427 -0.065358505 0.04066699 -0.08074047
0.05623821 0.023956925 0.053682115 -0.018272886 -0.05702485 -0.057601184 -0.009622647 0.005467806
-0.020542452 -0.016425492 -0.085098885 0.030247252 -0.0027958308 -0.09304149 -0.067596205 -0.012482515
0.051671766 -0.028619714 0.051727597 -0.10554646 -0.0066894135 0.0050004916 0.009167426 0.03487734
-0.013728421 -0.014143082 -0.02664978 -0.00039052594 0.02801053 -0.06359908 -0.07321277 0.068752624
-0.09260457 0.051906608 0.0056521073 -0.016371172 -0.024755638 -0.117804624 -0.013494863 -0.08330832
-0.057065826 -0.07956875 0.02085794 -0.011122794 0.05820016 0.078968376 0.06655806 -0.07919209
-0.043229844 -0.09961075 0.053395186 0.03703667 0.025966926 -0.076783545 0.052589476 -0.07752105
-0.061275687 0.013563317 -0.062292323 -0.07888483 0.071953155 0.03485217 -0.07113172 0.05369683
-0.07966817 -0.029908594 -0.0015695276 0.07377315 0.06549936 -0.06993946 -0.05108861 -0.07115486
-0.047078803 0.07473522 -0.06123146 0.076049544 0.051684827 0.029839868 -0.07851062 -0.05994577
0.082834475 0.05224232 0.0034105263 0.045410365 -0.013170666 -0.06967238 0.0035447443 0.08614846
0.0175379 -0.05124462 0.08046912 -0.041418824 -0.013062861 0.054174896 0.021925775 -0.014814943
00000000: e44d ab3c 3068 c6bd 3af6 b83d efa6 8f3b
00000010: a94a 933d b7d8 e83c b9a3 3a3d b041 71bd
00000020: 0c5c bb3d 0811 d33c 81f0 af3d 4f48 32bd
00000030: bff8 f63c 4c6e 2a3d c68c a33d 2615 fcbd
00000040: 75d1 803d fa92 69bd 406b 023e 2f52 553a
00000050: 6033 edbb 519a 8b3c 16fa f0bc 5b05 05bd
00000060: e797 37bd 6bba 4cbd 364a 103e fe0b 8c3d
00000070: b169 39bd 548f 98bd f5b7 4dbd d5f5 873d
00000080: 5351 91bc dda4 abbd 720b 5fbd d593 29bd
00000090: b8e5 833d 5f35 d8bd 9130 88bd d0da e2bd
000000a0: c45a 8f3d 97e2 7a3d 31b9 84bd 4b33 f4bd
000000b0: e014 0e3d 3f36 893d 0f7f 81bd fb6c 8e3c
000000c0: 5c9f 70bd cbfd ad3d 2940 bfbc 4d8c 47bd
000000d0: cfa4 42bc 40f8 ffba 5337 9d3d 4485 893c
000000e0: 8165 0bbe 95d5 943d 7ca9 823d e461 d1bd
000000f0: 292f 7cbd 0f29 f93d 286b c03d d2e8 3cbc
00000100: 087a c93c ceff 22be c45c 1b3e 5a3d 193c
00000110: 8b62 aabd f461 853d a14b 8a3d 4081 01bb
00000120: 58cc ba3b f284 8f3b 5a5b bdbd 24d8 b5bd
00000130: 96c3 fcbc ed4e 5a3d 3f56 6a3d 82bf 913c
00000140: 579c 27be 5035 33bc 64c8 afbd 9b93 8a3d
00000150: c56c cdbc f75f be3d 63b8 80bd 49b6 0dbd
00000160: c924 35be 1713 1a3d 5091 a9bd a025 8a3c
00000170: 7b53 23be 785d 603c 0108 aa3d 592d adbd
00000180: 9388 21be 946f a93c ee81 8bbd 7c3e 3abc
00000190: 6862 28be cf86 d93d c3d4 e93b bc7a 62bd
000001a0: 008a ddb9 0800 43bc 4610 463d 6f2a 86bd
000001b0: 62dc 423d d27f d43d f69a eb3c a71a 00bd
000001c0: e49f 3ebc faaa bebd 9673 0c3b f952 303d
000001d0: f927 273d 9570 6dbd 5f23 7a3d 2843 10bd
000001e0: fec1 713b 0157 22bd 95e6 09bd e8a2 1c3d
000001f0: 1929 743d 14b4 6b3c 29f3 29bd 6eab 07bd
00000200: 64e8 0bbd dc12 babd 401c 35bd b3a2 563d
00000210: 5363 70bd a17e 973d 064d 863d a8d0 d2bd
00000220: 2473 5e3d d4f7 af3c fed3 72bb 08b9 dbbc
00000230: b316 723d 7e06 2a3c fd3a a3bd 75cf 3c3d
00000240: 7e0a 68bb 4afd 1e3d f6e0 c43c 5c7b 96bd
00000250: 9466 80bd 7981 86bd 428b 60bd 1526 67bd
00000260: 55c5 f13c c0d6 49bd 4be8 dd3c dfa6 5c3d
00000270: 2455 a6bc aeda 85bd 6e92 263d 425b a5bd
00000280: 0a5a 663d 5041 c43c c7e1 5b3d 05b1 95bc
00000290: e492 69bd 38ef 6bbd 4fa8 1dbc 482b b33b
000002a0: a548 a8bc c18e 86bc 5348 aebd 16c9 f73c
000002b0: 423a 37bb 898c bebd e16f 8abd 7683 4cbc
000002c0: c6a5 533d e473 eabc 51e0 533d be28 d8bd
000002d0: de32 dbbb 2adb a33b f932 163c 8bdb 0e3d
000002e0: 2ced 60bc 63b8 67bc a450 dabc 81bf ccb9
000002f0: 5776 e53c 3c40 82bd 94f0 95bd 2dce 8c3d
00000300: 77a7 bdbd 069c 543d 5035 b93b d61c 86bc
00000310: 56cc cabc 8d43 f1bd 8f19 5dbc 8d9d aabd
00000320: dbbd 69bd f1f4 a2bd 45de aa3c 613c 36bc
00000330: 4a63 6e3d 2cba a13d 984f 883d 762f a2bd
00000340: c711 31bd b900 ccbd e9b4 5a3d c3b3 173d
00000350: 97b8 d43c b140 9dbd 1068 573d 5bc3 9ebd
00000360: 37fc 7abd ad38 5e3c 3c26 7fbd 5f8e a1bd
00000370: 2d5c 933d 26c1 0e3d 82ad 91bd 35f1 5b3d
00000380: 1129 a3bd de02 f5bc 9bb8 cdba 6116 973d
00000390: 8724 863d 6b3c 8fbd 4a42 51bd a4b9 91bd
000003a0: b4d5 40bd c70e 993d d7cd 7abd ddbf 9b3d
000003b0: 78b3 533d bd72 f43c 2dca a0bd b289 75bd
000003c0: 1fa5 a93d 0bfc 553d 2383 5f3b 3800 3a3d
000003d0: c7c9 57bc 65b0 8ebd f14e 683b 9b6e b03d
000003e0: a4ab 8f3c e1e5 51bd fecc a43d c9a6 29bd
000003f0: 9c05 56bc 7fe6 5d3d af9d b33c 60ba 72bc

bias f4 [256]
0.01733654 -0.05020812 0.09648382 -0.021223262 -0.060030922 -0.0037742113 0.026680417 -0.077343784
0.05608088 0.023259748 -0.0054537207 -0.061649308 0.058165617 0.06399166 -0.08522273 -0.09038415
-0.022123137 -0.04226388 -0.06906456 -0.037151758 0.077280246 0.041190907 -0.016421039 -0.07993739
-0.014736786 0.057594903 -0.039780565 -0.021897359 -0.080234595 -0.0014212887 -0.022282923 -0.08335916
0.002367009 -0.065735124 -0.039559808 0.046335686 -0.1125927 0.05959127 -0.0789219 0.066563904
-0.057671875 0.04901949 0.018496824 -0.023093127 -0.08393108 -0.04494451 -0.078663886 0.06926341
0.06754937 -0.023479521 0.049274858 0.079291224 0.047650047 0.0852288 -0.008065487 -0.00078442413
-0.067774504 -0.059895806 0.06560811 0.013222829 0.015426118 -0.015790958 0.038950942 0.011380373
0.038591396 -0.03848254 0.0153611805 -0.042640798 -0.05966521 -0.09088275 -0.035580937 -0.094222836
-0.03363373 -0.0154844085 0.00941546 -0.06692838 -0.075130984 -0.00891909 -0.057509247 -0.02737062
0.008339648 -0.0458186 -0.04188108 -0.07257775 0.034751516 -0.08517243 0.0806238 0.037639987
-0.068311304 0.026626615 -0.09294457 0.078106865 -0.06377666 0.037012413 0.020803923 0.072673336
-0.07039226 -0.056816433 0.05454945 -0.08803563 -0.025269782 -0.0068606483 0.041935574 0.05142394
-0.014407626 0.0057485267 0.028466878 0.037565216 -0.022065764 0.07970293 -0.05503793 -0.087218866
-0.026019808 -0.055030692 -0.092981905 -0.095440544 0.02522448 0.059160594 -0.021491727 -0.030612914
0.09667176 0.008665813 0.012815461 0.05552447 0.056879908 0.038782705 -0.022946138 -0.062482666
-0.07170355 -0.043115623 0.013452699 0.08162682 -0.0063866205 0.04221735 0.028901195 -0.022786101
-0.026498757 -0.08413545 0.018876804 -0.04763293 -0.014615969 -0.09726962 0.054769106 -0.088888556
-0.07603917 -0.06274579 -0.039200097 0.0122215655 0.04402745 0.016933827 -0.08538408 0.05419939
-0.037951488 0.02299188 -0.027161272 0.008821209 -0.044531345 0.06305491 -0.019190433 -0.020025317
0.028300323 0.009582814 0.03330093 0.023834355 -0.06885173 -0.09820043 -0.09355801 0.008634696
-0.10172928 -0.05923769 0.05248206 0.04873035 0.0059111933 0.006378615 0.008977157 0.00416901
0.037157573 0.0016971142 0.03616208 0.05620136 -0.053727258 -0.013653981 0.032566663 -0.094117746
0.024761444 0.004634191 -0.064616434 0.021192126 -0.006595256 0.04599664 -0.029835448 -0.0072949203
-0.04424236 -0.0024707203 -0.0141098555 -0.08760008 -0.042919185 -0.016717693 -0.030857697 0.01143855
-0.02505753 0.018852469 0.018594477 0.0017806862 0.02809744 0.023519972 0.008318991 -0.05975451
-0.089251384 -0.0069625187 0.01610808 -0.10988809 -0.00708526 0.034855157 -0.0301675 0.046265356
0.074139915 0.020229265 0.044328958 -0.029774496 -0.101778254 0.023915874 -0.036556832 0.0024097897
0.011087731 -0.028719725 0.07392092 -0.041201845 0.06880158 0.060697474 0.021262974 -0.06278054
-0.06639766 -0.04327431 -0.06981662 0.023448924 0.025447445 -0.052174974 -0.06913375 0.013153859
0.08468854 -0.071637556 -0.09636753 0.05749167 -0.021770367 0.00047026738 -0.07420205 -0.030803934
-0.011918529 0.043653347 -0.06272135 -0.054265484 -0.011152599 -0.050785773 -0.083561875 -0.09617762
00000000: 5c05 8e3c 08a7 4dbd 4f99 c53d 68dc adbc
00000010: fce2 75bd c258 77bb e490 da3c 6b66 9ebd
00000020: 11b5 653d 3a8b be3c 20b5 b2bb fc83 7cbd
00000030: 123f 6e3d 0f0e 833d 4189 aebd 531b b9bd
00000040: 953b b5bc e41c 2dbd b871 8dbd 712c 18bd
00000050: 1b45 9e3d ccb7 283d 6a85 86bc 37b6 a3bd
00000060: 8f72 71bc a2e8 6b3d f2f0 22bd 1762 b3bc
00000070: 0952 a4bd 894a baba ad8a b6bc 35b8 aabd
00000080: d21f 1b3b 23a0 86bd 7709 22bd 7dca 3d3d
00000090: 0097 e6bd fa15 743d cea1 a1bd a852 883d
000000a0: 5839 6cbd a9c8 483d a786 973c cc2d bdbc
000000b0: 0fe4 abbd bc17 38bd 881a a1bd fad9 8d3d
000000c0: 5357 8a3d 2058 c0bc 6fd4 493d 7063 a23d
000000d0: b22c 433d 708c ae3d 1b25 04bc d0a1 4dba
000000e0: 5ccd 8abd 4e55 75bd 8b5d 863d 91a4 583c
000000f0: d4bd 7c3c 0a5c 81bc 068b 1f3d be74 3a3c
00000100: 0312 1e3d de9f 1dbd 76ad 7b3c 1ea8 2ebd
00000110: 8263 74bd bc20 babd 51bd 11bd e7f7 c0bd
00000120: 86c3 09bd 51b2 7dbc 4d43 1a3c bf11 89bd
00000130: 46de 99bd 6021 12bc d18e 6bbd 5a38 e0bc
00000140: 05a3 083c 49ac 3bbd 7f8b 2bbd a5a3 94bd
00000150: 9b57 0e3d e26e aebd 171e a53d 632c 1a3d
00000160: cce6 8bbd 0f20 da3c b959 bebd 7ef6 9f3d
00000170: 569d 82bd 549a 173d fd6c aa3c c2d5 943d
00000180: d129 90bd 59b8 68bd 3e6f 5f3d 064c b4bd
00000190: 9302 cfbc 4acf e0bb a3c4 2b3d e9a1 523d
000001a0: f70d 6cbc 235e bc3b 5f33 e93c fcdd 193d
000001b0: 43c3 b4bc 4a3b a33d 746f 61bd ce9f b2bd
000001c0: 7e27 d5bc dd67 61bd 4c6d bebd 5576 c3bd
000001d0: 92a3 ce3c 6152 723d 6b0f b0bc efc7 fabc
000001e0: d8fb c53d 0efb 0d3c f0f7 513c a06d 633d
000001f0: e8fa 683d 9dda 1e3d 8af9 bbbc d3ed 7fbd
00000200: 50d9 92bd 029a 30bd b668 5c3c f62b a73d
00000210: db46 d1bb 1aec 2c3d 33c2 ec3c eba9 babc
00000220: ec13 d9bc 354f acbd 87a3 9a3c bf1a 43bd
00000230: d177 6fbc 4b35 c7bd 9255 603d 340b b6bd
00000240: 6dba 9bbd dd80 80bd 4890 20bd f63c 483c
00000250: 2156 343d cfb8 8a3c d9dd aebd 2e00 5e3d
00000260: 0573 1bbd 7859 bc3c 5181 debc d586 103c
00000270: 8066 36bd ef22 813d 4135 9dbc 220c a4bc
00000280: 14d6 e73c 3c01 1d3c 8e66 083d 4440 c33c
00000290: 2302 8dbd 4f1d c9bd 589b bfbd 8a78 0d3c
000002a0: 7157 d0bd 38a3 72bd 6ef7 563d 7a99 473d
000002b0: afb2 c13b b303 d13b ed14 133c 319c 883b
000002c0: 8a32 183d b471 de3a b01e 143d 6633 663d
000002d0: 1d11 5cbd f2b4 5fbc 9f64 053d cec0 c0bd
000002e0: 83d8 ca3c 69da 973b 9f55 84bd 1c9b ad3c
000002f0: 041d d8bb f966 3c3d 7869 f4bc 3a0a efbb
00000300: 7a37 35bd cfeb 21bb 062d 67bc ac67 b3bd
00000310: 07cc 2fbd 8bf3 88bc 48c9 fcbc c268 3b3c
00000320: 7345 cdbc 7e70 9a3c 7253 983c ea65 e93a
00000330: 9a2c e63c f5ac c03c 614c 083c 25c1 74bd
00000340: 6ec9 b6bd d725 e4bb 18f5 833c 020d e1bd
00000350: 782b e8bb 48c4 0e3d d521 f7bc be80 3d3d
00000360: abd6 973d d8b7 a53c 4892 353d a5e9 f3bc
00000370: 1e71 d0bd 39eb c33c 9ebc 15bd 90ed 1d3b
00000380: 51a9 353c a145 ebbc da63 973d 44c3 28bd
00000390: d8e7 8c3d ea9d 783d b02f ae3c 1593 80bd
000003a0: 7ffb 87bd 6740 31bd 04fc 8ebd f517 c03c
000003b0: 2977 d03c 6db5 55bd ff95 8dbd 4983 573c
000003c0: 2f71 ad3d b6b6 92bd 575c c5bd 637c 6b3d
000003d0: c557 b2bc 388e f639 3ff7 97bd 8858 fcbc
000003e0: ef45 43bc dacd 323d 0d74 80bd 7c45 5ebd
000003f0: 64b9 36bc be04 50bd 7d22 abbd c6f8 c4bd
