src/saved_models/grid_world_seed125_8_6_12_52/125_3_model.pt (torch, 702713 bytes, 11 tensors)

FC1.weight f4 [256, 36]
00000000: fb4b d73d 5edc 263d 4979 d4bc 338a c63d
00000010: 358c 66bd 82f2 5bbd ba16 d93d 1623 dd3d
00000020: 9821 2bba ce0e 7ebd 7b47 33be 7139 0dbe
00000030: 9e6a 993d f3c8 10be 4e42 55be 020f 28bd
00000040: 12cf b93d 6a7f ebbc 64d7 1fbe 3679 14be
00000050: c4b6 15bd ed76 f03d ead2 fabd d6e1 d8bd
00000060: 9c7e 433e a150 133e b4de 3e3d d1b8 abbc
00000070: 7bc7 2cbe a844 fd3d 7054 2fbe 4ba6 a13d
00000080: f75c 0bbd 47e1 a13d bd09 b93d 2bef f6bd
00000090: 7df5 063c 0250 0b3c 5b4c 453d 45b0 c93d
000000a0: 0925 48bd e722 f93d fa6a 53be e520 48be
000000b0: 2243 113d a55a 0bbe a620 093e bfab 8f3d
000000c0: 6b66 01be 9987 c9bd a07e b6ba 18b6 debd
000000d0: 9e3a 063e 994b 20bd fd25 2e3c 3bca 153d
000000e0: 7b29 3fbd f0b8 a93c 90c0 2abe de3f 81bd
000000f0: 458d 663e 9024 8ebd 72f0 063e 2ed2 14be
00000100: b095 fcbc eeec ba3d 39f4 56bd 26f6 413d
00000110: c283 bb3c b769 14be 1203 20be d793 1e3e
00000120: fd17 823d ffa1 96bd 42f0 83bd 917c 623e
00000130: e762 8ebc 5687 003e 49e3 233e 8050 a6bd
00000140: 11a2 d2bd 790a 66bd 86d4 17be bf48 fe3c
00000150: 8ddd 193e 46ae 07be 3ed0 b13c f72f 2c3e
00000160: 16ad 95bb 69dd 15be 0780 e7bd bc02 553e
00000170: 8c03 0abd 6253 9bbc 3bbb cd3d 0591 8dbc
00000180: c787 8d3d d1d2 24bd 52dc 8dbc aa8c 513e
00000190: 5740 3e3c c7e7 e4bb 4e4c 643d 8b17 5a3e
000001a0: 9694 35be c09b c13d fc35 4c3e 2b50 e0bd
000001b0: 90a2 913d 30d4 1fbd e45c 853d e2fe c63d
000001c0: dcc3 5d3d 532a bebc 3df4 32be f7af dc3c
000001d0: 8c72 213d 4dc9 cdba e9b8 423d 23f0 20bd
000001e0: f6da 663d b6f8 5bbe a1cc 89bc 1147 2d3e
000001f0: c0e8 f73d f2f6 4fbc 954d 96bc 9b93 efbd
00000200: 2ea7 aa3d b388 14ba 56ce 51be 3db8 59bd
00000210: d129 51bc 1199 fabc 047e 393e 0122 11be
00000220: 957c c0bd 0a45 333e 953b 3abe 6352 ae3d
00000230: 404e 043e 338f 3abe 7c87 683d 4823 98bd
00000240: 3265 39be 45b5 af3d 33d9 443d 8466 f4bd
00000250: a254 d43d 6e3e 8c3c 4255 133d 272a 08bd
00000260: 38f9 7fbd d1d0 ae3d f7be 5b3d beee cb3d
00000270: 17a6 e2bd 116d 0abe 2bab ccbd 9169 313c
00000280: a446 283e 0ab5 c33c b16c 6ebe d132 4bbe
00000290: c130 0abe a5c2 efbd 0bf7 ffbd de5b 8f3d
000002a0: f603 103e c598 80bc ba55 f53d a43e d73d
000002b0: f5c4 e8bd c748 0ebc 1cb3 a43d 6f4f 873d
000002c0: d569 9f3b ce87 bdbd f6c6 033d 1a28 09be
000002d0: 7fcb a63d fa2d c93c f08b 423d 162d 0f3e
000002e0: 115b 123e 07b4 e1bc cd42 5f3d 7f79 0e3e
000002f0: 5247 a63d 64b4 e4bd fec4 a2bd c750 75bd
00000300: 9536 f73d f11f a6bd 84ea 943c 1f21 373d
00000310: 39d9 b83d 4661 123c ba64 cc3d e0bc 06bd
00000320: 32ac da3d fb8b ad3d 066b 09be c6bd 26be
00000330: 6be5 b4bd 18cd cf3d 92ff 413e 4d09 1dbe
00000340: d66b 3bbb d07e 34be c99b a93d d88c d13d
00000350: 9e8b dfbc 8a64 e83b 0f19 93bd 30e1 66bd
00000360: de04 f3bc 6bf1 123e ace7 e43c 48bf fe3d
00000370: 9f29 d0bc f78a 493e 1058 203e 405d 8f3d
00000380: 1a8a 9abd 3d33 62be 3122 a93c 8c11 753a
00000390: 7983 0d3d 92bc 223c d050 303e 375d 8abd
000003a0: 6092 01be 2eb7 a13d eaad 2c3e 7b2a 953d
000003b0: 5a4e f3bd a5bf 9cbd bf4d 47bd 4f40 523e
000003c0: c9a6 893c 4308 683d d8c2 163e a12c 0a3e
000003d0: bb83 463c 5196 2dbd ff7c ccbd 7860 343e
000003e0: 2580 843e 153e 4abe b49a 24be 8a29 ec3d
000003f0: d063 2e3e 102d c33d 2b6c b3bc 2823 85bd
0.10512539 0.040737502 -0.02593674 0.09694328 -0.056286056 -0.05369807 0.10600038 0.10797708
-0.0006528138 -0.062025838 -0.17507736 -0.13791443 0.07491039 -0.14139156 -0.20826074 -0.041029938
0.09072699 -0.02874728 -0.15609509 -0.14499363 -0.036551252 0.11741433 -0.1224726 -0.1058995
0.19091266 0.14386226 0.046599105 -0.02096215 -0.16872971 0.12366611 -0.17122054 0.07893046
-0.034024205 0.07904296 0.090350606 -0.120573364 0.00823724 0.008502962 0.04816852 0.09848074
-0.048863444 0.1216486 -0.20646277 -0.19543798 0.035464413 -0.13608797 0.1339136 0.0701518
-0.12636726 -0.09840316 -0.0013923235 -0.108745754 0.13108298 -0.039134596 0.010629174 0.036569815
-0.04667042 0.020718068 -0.1667502 -0.0631101 0.22514828 -0.069405675 0.1317766 -0.14533302
-0.030833095 0.09127222 -0.052479003 0.047353886 0.022889975 -0.14493452 -0.15626171 0.15486084
0.06352232 -0.07355117 -0.0644231 0.22117831 -0.017381145 0.12551627 0.16004671 -0.08120823
-0.10284818 -0.05616233 -0.14827165 0.031040547 0.15025921 -0.13250074 0.021705743 0.16815172
-0.0045677526 -0.14635243 -0.11303716 0.20801824 -0.03369479 -0.018960658 0.10045477 -0.017281065
0.06910663 -0.040240113 -0.017316971 0.20463815 0.0116120195 -0.006985638 0.055736832 0.21298043
-0.17732462 0.09453535 0.19942468 -0.10952791 0.071110845 -0.039020717 0.06511858 0.09716584
0.054141864 -0.023213541 -0.17475982 0.026939375 0.03941588 -0.0015700251 0.047539625 -0.039291512
0.05636116 -0.21481594 -0.016821207 0.16921641 0.121049404 -0.012693154 -0.01834754 -0.116980754
0.08332668 -0.0005666122 -0.20488867 -0.05315422 -0.012766317 -0.030590566 0.18114477 -0.14173128
-0.09398762 0.17506805 -0.18186791 0.08511808 0.12920475 -0.18218689 0.056769833 -0.07428604
-0.18105009 0.08579496 0.0480587 -0.11933616 0.10367705 0.017119613 0.03596998 -0.033243325
-0.062493533 0.08535922 0.053648915 0.09957646 -0.110668354 -0.13518168 -0.09993585 0.010828392
0.16433197 0.023890037 -0.2328365 -0.19843604 -0.1349516 -0.117070474 -0.124982916 0.06999944
0.14064011 -0.015697846 0.11979242 0.105099946 -0.113656916 -0.008684344 0.08041975 0.06606948
0.004864911 -0.09254418 0.032172166 -0.13394204 0.081442825 0.024558056 0.047496736 0.13982043
0.14292552 -0.027551664 0.054507066 0.13913535 0.08119072 -0.11167219 -0.079477295 -0.05989149
0.120709576 -0.08111561 0.018178232 0.04470932 0.09025807 0.008934325 0.099801496 -0.03289497
0.10677375 0.08473965 -0.13419732 -0.1628333 -0.088328205 0.101465404 0.18945149 -0.15335579
-0.002859821 -0.176265 0.08281667 0.10231942 -0.027288254 0.0070920633 -0.07182514 -0.0563671
-0.029665407 0.14349906 0.027942501 0.12438828 -0.025410471 0.19681917 0.15658593 0.07000208
-0.07545872 -0.22089858 0.020646187 0.0009348623 0.03454921 0.009932654 0.17218328 -0.067560606
-0.12653494 0.07896267 0.16863218 0.07283493 -0.11880179 -0.07653741 -0.04865813 0.20532344
0.016803162 0.056648504 0.14722764 0.13493587 0.012116368 -0.04237968 -0.099847786 0.17614925
0.25879017 -0.19750245 -0.1607464 0.115313604 0.17030263 0.09530079 -0.021902164 -0.06500846

FC1.bias f4 [256]
00000000: 1ced f1bd f9e3 9bbd ed24 2abd 6b02 833d
00000010: 766d 92bc e096 f2bd 99b2 0ebd 8f89 053e
00000020: 8427 2c3e e04a e33c dd45 3f3e eb5f 7d3d
00000030: 91c6 bcbc 6283 fabd 45c5 32be c316 40bd
00000040: 68e7 a13d e541 bebd 5e36 003d ea81 373e
00000050: 0ed7 c8bc b414 053e 5f2e 6b3d f117 773e
00000060: 8718 3fbd f4e8 a7bd 261b 3a3e ce05 04be
00000070: 42ee 27be c754 68bd 416b a33d ec59 f43d
00000080: ed74 263e db7e 90bd ea76 413d ac95 033e
00000090: b852 c0bd 8949 573e 08f1 10be 072c 873d
000000a0: e3f9 993c a764 6dbd 6dd3 9abd 0bf5 a93c
000000b0: 8a41 e4bd 642e f53d 7979 1f3e 8288 8abd
000000c0: 9b72 d83d 9b78 833c e4af 093e e7a7 5a3d
000000d0: 1837 adbd 56b8 3b3e 5460 82bd 9508 323d
000000e0: aee7 7abd f146 5d3e 385b b0bd 3143 c93c
000000f0: e9d7 8cbd 10b8 bf3d 51c2 963d 9968 c63d
00000100: d7e8 43bd c417 203e 5220 b0bc c1a8 073d
00000110: a4b5 b23c c080 1d3c 3c7d 83bd d680 4d3e
00000120: 2c76 663d f721 bbbd fa6c bc3d 8393 4b3e
00000130: 8e29 2dbd ed2f 843d d98d 97bd 9977 5c3d
00000140: 3793 23be 6577 523e 617d 6abc f7c7 22be
00000150: 42dd 493d 966e e8bd 6061 323d 6af8 3a3e
00000160: 4a0d 40bd 55b5 47bd c4fe 4fbd f5a8 eb3d
00000170: 7a19 89bd d7e5 23be 1e5e 703c 6fde 913d
00000180: 045e 86bd 5e66 19bd 45ef 68bc b004 cbbd
00000190: 84df 863d 9a08 3b3c cf94 5d3d 66d6 143e
000001a0: d72a 463e 7be6 4b3e 685e 20bc d5bc 453d
000001b0: f9c3 c0bd 6e30 d63d ef8e 88bd 105b 2f3e
000001c0: c69e c4bd 9283 7cbd 1f7a 92bd 57e7 2a3d
000001d0: 178c 1c3e b5ac 2c3e c6a2 28be 4964 e43d
000001e0: 2043 443d 1f51 2d3e c7ac 95bd d401 dfbd
000001f0: ae52 013e e1ee e83d 91ae 413d 7dca f53d
00000200: e04c ba3c cc0e d4bc bad9 bfbc f604 ab3d
00000210: b0b9 0a3e f6e8 d73d d9bd 253e 3797 0c3d
00000220: cecd 6a3d c2a1 eebd a62b bfbc bd94 0d3e
00000230: a087 193d 8c0e f43d b1fc 113e b9fe ddbd
00000240: fd73 6c3e 9bf2 153e d504 94bd 4899 3d3c
00000250: f117 fdbc 1dbe 27be 4ae5 89bd 55be 0b3e
00000260: 2252 b8bd 57dc ba3d 51f0 473e e195 dfbd
00000270: 6a5c d03d 1cfb a9bd ebe5 b7bd 62c4 073c
00000280: 35b8 ccbd 1a8b f1bd 6fac 673d 7ff8 033e
00000290: 43da 1ebc 44ff b5bd 5a15 b3bc 6b1a 023e
000002a0: 472f fb3d 0eff e1bc 0693 16bd 7013 183e
000002b0: 3c2a f33d 7a84 14be 16a0 b73d 7241 50bd
000002c0: 29dc 393d ad6f e53d 42f4 80bd edc4 a3bd
000002d0: ae3a 533d aa48 1c3e 79bf af3d 8f50 d13d
000002e0: 44c8 083e 667b b63d c8d8 3b3e ac81 ac3d
000002f0: 372a eebd 46ba 3f3e e163 05be 093c 3b3e
00000300: 63a3 cd3d 8a4a b1bd dee0 723c 9c8e fdbd
00000310: 1bd0 163e 3156 e1bd 259f 92bd dfb3 8abd
00000320: ca95 403d 947c 173e e751 03bb b8b4 d7bd
00000330: 1b19 d8bd 2c43 cdbd 5cba c2bc 64f7 a5bc
00000340: 9d82 883a 9b5b 243e dc3d 5cbe bdf5 bb3c
00000350: abb2 d63d 0342 06be dfdb 8cbc 072b b2bd
00000360: 47ea 7cbc 71e1 f03d 83c5 223e 0024 c1bd
00000370: 9bee 223e 534f 913d ac38 fd3d 19b0 a2bd
00000380: 638c 763d 17c7 9f3d 8efb 6b3e 6841 0abd
00000390: bd1f 82bd eabf 063e 9bb2 083e cd4c 303d
000003a0: e73a b73c 9ad0 8bbd fa19 893d 1ee1 c53d
000003b0: 1103 0b3e ed67 593b b8a0 083d dde4 f63d
000003c0: 31db 0c3e 0c67 d3ba ff0e 3ebe 26de e13d
000003d0: a6b0 20be aaf9 283e fc70 183d db93 133d
000003e0: 41ae cb3c fda7 90bd 214f 0fbc 3eb0 c43d
000003f0: 327a bcbd d39c 41be 46bb 753d 313d 573e
-0.11812803 -0.07611842 -0.04153912 0.063969456 -0.01787446 -0.11845183 -0.034838293 0.13040756
0.16811949 0.027745664 0.18678994 0.061859053 -0.023043903 -0.122320905 -0.17458065 -0.046896707
0.07905465 -0.09289912 0.03130185 0.17920652 -0.024516609 0.12996179 0.05741727 0.24130227
-0.04665425 -0.08198729 0.18174419 -0.1289284 -0.16399482 -0.056721475 0.079794414 0.11931214
0.16255541 -0.07055446 0.047232546 0.12850064 -0.09390777 0.21024145 -0.14154446 0.066001944
0.018795913 -0.057957318 -0.075598575 0.020746728 -0.11145313 0.11971739 0.15573682 -0.06764318
0.10568734 0.01604872 0.13446003 0.05338278 -0.08457774 0.18332037 -0.063660294 0.043465216
-0.061256103 0.21609093 -0.086111486 0.024568172 -0.06877119 0.09361279 0.07361282 0.09687919
-0.047829475 0.15634066 -0.021499787 0.03311992 0.021815129 0.009613216 -0.06420371 0.20068678
0.05626504 -0.09137338 0.09200473 0.1988049 -0.042275958 0.064544536 -0.07400102 0.053824995
-0.15974127 0.20553358 -0.014312119 -0.15896593 0.049283274 -0.113492176 0.043549895 0.18258825
-0.046887673 -0.048756916 -0.050780073 0.11506835 -0.066943124 -0.16005646 0.014670877 0.07122504
-0.06560901 -0.03745114 -0.014217203 -0.099130034 0.06585601 0.011415625 0.054096993 0.14534912
0.1935228 0.1991214 -0.009788133 0.048275787 -0.09412379 0.10458456 -0.066678874 0.17124581
-0.09600596 -0.061648913 -0.07152199 0.04172453 0.15287815 0.16862758 -0.16468343 0.111519404
0.047915578 0.16925476 -0.07308345 -0.108890206 0.12629196 0.113736875 0.04728562 0.12001512
0.022741735 -0.025885962 -0.02341925 0.083505556 0.13547397 0.10542481 0.16185702 0.034323897
0.057325177 -0.116519466 -0.023336243 0.1382627 0.037482858 0.11916837 0.1425655 -0.108396
0.23091121 0.14643328 -0.07227484 0.01157219 -0.030895205 -0.16381116 -0.067331865 0.13646825
-0.090000406 0.09124058 0.19525267 -0.10917259 0.101738766 -0.082998484 -0.089794 0.008286567
-0.09996072 -0.1179411 0.05656093 0.12887762 -0.009695592 -0.08886579 -0.021860767 0.1270539
0.12264877 -0.02758744 -0.036761306 0.14851165 0.1187329 -0.14503661 0.08966081 -0.050843664
0.045375977 0.11202941 -0.062965885 -0.07996545 0.051569633 0.15262094 0.085814424 0.102204435
0.13357645 0.08910255 0.18344414 0.084231704 -0.116291456 0.18723401 -0.13026382 0.1828462
0.10040929 -0.08656795 0.01482412 -0.12380716 0.14727823 -0.11002768 -0.07159261 -0.06772589
0.04701785 0.14793617 -0.0020037831 -0.10532516 -0.105516635 -0.10022578 -0.023770504 -0.020259567
0.0010414902 0.1605057 -0.21507972 0.022944326 0.10483297 -0.13111119 -0.017194686 -0.08699613
-0.015436715 0.117617495 0.15895657 -0.094306946 0.15911333 0.07095208 0.12364325 -0.07943744
0.060192477 0.07801645 0.23045179 -0.033753783 -0.0635371 0.13159147 0.13349383 0.043041993
0.022366954 -0.06826897 0.06694408 0.09662078 0.13575388 0.0033173517 0.0333564 0.12055371
0.1375549 -0.0016128733 -0.18560408 0.110286996 -0.15692386 0.1650149 0.037217125 0.036029678
0.024863364 -0.07063291 -0.008746893 0.09603928 -0.092029944 -0.1890748 0.05999305 0.21019436

FC2.weight f4 [256, 256]
00000000: 4ff5 993d 5025 64bd b6ae a83d 904c b13d
00000010: acf7 e73c fba8 8cbc 2f22 0bbe dbbb 44bc
00000020: c8ec 7a3d 7eb2 213e 1fe7 88bc e25f bcbb
00000030: b21b 24bd 1c29 7dbc 9772 b8bc 7f11 47bd
00000040: 240f ce3d 733b 353b 5caf adba 8b36 cc3d
00000050: 687c cc3d 9a58 bb3d 2970 babd 1796 793d
00000060: a390 b03d 8b19 3a3d 6374 193d a803 79ba
00000070: 9b26 9d3d 5947 9a3d 7291 ff3d 5f11 3b3d
00000080: d736 da3d a99d b63d 4c10 023d 70ef adbb
00000090: 9a59 363d 9e97 843d 5b48 0dbb 8009 963d
000000a0: 8266 3bbc 06c5 58bd e7cd 983d f227 923c
000000b0: 8788 18bb 2e98 863d 9fcb 2d3d 73ff e63d
000000c0: 1cb6 553d aaee 0b3d 9ef6 133e 26a9 76bc
000000d0: 5b5c fe3c e6a4 1d3e 895b 943d 1be2 043d
000000e0: 4031 f73c 62d4 2c3e a190 b6bc 5552 bf3d
000000f0: 78dd 113c 2d47 a03d 9fd7 813d c31a e03d
00000100: edae d0b9 33ec 18bd 9246 89bb c469 a53c
00000110: bf39 123e 6064 383b bec2 d13d 066c 40bc
00000120: c9e4 da3d e725 e13c dc5c 8fbb 4e21 cdbc
00000130: 1ddf 84bc 476a a63d e613 a93d ded4 4eba
00000140: 27aa 163d ae03 99bc aaf5 0bbb 4449 acbc
00000150: 9d34 b93d a2db 553d 54d1 283c 47cd efbc
00000160: 837e 5d3d 28b8 b23d 8b42 b83d 97d0 ee3d
00000170: e8ad 9c3d ddf1 2e3c 04e3 893b 0c63 58bd
00000180: 1211 a4bd f21b 24bc f50d f63c 9c9f 26bd
00000190: 4588 133d bd30 55bc 2bb3 833c a71f 41bc
000001a0: ce5a 5a3c 887f 623c e93c 10bd 1f93 89bd
000001b0: 89b1 873d 555a b5bc c0bc d73c 3086 d43d
000001c0: b30b 4bbd ace1 cebc 5224 1bbd 1be1 d33d
000001d0: 13fd 033e 04db 803a 4c37 ccbc a7b6 81bb
000001e0: 3372 12bc 9c89 0abd e895 aabd 03c3 293d
000001f0: ebb3 f13d 922e 433d 9259 c9bc bc83 ad3c
00000200: 97c9 8d3d b186 6cbc e8a9 ac3d 59f6 213d
00000210: 8a45 13bc 5ff8 973d 1746 0c3d cc61 f1bc
00000220: 0d3e 8c3d 294a f13d 1792 a2ba 6837 0cbc
00000230: b356 8d3c b691 c53d 96fc 323d 24ab 80bc
00000240: a9c8 a33c ccec ba3d b1fe c6bc 12f7 c23d
00000250: ca8b 2f3e a308 81bd ecf7 043d f019 a53d
00000260: 37aa cc3d 70be 993d 3825 053e 6cec 19bb
00000270: face 493d aefd e93a 2ece 9e3c d53c 143d
00000280: 771b 943d d52d 4ebd 0782 88bd 878c 0b3d
00000290: ad38 993b b251 943b a749 18bd 1bea f33c
000002a0: 1284 133d 53b9 a93d 49e0 05bc ceab d83d
000002b0: 2ed1 293c 0c99 1f3d 1c27 933d 7dda b4bc
000002c0: fdf0 933d 9f15 5fbd 6d18 193e e375 e23d
000002d0: ec5e 063e 1a28 633d d6b8 d93c 32d2 d63d
000002e0: 0b3f 8a3d d303 e43d ae50 36bd 283f 013e
000002f0: b65d 1d3d 1862 1ebc ed09 0b3b af36 a63d
00000300: 48f1 02ba 9e2d 163d 438f e53c 3cab a93d
00000310: 9d7a 04bd 5ba3 df3c 79b5 41bd c2c2 e5ba
00000320: 12ff 013d dd7d 1b3d f56e 133e a875 49bc
00000330: 836e 033e f751 48bc 95de 5c3d 090a 09bc
00000340: 04d3 b63c 812d f03b f656 633d 16d1 ea3c
00000350: 1f5d f73c 2d4a ba3d adcc f03c bc03 cd3c
00000360: da19 42bd ae68 043c 8e0f bc3d 1db0 233d
00000370: 342b 4d3d 8c29 7a3d c25f 423d 43f6 b03d
00000380: 9a75 c23d 6592 c33d 12b6 053e f9a0 723c
00000390: 995d ac3c a55b 9dbc 9b7f 273c 40b5 46bd
000003a0: 1eff 07bd 6650 6bbd c241 a53d 7314 933d
000003b0: ddba 333d 10cb 853d 7553 20bd 372a c83c
000003c0: ae02 323d c4a3 283d e085 3e3d 203c 56bd
000003d0: d1ac a33d 9058 6b3c 1155 af3d 5d9f f13c
000003e0: e63c c93d fc8f 05bd d615 f8bd 57ef 19bc
000003f0: 4b44 9c3d c443 2dbc fe4a 7e3d 4f72 163d
0.07517492 -0.055699646 0.082364485 0.08657181 0.028316341 -0.01717042 -0.13587259 -0.012007679
0.06126097 0.15790746 -0.01671177 -0.005748735 -0.040065475 -0.015451696 -0.022515578 -0.04860067
0.100614816 0.0027653843 -0.0013251114 0.09971341 0.09984666 0.09147759 -0.09103424 0.060934152
0.08621337 0.045434516 0.03746451 -0.0009499141 0.07673379 0.0753314 0.12478913 0.045670863
0.10654991 0.0891679 0.031753823 -0.005308084 0.044519044 0.06474231 -0.002155802 0.07326031
-0.011438014 -0.05292227 0.07461148 0.017841313 -0.0023274736 0.06571995 0.042430516 0.11279192
0.052175626 0.034163155 0.14449546 -0.015054977 0.031049898 0.15394935 0.072440214 0.032442193
0.030174851 0.16877893 -0.022285761 0.093418755 0.0089029 0.07826076 0.063399546 0.109426044
-0.0003980318 -0.037334632 -0.004189321 0.020192035 0.14279841 0.0028136 0.10242222 -0.011744505
0.106881686 0.027483894 -0.0043750834 -0.025040295 -0.01621967 0.081257395 0.082557485 -0.0007889996
0.036783364 -0.018678512 -0.0021356144 -0.02103103 0.09043238 0.05221141 0.010303814 -0.029272689
0.05407573 0.08726531 0.08997067 0.11660879 0.076503575 0.010677782 0.0042079706 -0.052828833
-0.080110684 -0.010016428 0.030035952 -0.04067956 0.03601863 -0.013012108 0.016076645 -0.011787332
0.013327314 0.013824351 -0.03521434 -0.06717514 0.06625659 -0.0221378 0.02633512 0.10377157
-0.049571704 -0.025254093 -0.037876435 0.1034567 0.12889509 0.0009830897 -0.024928711 -0.0039585414
-0.00893836 -0.03382264 -0.083293736 0.041445743 0.11801895 0.047651835 -0.024578843 0.02118098
0.06923216 -0.01443641 0.084308445 0.039541576 -0.008988747 0.0742042 0.03424653 -0.029465578
0.06847773 0.11781723 -0.0012403157 -0.008558132 0.017253255 0.09646933 0.043697916 -0.015706606
0.019993143 0.09127197 -0.024291368 0.09519781 0.17143169 -0.063004754 0.032463 0.08061588
0.099934034 0.07507026 0.13002479 -0.0023486866 0.049269654 0.0017852092 0.019385424 0.036190826
0.07231801 -0.050336678 -0.06665426 0.034069564 0.0046759457 0.0045263404 -0.037179615 0.029774716
0.036014624 0.08287301 -0.0081711495 0.10579644 0.010364814 0.038964316 0.07185194 -0.02207684
0.07223699 -0.05446398 0.14950724 0.11057641 0.13122147 0.055458166 0.026577394 0.1048931
0.06750306 0.11133542 -0.044510536 0.12621748 0.038419448 -0.009666942 0.0021215633 0.08115899
-0.000499506 0.036664598 0.028022414 0.082846135 -0.032343496 0.027299574 -0.047292206 -0.0017529356
0.031737395 0.03796183 0.14397795 -0.012296118 0.12835126 -0.012226573 0.05392321 -0.008364209
0.022317417 0.0073296432 0.055502854 0.028664153 0.03019577 0.09096179 0.029394472 0.025026195
-0.047387935 0.008081598 0.09182654 0.039962877 0.05009003 0.06107478 0.047454603 0.08640721
0.09495087 0.09549407 0.13057736 0.014808887 0.021040725 -0.019208739 0.010223295 -0.048512697
-0.033202283 -0.05744972 0.08069183 0.07181635 0.04387938 0.06532872 -0.03914209 0.024434192
0.043459587 0.041171804 0.046514392 -0.052303433 0.079919465 0.014364377 0.08561147 0.029494936
0.098260686 -0.032608017 -0.1211354 -0.009395442 0.07630213 -0.010575239 0.062083237 0.036730107

FC2.bias f4 [256]
00000000: 1c84 d93c 4704 8c3c 2b63 24bd ba8d 5cbd
00000010: cbc8 2ebd 1c5d 5e3d 5276 1c3c 13c8 1aba
00000020: 6cc9 bb3c fc58 fa3a d0d1 33bc 6660 76bc
00000030: 68f5 e1bc b999 37bd d0c9 6fbd 19dd 073d
00000040: bdeb 843d 1c0c 9b3d ab85 483d fee8 0cbd
00000050: 04ce 10bd e5e8 a83b e46b 05bd 8c7c 22bd
00000060: 6ba7 c53b 70e3 b5bd 08dd 2a3b a327 553d
00000070: 03da 8f3b 1eba 8abd c9cf 593d 48f4 84bd
00000080: a602 bbbc 10fa 36bd 79a7 043e 959c 823b
00000090: 845a 753d 3bca b43b 47eb fbbc d84a 98bd
000000a0: 2321 083d 93e5 85bd 38c7 3a3d eb9d ab3d
000000b0: c128 08bd e7b0 3abd fcf3 a13d 2e00 9bbb
000000c0: 87ee 503d 9a42 293d 2b42 c93c 3c1e 89bd
000000d0: aec3 77bd 08c8 6fbd 7be0 55bd edf2 84bc
000000e0: 527f f03c ee02 8cbd af3d 2e3d af35 40bc
000000f0: bfc7 393d b003 42bc 5fc1 58bd 0113 75bd
00000100: 8cbd 3f3d 1674 a33c e77f 91bd d5c4 003d
00000110: 7da4 a53d 590a 83bd 425c b3bd a804 973c
00000120: 0386 c3bc 9d82 04bd ac40 5a3b 5249 a0bc
00000130: 9d62 14bd 52d5 80bc 6f03 dbbc c50c 193d
00000140: ca60 f53c d1c4 d23b 9df3 4c3b 6ad5 3dbd
00000150: a453 093c 2999 293c 9fe5 99bd 0ce2 43bd
00000160: 64d7 5b3d 7661 86bc 7873 abbd 1a06 743c
00000170: d38d e8bc 5536 bbbc 6518 4c3b 108c ff3c
00000180: 7576 ff3d 49f3 a0bb 64c8 de3b 5b0e b5bc
00000190: e473 953c 9f53 61bc b1d4 183d d5bb 523d
000001a0: 9e6d 46bd b84d 01bd 81b4 efb8 82bf 8e3c
000001b0: 77de 3c3c db03 8e3c 6270 2b3c bd18 45bc
000001c0: 1f90 053d 9302 073d 66e0 b33d 6a38 113e
000001d0: d06d 0e3c 19ba 8abd 62da 003d dd18 e9ba
000001e0: 9cb5 51bd 523a b2ba 53ce 253c 2bab 32bd
000001f0: da17 92bd 9483 cebc 824d a23b 5ad7 043e
00000200: c659 6b3c 8591 48bc 397c 5abc e666 0ebd
00000210: 3590 efbc b915 343d 0b12 b13d fa63 57bd
00000220: 7c92 8bba c3ee a0bd 7399 433c 079e 083b
00000230: 6771 b4bd ee3e d5bc 0014 23bd 5659 f7bc
00000240: 8ba5 9cbd d56c 03bc 3794 e8bc 3c78 babc
00000250: 6879 c4bd 36be cf3c db89 413d ab97 ccbb
00000260: dc37 bfbc 9598 35bd fc96 08bd 36c3 cbba
00000270: 93b7 303d 5cc1 4c3b 8626 333d 977c 1bbd
00000280: 6109 98bd 6526 2abd c02d eabc 7fa3 84bd
00000290: 919d a93c 6c04 89bd 7750 9abd 220e 5f3d
000002a0: 817f b33c f672 97bd 2b21 e73c 0d3b c33b
000002b0: ba9e f43c 0128 35bc b171 cd3c 3c0c 7bbd
000002c0: de6b 2a3c 0d85 30bb 3d96 89bd d040 3fbd
000002d0: e820 75bc aec7 b9bc 0fb5 b5bd 2b15 23bd
000002e0: a4c5 e5bc a138 833c 2755 5cbd 1c8f f63c
000002f0: 961c efbd 66e8 093d 9040 34bd 8d4e 68bd
00000300: 982b 293b f64c cdbc c4c1 fa3c b1e7 18bd
00000310: 5fb9 063d f49c de3d 5698 b33b 632e 1e3d
00000320: 256f 383d 8a67 2abd cdb6 acbc 0e95 3ebd
00000330: 14e7 05bd dbdc 8fbd e60c b2bd ac37 fabc
00000340: 0b85 1e3d 5c40 a43c ea6c 93bd 5660 34bd
00000350: 91e8 a5ba 7ccc f43c 16a7 983c dcfd bb3d
00000360: 581f a53c 0103 88bc d864 f83c 9744 06bc
00000370: cbbc 17bb 9032 a2bd 0d04 8e3c f2c5 89b9
00000380: d630 5dbd 31d6 dbbb 6102 dc3c 0d2e f4bc
00000390: 33c4 943d bc78 ad3d 037d 413c 7be3 053c
000003a0: 85b6 a6bd d75c 893c f9d1 693c 60a4 fcbc
000003b0: 4d4c 923d 0adb 14bd d58b 113e eac5 84bc
000003c0: 3bdb 9e38 daa3 63bd 5ee7 7e3d 0920 54bc
000003d0: bb5a d03c a076 b5bc 5c2e 69ba 8dc0 4e3c
000003e0: 5a71 9bbd c515 c73d 2f00 a63d f535 83bd
000003f0: e8d1 23bd b6b3 f6bc 5a4d a93c b286 84bd
0.026552252 0.017091883 -0.040133636 -0.0538461 -0.04267196 0.054288015 0.009549694 -0.0005904447
0.022923194 0.0019100006 -0.010975316 -0.015037632 -0.02758284 -0.044824336 -0.058542073 0.03316984
0.06490276 0.07570669 0.0489556 -0.034401886 -0.03535272 0.0051547163 -0.032573596 -0.03966956
0.0060319207 -0.08881271 0.0026071686 0.052039754 0.0043900027 -0.0677378 0.053176675 -0.064919055
-0.022828411 -0.044672072 0.12954511 0.003985951 0.059900776 0.005517272 -0.030751837 -0.0743615
0.033234727 -0.065379284 0.045600146 0.0837973 -0.03324199 -0.045578863 0.079078645 -0.004730246
0.051008727 0.04132328 0.024567684 -0.0669522 -0.06048935 -0.058540374 -0.052216034 -0.016229117
0.029357586 -0.06836496 0.042539295 -0.011731549 0.04535651 -0.0118416995 -0.052918788 -0.059832577
0.046811625 0.019952815 -0.071044736 0.031437714 0.08088014 -0.06398458 -0.08757831 0.018434837
-0.023867613 -0.032351125 0.0033302708 -0.019566212 -0.036226857 -0.015726719 -0.026735036 0.037365694
0.02995338 0.0064321538 0.0031273135 -0.046346106 0.008381758 0.010351458 -0.075145 -0.047822997
0.05367221 -0.016403895 -0.08371633 0.014894033 -0.02838794 -0.022853056 0.003114247 0.031194717
0.12473766 -0.0049118144 0.006798791 -0.022101572 0.018243738 -0.013752847 0.037312213 0.05144866
-0.048444383 -0.03156826 -0.000114300296 0.017425302 0.011527649 0.017335823 0.010463806 -0.012029824
0.032608148 0.03296144 0.08783035 0.14181677 0.0086931735 -0.067737766 0.031458266 -0.0017783899
-0.051198587 -0.0013597703 0.010119992 -0.04362027 -0.071334556 -0.025209226 0.0049530873 0.12972775
0.014364665 -0.012241726 -0.013335281 -0.0347661 -0.029243568 0.04396603 0.086460195 -0.05258558
-0.0010648514 -0.0785804 0.011938441 0.0020846145 -0.08810692 -0.026030984 -0.039813995 -0.030193966
-0.07648762 -0.008021553 -0.028390987 -0.02276241 -0.09593469 0.025359254 0.04725061 -0.006243666
-0.023342066 -0.044334967 -0.033347115 -0.0015545848 0.04314382 0.003124318 0.04373791 -0.037960615
-0.07423664 -0.041540522 -0.028586268 -0.06476497 0.020705016 -0.066902965 -0.07534879 0.054456837
0.021911385 -0.07394974 0.028214058 0.005957967 0.029860843 -0.011056901 0.025078626 -0.061290964
0.010401694 -0.0026934773 -0.06718109 -0.04669267 -0.014961459 -0.022678223 -0.08872425 -0.03981511
-0.028048344 0.016018214 -0.053792145 0.030097537 -0.11675374 0.033668898 -0.044006884 -0.056715537
0.0025813337 -0.025061112 0.030609973 -0.037330333 0.032891627 0.1086978 0.0054808063 0.038618457
0.04502787 -0.04160265 -0.02108326 -0.04652887 -0.032691076 -0.07024547 -0.086938664 -0.030544125
0.0387011 0.02005022 -0.07198508 -0.044037186 -0.0012657811 0.029882662 0.01863436 0.09179279
0.020156547 -0.016602995 0.030321524 -0.008195064 -0.00231533 -0.079198 0.017335916 -0.00026278157
-0.05400165 -0.006708883 0.026856603 -0.029807115 0.072639845 0.08470294 0.01180959 0.008171911
-0.081402816 0.016767902 0.014271253 -0.030840099 0.071434595 -0.036341704 0.14213498 -0.016207654
7.574862e-05 -0.055576183 0.062232368 -0.012947091 0.025433889 -0.022151291 -0.0008895153 0.01261915
-0.075899795 0.09720949 0.08105504 -0.06406776 -0.039995104 -0.03011499 0.020666767 -0.064710036

action_out.weight f4 [5, 256]
00000000: 5a45 ebbd a09e b63c 6191 b93c f0de f13c
00000010: 8670 b33b f61c 713d 5d2b 173d fd98 ef3b
00000020: 1fd3 203d ed8e 28bc 27f6 073d 498f 0d3d
00000030: 9325 9ebd 1088 0d3d 671c 303d 3d2d 39bd
00000040: fc08 3e3c 1fc9 8fbd 1fef 62bd 4c5f c6bb
00000050: a80b 89bd 437b 1bbe 168d 513d 7d8a 4a3d
00000060: 3bf1 3cbd afbe 3dbd 6cb2 2b3d dda1 28bd
00000070: a77c 693d 45fd 23bd c247 4ebd f70c 57bd
00000080: 8a4d 433d f0b6 f6bb 333d 9fbd 484a 34bd
00000090: bcc6 3e3c 066a 24bd 5c3b a13c 9d48 69bd
000000a0: 731a 1c3d c12b 0c3c b134 aabd 2b87 cbbd
000000b0: 787f 92bc 3fcd 063d 5962 cbbd 7137 45ba
000000c0: ed10 193b 8d64 e1bb c3f9 9cbd b52b 0fbd
000000d0: d806 b8bc 40a4 4f3c 2f09 68bd cb77 123c
000000e0: 01f1 42bc 942b 9e3b 8930 373d 73b3 533c
000000f0: db26 393d 5955 bfbd 4a9c 48bc 638b c83c
00000100: 1311 3c3d c4c2 813c e5e8 723c e90b 383d
00000110: 92d5 68bc 5eee 93bc 37b3 b0bc 6a46 6ebd
00000120: d5d5 303d 9963 bebc eb54 bd3c 472c 94bc
00000130: 97fd d0bd 83b6 4bbd 209e 933d 2392 823d
00000140: 69ca 823d f561 57bc 4360 033d fd01 4c3d
00000150: ae19 9ebd d088 cd3c f09c 4ebd 94ff 5fbd
00000160: f69b b4bb 40db d13d f180 89bd dae4 4abc
00000170: 904f 39bd 3294 1abe 12d6 b73a e35a 583d
00000180: cc35 ebbd ac29 133c 1fdb 3b3d 3876 673d
00000190: afca 4c3d 6156 36bd 675b 4f3d 515f 37bc
000001a0: c97c 993c ac36 3f3c 25b7 2dbd 65a1 883d
000001b0: aaa4 973d d489 083d 33b7 f83c dfee 0dbd
000001c0: d53d 45bd b940 41bd d5d5 cfbd 31ea acbd
000001d0: bfbe b73c 955a d8bc 051b 0a3c 3d02 133d
000001e0: 3bd0 30bd 343a 203d 856d 2bbc 1824 59bd
000001f0: b0ab efbc 0a9b 533c 85bf ba3c ef0e b3bc
00000200: 182f 803c 6148 3d3d 156c 1bbc f0fc 963d
00000210: ccdd 693d cb1c 733d 0969 86bd 8736 123d
00000220: f68a 92bd ac59 98bd eb46 3c3d a690 9cbc
00000230: a034 84bd b3da 7e3d 8ca0 ebbc 5060 c4bb
00000240: f970 363d f985 673d 36e0 823d bd11 893d
00000250: ff76 33bd 0523 d3bc 9c09 35bc 9497 d7bc
00000260: bba3 c5bc fa44 09bd 1027 2abd f56e 353d
00000270: f044 b13c b2b1 413d e08a 76bd 77a2 9dbd
00000280: 0406 3d3d a8ba 2b3d 9db3 993d ea46 5cbd
00000290: 60f8 c43c c54d 2c3d e5c3 5cbd ed0c 0f3d
000002a0: 9578 e1bd 7026 163d 8fd4 003d b88e 99bc
000002b0: 7444 463d b6c2 00bd 3e32 ef3c 7007 56bc
000002c0: fe77 80bd 49be 763d a890 dc3c dd00 283c
000002d0: 2018 e5bd 5b7c e23b abe9 5dbc 5b79 803c
000002e0: 02d7 8c3c ab10 b8bd 5f0e 82bd 8e49 d13c
000002f0: 04d1 1dbd 45f3 ba3c 7f6a 14bd bbc3 d8bc
00000300: 727a f9bb 42ef 4fbd 2308 dcbd 1cf9 093d
00000310: 9b62 1ebe 75cb d1bc 2aa8 0dbd 44fa 18bd
00000320: 482c efbc 7ca5 14bd 66b1 77bc 0c79 35bd
00000330: d1b6 373c 9940 e43c dde7 b7bd 9cc5 503d
00000340: 68d8 14bd 16f5 a1bd d799 b1bd 60a9 2a3c
00000350: f70b 893c 033b e13c caf1 de3c 1d9d 0cbe
00000360: 6a01 ba3c a566 e43c 1fd7 95bd 5b3c af3c
00000370: a0ad 4d3d 4dca d6bc 3e6c 303d 5f18 a43c
00000380: 851d 03bd 13ba 50bd c64c 4b3d 322f 533b
00000390: b38f 423d ead0 58bd f3c3 303d 2fe0 eabd
000003a0: 5ba9 21bd 06b5 ac3c ce6e 50bd c208 003b
000003b0: 7cc2 0fbe 445c 64bd c35a 26bd d9f0 29bd
000003c0: c097 123d f9ca ba3c 1f21 fabd 2b5b a5bc
000003d0: fa62 ecbd b74c a23c c2ba 373d f8fa 16bd
000003e0: 56a1 e2bc 1458 dfbd 2330 8ebd 5b6b e83c
000003f0: 51c3 06be 6bb6 773d fcec cf3c 7481 3ebd
-0.11487837 0.022292435 0.02265233 0.02952525 0.0054760603 0.05886551 0.03690659 0.007311939
0.03926384 -0.010287982 0.033193734 0.034560475 -0.077220105 0.034553587 0.042995837 -0.04520916
0.011598822 -0.07020783 -0.055403825 -0.0060538407 -0.066916764 -0.1518374 0.05115994 0.04944848
-0.046128493 -0.04632443 0.041918203 -0.04116999 0.057003643 -0.04003646 -0.050361402 -0.0525026
0.04768137 -0.007529132 -0.07775345 -0.044016153 0.011644062 -0.040140174 0.019681625 -0.056954015
0.03811116 0.008555354 -0.08310831 -0.099378906 -0.017883047 0.03291058 -0.09930868 -0.0007523215
0.0023356036 -0.0068784417 -0.07664826 -0.03495379 -0.0224642 0.012673438 -0.056649383 0.008939694
-0.01189828 0.0048269723 0.04472402 0.012921202 0.04520307 -0.09342451 -0.0122442935 0.024480527
0.04591472 0.015839942 0.014826034 0.044933233 -0.014211075 -0.018057998 -0.021569831 -0.05817262
0.043172676 -0.023240851 0.023111781 -0.01808752 -0.102046184 -0.049734604 0.07207894 0.063755296
0.06386263 -0.013145913 0.032074224 0.049806584 -0.07719742 0.025089651 -0.050442636 -0.054687098
-0.005511756 0.10246897 -0.06714047 -0.012383664 -0.045241892 -0.15095595 0.001402559 0.05282105
-0.1148487 0.008982103 0.045863267 0.056509227 0.04999798 -0.04451597 0.050624277 -0.011192159
0.01873626 0.01167075 -0.04241099 0.066714086 0.07404454 0.03333457 0.030360794 -0.034651633
-0.04815467 -0.047180865 -0.10148207 -0.08443106 0.022429822 -0.02641038 0.0084292935 0.035890806
-0.043167334 0.039118007 -0.010463123 -0.053012937 -0.029256672 0.012915382 0.022796402 -0.021857707
0.015647456 0.046211604 -0.009486218 0.07372463 0.057096288 0.05935363 -0.065630026 0.035696533
-0.07155411 -0.074389786 0.04596607 -0.019111942 -0.0645535 0.062220287 -0.028763078 -0.0059929267
0.044541333 0.05652425 0.06390421 0.066928364 -0.043814655 -0.025773535 -0.011049654 -0.026317395
-0.024125924 -0.033513047 -0.04154116 0.04429527 0.021639317 0.047288604 -0.060191035 -0.07697003
0.046148315 0.041926056 0.07504962 -0.053778566 0.024044216 0.042066354 -0.053897757 0.034924436
-0.11009327 0.03665775 0.03145271 -0.018744811 0.048405126 -0.03143569 0.029198762 -0.013063297
-0.06272887 0.060240064 0.026924446 0.010254112 -0.11186242 0.006911797 -0.01354448 0.015682867
0.017192367 -0.08987554 -0.06350397 0.025547769 -0.03852941 0.022821078 -0.036234375 -0.026460519
-0.0076134736 -0.050765283 -0.107437395 0.033684835 -0.15467303 -0.025609711 -0.034584202 -0.037348047
-0.02919592 -0.03629063 -0.015117979 -0.044304892 0.01121302 0.027862834 -0.08979771 0.050969705
-0.036339194 -0.079080746 -0.08671921 0.010416359 0.016729338 0.02749396 0.027214903 -0.13731809
0.022705752 0.027880976 -0.07316422 0.021391084 0.05021441 -0.026219511 0.043071978 0.020031152
-0.032010574 -0.050958704 0.049633764 0.0032224176 0.047500324 -0.05293361 0.04315562 -0.11468541
-0.03946815 0.021082412 -0.05088692 0.001953647 -0.14039034 -0.055752054 -0.0406139 -0.041489456
0.03578925 0.022801863 -0.122133486 -0.020185074 -0.11542316 0.019811971 0.04485584 -0.036860436
-0.027664822 -0.109054714 -0.06942775 0.028371504 -0.13160445 0.0604767 0.025381558 -0.046510175

action_out.bias f4 [5]
00000000: 078f d9bc 5b78 b3bd 43b1 37bd 6903 c93d
00000010: 301b 62bd
-0.026557459 -0.0876319 -0.044846784 0.098151036 -0.05520171

weight f4 [256, 123]
00000000: b1fb 593d 4caf a83d a5ca a8bd fc0e 253c
00000010: 14d2 39bc 493f feba 947f 253d d3b7 633d
00000020: 8a75 af3d b041 7abc e00f ea3c 6aad be3d
00000030: 50c4 1fbc afcf 04bd a3e1 46bb 5db6 69bd
00000040: e352 a9bd ad0f ca3c 187b d03d ad0b 293c
00000050: ee2d 1f3d 583e 8b3d ae2d 49bd 58e9 a33b
00000060: b878 6f3d 4a45 fa3c 9f56 9a3d 3758 86bd
00000070: f9e0 0d3d 1e3d bfbd 0f45 663d 3e76 99bc
00000080: 8d63 eabc 81a9 9e3d 98a2 413c a7ff 8a3d
00000090: 155c 563d dab0 223d ad6f 023d bb99 9ebd
000000a0: ef52 ec3b 1ada 10bd 5e2f 68bc 60d5 c8bc
000000b0: 7b13 833d 9bf5 b8bc fd39 d9bd 1554 963c
000000c0: 2b40 f23c a823 dcbd 3870 0bbd 1175 0d3d
000000d0: 6ec9 b7bd c465 88bd a436 b6bd 5d84 7d3b
000000e0: d0a6 503d 595b e8bb c1bb 7abd 6d67 be3d
000000f0: 0c81 1fbd 9ee3 bf3c 3bf1 6b3c b7e8 85bd
00000100: 6a2d 78bd 9a2b 0d3d 2251 e5bc a488 b53d
00000110: e1c7 38bd 7c0f 903c aa20 703d 00f9 1b3c
00000120: 5f68 dabb 4eac 9dba a4e2 31bd 4916 20bb
00000130: 7349 a2bd 6f01 ad3d e698 0b3d 30b3 833d
00000140: ae1b 683d 3d4d cc3c f7a2 903c f230 ab3d
00000150: c591 e03b 8659 26bd 632e 643d 8e22 713d
00000160: 3cc3 38bd df31 8c3d ddf6 b9bc 16db 0ebd
00000170: fe30 5c3d 9612 9abd deed 2dbd c5c7 86bc
00000180: 8ad0 cbbd 15a8 8cbd 90d4 b4bd 0426 7b3d
00000190: 9f37 b6bd 7801 ab3d 558e f9bb e153 b0bd
000001a0: 0089 8c3c 108a 09bd e1e5 b7bd fb4e a03d
000001b0: c3ea 7fbc 91c7 1ebd 5570 723d 4e5d 063e
000001c0: 98b1 6fbd 7e5c e3bc bf41 ec3c ac83 a0bd
000001d0: 8e72 1a3d e14d 923d 226a a83d 21d0 a53c
000001e0: 7f9e 95bd 8f91 1b3d 0f39 aebd a2b0 8c3d
000001f0: 9ea5 d6bc 3e91 833d 3036 91bd 4ee8 a2bd
00000200: 7319 d53d 887b 49bd ac2e 0cbd 9f14 8abd
00000210: 4d4e 3cbd 3adf 163d db4f e6bb 8a3b 9f3d
00000220: b864 9a3c 3a46 c2bb db97 a43d bfe1 c13d
00000230: 2847 68bd a526 06bd 615d 89bd 6485 85bd
00000240: f01c 323c 8c69 9bbd 6826 2cbd 917d 843d
00000250: b487 e13c c45b 433c deac c8bc be1c f6bc
00000260: 9f6b 70bd c621 a1bd 7928 223e 949d 8e3d
00000270: 2c60 95bc e9bf 95bd eb8e 62bd 6f93 06bd
00000280: 9bdc 3cbd 4e1d b0bd f0f7 863b f416 9d3c
00000290: c75f da3d 9c06 87b9 1f3d 613d 5d80 66bd
000002a0: 1e9f d6bc f06d 25bc 4fa9 aabd c420 5f3d
000002b0: 23f2 a43d af70 cbbd 64b4 b63d 028e 9ebd
000002c0: 8b5e afbd f44b 3dbd faa8 eebc e164 b5bd
000002d0: 15d7 ca3b 487a 45bd 7941 353d 22b7 43bc
000002e0: 5565 8f3c 9f37 8d3d 29cd af3d 96c4 99bd
000002f0: 0d98 ab3d b898 a1bd bb6f b9bc 5afc 4cbd
00000300: c2f3 e2bc 481e b6bd 2291 793d 6415 143d
00000310: cd7e 643d 641e 243c 2849 6a3d e0bc 51bd
00000320: d044 8dbc 025a 64bd 649c 4ebd b1be 8cbd
00000330: 3c8c a5bc 114e 7d3d 7d59 913d f5d5 41bd
00000340: aea0 a33d 91bb 18bd f79f d43c b2e4 853d
00000350: fb55 573b 11b3 e1bc 02d4 023d 2af6 9bbd
00000360: 3c47 8e3d 3a30 74bd 27d0 ed3c 9a98 6dbd
00000370: 9d82 9a3d a0ee 4bbc db1b 403c 6a30 01bb
00000380: 91c9 3e3d 1740 ad3d 2bd2 a13d 3cda 74bd
00000390: 00b3 8b3a 4c5b d73c 9ebe 473d e48a 263c
000003a0: ba91 5e39 5899 e03a e030 55bd 19d3 e3bc
000003b0: b6cf 1a3d 22fa d03c 4a5e 22bc 1416 6cbb
000003c0: 705b b43c ca76 83bc 9fbe 853d 233d aabc
000003d0: 05ef 81bd 8bdc 5bbd f220 13bd 645d 8bbd
000003e0: 73f1 f9bd 74b3 a1bc 3b73 a23b b68c cbbc
000003f0: 3335 01bd e54a 9fbc b9fa 8ebd 4e9a 003d
0.053218547 0.0823656 -0.082417764 0.010074373 -0.01134159 -0.0019397523 0.04040487 0.05559523
0.08567341 -0.01527445 0.028572023 0.0931042 -0.009751394 -0.032424625 -0.0030346892 -0.05705868
-0.082677625 0.024665678 0.10179728 0.010317725 0.03886216 0.067990005 -0.04911583 0.005002182
0.058464736 0.030550618 0.07536053 -0.065597944 0.03463838 -0.09337829 0.056218203 -0.01873314
-0.028611923 0.07747174 0.0118185505 0.06787043 0.05233391 0.03971944 0.031844784 -0.077441655
0.007212035 -0.035364248 -0.0141714495 -0.024515808 0.064002 -0.022578051 -0.106067635 0.01835064
0.029571613 -0.107489884 -0.034042567 0.03453547 -0.089739665 -0.06660035 -0.088971406 0.003868363
0.050940335 -0.0070909676 -0.061214212 0.09297071 -0.038941428 0.023423966 0.014400776 -0.065385275
-0.060590185 0.03446541 -0.027992789 0.08863953 -0.045112494 0.017585509 0.0586249 0.009519815
-0.006665274 -0.00120295 -0.043429032 -0.0024427345 -0.079241656 0.08447539 0.034081362 0.06430662
0.056667022 0.024939174 0.017655833 0.08358945 0.0068533146 -0.04061272 0.0557083 0.058870845
-0.045108065 0.0684545 -0.022700721 -0.034876905 0.05375766 -0.07523076 -0.042463176 -0.01645268
-0.09951885 -0.068679966 -0.088296056 0.06131555 -0.08897328 0.083498895 -0.0076158443 -0.08609749
0.01715517 -0.033578932 -0.08979393 0.07827564 -0.015619936 -0.03876454 0.05918916 0.1312153
-0.058518976 -0.027754065 0.028839944 -0.078376144 0.037706904 0.071437605 0.08223368 0.020240845
-0.07305621 0.037980612 -0.08506977 0.068696275 -0.02620202 0.06424187 -0.070904136 -0.07954465
0.10405245 -0.049190074 -0.034224197 -0.067422144 -0.04597311 0.03683398 -0.0070285625 0.07775028
0.018846855 -0.005928782 0.08036777 0.09466886 -0.056708485 -0.032751698 -0.06707264 -0.06519583
0.010871157 -0.07588491 -0.042028815 0.064692624 0.027530529 0.011923734 -0.024496492 -0.030043002
-0.058696385 -0.0786777 0.15835752 0.069636494 -0.018234335 -0.073119946 -0.05531208 -0.032855447
-0.046108823 -0.085993394 0.004118912 0.019175984 0.10662799 -0.0002575413 0.05498993 -0.05627476
-0.02619892 -0.010097012 -0.08333074 0.054474607 0.080539964 -0.09933602 0.089211255 -0.077419296
-0.085629545 -0.046215013 -0.029133309 -0.08857132 0.0061901906 -0.04821232 0.044251893 -0.011945518
0.017504374 0.068953745 0.08584053 -0.07508199 0.08378611 -0.07890457 -0.022636285 -0.05004535
-0.027704123 -0.088924944 0.060929425 0.036153212 0.05578499 0.010017011 0.057198673 -0.051205516
-0.017244726 -0.0557499 -0.050442114 -0.06872309 -0.02020847 0.061842028 0.07097147 -0.047323186
0.079896316 -0.037288252 0.025955183 0.06537761 0.0032857645 -0.027551206 0.031940468 -0.076153114
0.06947181 -0.059616305 0.029029919 -0.05800686 0.07544444 -0.012447029 0.011725391 -0.0019712695
0.046578947 0.0845949 0.079014145 -0.059778437 0.0010658205 0.02628865 0.04876577 0.01016495
0.00021225857 0.0017135544 -0.052048564 -0.02781062 0.037795745 0.025509898 -0.009910176 -0.0036023902
0.022016257 -0.016047854 0.06530499 -0.020781105 -0.063444175 -0.053677123 -0.03592009 -0.06804922
-0.12204256 -0.01973889 0.004957584 -0.02484737 -0.031544875 -0.019444892 -0.06981415 0.031397156

bias f4 [256]
00000000: 2632 57bd 437e 61bd 8498 9e3d 845d 48bd
00000010: 0041 cc3d 0715 b7bc cae5 b1bd feef 5a3d
00000020: 1a2a 61bd 35ee 19bd 1b63 35bd 58f5 d23b
00000030: 23b4 64bd b8ea 1ebd a905 893d d0c4 ff3c
00000040: 8905 503d 27be 99bd f0aa ccbc aca5 3e3d
00000050: c694 703d 82a5 babc 85be c83d d7dd 39bb
00000060: 54b3 a8bc 985c 91bd 329c 393c fe34 6c3d
00000070: 9cfe c0bd 0cc3 423d 9076 6c3d bf24 64bd
00000080: e9f8 c7bb e206 6ebd 8460 9e3d d6f3 283d
00000090: 2131 e1bb 331b 5d3d 8d08 5a3d 4536 973d
000000a0: e11b 51bd c64d a33d fb19 80ba 7c0a 8b3d
000000b0: 53cd 50bd 2d77 b2bd 32e0 893d 66a7 133d
000000c0: cab0 95bd 52ef 35bc 7e84 923b 3a26 edbc
000000d0: 2aaa 02bd d9f3 253d e491 a53d bc97 253d
000000e0: 8a9a 96bd a324 63bd 6e54 23bd 4a1b 73bd
000000f0: 253a a2bd 6431 c0bb 5428 4bbc 7c49 cc3c
00000100: 1030 53bb 1a48 44bd 6d2e b63d f350 a63c
00000110: 5b9f bd3c 9d2f 9b3d 9e3d 26bb 09d0 3ebd
00000120: ab09 d0bd 2233 61bd e0d3 17bd c128 86bd
00000130: 6d48 a33c 1429 ae3d c321 f63c 3973 a83d
00000140: b3c6 81bd 1a34 b33d 48f8 57bd cd42 6d3d
00000150: 087b 64bd ae2d 58bd b334 8ebd 7e2f 94bd
00000160: ab7a 6bbd aef9 04bc 05af b9bd 4270 d0bc
00000170: 6fd6 70bd da10 5c3d 7fd8 903d 5483 b3bd
00000180: 38c5 a4bd dfeb 41bd 12f4 b6bb 639f f83c
00000190: 6203 40bc fbdb 8d3d b235 a3b9 973a bb3a
000001a0: ba4d 2c3d d5af 35bd 792b 3cbd c81a ad3d
000001b0: 107c c33d 5963 c13d b5c9 e43c cd36 9c3b
000001c0: c594 1fbd b406 a23c 8c54 b1bd 46d3 6c3d
000001d0: 0ba9 823d e39b 8d3d 7137 3b3d c08e 593d
000001e0: 7b2d 95bc 424f 9cbb 6f43 ac3c 214b 5a3d
000001f0: 2c7c 87bd 1ee7 533d 84ed a53c e2c1 943d
00000200: 85bc 18bc 2ad0 34bd 9817 203b 60aa 313d
00000210: 1f1e c5bd e5f5 44bd 8ee3 21bc 6d10 c63d
00000220: b3cc 2f3d d843 33bc 023d 913d 83c0 4c3d
00000230: b6a1 a4bd c4a0 5b3d b14d 0fbb 9a2a 8d3c
00000240: 0369 d53d b940 383d 064d 31bd 883b 463d
00000250: 7938 433d e83d 0b3d 618f 4abc 7677 4a3c
00000260: 5a26 bc3d 56f1 a13d 59f5 ce3c 55c4 dfbc
00000270: deb5 623d 2587 4a3d d046 40bd 75a5 6c3d
00000280: fb4d b23d 066d 7dbd 7eba 68bd 6c6a 673c
00000290: 429e 6ebb 41dd e3bc cbc1 2bbd fc66 8ebd
000002a0: 11b8 d63b 3ca7 87bd b8f4 863c 641a 3cbd
000002b0: f821 91bd de31 5d3d dd85 b6bd a620 123d
000002c0: 189e 82bd 5ea4 0e3d 3805 66bd af08 02bd
000002d0: 5e1e acbd 74d6 503d 908b 943c 97d7 21bd
000002e0: 5ac9 573d a86a b93d 6c3d 0ebc 83b7 78bd
000002f0: 63a8 7a3d e001 9abd d628 b53c 5999 feba
00000300: 111f df3c 6174 0c3d 7c03 a13b 6b38 ed3c
00000310: f50a e2bc 837b 3b3c 1001 2abb d3d8 373d
00000320: 5d7c da3c a3fe 703d 64e4 ffbb ece6 c73d
00000330: 65c0 1e3d c875 4b3c 6f09 ae3c 77b0 a63d
00000340: 0cab 943d 18dc 6dbc 6771 94bd 3088 76bd
00000350: 6e12 9b3d 7062 4b3d 9b69 b3bd c8cf 4fbd
00000360: f303 c7bc 37e4 8e3d 6c1a ecbc df67 93bd
00000370: 3ed2 97bd e964 173d 95ec 433d 4b09 0ebc
00000380: ba21 a23d c0e1 bcbc eba9 b8bc 29fe 493d
00000390: 8222 0cbd 9100 f0bc 12c7 f9bc 48a8 373d
000003a0: b9c7 893d 47d6 863d 5a0c debc 4dce 763d
000003b0: fc74 1d3c be51 123d 02e0 aebc c556 c53d
000003c0: 09b7 9d3d f601 0bbd 8803 0ebd 484c 963d
000003d0: 5335 6fbd 6a4a 0cbc cabf 7e3d c6ea bfbc
000003e0: cd8d 85bd b679 e1bd 1872 f7bc 52a4 263c
000003f0: b4e0 f93b c049 f1bc e4af 293d 199a 253b
-0.05253806 -0.055052053 0.07743934 -0.04891731 0.09973335 -0.022348894 -0.08686407 0.05345153
-0.05497179 -0.037580688 -0.044283967 0.0064379387 -0.055835854 -0.038798064 0.06690533 0.031221777
0.05078653 -0.07506972 -0.024983853 0.046544716 0.05873563 -0.022783998 0.09801964 -0.0028360987
-0.020593323 -0.07097739 0.011328744 0.057667725 -0.09423563 0.047549292 0.057730258 -0.055699106
-0.0061026704 -0.058112033 0.07733253 0.041248165 -0.0068723117 0.053981017 0.05323081 0.07383398
-0.051051978 0.079738185 -0.0009773368 0.06789109 -0.050977062 -0.08714137 0.06732215 0.036048315
-0.073091105 -0.011104422 0.0044713607 -0.028948892 -0.031900562 0.040515754 0.08084467 0.04042791
-0.07353695 -0.05545486 -0.03987544 -0.059352197 -0.079212464 -0.005865263 -0.012399752 0.024937384
-0.0032224692 -0.047920324 0.08895574 0.020302271 0.023147276 0.07577441 -0.0025366317 -0.046585117
-0.10158094 -0.054980405 -0.037067294 -0.06550742 0.019931996 0.08503929 0.030045396 0.08225102
-0.06336727 0.08750172 -0.052727014 0.057925034 -0.055781394 -0.05277794 -0.06943645 -0.07235621
-0.057490032 -0.008116169 -0.090665855 -0.025444154 -0.05879825 0.05372701 0.07072543 -0.08765283
-0.08045429 -0.047344085 -0.0055832947 0.030349439 -0.0117195565 0.069267236 -0.0003112979 0.0014284429
0.042066313 -0.04435714 -0.045939896 0.08452374 0.095451474 0.09442777 0.027928213 0.004767275
-0.038960237 0.019778587 -0.08658704 0.057818674 0.06379899 0.06914499 0.04570717 0.053114653
-0.018210163 -0.0047701905 0.021028249 0.053294305 -0.06615481 0.051734082 0.020254858 0.07263543
-0.00932229 -0.044143833 0.0024428125 0.043375373 -0.09624886 -0.048086066 -0.009880913 0.09671102
0.042919826 -0.010941468 0.070917144 0.04998828 -0.080386564 0.053620115 -0.0021866376 0.017232228
0.1042042 0.0449836 -0.043286346 0.048396617 0.04766128 0.033994585 -0.012363286 0.012357583
0.091870025 0.07907359 0.025263475 -0.027315298 0.055349223 0.04944529 -0.046942532 0.05777498
0.0870628 -0.06187155 -0.056818478 0.014124494 -0.0036410247 -0.027815463 -0.041932862 -0.069532365
0.006552704 -0.06623694 0.016474113 -0.045923606 -0.07086557 0.054002635 -0.08912251 0.035675667
-0.0637781 0.03482472 -0.05615732 -0.031746563 -0.084042296 0.05098577 0.018132955 -0.039512243
0.05268226 0.09053546 -0.008681636 -0.060721885 0.061195742 -0.07519889 0.022114199 -0.0019424363
0.027236493 0.034290675 0.0049137454 0.028957566 -0.027593115 0.011443022 -0.0025940575 0.044884514
0.02667063 0.05883659 -0.0078092087 0.09760842 0.0387577 0.012418218 0.021244733 0.08139127
0.07259187 -0.0145178065 -0.07248192 -0.060188472 0.075718746 0.049654424 -0.08760377 -0.050735265
-0.024293875 0.06977122 -0.028821193 -0.07197546 -0.074131474 0.03696147 0.047833044 -0.008669208
0.07916589 -0.023056865 -0.02254196 0.04931465 -0.034212597 -0.029297145 -0.030490432 0.04483822
0.06727547 0.06583839 -0.027105499 0.060255338 0.009610411 0.035722487 -0.02134705 0.096356906
0.07700927 -0.033937417 -0.034671336 0.07338768 -0.058400463 -0.008562664 0.062194623 -0.023427378
-0.06521187 -0.11009543 -0.030205771 0.010171013 0.0076256637 -0.029454112 0.041427508 0.0025268851
