src/saved_models/grid_world_seed125_8_6_12_52/125_0_model.pt (torch, 702713 bytes, 11 tensors)

FC1.weight f4 [256, 36]
000000 c7 53 2a 3e e1 b8 d1 3d 76 a6 93 3d d1 a3 1f 3e
       0.16633521 0.10240341 0.07209484 0.15589835
000010 84 4b 0b 3d 89 9f 3d 3c 58 27 2a 3e 0b 9a 2d 3e
       0.034007564 0.011573681 0.16616571 0.16953294
000020 46 57 8a bc c8 25 3b bd 87 7b 1d be 9c d6 9b bd
       -0.016887318 -0.045690328 -0.15379153 -0.07609293
000030 cb 2a 1e 3e d7 3a b7 bd fa 41 15 be 43 f0 a8 3c
       0.15446012 -0.0894677 -0.1457595 0.020622378
000040 58 62 52 3d 13 5b 6c 3c c0 de d2 bd 48 f4 97 bd
       0.05136332 0.014426011 -0.102963924 -0.0741964
000050 c6 c8 41 3d 92 0d 25 3e 7e 6f 65 bd 79 88 34 bd
       0.047310613 0.16118458 -0.05601453 -0.044075463
000060 6e fe 0e 3e ba 77 23 3e 8e d8 73 3d d4 0d 31 3d
       0.13964245 0.15963641 0.059532695 0.04322608
000070 66 c8 d3 bd aa d7 3e 3e ac 35 c0 bd 89 bf 11 3e
       -0.10340957 0.18636957 -0.09385237 0.14233221
000080 db 75 d9 3c 79 37 db 3d 21 09 c7 3d 2b ef f6 bd
       0.026545456 0.1070394 0.09718538 -0.120573364
000090 f5 f4 91 3d 73 ae b4 3d d2 a4 ae 3d df 66 39 3e
       0.071268 0.08822336 0.08527531 0.18105648
0000a0 18 3f 2a 3d e1 d0 d3 3d 20 17 38 be d3 7d ec bd
       0.041564077 0.10342575 -0.17977571 -0.115474366
0000b0 c1 52 33 3d ac 3f 2c be 9f 6c 58 3d c5 29 22 3e
       0.043780092 -0.16821164 0.052837964 0.15836246
0000c0 fc aa 7a bd 7c 38 02 be 46 fe 43 3d 8b b7 e6 bc
       -0.06119822 -0.1271686 0.047849916 -0.028163692
0000d0 ba e0 e3 3d 85 ae 62 bd c6 5a fc bc 08 70 fc 3d
       0.111268476 -0.055342216 -0.030805003 0.12326056
0000e0 3c 78 7f 3c 1e 23 27 bc f5 91 c9 bd 48 72 93 3c
       0.015592631 -0.010201244 -0.09842292 0.01799883
0000f0 4a dd 32 3e c9 41 fe bd c9 83 8a 3d ef 74 66 bd
       0.17467228 -0.12414891 0.06763417 -0.05626386
000100 0e ee 63 3d e8 01 3b 3e 2f 34 c8 3b 34 a6 0c 3e
       0.05564695 0.18262446 0.0061097364 0.13735276
000110 79 cf 15 3d a8 90 9e bd 2e 3f 04 be d7 93 1e 3e
       0.036574814 -0.07742435 -0.12914726 0.15486084
000120 5d 2e 21 3d 4c 5c f0 bd fd 1a c3 bd 62 fc 2e 3e
       0.039350856 -0.11736354 -0.09526632 0.17088464
000130 37 d5 d4 bd 89 c9 1c 3e 8f 89 2a 3e bc a7 00 be
       -0.1039223 0.15311255 0.16654037 -0.12563986
000140 51 b3 d8 bd 07 cf b9 bc 0b 1a 70 bd f8 54 15 bd
       -0.10581077 -0.022681726 -0.058618587 -0.036457986
000150 58 9c e4 3d 2b d3 ba bd eb 3e 9a 3c c7 24 fb 3d
       0.11162633 -0.09122308 0.01882883 0.12262874
000160 17 b1 72 3a 2c 79 db bd e7 35 ba bd 6b 17 32 3e
       0.0009257956 -0.10716471 -0.09092312 0.17391746
000170 64 87 c3 bd 86 97 af 3c 9c be ac 3d bf 10 83 bd
       -0.09547308 0.021434557 0.08434793 -0.063996784
000180 31 61 b1 3d 47 53 78 bd e9 cf 53 3d 79 43 1f 3e
       0.08661116 -0.060626294 0.05171195 0.15553083
000190 46 2f 0d bd ca b3 76 bd 13 cb 25 3c ab 7a 29 3e
       -0.03446891 -0.060230054 0.010119217 0.165507
0001a0 81 7e 15 be 93 13 13 3d eb f2 45 3e 2b 50 e0 bd
       -0.14599039 0.03590734 0.19330947 -0.10952791
0001b0 03 ff 82 3d 87 eb 42 bd d4 7d 98 3d 36 42 de 3d
       0.06396296 -0.047587898 0.07445875 0.108524725
0001c0 90 f0 cb 3d af e6 70 bc 60 ec 1a be 09 5b 95 3c
       0.09957993 -0.014703437 -0.15129232 0.018231886
0001d0 e3 3a 91 3c 19 62 28 bd 5c f8 d0 ba 02 9b ba bc
       0.017728275 -0.04110918 -0.0015943157 -0.022778992
0001e0 4a 94 b4 3d 49 19 4c be 09 9f b9 3b 42 ec 23 3e
       0.088173464 -0.1993152 0.0056647104 0.16008094
0001f0 0a 8b c2 3d 42 33 53 bd 77 9c 63 bd f6 9e d0 bd
       0.09499176 -0.051562555 -0.05556914 -0.101865694
000200 be 9d c1 3d 52 a7 48 3c e3 33 36 be 99 12 80 bd
       0.09453915 0.0122469235 -0.1779323 -0.06253547
000210 02 51 3d bd e4 d4 ee bd ee bb 25 3e f0 a8 ff bd
       -0.046219833 -0.116616994 0.1618497 -0.12483394
000220 71 42 9a bd c5 1d 46 3e 4b 13 22 be 8a 26 d3 3d
       -0.07532204 0.19347294 -0.15827672 0.10310085
000230 e7 5f 99 3d 3b 06 1d be 00 e1 cf 3d 48 23 98 bd
       0.07488995 -0.15334408 0.10150337 -0.07428604
000240 01 a4 fa bd 30 e3 14 3e fd 0d c3 3d f2 89 84 bd
       -0.122383125 0.1453979 0.095241524 -0.064716235
000250 8e 71 dc 3d 02 01 99 3d 80 16 ab 3d 19 79 d6 3c
       0.10763846 0.07470895 0.08353901 0.02618079
000260 57 c2 8a bd 5e f5 d9 3d 8b 17 07 3e 84 64 1e 3e
       -0.06775349 0.10642503 0.13192575 0.15468031
000270 1a b3 9d bd 0a 07 bc bd c4 cf 3c bd 5b 07 90 3d
       -0.077001765 -0.0918103 -0.04609658 0.07032653
000280 c2 cd 0f 3e 7c 23 5d 3d 17 e4 3b be 79 59 07 be
       0.14043334 0.05398892 -0.18348728 -0.13217725
000290 de 38 91 bd ad 04 9c bd d4 73 87 bd 28 99 04 3e
       -0.07090925 -0.07618079 -0.06613889 0.1294905
0002a0 90 76 d4 3d 39 df 25 bc 3d 48 d8 3d 94 cc 29 3e
       0.103741765 -0.010124021 0.10560653 0.16581947
0002b0 5e b0 50 bd fa de 4f 3d c4 07 00 3e d4 6b ff 3d
       -0.050949447 0.050749756 0.12502962 0.124717385
0002c0 0d 97 a2 3d 83 21 d5 bd fa b2 2a 3d 1a 28 09 be
       0.07938967 -0.104067825 0.04167459 -0.13394204
0002d0 41 30 09 3e a7 18 9d 3d 0b 5d 70 3d 81 52 43 3e
       0.13397314 0.07670718 0.058682483 0.19074441
0002e0 95 1a 4d 3e 94 dc 32 3c ba 4c ce 3d 28 cb 43 3e
       0.20029671 0.010916848 0.10073228 0.19120467
0002f0 97 9e 20 3d 22 3e ef bd 14 ff 13 be 1d 3a 70 bb
       0.039213743 -0.11681773 -0.14452773 -0.0036655732
000300 7e ad 18 3e a0 58 55 bd f2 b0 8c 3d 47 62 c6 3d
       0.14909932 -0.052086473 0.06869687 0.09686714
000310 11 cb 1a 3d d8 cd 06 3c 3c 0d 8f 3d a6 3c a1 3c
       0.037791315 0.008227788 0.06984946 0.01968224
000320 97 8f 13 3e d7 30 dd 3d 07 d0 a1 bd 48 5e e2 bd
       0.14410244 0.10800331 -0.07901006 -0.11053139
000330 f0 9c 17 be 97 e3 02 3e af 88 fb 3d 3c b2 cb bd
       -0.1480596 0.12782131 0.1228193 -0.09946105
000340 12 41 4f 3d 28 03 f3 bd 7f 5b e3 3d c9 a4 1f 3e
       0.050599165 -0.118658364 0.11101436 0.15590204
000350 5e 9b e8 3b dd 56 e6 3c c8 d5 78 bd 30 e1 66 bd
       0.0070985993 0.028117592 -0.060750753 -0.0563671
000360 81 73 a6 bd 5d c2 cb 3d 78 23 8b bc 1a b1 a3 3d
       -0.08127499 0.09949181 -0.016984686 0.07992764
000370 71 7c 0a 3d 5d 00 0f 3e 8b b6 f4 3d ca 54 d9 3c
       0.033810083 0.13964982 0.1194888 0.026529688
000380 a3 ca 97 bd bd 1e 5f be 66 3a e3 bd cc 05 d8 bc
       -0.07411697 -0.2178907 -0.11095123 -0.026369952
000390 0a cf d2 3c ef 8c 50 bd 0b 1f 02 3e 8e 8a e1 bd
       0.02573349 -0.050915655 0.12707154 -0.11012755
0003a0 9d 0d fa bd 38 02 4d 3d a4 88 af 3d 11 69 14 3c
       -0.12209628 0.050050944 0.08570984 0.009058253
0003b0 b6 08 16 be 8d ec 07 be d9 30 c3 bd c4 cf 27 3e
       -0.1465176 -0.1327383 -0.09530801 0.1638785
0003c0 f0 81 a6 3c 12 d3 36 3d a3 5d df 3d f3 e4 af 3d
       0.02032563 0.044634886 0.10906532 0.085885905
0003d0 1c a9 38 bd e9 86 bf bd df 52 17 be f7 1c 04 3e
       -0.04508315 -0.09351904 -0.14777707 0.12901674
0003e0 12 cf 54 3e f4 6d 0d be 37 2e 09 be 8a 29 ec 3d
       0.20782116 -0.13811475 -0.13396536 0.115313604
0003f0 ad f1 29 3e ca 88 cd 3d 1e 64 5b bd 81 3b 98 bd
       0.16596098 0.10035856 -0.053562276 -0.074332245

FC1.bias f4 [256]
000000 11 f0 5c bd 88 2f 54 3c d8 a4 b9 bd 72 9d a5 3d
       -0.053939883 0.012950785 -0.090646446 0.08086671
000010 53 7e 2f 3d 84 36 84 bd 8c cd ab bd 02 59 00 3e
       0.04284508 -0.064557105 -0.08388814 0.12533954
000020 9a bd 0c 3e f6 bd 62 bc b4 ca 51 3e 28 bd ed 3d
       0.13744202 -0.0138392355 0.20487481 0.11608344
000030 cd 74 75 3a 88 40 c9 bd a6 f9 f7 bd 66 4d b6 bc
       0.0009363413 -0.098267615 -0.121081635 -0.022253703
000040 dc 11 15 3e fe 97 4e bd 3d 8e 34 3d d5 28 1c 3e
       0.14557594 -0.05043792 0.04408096 0.15249951
000050 e0 67 c5 bc 81 8d f1 3d 60 df cb 3d 6f cb 5e 3e
       -0.024097383 0.11794568 0.09954715 0.21757291
000060 d3 57 93 bd 49 64 02 be 93 a4 47 3e ce 05 04 be
       -0.071944855 -0.12733568 0.19496374 -0.1289284
000070 15 e7 a7 bd 2c 79 61 bd 89 ff c1 3c 8d e0 3f 3e
       -0.08198372 -0.0550472 0.023681419 0.18738003
000080 d5 c4 07 3e c7 13 c8 bd b0 c5 39 3b 8d 5b 21 3e
       0.13258679 -0.09769397 0.002834659 0.1575758
000090 b8 52 c0 bd 31 90 10 3e 59 64 82 bd ab 1a 85 3d
       -0.09390777 0.14117505 -0.06366796 0.06499227
0000a0 de 1f 4e bc 66 20 df 3b c5 a9 90 bd 34 6f 93 3b
       -0.01258084 0.006809282 -0.07063631 0.0044993404
0000b0 c1 5f dd bd 3d cf 26 3e b2 53 e5 3d 5c f3 fe bd
       -0.10809279 0.16289993 0.11197604 -0.12448761
0000c0 12 20 48 3e 2f 02 2e bd 03 0f ee 3d 08 8d 95 3d
       0.19543484 -0.04248255 0.11623957 0.0730229
0000d0 95 b0 bf bb ad 6d ec 3d c7 66 f0 bd 24 38 88 3d
       -0.0058499076 0.115443565 -0.11738353 0.06651333
0000e0 d5 d2 d4 bd c4 dc 0b 3e 8b 8f ff bd 53 97 2d 3d
       -0.103917755 0.13658434 -0.124785505 0.042380642
0000f0 1a a1 90 bb 33 58 1b 3e 7d 97 6b 3d 0c 98 a2 3d
       -0.004413736 0.15170364 0.057517517 0.07939157
000100 42 2b 0a bd ab df 3c 3e ab 81 2e 3d bc b2 55 3d
       -0.03373266 0.18444698 0.04260413 0.052172408
000110 80 fe 82 bd c0 80 1d 3c 8d 55 ee bd d6 7e 4e 3e
       -0.06396198 0.009613216 -0.11637411 0.20165572
000120 7d d7 c0 bc fa ec 3e bd d1 2e 21 3e a4 26 27 3e
       -0.023540253 -0.046612717 0.15740515 0.16323334
000130 37 4a 10 3c d3 06 d9 3c ae fe d0 bc cc e3 ca 3d
       0.008806757 0.026492512 -0.025512066 0.0990673
000140 24 eb 0b be 2e 5b 28 3e fc 05 02 bd f7 c7 22 be
       -0.13663918 0.16441032 -0.03174399 -0.15896593
000150 06 84 6a bc 8f 40 c1 bd f4 ed 95 3d f6 75 d9 3d
       -0.014313703 -0.09436142 0.073207766 0.106182024
000160 70 8e e6 bd 28 1b a2 bd 45 cb 4d bd 8c b4 8a 3d
       -0.112576365 -0.07915336 -0.05024268 0.06772718
000170 3e 39 ad bd 7d e4 23 be ba 35 b2 3d cb cf a4 3c
       -0.08458184 -0.1600513 0.08701654 0.020118615
000180 f7 25 d4 3b c4 d4 35 bc ec f2 21 bd 19 ae 57 bd
       0.0064742523 -0.011098091 -0.03953831 -0.052656267
000190 c8 9a ed 3c 81 f7 5d 3d fd cc 99 3c 46 6c 30 3e
       0.02900447 0.054191116 0.018774504 0.17228803
0001a0 37 5d 3e 3e 3d 72 2c 3e 6b e7 69 bb 0f 2f dc 3c
       0.18590246 0.16840453 -0.0035690914 0.026877908
0001b0 54 01 db bd ff 8e 86 3d 3f 23 8b b9 14 a3 df 3d
       -0.10693613 0.06570243 -0.00026538406 0.109197766
0001c0 c6 9e c4 bd 90 de 70 3c 1f 7a 92 bd 34 e9 28 3d
       -0.09600596 0.014701501 -0.07152199 0.041238025
0001d0 eb 6d 93 3d a0 99 44 3e bf 5c 1a be 8e b0 a9 3d
       0.071986996 0.19199228 -0.15074442 0.08285628
0001e0 7e f6 f5 3d 6c 15 4e 3e 6c b7 39 bd 29 76 f8 bd
       0.12009905 0.2012536 -0.04534094 -0.12131912
0001f0 4d 77 eb 3d 4f 54 01 3e bb 74 0e 3e 44 d1 24 3e
       0.11497364 0.12629817 0.13911717 0.16095454
000200 6e 94 63 bc a5 f0 ea bc 20 0c 87 bd e0 f2 4c 3d
       -0.013890369 -0.028679201 -0.065941095 0.05003631
000210 4e d9 f9 3d 86 ca 5c 3d d3 31 42 3e 0f e2 de 3d
       0.12199651 0.05390408 0.18964319 0.10882961
000220 01 d8 ec 3d 0f 0b de bd f9 0e 0e 3d bd 94 0d 3e
       0.11564637 -0.10841953 0.034682248 0.1382627
000230 c7 ea 3e 3d 12 40 5b 3d 6c 02 f1 3d db fa bd bc
       0.04661062 0.0535279 0.1176804 -0.023190906
000240 d1 a1 18 3e 49 04 18 3e f1 60 48 bb 4a 35 87 bd
       0.14905478 0.14845385 -0.003057536 -0.06601961
000250 6d 72 30 be 67 24 19 be 86 8c 09 be 7f 76 e0 3d
       -0.1723115 -0.14955293 -0.13432512 0.10960101
000260 37 d8 60 bd 0d 28 df 3d 62 3b 13 3e 09 96 c3 bd
       -0.0548937 0.10896311 0.14378121 -0.09550101
000270 6a 5c d0 3d a0 8d 66 bd 01 de e5 bd 66 1f ab 3b
       0.101738766 -0.056287408 -0.112239845 0.005222249
000280 63 38 b0 bd dd 4c 0c be f9 d6 98 3d 68 6b 1b 3e
       -0.08604505 -0.13701196 0.07462878 0.15177691
000290 e2 84 ed 3c 16 db a0 bd df a1 f3 3a f2 96 22 3e
       0.028994028 -0.07854287 0.001858767 0.15877894
0002a0 27 e4 08 3e 76 0c 50 bd 82 3f 02 bd 49 b8 0c 3e
       0.13368283 -0.050793134 -0.031798847 0.13742174
0002b0 3c ca bc 3d f0 29 b4 bd 6b d4 d5 3d a8 99 48 3c
       0.09218261 -0.087970614 0.10440906 0.012243666
0002c0 ba 60 12 3e 49 68 b8 3d a1 b5 fa bd 43 a2 20 bc
       0.14294711 0.09004266 -0.12241674 -0.009804311
0002d0 c3 e4 68 bc 56 2d 41 3e 29 a8 5e 3d f3 a0 63 3d
       -0.014214697 0.1886495 0.05435959 0.055573415
0002e0 64 be 9a 3d fb 69 7e 3d 83 72 2b 3e e8 26 21 3d
       0.075558454 0.06211279 0.16742902 0.039343745
0002f0 e6 5b 0b be 2d 54 30 3e f9 32 a7 bd a5 78 00 3e
       -0.13609275 0.1721961 -0.08164019 0.12546022
000300 2b 41 32 3e 23 6d 8a bc b7 4f ad 3d 89 74 13 be
       0.17407672 -0.016897744 0.0846247 -0.14399923
000310 65 81 16 3e 43 0e 83 bd 03 fb ae bd 6b 75 1d bd
       0.14697798 -0.063992046 -0.085439704 -0.038442057
000320 b4 df 31 3d 4e bb 32 3e 2b a1 af bd b8 b4 d7 bd
       0.04342623 0.17454264 -0.08575662 -0.10532516
000330 ee d3 13 be 6b cd ce bd d7 13 c3 3c e6 ee 02 bc
       -0.14436314 -0.10097774 0.023813171 -0.007991528
000340 ab 95 bc 3c 53 fa 33 3e f8 1b 02 be 37 31 53 3c
       0.023020586 0.1757596 -0.12705982 0.012890152
000350 6d 2b ac 3d 96 2f 14 be 88 b3 ca bc 69 15 0c be
       0.0840672 -0.14471278 -0.02474381 -0.13680042
000360 39 7d ce bd 26 e6 b1 3d 4f da 03 3e 4b 3d f9 bd
       -0.10082478 0.086864755 0.12876247 -0.12169894
000370 9e 56 32 3e a3 77 ff 3c 4c 9c ec 3d c6 86 f9 bd
       0.17415854 0.031184977 0.11553249 -0.12183909
000380 ae 09 c5 bc dc c9 95 3d a6 8e 1d 3e 2c dc 16 3d
       -0.024052467 0.07313892 0.15386447 0.036831066
000390 d6 d6 bc bd 37 69 19 3e a4 39 21 3e 22 9e b6 3a
       -0.09220664 0.14981543 0.15744644 0.0013932625
0003a0 07 ba fd 3c ab 21 4e bd f3 b2 9a bd 02 30 c3 3d
       0.030972494 -0.050325077 -0.07553663 0.09530641
0003b0 ba f1 53 3d 82 87 36 3c ae da 39 bd c6 e8 1a 3e
       0.0517442 0.011140706 -0.045374565 0.15127859
0003c0 4a 53 06 3e 57 ee 3d 3d 46 52 c0 bd 7d 31 08 3e
       0.1311771 0.046369877 -0.093906924 0.13300128
0003d0 1d c3 f7 bd ea 1d 39 3e 40 f7 05 3e 83 a1 a9 3c
       -0.12097762 0.18077818 0.130826 0.020706898
0003e0 5c 6a 07 bd 81 ad 30 3d 30 7f 23 3d 62 42 10 3e
       -0.033060417 0.043134216 0.039916217 0.14087823
0003f0 c8 b7 80 bd b3 5a 02 be ee 1c 78 3d e3 ed 33 3e
       -0.062850535 -0.12729912 0.060574464 0.17571215

FC2.weight f4 [256, 256]
000000 fa a5 63 3d 22 14 8c bd 45 f9 a0 3c e0 62 63 3d
       0.05557821 -0.068397775 0.019650111 0.055514216
000010 4e 4c eb 3b e2 3a 11 bd b5 b0 e6 bd b2 44 1e bd
       0.007180727 -0.035456546 -0.11264173 -0.03863973
000020 f5 d7 27 3c d9 c1 d4 3d cb c3 64 bd 04 5c d4 bc
       0.010244359 0.10388536 -0.055850785 -0.025922783
000030 42 d7 f5 bd f1 e9 d1 bd 8c 6b 62 bc f6 75 83 bd
       -0.12003948 -0.10249699 -0.0138195865 -0.06418984
000040 57 3d 9c 3d bf 69 fb bc dd 45 4d bd 0f a8 28 3d
       0.07628887 -0.030690072 -0.050115455 0.0411759
000050 bd 69 bf 3d a6 fd ae 3d 58 f5 02 be a4 9d f9 bb
       0.0934634 0.08544473 -0.12788904 -0.007617669
000060 8c db 5a 3d 2c c2 90 bc 5b 73 8f bc a8 03 79 ba
       0.053432032 -0.017670713 -0.01751106 -0.0009499141
000070 9f 05 95 3d d7 11 b6 3d 0b 9e 2b 3d b6 f8 e9 bc
       0.07276463 0.088901214 0.04189877 -0.028560977
000080 82 60 45 3d 5b df 03 3d 68 f7 c6 bc ff 0b d3 bc
       0.04818774 0.03219543 -0.024287894 -0.025762556
000090 9a 59 36 3d ff 3f 1d bc 60 49 27 3b 06 05 e0 3c
       0.044519044 -0.009597777 0.0025525913 0.027346145
0000a0 7b cf 8c bd 0b a0 76 bd bc 08 92 3d ff 14 80 bd
       -0.06875511 -0.060211223 0.07130572 -0.06254005
0000b0 31 11 c4 ba 98 0e 4a 3d d8 74 22 bb 8b e3 43 3d
       -0.0014958737 0.049330324 -0.0024788883 0.047824424
0000c0 c6 a3 43 3d b4 3a 72 3b f1 68 be 3d 6f 41 8e bd
       0.04776361 0.003696126 0.0929736 -0.06946074
0000d0 e5 84 37 3d d4 07 c8 3d 7e 94 15 3d 51 85 e5 bc
       0.044804472 0.09767118 0.036518566 -0.028017672
0000e0 05 0d 5d bc d4 27 58 3d 8e f1 0d 3c d2 38 84 3d
       -0.013491874 0.052772358 0.008663548 0.0645615
0000f0 4f 5a 9e bb 5c e8 9a 3d cc 91 0d 3c 43 02 95 3d
       -0.004832543 0.0756385 0.008640718 0.07275822
000100 b7 d6 21 bc b5 9e 97 bd 90 e2 17 bd 31 1c 23 bd
       -0.009877852 -0.07403318 -0.0370813 -0.039821807
000110 a7 c9 9d 3d 60 64 38 3b dd 39 86 3d a3 b2 85 bd
       0.07704478 0.0028136 0.06554005 -0.06528213
000120 41 1c fe 3c c7 b9 4c 3c 28 b2 4a bc ad 02 f5 bd
       0.031019332 0.012495465 -0.012371577 -0.11963401
000130 79 8f 56 bd 68 91 35 3c ea 19 81 3d a8 31 0f bd
       -0.05238292 0.011082031 0.06303771 -0.034959465
000140 a9 5a bd 3c ce 79 20 bd c6 3b c6 bd 44 49 ac bc
       0.02311452 -0.039178662 -0.0967937 -0.02103103
000150 94 b5 61 3d 80 e4 00 bd 3a 2f 10 bd 00 7c 6f bc
       0.055104807 -0.031467915 -0.03520129 -0.014616966
000160 ba 36 04 3c fd f8 60 3d b5 95 63 3d 8b e4 7e 3d
       0.008069688 0.054924954 0.055562694 0.062229674
000170 32 03 8b 3d e0 e8 2e 3c fe 82 5a bb 36 51 90 bd
       0.06787719 0.010675639 -0.0033342238 -0.0704674
000180 98 0e 9d bd f9 3b ea bc f0 d4 03 bd 9d 1a 8d bd
       -0.07668799 -0.02859305 -0.032185495 -0.06889842
000190 93 6e 09 3a 76 17 11 bd 97 15 90 bd 63 96 6c bd
       0.0005242612 -0.035422765 -0.07035368 -0.057760607
0001a0 8c e1 5b bd 72 d8 82 bd 7f 2b 20 bd f4 fc ce bd
       -0.053681895 -0.0638894 -0.03910398 -0.10106841
0001b0 6a 0b 75 3d 5d 95 ca bd 4c 5b 84 3b ca 2e f5 3c
       0.05982534 -0.0989177 0.0040392037 0.029929537
0001c0 b3 0b 4b bd aa ae 4c bd 52 24 1b bd cb c6 81 3d
       -0.049571704 -0.04997126 -0.037876435 0.06336745
0001d0 8a 37 b0 3d 57 a0 13 bd 04 37 19 bd 1f 7d 9f bd
       0.08604343 -0.036041584 -0.037405983 -0.07787537
0001e0 5e cd c9 bc af df b7 bd 52 68 1b be 96 c6 1c bc
       -0.02463406 -0.08978211 -0.15176514 -0.009568831
0001f0 25 f0 81 3d b5 86 02 3d 24 61 41 bd 75 45 5b bc
       0.06344632 0.031866748 -0.04721178 -0.013383259
000200 da ac 68 3c 64 ce c7 bd e9 5e 81 3d 5f 8f 40 3c
       0.014201367 -0.09756163 0.06316931 0.011752932
000210 1c 6c e2 bc f7 1c c6 3c 90 0f 2f 3c f0 2d 96 bd
       -0.027639441 0.024183733 0.010684863 -0.07332981
000220 b4 e0 c8 3c 6e 66 c6 3d f7 6c eb bb 68 37 0c bc
       0.02452121 0.09687506 -0.0071846205 -0.008558132
000230 6c 4d eb bc 7c 2c 6c bc a1 72 29 bc 84 61 19 bd
       -0.028723441 -0.014414903 -0.010342271 -0.037446514
000240 c9 49 fe bb fe 6a ef 3c 80 f7 47 bd af 15 71 3d
       -0.0077602607 0.029225823 -0.04882002 0.05885857
000250 d0 89 c1 3c c4 42 56 bd 7d 65 93 ba 5a a4 38 3d
       0.023625284 -0.052309766 -0.0011245456 0.045078613
000260 dd a3 b0 3c b7 b3 b8 3c ca 00 b2 3d 3f c8 de bc
       0.021562511 0.022546632 0.08691557 -0.027195094
000270 fa ce 49 3d e1 f3 cb bc 80 35 b8 bc 2d 2b c8 3b
       0.049269654 -0.024896564 -0.022486448 0.0061086626
000280 8d b3 b6 3c a9 2b d9 bd 1b 41 a4 bd d6 3e 93 bc
       0.022302413 -0.10604031 -0.080202304 -0.017974298
000290 4b f5 c7 bc 23 d7 e6 bc a0 aa 1d bd 8a 6a 06 3c
       -0.024408957 -0.028178757 -0.0384928 0.008204112
0002a0 3a 8f 32 bc 37 58 51 3d 43 ee 6b bd 5c 43 b5 3d
       -0.010898406 0.05110952 -0.05760027 0.088507384
0002b0 76 27 19 bd 68 98 39 3b 26 d3 a3 3c d4 b1 05 bd
       -0.03739115 0.00283196 0.019998144 -0.032640293
0002c0 e5 d4 14 3d ec ac ca bd dd 1c df 3d 58 07 ce 3d
       0.036335845 -0.098962635 0.10894177 0.100599945
0002d0 53 d1 85 3d 37 a0 0d 3c 16 0e 0a bc 57 55 96 3c
       0.06534066 0.008644155 -0.00842621 0.01835124
0002e0 f9 c9 84 3c 57 17 48 3d 50 09 c1 bd 35 02 bf 3d
       0.01620959 0.048850384 -0.09425604 0.09326593
0002f0 e4 09 ee 3c 01 fd 47 bd c6 b1 f7 39 d0 54 90 3c
       0.02905745 -0.048825268 0.00047243963 0.017618567
000300 04 76 be bc d9 11 0f 3d 64 d2 1a 3c 48 7a 69 3c
       -0.023249634 0.03492913 0.009449575 0.0142503455
000310 68 ad b2 bd 55 c5 f8 3a 25 6c 94 bd d6 0c 33 bc
       -0.08724481 0.0018979708 -0.072471894 -0.010928353
000320 09 e6 ec bc 1c d5 b6 bb bc 1d 7a 3d a8 75 49 bc
       -0.028918283 -0.005579604 0.061063513 -0.012296118
000330 46 0c af 3d 7d bb 0e bd 66 2c 74 3d fd e2 db bc
       0.08547263 -0.03484677 0.059612654 -0.026841635
000340 63 31 3f bd e1 73 ed bc 59 8c 05 3d a8 6d f1 3b
       -0.04667796 -0.02898592 0.03260455 0.0073678084
000350 96 82 9c bc e8 5f 60 3c e9 07 55 ba b3 a4 f7 bb
       -0.019105237 0.013694741 -0.0008126484 -0.0075574755
000360 9b bf 3c bd fe 1a 5c bd 7f 5b 2f 3d 3c 4b 10 bb
       -0.046081167 -0.05373668 0.042811867 -0.00220175
000370 18 89 7c 3b 37 ee 24 bb 7e 2b df 3b 4d cb 1f 3d
       0.0038533863 -0.0025166401 0.0068106046 0.039012242
000380 59 13 5c 3d 5e 15 ab 3d 0e 53 40 3d e6 b6 99 3a
       0.05372939 0.08353685 0.046954207 0.0011727482
000390 ce f2 65 bd a9 93 06 bd f5 d8 57 bd 7e df aa bd
       -0.05613976 -0.032855663 -0.05269714 -0.08343409
0003a0 a4 f4 79 bd fe ed 77 bd 16 20 3c 3d 13 db cf 3c
       -0.061024323 -0.0605297 0.045929037 0.025373017
0003b0 77 89 34 3c 24 d9 e2 3a e1 f5 a8 bd d3 7f 5b 3c
       0.011019102 0.0017307145 -0.08250023 0.013397175
0003c0 3b 56 34 bc 1e f7 8c 3b 5d 19 23 3d 13 16 80 bd
       -0.011006887 0.0043019196 0.03981911 -0.0625421
0003d0 f0 7f 51 3c 82 1e d6 bc be 88 55 3d 24 0d 0a bc
       0.01278685 -0.026137594 0.05213236 -0.0084259845
0003e0 4a e5 6c 3d 00 f3 5f bd 92 34 19 be 12 78 a8 bb
       0.057835855 -0.054675102 -0.1496146 -0.0051412666
0003f0 58 de cc 3c aa 19 02 bd b8 b5 73 3c 62 14 a6 3c
       0.025008366 -0.031762756 0.014874868 0.020273391

FC2.bias f4 [256]
000000 42 ed 08 bd 9c 26 c8 bb 2b 63 24 bd ba 8d 5c bd
       -0.03342939 -0.006108118 -0.040133636 -0.0538461
000010 69 0e 4e 3c f5 3e 97 3d 67 24 89 3d 13 c8 1a ba
       0.012576678 0.07385055 0.06696396 -0.0005904447
000020 6c c9 bb 3c f2 32 79 3d d0 d1 33 bc 07 a4 0d 3d
       0.022923194 0.0608396 -0.010975316 0.034580257
000030 f6 e6 86 3c 2d 16 36 bc 8d b4 59 bc 1a 22 03 bd
       0.016467553 -0.011113686 -0.013287676 -0.032014944
000040 5c 95 c0 3c e7 98 47 3c ab 85 48 3d 2b a6 0b bd
       0.02350872 0.012182451 0.0489556 -0.034094017
000050 50 43 c1 bc b9 89 23 bd ad dc b2 3c 8c 7c 22 bd
       -0.023591667 -0.039926264 0.021833742 -0.03966956
000060 71 9a c5 3c 09 56 c8 bc 0c 34 91 3c a3 27 55 3d
       0.024121495 -0.024455087 0.017725013 0.052039754
000070 7f 94 6e 3d 1e ba 8a bd 38 26 7f bc 99 98 82 bd
       0.058247086 -0.0677378 -0.015573077 -0.06376762
000080 71 da 8c 3c 10 fa 36 bd 1d fa 70 3d 95 9c 82 3b
       0.017194005 -0.044672072 0.058832277 0.003985951
000090 f9 7b a6 3c 39 42 86 3d ae 48 ca bc ec 94 9d bc
       0.020322787 0.065556 -0.02469286 -0.01923605
0000a0 d9 8b b2 3d 93 e5 85 bd 00 c1 46 bc 91 55 c0 3c
       0.0871808 -0.065379284 -0.012130976 0.023478301
0000b0 1c bf e8 3c b7 54 cf bb 4f 0d 01 3d c9 2f 61 3d
       0.02841144 -0.0063272375 0.031506833 0.054977212
0000c0 87 ee 50 3d 9a 42 29 3d 41 47 9a 3d 3c 1e 89 bd
       0.051008727 0.04132328 0.07533122 -0.0669522
0000d0 ae c3 77 bd 08 c8 6f bd 7b e0 55 bd 8c e3 fd 3c
       -0.06048935 -0.058540374 -0.052216034 0.030992292
0000e0 46 eb 74 3d ee 02 8c bd 7a b0 2e 3d af 35 40 bc
       0.059794687 -0.06836496 0.04264877 -0.011731549
0000f0 d3 ac 9d 3d 3e ea 49 3d 38 99 17 bd 4e 66 46 bd
       0.07698979 0.049295656 -0.037011355 -0.04843741
000100 ec a9 a8 3d 16 74 a3 3c b2 3e c3 bc b9 9a 96 3d
       0.08235535 0.019952815 -0.023833606 0.0735373
000110 26 4a b5 3c 00 40 c3 bb d4 ca 63 bd a8 04 97 3c
       0.022130083 -0.005958557 -0.055613354 0.018434837
000120 25 f3 91 3a a4 f2 01 bd d9 87 1e 3d 52 49 a0 bc
       0.0011135085 -0.03172554 0.038703773 -0.019566212
000130 36 61 2a bc 5d 9c 35 3d 4a 1a 28 3d 2f 29 a8 3d
       -0.010399153 0.044338573 0.041040696 0.0821098
000140 06 da cb 3d 3c b6 53 3d 02 73 f9 3c 3e e2 81 3c
       0.09953694 0.051687464 0.030450348 0.015854951
000150 7e 8b 55 3d 29 99 29 3c 71 ff d9 bc 3c 6b f0 3b
       0.052134983 0.010351458 -0.026611062 0.007337002
000160 9d e7 28 bb 9d 4b d3 3b 31 14 16 bd ed d6 39 3d
       -0.0025772818 0.006448223 -0.03664035 0.045370985
000170 67 2d c8 3c 91 62 8e bd 65 18 4c 3b 73 0b aa 3d
       0.024435712 -0.06952394 0.003114247 0.08302965
000180 e4 e3 2b 3d 62 de dd 3c 2b 93 03 3d cf 88 00 3d
       0.04196538 0.02708358 0.032122772 0.03138047
000190 31 13 05 3d 57 92 44 bc b3 9e 9b 3d c6 35 b9 ba
       0.032489005 -0.011997781 0.07598629 -0.0014130406
0001a0 14 11 57 bc 22 73 b7 3c 3b b6 58 3d 82 bf 8e 3c
       -0.01312663 0.022393767 0.052908164 0.017425302
0001b0 ab 0b 15 3d 29 74 5d 3d 05 d3 b4 3d bd 18 45 bc
       0.03638808 0.054065857 0.08829311 -0.012029824
0001c0 1f 90 05 3d 93 02 07 3d 70 a1 ad 3b b6 36 5e 3d
       0.032608148 0.03296144 0.005298786 0.054251395
0001d0 cd 51 aa 3d 26 03 09 bc 45 73 7e 3d 20 cf d1 3b
       0.083163835 -0.008362567 0.06212165 0.006402865
0001e0 9c b5 51 bd 52 3a b2 ba 53 ce 25 3c 09 1a 53 3c
       -0.051198587 -0.0013597703 0.010119992 0.012884625
0001f0 da 17 92 bd 94 83 ce bc c3 92 20 bd d7 8a 9d 3d
       -0.071334556 -0.025209226 -0.039202463 0.07692497
000200 1b ce 59 3d 29 a1 f0 3c 5d c2 83 bd e6 66 0e bd
       0.053175073 0.029373722 -0.06433556 -0.0347661
000210 35 90 ef bc 56 ed a4 3d d2 6e 80 3c 75 4c 1b bc
       -0.029243568 0.08053081 0.015677843 -0.009478678
000220 a0 57 73 bd 54 90 12 bd 56 a1 75 3d e1 d0 6e 3d
       -0.059409738 -0.035782173 0.059968315 0.05830467
000230 86 0d 0b bd c8 78 d6 3c 00 14 23 bd 56 59 f7 bc
       -0.033948444 0.02618064 -0.039813995 -0.030193966
000240 c3 85 a5 bc d5 6c 03 bc bc c4 91 bb 84 41 4c 3d
       -0.020205384 -0.008021553 -0.0044485014 0.049867168
000250 83 2f 3c bd dc ac c1 3d db 89 41 3d 93 83 5b 3d
       -0.04594375 0.094567984 0.04725061 0.053592276
000260 dc 37 bf bc 94 40 0d 3c fc 96 08 bd 36 c3 cb ba
       -0.023342066 0.008621354 -0.033347115 -0.0015545848
000270 7b 57 39 3d 5c c1 4c 3b 98 90 87 bc de 70 11 3c
       0.045249444 0.003124318 -0.01654844 0.008877007
000280 61 09 98 bd 9f 94 3d 3c 12 34 b2 3c 7f a3 84 bd
       -0.07423664 0.011571079 0.021753345 -0.06476497
000290 81 c8 87 3d 6c 04 89 bd 49 e9 b6 bc 64 be a2 3d
       0.0663004 -0.066902965 -0.022328036 0.079464704
0002a0 c9 e4 5b 3d b5 1e f0 bc 2c 44 9b 3d 0d 3b c3 3b
       0.053684983 -0.029311517 0.07581362 0.005957967
0002b0 3a 6e 50 3d 01 28 35 bc 60 7b 93 3d 3c 0c 7b bd
       0.05088637 -0.011056901 0.07201266 -0.061290964
0002c0 de 6b 2a 3c 99 17 62 3d 96 46 7f bd d0 40 3f bd
       0.010401694 0.055198286 -0.062323175 -0.04669267
0002d0 f3 36 86 bd b8 1e 1a bc 15 a4 36 bd 2b 15 23 bd
       -0.065534495 -0.009406738 -0.044590075 -0.03981511
0002e0 66 3d d7 3b c8 20 53 bd 00 27 93 3b d9 32 58 3d
       0.0065685986 -0.051544935 0.004490733 0.052782867
0002f0 ba 35 6d bd 44 2a ad 3d f0 8d cf bc 9b eb 22 bd
       -0.057912566 0.08455327 -0.025336236 -0.039775472
000300 8c 60 7a 3d f6 4c cd bc f0 ff 02 bd 40 e0 41 3c
       0.06112723 -0.025061112 -0.031982362 0.0118332505
000310 24 43 b8 3b 0c a2 6d 3d 56 98 b3 3b 63 2e 1e 3d
       0.005623238 0.058015868 0.0054808063 0.038618457
000320 25 6f 38 3d 8a 67 2a bd e9 7f 8f bc 0e 95 3e bd
       0.04502787 -0.04160265 -0.017517047 -0.04652887
000330 67 b9 05 bd 5a cf 8f bd 78 95 56 bd d7 7d 32 3c
       -0.032647517 -0.07021971 -0.05238864 0.01089426
000340 0b 85 1e 3d d1 97 3b bd 70 f5 22 bd 56 60 34 bd
       0.0387011 -0.04579908 -0.03978485 -0.044037186
000350 eb 38 8e 3d 90 6b 07 3d 9d 2f 99 3c 55 a6 fd 3c
       0.0694445 0.033061564 0.018699462 0.030963102
000360 58 1f a5 3c 27 bc 66 bc a6 bc 1a bd 3c fd 10 3d
       0.020156547 -0.014082945 -0.037777565 0.035397753
000370 de d2 7c 3d 07 bf 02 bd 49 c2 7d 3d ab 66 3d 3d
       0.061724536 -0.03192046 0.061952863 0.04624049
000380 d6 30 5d bd 54 bf 37 3d 8b cb 93 3d 1d 63 4a 3c
       -0.05400165 0.0448602 0.07216557 0.012352732
000390 fe 52 91 3d a4 cb ae 3c 4f 61 2c 3d bf ca 74 bd
       0.07095908 0.021337338 0.04208499 -0.059763666
0003a0 dc 2d a0 bc d7 5c 89 3c f9 d1 69 3c 60 a4 fc bc
       -0.019553117 0.016767902 0.014271253 -0.030840099
0003b0 07 12 63 3c 60 ef 9b 3c 64 35 91 3d ea c5 84 bc
       0.0138592785 0.019035041 0.070902616 -0.016207654
0003c0 70 1c d2 3c da a3 63 bd 8a 80 06 ba 34 87 4b 3d
       0.025648326 -0.055576183 -0.0005130848 0.049689487
0003d0 bd ff 38 bd a0 76 b5 bc 1e 10 43 3d 8d c0 4e 3c
       -0.045165766 -0.022151291 0.047622792 0.01261915
0003e0 f1 80 05 bd 7c 93 17 3d 05 c1 0b 3d 75 f2 43 bc
       -0.03259367 0.037005886 0.034119625 -0.011959662
0003f0 da 4e 82 bc 57 1b 60 3c 63 12 13 3d b2 86 84 bd
       -0.01590674 0.013678393 0.035906207 -0.064710036

action_out.weight f4 [5, 256]
000000 4c 75 a9 bd b0 52 a8 3d 61 91 b9 3c f0 de f1 3c
       -0.08274326 0.082188964 0.02265233 0.02952525
000010 ad 93 24 3d f6 c2 a3 3d 90 ae 98 3d fd 98 ef 3b
       0.040179897 0.0799617 0.0745517 0.007311939
000020 1f d3 20 3d 0f ad 83 bb 27 f6 07 3d 10 c3 a2 3d
       0.03926384 -0.004018433 0.033193734 0.079473615
000030 33 f6 3c bd af ec 85 3d b1 83 b2 3d 72 42 5c 3c
       -0.04613323 0.065392844 0.087165244 0.013443576
000040 56 0e 51 3d 86 ba ff bc 1f ef 62 bd 98 58 c6 bb
       0.051039062 -0.031216871 -0.055403825 -0.0060530417
000050 82 a9 f5 bc e0 76 52 bd 01 19 c8 3d 7d 8a 4a 3d
       -0.029988054 -0.0513829 0.09770394 0.04944848
000060 6f 68 3b bd 1f d9 00 bd 65 67 6b 3d dd a1 28 bd
       -0.045753893 -0.031457063 0.05747165 -0.04116999
000070 7b 9a c5 3d 45 fd 23 bd a8 49 6c 3c a8 0c 57 bd
       0.096486054 -0.04003646 0.014421858 -0.052502304
000080 cf 0a ba 3d f0 b6 f6 bb 32 5a 19 bd 48 4a 34 bd
       0.09084093 -0.007529132 -0.037439533 -0.044016153
000090 42 4d 59 3d 5a 08 69 ba 91 40 a1 3c b3 85 34 bd
       0.053052194 -0.0008889489 0.019684108 -0.044072818
0000a0 46 11 8f 3d c1 2b 0c 3c a0 e8 a5 bc f8 d4 88 bd
       0.069857165 0.008555354 -0.020252526 -0.066812456
0000b0 6a 78 d4 3c fb b2 9e 3d bf 41 87 bd f4 27 ba 3c
       0.025936324 0.077489816 -0.06604337 0.02272413
0000c0 ed 10 19 3b 8d 64 e1 bb cf 16 8d 3c b5 2b 0f bd
       0.0023356036 -0.0068784417 0.01722279 -0.03495379
0000d0 d8 06 b8 bc 40 a4 4f 3c 2f 09 68 bd 0d 40 1b 3d
       -0.0224642 0.012673438 -0.056649383 0.03790288
0000e0 59 1d e3 3c 94 2b 9e 3b 3d 67 38 3d 73 b3 53 3c
       0.027723955 0.0048269723 0.04502033 0.012921202
0000f0 8e c2 85 3d c5 b3 30 bd 98 56 3f bc 5e a6 02 3d
       0.06531249 -0.04314019 -0.01167836 0.03189694
000100 66 44 bf 3d c4 c2 81 3c db e8 0e 3d 94 4e b9 3d
       0.09339218 0.015839942 0.034890037 0.09048191
000110 94 2f c8 3c 81 0c 09 bc 60 f4 c9 3c 6a 46 6e bd
       0.02443675 -0.008364798 0.02465266 -0.05817262
000120 50 ab 81 3d 62 5c be bc b8 33 6a 3d 47 2c 94 bc
       0.063315034 -0.023237411 0.05717823 -0.01808752
000130 02 e8 15 bd ed 4b 1d bd bb f0 d9 3d 73 73 c0 3d
       -0.036598213 -0.038402487 0.10641619 0.0939702
000140 05 4e ec 3d c7 4e 49 3c 5e 6e 99 3d 11 84 b5 3d
       0.115383185 0.012286848 0.07491754 0.0886308
000150 3c 98 3f bd d0 88 cd 3c 6f 0c 2b 3d a6 aa 26 bd
       -0.04677604 0.025089651 0.041759904 -0.040690087
000160 b9 d9 48 3d 96 90 d7 3d f8 e7 b7 3a 85 dc 40 bc
       0.04903576 0.105256245 0.0014030924 -0.011771326
000170 a8 aa 89 3c fa 05 9c bd 12 d6 b7 3a cd f5 ca 3d
       0.016805008 -0.076183274 0.001402559 0.09910164
000180 8a 91 bc bb ba 84 30 3d fb 38 b7 3d db 52 dd 3d
       -0.0057546543 0.043095328 0.08946415 0.10806819
000190 ee 8c 99 3d 83 f7 35 bd 9e c0 a6 3d 66 0b 2a 3d
       0.07497583 -0.0444255 0.081422076 0.041514777
0001a0 38 99 71 3d c4 33 de 3c d4 85 34 bd 65 a1 88 3d
       0.05898401 0.027124293 -0.04407294 0.066714086
0001b0 4c 7f b0 3d 14 80 5f 3d 91 91 9a 3d df ee 0d bd
       0.0861803 0.054565504 0.07547296 -0.034651633
0001c0 d5 3d 45 bd b9 40 41 bd 50 08 97 bc 26 1a 16 3d
       -0.04815467 -0.047180865 -0.01843658 0.03664603
0001d0 f5 fd 70 3d a1 a0 52 bc 65 10 55 3d 46 89 13 3d
       0.058835942 -0.01285568 0.05201759 0.036019586
0001e0 3b d0 30 bd 34 3a 20 3d 85 6d 2b bc 8b 66 da bc
       -0.043167334 0.039118007 -0.010463123 -0.026660224
0001f0 b0 ab ef bc 0a 9b 53 3c 0a 83 3c 3d 30 f7 7b 3c
       -0.029256672 0.012915382 0.046023406 0.015378758
000200 0e ab 65 3d 52 48 a3 3d bb db 2a 3d f0 fc 96 3d
       0.056071334 0.079727784 0.041713458 0.07372463
000210 cc dd 69 3d 2f 63 c3 3d e1 86 a2 bc b2 ac 9d 3d
       0.057096288 0.09540402 -0.019839706 0.07698955
000220 87 47 92 bc 5a 71 6d bd b4 23 95 3d ee 05 63 bc
       -0.017856373 -0.05796943 0.072822005 -0.013856394
000230 31 82 6b bd 6a cd c2 3d 8c a0 eb bc 50 60 c4 bb
       -0.057497207 0.09511836 -0.028763078 -0.0059929267
000240 d3 fa b5 3d f9 85 67 3d 7c 3b a9 3d 6d c5 dd 3d
       0.088857315 0.05652425 0.08263299 0.108286716
000250 b0 82 b3 bb 67 d6 3a 3c 9c 09 35 bc f6 cf 44 3b
       -0.0054782256 0.011403657 -0.011049654 0.003003118
000260 bb a3 c5 bc ec dc 6d 3d 10 27 2a bd f5 6e 35 3d
       -0.024125924 0.058072016 -0.04154116 0.04429527
000270 a7 93 b1 3c b2 b1 41 3d 11 d5 31 3d 48 c2 62 3c
       0.021676851 0.047288604 0.043416087 0.013840266
000280 04 06 3d 3d 83 06 b8 3d 25 2b ae 3d ea 46 5c bd
       0.046148315 0.08985617 0.08504323 -0.053778566
000290 46 bb 93 3d c5 4d 2c 3d 6d ac 56 bc 4f ba 80 3d
       0.07213454 0.042066354 -0.013102633 0.062855355
0002a0 7c 04 06 bd 40 38 a7 3d 67 f4 91 3d b8 8e 99 bc
       -0.03271912 0.08165026 0.07126694 -0.018744811
0002b0 f6 6b 95 3d b6 c2 00 bd 39 59 3f 3d 70 07 56 bc
       0.072959825 -0.03143569 0.04671595 -0.013063297
0002c0 fe 77 80 bd a2 10 cc 3d fc 93 dc 3c dd 00 28 3c
       -0.06272887 0.0996411 0.026926033 0.010254112
0002d0 de b0 79 bd 80 81 13 3c ec 68 95 3b 5b 79 80 3c
       -0.06095969 0.009003043 0.004559627 0.015682867
0002e0 a6 a0 ff 3c 84 08 fa bc 94 fd 48 bd 77 68 44 3d
       0.031204533 -0.030521639 -0.049069956 0.047951188
0002f0 0b 22 05 bd 40 bb 8b 3d c8 a9 ea bc 4b 01 86 3c
       -0.03250317 0.068228245 -0.028645411 0.016358038
000300 13 7b 52 3c 42 ef 4f bd 1b 53 bc 3b 03 53 4b 3d
       0.012846726 -0.050765283 0.0057472116 0.049639713
000310 e5 a1 a1 bd 01 8e 06 3b 2a a8 0d bd 44 fa 18 bd
       -0.07892207 0.0020531418 -0.034584202 -0.037348047
000320 48 2c ef bc 7c a5 14 bd a2 3f 00 bb 0c 79 35 bd
       -0.02919592 -0.03629063 -0.0019569178 -0.044304892
000330 80 fc 5a 3c 0e 78 e4 3c 45 89 9b bd 74 d4 a3 3d
       0.013365865 0.027889278 -0.075945415 0.079995066
000340 68 d8 14 bd e4 15 18 bd 4f 2e 74 bd 60 a9 2a 3c
       -0.036339194 -0.03713025 -0.059614476 0.010416359
000350 45 f0 3d 3d 5b 6b ed 3c 70 f2 de 3c ad 0c bb bd
       0.046371717 0.028981855 0.027215213 -0.09133277
000360 6a 01 ba 3c af 73 e4 3c b8 68 11 bd d2 e6 84 3d
       0.022705752 0.027887193 -0.03550026 0.06489338
000370 12 7b b1 3d b0 1f b8 bc a5 30 b1 3d 78 4a 02 3d
       0.08666052 -0.022476047 0.08651856 0.0318093
000380 85 1d 03 bd 05 44 16 3c 80 a7 b5 3d 5d 8f 7b 3c
       -0.032010574 0.009171491 0.08869839 0.015354005
000390 e1 a5 8e 3d 88 fb 25 bc e9 c9 ad 3d 36 03 83 bd
       0.06965233 -0.0101307705 0.08485777 -0.06397097
0003a0 cc 73 d9 bc 06 b5 ac 3c ce 6e 50 bd c2 08 00 3b
       -0.026544474 0.021082412 -0.05088692 0.001953647
0003b0 b6 47 85 bd fa ad 04 bd c5 55 91 3d d9 f0 29 bd
       -0.065078184 -0.03239248 0.07096437 -0.041489456
0003c0 f2 83 77 3d f9 ca ba 3c dd d2 1a bd 22 7b a5 3c
       0.060428567 0.022801863 -0.03779875 0.020200316
0003d0 18 ff 58 bd b7 4c a2 3c 5e 01 c2 3d f8 fa 16 bd
       -0.05297765 0.019811971 0.09472917 -0.036860436
0003e0 28 c7 f7 3c ea 90 9f bd 04 61 ef bc 54 c8 a4 3d
       0.030246332 -0.07791312 -0.029221065 0.08046022
0003f0 48 a5 b5 bd 19 5a ce 3d f0 f1 cf 3c 74 81 3e bd
       -0.088694155 0.100757785 0.02538392 -0.046510175

action_out.bias f4 [5]
000000 f9 72 45 3d 88 ed 66 bd 87 6d c1 3b 76 06 b3 3c
       0.04820535 -0.05637887 0.0059029493 0.021853667
000010 d3 f2 5a 3b
       0.0033408895

weight f4 [256, 123]
000000 df 21 5c 3d 35 2b a2 3d 71 e7 ce bd e6 dc e1 3b
       0.05374324 0.07918397 -0.10102738 0.006892788
000010 64 5c f5 bc 0c 95 08 3c f0 1c 1a 3d 46 45 56 3d
       -0.029951282 0.008336317 0.037625253 0.052312158
000020 a9 7c 8d 3d b0 41 7a bc e0 0f ea 3c 29 5d b7 3d
       0.06908543 -0.01527445 0.028572023 0.08953316
000030 8d 68 b8 bc e7 8d 48 bc e0 20 bd bb 26 14 78 bd
       -0.022510791 -0.012240863 -0.0057717413 -0.06056609
000040 15 86 c9 bd 6c ad 9c 3c a1 48 b0 3d 94 91 4b 3c
       -0.09840027 0.019125663 0.08607603 0.012424845
000050 45 ef 27 3d e1 f6 93 3d cc 92 47 bd 77 b5 d7 3a
       0.04099967 0.07224823 -0.04872398 0.0016457279
000060 6b 4a 2c 3d 6d d2 85 3c 6d 6d 4d 3d ae 35 79 bd
       0.042063158 0.01633569 0.050153185 -0.06084221
000070 bb 7d 33 3d 52 18 aa bd b4 5e 5c 3d c8 bd ca bc
       0.043821078 -0.0830542 0.053801253 -0.024748698
000080 f4 6d c3 bc 81 a9 9e 3d 98 a2 41 3c a7 ff 8a 3d
       -0.02385614 0.07747174 0.0118185505 0.06787043
000090 43 82 58 3d 4b 10 14 3d f1 58 9c 3c d2 1d a5 bd
       0.052858602 0.03614835 0.01908538 -0.080623284
0000a0 2a bd 3a bc a5 85 cd bc e5 dc 8a bc 49 01 e7 bc
       -0.011397639 -0.02508814 -0.016951034 -0.028198855
0000b0 db 7f 5b 3d 5e 93 8b bc 86 07 b9 bd 0e 26 72 3c
       0.05358873 -0.017038044 -0.09034638 0.014779581
0000c0 cc b9 89 3c 94 cd b2 bd 39 a6 16 bd ef c0 fa 3c
       0.016812228 -0.08730617 -0.036779616 0.030609576
0000d0 e2 74 cb bd c4 65 88 bd a4 36 b6 bd df cd c3 3b
       -0.09934403 -0.06660035 -0.088971406 0.0059754695
0000e0 3a 68 59 3d c9 a5 39 bb df 20 79 bd 1d b3 b6 3d
       0.053077914 -0.0028327575 -0.060822364 0.08920882
0000f0 12 8d 4b bd e0 99 58 3c 30 73 8c 3b af 56 78 bd
       -0.049695082 0.01322028 0.0042861924 -0.060629543
000100 4f d6 49 bd ca dc 1f 3d d6 f9 d6 bc c7 91 bb 3d
       -0.049276646 0.03902892 -0.026242178 0.09158664
000110 e1 c7 38 bd 14 05 b7 3c aa 20 70 3d 00 f9 1b 3c
       -0.045112494 0.022341289 0.0586249 0.009519815
000120 99 36 c9 bb de 04 6d 3a 4c 21 29 bd 4a 4c b8 bb
       -0.0061405418 0.0009041558 -0.04129152 -0.0056243287
000130 3f 66 c8 bd 09 0d c2 3d 48 36 00 3d 05 cd 87 3d
       -0.09785127 0.094751425 0.031301767 0.06630901
000140 4f c2 7c 3d 00 60 20 3d 4b 91 2f 3d b1 e0 a3 3d
       0.061708745 0.039154053 0.04286317 0.08001841
000150 a7 87 c1 bb ca 5a a7 bc 62 f8 58 3d b6 53 78 3d
       -0.0059060636 -0.020429034 0.05297125 0.060626708
000160 08 ca 15 bd 94 17 a1 3d fd 35 4e bc b0 39 06 bd
       -0.036569625 0.07865825 -0.012586114 -0.03276986
000170 66 f2 64 3d 0d 5a 91 bd fc 52 2c bd f1 02 6d bc
       0.05589523 -0.07097254 -0.042071328 -0.014466033
000180 9e 72 b8 bd 15 a8 8c bd 90 d4 b4 bd 60 50 87 3d
       -0.090062365 -0.068679966 -0.088296056 0.06607127
000190 22 6e a3 bd 01 d5 ad 3d b9 5b b6 39 91 f9 9e bd
       -0.079799905 0.08487893 0.00034782084 -0.07762445
0001a0 00 89 8c 3c 10 8a 09 bd 7f 28 ae bd fb 4e a0 3d
       0.01715517 -0.033578932 -0.08503818 0.07827564
0001b0 5b 5a 03 bd 60 f9 b3 bc 9a f8 29 3d 8d bd a6 3d
       -0.03206859 -0.021969497 0.04149685 0.08141623
0001c0 b8 6d 4e bd 9a 35 30 bd 62 65 01 3d 75 80 91 bd
       -0.050397605 -0.04301987 0.031590827 -0.07104579
0001d0 33 59 9d 3c 8d 30 96 3d b9 fe 93 3d 5a 35 bd 3c
       0.019207573 0.07333479 0.07226319 0.02309673
0001e0 b0 f1 99 bd 85 94 ce 3c be 6e 88 bd 68 e0 70 3d
       -0.07516801 0.025217304 -0.066617474 0.05880776
0001f0 fe 55 bb bc 8a 77 8b 3d 42 62 8a bd 01 02 9b bd
       -0.022868153 0.0680991 -0.067570224 -0.075687416
000200 88 b0 f0 3d fc c4 41 bd 50 0f fe bc cf ce 82 bd
       0.11752421 -0.047307 -0.031013161 -0.06387102
000210 4d 4e 3c bd 3a df 16 3d 09 6d 07 bb f9 69 a6 3d
       -0.04597311 0.03683398 -0.0020664355 0.081256814
000220 68 9e 98 3c 3f 8f 28 bb ae 6f ab 3d aa b9 c8 3d
       0.018630221 -0.0025720147 0.083709106 0.098010376
000230 22 0c 78 bd e1 b4 fc bc 67 61 8d bd 63 c2 67 bd
       -0.060558446 -0.030847969 -0.06903344 -0.056581866
000240 87 d6 b9 3c 9b e8 86 bd a5 82 1f bd de 40 84 3d
       0.022685302 -0.06587335 -0.03894295 0.06457685
000250 57 53 17 3d 03 7f 07 3c ae 72 ce bc f5 e8 4f bc
       0.036944713 0.008270028 -0.025201168 -0.012689819
000260 8b ce 11 bd 48 4a 7b bd c3 6d 0a 3e 22 2c 8d 3d
       -0.035597365 -0.061350137 0.13518433 0.06893183
000270 2c 60 95 bc e9 bf 95 bd eb 8e 62 bd 4d 14 2f bd
       -0.018234335 -0.073119946 -0.05531208 -0.04274397
000280 78 89 28 bd df ee a8 bd 95 36 f4 3b 1b b0 bc 3c
       -0.041146725 -0.08248686 0.0074527957 0.023033192
000290 dc f6 f5 3d 32 0e d5 3a 74 00 75 3d a4 09 5a bd
       0.12009975 0.0016254841 0.059814885 -0.05323185
0002a0 20 15 b7 bc 7c 9e 44 bc bc 7f a0 bd bc 7d 6d 3d
       -0.02234894 -0.012000676 -0.078368634 0.057981238
0002b0 84 80 a4 3d c7 90 c4 bd 72 e1 c0 3d e1 41 99 bd
       0.08032325 -0.095979266 0.09418 -0.074832685
0002c0 8b 5e af bd f4 4b 3d bd f1 b8 fe bc a5 c0 a3 bd
       -0.085629545 -0.046215013 -0.031094046 -0.079957284
0002d0 d5 7d 93 3c 59 78 1c bd fb 73 48 3d 9d aa 67 bc
       0.018004337 -0.03820071 0.048938733 -0.0141397985
0002e0 2f dc de 3c 83 a6 80 3d b7 5b ae 3d 47 05 3c bd
       0.027204601 0.062817596 0.08513587 -0.04590347
0002f0 a3 3f ce 3d 56 2d 6d bd 7c 55 7c bc 5a fc 4c bd
       0.100707315 -0.057904564 -0.01540124 -0.05004535
000300 92 b9 e8 bc 48 1e b6 bd 22 91 79 3d 04 29 d7 3c
       -0.0284088 -0.088924944 0.060929425 0.026264675
000310 cd 76 5c 3d e7 9f 98 3c e6 f0 77 3d 50 f0 41 bd
       0.053824235 0.018630935 0.060532473 -0.04734832
000320 ec 43 77 bb 76 a3 5c bd 3a 3d 57 bd cb 92 78 bd
       -0.0037729694 -0.053866826 -0.052548625 -0.060686868
000330 61 ab f2 bc a4 22 86 3d 10 83 9b 3d fd 78 33 bd
       -0.029622735 0.06549576 0.075933576 -0.043816555
000340 0f 2f a3 3d c4 fb 0a bd 07 8e c4 3c c7 88 96 3d
       0.0796796 -0.03393151 0.023993505 0.07350307
000350 53 30 d2 bb 83 6e af bc 04 98 f5 3c ee 51 8a bd
       -0.006414452 -0.021415 0.029979713 -0.06753908
000360 38 79 a6 3d 4b 2e 4b bd 3a 40 db 3c 5b 68 5b bd
       0.081285894 -0.049604695 0.026764024 -0.053566318
000370 9d 82 9a 3d a0 ee 4b bc 41 90 34 3c 6d c1 93 3c
       0.07544444 -0.012447029 0.011020721 0.018036569
000380 a0 93 5c 3d 2b 1a c3 3d 9c af b2 3d 3c da 74 bd
       0.053851724 0.095264755 0.08724901 -0.059778437
000390 00 b3 8b 3a 7c 95 d1 3c 9e be 47 3d 9e 2c 93 bc
       0.0010658205 0.025583975 0.04876577 -0.017965611
0003a0 72 d7 d6 3b 4b 9e 5e bc 4e dd a3 bc ed 62 56 bc
       0.006556445 -0.013587545 -0.020002987 -0.013085109
0003b0 5c 46 a6 3c 97 ca 88 3c 1b 08 52 3c ea 06 e5 3c
       0.020297222 0.016698165 0.012819315 0.027957398
0003c0 60 3a 50 3c 01 25 e9 bc fc 92 c1 3d 92 73 2b bc
       0.01270923 -0.028460028 0.09451863 -0.010464566
0003d0 80 78 10 bd 45 1c ea bc f5 47 b1 bc ef 85 91 bd
       -0.035271168 -0.028577933 -0.021640757 -0.07105624
0003e0 da e6 b7 bd 9a 55 ba bc ab 63 18 3d a2 b7 87 b8
       -0.08979578 -0.022745896 0.037204426 -6.471506e-05
0003f0 f2 95 0a bd cb 63 bc bc 37 f6 3d bd 4e 9a 00 3d
       -0.033834405 -0.022996804 -0.046377387 0.031397156

bias f4 [256]
000000 6e b7 43 bd 26 61 64 bd e0 75 a0 3d ed d7 77 bd
       -0.047782354 -0.05575671 0.07834983 -0.060508657
000010 8a 15 b3 3d 07 15 b7 bc bd 2f b1 bd 68 10 53 3d
       0.087443426 -0.022348894 -0.086516835 0.051529318
000020 2d 45 5f bd dd bf 58 bd 31 f7 48 bd 42 81 0f 3b
       -0.05450933 -0.05291735 -0.049063865 0.0021897112
000030 07 56 7c bd 3e 48 0b bd c6 8d 89 3d d0 c4 ff 3c
       -0.06160548 -0.034004442 0.06716494 0.031221777
000040 e6 42 44 3d d9 b8 a3 bd 77 c0 77 bc 8a 74 41 3d
       0.04791536 -0.07994241 -0.015121571 0.04723028
000050 53 7a 41 3d fa 4a 95 bc a1 e3 b0 3d aa d9 d9 ba
       0.047235798 -0.018224228 0.08637167 -0.0016620655
000060 0a fe c0 bc 65 74 73 bd 43 04 82 3c e9 d8 7c 3d
       -0.023558635 -0.059437174 0.015871173 0.0617303
000070 14 ab b9 bd db 41 10 3d 25 c1 8e 3d c2 b9 82 bd
       -0.09065834 0.035219055 0.06970433 -0.06383087
000080 f5 cd af bb 01 4e 54 bd 24 d5 9c 3d d6 f3 28 3d
       -0.005365128 -0.051832203 0.07657841 0.041248165
000090 21 31 e1 bb df 6f 7c 3d 35 3c 3a 3d 9a 4e 9a 3d
       -0.0068723117 0.061630126 0.045467574 0.07534523
0000a0 2e dc 4e bd b2 1e a5 3d c6 9b fc ba 7c 0a 8b 3d
       -0.05050295 0.08062495 -0.0019272498 0.06789109
0000b0 7f b1 70 bd 78 37 a4 bd 07 29 8a 3d 93 b5 1c 3d
       -0.058763023 -0.08018392 0.067461066 0.0382591
0000c0 ca b0 95 bd 39 a5 db bb 56 27 b6 3b b0 14 11 bd
       -0.073091105 -0.0067030457 0.0055588884 -0.03542012
0000d0 8c da 08 bd 4b cf 3b 3d 99 62 9e 3d d5 5f e1 3c
       -0.033411548 0.045851987 0.0773365 0.027511517
0000e0 c9 af 96 bd 10 03 6b bd d0 a4 24 bd b1 62 34 bd
       -0.07357747 -0.057375968 -0.04019624 -0.044039432
0000f0 de 61 91 bd 13 85 14 3b 4c 40 09 bc cd de 03 3d
       -0.07098745 0.0022662326 -0.008377146 0.0321949
000100 28 4b a3 bb ee c0 43 bd 73 d7 a1 3d a8 fd ec 3c
       -0.0049833246 -0.047791414 0.07902422 0.028929546
000110 fe c1 b8 3c 93 fa 91 3d f6 5d 47 bc c4 68 3f bd
       0.02255344 0.07127871 -0.012168398 -0.04673077
000120 25 97 c5 bd 22 33 61 bd 0e 52 02 bd 0e 17 7a bd
       -0.09647969 -0.054980405 -0.031816535 -0.061057143
000130 6d 48 a3 3c 29 7c 97 3d 31 2d f2 3c 29 13 92 3d
       0.019931996 0.073967285 0.029562565 0.07132561
000140 83 62 93 bd bf 85 9f 3d 87 ce 69 bd cd 42 6d 3d
       -0.07196524 0.07789182 -0.057081725 0.057925034
000150 e6 7c 83 bd ae 2d 58 bd e4 ee 87 bd 71 d2 a0 bd
       -0.06420307 -0.05277794 -0.06637362 -0.078526385
000160 ce 2d 57 bd bd 11 02 bc b9 f9 bb bd e0 3c bf bb
       -0.052533917 -0.007938799 -0.0917849 -0.0058361143
000170 78 f2 65 bd da 10 5c 3d 7f d8 90 3d 54 83 b3 bd
       -0.05613944 0.05372701 0.07072543 -0.08765283
000180 9e 90 aa bd 74 a1 2a bd 54 22 9b bc df 40 0e 3d
       -0.08328365 -0.04165788 -0.018937267 0.034729835
000190 31 1d b3 bb f1 56 99 3d 47 2f 80 bc 19 77 53 3c
       -0.0054661264 0.07487286 -0.015647544 0.012906813
0001a0 87 90 1c 3d 27 f7 7b bd 6b 9c 32 bd 92 24 aa 3d
       0.03822377 -0.061515 -0.043606203 0.083077565
0001b0 c4 12 a6 3d 16 8e a1 3d 1d ce 11 3d 3b cb a6 3b
       0.08109048 0.07888429 0.035596956 0.005090145
0001c0 29 30 17 bd d8 78 fb 3b 20 02 ad bd fe 66 8b 3d
       -0.036911163 0.007674318 -0.08447671 0.068067536
0001d0 1f d9 8a 3d 07 88 8d 3d bd 33 1d 3d c0 8e 59 3d
       0.06779694 0.06910711 0.03837942 0.053114653
0001e0 7f d1 da bb 42 75 98 bc 80 df 60 3c b9 6d 74 3d
       -0.006677806 -0.0186106 0.013725162 0.059674952
0001f0 f5 f8 68 bd a4 c3 4f 3d 07 2b 35 3c e2 c1 94 3d
       -0.05687805 0.050723687 0.011057622 0.07263543
000200 ef 00 8f bc 72 22 35 bd 98 17 20 3b 68 98 08 3d
       -0.0174565 -0.044222303 0.0024428125 0.03334847
000210 01 c3 bb bd e5 f5 44 bd 2f f7 17 bc 52 35 a6 3d
       -0.091680534 -0.048086066 -0.009275242 0.08115639
000220 dc 30 33 3d d8 43 33 bc 02 3d 91 3d 39 5f 35 3d
       0.043747768 -0.010941468 0.070917144 0.044280265
000230 86 f2 a2 bd bc 13 62 3d 5e 0a 9d bb b9 0d cb 3c
       -0.07956414 0.0551946 -0.0047924956 0.024786817
000240 50 5a b4 3d be bf 01 3d 3f ff 5f bd 0b 7d 14 3d
       0.08806288 0.031677 -0.05468678 0.036252063
000250 41 1e 1d 3d 5d 9d f1 3c 61 8f 4a bc da 56 44 3c
       0.03835893 0.029493982 -0.012363286 0.011983598
000260 be 0d a7 3d d5 c2 a1 3d a5 f8 0a 3d a7 8c ff bc
       0.08156918 0.078984894 0.033928532 -0.031194998
000270 21 77 82 3d 44 7f 54 3d 51 75 23 bd a4 b7 7a 3d
       0.06370378 0.051879182 -0.039906804 0.06121029
000280 5b fd ae 3d 08 fa 82 bd 31 35 7a bd 6c 6a 67 3c
       0.085444175 -0.06395346 -0.061085884 0.014124494
000290 c1 81 e2 3b 41 dd e3 bc 5a 6a 18 bd e6 d3 8a bd
       0.0069124405 -0.027815463 -0.0372108 -0.06778698
0002a0 11 b8 d6 3b 9b c5 5e bd f4 18 5b 3b a8 14 24 bd
       0.006552704 -0.05438767 0.0033431621 -0.04005876
0002b0 7a 09 8f bd 65 2a 46 3d 27 5f b2 bd f2 06 da 3c
       -0.069842294 0.048380274 -0.08709555 0.02661464
0002c0 5a 96 73 bd f7 44 ee 3c 86 80 4f bd 5a 81 01 bd
       -0.05946956 0.02908562 -0.05065968 -0.0316175
0002d0 5e 1e ac bd 58 f1 36 3d 93 92 d5 3c 10 37 21 bd
       -0.084042296 0.044663757 0.026070869 -0.039359152
0002e0 05 5d 40 3d f3 fa 9f 3d 64 c9 c5 bc c0 b0 81 bd
       0.04696371 0.07811537 -0.024143882 -0.063325405
0002f0 7f b3 a6 3d 3e c1 8f bd a6 e0 82 3c aa 9d 3a 3b
       0.08139705 -0.0701928 0.015976261 0.0028475323
000300 11 1f df 3c 85 74 24 3d fe 9e 3e bb f4 d1 12 3d
       0.027236493 0.040150184 -0.0029086466 0.03584476
000310 d0 63 cc bc f2 32 81 3c 2b e8 39 3b e7 5c 38 3d
       -0.024949938 0.015771363 0.0028367143 0.045010474
000320 d7 ba d9 3c 3e e8 8f 3d 0d 79 87 bb 6a 8c c2 3d
       0.02657835 0.070267186 -0.0041343034 0.09499438
000330 5b 99 3b 3d f2 3a 52 3c 53 8b d7 3c c7 c9 97 3d
       0.045800548 0.0128314365 0.026311552 0.07411533
000340 a3 26 9e 3d 6d 53 51 bc 67 71 94 bd 30 88 76 bd
       0.07722213 -0.012776238 -0.07248192 -0.060188472
000350 16 bc a0 3d f1 2f 32 3d fb 55 bc bd c8 9b 35 bd
       0.078483745 0.04350275 -0.09196087 -0.044338018
000360 f3 03 c7 bc 87 b2 62 3d ef e1 10 bd 1b 3b 9f bd
       -0.024293875 0.05534604 -0.035371717 -0.07774945
000370 a3 59 97 bd e9 64 17 3d 23 60 2a 3d fd 55 1e bb
       -0.07390144 0.03696147 0.04159559 -0.002416014
000380 c0 e9 8b 3d c7 5d b4 bc 0c f5 b1 bc 71 d6 15 3d
       0.06831694 -0.022017373 -0.021723293 0.03658146
000390 82 22 0c bd 91 00 f0 bc 81 d1 e0 bc 00 d9 08 3d
       -0.034212597 -0.029297145 -0.02744365 0.033410072
0003a0 c6 c7 89 3d 47 92 89 3d be 70 ab bc bd 42 80 3d
       0.06727557 0.06717353 -0.020927783 0.06262729
0003b0 38 29 75 3c 63 79 0b 3d 46 77 ac bc 62 77 b0 3d
       0.014963441 0.03405131 -0.021052968 0.086165205
0003c0 6f d9 9f 3d ad 3c c9 bc eb 32 b3 bc 89 61 a3 3d
       0.07805144 -0.024565065 -0.021874866 0.07977588
0003d0 e5 3c 94 bd b1 6d f2 bb 78 55 6e 3d ae 3d df bc
       -0.07238177 -0.00739833 0.058186978 -0.02725109
0003e0 03 74 83 bd 1f dc bd bd 94 a3 16 bd 94 fc 1c 3c
       -0.06418612 -0.092705004 -0.036777094 0.009581704
0003f0 ee 07 3b 3c c0 49 f1 bc ff cb 31 3d 65 9d 25 3b
       0.011415465 -0.029454112 0.043407436 0.0025270816
