src/saved_models/grid_world_seed125_8_6_11_17/125_1_model.pt (torch, 702713 bytes, 11 tensors)

FC1.weight f4 [256, 36]
0	0x3d2ecf66	0.04267826
1	0xbd3c6b19	-0.046000574
2	0xbc27cb85	-0.010241394
3	0x3e54d0a8	0.20782721
4	0x3e669fba	0.22521868
5	0x3dc30422	0.09522273
6	0x3c96c380	0.018403769
7	0x3e1d1a79	0.1534213
8	0xbd7ffae1	-0.062495116
9	0xbe2b89a7	-0.16751729
10	0x3e226908	0.15860379
11	0x36d2ba96	6.280209e-06
12	0xbd518750	-0.051154435
13	0xbd2c5c36	-0.042080127
14	0x3dac0e04	0.08401111
15	0xb927d20e	-0.00016004613
16	0xbbf6d8d7	-0.0075331735
17	0xbe68e338	-0.22742927
18	0xbd0b7f15	-0.03405674
19	0xbdc1c639	-0.09461636
20	0x3dbf43d1	0.09339107
21	0x3e00b2cf	0.1256821
22	0x3bda2bc7	0.0066580507
23	0x3db3d4a9	0.08780796
24	0x3e2dbfae	0.16967651
25	0xbdfa0121	-0.122072466
26	0x3db5b027	0.08871489
27	0xbdae4c7c	-0.08510682
28	0x3d7480d0	0.059693158
29	0x3e109580	0.1411953
30	0x3dac9753	0.084273
31	0x3d875144	0.06607297
32	0xbcf3d320	-0.029763758
33	0xbe230407	-0.15919505
34	0x3d3c246f	0.045933183
35	0xbe1827c0	-0.14858913
36	0x3e0cb717	0.13741718
37	0x3e09d233	0.13459091
38	0xba0143b8	-0.00049310504
39	0xbc1c052d	-0.009522718
40	0x3dae6ad9	0.08516473
41	0xbdc6a1f0	-0.09698856
42	0xbdb0dd5e	-0.086359724
43	0x3d9dc279	0.07703108
44	0x3d936070	0.07196128
45	0x3da1f781	0.07908536
46	0x3da114dc	0.07865307
47	0x3ddebf4e	0.10876332
48	0x3c2f1cae	0.01068799
49	0x3d881b00	0.06645775
50	0x39db63b2	0.00041845214
51	0x3d72aaf2	0.059245057
52	0x3e14535d	0.14484926
53	0x3dd46d57	0.103724174
54	0x3e26e25e	0.1629729
55	0x3e1a9837	0.15097128
56	0x3e38f781	0.18063165
57	0x3e27dcf9	0.16392888
58	0xbd887c40	-0.06664324
59	0xbdb49a3e	-0.08818482
60	0x3e0472ae	0.12934372
61	0x3cf5cf3b	0.030006042
62	0xbcf75cfc	-0.030195706
63	0x3e11230e	0.14173529
64	0x3e1e501a	0.15460244
65	0xbdd456c1	-0.103681095
66	0x3ad1a368	0.0015994133
67	0x3d764f41	0.060134176
68	0x3d4b3976	0.049615346
69	0x3e506941	0.20352651
70	0x3ddc471b	0.1075575
71	0xbd8e086e	-0.069352016
72	0x3e0bbfeb	0.1364743
73	0x3d21030c	0.039309546
74	0xbd140ea7	-0.036146786
75	0xbdc30e12	-0.09524168
76	0xbc44dff3	-0.012016284
77	0xbdf3ce53	-0.119045876
78	0xbd6dc196	-0.058045946
79	0x3d3cae1b	0.046064477
80	0x3d80d670	0.06290901
81	0xbc2ad589	-0.010426887
82	0xbd3ce92f	-0.04612082
83	0x3ce14824	0.02750022
84	0x3d56e27d	0.05246209
85	0xbe0cd083	-0.13751416
86	0x3d807beb	0.062736355
87	0x3cc88764	0.024478622
88	0xba545f38	-0.0008101347
89	0x3d90f4b9	0.07077927
90	0xbb8b8d1a	-0.004258764
91	0x3e1ddcff	0.15416335
92	0xbe0854a5	-0.1331354
93	0xbcbb8868	-0.022892192
94	0xbd68d347	-0.056842115
95	0xbcc9d7c3	-0.024639016
96	0x3e2470cd	0.16058655
97	0x3c329626	0.010900056
98	0x3d3b8c8a	0.045788325
99	0xbdfade63	-0.12249448
100	0xbe2768a1	-0.16348507
101	0x3e2a347f	0.16621588
102	0x3dfbf067	0.123017125
103	0x3e27c4b7	0.16383635
104	0xbe459d34	-0.1929825
105	0x3e316aa2	0.17325833
106	0x3a83a1c7	0.001004272
107	0xbdb7e63e	-0.08979462
108	0xbda4a0d5	-0.08038489
109	0x3cb7b0c6	0.02242316
110	0xbd48b1a2	-0.04899753
111	0x3e0b6dc4	0.13616091
112	0xbd9a07e3	-0.075210355
113	0xbd226350	-0.039645493
114	0x3d429ae4	0.047510996
115	0x3d03b00c	0.032150313
116	0x3d4cf05e	0.05003392
117	0xbdfafa14	-0.1225473
118	0xbd98cc22	-0.0746081
119	0x3ba21ac3	0.004947038
120	0x3d2434d1	0.040089432
121	0x3e01b369	0.12666096
122	0x3d80cb63	0.06288793
123	0xbe038704	-0.12844473
124	0x3d7f540c	0.062336013
125	0xbddc7e12	-0.107662335
126	0x3ddabb08	0.10680205
127	0x3cd9cfcc	0.026588343
128	0xbe0e6a22	-0.13907674
129	0xbe1e4300	-0.15455246
130	0xbe23e96b	-0.1600701
131	0x3e268350	0.16261029
132	0xbe17a00e	-0.1480715
133	0x3db02a2f	0.08601796
134	0x3cde0e06	0.027106296
135	0x3df7e490	0.12104142
136	0xbd8ddcf7	-0.06926911
137	0x3e35ac0d	0.17741413
138	0xbe1c4740	-0.15261555
139	0x3e1933f3	0.14961223
140	0xbdd53645	-0.10410742
141	0x3d933e07	0.07189565
142	0x3e28bc5d	0.16478105
143	0x3d250770	0.040290296
144	0x3d9f1bd3	0.07768979
145	0xbd055974	-0.032556012
146	0xbd984cef	-0.07436549
147	0x3caed6a8	0.02134259
148	0xbda62fa9	-0.08114559
149	0xbcb83b28	-0.022489145
150	0x3c1f6210	0.00972797
151	0x3e1cc441	0.1530924
152	0x3dbbd856	0.09172122
153	0xbe0ffc46	-0.14061078
154	0xbe0fb9d7	-0.14035736
155	0xbe052b0d	-0.13004704
156	0x3e0646c9	0.1311294
157	0x3ddc2976	0.107500955
158	0x3e268059	0.16259898
159	0xbab6403d	-0.0013904643
160	0x3e1b7d87	0.15184604
161	0xbda9a544	-0.08283475
162	0x3e2f148a	0.17097679
163	0x3c21debd	0.009879765
164	0x3e26337b	0.16230576
165	0x3d25d494	0.040485933
166	0xbe281cb1	-0.16417195
167	0x3d76e7a2	0.060279496
168	0xbc9a9c10	-0.018873245
169	0x3e1dc657	0.15407692
170	0xbdc04ab5	-0.09389249
171	0x3e0b8590	0.13625169
172	0x3dbce3fc	0.09223172
173	0xbd5e25dd	-0.054235328
174	0xbe18f2c6	-0.1493636
175	0x3b6a9346	0.0035793348
176	0xbd7bf15c	-0.061509475
177	0x3dcd6b1d	0.10030196
178	0x3c209f9c	0.009803679
179	0xbdd4245b	-0.10358497
180	0x3d8d05a1	0.06885839
181	0x3db34c7d	0.08754823
182	0x3e0a1876	0.13485894
183	0xbda677e6	-0.081283376
184	0x3dcfa20b	0.10138329
185	0x3cf3ebd8	0.029775545
186	0x3d9d8d76	0.07692997
187	0x3e2e8225	0.17041834
188	0x3e23db6f	0.16001676
189	0xbe04fce2	-0.12987092
190	0x3a301085	0.0006716329
191	0x398108d8	0.00024611386
192	0x3e0f1a5b	0.13974898
193	0xb9b5f200	-0.00034703314
194	0xbd83b6e0	-0.06431365
195	0x3ce29e8f	0.027663497
196	0xbd5713cd	-0.052509118
197	0xbd8d0d95	-0.06887356
198	0xbdd417a4	-0.103560716
199	0xbcd7ae29	-0.026328163
200	0x3dd2d1e2	0.10293938
201	0xbe166722	-0.1468778
202	0xbd927de3	-0.07152917
203	0xbd41721f	-0.047227975
204	0xbdab874c	-0.08375415
205	0x3d8e7213	0.06955352
206	0xbcd4b85e	-0.02596682
207	0xbd86ecbc	-0.06588122
208	0xbc950b7a	-0.018193949
209	0x3e01552f	0.12630151
210	0x3e0eb8d5	0.13937695
211	0x3d2f3190	0.042771876
212	0x3dbff520	0.09372926
213	0xbe0e7aeb	-0.13914077
214	0x3e61f7ab	0.22067134
215	0x3b36d740	0.0027899295
216	0x3e25585e	0.1614699
217	0x3dd789a0	0.10524297
218	0xbd19e1ac	-0.037568733
219	0x3d4cdf5a	0.050017692
220	0x3d23b93f	0.039971586
221	0x3ccc8a18	0.024968192
222	0x3e01a3bd	0.12660117
223	0x3e5019b6	0.20322308
224	0x3d3e98c2	0.0465324
225	0x3ca7e661	0.020495595
226	0x3e0e8a69	0.13919987
227	0x3e60b5d2	0.21944359
228	0xbd5a27b0	-0.053260505
229	0xbe2a39b3	-0.16623573
230	0x3e519768	0.20467913
231	0x3d80b5df	0.06284689
232	0x3def8fd6	0.116973564
233	0x3e22789f	0.15866326
234	0x3da7aba4	0.08187035
235	0x3e349d48	0.17638123
236	0xbc729bd6	-0.014807662
237	0x3dc99502	0.09842874
238	0x3e396e7b	0.18108551
239	0x3e1c211f	0.1524701
240	0x3d4993e1	0.049213294
241	0xbe1983fd	-0.14991756
242	0x3d037e66	0.032102965
243	0xbdbc2150	-0.09186041
244	0x3d1215e1	0.035665397
245	0x3d81fabc	0.06346652
246	0xbd0a8c85	-0.033825416
247	0x3e43c74b	0.19118993
248	0x3cc0c292	0.023530278
249	0xbe2beccf	-0.16789554
250	0xbcba9b61	-0.022779169
251	0x3c14b440	0.009076178
252	0x3e2bbe70	0.16771865
253	0x3bf08365	0.007339882
254	0x3e53faba	0.20701113
255	0x3d43a552	0.047765084

FC1.bias f4 [256]
0	0x3dd40a23	0.10353496
1	0x3da69ce8	0.08135396
2	0xbe1149f0	-0.14188361
3	0x3e1f2d4d	0.15544625
4	0xbe0e1a9b	-0.13877337
5	0x3e26861a	0.16262093
6	0x3de549a1	0.11195684
7	0xbda4c7b4	-0.08045903
8	0xbcdc7121	-0.026909413
9	0x3da81abd	0.08208225
10	0xbda9a5f0	-0.08283603
11	0x3da42e6a	0.08016665
12	0xbe05ed65	-0.1307884
13	0x3d82fbce	0.06395684
14	0xbdd1122a	-0.10208543
15	0x3e42fec7	0.19042502
16	0xbd692a36	-0.05692502
17	0x3d6dbf85	0.058043975
18	0x3deb86cb	0.11500319
19	0x3c8135d2	0.015772734
20	0xbc9a2d6b	-0.018820485
21	0x3e07832b	0.1323363
22	0xbdfef887	-0.124497466
23	0x3d7d9926	0.06191363
24	0x3b58ca72	0.0033079651
25	0xbe264c37	-0.16240011
26	0x3d6693ba	0.056293227
27	0xbd770940	-0.060311556
28	0xbcaf4884	-0.021396883
29	0x3e3217ca	0.17391887
30	0xbdfc7ca2	-0.12328459
31	0xbdb66675	-0.08906261
32	0x3d689368	0.056781203
33	0xbd9be2fb	-0.076116525
34	0x3e105e27	0.14098416
35	0xbe399b48	-0.18125641
36	0xbdc926e5	-0.09821872
37	0xbde56ca0	-0.11202359
38	0x3e403c79	0.18773068
39	0xbda1c5cb	-0.07899054
40	0xbd1f1ca3	-0.03884567
41	0xbde88a22	-0.11354472
42	0x3c996f04	0.018729694
43	0x3e0995cb	0.13436048
44	0x3d4cd608	0.050008804
45	0x3d0e110b	0.034684222
46	0x3e0a253c	0.13490766
47	0xbbd22ce5	-0.0064140433
48	0x3dbc2bcf	0.09188043
49	0xbde33bb0	-0.11095369
50	0x3dd0a986	0.10188584
51	0xbe119a6e	-0.14219067
52	0xbd93d430	-0.07218206
53	0x3c4018d0	0.011724666
54	0x3c97aea7	0.018515898
55	0xbe03cf69	-0.1287209
56	0x3e21b84f	0.15792964
57	0xbe0d3d2c	-0.13792866
58	0x3e0a7193	0.13519888
59	0x3e02a199	0.12756957
60	0xbd8cda59	-0.06877584
61	0x3dbedd48	0.0931955
62	0xbe14a07a	-0.14514342
63	0xbde51928	-0.11186439
64	0x3d611920	0.0549556
65	0xbdb99490	-0.09061539
66	0xbe080c18	-0.13285863
67	0x3e019f16	0.12658343
68	0xbe2f8e97	-0.17144237
69	0xbe2950ff	-0.16534804
70	0xbd215a77	-0.039392915
71	0x3db72e51	0.08944381
72	0xbd4b8d90	-0.04969555
73	0xbe111445	-0.14167888
74	0x3dcf3a5c	0.10118553
75	0x3b99552f	0.004679344
76	0xbca03c91	-0.01956013
77	0xbdc36982	-0.095416084
78	0xbe08d2d0	-0.13361669
79	0x3df4c452	0.11951508
80	0x3e111e60	0.14171743
81	0x3e00f119	0.12591971
82	0x3dac40e0	0.084108114
83	0x3e674bf5	0.22587569
84	0xbdeefd99	-0.11669464
85	0x3df98d8a	0.121851996
86	0xbb1ec0fe	-0.002422392
87	0x3dcb18de	0.099168524
88	0x3cb2f76b	0.021846494
89	0x3e313f48	0.17309296
90	0x3d0600ff	0.032715794
91	0xbe233e8b	-0.15941827
92	0x3c685558	0.014180504
93	0xbdcbb677	-0.09946912
94	0x3ddfce28	0.10927993
95	0xbd88e814	-0.066848904
96	0x3e27571c	0.16341823
97	0x3d9d3e87	0.07677942
98	0xbd8ee37b	-0.06976982
99	0xbdf3b693	-0.11900058
100	0x3e1ccae7	0.15311776
101	0x3d764c38	0.06013128
102	0xbda87395	-0.082251705
103	0x3d714930	0.058907688
104	0x3d4804b2	0.048832603
105	0xbda1e09e	-0.079041705
106	0xbb877a53	-0.004134455
107	0x3e411c32	0.18858412
108	0xbdc77e38	-0.09740871
109	0x3dcae17d	0.0990629
110	0xbdd97b60	-0.10619235
111	0x3e29f6a2	0.16597989
112	0x3ca64eeb	0.020301303
113	0xbd55f8e9	-0.052239332
114	0xbd97bb46	-0.074087664
115	0xbd7d0fb5	-0.061782558
116	0x3e1e9323	0.15485816
117	0x3b4e1997	0.0031448358
118	0xbd3271bb	-0.043565493
119	0xbda8f2b8	-0.0824942
120	0xbe0a95ec	-0.13533753
121	0xbe0770cb	-0.13226621
122	0x3da88228	0.0822795
123	0x3e12abc1	0.14323331
124	0x3def680e	0.11689769
125	0xbd99c656	-0.07508533
126	0x3d77e1b9	0.060518
127	0xbdd080e6	-0.101808354
128	0xbe1884dc	-0.14894432
129	0x3b0979c3	0.0020977117
130	0xbcd129c6	-0.025532614
131	0xbd5de019	-0.054168794
132	0x3e5153f2	0.20442179
133	0xbe38836a	-0.1801888
134	0x3d5747e0	0.05255878
135	0x3d9ae713	0.07563605
136	0x3df1a854	0.11799684
137	0xbdbaa133	-0.091127776
138	0x3dd81318	0.10550517
139	0xbcad4670	-0.021151751
140	0xbdd16704	-0.10224727
141	0xbdcf1cde	-0.10112928
142	0x3d9e7cab	0.07738622
143	0x3b9fb714	0.0048741195
144	0x3e08c7ae	0.13357422
145	0xbd256903	-0.04038335
146	0xbd131fdc	-0.035919055
147	0xbd89ba4f	-0.06724989
148	0x3e621d49	0.22081484
149	0xbd935cbe	-0.071954235
150	0x3e070b49	0.13187899
151	0x3e08f9e5	0.13376577
152	0xbd5545e4	-0.052068606
153	0x3c0c5540	0.008565247
154	0x3d9855b4	0.074382216
155	0x3dfc76d0	0.12327349
156	0xbdad42e5	-0.08460025
157	0xbd337503	-0.043812763
158	0x3d8cabff	0.06868743
159	0x3dafea9a	0.085896686
160	0xbd326503	-0.043553364
161	0xbddebfa8	-0.10876399
162	0x3df9f388	0.12204653
163	0x3e272774	0.16323644
164	0x3cf0b594	0.029383458
165	0x3c203d88	0.009780295
166	0x3dd26018	0.10272235
167	0xbdde5ec6	-0.1085792
168	0x3dc2dd93	0.09514918
169	0xbdf2f773	-0.118636034
170	0xbd90b67e	-0.070660576
171	0xbaf117cf	-0.0018393936
172	0x3d329b64	0.043605223
173	0x3d305a80	0.043055058
174	0x3bfe2de1	0.007756934
175	0x3e497af1	0.19675805
176	0xbcd18677	-0.025576813
177	0x3e13cc5e	0.14433429
178	0xbc88be09	-0.016692178
179	0x3cdfc968	0.027317718
180	0x3e50bc83	0.20384412
181	0xbd445281	-0.047930244
182	0xbd2a5faf	-0.041595157
183	0x3e1ca88e	0.15298674
184	0xbe0cb4ac	-0.13740796
185	0x3dd85731	0.105635054
186	0xbdf00da3	-0.11721351
187	0x3e17f839	0.14840783
188	0xbc47438d	-0.012162101
189	0xbe0f990b	-0.14023225
190	0xbd3cf79d	-0.04613458
191	0xbd9e0265	-0.077153005
192	0x3e01ab40	0.12662983
193	0xbd8cfbb0	-0.06883943
194	0xbdb814ea	-0.08988364
195	0xbd625d34	-0.055264667
196	0xbe0929a4	-0.13394791
197	0xbd801f94	-0.06256023
198	0xbdaa9460	-0.083290815
199	0xbe1f55f8	-0.15560138
200	0x3dff4bea	0.12465651
201	0xbd8a3191	-0.06747735
202	0xbc843df0	-0.016142815
203	0x3cd71078	0.02625297
204	0x3cc2c4a8	0.023775414
205	0x3c9f2be5	0.01943011
206	0x3e2ee971	0.17081238
207	0x3d79d090	0.060989916
208	0xbd939b5b	-0.07207366
209	0xbcc4cb7b	-0.024022808
210	0x3c63507c	0.013874169
211	0x3e0ebc22	0.13938954
212	0x3d7a7a73	0.061151933
213	0x3d559030	0.05213946
214	0xbca61d1a	-0.020277549
215	0x3c4b1b8e	0.012396706
216	0xbe1e3626	-0.15450343
217	0xbe0ef72a	-0.13961473
218	0xbcb41afc	-0.021985523
219	0x3bf53086	0.007482591
220	0x3ad61107	0.0016331979
221	0xbde6fb10	-0.11278355
222	0xbd041bbe	-0.03225302
223	0x3e2cfc41	0.16893102
224	0xbc9271c9	-0.017876523
225	0x3daf4a9d	0.08559153
226	0x3e4fcb2f	0.20292352
227	0xbdb9ab1c	-0.0906584
228	0x3d81fc21	0.06346918
229	0x3c578b01	0.0131557
230	0x3c2eb31e	0.010662822
231	0x3d8a1456	0.0674216
232	0xbd7a1266	-0.061052702
233	0x3d80146e	0.06253897
234	0xbccaca3a	-0.024754632
235	0x3d54ceb6	0.051954947
236	0x3d9c357c	0.07627389
237	0x3dcc718f	0.09982597
238	0x3e184633	0.14870529
239	0x3d44906c	0.047989294
240	0x3e30d8f8	0.17270267
241	0x3d96d2be	0.07364415
242	0x3da0a8e2	0.07844712
243	0x3e23ebfd	0.16007991
244	0x3de1b78c	0.11021337
245	0x3d8f7315	0.07004372
246	0x3cabf08d	0.020988727
247	0x3cbd695c	0.023121528
248	0x3e28668c	0.16445369
249	0x3d407682	0.046988018
250	0x3de942c9	0.113896914
251	0xbd4feb91	-0.050761763
252	0x3d486251	0.048921887
253	0xbd8b2ee5	-0.06796054
254	0x3dfbe9f1	0.1230048
255	0x3c5d28ec	0.013498526

FC2.weight f4 [256, 256]
0	0x3d283e7f	0.041075226
1	0x3d274b0d	0.04084306
2	0xbda80403	-0.0820389
3	0xbd68d31c	-0.056841955
4	0x3d634799	0.055488203
5	0x3d92c12a	0.07165749
6	0x3d6b1463	0.05739249
7	0x3d9793a5	0.07401208
8	0x3d99532a	0.074865654
9	0xbd6db8f8	-0.058037728
10	0x3c10627c	0.008812543
11	0xbd95d059	-0.0731513
12	0x3d61c939	0.05512354
13	0x3cf7f6b3	0.030269003
14	0x3d70c1e4	0.05877866
15	0x3db20449	0.086922236
16	0xbd953934	-0.07286301
17	0x3d39dfe7	0.045379546
18	0x3c65209a	0.013984824
19	0x3cb37fbf	0.0219115
20	0x3d17bb17	0.037043657
21	0x3cc200a9	0.023681955
22	0xbd193ce0	-0.03741157
23	0xbcc6390b	-0.024197122
24	0xbd8e45a6	-0.06946878
25	0xbd612091	-0.0549627
26	0x3dfe47ef	0.12416064
27	0x3d11a671	0.03555912
28	0x3d4284a5	0.04748978
29	0x3d202f46	0.039107583
30	0x3b9852c2	0.0046485374
31	0x3cba7ea7	0.02276547
32	0x3d5ff159	0.054673526
33	0xbd29ed03	-0.041485798
34	0xbd81dbe7	-0.06340771
35	0x3c82ee33	0.015982723
36	0xbd9f6548	-0.0778299
37	0x3cd46a54	0.025929607
38	0x3d59886f	0.05310863
39	0xbd7c748f	-0.061634596
40	0x3d333c6b	0.04375879
41	0xbc6f4fd3	-0.014606434
42	0xbc52b4e0	-0.012860507
43	0x3d846b2f	0.06465756
44	0x3c61e9ad	0.013788623
45	0xbbf6ac28	-0.007527847
46	0x3d41ef53	0.047347378
47	0x3c5f474a	0.0136278365
48	0x3dd7b2a1	0.10532118
49	0x3da97e21	0.0827601
50	0x3d7f6f74	0.06236215
51	0xbd94b6b8	-0.07261413
52	0xbd6d2548	-0.057896882
53	0xbd1acf2c	-0.03779523
54	0xbce853a0	-0.028360188
55	0x3ce86b28	0.028371409
56	0x3d0a63d1	0.0337866
57	0x3d87730e	0.06613742
58	0xbc91299d	-0.017720038
59	0xbd6050d8	-0.0547646
60	0xbd87d5d8	-0.06632584
61	0xbc2ab21d	-0.010418442
62	0x3c2349ff	0.0099663725
63	0xbd15e3c9	-0.036594186
64	0xbcc4b2de	-0.024011072
65	0x3bd09326	0.0063651977
66	0x3beda630	0.007252477
67	0xbd5a2e60	-0.053266883
68	0x3d043c20	0.032283902
69	0x3d1bfe5c	0.038084373
70	0xbd12e573	-0.03586335
71	0x3dba37aa	0.09092648
72	0x3cf62bab	0.03005012
73	0xbbd5467c	-0.0065086465
74	0xbb54864e	-0.0032428685
75	0xbd05e035	-0.032684524
76	0xbd30df5d	-0.043181766
77	0xbd008b5a	-0.031382896
78	0xbc1bfcc8	-0.009520717
79	0xbc9219f7	-0.017834647
80	0xbd7e3c69	-0.06206933
81	0xbbdf5a12	-0.006816157
82	0x3d65cfce	0.05610638
83	0x3d9997c8	0.07499653
84	0xbd62248e	-0.055210643
85	0xbd88447b	-0.066536866
86	0xbc976008	-0.018478408
87	0x3df328fb	0.11873051
88	0xbc4a4eb1	-0.012347863
89	0x3d8cb393	0.068701886
90	0xbdb53f5d	-0.08849976
91	0xbdbc20d2	-0.091859475
92	0x3d939435	0.072060026
93	0x3b0c7773	0.0021433502
94	0xbcfb6390	-0.030687124
95	0xbc9cbac1	-0.01913202
96	0x3ca6d593	0.020365512
97	0x3b0f3e1c	0.0021857088
98	0x3d06a158	0.032868713
99	0x3d476c35	0.04868718
100	0xbc467564	-0.012112949
101	0xbcdb233b	-0.026750198
102	0x3bc4f18e	0.006010241
103	0x3db3d1af	0.08780228
104	0xbd4dd855	-0.05025514
105	0x3db0885d	0.08619759
106	0x3dc49dd0	0.09600413
107	0x3d8736ae	0.06602226
108	0x3d035398	0.032062143
109	0xbd963a09	-0.07335288
110	0xbbfc1a10	-0.0076935366
111	0x3d372a8a	0.044718303
112	0x3e022334	0.12708741
113	0x3d0d676b	0.034522455
114	0xbd6c1a4d	-0.05764227
115	0x3cdf6359	0.027269052
116	0x3c79e7ec	0.015253048
117	0x3c1c7676	0.009549728
118	0xbbe355c3	-0.006937714
119	0xbd9ef544	-0.077616245
120	0xbcabda64	-0.02097816
121	0xbd875d57	-0.066096
122	0x3c9fa571	0.019488068
123	0x3d558c7c	0.05213593
124	0xbb4631e4	-0.003024214
125	0x3a90e1e1	0.0011053645
126	0x3d48c0d4	0.04901202
127	0xbb9903a0	-0.0046696216
128	0x3ce7dfe5	0.028305003
129	0x3d19ed75	0.037579972
130	0x3deb7fba	0.11498971
131	0x3de5ab86	0.11214356
132	0x3d1aa03c	0.037750468
133	0xbd9e24b0	-0.07721841
134	0xbc9678ce	-0.018368151
135	0x3d817ffe	0.06323241
136	0x3dd1bad3	0.10240712
137	0x3c6c501b	0.0144233955
138	0x3d461628	0.048360974
139	0x3b659eda	0.003503731
140	0x3d3782cb	0.04480247
141	0xbc993f33	-0.018706894
142	0x3d2ce4ee	0.042210512
143	0x3d1fcd05	0.03901388
144	0x3d9a638e	0.0753852
145	0x3cbe6504	0.023241527
146	0x3d697b10	0.057002127
147	0x3d7cac4f	0.061687764
148	0x3c3eb7bf	0.011640488
149	0x3c7f699c	0.015589144
150	0x3bccfe3b	0.0062558926
151	0x3c55ef0b	0.013057481
152	0x3dbbd5b9	0.09171624
153	0x3d673098	0.056442827
154	0xbd1f0ae3	-0.03882874
155	0x3cb80eed	0.022468055
156	0x3d211988	0.03933099
157	0x3d8f177c	0.06986901
158	0xbba92269	-0.0051615727
159	0x3ce272a1	0.02764255
160	0xbcfae1dd	-0.030625278
161	0xbbf3b5a0	-0.007437423
162	0x3d9b303b	0.075775586
163	0x3da6c98d	0.081439115
164	0x3d46a8a5	0.048500676
165	0x3d387207	0.04503062
166	0xbcae6556	-0.021288555
167	0xbc60da6f	-0.013723954
168	0xbd59ee92	-0.053206034
169	0x3d1e453c	0.038640246
170	0x3d2c8b56	0.04212507
171	0x3da038f1	0.07823361
172	0x3d6998ed	0.057030607
173	0xbcd2400e	-0.02566531
174	0x3d185be6	0.037197016
175	0x3ce8b14b	0.028404852
176	0x3d7a2af7	0.06107613
177	0x3bbc6df7	0.0057504135
178	0x3b3831bf	0.0028105823
179	0x3cb4c1fc	0.022065155
180	0x3d170aa2	0.036875375
181	0x3c515cd2	0.012778478
182	0x3bcd9e5f	0.006274983
183	0xbba98956	-0.0051738424
184	0xbd539323	-0.051653992
185	0x3d9fca06	0.07802205
186	0xbd4082c6	-0.046999715
187	0xbd881d15	-0.06646172
188	0x3d6f6d07	0.058453586
189	0x3d4d616a	0.05014173
190	0x3d98a7ae	0.07453857
191	0x3cbf3054	0.023338474
192	0x3d373139	0.044724677
193	0xbcbd8b97	-0.02313785
194	0xbcc5f490	-0.024164468
195	0x3dd2c24f	0.10290968
196	0xbc96dd2a	-0.018416006
197	0x3d06bee3	0.032896888
198	0xbdb635d8	-0.08896989
199	0xbd5fe929	-0.05466572
200	0x3db0ddba	0.08636041
201	0xbd4329c6	-0.04764726
202	0xbd7dac8a	-0.061932124
203	0x3b811c31	0.0039401283
204	0x3d941417	0.07230394
205	0x3d8262e0	0.06366515
206	0x3da75cbc	0.081719846
207	0x3dabdceb	0.08391746
208	0x3b6db3e6	0.0036270558
209	0xbc0e5e8d	-0.008689535
210	0x3dd6fa54	0.10496965
211	0x3d9f9919	0.07792873
212	0x3d6f99d9	0.05849633
213	0x3b8acf60	0.004236147
214	0xbb1c2a23	-0.0023828826
215	0xbbc20bb6	-0.005921806
216	0x3d3294d2	0.043598957
217	0x3c2c62a9	0.010521569
218	0xbd8e537c	-0.06949517
219	0x3db97c23	0.0905688
220	0x3d46eef5	0.04856773
221	0x3c79fb0c	0.015257608
222	0x3dcf39cb	0.10118445
223	0x3cf34024	0.02969367
224	0x3d9477f2	0.0724944
225	0xbcbcbd97	-0.023039622
226	0x3dbe1f29	0.09283287
227	0x3dde8495	0.10865132
228	0x3d6e2570	0.058141172
229	0x3ba031ca	0.004888748
230	0x3d2ca930	0.042153537
231	0x3c812de2	0.015768949
232	0x3c9382af	0.01800665
233	0x3d440614	0.04785736
234	0x3da010df	0.07815718
235	0xbc1f9f39	-0.0097425515
236	0xbcc78139	-0.02435361
237	0x3d4e53f5	0.050373036
238	0x3d3fa7be	0.04679083
239	0x3c3f0ed3	0.011661249
240	0x3bae7ad1	0.0053246995
241	0xbc087d3a	-0.008330638
242	0x3c478441	0.012177528
243	0x3b218e61	0.0024651515
244	0x3dc102d1	0.09424365
245	0xbd911b9d	-0.07085345
246	0xbda86c75	-0.082238115
247	0x3dc920b6	0.09820692
248	0xbcab0d9d	-0.020880515
249	0xbd0da440	-0.03458047
250	0x3cd4e8af	0.025989858
251	0x3dc6f3a5	0.0971444
252	0x3d914ea2	0.07095076
253	0x3ccb5520	0.024820864
254	0x3b1d5b9b	0.00240109
255	0xbc070333	-0.008240509

FC2.bias f4 [256]
0	0x3cb2e50f	0.02183774
1	0x3d398f87	0.045302894
2	0x3d03c578	0.032170743
3	0x3bddea90	0.006772347
4	0x3ca47df3	0.020079589
5	0x3cc33e90	0.023833543
6	0xbc8689f8	-0.01642321
7	0xbc9c4484	-0.01907564
8	0x3c3a54fb	0.0113728
9	0x3d27b042	0.040939577
10	0x3d221334	0.039569095
11	0xbc89ec66	-0.016836356
12	0xbbf44702	-0.007454754
13	0x3dc0bb3f	0.09410714
14	0xbcc14a61	-0.023595037
15	0xbcb8c3aa	-0.022554237
16	0x3d9bcc14	0.07607284
17	0xbcf693ad	-0.030099714
18	0xbd173ea0	-0.03692496
19	0xbcd235aa	-0.025660355
20	0xbc907ffd	-0.017639155
21	0x3d28b3f3	0.041187238
22	0x3a6d34b7	0.00090486876
23	0x3c885b5f	0.016645132
24	0xbd03216a	-0.032014288
25	0xbd50326e	-0.050829343
26	0xbd538c72	-0.05164761
27	0x3d4a8c2a	0.049450077
28	0xbc603a66	-0.013685798
29	0x3d7482d4	0.05969508
30	0x3d10cb5c	0.03535019
31	0x3a53306f	0.00080562284
32	0xbc722b9e	-0.014780907
33	0x3d258691	0.040411536
34	0xbd381aaa	-0.044947304
35	0x3d88c1aa	0.066775635
36	0xbd2d43c1	-0.042300943
37	0x3cac3b26	0.021024298
38	0xbd4614e0	-0.04835975
39	0xbc24d0f1	-0.010059581
40	0x3c9cb735	0.019130329
41	0x3d7a9e71	0.061186258
42	0xbcd15293	-0.02555207
43	0x3d5c0f49	0.053725515
44	0xbcfdacd5	-0.030966202
45	0xbd021676	-0.0317597
46	0xb975aaba	-0.00023428621
47	0xbcc6d8d3	-0.024273312
48	0xbd66d816	-0.05635842
49	0x3d460a2a	0.048349537
50	0x3b83a89b	0.004017902
51	0x3dd4aaf9	0.10384173
52	0x3db75181	0.089510925
53	0xbc86c992	-0.016453538
54	0xbd582ac8	-0.052775174
55	0x3d0122db	0.03152738
56	0xbcc0ed4f	-0.023550658
57	0xbc9cc46b	-0.019136628
58	0xbcbbc959	-0.022923158
59	0xbcb6e779	-0.022327172
60	0x3d470ea7	0.048597958
61	0x3d93357e	0.07187937
62	0xbcb320a0	-0.021866143
63	0x3d2089ea	0.039194025
64	0xbd473e1d	-0.04864322
65	0xbcb5d2c6	-0.022195231
66	0x3c0933ca	0.008374164
67	0x3c7e4e10	0.015521541
68	0x3d5ebaf4	0.05437751
69	0xbc925648	-0.017863408
70	0xbcc79134	-0.02436123
71	0xbd7fd461	-0.0624584
72	0x3cf74f90	0.030189306
73	0x3d6617db	0.056175094
74	0x3d00e197	0.03146514
75	0xbc4e8c8d	-0.012606752
76	0x3cda83c6	0.026674163
77	0xbd1ffcb4	-0.039059356
78	0x3d5c4972	0.05378098
79	0xbd762670	-0.06009525
80	0xbd01aa3c	-0.03165649
81	0xbc9fce40	-0.019507527
82	0x3c88ef11	0.016715558
83	0x3d41e0d0	0.04733354
84	0x3d1b8033	0.037964057
85	0x3cb53cff	0.022123812
86	0x3dc08cc8	0.09401852
87	0x3c2c3f35	0.010513117
88	0xbc312019	-0.010810875
89	0x3c39d9e1	0.01134345
90	0x3cf44464	0.029817767
91	0x3d0eb686	0.034842037
92	0x3d5f62ca	0.054537572
93	0xbc33d96c	-0.01097713
94	0x3c913acc	0.017728232
95	0x3de41f6b	0.11138805
96	0xbca56d99	-0.020193862
97	0xbcaf1180	-0.02137065
98	0x3bbb8da8	0.005723674
99	0xbd670bca	-0.056407727
100	0x3dc71eb7	0.09722655
101	0x3cf00cf7	0.029303057
102	0x3d9ad7d8	0.075607
103	0x3c9b7c64	0.018980213
104	0xbc00245e	-0.007821171
105	0xbbc39119	-0.0059682247
106	0xbd7637c8	-0.06011179
107	0xbd8a6511	-0.06757558
108	0x3cb6c54d	0.022310877
109	0xbc18b639	-0.009320789
110	0xbd78313f	-0.06059384
111	0x3d8e5220	0.06949258
112	0xbce7d59e	-0.028300103
113	0x3d41dde0	0.047330737
114	0xbd65698e	-0.056008868
115	0x3d00a56a	0.03140775
116	0x3d801a77	0.06255048
117	0x3da67634	0.08128014
118	0xba88de29	-0.0010442185
119	0x3d14991c	0.03627883
120	0x3adce108	0.0016851733
121	0xbd589223	-0.05287374
122	0xbc5173d7	-0.012783966
123	0x3b9eae91	0.0048425873
124	0xbd1c12fb	-0.03810404
125	0xbd4afc90	-0.04955727
126	0x3c58bd4b	0.013228725
127	0x3d24bd6b	0.040219706
128	0xbd0c1041	-0.03419519
129	0x3c94c176	0.018158656
130	0x3d5c4cd5	0.05378421
131	0x3bbe1282	0.005800546
132	0x3c1a1562	0.009404512
133	0x3cc6be72	0.024260733
134	0x3d4ae11c	0.049531087
135	0xbd312298	-0.04324588
136	0xbbcab8b4	-0.006186569
137	0x3d44dcd7	0.04806217
138	0xbd080421	-0.033207063
139	0xbc967142	-0.018364552
140	0xbd63f133	-0.055649947
141	0xbd8160a3	-0.0631726
142	0x3d1fe4bd	0.0390365
143	0xbc2eb397	-0.010662935
144	0x3d73dfe6	0.059539698
145	0x3d358143	0.044312727
146	0x3d983015	0.07431046
147	0x3d8edd9f	0.069758646
148	0x3c884817	0.016635938
149	0x3c0e1600	0.008672237
150	0xbd1d11c9	-0.03834704
151	0xbc62b076	-0.013836017
152	0x3d8740e5	0.066041745
153	0xbd1a9ad4	-0.03774531
154	0x3d8fa76a	0.070143536
155	0xbd3ffd08	-0.04687217
156	0xbcc1822b	-0.02362164
157	0x3cfa2b5a	0.03053825
158	0xbd2dbbc8	-0.04241541
159	0xbd36e773	-0.04465432
160	0xbcc813a5	-0.02442343
161	0x3c848396	0.016176026
162	0x3c4ebfab	0.012618939
163	0xbc395989	-0.011312851
164	0xbb5e65f8	-0.003393529
165	0x3c9777d6	0.01848976
166	0x3de36366	0.11102943
167	0xbd807b48	-0.06273514
168	0x3d3acf3b	0.045607787
169	0x3d0f5b36	0.034999095
170	0xbcd8cdb0	-0.026465267
171	0x3d9e9409	0.07743079
172	0x3d3647d7	0.044502106
173	0x3d8f51f1	0.06998051
174	0xbb309344	-0.0026943246
175	0xbd8b83aa	-0.06812222
176	0xbd6ebc43	-0.05828501
177	0xbd669506	-0.056294464
178	0xbcc84b2e	-0.024449911
179	0x3da36cff	0.07979774
180	0xbd5db0ed	-0.054123808
181	0xbd0e4b73	-0.034739923
182	0x3ce1061e	0.027468737
183	0x3d8dd84e	0.069260225
184	0x3d40b7bf	0.047050234
185	0xbd46d795	-0.04854544
186	0xbd850716	-0.06495492
187	0xbd46890d	-0.048470546
188	0x3d90dc7c	0.07073304
189	0x3d18e212	0.037324972
190	0xbd1907cc	-0.03736095
191	0xbd814bad	-0.06313262
192	0x3d939d3c	0.072077245
193	0x3d8a8707	0.06764036
194	0xbd1390a0	-0.036026597
195	0x3caebc43	0.021330005
196	0xbd7d5750	-0.061850846
197	0x3d6521e3	0.05594052
198	0x3d82c7a1	0.063857324
199	0x3c111d17	0.008857033
200	0x3c4ea10a	0.012611637
201	0x3cb501ef	0.022095649
202	0xbd0fd188	-0.035111934
203	0x3d0690ac	0.032852814
204	0xbd28afa2	-0.04118312
205	0x3b5d1bb6	0.003373844
206	0x3cd5ad6f	0.026083676
207	0x3c27508f	0.010212078
208	0xbcad0cc2	-0.021124247
209	0x3d8bdf88	0.068297446
210	0xbd9c403d	-0.0762944
211	0xbac9b7d3	-0.0015389867
212	0x3d47158b	0.04860453
213	0xbcd0bf26	-0.025481772
214	0x3c06229c	0.008186962
215	0xbc838fe6	-0.016059827
216	0x3d1113f3	0.035419416
217	0xbc50f312	-0.012753265
218	0x3cb6d06e	0.022316184
219	0x3cbbbc5b	0.022916963
220	0xbd3935f1	-0.04521746
221	0x3aea4ebf	0.0017876251
222	0x3b64d701	0.0034918191
223	0x3bd4d653	0.006495276
224	0x3cd2f72a	0.025752623
225	0x3cdc654f	0.026903776
226	0x3d031c15	0.032009203
227	0xbd9916f5	-0.07475082
228	0xbc8027ec	-0.015644036
229	0xbb9a7c16	-0.004714499
230	0xbd657df9	-0.05602834
231	0x3bc8961a	0.006121409
232	0x3d711ccd	0.058865357
233	0xbd2f35f3	-0.04277606
234	0xbb4d17de	-0.0031294744
235	0xbc3892a7	-0.011265433
236	0x3d7e3e1b	0.062070947
237	0x3c9b7dd2	0.018980894
238	0x3c86dbd5	0.016462246
239	0x3ba85ec2	0.005138249
240	0x3d22d734	0.039756015
241	0x3d256091	0.040375296
242	0xbd481830	-0.048851192
243	0xbd3ac2fd	-0.04559611
244	0x3d21e579	0.039525483
245	0x3cab9319	0.020944165
246	0xbd20d2d8	-0.039263576
247	0x3c82ac33	0.015951252
248	0x3c7a1edf	0.015266149
249	0x3d46d682	0.048544414
250	0xbd2b7b24	-0.041865483
251	0x3c9ac4dd	0.0188927
252	0x3d6c655f	0.057713863
253	0x3d04f380	0.032458782
254	0xbd6bce3d	-0.05756973
255	0x3c3fe979	0.011713379

action_out.weight f4 [5, 256]
0	0x3c224815	0.009904881
1	0xbcd9e539	-0.02659856
2	0xbbfc7b41	-0.0077051227
3	0xbd3c7d3a	-0.046017863
4	0xbca8074d	-0.020511294
5	0xbbbc93a7	-0.005754906
6	0x3cb381ad	0.02191242
7	0x3a784cf7	0.0009471918
8	0xbd16267a	-0.036657788
9	0x3d0a2ba4	0.033733025
10	0xbd5969f0	-0.053079545
11	0xbd778bcb	-0.06043605
12	0xbd43f38f	-0.047839697
13	0x3d2eda36	0.04268857
14	0xbd3bde04	-0.045866027
15	0x3c91a3bb	0.017778268
16	0x3bec5cac	0.007213196
17	0xbc90c780	-0.017673254
18	0x3d2cb082	0.04216052
19	0xbd0de732	-0.034644313
20	0xbc99a81a	-0.018756915
21	0xbd887e87	-0.06664758
22	0xbd182e23	-0.037153374
23	0x3c84df8d	0.016219879
24	0xbd5f6577	-0.054540124
25	0xbd36de9a	-0.044645883
26	0xbd0a556e	-0.03377288
27	0xbceadd1f	-0.028669892
28	0xbcbf1782	-0.02332664
29	0xbbfb9909	-0.0076781553
30	0xbd2998fc	-0.041405663
31	0xba9a1569	-0.0011755648
32	0x3d150dbb	0.036390048
33	0x3cfefd88	0.031126752
34	0xbcfeb84e	-0.031093743
35	0x3cd01efd	0.025405401
36	0xbd636fef	-0.05552667
37	0x3d015b0a	0.031580962
38	0xbc8252dd	-0.015908653
39	0xbc156a77	-0.0091196215
40	0xbd36fff3	-0.044677686
41	0xbd6f391d	-0.058404077
42	0x3d70a459	0.058750484
43	0xbd8fce71	-0.070217974
44	0xbd7820ff	-0.060578343
45	0xbc28d57c	-0.010304805
46	0x3ca98b45	0.020696292
47	0xbc3c5beb	-0.011496524
48	0x3cc3e3a6	0.023912262
49	0xbbc96171	-0.006145649
50	0x3c5c9c6e	0.01346503
51	0x3bf3b38e	0.007437176
52	0xbd82bd86	-0.06383805
53	0xbcb0706e	-0.021537986
54	0x3c1e6de2	0.009669753
55	0xbcb0ca38	-0.0215808
56	0xba582d98	-0.000824654
57	0xbd70c2f3	-0.058779668
58	0xbd5452c1	-0.051836733
59	0xbb0a8461	-0.0021136033
60	0xbd638d01	-0.055554394
61	0xbd8cd168	-0.068758786
62	0xbd2a547b	-0.041584473
63	0x3d08124d	0.033220578
64	0xbcc64844	-0.02420438
65	0x3cbe6736	0.023242574
66	0xbc933ce2	-0.017973367
67	0xbc459295	-0.012058874
68	0xbceaaddc	-0.028647356
69	0xbcafe81c	-0.021472983
70	0x3d0d38f3	0.03447814
71	0x3d55f2ea	0.052233614
72	0x3ce2fdc9	0.027708905
73	0xbc849a2d	-0.016186798
74	0xbcfe26f4	-0.031024434
75	0xbd253a35	-0.040338714
76	0x3d1825bc	0.03714536
77	0xbd08a467	-0.03335991
78	0x3c68847c	0.014191743
79	0x3cc67a09	0.024228113
80	0xbce3eb98	-0.0278223
81	0x3cacb8c8	0.021084204
82	0xbd188f37	-0.037245955
83	0x3c0a20cf	0.008430674
84	0xbd8a4d8e	-0.06753074
85	0xbd062a02	-0.032754906
86	0xbab39b8b	-0.0013702972
87	0xbd04fe1a	-0.032468893
88	0x3b9716a2	0.0046108523
89	0x3c17a6e0	0.009256095
90	0x3c6e6216	0.014549753
91	0xbc153d3f	-0.0091088405
92	0x3d44c6d7	0.04804119
93	0x3d56188a	0.052269496
94	0x3cc227ac	0.023700558
95	0xbd859f63	-0.06524541
96	0x3caff28a	0.021477956
97	0x3cfb2517	0.030657334
98	0xbbfeaeb5	-0.0077722915
99	0xbd7541ea	-0.059877314
100	0x3c59dee7	0.013297773
101	0x3c4d070d	0.012513888
102	0x3d20bae6	0.03924074
103	0xbd000dbd	-0.0312631
104	0x3cfff493	0.031244552
105	0xbc5f1f78	-0.013618343
106	0xbcc7d5c1	-0.024393918
107	0x3cfac3c5	0.030610928
108	0xbc3544b3	-0.011063742
109	0x3c323d42	0.010878863
110	0x3d5ae455	0.05344041
111	0xbda1de53	-0.07903733
112	0xbd7185e8	-0.058965594
113	0xbba5adac	-0.0050561037
114	0xbd3864cd	-0.045018006
115	0xbc975df4	-0.018477418
116	0xbd03a2f4	-0.032137826
117	0xbd8bede3	-0.06832483
118	0xbd51d993	-0.051232886
119	0x3cdf07ff	0.027225493
120	0xbdb5c1aa	-0.08874829
121	0xbd1de6ac	-0.038550064
122	0xbd33e09a	-0.04391537
123	0x3d2129b7	0.039346423
124	0x3c9847f7	0.018589003
125	0xbd847eb2	-0.06469478
126	0x3bf21f79	0.0073890057
127	0xbd35d11a	-0.044388868
128	0xbcf32a60	-0.029683292
129	0xbd6a8812	-0.057258673
130	0xbd8000f7	-0.06250184
131	0xbd450d20	-0.04810822
132	0xbd868f6f	-0.065703265
133	0x3d3ebab1	0.04656476
134	0xbd67cf7f	-0.056594368
135	0x3d0ae0fc	0.033905968
136	0x3c6c2e14	0.014415283
137	0x3c5c07a7	0.013429559
138	0x3d3281f7	0.043580975
139	0xbc207790	-0.009794131
140	0xbcf5033a	-0.029908765
141	0x3c6571f7	0.014004222
142	0xbd82b0e7	-0.06381398
143	0x3a5ccd49	0.0008422924
144	0xbd85f0dd	-0.06540082
145	0x3be55479	0.0069985953
146	0x3c21dc14	0.009879131
147	0xbcc717da	-0.024303365
148	0x3cbfb4bf	0.023401616
149	0xbb918cd7	-0.0044418382
150	0xbcb490df	-0.022041736
151	0xbd56869e	-0.052374475
152	0xbd89c4e0	-0.06727004
153	0x3d2e2340	0.042514086
154	0xbd825ba3	-0.063651346
155	0x3a714feb	0.0009205329
156	0xbd41ab9b	-0.047282796
157	0xbbff5403	-0.0077919974
158	0xbd83cc33	-0.06435432
159	0xbd6f0549	-0.05835465
160	0x3d03e602	0.032201774
161	0xbb74a1a3	-0.0037327788
162	0x3cc04eb5	0.02347503
163	0x3cded205	0.027199754
164	0x3ca18437	0.019716365
165	0x3cb05035	0.02152262
166	0xbb6a6925	-0.0035768237
167	0x3d1aeaa0	0.037821412
168	0x3d852c5b	0.06502601
169	0x3bd3ed8e	0.0064675277
170	0x3d3aff8d	0.04565387
171	0xbd65cbcb	-0.056102555
172	0x3d2655dc	0.040609226
173	0x3c26f122	0.0101893265
174	0xbd5a0002	-0.053222664
175	0xbd02c27f	-0.031923767
176	0x3d8b5bc6	0.06804614
177	0xbcfafff7	-0.030639632
178	0x3cbba244	0.022904523
179	0x3d2b42d9	0.041811798
180	0xbd5e2a69	-0.054239664
181	0x3cedb249	0.029015677
182	0x3d2dc62f	0.04242533
183	0x3c95ecf0	0.018301457
184	0xbd133a37	-0.03594419
185	0x3c0c0bf9	0.008547776
186	0xbc8fc116	-0.017548125
187	0xbc0ed46c	-0.0087176375
188	0x3cdcb264	0.026940532
189	0x3c9a1a5d	0.0188114
190	0xbd493cfa	-0.049130417
191	0x3d4b079e	0.04956781
192	0xbc7bf34e	-0.015377833
193	0x3c43a35d	0.011940804
194	0x3d6e088a	0.058113612
195	0x3c93e4e4	0.01805348
196	0x3d5db656	0.054128967
197	0x3d7fda00	0.06246376
198	0xbd7c74ee	-0.06163495
199	0x3d68f05b	0.056869846
200	0xbd4df9ab	-0.05028693
201	0x3d3eb2f8	0.046557397
202	0xbd341e35	-0.04397412
203	0x3c34794e	0.011015249
204	0xbd201d3c	-0.03909038
205	0xbd4a18fe	-0.04934024
206	0x3d4cff2d	0.050048042
207	0x3c444952	0.011980372
208	0xbd665ea5	-0.056242604
209	0xbd32721b	-0.04356585
210	0xbd33ccb4	-0.043896392
211	0xbd4ba707	-0.049719837
212	0xbc83c30e	-0.01608422
213	0x3c7879f1	0.015165792
214	0xbd7f07b5	-0.06226321
215	0xbd97457d	-0.07386301
216	0xbd908064	-0.070557386
217	0x3d27c474	0.040958837
218	0x3b402dd8	0.00293242
219	0xbd0c094c	-0.034188554
220	0x3d07b4fd	0.03313159
221	0x3d1448fc	0.036202416
222	0x3c9d32a1	0.01918918
223	0xbd2829d5	-0.04105552
224	0x3cdb7f10	0.026793987
225	0xbc5482a3	-0.012970599
226	0x3d3648cf	0.04450303
227	0x3b87cfad	0.00414463
228	0xbca99c1f	-0.020704327
229	0xbd87b681	-0.06626607
230	0x3d1a7c73	0.03771634
231	0xbd34f436	-0.04417821
232	0xbdb8fc23	-0.09032466
233	0xbbef126d	-0.0072958977
234	0xbc810feb	-0.01575466
235	0xbd1b6c60	-0.03794515
236	0x3d5e3848	0.054252893
237	0x3be2a6e4	0.0069168676
238	0xbd8fdf91	-0.07025064
239	0x3c433101	0.011913539
240	0xb8a97f52	-8.082263e-05
241	0xba74f634	-0.00093445485
242	0xbd7f4bf7	-0.062328305
243	0xbdcb9c46	-0.09941916
244	0xb9d04366	-0.00039723067
245	0x3d550744	0.052008882
246	0xbd4c5ca2	-0.04989303
247	0x3d2e1e95	0.042509634
248	0x3cc8c824	0.024509497
249	0xbcfa3165	-0.030541131
250	0xbd9af990	-0.075671315
251	0xbd54bb5e	-0.0519365
252	0xbcfe9178	-0.031075224
253	0xbb524c49	-0.0032088927
254	0xbc5ccb84	-0.013476256
255	0xbd050124	-0.03247179

action_out.bias f4 [5]
0	0xbc861a0c	-0.016369842
1	0xbd482cab	-0.048870724
2	0x3da3886f	0.07985007
3	0xbd393564	-0.045216933
4	0x3cd62d1b	0.026144555

weight f4 [256, 123]
0	0x3cde313c	0.027123086
1	0xbd8bc221	-0.068241365
2	0xbd7ba722	-0.061438687
3	0xbc1de833	-0.00963788
4	0x3bb32545	0.0054670894
5	0x3d39812a	0.045289196
6	0xbd9ea9d0	-0.07747233
7	0x3da7de07	0.08196645
8	0x3d89aa93	0.067219876
9	0x3d005aa8	0.031336457
10	0x3c050b88	0.008120425
11	0xbd99ae33	-0.07503929
12	0x3cd0e6d8	0.0255007
13	0xbd1c3000	-0.038131714
14	0x3d0c34b4	0.03422995
15	0xbd9d6c3d	-0.076866604
16	0x3d7435de	0.059621684
17	0xbced51ce	-0.028969672
18	0xbd773ab3	-0.060358714
19	0xbd52fe9f	-0.051512357
20	0x3d217521	0.039418343
21	0xbc945808	-0.018108383
22	0x3d9a67b3	0.0753931
23	0x3ca98e5d	0.020697767
24	0xbda5c875	-0.08094875
25	0x3dd0d566	0.101969525
26	0xbdd80746	-0.10548262
27	0xbd1ca941	-0.03824735
28	0xbab09c40	-0.00134743
29	0x3dc47cc5	0.095941104
30	0xbbeb65ae	-0.007183752
31	0x3da3ac5e	0.07991861
32	0xbdbe1187	-0.09280687
33	0xbd742280	-0.059603214
34	0xbd235a81	-0.039881233
35	0xbd806cab	-0.06270727
36	0x3d7e6b0d	0.06211381
37	0x3d68fe74	0.05688329
38	0x3d24b786	0.040214084
39	0x3db45547	0.08805328
40	0xbd3a8b84	-0.04554321
41	0x3d04d9ac	0.03243415
42	0x3d9e2e4d	0.07723675
43	0xbd5f6715	-0.054541666
44	0xbda9e011	-0.082946904
45	0xbd813aab	-0.06310018
46	0x3d6e950f	0.058247622
47	0x3dabc08a	0.08386333
48	0x3d480732	0.048834987
49	0x3d358e0e	0.044324927
50	0xbdae7681	-0.085186966
51	0xbc7ab2a2	-0.015301378
52	0x3d7ec7e4	0.06220235
53	0x3d84243f	0.06452226
54	0xbd91966a	-0.07108767
55	0xbd5564f9	-0.05209825
56	0x3d54f601	0.05199242
57	0xba453000	-0.0007522106
58	0x3dae0d6d	0.084986545
59	0xbd32842f	-0.04358309
60	0x3af7a614	0.00188941
61	0xbd913bee	-0.07091509
62	0xbc7c4a92	-0.015398638
63	0x3d87d934	0.06633225
64	0xba300e8d	-0.00067160354
65	0x3cc45fc9	0.023971455
66	0xbd90e450	-0.07074797
67	0x3bc14cb9	0.0058990386
68	0x3cfbe088	0.030746713
69	0xbd4b6aa8	-0.049662262
70	0xbc9c11d8	-0.019051477
71	0x3bb0d3f0	0.0053963587
72	0x3d9baedc	0.07601711
73	0x3d06afef	0.032882627
74	0xbcdfef4d	-0.027335787
75	0x3d212f00	0.039351463
76	0xbd54e5a5	-0.05197682
77	0xbd9b85d3	-0.07593884
78	0xbd0f351c	-0.03496276
79	0x3da4428c	0.08020505
80	0x3d6e9059	0.05824313
81	0xbcf45125	-0.029823849
82	0xba0db5b1	-0.0005405797
83	0xbd21af88	-0.03947404
84	0x3d67446a	0.05646173
85	0x3bd7a260	0.006580636
86	0xbdc4f02b	-0.09616121
87	0xbd2c62ec	-0.042086527
88	0xbd5c81e1	-0.0538348
89	0x3b70b473	0.003672865
90	0x3d82244c	0.06354579
91	0x3db26d3c	0.08712241
92	0xbc40015b	-0.011719073
93	0xbce221fc	-0.027604096
94	0xbb9212a9	-0.004457791
95	0xbdadc469	-0.08484728
96	0xbbb9654c	-0.0056578275
97	0x3d9c167f	0.07621478
98	0xbd930927	-0.0717948
99	0x3bcdb954	0.0062781963
100	0xbdb2dd78	-0.08733648
101	0x3e33f124	0.17572457
102	0x3b8d7740	0.004317194
103	0x3d37ec3a	0.044903018
104	0xbc452a28	-0.012033977
105	0x3ca6f84c	0.020382069
106	0x3d5fb86f	0.05461925
107	0x3ba74e60	0.0051057786
108	0x3c621779	0.013799542
109	0x3d930c4e	0.07180081
110	0xbda6b2df	-0.08139586
111	0xbd827f55	-0.06371943
112	0xbcf01833	-0.029308414
113	0x3bc30eea	0.0059527056
114	0xbcecd003	-0.028907781
115	0xbd940976	-0.07228367
116	0xbd91ebba	-0.071250394
117	0xbd8bab8d	-0.0681983
118	0x3e04a3e8	0.1295315
119	0x3db29683	0.08720114
120	0x3cbfea71	0.02342722
121	0xbc80c04d	-0.015716696
122	0x3b9eb7ec	0.0048437025
123	0x3c38f840	0.011289656
124	0xbcb44165	-0.022003839
125	0xbd2bb246	-0.04191806
126	0x3d615491	0.05501229
127	0x3d7ccc57	0.06171831
128	0xbd2030c8	-0.03910902
129	0xbccfa4f0	-0.025347203
130	0x3db216a5	0.08695725
131	0x3dacebb8	0.08443397
132	0x3d942321	0.07233263
133	0xbccb2600	-0.024798393
134	0x3cb95d90	0.022627622
135	0x3da7827b	0.08179184
136	0xbd44418d	-0.047914077
137	0x3d68d490	0.05684334
138	0x3da4d40f	0.080482595
139	0xb9cf239e	-0.00039508654
140	0xbce3a94a	-0.027790684
141	0xbadc72aa	-0.001681884
142	0x3da01b07	0.07817655
143	0x3d71d6f3	0.059042882
144	0xbd67a211	-0.056551043
145	0x3d7adfeb	0.0612487
146	0xbd6b8602	-0.057500847
147	0x3d1ebb9e	0.038753144
148	0x3c9d7bb1	0.01922402
149	0xbda1d3c8	-0.07901722
150	0x3d9ce2d1	0.07660449
151	0xbdcaadec	-0.09896454
152	0x3d5216cf	0.051291283
153	0xbd1667b5	-0.036719996
154	0x3c5eb746	0.0135935005
155	0xbd5ad21d	-0.053423036
156	0xbcc1432c	-0.0235916
157	0xbd3687c1	-0.04456306
158	0x3c33cf68	0.0109747425
159	0xbbe7f5d8	-0.0070788674
160	0xbda09441	-0.07840777
161	0x3d88cb53	0.06679406
162	0xbdba4382	-0.09094907
163	0xbd9455e3	-0.07242944
164	0x3da33407	0.07968908
165	0x3da58d45	0.08083586
166	0x3d014df9	0.0315685
167	0x3b97206a	0.0046120184
168	0x3c3b8e4e	0.011447502
169	0xbc4db9c3	-0.012556496
170	0x3d635614	0.055502012
171	0x3d14d97f	0.036340233
172	0x39e6da00	0.0004403144
173	0x3d853438	0.065041006
174	0xbdb484d5	-0.08814398
175	0xbd645c67	-0.055752184
176	0xbd5f5bda	-0.054530956
177	0x3d0756a4	0.03304161
178	0x3d9e26a5	0.077222146
179	0x3d24f32d	0.040270973
180	0xbd95476b	-0.072890125
181	0x3d6e543d	0.058185805
182	0x3c91e060	0.017807186
183	0x3d8250f4	0.06363097
184	0xbd7114f2	-0.058857866
185	0xbdbec3bc	-0.09314677
186	0x3c763f10	0.015029684
187	0x3d047c20	0.032344937
188	0xbe12a4a3	-0.14320616
189	0xbce81696	-0.028331082
190	0x3d73c6a1	0.0595156
191	0x3c9218a0	0.017834008
192	0x3d83df63	0.06439092
193	0x3d87cff9	0.066314645
194	0xbc658b58	-0.014010273
195	0x3d9ff62f	0.07810628
196	0x3db1b3d9	0.08676881
197	0xbd6ef453	-0.058338474
198	0xbbfdbf55	-0.007743756
199	0x3db10b2e	0.086447105
200	0x3d9a2e2d	0.075283386
201	0x3c8e8d74	0.017401434
202	0x3d18a564	0.037267104
203	0x3d697e0d	0.057004977
204	0xbd82b8df	-0.063829176
205	0x3d9b289d	0.07576106
206	0x3d34e040	0.044159174
207	0xbca1efcd	-0.019767666
208	0x3d651f4a	0.055938043
209	0xbbc42f7a	-0.005987105
210	0xbd923c34	-0.07140389
211	0x3b234890	0.0024915077
212	0x3d071fe2	0.03298939
213	0x3db05797	0.086104564
214	0x3d4cc0d8	0.049988598
215	0xbd7a4b10	-0.06110674
216	0xbd29506e	-0.04133647
217	0xbbf0f868	-0.007353831
218	0xbb58644e	-0.003301877
219	0xbd3049db	-0.043039184
220	0xbd49af68	-0.049239546
221	0xbdab9091	-0.08377183
222	0x3b919484	0.0044427533
223	0xbd522728	-0.051306874
224	0x3d0a026b	0.033693712
225	0xbc166c02	-0.0091810245
226	0xbd4638f1	-0.048394147
227	0xbd66aecf	-0.056319054
228	0x3da6c063	0.081421636
229	0x3d9eb82f	0.07749974
230	0xbd832619	-0.06403751
231	0xbd81e903	-0.063432716
232	0x3d2c9f0e	0.042143874
233	0x3cf04dcb	0.02933397
234	0x3d24c124	0.040223256
235	0x3bc3eaca	0.005978917
236	0xbd566603	-0.05234338
237	0xbcc3d57e	-0.023905512
238	0x3ce98c7b	0.02850937
239	0xbc9e8021	-0.019348206
240	0x3d7cac32	0.061687656
241	0x3d363db9	0.044492457
242	0xbca3c5ab	-0.019991716
243	0xbcf77b10	-0.030210048
244	0xbcfcf230	-0.030877203
245	0x3c8b98fd	0.017040724
246	0x3cef6943	0.029224997
247	0x3cdf3907	0.027248872
248	0xbd089a25	-0.03335013
249	0x3ced714f	0.028984694
250	0xbd08508b	-0.033279937
251	0x3c82936c	0.015939437
252	0x3d96dd01	0.07366372
253	0x3d9f2ff7	0.077728204
254	0x3ca0d0d6	0.01963083
255	0xbd970af8	-0.07375139

bias f4 [256]
0	0x3cd92597	0.026507182
1	0x3c58a404	0.013222698
2	0x3c830fd5	0.01599876
3	0xbdb1fae0	-0.08690429
4	0x3d453a48	0.048151284
5	0xbda83569	-0.08213312
6	0xbd798743	-0.06092001
7	0x3d5d18a5	0.05397858
8	0xbc94b3d1	-0.01815215
9	0xbdae9620	-0.08524728
10	0x3c9baae1	0.01900238
11	0x3ba60905	0.005066993
12	0x3d7bf6de	0.061514728
13	0x3c842b6f	0.016133992
14	0x3d0ffe83	0.03515483
15	0x3d81638a	0.06317814
16	0x3ce6e963	0.02818746
17	0x3d90d44b	0.07071742
18	0x3cdfa68d	0.027301097
19	0x3d47da4e	0.048792176
20	0x3d70f5ea	0.058828272
21	0xbdbe56c9	-0.09293897
22	0x3cb7f9f8	0.022458062
23	0xbd90d363	-0.07071569
24	0xbdae7748	-0.08518845
25	0x3d40517a	0.046952702
26	0x3be4c626	0.006981629
27	0xbda3f1dc	-0.080051154
28	0x3d9fc585	0.07801346
29	0x3c7f6667	0.015588379
30	0x3c3afe68	0.011413194
31	0xbb96fbef	-0.0046076695
32	0xbd2fb311	-0.04289538
33	0xbd9489ef	-0.07252871
34	0xbd3aea96	-0.045633875
35	0x3d8c97e2	0.06864907
36	0x3c58a06d	0.013221842
37	0xbd9e8325	-0.077398576
38	0x3d8e304d	0.069428064
39	0xbb8f0d16	-0.0043655736
40	0x3d3ce124	0.04611315
41	0xbbeed323	-0.007288353
42	0xbdb49b87	-0.08818727
43	0xbdbd1322	-0.09232165
44	0xbb902587	-0.004399005
45	0x3cf8b61c	0.030360274
46	0x3d9b20f8	0.07574648
47	0x3ce5c29d	0.0280469
48	0xbd730bd6	-0.05933746
49	0x3d681905	0.056664485
50	0xbd8646a3	-0.06556442
51	0x3d822214	0.06354156
52	0x3bcee6bc	0.006314127
53	0x3ced3fe8	0.028961137
54	0x3cf1a764	0.029498763
55	0x3d94ae3f	0.07259797
56	0x3c9fd204	0.019509323
57	0xbd67b03c	-0.056564555
58	0xbc942088	-0.018081918
59	0xbdbcc81d	-0.09217856
60	0x3c933bf8	0.017972931
61	0xbc7f3b3c	-0.015578087
62	0x3da2cf1f	0.079496615
63	0xbdb25b44	-0.08708814
64	0x3daa89e9	0.083270855
65	0xbc69ee7f	-0.014278053
66	0xbd84df91	-0.064879544
67	0xbd9a2cfc	-0.07528111
68	0xbd0ceac2	-0.03440357
69	0xbd05d6b9	-0.03267548
70	0x3d3cf444	0.046131387
71	0xbc4b47fe	-0.012407301
72	0xbdb95a79	-0.090504594
73	0x3c9785a5	0.018496344
74	0x3d5a701f	0.053329583
75	0xbdb57774	-0.088606745
76	0xbd58ad52	-0.052899666
77	0xbd36d35e	-0.04463517
78	0x3c874a0f	0.016514806
79	0x3d33e49f	0.043919202
80	0xbd8c6201	-0.0685463
81	0x3cc01a8a	0.023450155
82	0x3d84484a	0.064591005
83	0xbbf019a0	-0.0073272735
84	0x3da38a59	0.07985372
85	0x3cc1789b	0.02361708
86	0x3d035519	0.032063577
87	0x3b4ccaaa	0.0031248727
88	0x3d1d4175	0.038392503
89	0xbd8e2213	-0.06940093
90	0xbd2e6139	-0.042573188
91	0x3cd4a44e	0.025957253
92	0x3b944b3b	0.0045255697
93	0x3d751224	0.059831753
94	0x3d72891a	0.05921278
95	0xbd173707	-0.036917713
96	0xbd80bfcd	-0.06286583
97	0x3be76298	0.007061314
98	0x3cbe2b9b	0.023214152
99	0xbcacc516	-0.021090072
100	0xbc46132b	-0.012089531
101	0xbd9ced4f	-0.076624505
102	0xbcdfe173	-0.027329182
103	0x3d6b19f7	0.05739781
104	0xbd9453eb	-0.072425686
105	0x3d2df089	0.04246572
106	0xbce18bb0	-0.027532429
107	0xbcf48a97	-0.029851241
108	0x3d09d77a	0.03365276
109	0xbdca1b18	-0.09868449
110	0xbdcec0a4	-0.10095337
111	0xbdab0f32	-0.08352508
112	0x3d7448ef	0.059639867
113	0x3d88e333	0.0668396
114	0x3aa8b8a8	0.0012872415
115	0x3d6c1530	0.057637393
116	0x3d865685	0.06559471
117	0xbdb8a15a	-0.0901515
118	0x3d7f171e	0.062277906
119	0xbd5fc085	-0.05462696
120	0xbdb2b625	-0.087261476
121	0x3dc1ad19	0.09456844
122	0x3d988c2a	0.07448609
123	0x3d3a4243	0.04547335
124	0x3d9be878	0.07612699
125	0x3cd3f613	0.025874173
126	0x3c9ef14a	0.019402165
127	0x3d6beae2	0.05759705
128	0x3b98ea8f	0.0046666334
129	0x3b2c519b	0.0026293758
130	0xbdab12b9	-0.083531804
131	0x3d00f3a3	0.03148235
132	0xbd15cb5f	-0.036570903
133	0x3da40405	0.08008579
134	0x3cb637c4	0.022243388
135	0xbc3cb72d	-0.011518282
136	0xbcfef8dc	-0.031124525
137	0xbd01c722	-0.03168405
138	0x3d598478	0.053104848
139	0x3ca0ab3c	0.0196129
140	0x3d8feeff	0.07028007
141	0xbda156e7	-0.078779034
142	0xbd46ecdd	-0.048565734
143	0x3caa993a	0.020825017
144	0xbd9cf346	-0.07663588
145	0xbd73b10a	-0.05949501
146	0x3d4bf116	0.049790464
147	0x3d7f6e71	0.062361185
148	0xbd48699f	-0.048928853
149	0x3c9eed46	0.01940025
150	0x3caad022	0.020851199
151	0x3c571279	0.013126963
152	0x3d355b1a	0.044276334
153	0x3d9ce9ea	0.07661803
154	0x3d97c99e	0.07411502
155	0x3da9e6e9	0.08295996
156	0xbbcc9126	-0.006242889
157	0xbcda7e45	-0.026671538
158	0x3b21d8ce	0.0024695876
159	0xbd970a06	-0.07374959
160	0xbd04f403	-0.03245927
161	0xbc85a0ba	-0.016311992
162	0xbc2cf250	-0.010555819
163	0xbd5ef669	-0.054434214
164	0x3cb4a1ba	0.022049773
165	0xbdbbbf3b	-0.09167334
166	0x3b2111db	0.0024577293
167	0x3da23e7f	0.079220764
168	0xbd301c74	-0.042995885
169	0x3d8744c5	0.066049136
170	0xbceadcc9	-0.028669732
171	0xbbded536	-0.006800319
172	0x3d1c1955	0.038110096
173	0xbdab5b73	-0.08367052
174	0xbc439bb3	-0.011938977
175	0x3d3d06bb	0.046148997
176	0x3d5bba63	0.05364455
177	0xbd8327db	-0.06404086
178	0x3d70799a	0.05870972
179	0x3b8c93c5	0.0042900764
180	0xbcbdbf47	-0.023162497
181	0x3cfda7d6	0.03096382
182	0xbd27a784	-0.04093124
183	0x3d42f7a1	0.04759944
184	0x3da1a305	0.07892422
185	0x3ce94af6	0.028478127
186	0xbdbd410d	-0.09240923
187	0xbceeceb6	-0.029151302
188	0xbba1bace	-0.004935599
189	0xbc757569	-0.014981606
190	0x3d11fbc0	0.035640478
191	0xbcf27056	-0.029594582
192	0xbd830f6b	-0.06399425
193	0xbc8e02d7	-0.017335339
194	0xbcff0c09	-0.031133668
195	0x3d6b6b87	0.057475593
196	0xbca6194d	-0.020275736
197	0x3cef91c7	0.029244317
198	0x3d5dbf28	0.05413738
199	0xbd93055c	-0.071787566
200	0xbd66d491	-0.056355063
201	0xbd2aab9f	-0.041667577
202	0xbd27882b	-0.040901344
203	0xbda6f400	-0.08152008
204	0x3da948fb	0.08265873
205	0x3d6e9ea8	0.058256775
206	0xbd9b453e	-0.07581566
207	0xbd783dc8	-0.060605794
208	0xbda17b96	-0.078849
209	0xbcf5da0e	-0.030011203
210	0xbdbf494f	-0.093401544
211	0x3d45d923	0.04830278
212	0x3d04400b	0.03228764
213	0x3c8930b5	0.016746858
214	0xbc4eaf66	-0.01261506
215	0x3d553fcd	0.0520628
216	0xbc73d2b4	-0.0148817785
217	0x3d740b81	0.059581283
218	0xbd63590a	-0.055504836
219	0xbd6e83b7	-0.05823108
220	0xbc80f0f6	-0.0157399
221	0xbd2b981d	-0.041893113
222	0x3c93fc24	0.018064566
223	0x3d3b6684	0.045752063
224	0xbd9ce02a	-0.076599434
225	0x3d3372da	0.043810703
226	0xbceff802	-0.029293064
227	0xbd23df74	-0.040008023
228	0x3c56b16b	0.013103823
229	0xbd907b01	-0.07054711
230	0xbd2a57a1	-0.041587476
231	0xbd5ce9c7	-0.053933885
232	0x3d16440a	0.03668598
233	0x3db5769a	0.08860512
234	0xbb0b16fe	-0.0021223421
235	0xbc99ca92	-0.01877335
236	0x3c81be9c	0.01583796
237	0xbdb1163c	-0.08646819
238	0x3d987dff	0.07445907
239	0x3d842302	0.0645199
240	0xbd82c819	-0.06385822
241	0xbc805613	-0.015666043
242	0x3d1d55c4	0.03841187
243	0xbdc22998	-0.0948059
244	0xbd33e83b	-0.043922644
245	0x3c121961	0.008917184
246	0xbd951832	-0.072800055
247	0x3d86cc31	0.06581915
248	0x3d880637	0.066418104
249	0xbd2efee1	-0.04272354
250	0x3d24299e	0.04007875
251	0xbd9bff7c	-0.07617089
252	0xbb16611f	-0.0022946072
253	0xbd40ca12	-0.04706771
254	0x3d904b0d	0.07045565
255	0xbc06751e	-0.008206634
