src/saved_models/grid_world_seed125_8_6_19_55/125_23_model.pt (torch, 702727 bytes, 11 tensors)

FC1.weight f4 [256, 36]
0	0xbe64cd61	-0.22343971
1	0x3e04f39c	0.12983555
2	0x3e18dbde	0.14927623
3	0x3d5471c5	0.05186631
4	0x3dc5a9b5	0.0965151
5	0xbdfe6239	-0.12421078
6	0x3de31d3a	0.11089559
7	0x3e4cae2c	0.19988316
8	0xbde6b42c	-0.11264834
9	0x3d022f90	0.03178364
10	0xbd91a84e	-0.0711218
11	0x3d9f4670	0.07777107
12	0x3d0dbbd4	0.034602955
13	0xbdefa432	-0.1170124
14	0x3d5dd78f	0.05416065
15	0x3d81998a	0.063281134
16	0xbdec933f	-0.115515225
17	0xbcd1ca83	-0.02560926
18	0x3da85f35	0.08221284
19	0x3e0fbe2b	0.14037387
20	0xbdd83139	-0.105562635
21	0xbe4dc60b	-0.20095079
22	0xbd2dd2eb	-0.042437475
23	0x3d25e5b8	0.04050228
24	0x3e43902c	0.19097966
25	0xbc378dcd	-0.011203242
26	0x3da23a98	0.07921332
27	0x3d48c567	0.049016383
28	0xbd9fbf9b	-0.07800218
29	0x3d77b9f5	0.060480077
30	0xbcb485a7	-0.022036387
31	0xbd17eda1	-0.037091855
32	0xbd57feb0	-0.052733123
33	0x3d43f3d2	0.047839947
34	0xbd9d39e6	-0.07677059
35	0xbda662d3	-0.08124318
36	0xbe46ba93	-0.1940711
37	0x3e004237	0.12525259
38	0x3ceec67c	0.02914738
39	0x3dbdd17d	0.09268472
40	0x3e135475	0.14387687
41	0x3d797ed5	0.060911972
42	0x3e0297a0	0.12753153
43	0x3dfe8030	0.124267936
44	0x3d68efa0	0.05686915
45	0xbdec3519	-0.11533565
46	0x3dc6200e	0.09674083
47	0xbd67ebc2	-0.05662132
48	0xbdb5e949	-0.08882386
49	0x3d8efc44	0.069817096
50	0x3db50337	0.08838504
51	0xbdbb2afd	-0.09139059
52	0x3d896645	0.067089595
53	0x3c91849d	0.01776343
54	0x3da9a9a6	0.08284311
55	0xbd393fe1	-0.045226935
56	0x3d576066	0.052582167
57	0xbcc4c086	-0.024017584
58	0xbe132090	-0.1436789
59	0x3e5c4fbd	0.21514793
60	0x3cf89663	0.030345147
61	0xbdfbc7c7	-0.12293964
62	0xbd9dc975	-0.077044405
63	0x3dfc62c4	0.123235255
64	0x3daace42	0.08340122
65	0x3e0a36d4	0.13497478
66	0x3a4a73e7	0.0007722959
67	0x3dd3a4c9	0.10334165
68	0xbe0a40ed	-0.1350133
69	0xbd913332	-0.07089843
70	0x3d5abab2	0.053400703
71	0x3d4d3bc4	0.050105825
72	0x3e2d4515	0.16920884
73	0xbd419bc4	-0.04726769
74	0x3ba8af3c	0.0051478427
75	0xbdf71d6d	-0.120661594
76	0xbdd47e14	-0.1037561
77	0xbcae894c	-0.021305703
78	0x3e449d33	0.19200592
79	0xbcb02447	-0.021501673
80	0x3dcd59cd	0.10026894
81	0x3d44b6ec	0.04802601
82	0xbb9fc425	-0.004875677
83	0xbdc8cf5a	-0.09805174
84	0x3dda5fe5	0.10662822
85	0x3df3b969	0.119005986
86	0xbd0319d8	-0.03200707
87	0x3dd7c700	0.10536003
88	0x3bdf7854	0.006819764
89	0xbd033d45	-0.032040853
90	0x3dfdd5ba	0.12394281
91	0x3e26527b	0.16242401
92	0xbdeeeacd	-0.116658784
93	0x3e245586	0.1604825
94	0xbd119a54	-0.03554757
95	0xbe042a6b	-0.12906806
96	0xbd62a325	-0.055331368
97	0xbd807083	-0.0627146
98	0x3e1f408c	0.15551966
99	0x3db5d732	0.08878936
100	0x3e0aa3da	0.13539067
101	0x3d158d38	0.03651163
102	0x3c9ff795	0.019527236
103	0x3e29268f	0.16518615
104	0xbbbaa05c	-0.005695386
105	0xbdf428c9	-0.11921842
106	0x3d5f95f5	0.05458637
107	0x3dbb79ea	0.09154113
108	0xbe2df39f	-0.16987465
109	0x3cbc9d52	0.023024235
110	0xbe3b5b73	-0.18296604
111	0xbe370e43	-0.17876534
112	0x3dc448c6	0.09584193
113	0x3e135630	0.14388347
114	0x3dbb13ba	0.09134622
115	0xbd830be1	-0.0639875
116	0x3e03f9be	0.12888238
117	0xbdef5fbe	-0.11688183
118	0x3db91cc5	0.090386905
119	0x3e1306f6	0.14358124
120	0xbd2ba974	-0.04190965
121	0xbe10aab7	-0.14127623
122	0x3da1c2c0	0.07898474
123	0xbe2f315a	-0.1710867
124	0xbc983ffa	-0.018585194
125	0xbc2a8072	-0.0104066
126	0xbdec8442	-0.11548664
127	0xbddd528c	-0.1080676
128	0xbceffab2	-0.029294346
129	0x3ce1ea81	0.02757764
130	0x3d169798	0.036765665
131	0x3d894093	0.0670177
132	0x3d88a034	0.06671181
133	0x3d606b6d	0.05478995
134	0xbcd68115	-0.026184598
135	0xbdef0b7e	-0.11672114
136	0x3ae9d194	0.0017838948
137	0xbdf2aa42	-0.1184888
138	0x3b39f60d	0.0028375417
139	0xbd9ea136	-0.07745592
140	0x3d4d6873	0.05014844
141	0xbd7671b6	-0.060167037
142	0x3d0cdf7d	0.034392823
143	0xbdbf01ab	-0.0932649
144	0xbd3566c9	-0.044287477
145	0x3d327e85	0.04357769
146	0x3e1c1905	0.15243919
147	0x3db4041c	0.08789846
148	0xbdb84f67	-0.0899952
149	0x3df6f407	0.12058263
150	0x3e577080	0.21039009
151	0xbd67567c	-0.056478962
152	0xbd231f55	-0.039824802
153	0x3d8a95d6	0.0676686
154	0xbdb21d52	-0.08696999
155	0xbd10133d	-0.035174597
156	0x3de742ce	0.11292039
157	0x3e213ad1	0.15745093
158	0xbbfff154	-0.007810751
159	0xbe274a4c	-0.16336936
160	0xbe4da96d	-0.20084162
161	0xbe1da3fa	-0.15394583
162	0xbdc95a8f	-0.09831726
163	0x3d5b44ac	0.053532287
164	0xbcf67be5	-0.030088374
165	0x3e16e523	0.14735846
166	0x3b35c5eb	0.0027736377
167	0xbdc22c6e	-0.094811305
168	0xbdbf8999	-0.093524165
169	0x3e1d83a5	0.1538225
170	0x3b92d5e5	0.0044810646
171	0xbd4e4935	-0.050362784
172	0xbd49a53d	-0.04922985
173	0x3e4883e0	0.19581556
174	0x3e3e9403	0.1861115
175	0x3e231a76	0.15928063
176	0x3e0cc52c	0.1374709
177	0xbd8b0681	-0.0678835
178	0xbd684d48	-0.056714326
179	0x3d551680	0.05202341
180	0x3e2841b8	0.1643132
181	0xbcaceb2b	-0.02110823
182	0xbd8927e5	-0.066970624
183	0xbdeb9392	-0.11502756
184	0x3cbc405d	0.02297991
185	0x3dc360f5	0.095399775
186	0xbdc34257	-0.09534138
187	0x3b8e2d75	0.004338915
188	0xbdd235d7	-0.102641754
189	0xbdcb3ca8	-0.09923679
190	0x3e111c9c	0.1417107
191	0x3e32af08	0.17449582
192	0x3de245f8	0.11048502
193	0x3e2c2cb1	0.16813923
194	0xbc9ccd4c	-0.019140862
195	0xbdf92f66	-0.12167244
196	0x3e3f2199	0.1866516
197	0x3e45dc74	0.19322377
198	0xbd409c65	-0.04702415
199	0x3e321ecb	0.17394559
200	0xbd3d8c4f	-0.046276387
201	0x3e01e1bc	0.12683767
202	0x3e4cb30b	0.19990174
203	0xbe184a36	-0.14872059
204	0x3d8dc32d	0.069219925
205	0xbddbceb1	-0.10732783
206	0x3d50d3ee	0.050983362
207	0x3e508ef2	0.2036703
208	0x3d4389c8	0.04773882
209	0xbda3ed68	-0.08004266
210	0xbd8ed1f7	-0.06973641
211	0xbd759b61	-0.059962634
212	0xbb963340	-0.004583746
213	0x3dfbb531	0.12290419
214	0x3c18f680	0.009336114
215	0xbd2e90ec	-0.042618677
216	0x3e2fa541	0.17152883
217	0xbdaa9c4c	-0.083305925
218	0xbc711661	-0.014714808
219	0xbd84bc5b	-0.064812385
220	0x3d703594	0.058644846
221	0x3ce5be66	0.02804489
222	0xbcb26122	-0.021774832
223	0x3d986938	0.07441944
224	0xbe3598d1	-0.17734076
225	0xbd4e3be7	-0.050350096
226	0xbe364f55	-0.178037
227	0x3bb96ecb	0.0056589595
228	0x3d03cab4	0.032175735
229	0x3e39cb49	0.18143953
230	0x3e6b1832	0.22958449
231	0x3dca7552	0.09885658
232	0xbe40ec25	-0.18840082
233	0x3d6202ec	0.055178568
234	0xbdd1cdad	-0.10244308
235	0x3d0fa932	0.035073467
236	0xbca2c6d0	-0.019870192
237	0x3e2c341f	0.16816758
238	0xbc530959	-0.012880647
239	0x3d8c0f30	0.06838834
240	0x3cc81adf	0.024426876
241	0xbb9ab83a	-0.0047216685
242	0xbcf6c491	-0.030123027
243	0x3d4859dd	0.048913825
244	0x3e231d41	0.15929128
245	0x3e3ef3d9	0.18647708
246	0xbd9006e4	-0.07032564
247	0xbcbc97a7	-0.023021532
248	0x3e093a77	0.13401209
249	0xbdcb0914	-0.09913841
250	0xbccba55c	-0.024859123
251	0xbe087482	-0.13325694
252	0xbdbf6e58	-0.09347218
253	0x3d457380	0.048205853
254	0x3c1b462d	0.00947718
255	0x3d95b813	0.073105

FC1.bias f4 [256]
0	0x3d065648	0.032797128
1	0xbe095a95	-0.1341346
2	0x3e2521fb	0.16126244
3	0x3db9428b	0.09045895
4	0x3d1fa936	0.03897973
5	0x3e5068aa	0.20352426
6	0x3dc8b37b	0.09799858
7	0x3d2a41d9	0.041566703
8	0xbc09ddb2	-0.008414673
9	0xbdfefb27	-0.12450247
10	0x3dce7ef9	0.10082812
11	0x3c0d86cc	0.008638095
12	0xbd5681a8	-0.052369744
13	0xbd8a10e5	-0.067415036
14	0x3dd7d993	0.10539546
15	0x3dd37065	0.10324172
16	0x3ca7ab5b	0.02046745
17	0xbd69251d	-0.05692016
18	0x3d995d06	0.07488446
19	0x3d2e6086	0.04257252
20	0xbb02834a	-0.001991468
21	0xbe076a1e	-0.13224074
22	0x3c11e218	0.008904003
23	0x3d93a004	0.07208255
24	0x3d0ccc41	0.03437448
25	0xbd5a722a	-0.05333153
26	0x3e0f2957	0.13980614
27	0xbd1474e6	-0.036244296
28	0x3dab4abc	0.08363864
29	0x3df568db	0.1198289
30	0x3d1d69e9	0.038431082
31	0xbd97e378	-0.07416433
32	0xbd941be1	-0.0723188
33	0x3d2bff2c	0.041991398
34	0xbda8eabf	-0.08247899
35	0x3ca6d5ef	0.020365683
36	0xbddae59f	-0.10688328
37	0x3e0ab43c	0.13545316
38	0x3d3c7575	0.046010453
39	0xbd884221	-0.06653238
40	0xbe0ec23f	-0.13941287
41	0xbd8d67fc	-0.06904599
42	0xbc7b0f78	-0.015323512
43	0x3e1f0fa1	0.15533306
44	0x3e0c1908	0.13681424
45	0x3d8466f0	0.06464946
46	0xbd13e593	-0.03610761
47	0x3d687c1b	0.05675898
48	0xbcc0284e	-0.023456719
49	0xbd734983	-0.059396278
50	0x3c8fa201	0.017533304
51	0x3e1dd928	0.1541487
52	0x3cab8e29	0.02094181
53	0x3c5b9387	0.0134018725
54	0xbdccb41e	-0.09995292
55	0x3d7e00cf	0.06201249
56	0xbdb905db	-0.0903432
57	0xbd469c60	-0.048488975
58	0x3d24616a	0.040131964
59	0xbd2c9278	-0.04213187
60	0xbd6b2d81	-0.057416443
61	0xbdc53572	-0.096293345
62	0xbdbc2e95	-0.09188572
63	0xbcf1e5d8	-0.029528543
64	0xbdfa5195	-0.12222592
65	0x3e0ca365	0.13734205
66	0xbcc7036c	-0.024293624
67	0xbe13d7e9	-0.14437832
68	0x3da78aa9	0.08180744
69	0xbc745f11	-0.014915244
70	0xbd7f97dd	-0.062400687
71	0x3def992f	0.11699139
72	0x3cc5aa2b	0.024128994
73	0xbd1d7b49	-0.038447652
74	0x3d93f861	0.07225109
75	0x3af53a7f	0.001870945
76	0x3e387ab6	0.1801556
77	0x3cc39897	0.023876471
78	0xbda12df4	-0.07870093
79	0xbdad9945	-0.084764995
80	0xbd067cd6	-0.032833897
81	0x3e0f6aad	0.14005537
82	0x3c98d33d	0.018655414
83	0x3e0294b1	0.12752034
84	0xbe0b670d	-0.1361353
85	0xbdc30b0d	-0.09523592
86	0x3d7fb5b5	0.06242915
87	0x3b1c92eb	0.002389128
88	0x3d559ead	0.05215328
89	0x3cb876c5	0.022517571
90	0x3d9bb8f6	0.07603638
91	0xbc4ef587	-0.0126317805
92	0xbd06f35c	-0.03294693
93	0xbc35cf08	-0.011096723
94	0x3b219d37	0.0024660358
95	0xbe45eb8e	-0.19328138
96	0xbd46c2b8	-0.048525542
97	0xbe059744	-0.13045985
98	0xbd506a81	-0.05088282
99	0x3e05bc74	0.1306017
100	0x3da3f54d	0.08005772
101	0xbe180710	-0.14846444
102	0xbd052aa3	-0.032511365
103	0xbd5f901f	-0.054580804
104	0xbd9a8e4e	-0.07546674
105	0xbd8bdd45	-0.06829313
106	0xbd01183d	-0.031517256
107	0xbcf76bcf	-0.030202774
108	0xbcfce5a9	-0.03087123
109	0x3dda7ba9	0.106681176
110	0x3d849e3c	0.06475493
111	0x3c58da0c	0.01323558
112	0x3ddc9888	0.107712805
113	0xbd8c5541	-0.068521984
114	0x3de38e35	0.11111108
115	0x3db8b42c	0.0901874
116	0xbd113039	-0.03544638
117	0x3de31a9e	0.11089061
118	0x3d6e43d4	0.058170155
119	0xbb1ba90c	-0.0023751883
120	0x3e455cc7	0.19273673
121	0x3da2caca	0.07948835
122	0x3dc741d4	0.097293526
123	0x3c58582c	0.013204616
124	0x3da13c07	0.078727774
125	0x3d477712	0.04869754
126	0xbdc7d458	-0.09757298
127	0x3d4fde60	0.050749183
128	0xbd1227c0	-0.03568244
129	0x3e5468b7	0.2074307
130	0xbe21e13f	-0.15808581
131	0x3db24573	0.08704653
132	0x3b50caf5	0.0031859253
133	0xbd7794a2	-0.06044448
134	0x3e2ab70a	0.16671386
135	0x3d07afe0	0.03312671
136	0x3d5436ed	0.051810194
137	0x3d11db6b	0.035609644
138	0x3da9c41f	0.0828936
139	0x3c9f1baf	0.01942238
140	0x3d3abf9d	0.045592893
141	0xbd16d894	-0.03682764
142	0x3d05de9f	0.03268301
143	0x3d0a6d57	0.03379568
144	0xbde33059	-0.11093206
145	0xbd6db797	-0.058036413
146	0x3d93ed02	0.0722294
147	0xbdac3b91	-0.08409799
148	0x3e09ee26	0.13469753
149	0xbe41a81c	-0.18911785
150	0xbbb53160	-0.0055295676
151	0x3d3b4492	0.04571969
152	0x3d10509d	0.03523313
153	0x3e08c57d	0.13356586
154	0xbd23b096	-0.039963327
155	0x3d09c61c	0.033636197
156	0xbe0b31db	-0.13593237
157	0x3bccd3e8	0.006250847
158	0xbddd45f3	-0.108043574
159	0xbe35829f	-0.17725609
160	0xbdca079c	-0.098647326
161	0xbd8b84c1	-0.0681243
162	0xbdc36685	-0.095410384
163	0x3c2055ae	0.009786053
164	0x3d72530b	0.059161227
165	0xbd9a6594	-0.07538906
166	0xbab56463	-0.0013839122
167	0x3b738991	0.0037160853
168	0x3ded6728	0.11591941
169	0xbcab6793	-0.020923411
170	0xbd425eae	-0.047453575
171	0xbdf0a3d4	-0.11749998
172	0xbd952925	-0.07283238
173	0x3d4709e8	0.04859343
174	0xbd4feb25	-0.05076136
175	0xbc9faea2	-0.019492451
176	0xbd94dc5a	-0.07268591
177	0x3c8510a8	0.016243294
178	0xbdb97ff3	-0.090576075
179	0x3d8cc6ed	0.068738796
180	0x3ca3343d	0.01992237
181	0xbca27d43	-0.01983512
182	0xbcbe47f0	-0.023227662
183	0x3d06ee7c	0.03294228
184	0xbb07b5f7	-0.0020707825
185	0xbe4454de	-0.19173
186	0x3ccb21c0	0.024796367
187	0xbd8d4035	-0.06897012
188	0xbe42ccac	-0.19023389
189	0x3dbed772	0.09318437
190	0xbd86e4a1	-0.06586576
191	0x3d801f19	0.062559314
192	0x3e092ed8	0.13396776
193	0x3d3a691e	0.045510404
194	0x3d245fdd	0.040130485
195	0x3d82aa4a	0.06380136
196	0xba32df0e	-0.0006823399
197	0xbd1f4d38	-0.038892
198	0xbce21c9a	-0.027601529
199	0x3e2f9080	0.17144966
200	0xbc08d28e	-0.008350981
201	0x3d3eece6	0.046612643
202	0xbe1f8694	-0.15578681
203	0x3d185b0a	0.037196197
204	0xbd72610e	-0.05917459
205	0xbd0446c3	-0.032294046
206	0x3d2fe9ee	0.042947702
207	0xbe1e260d	-0.15444203
208	0x3e39a74b	0.18130223
209	0x3c4de93b	0.0125678135
210	0x3ad45f10	0.0016202647
211	0x3debb701	0.115095146
212	0x3cbd6d51	0.023123415
213	0x3e09b148	0.13446534
214	0x3e23764e	0.15963098
215	0x3dbc9ba0	0.092093706
216	0x3e2f04e4	0.1709171
217	0xbdf978eb	-0.121812664
218	0x3df25eb3	0.11834469
219	0x3d8288b6	0.06373732
220	0x3e20f4bd	0.1571836
221	0xbe3c3787	-0.18380557
222	0x3df9f034	0.12204018
223	0x3d6a43ce	0.05719357
224	0x3cf62b9c	0.030050091
225	0x3e171a4f	0.1475613
226	0xbbd5f162	-0.006529019
227	0xbdee2b05	-0.11629299
228	0xbe310c7a	-0.17289916
229	0xbcb79f38	-0.022414789
230	0xbdd68e3b	-0.10476347
231	0xbdc334c9	-0.09531552
232	0xbdb772e0	-0.089574575
233	0xbd7bb737	-0.061454024
234	0x3de94d41	0.11391688
235	0xbdabc182	-0.08386518
236	0xbd296df5	-0.04136463
237	0xbdfd4a7f	-0.123677246
238	0xbe2f5508	-0.1712228
239	0xbd7c656a	-0.061620153
240	0x3ddd6eda	0.10812159
241	0xbd88c419	-0.06678028
242	0x3db88e8a	0.09011562
243	0xbd70cc1c	-0.058788404
244	0xbdb0342b	-0.086037
245	0xbd8ff08d	-0.07028303
246	0x3cf9e20e	0.0305033
247	0x3d8829b6	0.06648581
248	0xbe1d2aac	-0.1534831
249	0x3e25efc8	0.1620475
250	0x3d67bf51	0.056578938
251	0xbd4d70d0	-0.050156415
252	0x3d586e84	0.05283977
253	0xbd7dc9e2	-0.06196011
254	0x3e1f65a7	0.15566121
255	0x3e11748a	0.14204612

FC2.weight f4 [256, 256]
0	0xbd95b692	-0.07310213
1	0xbcf003e0	-0.029298723
2	0x3ce82a8a	0.028340597
3	0xbadada61	-0.0016697162
4	0x3d0a9850	0.033836663
5	0x3c1cf64e	0.009580208
6	0xbcdf4fc5	-0.027259717
7	0x3d719ff2	0.058990426
8	0x3c90bad4	0.017667212
9	0xbca669ec	-0.02031418
10	0x3d340b51	0.043956105
11	0x3d630a06	0.05542948
12	0xbd4b60ae	-0.049652748
13	0xbd5df150	-0.05418521
14	0xbd67bbd1	-0.0565756
15	0xbd90dbb1	-0.07073153
16	0x3c12a909	0.008951434
17	0xbcb7ea7c	-0.022450678
18	0xbbb0cf36	-0.005395795
19	0x3cd913bb	0.026498666
20	0x3cedc0b6	0.029022556
21	0xbc8f2d05	-0.017477522
22	0xbd614dd4	-0.055005863
23	0x3be9e7d9	0.007138234
24	0xbc5fe679	-0.013665789
25	0x3d539942	0.05165983
26	0xbc3c834a	-0.011505911
27	0x3cb04c78	0.021520838
28	0xbd23a85f	-0.039955493
29	0xbd4ed94f	-0.05050021
30	0x3cffd9a8	0.031231716
31	0x3cfe0484	0.031008013
32	0xbd35f83f	-0.0444262
33	0x3d48ee5e	0.04905545
34	0xbd1ee227	-0.038789894
35	0x3cc1c0c9	0.023651497
36	0xbc2720f5	-0.010200729
37	0xbd16a06d	-0.036774088
38	0x3d0ee1b8	0.03488323
39	0xbd8e6bb3	-0.06954136
40	0xbcc42150	-0.023941666
41	0x3c945e55	0.018111387
42	0xbce75d4d	-0.028242731
43	0xbd4f5c27	-0.050624993
44	0xbd5bb98c	-0.05364375
45	0x3d84cf84	0.06484893
46	0x3bb93f90	0.005653329
47	0x3ba54ec7	0.0050447914
48	0xbd37105c	-0.044693336
49	0x3d6f8029	0.058471832
50	0x3d46fb82	0.0485797
51	0x3b9fbd92	0.0048748935
52	0x3bd52199	0.0065042493
53	0x3c08679d	0.008325485
54	0x3d361c9e	0.044460885
55	0x3d2f27f5	0.042762715
56	0xbcb03aa8	-0.021512344
57	0x3c839394	0.016061582
58	0xbc7783bb	-0.015107091
59	0x3bfc4101	0.0076981788
60	0xbd8893cd	-0.06668816
61	0x3d615347	0.05501106
62	0xbd83bf0d	-0.064329244
63	0xbc273656	-0.010205826
64	0x3d73d30d	0.059527446
65	0xbd4d3018	-0.050094694
66	0xbd9a9f9c	-0.07549974
67	0x3bf6898d	0.0075237215
68	0x3d00fe18	0.031492323
69	0x3d71dcff	0.05904865
70	0xbcf0f966	-0.029415797
71	0xbd80932c	-0.06278071
72	0xbd83d8e9	-0.06437857
73	0xbd615524	-0.055012837
74	0xbbc121d4	-0.005893925
75	0x3d26c48c	0.040714785
76	0x3be1051f	0.0068670656
77	0xbd004e1b	-0.031324487
78	0x3d8d6917	0.0690481
79	0xbd908879	-0.0705728
80	0x3db99280	0.09061146
81	0x3d067e7b	0.032835465
82	0x3c5d5699	0.013509416
83	0x3d0a7af4	0.033808663
84	0x3d44af38	0.048018664
85	0xbd7074cb	-0.058705132
86	0x3ce2999e	0.027661141
87	0x3d871177	0.06595128
88	0xbc976e11	-0.018485101
89	0xb8f19de1	-0.00011521183
90	0xbc56ea02	-0.013117315
91	0x3cd922a2	0.026505772
92	0x3c314e03	0.010821822
93	0x3c83664b	0.016039988
94	0xbd42b9b8	-0.047540396
95	0x3d0532aa	0.03251902
96	0xbd70474e	-0.05866175
97	0x3cce40a8	0.025177315
98	0xbd5d14ad	-0.053974796
99	0xbd81b1fe	-0.063327774
100	0x3c854747	0.01626934
101	0xbc648410	-0.013947502
102	0x3d4dd311	0.050250117
103	0xbbc111ae	-0.005892
104	0xbcc58e69	-0.024115758
105	0xbbd1d5f7	-0.0064036804
106	0x3d1bbdbc	0.03802274
107	0x3d46f9f4	0.048578218
108	0xbd0a3aaa	-0.033747353
109	0x3d726f8c	0.05918841
110	0xbc805bc2	-0.015668754
111	0x3d0f6293	0.035006117
112	0x3c30a9f9	0.010782712
113	0x3d61e06b	0.055145662
114	0xbc5b102f	-0.013370558
115	0x3ce4f43b	0.02794849
116	0x3dad9f63	0.08477666
117	0x3ce12f5a	0.0274884
118	0xbd12e5de	-0.03586375
119	0x3a8edbdb	0.0010899262
120	0xbd5eab7b	-0.054362755
121	0xbd0dc68e	-0.034613185
122	0x3d3eb44f	0.046558674
123	0xbd541c96	-0.051785074
124	0x3caa9e27	0.020827366
125	0xbbd945f3	-0.006630653
126	0xbc8d05e0	-0.017214715
127	0xbd6f2ee0	-0.058394313
128	0xbd3e4f62	-0.046462424
129	0x3bd34dff	0.006448507
130	0x3cc8469e	0.024447735
131	0xbd8908e4	-0.06691149
132	0xbcc2a975	-0.023762444
133	0xbc868d20	-0.016424716
134	0x3d2e8533	0.042607497
135	0xbd9268e6	-0.07148914
136	0x3d73980f	0.059471186
137	0x3d4096e3	0.047018897
138	0x3c402b70	0.011729106
139	0xbd8b5c4f	-0.06804716
140	0xbc6ec77c	-0.014573928
141	0xbd056e1c	-0.03257571
142	0x3b2776f7	0.0025553086
143	0xbd6435a8	-0.055715233
144	0xbc98fb09	-0.01867439
145	0xbc1d36d9	-0.009595596
146	0x3d87b84d	0.066269495
147	0x3cef0f38	0.029182062
148	0xbc03094b	-0.007997821
149	0x3d2baccc	0.04191284
150	0x3cd069ec	0.025441132
151	0xbc848cd0	-0.016180426
152	0x3d9ced9a	0.076625064
153	0xbaf55b4d	-0.0018719226
154	0xbd8bf003	-0.06832888
155	0xbd3cfa08	-0.046136886
156	0x3c0ff146	0.008785551
157	0x3c213876	0.0098401215
158	0xbd4f98de	-0.050682895
159	0xbc8e65fa	-0.01738261
160	0xbce9837b	-0.028505078
161	0xbd018963	-0.031625163
162	0xbc2725d4	-0.01020189
163	0x3c9da246	0.019242417
164	0x3d4ecffd	0.05049132
165	0x3c87a02c	0.016555868
166	0xbd6bdd03	-0.05758382
167	0x3b267c45	0.002540366
168	0xbd20ef42	-0.039290674
169	0xb980249f	-0.00024441347
170	0x3d3656f9	0.044516537
171	0x3d16b570	0.036794126
172	0xbd5f02a0	-0.054445863
173	0xbc31257f	-0.010812162
174	0x3d58a316	0.052889906
175	0xbc8aa2ee	-0.016923394
176	0x3c4280e9	0.011871555
177	0x3cf27bfe	0.02960014
178	0xbd7efae2	-0.06225098
179	0xb9072815	-0.00012889535
180	0xbd3b37af	-0.0457074
181	0x3d2b852c	0.04187505
182	0x3d0fff18	0.035155386
183	0x3d707ae1	0.058710936
184	0x3cd73d62	0.026274387
185	0x3cb5aea0	0.022177994
186	0xbd530203	-0.05151559
187	0xbd00aa29	-0.031412277
188	0xbcf4f15b	-0.029900244
189	0xbcab2bef	-0.020894973
190	0x3c684262	0.014175983
191	0xbcd02c10	-0.025411636
192	0x3ba8513b	0.0051366366
193	0x3d0df51d	0.034657586
194	0xbd03c485	-0.032169838
195	0xbcbb61d9	-0.022873806
196	0x3cfa4ef0	0.030555218
197	0xbcfa6a2c	-0.030568205
198	0x3c56e211	0.013115422
199	0x3cefeeaf	0.029288618
200	0xbd477278	-0.04869315
201	0xbcc7e4fb	-0.024401179
202	0xbaccc449	-0.0015622462
203	0x3c2698f0	0.010168299
204	0xbd753d0e	-0.05987268
205	0xbd0bcd83	-0.034131538
206	0xbd3154bb	-0.043293696
207	0xbc87f263	-0.016595071
208	0xbd4d206e	-0.050079755
209	0x3bb2f0a9	0.005460818
210	0x3d27b6b0	0.04094571
211	0x3cf82ece	0.030295756
212	0x3d5bb7e0	0.053642154
213	0xbd23b6e3	-0.039969336
214	0xbd82d412	-0.063881055
215	0xbc01c70b	-0.007920991
216	0xbd1afca4	-0.037838593
217	0xbd5a0abc	-0.053232893
218	0xbd2733a5	-0.040820736
219	0x3cecdd38	0.02891408
220	0xbd2a6425	-0.04159941
221	0x3b9d3a71	0.0047982265
222	0x3ce7fec0	0.028319716
223	0xbc189e4b	-0.009315084
224	0x3a3e8fe6	0.00072693673
225	0x3ce70bb0	0.028203815
226	0xbd1c70d8	-0.038193554
227	0x3c80a3ff	0.0157032
228	0xbca42d9f	-0.020041285
229	0x3d2680a2	0.040650018
230	0xbd8ae315	-0.06781594
231	0x3cecdb61	0.028913202
232	0x3c81eac3	0.015859013
233	0xbc2ceb8a	-0.010554204
234	0xbd88cc54	-0.066795975
235	0xbd0c594e	-0.034264855
236	0xbd1a366e	-0.037649564
237	0x3d04470b	0.032294314
238	0xbd65b728	-0.056082875
239	0x3d53cab3	0.05170698
240	0xbd2e7d14	-0.042599753
241	0x3d46ec8f	0.048565444
242	0x3852441d	5.0131337e-05
243	0xbd8f24cb	-0.069894396
244	0xbd59423d	-0.053041685
245	0xbd545f7d	-0.051848877
246	0x3cdf41b1	0.027253004
247	0xbc8f1a14	-0.01746849
248	0xbc80a5a9	-0.015703993
249	0xbd38fe71	-0.04516453
250	0xbd00a497	-0.031406965
251	0x3d7eeb10	0.06223589
252	0xbb801890	-0.003909178
253	0xbd1d471d	-0.038397897
254	0x3d16bcd7	0.036801185
255	0x3d0ec83d	0.03485893

FC2.bias f4 [256]
0	0x3cf295c2	0.029612426
1	0xbd561384	-0.052264705
2	0x3c68957e	0.014195798
3	0x3bf5828a	0.007492368
4	0xbcde8b43	-0.027166015
5	0x3db9823f	0.090580456
6	0xbcb20d99	-0.021735
7	0xbc7c499b	-0.015398408
8	0xbd850804	-0.064956695
9	0x3c4a3b39	0.012343221
10	0xbba3c12f	-0.0049973945
11	0xbd10a6d1	-0.03531534
12	0x3d0ea76b	0.03482763
13	0xbd790304	-0.06079389
14	0xbd24a02c	-0.040191814
15	0x3cdb87dd	0.026798183
16	0x3d118d3e	0.03553509
17	0xbd9b9299	-0.07596321
18	0xbd844d1e	-0.064600214
19	0x3d144b4a	0.036204614
20	0xbd1eee57	-0.038801517
21	0xbc377864	-0.011198137
22	0xbd618856	-0.05506166
23	0xbdae551e	-0.085123286
24	0xbd6bbedf	-0.057555076
25	0x3d2f1761	0.042746905
26	0x3b8a274c	0.0042161103
27	0x3d3fa443	0.04678751
28	0x3c7d6bcb	0.015467594
29	0x3d29e8f5	0.04148193
30	0xbd0623d5	-0.032749016
31	0x3d7f17b8	0.06227848
32	0xbd07f6a2	-0.03319419
33	0x3c9ef581	0.019404175
34	0xbd2f1e22	-0.042753346
35	0xbd394914	-0.04523571
36	0x3d249332	0.04017944
37	0xb9e6d519	-0.0004402779
38	0xbc629ecd	-0.013831806
39	0x3d8ecb98	0.06972426
40	0x3d7e1514	0.06203182
41	0x3d05b388	0.032641917
42	0xbd88312e	-0.06650005
43	0xbd6463e4	-0.055759326
44	0x3d0d9387	0.03456452
45	0x3dab2165	0.08355979
46	0x3da39302	0.07987024
47	0x3d10a264	0.035311118
48	0x3c87a1a9	0.016556578
49	0xbd371e4b	-0.044706624
50	0x3cac4bb2	0.021032188
51	0xbd66a5a9	-0.05631033
52	0x3cedceba	0.029029239
53	0xbbd453e9	-0.0064797294
54	0xbcd7f360	-0.026361167
55	0x3d2ed50c	0.042683646
56	0x3d2e3a40	0.04253602
57	0x3d02e4df	0.03195655
58	0xbcd52a61	-0.026021184
59	0xbcc38536	-0.02386723
60	0x3cf5f19b	0.030022433
61	0xba6ffe41	-0.0009155013
62	0x3ce2b8ed	0.02767607
63	0xbc21c459	-0.009873473
64	0x3d98954b	0.074503504
65	0xbca3cf94	-0.019996442
66	0xbd68fb54	-0.05688031
67	0xbcd93b23	-0.026517456
68	0x3c4b9188	0.012424834
69	0x3c8afe58	0.016966984
70	0xbd292d71	-0.041303102
71	0xbd230656	-0.039800964
72	0xbbd10fb2	-0.006380045
73	0x3c19bbde	0.00938317
74	0x3cb38823	0.021915501
75	0x3cc5231e	0.024064597
76	0x3d47c636	0.048773013
77	0xbd6afe92	-0.057371683
78	0x3d842218	0.06451815
79	0x3cf39091	0.02973202
80	0x3d0999d9	0.033593986
81	0x3c0990df	0.008396356
82	0x3d0fbcf3	0.035092305
83	0x3c87f829	0.016597824
84	0x3bd24efd	0.0064181075
85	0x3d29ba4d	0.041437436
86	0x3c039207	0.008030421
87	0xbd96a42d	-0.07355533
88	0xbd2b8f6d	-0.04188483
89	0xbd204301	-0.0391264
90	0x3b2e7249	0.0026618412
91	0xbd0c09dd	-0.034189094
92	0x3cf7ba33	0.030240154
93	0x3d118253	0.035524677
94	0xbd8219ee	-0.06352602
95	0x3dd775e7	0.10520535
96	0x3c93556f	0.017985074
97	0xbd3d3437	-0.046192374
98	0x3d68943e	0.056782
99	0xbd14c80d	-0.036323596
100	0x3d909b11	0.070608266
101	0x3d034de9	0.032056723
102	0xb88a2284	-6.586782e-05
103	0x3a67fe86	0.00088498776
104	0xbce8afb9	-0.028404104
105	0x3d12d52c	0.035847828
106	0x3d5a12c4	0.053240553
107	0x3cdef968	0.027218536
108	0x3cfe793f	0.031063674
109	0x3bdd254d	0.0067488314
110	0x3d0eab9f	0.03483164
111	0x3cf1da69	0.029523091
112	0x3b3fe286	0.0029279306
113	0xbcf1c345	-0.029512057
114	0x3c9c497b	0.019078007
115	0xbb246920	-0.0025087073
116	0xbc04de0f	-0.0081095835
117	0x3d48dd7f	0.04903936
118	0xbc31162a	-0.010808507
119	0xbd177e8e	-0.036985926
120	0x3d1a0c49	0.037609372
121	0x3cd628bd	0.026142472
122	0xbbae058e	-0.0053107208
123	0xbca13b81	-0.019681694
124	0x3da5100f	0.080597036
125	0xbd52541d	-0.051349748
126	0x3da0ec8f	0.0785762
127	0xbd16741e	-0.03673183
128	0xbce1749f	-0.02752143
129	0xbd7fc61b	-0.062444787
130	0x3c853c39	0.016264068
131	0xbcc8ed3e	-0.024527188
132	0xbc81595e	-0.015789684
133	0xbcf93dd2	-0.030424986
134	0x3d263084	0.04057361
135	0x3aa9b726	0.0012948259
136	0xbcf05e8a	-0.029341955
137	0xbcf8c0aa	-0.030365307
138	0xbd39219c	-0.045198068
139	0x3d9fb48f	0.07798111
140	0x3d22bc26	0.039730214
141	0x3b13c500	0.002254784
142	0x39063649	0.00012799459
143	0x3ccb6f35	0.024833301
144	0xbd89854b	-0.06714877
145	0xbd88d383	-0.06680968
146	0x3d3e0ad4	0.046397045
147	0xbbeaf44f	-0.007170237
148	0x3d85324b	0.06503733
149	0xbd6e67b5	-0.05820437
150	0xbd6c411e	-0.057679288
151	0xbd0aa579	-0.033849213
152	0x3bf38df9	0.007432696
153	0x3d29eb1f	0.041483995
154	0xbd7a76ad	-0.061148334
155	0xbb990e00	-0.0046708584
156	0x3de1b051	0.11019958
157	0x3e063a54	0.13108188
158	0x3d5c9e1b	0.05386172
159	0x3d12ca2c	0.035837337
160	0x3b9be88c	0.0047579464
161	0xbd3f2860	-0.046669364
162	0x3cadc3b4	0.021211483
163	0x3d69d971	0.057092134
164	0xbd62346a	-0.055225767
165	0x3d32c5a0	0.0436455
166	0x3cbb930f	0.022897271
167	0xbca8936f	-0.020578114
168	0x3b863e80	0.004096806
169	0xbd3f4a2d	-0.0467016
170	0x3b3621d6	0.0027791164
171	0xbc1de140	-0.009636223
172	0x3d4b3c9d	0.049618352
173	0x3d08f7d1	0.03343946
174	0x3be9d60e	0.007136113
175	0x3d493d7a	0.049130894
176	0x3caf90a6	0.021431278
177	0xba9e140e	-0.001206042
178	0xbccaa8bb	-0.02473866
179	0xbd6249ca	-0.055246152
180	0x3d92891c	0.07155058
181	0x3cc31f0d	0.023818517
182	0xbd095aed	-0.03353398
183	0x3d380362	0.0449251
184	0x3d82cae1	0.06386352
185	0xbd356e02	-0.044294365
186	0xbd144f8c	-0.036208674
187	0x3d71ecca	0.05906371
188	0xbc9a61e2	-0.018845502
189	0x3d057852	0.03258545
190	0x3cbfaef3	0.023398852
191	0xbd99290b	-0.074785315
192	0xbd873878	-0.066025674
193	0xbc82ccdf	-0.01596683
194	0x3c50d93e	0.012747107
195	0xbbfb3ad2	-0.007666924
196	0xbda553ca	-0.08072622
197	0xbaf01812	-0.001831772
198	0x3cdc879b	0.02692013
199	0x3d2ce609	0.042211566
200	0xbcd8712c	-0.026421152
201	0x39306a36	0.00016824235
202	0x3c838ad7	0.016057415
203	0xbcb8b665	-0.02254791
204	0xbd8a9891	-0.06767381
205	0x3d2908fb	0.04126833
206	0x3d33258b	0.043736976
207	0x3d5cf99c	0.053948984
208	0xbd38ecb2	-0.045147605
209	0x3d06c434	0.032901958
210	0x3d41095e	0.047128074
211	0xbcea46a5	-0.028598139
212	0xbbb400cf	-0.0054932605
213	0x3d39b540	0.04533887
214	0x3cad7040	0.021171689
215	0x3cfba79d	0.030719573
216	0x3c2226de	0.009896962
217	0xbd0c02b1	-0.034182254
218	0xbd92e2c5	-0.07172159
219	0x3ccbe7e3	0.024890846
220	0x3d2f1102	0.04274083
221	0xbd9894d5	-0.074502625
222	0xbd00a2ce	-0.031405263
223	0x3c0ffa15	0.008787652
224	0x3bd31b3a	0.0064424546
225	0xbc0ed7c2	-0.008718433
226	0xbcd65e47	-0.026168002
227	0x3d0b4f99	0.034011457
228	0x3ca53944	0.020168908
229	0x3b977104	0.004621627
230	0x3d19afa1	0.03752101
231	0x3cb2b29f	0.021813689
232	0xbcfdd379	-0.030984627
233	0x3d4ccc7b	0.049999695
234	0x3c569e62	0.013099285
235	0xbd83c06c	-0.06433186
236	0xbbe428ee	-0.006962887
237	0xbd4af2f1	-0.049548093
238	0xbd8a45e5	-0.067516126
239	0x3d249fc6	0.040191434
240	0x3dc574b1	0.09641398
241	0xbd57515a	-0.052567817
242	0xbd32f7f7	-0.04369351
243	0xbb7d0152	-0.0038605523
244	0xbd8faef1	-0.07015789
245	0x3d63d0c5	0.05561902
246	0xbd2326ee	-0.039832048
247	0xbb26c709	-0.0025448224
248	0x3c92872f	0.017886726
249	0xbbf2b9e7	-0.007407415
250	0xbd09fbad	-0.033687282
251	0xbd8d5555	-0.069010414
252	0x3cee0b18	0.029058024
253	0xbc339fda	-0.010963405
254	0x3d36f0eb	0.04466335
255	0xbd792342	-0.06082464

action_out.weight f4 [5, 256]
0	0x3cc84810	0.024448425
1	0x3c82fbc1	0.015989186
2	0xbd920936	-0.07130663
3	0x3c8a9281	0.016915562
4	0xbd4b1c90	-0.049587786
5	0xba9c0e1f	-0.0011906064
6	0xb9f63d9a	-0.00046966673
7	0xbd4a3149	-0.04936341
8	0x3c648c42	0.013949456
9	0x3c2bc58a	0.010484109
10	0x3d52ab7d	0.051433075
11	0x3d96555e	0.07340501
12	0xbdadba91	-0.0848285
13	0x3d8d4e3c	0.06899688
14	0x3b7a132d	0.0038158402
15	0xbd458269	-0.048220072
16	0xbd97c51d	-0.07410643
17	0xbdc1c24c	-0.09460887
18	0x3d8f8508	0.070077956
19	0x3c47b74e	0.012189699
20	0xbdab3edb	-0.08361598
21	0xbd2da213	-0.042390894
22	0xbcd5ec80	-0.026113749
23	0xba3ca557	-0.00071962684
24	0x3dae9603	0.08524706
25	0x3cac3b65	0.021024415
26	0xbd9eaf70	-0.07748306
27	0xbdbe3ad4	-0.09288564
28	0x3d9535db	0.07285663
29	0xbd98146c	-0.0742577
30	0x3d5a46bd	0.053290118
31	0xbe1b6168	-0.15173876
32	0x3970b0eb	0.0002295409
33	0x3d2893a9	0.041156445
34	0xbb5cca66	-0.0033689975
35	0xbd9de626	-0.07709913
36	0xbdbc45d1	-0.09193004
37	0xbdd8b1eb	-0.1058081
38	0xbd547f1b	-0.05187903
39	0x3da59ea0	0.08086896
40	0x3d62b95e	0.05535256
41	0x3d2450bb	0.040116053
42	0xbd36aa7d	-0.044596184
43	0xbc5b1faa	-0.0133742485
44	0x3d9f4e7c	0.077786416
45	0xbdb75290	-0.089512944
46	0xbde16aa6	-0.1100667
47	0xbc87760e	-0.016535785
48	0xbd07e895	-0.033180792
49	0xbdb7481a	-0.08949299
50	0x3b6bfadf	0.0036007685
51	0xbd4e8c52	-0.05042679
52	0x3d8d5c75	0.069024004
53	0x3c3a0b06	0.011355167
54	0x3caf30ad	0.021385515
55	0xbc020476	-0.007935634
56	0x3d13556b	0.035970133
57	0x3d396087	0.04525807
58	0x3d195076	0.03743025
59	0x3d5cb403	0.05388261
60	0x3ca3b47a	0.019983519
61	0xb98ee280	-0.00027253106
62	0x3dab01db	0.08349963
63	0xbd974032	-0.07385291
64	0x3d5f9dfe	0.054594032
65	0x3c1fcc23	0.00975326
66	0x3c8d0204	0.017212875
67	0xbda12361	-0.07868076
68	0xbd13793f	-0.0360043
69	0x3d052a54	0.03251107
70	0x3d8d155e	0.06888841
71	0x3d2ebf72	0.042663045
72	0xbcb257a5	-0.021770308
73	0xba3d6292	-0.0007224466
74	0xbdb06d84	-0.086146384
75	0x3dc45f1f	0.095884554
76	0x3b0dfa1d	0.0021663972
77	0x3d845c34	0.06462899
78	0x3d8e51c7	0.069491915
79	0xbcb50768	-0.022098258
80	0xbcfc1b7e	-0.030774828
81	0xbd8cbb9d	-0.06871722
82	0xbd2d989a	-0.04238186
83	0x3d85b236	0.06528132
84	0xbe056716	-0.13027605
85	0xbda220b3	-0.07916393
86	0xbca799ed	-0.02045914
87	0x3d962c55	0.073326744
88	0x3cd2026e	0.025635924
89	0x3c97e436	0.018541437
90	0x3cdb0ead	0.026740396
91	0x3c2423be	0.010018287
92	0x3b031762	0.002000295
93	0xbd9a7cf0	-0.07543361
94	0x3d1b0576	0.037847005
95	0xbe09fa57	-0.13474403
96	0xbd9e4ce1	-0.07729507
97	0xbd35ce84	-0.0443864
98	0x3d95513a	0.07290883
99	0x3d942ae5	0.07234744
100	0xbe00ab3b	-0.12565319
101	0xbcddfcbb	-0.02709805
102	0xbdc0d45c	-0.09415504
103	0xbccac7c0	-0.024753451
104	0x3dab3dad	0.08361373
105	0xbd7d8490	-0.061894
106	0xbd2df056	-0.04246553
107	0x3d983ab1	0.074330695
108	0xbd180097	-0.037109938
109	0xbb780824	-0.003784665
110	0xbdbf3070	-0.093354106
111	0x3db20d20	0.0869391
112	0x3d115e28	0.035490185
113	0xbdc83a9c	-0.09776804
114	0xbd08498c	-0.033273265
115	0xbbb5cf89	-0.0055484218
116	0x3ca35c5a	0.019941498
117	0x3dacc64c	0.084362596
118	0xbd9973bc	-0.07492778
119	0xbd81d21e	-0.06338905
120	0xbd11dbbe	-0.035609953
121	0x3d464235	0.048402984
122	0xbd2803b0	-0.04101914
123	0xbdb1dcd2	-0.08684696
124	0xbdd9c1e1	-0.106326826
125	0xbd4f11f0	-0.050554216
126	0x3b69e8a7	0.003569165
127	0x3b8d4520	0.004311219
128	0xbb04b7a9	-0.0020251072
129	0xbd488fe3	-0.048965346
130	0xbcf44143	-0.029816275
131	0xbc2324a6	-0.009957468
132	0x3d07d85a	0.033165313
133	0x3c2ca9f6	0.010538569
134	0xbdca1085	-0.09866432
135	0xbcd94eb4	-0.026526786
136	0x3c8d96f6	0.017283898
137	0x3b414b45	0.0029494327
138	0xbd36aa1f	-0.044595834
139	0xbdd037bb	-0.1016688
140	0xbd869558	-0.06571454
141	0xbddcff19	-0.107908435
142	0x3d42df66	0.04757633
143	0x3d506987	0.05088189
144	0xbb9e6596	-0.0048338873
145	0x3c67eff7	0.014156333
146	0xbd09c5bd	-0.033635844
147	0x3d74a060	0.059723258
148	0xbd97a0b1	-0.07403696
149	0x3c2c4181	0.010513664
150	0x3c6b4b6f	0.0143612465
151	0x3cce69b6	0.025196891
152	0x3d5c9f6b	0.05386297
153	0x3d7e9461	0.062153224
154	0x3d94ba22	0.072620645
155	0x3d27293d	0.040810812
156	0xbe00ceca	-0.12578884
157	0xbda89d42	-0.082331195
158	0xb88342fb	-6.259043e-05
159	0xbc2f6d9f	-0.010707288
160	0xbbf738d8	-0.007544618
161	0x3db38df2	0.08767308
162	0xbdc84bde	-0.097800955
163	0xbd9f8cbd	-0.077905156
164	0x3ca27e88	0.019835725
165	0x3d9cbf1f	0.07653641
166	0x3d47219a	0.04861603
167	0xbd69c14c	-0.057069108
168	0xbd2412ee	-0.040057115
169	0xbc9f2aa1	-0.019429507
170	0x3ce6c80b	0.02817156
171	0x3c6cf1b4	0.014461923
172	0x3d5e8165	0.05432262
173	0x3ae804cc	0.0017701625
174	0xbb80b541	-0.003927857
175	0x3d77a353	0.060458492
176	0xbb6ab1c9	-0.0035811535
177	0x3ceb3c1c	0.028715186
178	0x3da02b97	0.07820814
179	0xbd5f822d	-0.054567505
180	0xbdf9dbf4	-0.12200156
181	0xbd8192cc	-0.063268274
182	0x3c56b2c5	0.013104145
183	0xbd81be7b	-0.063351594
184	0x3cc49f61	0.024001779
185	0x3c59a0ef	0.013282998
186	0xbd505faa	-0.050872482
187	0xbd687e26	-0.05676093
188	0xbd90041c	-0.07032034
189	0x3d75f2c0	0.060045958
190	0xbb2a545b	-0.0025990221
191	0xbdc01719	-0.093794055
192	0xbcc8847c	-0.024477236
193	0x3d0862a7	0.033297207
194	0x3c89c8c0	0.016819358
195	0x3d30a49d	0.043125737
196	0xbd890b8a	-0.06691654
197	0x3c1e05b4	0.009644914
198	0xbd93c91c	-0.07216093
199	0x3d85383b	0.06504866
200	0x3c3f7dd5	0.011687716
201	0xbdcd64b9	-0.10028977
202	0x3c5bcd24	0.013415609
203	0xbbc9f95a	-0.006163758
204	0x3d07d556	0.033162437
205	0xbd3afa6e	-0.045648985
206	0xbd2e82cc	-0.042605206
207	0xbd9ecc29	-0.07753784
208	0x3af8aa6f	0.0018971692
209	0x3ca69569	0.020334916
210	0x3c9db1c7	0.01924981
211	0xbc8d8647	-0.017275942
212	0xbcdb2b42	-0.026754025
213	0xbcd1d31b	-0.025613358
214	0x3db62dd8	0.08895463
215	0x3d5b9b16	0.0536147
216	0x3ce86d74	0.028372504
217	0xbd101647	-0.035177495
218	0xbd308ace	-0.043101124
219	0xbcbf9f71	-0.023391457
220	0x3d65071e	0.05591499
221	0xbc79782a	-0.015226403
222	0x3d2e2014	0.04251106
223	0x3d395c80	0.04525423
224	0xbaae9cf1	-0.0013321919
225	0xbc5afdf0	-0.0133662075
226	0x3b235e53	0.0024928048
227	0x3db43d61	0.088007696
228	0xbd832e4f	-0.06405317
229	0x3ba26028	0.0049553104
230	0xbd647f25	-0.055785317
231	0xbd2b8721	-0.041876916
232	0xbc13a8a3	-0.009012374
233	0xba21dff0	-0.0006175032
234	0xbc41fc7b	-0.011839981
235	0x3cba9559	0.022776293
236	0xbd8369f7	-0.064166956
237	0x3d05bf38	0.032653064
238	0xbcfdbb6e	-0.030973163
239	0xbbe8fbba	-0.0071100863
240	0xbd144e00	-0.0362072
241	0x3c8044a1	0.015657725
242	0x3c1a2e55	0.0094104605
243	0x3aeb9ab6	0.0017975185
244	0x3d49612d	0.04916494
245	0xbdd441d3	-0.103641175
246	0x3b40104f	0.0029306596
247	0xbd473362	-0.048632987
248	0x3d41f47a	0.04735229
249	0xbcfb58de	-0.030682024
250	0x3da9218d	0.082583524
251	0x3c6cd608	0.014455326
252	0x3d1f43a0	0.03888285
253	0xbc6c2ac7	-0.014414496
254	0xbd1aac6b	-0.037762087
255	0xbd0b6a7b	-0.034037095

action_out.bias f4 [5]
0	0xbb5dd44c	-0.0033848463
1	0x3dcbfb78	0.09960073
2	0xbd9b2511	-0.07575429
3	0xbd556b3c	-0.05210422
4	0xbc02d43b	-0.00798517

weight f4 [256, 123]
0	0x3e0261d7	0.12732635
1	0x3d21c20e	0.039491706
2	0x3d30c4e6	0.043156527
3	0x3d514f65	0.051101107
4	0x3d7bff7f	0.061522957
5	0xbe2ccc4f	-0.16874813
6	0xbdb507f9	-0.08839411
7	0xbd96c9d1	-0.07362712
8	0xbd833c5e	-0.064079985
9	0x3d28c3ca	0.041202344
10	0x3d9570d5	0.072969116
11	0xbd86842a	-0.06568177
12	0x3d2c017c	0.041993603
13	0xbd72e808	-0.059303313
14	0x3de99f92	0.11407389
15	0x3d5a2ba3	0.05326427
16	0xbd8a5ce9	-0.067560025
17	0x3d74c1ce	0.05975514
18	0xbd632ee5	-0.055464644
19	0xbd71085e	-0.05884587
20	0x3da58ad1	0.08083118
21	0x3d310c29	0.043224487
22	0x3daae4ba	0.083444074
23	0x3d2fb260	0.04289472
24	0xbb6b4ba9	-0.0035903251
25	0xbc64fae0	-0.013975829
26	0x3dc091e0	0.094028234
27	0x3d91d00a	0.071197584
28	0xbc1f1ebd	-0.009711918
29	0x3e2d7b68	0.16941607
30	0xbd36673e	-0.044532053
31	0x3d72900d	0.05921941
32	0x3d78c3ba	0.060733534
33	0xbd33f5eb	-0.043935698
34	0x3dacc357	0.084356956
35	0x3d0bd034	0.034134105
36	0x3e5298b7	0.20566069
37	0x3c1c7625	0.009549652
38	0xbd84d409	-0.06485755
39	0xbce3cc15	-0.027807275
40	0x3d0f4379	0.034976456
41	0xbe132c03	-0.14372258
42	0xbb471384	-0.0030376622
43	0x3daa560f	0.083171956
44	0x3d1455f9	0.036214802
45	0xbdbfb2d0	-0.09360278
46	0xbdb89e5c	-0.0901458
47	0xbd3a71a3	-0.04551853
48	0xbd1f142c	-0.038837597
49	0xbc321e8b	-0.01087154
50	0x3d4771bf	0.04869246
51	0xbd5c2fd7	-0.05375656
52	0xbd737f40	-0.059447527
53	0x3ce9c4b0	0.02853617
54	0x3d2d1a9e	0.042261712
55	0x3cd7187a	0.026256789
56	0xbdadea61	-0.0849197
57	0x3dd823fe	0.1055374
58	0x3d863fcb	0.06555136
59	0x3c37883e	0.011201916
60	0xbe0323b8	-0.12806594
61	0x3ddf28f6	0.108964846
62	0x3cdf8e1c	0.027289443
63	0x3d4ee696	0.050512873
64	0xbcd1910d	-0.02558186
65	0xbe0c4fc0	-0.13702297
66	0xbd4a4d67	-0.049390223
67	0x3cc86a0c	0.02446463
68	0xbd443314	-0.047900274
69	0x3cf6e006	0.03013612
70	0x3dac0b87	0.08400636
71	0xbcabb2d0	-0.020959288
72	0x3d9c7d1f	0.076410525
73	0xbd4207f2	-0.04737086
74	0xbd57407a	-0.052551724
75	0x3db3a674	0.08771983
76	0xbd29d64b	-0.04146413
77	0xbe56089a	-0.20901719
78	0xbda332d7	-0.07968681
79	0xbd5ad409	-0.05342487
80	0x3d028f73	0.031875085
81	0xbb9bc517	-0.0047537195
82	0x3d83a88b	0.064286314
83	0x3d96f3bc	0.073707074
84	0xbd8b6f67	-0.06808358
85	0xbd90925c	-0.07059166
86	0x3d4a5160	0.04939401
87	0xbdefedec	-0.11715302
88	0xbd267e6d	-0.040647913
89	0xbd9b5d1c	-0.075861186
90	0xbd2515e7	-0.04030409
91	0xbdecf20f	-0.115696065
92	0x3b26a7ea	0.0025429674
93	0x3ddd0d9f	0.10793614
94	0x3e380f7e	0.1797466
95	0xbd4efa85	-0.050531883
96	0xbe0398f0	-0.1285131
97	0x3c29d358	0.01036533
98	0x3d1e6f06	0.0386801
99	0x3d3618b7	0.044457164
100	0xbdd44187	-0.10364061
101	0x3ded8141	0.11596919
102	0x3a915b7b	0.0011089885
103	0xbd236174	-0.03988786
104	0x3d52f1be	0.051500075
105	0xbcfe64de	-0.031053957
106	0x3cecd392	0.028909478
107	0x3d87d2db	0.06632014
108	0xbdaaff0c	-0.083494276
109	0x3da6916d	0.081332065
110	0x3d04ed9c	0.032453164
111	0x3d8030fb	0.06259342
112	0x3ca8a759	0.02058761
113	0xbd2f0ecc	-0.04273872
114	0x3e056125	0.13025339
115	0xbc2e5ee0	-0.010642737
116	0x3c81b6dd	0.015834266
117	0xbd779521	-0.060444955
118	0xbdeb60e1	-0.114930876
119	0xbd1b0e68	-0.037855536
120	0x3d96075c	0.073256224
121	0xbd3c17f1	-0.04592127
122	0xbe56f73f	-0.20992754
123	0xbe62e37e	-0.22157094
124	0xbcb252bb	-0.021767965
125	0xbd4811db	-0.048845153
126	0x3d58ac0d	0.052898455
127	0xbca9bffa	-0.020721424
128	0xbe12f054	-0.1434949
129	0xbdb281f4	-0.08716193
130	0x3d6ab7d6	0.057304226
131	0xbd4a75c5	-0.04942872
132	0xbb030d60	-0.0019996986
133	0x3cacbaac	0.021085106
134	0xbc7c2bc5	-0.015391295
135	0x3bfc6d20	0.0077034384
136	0xbce43557	-0.027857466
137	0x3de41af2	0.11137952
138	0x3d3eb764	0.046561614
139	0x3cdf981a	0.027294207
140	0xbd565143	-0.05232359
141	0xbccab349	-0.024743693
142	0x3d0a5fb0	0.03378266
143	0xbc6474be	-0.013943849
144	0xbe268deb	-0.16265075
145	0xbceb2a1a	-0.028706599
146	0x3db6bfb2	0.08923282
147	0xbc81ee45	-0.015860686
148	0xbd77493e	-0.060372584
149	0xbc233abc	-0.009962734
150	0x3dc2d01f	0.09512352
151	0x3d8e0bf8	0.069358766
152	0xbc3a6d35	-0.011378576
153	0x3de5df4e	0.112242326
154	0x3a341886	0.00068701094
155	0x3e0d3efb	0.13793556
156	0x3db269a9	0.08711559
157	0xbda5d3e1	-0.08097053
158	0x3d496b5a	0.049174644
159	0xbe0154f5	-0.12630065
160	0x3d65da7f	0.056116577
161	0xbd602513	-0.054722857
162	0xbd447941	-0.0479672
163	0xbda6ebff	-0.081504814
164	0xbe208998	-0.15677488
165	0xbd92782e	-0.07151829
166	0x3d0478d0	0.03234178
167	0x3cf3ec09	0.029775636
168	0x3da60548	0.08106476
169	0x3dd5aa05	0.10432819
170	0xbd910ef6	-0.07082932
171	0x3d36667d	0.044531334
172	0xbd8e0278	-0.069340646
173	0x3dde9e74	0.10870066
174	0x3d736ef7	0.059431996
175	0x3cc6c58e	0.024264123
176	0x3c24add8	0.010051213
177	0xbd2416c5	-0.040060777
178	0xbaae5c45	-0.0013302645
179	0x3d12e432	0.035862155
180	0xbe281a8d	-0.16416378
181	0xbadb803b	-0.001674659
182	0x3dbabe0e	0.09118281
183	0x3d803637	0.06260341
184	0x3cf3b097	0.02974729
185	0x3bd6ee54	0.0065591726
186	0x3d9747ac	0.07386717
187	0x3e4ee7bf	0.20205592
188	0x3d318aa4	0.04334511
189	0x3d93d0a1	0.07217527
190	0xbc8a3328	-0.016870096
191	0xbd4f81f5	-0.050661046
192	0x3e11cccc	0.1423828
193	0xbba777c0	-0.005110711
194	0x3d83ca0f	0.06435024
195	0xbe0e8df1	-0.13921334
196	0x3d81e290	0.063420415
197	0x3bcbd99e	0.0062210103
198	0xb899fd48	-7.342786e-05
199	0x3d06822a	0.032838978
200	0xbe73e0e2	-0.23816255
201	0xbd934367	-0.0719059
202	0x3c4079bb	0.011747773
203	0xbd825b5e	-0.06365083
204	0x3d6677ef	0.05626672
205	0x3daf5e5c	0.085629195
206	0x3d844cf7	0.064599924
207	0xbcc46b9a	-0.02397709
208	0xbdf1efff	-0.11813354
209	0xbcb686ce	-0.022281077
210	0xbd90f47b	-0.07077881
211	0xbba1a261	-0.004932687
212	0xbdd3e6dc	-0.10346767
213	0x3d225d6d	0.03963988
214	0x3d8ac755	0.06776301
215	0xbdbc139a	-0.09183426
216	0xbd6cfa38	-0.057855815
217	0xbd07888c	-0.033089206
218	0x3beb6ca2	0.007184581
219	0xbd05f87c	-0.032707676
220	0x3caa9f6c	0.020827971
221	0xbbf26780	-0.007397592
222	0x3e1660c9	0.14685358
223	0x3e483d3c	0.19554609
224	0x3d20b000	0.039230347
225	0x3db35ac1	0.08757544
226	0xbd132f7d	-0.03593396
227	0xbc4f2cc8	-0.012644954
228	0xbccbc7dc	-0.024875574
229	0x3de3603e	0.11102341
230	0x3db00d95	0.085963406
231	0xbce15282	-0.027505163
232	0x3dccb9c3	0.09996369
233	0x3be296d4	0.006914953
234	0xbd45a78e	-0.048255496
235	0x3e01e0b3	0.12683372
236	0xbd87ccb4	-0.06630841
237	0xbc7d4838	-0.015459113
238	0x3e01d54b	0.12679021
239	0x3b9d2157	0.004795234
240	0x3da25d94	0.07928005
241	0xbc58b7c1	-0.013227404
242	0x3cbaa88b	0.022785446
243	0x3dd3bf33	0.10339203
244	0x3c756c26	0.014979398
245	0x3d9a238b	0.075263105
246	0xbe93a3c0	-0.2883587
247	0xbd90aca8	-0.070641816
248	0x3d345ade	0.04403197
249	0xbd890ed4	-0.06692281
250	0x3d8c735a	0.06857939
251	0xbe3b606d	-0.18298502
252	0xbd4fdde2	-0.050748713
253	0xbd64e487	-0.055882003
254	0x3d6d86ad	0.057989765
255	0x3db58425	0.08863095

bias f4 [256]
0	0x3dc47920	0.09593415
1	0x3c59d15f	0.013294547
2	0x3e171bc4	0.14756685
3	0x3d79fdc7	0.061033037
4	0xbd301342	-0.042987116
5	0xbd40bdc8	-0.04705599
6	0xbdd317ba	-0.1030726
7	0xbd9b1f26	-0.075743005
8	0xbd9d7ac9	-0.07689435
9	0xbd269076	-0.040665112
10	0xbcc98d00	-0.024603367
11	0xbd59208e	-0.053009562
12	0xbdd4d27b	-0.103917085
13	0xbc43caff	-0.0119502535
14	0x3cb2b752	0.02181593
15	0xbd730e7d	-0.05933999
16	0x3cd12b03	0.025533205
17	0x3ce01245	0.027352462
18	0xbce6462e	-0.028109636
19	0xbd198a0e	-0.037485175
20	0x3d7d7efa	0.061888672
21	0x3d8081ec	0.06274781
22	0xbd795947	-0.060876157
23	0xbc42ae55	-0.011882384
24	0xbcd386c9	-0.025821107
25	0xbd8cb2ef	-0.068700664
26	0xbd5765b4	-0.052587226
27	0x3dea4dfd	0.11440656
28	0x3d83f262	0.06442715
29	0x3dc72995	0.09724728
30	0xbd7c218a	-0.061555423
31	0x3d5db758	0.05412993
32	0x3d59ed18	0.053204626
33	0x3d1261e5	0.03573789
34	0xbdb07957	-0.08616894
35	0x3d2ff30c	0.042956397
36	0x3787e850	1.6201433e-05
37	0xbd8b2acb	-0.067952715
38	0x3cb3c769	0.021945672
39	0xbcd07a48	-0.025448933
40	0xbd65010c	-0.0559092
41	0xbc472128	-0.012153901
42	0xbd1e29c8	-0.038614064
43	0x3dc42c9f	0.09578823
44	0xbcb092da	-0.0215544
45	0xbd9190b7	-0.0710768
46	0x3d8112a6	0.06302385
47	0xbdc682c4	-0.0969291
48	0xbd936e77	-0.07198804
49	0xbdf809c4	-0.12111238
50	0xbd71566e	-0.058920316
51	0xbd80a498	-0.06281394
52	0x3d6cdf2b	0.057830017
53	0xbd9ed702	-0.07755853
54	0x3d980aad	0.07423911
55	0xbdaa3d6e	-0.08312498
56	0xbdbe3d85	-0.09289078
57	0x3d92f54e	0.071756944
58	0x3c623da7	0.013808644
59	0x3d5b7cc7	0.053585794
60	0x3b474772	0.0030407575
61	0xbcbd5a39	-0.02311431
62	0xbd08cfcb	-0.03340129
63	0xbc90f6e7	-0.017695857
64	0x3d8181a4	0.06323555
65	0x3c051510	0.0081226975
66	0xbd302eb8	-0.043013304
67	0x3bfbfa95	0.007689784
68	0xbb37ca10	-0.0028044023
69	0xbcd108ce	-0.025516894
70	0xbce347e1	-0.027744235
71	0xbd759134	-0.05995293
72	0x3d392998	0.045205683
73	0xbd649066	-0.05580177
74	0xbdba9c24	-0.09111813
75	0xb8ecd950	-0.000112938345
76	0x3d733d4f	0.05938464
77	0x3d5c0fca	0.053725995
78	0x3b634cac	0.0034683151
79	0xbd2cf045	-0.042221326
80	0xbd425cb8	-0.047451705
81	0x3dd66838	0.10469097
82	0xbd68e809	-0.05686191
83	0xbdbcbb94	-0.09215465
84	0xbdc39b52	-0.095511094
85	0x3db4e284	0.08832267
86	0xbd3aa209	-0.045564685
87	0x3d932248	0.07184273
88	0x3bb5bca0	0.0055461675
89	0x3d91c430	0.07117498
90	0xbd0cd69a	-0.034384347
91	0x3d905e72	0.07049264
92	0x3c4a22f3	0.012337434
93	0xbd25d2b0	-0.04048413
94	0xbc104391	-0.008805172
95	0x3cd89e6d	0.02644273
96	0x3d52dbc1	0.051479105
97	0x3dfd27eb	0.123611294
98	0xbdbb39f7	-0.09141915
99	0x3d2e770f	0.042594012
100	0xbda32409	-0.079658575
101	0xbd049cd6	-0.032376133
102	0x3d1a680f	0.037696894
103	0xbd8bb180	-0.06820965
104	0xbe1016b1	-0.14071156
105	0x3cd15f3e	0.02555811
106	0x3cc22f1a	0.0237041
107	0x3caecafc	0.021337025
108	0x3d920cb7	0.071313314
109	0xbd8f6156	-0.07000987
110	0xbd01ff45	-0.031737585
111	0xbc4723f4	-0.012154568
112	0x3d8df0d8	0.06930703
113	0xbd2fa9ec	-0.04288666
114	0xbe1f0a72	-0.15531328
115	0xbc332130	-0.0109332055
116	0xbd974eaf	-0.073880546
117	0xbb0ada2a	-0.0021187165
118	0xbd3aed23	-0.045636307
119	0xbd51f116	-0.051255308
120	0x3b0fb8ae	0.0021930146
121	0x3db3cc68	0.08779222
122	0xbd57a920	-0.052651525
123	0x3c5dec63	0.0135451285
124	0xbc82dad4	-0.015973486
125	0x3ccd1921	0.025036396
126	0xbd979101	-0.07400704
127	0xbc12d76f	-0.008962496
128	0x3d8ea775	0.06965534
129	0xbd6161fe	-0.055025093
130	0x3e086e6f	0.13323377
131	0xbc9ebfae	-0.01937851
132	0x3ba02247	0.0048868987
133	0x3d3f543a	0.046711184
134	0x3d384190	0.0449844
135	0x3d0384db	0.032109123
136	0xbdb49cb7	-0.088189535
137	0x3d516ed8	0.0511311
138	0xba71b928	-0.0009221011
139	0x3d90c306	0.07068448
140	0x3d8653d4	0.06558958
141	0xbb34e425	-0.0027601805
142	0x3d8573f2	0.065162554
143	0xbd930e1f	-0.07180428
144	0x3cb0f638	0.021601781
145	0xbbc4a5dd	-0.0060012178
146	0x3c78db97	0.015189073
147	0x3c9b42e8	0.018952802
148	0xbce19f38	-0.027541742
149	0x3b8f61b1	0.0043756594
150	0x3c3a2846	0.011362141
151	0xb9c20049	-0.00037002776
152	0xbd9d70fd	-0.076875664
153	0x3c6bad4f	0.014384582
154	0xbc1d7ab9	-0.009611779
155	0xbbe000d5	-0.0068360367
156	0x3ca72b8e	0.02040651
157	0x3b546d3d	0.0032413744
158	0x3c1591e8	0.009129025
159	0x3da1a70f	0.07893192
160	0x3d32e001	0.043670658
161	0xbd622053	-0.055206608
162	0x3c0a6833	0.008447695
163	0xbda9721d	-0.082737185
164	0xbc7ff236	-0.015621712
165	0x3bf99317	0.0076164114
166	0x3dcdbbfd	0.100456215
167	0xbd21995f	-0.039452907
168	0x3df6391a	0.1202261
169	0xbdf3453d	-0.118784405
170	0xbcc5e96e	-0.02415916
171	0x3cec4558	0.02884166
172	0xbd955a5c	-0.07292625
173	0x3c94de2e	0.01817235
174	0xbda0fbea	-0.07860549
175	0xbdafdd43	-0.08587124
176	0xbdd23edb	-0.10265895
177	0xbcd22d1a	-0.025656272
178	0x3a5145c5	0.0007983114
179	0x3ddd28e1	0.10798813
180	0x3d1261d5	0.03573783
181	0x3db29a4d	0.08720837
182	0xbdaba5da	-0.08381243
183	0xbbb33f24	-0.0054701734
184	0xbc5c7b1a	-0.013457084
185	0xbc252128	-0.010078706
186	0x3d3ee914	0.046609
187	0x3d3af836	0.04564687
188	0xbdc0f2e5	-0.094213285
189	0x3d42373e	0.047415964
190	0x3d7f734e	0.062365822
191	0xbd04cc01	-0.032421116
192	0xbd13a6ae	-0.03604763
193	0xbd9ba0aa	-0.075990036
194	0x3ca6938d	0.02033403
195	0xbdd07dd0	-0.10180247
196	0xbe009ea5	-0.12560518
197	0x3b67a049	0.003534334
198	0x3d3fcedd	0.04682814
199	0xbd8cf13d	-0.0688195
200	0xbc20ef27	-0.009822643
201	0x3d8a91cc	0.0676609
202	0x3d62c288	0.0553613
203	0x3d38d7cd	0.04512768
204	0x3ba950a4	0.005167084
205	0x3d550d4f	0.052014645
206	0x3d384431	0.044986907
207	0x3c878224	0.016541548
208	0x3da538af	0.08067452
209	0x3d1b5841	0.037925962
210	0xbc5c540f	-0.0134477755
211	0xbdb228b1	-0.086991675
212	0xbd1126eb	-0.035437506
213	0x3cd8710d	0.026421094
214	0xbb33fc32	-0.0027463553
215	0xbd295cc4	-0.041348234
216	0x3ca29776	0.019847613
217	0x3c91ef15	0.017814199
218	0x3c134d33	0.008990574
219	0xbc5ca220	-0.013466388
220	0xbd6601e9	-0.056154165
221	0xbc49c13f	-0.01231414
222	0xbdb15db8	-0.086604536
223	0xbbf5b9ee	-0.007498971
224	0x3c85a3e0	0.016313493
225	0xbb1ae249	-0.0023633412
226	0xbcaf49ce	-0.021397498
227	0x3a1b3600	0.00059208274
228	0xbbf02a59	-0.007329267
229	0xbd36e393	-0.044650625
230	0xbdc76231	-0.097355254
231	0x3ced281e	0.028949793
232	0x3dad8546	0.084726855
233	0xbc9b2848	-0.018940106
234	0xbdc010cf	-0.09378206
235	0x3dee32b7	0.11630767
236	0xbda7eb09	-0.08199126
237	0x3da4b2bf	0.080419056
238	0xbd55438b	-0.052066367
239	0x3d8000ff	0.0625019
240	0xbd5d0f0d	-0.05396943
241	0x3deaa44e	0.1145712
242	0xbdcb9bff	-0.09941863
243	0xbd728051	-0.059204403
244	0xbd4e5eca	-0.050383367
245	0x3db2500a	0.087066725
246	0xbd195ff7	-0.037445035
247	0xbc229913	-0.009924191
248	0x385c7aa4	5.2566305e-05
249	0xbb3c39e3	-0.0028721027
250	0xbd96d8e6	-0.07365589
251	0xbd0bd715	-0.034140665
252	0xbd2fb7d6	-0.04289993
253	0x3cb55fdc	0.022140436
254	0x3cbf59b1	0.023358198
255	0x3cecc244	0.028901227
