src/saved_models/grid_world_seed125_8_3_16_37/125_0_model.pt (torch, 702713 bytes, 11 tensors)

FC1.weight f4 [256, 36]
0	0xbde1ba9d	-0.11021922
1	0xbded333d	-0.115820386
2	0x3d3a1fb9	0.04544041
3	0x3d4ef780	0.050529003
4	0x3d87be88	0.06628138
5	0xbdcf4ad2	-0.10121693
6	0x3d4cb574	0.049977735
7	0x3d7a3c49	0.06109265
8	0xbdc34585	-0.09534744
9	0x3d0a3100	0.033738136
10	0xbd32b165	-0.043626208
11	0xbca60b1b	-0.020268967
12	0xbd7b0ec4	-0.06129338
13	0x3e2a9284	0.16657454
14	0xbdad3a66	-0.08458404
15	0xbe40e812	-0.18838528
16	0xbd86faba	-0.06590791
17	0x3d219656	0.039450012
18	0xbe1a1b23	-0.15049414
19	0x3ab75150	0.0013986025
20	0xba7c922a	-0.0009634817
21	0x3d8fc073	0.07019129
22	0x3ccda2e9	0.025102096
23	0x3c7b41dd	0.015335527
24	0x3dedc178	0.11609167
25	0xbd98eaa6	-0.07466631
26	0xbe06b1cd	-0.13153763
27	0xbe01b673	-0.12667255
28	0x3e357add	0.1772265
29	0x3dbe9d7b	0.09307381
30	0x3d0f02fc	0.034914955
31	0xbceb2f97	-0.028709216
32	0x3e661e42	0.2247248
33	0xbe210fa9	-0.1572863
34	0x3bee1745	0.0072659575
35	0xbdbd3dbd	-0.09240291
36	0x3da12ea7	0.07870226
37	0x3d948246	0.0725141
38	0x3ce32ff8	0.027732834
39	0xbdd392ea	-0.10330756
40	0xbdf0d286	-0.11758904
41	0xbe2a4fa0	-0.16631937
42	0xbda4f83a	-0.08055158
43	0x3d2d6579	0.0423331
44	0xbdc88512	-0.09791006
45	0xbce3df08	-0.02781631
46	0x3c897c04	0.016782768
47	0xbcb9df7d	-0.022689575
48	0x3c57f653	0.013181287
49	0x3d12ef80	0.035872936
50	0x3d96bf95	0.0736076
51	0xbe08a195	-0.13342889
52	0xbc911448	-0.017709866
53	0xbca68332	-0.02032623
54	0x3e064cc7	0.13115226
55	0x3e20b288	0.15693104
56	0x3dc4778c	0.09593114
57	0x3db2ef75	0.08737079
58	0xbc132fc0	-0.008983552
59	0x3d85d954	0.06535593
60	0x3e114ebc	0.14190191
61	0xbd976d8e	-0.07393943
62	0xbb280fa3	-0.0025644086
63	0x3e057ac3	0.13035111
64	0x3e138ecc	0.14409941
65	0x3dcad682	0.09904195
66	0x3ca21b2c	0.019788347
67	0xbd98f35d	-0.07468293
68	0xbe2e0540	-0.1699419
69	0xbe0cb287	-0.13739978
70	0x3e51792e	0.20456383
71	0xbcb6b2bc	-0.022302024
72	0x3dde1c50	0.10845244
73	0x3c9dbcc6	0.019255053
74	0x3dc65907	0.09684949
75	0xbdc278d1	-0.094957
76	0xbd6d6221	-0.05795491
77	0xbe133bb5	-0.14378245
78	0x3dff4b8b	0.124655806
79	0x3dd45ffd	0.10369871
80	0x3da71efa	0.08160205
81	0xbd3fbc6b	-0.04681055
82	0xbdcf59ce	-0.10124551
83	0xbe133272	-0.14374712
84	0xbda4d973	-0.08049288
85	0x3e076b5a	0.13224545
86	0x3c563e24	0.013076339
87	0x3e0043e8	0.12525904
88	0x3e090ce9	0.13383831
89	0x3e02c2a6	0.12769565
90	0x3d9d50e2	0.07681443
91	0x3caa59a3	0.020794695
92	0x3d3d5122	0.046219952
93	0xbe1488a1	-0.14505245
94	0x3e27b675	0.16378196
95	0xbc60b445	-0.013714855
96	0x3d4303cc	0.047611043
97	0xbe02db16	-0.12778887
98	0x3e22cb89	0.15897955
99	0x3e04bd1e	0.12962767
100	0x3bdc1894	0.006716797
101	0x3caf3565	0.021387765
102	0x3e2293c7	0.15876685
103	0x3de09ae2	0.109670416
104	0x3db45aa8	0.08806354
105	0xbd2853a5	-0.041095395
106	0x3db65eb0	0.08904779
107	0xbd667922	-0.056267865
108	0xbda74ae2	-0.0816858
109	0xbc85d05c	-0.016334705
110	0x3d8af386	0.0678473
111	0x3d65be66	0.05608978
112	0x3d3cb5be	0.04607176
113	0x3e06ee92	0.13176945
114	0xbcd08e12	-0.02545837
115	0xbcd70ef2	-0.026252244
116	0x3c83a9f1	0.016072245
117	0x3e348932	0.17630461
118	0x3e8f91e9	0.28041008
119	0x3db2ed78	0.087367
120	0x3d9ccdf4	0.0765647
121	0xbbfadf74	-0.007656032
122	0xbc21edff	-0.009883403
123	0x3ce6d521	0.0281778
124	0x3d4301ac	0.047609016
125	0xbc754efb	-0.014972444
126	0xbd383831	-0.044975463
127	0xbd23af2d	-0.039961983
128	0xbda05d7e	-0.07830332
129	0x3e135beb	0.14390533
130	0x3e117bed	0.1420743
131	0xbd04ff33	-0.03246994
132	0x3e13b3fa	0.14424124
133	0x3e0672eb	0.13129775
134	0x3dbb8539	0.091562696
135	0x3cf1881c	0.029483847
136	0x3dc53f7e	0.09631251
137	0xbd64bbd9	-0.055843208
138	0x3c7df868	0.015501119
139	0x3dd55f20	0.10418534
140	0x3e6caefb	0.23113625
141	0xbda51175	-0.0805997
142	0xbe35ae49	-0.17742266
143	0xbcc5a5ac	-0.02412685
144	0xbdfdbfae	-0.123900756
145	0xbe0208c1	-0.12698652
146	0x3e1a9ac6	0.15098104
147	0x3e04990f	0.12949012
148	0x3b0b0d2f	0.0021217575
149	0x3dfc262a	0.12311967
150	0x3de8d110	0.113680005
151	0x3daba628	0.08381301
152	0xbc7f2b36	-0.015574267
153	0x3ba5e6c0	0.005062908
154	0xbe1884cf	-0.14894412
155	0xbdb06006	-0.08612065
156	0x3cd5b0a2	0.026085202
157	0x3ded3d83	0.11583998
158	0x3d270a5c	0.040781364
159	0xbd13d55c	-0.036092147
160	0x3db32ed7	0.08749168
161	0x3c98b6e5	0.018641898
162	0x3e19690f	0.14981483
163	0xbd2890b8	-0.04115364
164	0x3dee36d4	0.116315514
165	0xbd652116	-0.055939756
166	0x3db69cdd	0.08916638
167	0x3df8228b	0.121159635
168	0x3e21b223	0.1579061
169	0xbe0df8df	-0.13864468
170	0x3da68e64	0.081326276
171	0x3d9411b8	0.07229942
172	0x3e35721f	0.17719315
173	0x3d802f8d	0.062590696
174	0x3be6de4a	0.007045542
175	0x3de44958	0.11146802
176	0x3dd927aa	0.106032684
177	0xbdcca3a5	-0.0999215
178	0x3d3f990d	0.04677682
179	0x3e1df472	0.1542528
180	0x3e3fbc26	0.18724117
181	0xbce2b0dc	-0.027672224
182	0xbd8eba5e	-0.069691405
183	0x3d92701a	0.07150288
184	0x3e2b740c	0.16743487
185	0xbe22e7c0	-0.15908718
186	0xbd06db63	-0.032924067
187	0xbd667656	-0.056265198
188	0xbd9560f4	-0.07293883
189	0x3db54875	0.08851711
190	0xbe1c9b20	-0.1529355
191	0xbdf0230f	-0.11725437
192	0x3e416890	0.18887544
193	0xbde85ec1	-0.11346198
194	0x3e48d765	0.19613416
195	0x3c936b55	0.017995516
196	0xbdc510b4	-0.096223265
197	0x3e33f866	0.17575225
198	0x3dfc967b	0.12333389
199	0x3d5e3c9a	0.054257013
200	0x3d981508	0.074258864
201	0x3d96f53d	0.07370994
202	0xbdbfe2a3	-0.093693994
203	0xbd33efdd	-0.043929923
204	0xbd919b6c	-0.071097225
205	0xbab49de3	-0.0013779964
206	0xbce1a8c1	-0.027546288
207	0xbda63c08	-0.08116919
208	0x3dba481d	0.09095786
209	0xbd33b747	-0.04387596
210	0xbddc85f7	-0.10767739
211	0x3e38e930	0.18057704
212	0x3b1d9581	0.002404541
213	0x3d87668e	0.06611358
214	0x3e5f0ce7	0.21782266
215	0x3cb0343d	0.021509284
216	0xbd6ba7f7	-0.05753323
217	0xbe10a9aa	-0.14127222
218	0x3db3cc83	0.08779242
219	0xbddfabcc	-0.109214395
220	0xbd9d3403	-0.07675936
221	0x3c4a5beb	0.0123510165
222	0xbd9f5d94	-0.077815205
223	0x3e73a952	0.2379506
224	0x3d79e6eb	0.061011236
225	0x3c665453	0.01405819
226	0xbe5a6aa1	-0.21329738
227	0x3d46d635	0.048544127
228	0x3df5ac42	0.11995746
229	0xbddf5862	-0.109055296
230	0xbe0a4eb2	-0.13506582
231	0xbd90ebd0	-0.07076228
232	0xbde30b5f	-0.11086153
233	0x3e47ed29	0.19524063
234	0x3e84c16a	0.25928813
235	0x3d4b0492	0.049564905
236	0x3d96e2ea	0.07367499
237	0x3e2f8143	0.17139153
238	0xbd03be7d	-0.032164086
239	0x3db3116b	0.087435566
240	0x3cc26183	0.023728138
241	0xbcff308d	-0.03115108
242	0xbd103b5e	-0.035212867
243	0x3e237009	0.15960707
244	0x3e14b731	0.14523007
245	0xbded65c7	-0.11591678
246	0x3e4221ed	0.18958254
247	0xbdaedd3e	-0.08538292
248	0xbe62273a	-0.22085276
249	0x3dba2ed9	0.09090967
250	0x3d58d49c	0.052937135
251	0xbddecd8d	-0.108790495
252	0xbdb53ff4	-0.08850089
253	0x3dfcb93f	0.123400204
254	0xbd0e386d	-0.03472178
255	0x3dbccd31	0.09218825

FC1.bias f4 [256]
0	0xbe047ef2	-0.12939051
1	0xbd50abf1	-0.050945226
2	0x3d885e5c	0.066586226
3	0xbdca7b1b	-0.09886762
4	0xbdb8b192	-0.09018244
5	0x3c8d3269	0.017235951
6	0xbdbf2f87	-0.09335237
7	0xbd84f7e1	-0.06492592
8	0x3e2f5f62	0.1712623
9	0xbdb332ee	-0.087499484
10	0xbdab9786	-0.0837851
11	0x3ca292cc	0.019845389
12	0x3e13be2b	0.14428012
13	0x3c39ec4d	0.011347842
14	0x3e3c8733	0.1841095
15	0xbdbed0e4	-0.093171865
16	0x3e01574b	0.12630956
17	0x3d95ab9b	0.07308122
18	0x3cbb6b14	0.022878207
19	0xbdb48b9d	-0.088156916
20	0x3d3cef21	0.04612649
21	0xbc86890d	-0.016422773
22	0xbd2d853f	-0.0423634
23	0x3d015461	0.03157461
24	0xbc0e4ea4	-0.008685742
25	0x3dc8cd2d	0.09804759
26	0x3c3c426a	0.011490444
27	0x3c7fe382	0.015618207
28	0x3df8abd5	0.12142149
29	0xbc4450d4	-0.011982162
30	0xbdc76b2e	-0.0973724
31	0x3c1c84a0	0.009553105
32	0x3e2228f8	0.15835941
33	0x3d6499ae	0.055810623
34	0x3db032bc	0.08603427
35	0x3d929592	0.071574345
36	0x3df6688c	0.120316595
37	0x3df2092d	0.118181564
38	0x3da6ddc7	0.081477694
39	0xbe141d7f	-0.14464377
40	0xbdd502ef	-0.1040095
41	0x3e4377d6	0.19088683
42	0x3dc310dd	0.09524701
43	0xbde8a12c	-0.11358866
44	0x3d13f1db	0.036119323
45	0x3d2b30c0	0.04179454
46	0x3e11b201	0.1422806
47	0x3de84903	0.11342051
48	0x3943c127	0.00018668604
49	0xbd6aebde	-0.057353847
50	0x3e14eea6	0.14544162
51	0x3e521ed3	0.20519571
52	0xbd915dc8	-0.070979655
53	0xbc30d6ff	-0.010793447
54	0xbda13f50	-0.07873404
55	0xbdbd630f	-0.092474096
56	0x3ddfe9c7	0.10933261
57	0xbd570c35	-0.052501876
58	0xbdb43fc4	-0.08801225
59	0xbde827c9	-0.113357134
60	0x3dfe748d	0.12424574
61	0x3e32b10f	0.17450355
62	0xbd98779e	-0.0744469
63	0xbd74abaf	-0.059734043
64	0xbe25026d	-0.16114207
65	0x3d8ea8ba	0.06965776
66	0xbd438321	-0.047732476
67	0xbd874254	-0.06604448
68	0x3e2bfaf9	0.16794957
69	0xbdeb2930	-0.11482465
70	0xbd1cba89	-0.03826383
71	0xbdfa745c	-0.12229225
72	0x3d8d4634	0.06898156
73	0x3d8de83b	0.0692906
74	0x3d175e03	0.03695489
75	0xbc91dc4b	-0.01780524
76	0xbe0500ca	-0.12988582
77	0x3df3099a	0.11867066
78	0xbde85676	-0.11344616
79	0xbe09a3ff	-0.13441466
80	0xbca7973a	-0.020457853
81	0xbd3b1d36	-0.045682155
82	0x3cd99251	0.026559027
83	0x3e37f6ea	0.17965284
84	0x3e109793	0.14120321
85	0x3df2d7ae	0.11857544
86	0xbddc69d4	-0.107623726
87	0xbaf7d80e	-0.0018908994
88	0x3e06b5b3	0.1315525
89	0x3bebec96	0.007199834
90	0xbd070b37	-0.03296968
91	0xbdc65c2e	-0.09685551
92	0x3ba80df2	0.0051286155
93	0xbc7ff35e	-0.015621988
94	0x3cc11054	0.023567356
95	0xbc2a5959	-0.010397279
96	0xbe1101ba	-0.14160815
97	0xbdbf28db	-0.093339644
98	0x3d9294a8	0.0715726
99	0xbdb86f46	-0.09005599
100	0x3d99567e	0.074872
101	0xbe01ab27	-0.12662946
102	0xbdea1abe	-0.11430882
103	0xbdcb4be6	-0.09926586
104	0xbbb971cb	-0.005659317
105	0x3cfd5cd9	0.030928062
106	0x3db2e78e	0.08735572
107	0xbd7b07b2	-0.061286636
108	0x3de8b969	0.11363489
109	0xbdad94a7	-0.08475619
110	0xbd329069	-0.04359475
111	0x3dd75fbc	0.10516307
112	0x3e35c7b5	0.17751963
113	0xbd79e0dc	-0.06100546
114	0x3da93945	0.082628764
115	0xbd2e1b90	-0.042506754
116	0x3e2eea4a	0.17081562
117	0xbd48a9a0	-0.048989892
118	0x3dd55532	0.1041664
119	0x3de1d7d7	0.11027496
120	0xbcf22a17	-0.029561086
121	0x3e1d205b	0.15344374
122	0xbe036319	-0.12830772
123	0x3e29c587	0.16579257
124	0xbd37226f	-0.044710573
125	0x3e30bf1e	0.17260405
126	0xbd657aae	-0.0560252
127	0xbcda4b49	-0.026647227
128	0xbdb1b925	-0.08677892
129	0x3e2aec50	0.16691709
130	0xbe0ec9b8	-0.13944137
131	0xbe0e0564	-0.13869244
132	0xbdee2688	-0.11628443
133	0x3d0f8a1d	0.035043824
134	0xb96e54f2	-0.00022729093
135	0x3c174129	0.009231844
136	0xba633785	-0.0008667636
137	0x3ce2253b	0.027605643
138	0x3df2343b	0.118263684
139	0xbd700208	-0.058595687
140	0xbda546e1	-0.0807016
141	0x3e348abd	0.1763105
142	0x3be64ee9	0.00702845
143	0x3d19b55e	0.03752648
144	0x3df9500b	0.1217347
145	0xbc5d9c9d	-0.013526109
146	0xbd40c8c0	-0.04706645
147	0x3e406064	0.1878677
148	0x3e0edafb	0.13950722
149	0xbdfdf92f	-0.124010436
150	0x3d3ebacf	0.046564873
151	0x3dbad00c	0.09121713
152	0xbe09acb3	-0.13444786
153	0x3dc993e0	0.09842658
154	0xbdd23658	-0.102642715
155	0x3e064eff	0.13116072
156	0xbdef75a8	-0.11692363
157	0x3df8acc5	0.12142328
158	0x3dbb1731	0.09135283
159	0xbe0dcc50	-0.1384747
160	0xbd46756d	-0.04845183
161	0x3e062a1a	0.13101998
162	0xbc585fa9	-0.013206401
163	0x3d481cdf	0.04885566
164	0xbd67dba6	-0.056605957
165	0x3e23580c	0.15951556
166	0xbcb98d30	-0.022650331
167	0xbe0dda32	-0.13852766
168	0xbd1881c2	-0.03723312
169	0xbdefdf46	-0.11712508
170	0xbe29a93d	-0.16568466
171	0xbd8967bd	-0.0670924
172	0x3ddc7631	0.10764731
173	0xbdb2e00e	-0.08734141
174	0xbcc50036	-0.024047952
175	0x3deb4df4	0.11489478
176	0xbccc377d	-0.024928803
177	0x3e16634c	0.14686316
178	0x3c3154db	0.010823454
179	0xbdde7503	-0.10862162
180	0x3e0907b4	0.13381845
181	0xbd9111c9	-0.070834704
182	0x3c26d4ef	0.010182603
183	0x3d665b53	0.056239437
184	0x3d3375e4	0.0438136
185	0x3d101b93	0.035182547
186	0xbd192394	-0.037387446
187	0xbdaf91f9	-0.08572764
188	0xbdc4ae42	-0.096035495
189	0x3d63a1b8	0.05557415
190	0x3e136da7	0.14397298
191	0x3cdd4f10	0.027015239
192	0xbc75f564	-0.015012119
193	0xbd7ca33f	-0.06167912
194	0xbd8f3772	-0.06992997
195	0x3d7ffd16	0.06249722
196	0x3e01bc27	0.1266943
197	0xbde82dc6	-0.113368556
198	0x3e011431	0.12605359
199	0xbd054308	-0.03253463
200	0xbcb93bb8	-0.022611484
201	0x3d5fdd1c	0.054654226
202	0x3dcdfb25	0.10057668
203	0x3e22e40e	0.15907308
204	0x3df58b29	0.11989433
205	0x3d2bb319	0.041918848
206	0x3df13e33	0.11779442
207	0xbe25373f	-0.16134356
208	0xbdd58528	-0.10425788
209	0x3cd3c0a3	0.025848692
210	0xbc721e16	-0.014777681
211	0xbdc4a0c6	-0.096009776
212	0xbe0bf25a	-0.13666669
213	0x3e200716	0.15627703
214	0x3d00fd58	0.031491607
215	0x3e2c8d96	0.16850886
216	0x3e0258c6	0.12729177
217	0x3df664a3	0.12030914
218	0xbdb91d99	-0.090388484
219	0x3e25edaf	0.1620395
220	0x3d80ee4e	0.06295453
221	0x3ce81f78	0.028335318
222	0x3d8fb59e	0.070170626
223	0xbe23ca3c	-0.15995115
224	0x3d1898f4	0.037255242
225	0xbdd5162f	-0.10404622
226	0x3d20c985	0.039254684
227	0x3d32abef	0.043621
228	0xbdb35587	-0.087565474
229	0x3c592a13	0.01325466
230	0xbdb78454	-0.089607865
231	0x3d820610	0.063488126
232	0x3db08f88	0.086211264
233	0xbe257ceb	-0.16160934
234	0xbde5f2c2	-0.11227943
235	0x3d1be500	0.03806019
236	0xbd7690a5	-0.060196538
237	0x3d757d17	0.059933748
238	0xbde5ab4f	-0.11214315
239	0x3de2276a	0.11042674
240	0xbddcbca6	-0.10778169
241	0xbd33b1f7	-0.043870892
242	0x3e34a060	0.17639303
243	0xbd323dd2	-0.043515988
244	0x3e42d913	0.1902812
245	0xbc822d1f	-0.015890656
246	0x3d162be9	0.03666297
247	0x3e34ae72	0.1764467
248	0x3d2ff437	0.04295751
249	0xbda048e1	-0.078264005
250	0x3e320ec9	0.17388453
251	0x3d9bf97e	0.07615946
252	0xbd3086ef	-0.043097433
253	0x3db0ee0a	0.08639152
254	0x3e05b3b0	0.13056827
255	0x3db17282	0.08664419

FC2.weight f4 [256, 256]
0	0x3d9ea4b7	0.077462606
1	0x3d91cedb	0.07119533
2	0xbd5496aa	-0.051901497
3	0xbccb0cec	-0.024786435
4	0xbcde2269	-0.027116017
5	0x3d36a80c	0.044593856
6	0xbc1f62a6	-0.009728109
7	0xbd3cf217	-0.046129312
8	0xbae682ce	-0.001758659
9	0xbd4bfbe4	-0.04980077
10	0x3cafb654	0.021449246
11	0x3d9093e6	0.070594594
12	0xbd46e2c1	-0.048556093
13	0x3d61c2d0	0.05511743
14	0x3cefe894	0.029285707
15	0x3c974a5c	0.018468075
16	0xbca45e36	-0.020064455
17	0x3cdd133b	0.026986709
18	0x3c7c500c	0.015399944
19	0x3d4aaf07	0.049483325
20	0x3c16cbf5	0.009203901
21	0x3d2937b0	0.041312873
22	0x3c364a13	0.011126059
23	0xbc78f4fc	-0.015195128
24	0xbd95bf22	-0.07311846
25	0xbc662e3f	-0.014049112
26	0x3d23a192	0.039949007
27	0x3d3afc95	0.045651037
28	0xbd432aa8	-0.047648102
29	0x3c99aa59	0.018757986
30	0x3d7644b4	0.060124114
31	0xbd864b05	-0.065572776
32	0xbd3ab6e3	-0.04558457
33	0x3d37fe21	0.04492009
34	0x3caaf72a	0.02086981
35	0x3d371b09	0.044703517
36	0xbb5a2da4	-0.0033291364
37	0xbd013dde	-0.03155314
38	0x3c7a0bfd	0.015261647
39	0xbc1d2098	-0.0095902905
40	0x3cf99929	0.03046854
41	0xbdb51777	-0.08842366
42	0x3c42150d	0.011845839
43	0xbbd5ee11	-0.006528624
44	0x3d1f971b	0.038962465
45	0xbc89df6f	-0.016830174
46	0x3c5819d3	0.013189751
47	0x3d41be22	0.047300465
48	0xbd1315aa	-0.035909332
49	0x3d7af823	0.061271798
50	0x3a6686de	0.00087939005
51	0x39d24ef2	0.0004011314
52	0x3caf8100	0.021423817
53	0x3d04d757	0.032431927
54	0x3d2eaf08	0.04264739
55	0x3ca0e43c	0.01964008
56	0xbd381b7f	-0.044948097
57	0xbc8783be	-0.016542312
58	0xbce1d065	-0.02756519
59	0xbcbfd70d	-0.023417974
60	0x3d90b254	0.070652634
61	0xbd17c0ec	-0.03704922
62	0xbd35ff16	-0.044432722
63	0xbcfae09b	-0.030624678
64	0x3d4fb3e9	0.050708685
65	0x3bbe5932	0.0058089728
66	0xbd87490f	-0.06605732
67	0xbd0aeff4	-0.033920243
68	0xbc8b0a70	-0.01697275
69	0xbda4c26f	-0.08044898
70	0x3cd4524c	0.025918148
71	0x3ca7fc34	0.020506002
72	0xbd094fae	-0.033523254
73	0xbc9b6fc8	-0.0189742
74	0xbd1289b6	-0.035775863
75	0x3d4348a1	0.047676686
76	0xba04fe80	-0.0005073324
77	0xbc9b85a2	-0.01898462
78	0x3a83596e	0.0010021159
79	0x3d3e1e7b	0.046415787
80	0xbd3d2f92	-0.046187945
81	0xbaf0fd2d	-0.0018385999
82	0x3c1e1c50	0.009650305
83	0xbd0026b6	-0.031286918
84	0x3bfc12dc	0.007692678
85	0x3ca13c99	0.019682216
86	0x3d7e7b93	0.06212957
87	0xbdaedc5b	-0.08538123
88	0x3d07a2d4	0.03311427
89	0xbc7d6f30	-0.015468404
90	0xbca9702f	-0.020683376
91	0xbd7090b0	-0.058731735
92	0x3c8906b5	0.016726831
93	0xbd56337d	-0.052295197
94	0x3c7b47bb	0.015336926
95	0xbccaaa60	-0.024739444
96	0xbd16fc2e	-0.03686159
97	0x3dd92543	0.1060281
98	0x3c97b09c	0.018516831
99	0x3da9e8c1	0.082963474
100	0xbbf83720	-0.007574931
101	0xbd59190d	-0.053002406
102	0xbc1cd0b7	-0.009571246
103	0x3dc755cd	0.09733162
104	0xbd6c0cc0	-0.057629347
105	0x3d5f50a2	0.054520257
106	0x3d9c5038	0.07632488
107	0x3d8867e4	0.066604406
108	0x3d8c2f7a	0.06844993
109	0xbb9241bb	-0.004463402
110	0xbd0c85c0	-0.03430724
111	0x3d0b6482	0.0340314
112	0xbd118db7	-0.03553554
113	0x3d21590c	0.039391562
114	0x3cb6a405	0.022295007
115	0x3ba8e8aa	0.005154689
116	0xbbb4c74e	-0.005516923
117	0xbcbbffd3	-0.022949135
118	0x3d0b2472	0.033970304
119	0x3d0a59ad	0.033776928
120	0xbd118d1d	-0.035534967
121	0x3b481181	0.0030528011
122	0x3c3074dc	0.010770049
123	0xbcb30f77	-0.02185796
124	0x3d3ca038	0.046051234
125	0x3c977dc2	0.018492583
126	0xbd34e468	-0.044163138
127	0x3ab93d18	0.0014132587
128	0xbd2aa14b	-0.041657727
129	0x3c7b91b7	0.015354565
130	0xbbe1ebcc	-0.0068945643
131	0xbc8bfabe	-0.017087337
132	0x3d74bbfa	0.05974958
133	0xbd0ebc8c	-0.03484778
134	0xbd4dafb4	-0.05021639
135	0x3cf2bbef	0.02963063
136	0xbca73923	-0.020412987
137	0xbc7c626d	-0.015404326
138	0x3da351e8	0.07974607
139	0xbda6c010	-0.08142102
140	0xbcca58c7	-0.024700535
141	0xbd370860	-0.04468572
142	0x3d7eb97c	0.06218861
143	0x3c59d05e	0.0132943075
144	0xbcd472ba	-0.025933612
145	0x3abeffdc	0.0014572102
146	0x3d2a95c2	0.041646726
147	0x3dcc1eb5	0.099667944
148	0xbd82ed10	-0.06392872
149	0x3b527402	0.0032112603
150	0x3daafe3d	0.08349273
151	0x3c94c91f	0.018162308
152	0xbd8a6d36	-0.067591116
153	0xbd3538f0	-0.044243753
154	0xbc9df3e0	-0.019281328
155	0xbd1f7859	-0.03893313
156	0xb80bca9f	-3.3328888e-05
157	0x3cda6c42	0.02666295
158	0xbb98ced7	-0.004663329
159	0xba97daa8	-0.001158555
160	0x3bcf783e	0.0063314727
161	0xbd1b4d87	-0.037915733
162	0xbd8ce878	-0.068802774
163	0xbcdb9eb5	-0.026809076
164	0x3b9d9db9	0.004810062
165	0x3d5db021	0.054123048
166	0x3bb333b6	0.005468811
167	0xbbe3bc73	-0.006949955
168	0xbc34b2ca	-0.011028955
169	0xbd0555f5	-0.03255268
170	0x3d2294d3	0.03969271
171	0x3d02ee3d	0.031965483
172	0x3cd60df2	0.026129697
173	0xbd801c01	-0.06255341
174	0xbc936caa	-0.017996151
175	0x3d2fefdb	0.042953353
176	0x3d56ef8f	0.052474555
177	0x3d8a2f2f	0.06747281
178	0xbc338032	-0.010955857
179	0x3c817ecd	0.015807534
180	0x3b15bdd6	0.0022848747
181	0x3d9d7456	0.07688205
182	0xbd8d20f7	-0.06891053
183	0x3cc766b9	0.024340974
184	0xbd3d9752	-0.04628689
185	0xbd39a8df	-0.045327064
186	0xbd7d0eeb	-0.061781805
187	0x3c06696c	0.0082038455
188	0x3d1b109d	0.03785764
189	0xbc94063a	-0.018069375
190	0x3c5c5864	0.013448808
191	0xbc5e1c6b	-0.01355658
192	0x3bc5915e	0.006029292
193	0xbc2a8131	-0.010406778
194	0x3b925ddf	0.0044667567
195	0xbd3f6bde	-0.04673373
196	0x3d84a1d4	0.06476179
197	0xbd097320	-0.033557057
198	0xbc0fe368	-0.008782245
199	0x3d022c7e	0.031780712
200	0x3d6c7c3c	0.057735667
201	0xbd0e714c	-0.034776017
202	0x3c03e0e6	0.008049225
203	0xbc403831	-0.011732147
204	0x3c328936	0.010896971
205	0xbd00d5c6	-0.03145387
206	0x3ced1121	0.028938832
207	0xbd5688f6	-0.05237671
208	0x3ca3b785	0.01998497
209	0x3d4bafe9	0.049728308
210	0x3d04fdf0	0.032468736
211	0x3d4ee816	0.050514303
212	0xbc8c6b9c	-0.017141156
213	0x3c8fa6d6	0.017535608
214	0x3b9d27fd	0.0047960267
215	0x3be1506e	0.006876043
216	0x3d116c6c	0.03550379
217	0x3d452321	0.048129205
218	0xbcec2373	-0.028825497
219	0xbcb998b5	-0.022655824
220	0x3c573c19	0.013136887
221	0x3a288a80	0.00064293295
222	0xbd3f129e	-0.046648614
223	0x3d6f0746	0.058356546
224	0xbd50b2c2	-0.050951727
225	0xbd327cae	-0.043575935
226	0x3c9df0fe	0.019279953
227	0xbd3fe48e	-0.046848826
228	0xbccafa5e	-0.024777588
229	0xbcc7831b	-0.024354508
230	0xbd96835b	-0.07349273
231	0xbcd6c1e7	-0.026215507
232	0x3c88586f	0.01664373
233	0x3cce1bc6	0.025159728
234	0xbcfb3ff3	-0.030670142
235	0x3d2b84de	0.04187476
236	0xbd31e7f9	-0.043434117
237	0x3d8b4c71	0.068016894
238	0x3d9f2403	0.077705406
239	0xbb8d3edc	-0.004310472
240	0x3cfefb38	0.03112565
241	0xbcdf4a30	-0.027257055
242	0xbb00043c	-0.0019533774
243	0xbd1f29c0	-0.038858175
244	0xbd7b5614	-0.061361387
245	0xbd05ade7	-0.03263655
246	0xbd272f29	-0.04081646
247	0x3d3581fc	0.044313416
248	0xbd34b343	-0.04411627
249	0x3ccf0054	0.025268711
250	0x3d3edbaa	0.046596207
251	0x3c3544a1	0.011063726
252	0xbd3c1201	-0.045915607
253	0xbcf62283	-0.030045753
254	0xbd36e3da	-0.04465089
255	0x3d335ca1	0.04378951

FC2.bias f4 [256]
0	0xbb8f6541	-0.004376084
1	0xba97b587	-0.0011574485
2	0x3d8e019c	0.06933901
3	0x3d5295e1	0.051412467
4	0xbd01f72c	-0.031729862
5	0x3ce3bf02	0.02780104
6	0xbd28b5df	-0.04118907
7	0xbbcd3e74	-0.0062635485
8	0x3d969fba	0.07354684
9	0xbc5598db	-0.013036932
10	0xbc0e1a28	-0.008673228
11	0xb99d4003	-0.00029993066
12	0x3c083d56	0.008315405
13	0x3c882e68	0.01662369
14	0x3c898cf1	0.016790839
15	0x3d710e80	0.05885172
16	0x39c6010e	0.0003776629
17	0x3d2e1bdf	0.04250705
18	0x3cc7ccb3	0.0243896
19	0xbd4b346f	-0.04961055
20	0xbc26cd57	-0.010180793
21	0x3d0ddc1d	0.034633745
22	0x3cbf66f1	0.023364516
23	0x3d6b27bf	0.05741095
24	0x3d3e8302	0.046511658
25	0x3ae4826f	0.0017433892
26	0xbb8c6540	-0.004284531
27	0x3c429922	0.01187733
28	0xbbdef8a6	-0.0068045435
29	0x3d41c9f4	0.047311738
30	0xbca38d04	-0.019964702
31	0xbcbcf822	-0.023067538
32	0x3b82b37b	0.003988681
33	0x3d8f0a05	0.06984333
34	0xbd05d26b	-0.032671373
35	0xbcae4315	-0.021272222
36	0x3d4bab46	0.049723886
37	0x3da1c32b	0.078985535
38	0x3d543a38	0.051813334
39	0xbd61e6ce	-0.055151753
40	0x3d4b0ba2	0.04957164
41	0xbd4658b6	-0.048424445
42	0x3ceaa198	0.028641507
43	0x3be47d7e	0.0069729676
44	0xbd6dbce3	-0.058041465
45	0x3d82687c	0.06367585
46	0xbd0cd308	-0.034380943
47	0x3caa7f95	0.020812789
48	0x3c3c6e6e	0.011500938
49	0x3ca4f7ac	0.02013763
50	0x3ca40142	0.020020131
51	0xbd8c765a	-0.06858511
52	0x3bc40530	0.0059820637
53	0x3c032bdd	0.008006063
54	0x3bcb4f90	0.006204553
55	0x3d49c8e5	0.049263854
56	0xbce92bcc	-0.028463267
57	0xbcd5c590	-0.026095182
58	0xbd1383a9	-0.036014233
59	0x3d617371	0.055041734
60	0xbd376d0f	-0.04478174
61	0xbcb221c4	-0.021744616
62	0xbd8ea65a	-0.06965323
63	0xbcbbe638	-0.022936925
64	0x3d8cf657	0.06882923
65	0x3d3538b6	0.044243537
66	0x3d8a7d49	0.067621775
67	0x3bc47fa0	0.0059966594
68	0x3c1a6552	0.009423571
69	0xbd249ab5	-0.040186603
70	0x3be27686	0.0069111018
71	0x3d1109e8	0.035409838
72	0x3c8c7cd3	0.017149365
73	0x3d4dc3d4	0.050235584
74	0xbd073cc7	-0.033016946
75	0x3d1cfc5e	0.038326614
76	0xbad7838d	-0.0016442403
77	0xbd359778	-0.044333905
78	0xbd7779d9	-0.060418937
79	0x3cf80574	0.030276038
80	0x3d2f0a01	0.04273415
81	0xbd4fd284	-0.050737873
82	0x3d9b9fb2	0.07598819
83	0x3d622ed8	0.055220455
84	0x3cbb6596	0.022875588
85	0x3c8ce621	0.017199578
86	0x3c436188	0.011925109
87	0xbd015c19	-0.03158197
88	0x3ce684a1	0.028139414
89	0xbcef1c4c	-0.029188298
90	0x3c8115eb	0.015757522
91	0x3c63e965	0.013910626
92	0xbd1e3c7c	-0.0386319
93	0xbd90e316	-0.07074563
94	0xbc8f868c	-0.017520212
95	0x3c405c0e	0.011740698
96	0x3d18ece7	0.037335303
97	0xbbf62f65	-0.007512974
98	0xbcc07d9c	-0.023497395
99	0x3da200cf	0.079103105
100	0x3c72ca98	0.01481881
101	0x3d6ab7cb	0.057304185
102	0xbc53baee	-0.0129229855
103	0xbd2cff37	-0.04223558
104	0x3d5826f0	0.05277151
105	0xbd8a5f8f	-0.067565076
106	0xbd0b742a	-0.03404633
107	0xbca6f489	-0.020380275
108	0x3d10c38d	0.03534274
109	0x3d8e83a3	0.069587015
110	0xbd3d5b79	-0.046229813
111	0xbd53696d	-0.051614214
112	0x3d2c35a3	0.04204334
113	0xbd373e34	-0.044737056
114	0x3cd62fe9	0.026145892
115	0xbd1120f0	-0.035431802
116	0x3b62d20a	0.0034610056
117	0xbcff9cf8	-0.031202778
118	0xbcacf508	-0.021112934
119	0xbc84828e	-0.016175535
120	0x3c971ef6	0.01844738
121	0x3cca05dc	0.024660997
122	0xbce514c6	-0.027964007
123	0x3b790aa0	0.0038000718
124	0xbd00eddc	-0.03147684
125	0x3d25e18f	0.040498313
126	0xbd3da12e	-0.04629629
127	0x3d371ed0	0.04470712
128	0x3da2a7b4	0.07942143
129	0xbc44e529	-0.012017527
130	0xbcd24088	-0.025665537
131	0x3d910123	0.07080295
132	0xbcc39dfc	-0.023879044
133	0x3d264469	0.040592585
134	0x3d394191	0.045228545
135	0x3d9eb39c	0.077491015
136	0xbceffcab	-0.029295286
137	0x3d2e6c50	0.042583764
138	0x3d2f6ad0	0.042826474
139	0x3d6ab46f	0.05730098
140	0x3ca3e4fc	0.02000665
141	0x3cfac139	0.030609714
142	0x3d26c03d	0.040710676
143	0x3aab4916	0.0013068046
144	0x3bde2ca6	0.006780225
145	0x3d0f1477	0.034931626
146	0x3d5f1914	0.054467276
147	0xbcce8405	-0.025209436
148	0x3d9da69f	0.07697796
149	0x3cb1db95	0.02171115
150	0x3d4729df	0.048623916
151	0x3d7716b5	0.06032439
152	0xbd239c0a	-0.039943732
153	0xbbb3967a	-0.0054805847
154	0xbce6a0b3	-0.0281528
155	0x3d89bc16	0.06725328
156	0xbc7d326c	-0.015453916
157	0xbcf5badf	-0.029996334
158	0x3c88481e	0.01663595
159	0x3d18cd02	0.037304886
160	0x3c86f0f6	0.016472321
161	0xbd7bfbe0	-0.061519504
162	0x3b45c3fd	0.0030176633
163	0x3d05fcd9	0.032711837
164	0x3d6adc12	0.05733878
165	0xbc871bb1	-0.016492696
166	0xbd790e75	-0.060804803
167	0xbc011ca1	-0.007880361
168	0x3d0754ce	0.03303986
169	0xbd8f3785	-0.069930114
170	0x3d6bf5cc	0.057607457
171	0x3c99e398	0.018785283
172	0xbc0d93be	-0.0086411815
173	0x3d6980fe	0.057007782
174	0xbc885884	-0.01664377
175	0xbc12be10	-0.008956447
176	0x3ce8d49c	0.028421693
177	0x3d211f0b	0.039336246
178	0x3d1d8ab7	0.038462367
179	0x3d798d68	0.06092587
180	0xbd53b757	-0.05168852
181	0x3c8f788b	0.017513534
182	0x3c48802b	0.012237589
183	0x3d508531	0.05090827
184	0xbd4b757a	-0.04967258
185	0xbd118457	-0.0355266
186	0xbd0d2a6f	-0.034464296
187	0x3cd6667e	0.026171919
188	0x3d99d9bb	0.07512232
189	0x3d1af340	0.037829638
190	0x3d9c068c	0.07618436
191	0xbd5a6bc2	-0.053325422
192	0x3bb44b3d	0.005502133
193	0xbc8b61d0	-0.017014414
194	0xbc81d8cb	-0.015850445
195	0xbc548ffc	-0.012973782
196	0x3d1991b8	0.037492484
197	0x3cb4cd30	0.022070497
198	0x3d624d6f	0.055249628
199	0xbd044354	-0.03229077
200	0x3d9879a0	0.07445073
201	0x3ca07a9b	0.019589713
202	0xbaf38371	-0.0018578601
203	0x3d09249c	0.03348218
204	0xbce736fa	-0.028224457
205	0xbcd39223	-0.02582652
206	0xbac4680d	-0.0014984623
207	0x3ccfb889	0.025356548
208	0x3c3b4420	0.0114298165
209	0xbd099056	-0.033584915
210	0xbd0ea84c	-0.03482847
211	0x3d2bff12	0.0419913
212	0x3d805120	0.06265473
213	0x3cc17a38	0.023617849
214	0x3d633ded	0.05547898
215	0xbcff9f30	-0.031203836
216	0x3cd11149	0.025520938
217	0x3d8dce69	0.06924135
218	0xbd64274b	-0.055701535
219	0xbd89557f	-0.0670576
220	0xbc97eec4	-0.01854647
221	0x3cec0d1d	0.028814847
222	0x3d89c818	0.06727618
223	0xbc17ca35	-0.0092645185
224	0x3d5598a1	0.05214751
225	0x3d4c26b7	0.04984161
226	0x3c9189c7	0.017765893
227	0x3d26747b	0.04063843
228	0x3cae3d58	0.021269485
229	0x3cf1b46e	0.02950498
230	0xbd84410c	-0.06457719
231	0xbccfed67	-0.025381757
232	0xbd5570a3	-0.052109372
233	0xbc6ac908	-0.014330156
234	0x3c686d9d	0.01418629
235	0x3d467dd9	0.04845986
236	0x3d063d1d	0.032773126
237	0xbc44baa4	-0.012007389
238	0xbd7f28c9	-0.062294755
239	0x3d84f7de	0.064925894
240	0xbc2cda80	-0.010550141
241	0x3b7619f6	0.0037552095
242	0x3d5d4b9b	0.05402718
243	0x3cea4af6	0.028600197
244	0x3d3201db	0.0434588
245	0x3d16f3a6	0.036853455
246	0x3c071186	0.008243924
247	0x3c1ed14e	0.009693457
248	0x3c2a917f	0.010410666
249	0x3cb9b52c	0.022669397
250	0xbd117410	-0.035511076
251	0x3d8f24a5	0.06989411
252	0xbd1e7c8b	-0.038692992
253	0x3d7baf87	0.061446693
254	0x3d522407	0.05130389
255	0x3d5287c2	0.051399

action_out.weight f4 [5, 256]
0	0xbd32438e	-0.043521456
1	0xbd5934f5	-0.05302902
2	0xbd7b20f0	-0.06131071
3	0xbd6507fb	-0.055915814
4	0xbd133e53	-0.03594811
5	0x3d48c0bd	0.049011935
6	0xbc91308c	-0.017723344
7	0xbbbe0c85	-0.0057998323
8	0xbd6b8670	-0.057501256
9	0x3c854b0c	0.016271137
10	0x3d1a8294	0.037722185
11	0xbd626047	-0.0552676
12	0xbbc47949	-0.0059959036
13	0xbcd05581	-0.025431396
14	0xbd446a61	-0.047953013
15	0xbd55e1f0	-0.052217424
16	0xbda20164	-0.079104215
17	0x3d287988	0.041131526
18	0xbd95dbfc	-0.07317349
19	0xbd111ac8	-0.03542593
20	0xbd6cdfb1	-0.057830516
21	0xbd843e1f	-0.06457161
22	0xbd952626	-0.07282667
23	0xbd175571	-0.036946718
24	0x3cd364f4	0.025804974
25	0x3cb53c21	0.022123398
26	0xbda7d28d	-0.08194456
27	0x3d59243c	0.05301307
28	0xbc2a70e1	-0.010402889
29	0x39777bfb	0.00023601942
30	0x3be2bc69	0.006919433
31	0x3c937db3	0.018004274
32	0xbce72269	-0.02821465
33	0xbd59fd1d	-0.053219903
34	0x3d4ab639	0.049490187
35	0x3ae2d5a0	0.0017306097
36	0xbd97b5b2	-0.074077025
37	0xbd9225ea	-0.07136138
38	0x3be4291e	0.0069629094
39	0x3d2fb0ca	0.04289321
40	0xbd06cca6	-0.03291001
41	0xbc1d31df	-0.00959441
42	0xbda5b7fc	-0.08091733
43	0xbc9bc14e	-0.019013073
44	0xbb895111	-0.004190572
45	0xbd88056b	-0.066416584
46	0x3bd1a970	0.0063983724
47	0x3d0fe853	0.03513367
48	0xbd4a0744	-0.049323335
49	0xbd1b23e0	-0.03787601
50	0x3ce48b2f	0.0278984
51	0x3d50feef	0.051024374
52	0xbd53ee40	-0.051740885
53	0xbc6a9d77	-0.014319769
54	0x3cea6750	0.028613716
55	0x3bd08427	0.00636341
56	0xbd0ce3b8	-0.034396857
57	0x3d281e7d	0.0410447
58	0x3d020131	0.031739417
59	0xbd9ee7ba	-0.07759042
60	0xbd10cf03	-0.03535367
61	0xbd3d0042	-0.046142824
62	0x3d2e4ceb	0.042553823
63	0x3d2b3bb9	0.041805003
64	0xbd3107fe	-0.043220513
65	0xbd1199c0	-0.035547018
66	0xbd21bf17	-0.039488878
67	0x3d6f3376	0.058398686
68	0xbca7421d	-0.020417267
69	0x3ad6d516	0.0016390409
70	0x3cb2ccdd	0.021826202
71	0xbcf29362	-0.029611293
72	0xbd389bf4	-0.045070603
73	0x3cabbe4f	0.02096477
74	0x3d47ffde	0.048828
75	0x3b94e43d	0.0045438097
76	0xbd198975	-0.037484605
77	0x3d1cd586	0.03828957
78	0x3d154004	0.036438003
79	0x3d355f25	0.04428019
80	0xbc5a56a8	-0.0133263245
81	0x3d2a06b7	0.04151031
82	0xbd9c2387	-0.07623964
83	0x3c465f7b	0.012107725
84	0xbd915f70	-0.070982814
85	0xbd2ec6fa	-0.042670228
86	0xbd23e64c	-0.04001455
87	0xbcfd55bf	-0.030924676
88	0xbd28abd7	-0.041179504
89	0x3d332076	0.04373213
90	0x3bc2f6d6	0.0059498353
91	0xbd7e39e9	-0.062066946
92	0x3d5ac1bd	0.05340742
93	0xbd029593	-0.031880926
94	0x3ba5fe4b	0.0050657145
95	0xbd2eda87	-0.042688873
96	0x3d5dcb83	0.054149162
97	0x3d3d004f	0.046142872
98	0xbda5f015	-0.08102433
99	0xbc94311e	-0.018089827
100	0xbd6882c6	-0.05676534
101	0x3d23066d	0.03980105
102	0xbc676c19	-0.014124894
103	0x3c734a4a	0.014849255
104	0xbd5b614d	-0.05355959
105	0x3cc69dcb	0.024245163
106	0xbcea78c7	-0.028622044
107	0x3c39ed10	0.011348024
108	0x3cb4c4ee	0.02206656
109	0x3d0dc2d3	0.034609627
110	0xbbd5af89	-0.0065211696
111	0x3cd6302c	0.026146017
112	0xbd9116bf	-0.070844166
113	0xbd40795e	-0.046990745
114	0x3cb4d2ed	0.022073234
115	0x3d401e5e	0.04690396
116	0x3cd41ec0	0.025893569
117	0xbc311e63	-0.010810467
118	0x3c4a44b4	0.012345482
119	0x3ba786e8	0.0051125176
120	0x3b3f2a6c	0.0029169573
121	0xbd8547fb	-0.0650787
122	0xbc913f2d	-0.01773032
123	0xbd3f591e	-0.04671585
124	0x3d2aaa52	0.041666336
125	0x3ccaba6b	0.024747094
126	0xbd890c5b	-0.0669181
127	0x3cd971d4	0.026543535
128	0xbd022dda	-0.03178201
129	0x39987069	0.0002907545
130	0xbdab2650	-0.08356917
131	0xbcb38e41	-0.021918418
132	0xbd51e03d	-0.05123924
133	0x3d39f303	0.04539777
134	0xbd901309	-0.07034881
135	0xbca36176	-0.019943934
136	0xbd893d2e	-0.06701122
137	0xbd5a724f	-0.05333167
138	0x3c55c72c	0.013047975
139	0xbd84085b	-0.06446906
140	0x3ca975a6	0.020685982
141	0x3d2e5423	0.042560708
142	0xbd3e7b4a	-0.046504296
143	0xbc2df1ec	-0.010616761
144	0x3d2fe4c2	0.04294277
145	0x3ca11124	0.019661494
146	0x3c946457	0.018114252
147	0x3d32d431	0.043659393
148	0xbbf7bd25	-0.0075603896
149	0xbc995c22	-0.01872069
150	0x3cdea65b	0.027178934
151	0xbca34076	-0.019928198
152	0x3b72ab20	0.0037028268
153	0xbd22cd4b	-0.039746564
154	0x3b4da918	0.0031381305
155	0xbcb5278c	-0.022113584
156	0xbd8286e6	-0.06373386
157	0xbc67683f	-0.014123975
158	0xbd600c18	-0.054699033
159	0x3b9fd7a5	0.0048780018
160	0x3ce3a249	0.027787345
161	0x3bc7d0c0	0.006097883
162	0x3c030517	0.007996819
163	0xbc2f0f1e	-0.010684757
164	0xbd8c3370	-0.068457484
165	0xbd3d0223	-0.046144616
166	0x3d21cc7c	0.039501652
167	0xbda07cf6	-0.078363344
168	0x3b7d9d4a	0.0038698488
169	0x3cbf9f7e	0.023391481
170	0x3c68d013	0.014209765
171	0x3c45d249	0.012074062
172	0xbcbd64af	-0.023119299
173	0xbd286c12	-0.04111869
174	0x3c198e33	0.009372282
175	0x3c50b447	0.012738294
176	0xbbf675a4	-0.007521348
177	0x3d3fee5a	0.04685817
178	0x3cff963f	0.031199573
179	0xbda298c8	-0.07939297
180	0xbcf89048	-0.030342236
181	0xbd5a95be	-0.05336546
182	0x3c597a37	0.013273767
183	0xbce42a96	-0.027852338
184	0xbc29ef82	-0.0103720445
185	0xbd7dc857	-0.061958637
186	0xbc64f569	-0.013974526
187	0x3ca286d6	0.019839685
188	0xbd86829c	-0.065678805
189	0x3b50cdc1	0.003186092
190	0xbd320ca3	-0.043469083
191	0xbd191901	-0.03737736
192	0xbca6505d	-0.020301992
193	0x3d02279e	0.031776063
194	0x3ca23cc3	0.019804364
195	0xbd999c82	-0.075005546
196	0xbce8a414	-0.028398551
197	0x3d27b149	0.040940557
198	0xbd8b39fa	-0.067981675
199	0x3d178d4a	0.036999978
200	0x3c6b2a5e	0.014353363
201	0x3d6705d8	0.056402057
202	0xbd058370	-0.03259605
203	0xbb461e91	-0.0030230621
204	0x3981269c	0.00024633564
205	0xbd90c927	-0.07069617
206	0xbc2c4a0c	-0.010515701
207	0x3d011014	0.031509474
208	0x3d2bde4d	0.04196005
209	0xbd4584f3	-0.048222493
210	0x3d5ee9a0	0.05442202
211	0x3d00b3d8	0.031421512
212	0xbd939c35	-0.072075285
213	0xbd051663	-0.032492053
214	0xbc1b8aa3	-0.009493503
215	0xbd641bf4	-0.05569072
216	0xbd9f0dc6	-0.07766299
217	0xbd170163	-0.036866557
218	0xbd35458f	-0.04425579
219	0x3d4c4a49	0.04987553
220	0xbcdb8a24	-0.026799269
221	0x3d4487e2	0.04798115
222	0xbcff7ad0	-0.031186491
223	0xbc9c087f	-0.01904702
224	0xbd6f7f3d	-0.058470953
225	0x3d478039	0.048706267
226	0xbd90e4e2	-0.07074906
227	0xbc1dc2cd	-0.009628964
228	0xbc3cb705	-0.011518245
229	0xbc36ef71	-0.011165486
230	0x3d147a74	0.036249593
231	0xbd0a255c	-0.033727035
232	0x3c6636a7	0.014051116
233	0x3c56d1d5	0.013111551
234	0x3aeb990a	0.0017974686
235	0xbd7f8b74	-0.062388852
236	0xbd1f3bd8	-0.03887543
237	0xbc1001b9	-0.008789473
238	0xbc696b14	-0.014246721
239	0x3b829106	0.0039845733
240	0x3cfa86bb	0.030581823
241	0xbd64d57e	-0.055867665
242	0x3d1b5244	0.03792025
243	0xbc8eae28	-0.017417029
244	0x3a48d6b9	0.00076613907
245	0x3d7fab1a	0.062419035
246	0xbcbfbdc3	-0.023405915
247	0xbce867a0	-0.028369725
248	0xbd7bb51a	-0.06145201
249	0x3d2ee403	0.042697918
250	0xbd948279	-0.07251448
251	0xbd2c72c4	-0.042101637
252	0xbc679083	-0.014133575
253	0x3cfec3e2	0.031099264
254	0x3c983b2f	0.018582908
255	0xbc9db4b3	-0.019251203

action_out.bias f4 [5]
0	0xbcb92e29	-0.022605019
1	0xbcb9165f	-0.022593675
2	0xbd1d1b5b	-0.038356166
3	0x3bd6d500	0.0065561533
4	0x3d171c41	0.03689218

weight f4 [256, 123]
0	0x3d724002	0.059143074
1	0xbd16065a	-0.03662715
2	0x3cbf4217	0.023346944
3	0xbaf684cc	-0.0018807887
4	0x3d087441	0.033313993
5	0x3d8e1e31	0.06939352
6	0xbd968ddd	-0.07351277
7	0xbc8ba8ce	-0.017048266
8	0x3c153152	0.009105997
9	0xbd88ad5a	-0.06673689
10	0x3d365b16	0.04452046
11	0xbc0efbe8	-0.008727051
12	0x3d6e4d1a	0.058179
13	0x3d4e499c	0.050363168
14	0xbdad2fb1	-0.08456362
15	0xbb825356	-0.0039772196
16	0xbda7aef6	-0.08187668
17	0xbd891037	-0.06692546
18	0xbcccce75	-0.02500079
19	0x3d0eae1b	0.03483401
20	0xbbd420f3	-0.0064736544
21	0x3d88767a	0.066632226
22	0xbcb7c8a5	-0.022434542
23	0x3b8e6de2	0.004346595
24	0x3d01a256	0.031648956
25	0xbc153bd4	-0.009108502
26	0x3d953427	0.07285338
27	0x3d34f240	0.04417634
28	0xbd14b8ea	-0.03630916
29	0xbc57a7a7	-0.01316253
30	0x3dab1362	0.08353306
31	0xbcc5574f	-0.024089484
32	0xbcf609da	-0.030033994
33	0x3d2f4b2a	0.04279629
34	0x3ce8dd30	0.028425783
35	0x3d52b4aa	0.051441826
36	0x3ca7c301	0.020478727
37	0xbd962d6c	-0.07332882
38	0xbd374843	-0.04474665
39	0x3d3fa0f8	0.04678437
40	0x3d273a4d	0.040827084
41	0xbd38b47f	-0.04509401
42	0xbd4db5fe	-0.05022239
43	0x3d859995	0.06523434
44	0x3c49ae87	0.012309677
45	0x3a81bb08	0.0009897659
46	0xb946afc1	-0.00018948225
47	0xbd27a9c8	-0.0409334
48	0xbda3feda	-0.080075935
49	0xbd8702ed	-0.06592355
50	0xbd89d51d	-0.06730101
51	0x3d8feb41	0.07027293
52	0x3d83902b	0.06423982
53	0x3c533440	0.012890875
54	0x3d9d0561	0.076670416
55	0x3cc23167	0.023705197
56	0x3d3f6dcc	0.04673557
57	0x3cfe222d	0.031022156
58	0xbb4f4e02	-0.003163219
59	0xbaa08b72	-0.0012248589
60	0xbdb32b0f	-0.08748447
61	0x3d99b64a	0.07505472
62	0x3c072777	0.008249155
63	0xbcd924be	-0.026506778
64	0x3d93e958	0.07222241
65	0xbc7fe72c	-0.0156190805
66	0x3c4fae18	0.0126757845
67	0xbd2d187d	-0.042259682
68	0x3c31d9c0	0.010855138
69	0xbcbf2f5e	-0.023338016
70	0x3da002d3	0.07813039
71	0xbdb86107	-0.090028815
72	0x3bf7766a	0.007551958
73	0x3da4a67c	0.08039567
74	0x3bc53ee7	0.0060194614
75	0xbc225af6	-0.009909382
76	0x3da2f7fa	0.07957454
77	0xbdb11824	-0.086471826
78	0x3d97e336	0.07416384
79	0x3d0f6933	0.035012435
80	0xbcb312b2	-0.0218595
81	0xbc275b7b	-0.010214682
82	0xbda73e90	-0.0816623
83	0xbd86cce1	-0.06582046
84	0xbcfa265f	-0.030535875
85	0xbcdc26b6	-0.026873928
86	0xbd5decbc	-0.054180846
87	0x3db0aea3	0.08627059
88	0x3d0a8b28	0.033824116
89	0xbcc7ab9b	-0.02437382
90	0x3d1e20a6	0.038605355
91	0xbd0dbdee	-0.03460496
92	0xbda2bfbb	-0.07946726
93	0xbc1f01ee	-0.00970505
94	0x3d3712ea	0.044695772
95	0xbda36658	-0.07978505
96	0xbd0b0416	-0.033939444
97	0x3d81e583	0.06342604
98	0x3d20b026	0.03923049
99	0xbd84027f	-0.064457886
100	0xb80e3e71	-3.391359e-05
101	0xbdbab443	-0.091164134
102	0xbd961f81	-0.07330228
103	0xbd6b3cc2	-0.05743099
104	0x3dae211d	0.085024096
105	0x3d015ef2	0.031584688
106	0x3cf0ba0d	0.02938559
107	0xbda69556	-0.08133952
108	0xbdb10d92	-0.086451665
109	0xbd1a4fe1	-0.037673835
110	0xbd64c865	-0.055855174
111	0xbd2b3ed6	-0.041807972
112	0xbd53582a	-0.05159775
113	0x3d08f248	0.033434182
114	0x3cb5a77e	0.022174593
115	0xbce40e73	-0.027838921
116	0x3d81af25	0.06332234
117	0x3d84b147	0.064791255
118	0x3d7ff6a4	0.062491074
119	0xbd9588d8	-0.073014915
120	0x3d637c43	0.055538427
121	0x3d94db64	0.07268408
122	0xbdb7084e	-0.08937131
123	0xbdb02bc9	-0.08602101
124	0x3cacb7f0	0.021083802
125	0xbda160ca	-0.07879789
126	0xbd975d66	-0.07390861
127	0x3cb37b7d	0.02190947
128	0xbda0e29e	-0.07855724
129	0xbbca755b	-0.0061785406
130	0x3dab0aef	0.08351695
131	0x3d74d35a	0.059771873
132	0x3c01d268	0.0079237
133	0xbd54c757	-0.051947918
134	0xbd866a3b	-0.065632306
135	0x3d9432a1	0.07236219
136	0x3cb6634d	0.022264147
137	0xbd8675ea	-0.06565459
138	0xbd82c292	-0.063847676
139	0x3d8defe1	0.06930519
140	0xbd8e1c9c	-0.069390506
141	0xbd1f259a	-0.03885422
142	0x3da82bdb	0.0821149
143	0x3c5cd48d	0.01347841
144	0xbd04b355	-0.032397587
145	0x3daae98f	0.08345329
146	0xbd137669	-0.036001597
147	0xbd98637f	-0.074408524
148	0x3bfb6295	0.007671664
149	0xbcc2a164	-0.023758598
150	0xbd1e9049	-0.03871182
151	0xbd56113c	-0.05226253
152	0x3d893844	0.06700185
153	0xbb1286ef	-0.0022358259
154	0x3d9c5fd7	0.076354675
155	0xbd7a183f	-0.06105828
156	0x3d5c7596	0.053823076
157	0xbd9f6ccf	-0.077844255
158	0x3c5fef9e	0.013667969
159	0xbda7fca4	-0.08202484
160	0x3da04807	0.07826238
161	0xbd864fbb	-0.06558176
162	0xbd085692	-0.033285685
163	0x3d3a2f40	0.045455217
164	0xbdb0affe	-0.08627318
165	0x3ce90b90	0.028447896
166	0x3b414558	0.0029490795
167	0x3d572128	0.052521855
168	0xbd2a9dcd	-0.041654397
169	0xbcc6ea25	-0.02428157
170	0xbcc412f9	-0.023934828
171	0xbd44a69c	-0.048010454
172	0x3d0b1b67	0.03396168
173	0xbd9f7ab5	-0.077870764
174	0x3c7db0f7	0.015484086
175	0xbd45e3d8	-0.04831299
176	0x3d393d22	0.045224316
177	0x3d0824d8	0.033238262
178	0x3c501c7f	0.0127021065
179	0x3abac2f4	0.0014248774
180	0x3818f9fe	3.6472447e-05
181	0xbd5d05c6	-0.053960584
182	0xbd0b03a9	-0.033939037
183	0x3d00d0be	0.031449072
184	0xbbd772f8	-0.0065749846
185	0xbda7ac1c	-0.08187124
186	0xbd23dfb9	-0.04000828
187	0x3d683fcf	0.056701478
188	0x3d85ae63	0.06527402
189	0x3d6fd049	0.058548246
190	0xbda6fb06	-0.08153348
191	0xbd799d46	-0.060941003
192	0xbd96c9c9	-0.07362706
193	0xbda7e8c9	-0.08198697
194	0x3d076700	0.033057213
195	0xbbd17d44	-0.0063931067
196	0xbdaab7a5	-0.08335809
197	0xbd332be8	-0.043743044
198	0x3c8cbd74	0.017180182
199	0x3c433b3d	0.011915979
200	0xbb46974f	-0.003030259
201	0x3da9830d	0.08276949
202	0x3d02452e	0.031804256
203	0x3a821e93	0.0009927325
204	0x3d1c1df5	0.038114507
205	0x3da90b71	0.082541354
206	0xbd3bf143	-0.045884382
207	0xbdadc8ca	-0.08485563
208	0x3c999589	0.018748062
209	0x3c5aa715	0.0133454995
210	0x3d00945a	0.03139148
211	0xbdadcd8d	-0.08486471
212	0xbd1bc9a2	-0.03803409
213	0xbd6dd4be	-0.058064215
214	0xbc362ad2	-0.011118608
215	0x3c2f6975	0.010706295
216	0xbda84fa9	-0.08218319
217	0x3d75157b	0.05983494
218	0x3da38bde	0.07985662
219	0xbc1cc352	-0.009568052
220	0xbd44b802	-0.048027046
221	0x3da85165	0.0821865
222	0x3d768493	0.060185026
223	0x3d941b38	0.07231754
224	0x3b8135f8	0.003943201
225	0x3cef0cae	0.02918085
226	0x3dadc253	0.0848433
227	0xbcd0f1d8	-0.025505945
228	0x3d901113	0.07034507
229	0xbdba6e57	-0.09103077
230	0xba90a824	-0.0011036438
231	0x3b5cb3ee	0.0033676582
232	0x3b7024da	0.003664306
233	0xbd7ee1fe	-0.06222724
234	0x3d315bb6	0.043300353
235	0xbd7b3228	-0.06132713
236	0xbd2d40af	-0.042298015
237	0xbda767cb	-0.08174094
238	0xbc794a1f	-0.015215426
239	0xbcff8590	-0.031191617
240	0xbc4d7adb	-0.012541498
241	0x3d0fdacd	0.035120774
242	0xbd31d0db	-0.04341207
243	0xbd33d984	-0.04390861
244	0xbc977c50	-0.018491894
245	0x3d11afb7	0.035567965
246	0xbc197f89	-0.009368786
247	0x3d8941d2	0.06702007
248	0xbc59d249	-0.013294765
249	0x3c4fe7c5	0.0126895355
250	0xbd1be0f8	-0.038056344
251	0xbd9be3a4	-0.076117784
252	0xbd160c2f	-0.036632713
253	0x3d94035a	0.07227202
254	0x3bc7c553	0.006096521
255	0x3c02d648	0.007985659

bias f4 [256]
0	0xbd94169b	-0.07230874
1	0x3d180ea9	0.037123356
2	0x3d58e568	0.052953154
3	0xbdc1ac3f	-0.094566815
4	0x3d216d52	0.039410897
5	0x3ca9c035	0.020721534
6	0x3aaac58c	0.0013028844
7	0x3da76177	0.08172887
8	0x3d105ff2	0.03524775
9	0x3c00899a	0.007845307
10	0xbd5ed548	-0.05440262
11	0xbd8fa407	-0.070137076
12	0xbd710a74	-0.05884786
13	0xbc00a3cb	-0.007851551
14	0xbd559c2e	-0.052150898
15	0xbd2a78ab	-0.041618984
16	0xbcb75dcc	-0.022383593
17	0x3ca63877	0.020290596
18	0xbd9f55cf	-0.077800386
19	0x3b968700	0.00459373
20	0xbda945a0	-0.08265233
21	0xbad4fdcb	-0.0016249953
22	0x3da22b0d	0.079183675
23	0x3d4596e0	0.04823959
24	0xbc844a0b	-0.016148588
25	0xbcfae94a	-0.030628819
26	0x3da60f15	0.081083454
27	0x3c4cdd0b	0.012503873
28	0x3d84c7e3	0.06483438
29	0x3d8ab438	0.06772655
30	0xbd0016d2	-0.031271763
31	0xbd8e3ead	-0.06945548
32	0x3d0caf91	0.03434712
33	0xbd99d52a	-0.07511361
34	0xbd4cb528	-0.04997745
35	0xbc9cf1e1	-0.019158306
36	0x3d305dad	0.043058086
37	0xbd3f35d0	-0.04668218
38	0x3bbd763c	0.005781917
39	0xbb2abf8c	-0.0026054112
40	0xbb57252d	-0.0032828555
41	0xbcf56791	-0.02995661
42	0x3da02f1c	0.078214854
43	0xbcad2adb	-0.0211386
44	0xbdb70004	-0.0893555
45	0xbd8b39fc	-0.06798169
46	0x3d1fb482	0.038990505
47	0x3d8416ee	0.06449686
48	0x3baf0d8e	0.005342192
49	0xbce127f7	-0.027484877
50	0xbd702b92	-0.058635302
51	0x3d9bba6c	0.076039165
52	0x3db2622b	0.0871013
53	0x3cd56b73	0.026052212
54	0x3ceb5585	0.028727302
55	0xbd79f04a	-0.061020173
56	0xbd816fe7	-0.06320172
57	0x3d2e60ea	0.042572893
58	0x3d027077	0.031845536
59	0x3d42f050	0.04759246
60	0xbcb41f75	-0.021987656
61	0xbd9922e7	-0.0747736
62	0xbd04a7e6	-0.032386683
63	0xbd072c32	-0.033001132
64	0xbca7ccb9	-0.020483362
65	0x3c360d65	0.011111592
66	0x3cea81b2	0.028626297
67	0x3c96bec5	0.018401513
68	0x3c55993d	0.013037023
69	0x3d8b88df	0.068132155
70	0x3d26f324	0.04075922
71	0xbd739d63	-0.059476268
72	0x3c9ac5b5	0.018893102
73	0xbcd9cdfe	-0.026587483
74	0x3bdfc8b4	0.0068293456
75	0x3d1a678b	0.037696403
76	0xba96e62b	-0.0011512687
77	0xbd4cc707	-0.049994495
78	0xbd89b7f9	-0.06724543
79	0x3d0b3aea	0.03399173
80	0xbc90e095	-0.017685214
81	0xbc5e022b	-0.013550322
82	0xbd322c28	-0.043499142
83	0xbd961984	-0.073290855
84	0x3d5271d3	0.051378082
85	0xbd2f7825	-0.042839188
86	0x3d1df5fb	0.038564663
87	0x3d43ada5	0.047773022
88	0xbd1ca13e	-0.03823971
89	0x3d8656f4	0.06559554
90	0x3cea5d3d	0.028608913
91	0x3d2821c8	0.04104784
92	0x3d0c3be1	0.034236792
93	0xbd8c67ec	-0.06855759
94	0x3d016b76	0.031596623
95	0x3c74a1d7	0.014931164
96	0x3ce6b022	0.028160159
97	0xbdb91a58	-0.09038228
98	0xbc5a1996	-0.013311764
99	0x3d5d422a	0.054018177
100	0xbc592520	-0.01325348
101	0xbd601e03	-0.05471612
102	0x3d164349	0.036685262
103	0xbbdef76b	-0.006804397
104	0xbd1882b9	-0.03723404
105	0x3d2f91d0	0.042863667
106	0xbcdc9162	-0.026924793
107	0xbdbb59dc	-0.09147999
108	0xbccc9067	-0.0249712
109	0x3d019b79	0.03164241
110	0xbceeed59	-0.02916591
111	0xbcbaab74	-0.022786833
112	0x3d88f4f9	0.0668735
113	0xbd652d29	-0.05595127
114	0x3d94105a	0.07229681
115	0xbd637733	-0.0555336
116	0xbdae51a7	-0.08511668
117	0x3d05e610	0.032690108
118	0x3c23cfb2	0.009998249
119	0xbd40ab89	-0.04703859
120	0xbd2eaa50	-0.04264289
121	0x3d0044f8	0.031315774
122	0xbd93e00b	-0.07220467
123	0xbdbaa1ef	-0.09112918
124	0x3d9695d9	0.073528
125	0xbdb25a0c	-0.08708581
126	0x3d4ab560	0.04948938
127	0xbcbf65b3	-0.023363924
128	0xbccb95ab	-0.02485164
129	0xbdc223dd	-0.09479497
130	0xbd9755a8	-0.073893845
131	0xbd8d9bc0	-0.069144726
132	0x3d5ecf91	0.05439717
133	0xbd54bf19	-0.051940057
134	0xbcf3c53e	-0.029757138
135	0x3d8fae79	0.070157
136	0xbd6053f9	-0.054767583
137	0xbc373b9c	-0.011183646
138	0x3bd99e44	0.006641181
139	0x3c8fde30	0.017562002
140	0xbbbb23b1	-0.005711042
141	0x3d412b4a	0.047160424
142	0x3d08c7dc	0.033393726
143	0xbd9477c5	-0.07249407
144	0xbdb0e6ab	-0.086377464
145	0xbd689f0d	-0.056792308
146	0xbc9df5f7	-0.019282324
147	0xbd3d29f8	-0.046182603
148	0x3bfe8ec4	0.007768484
149	0xbd5752b7	-0.052569117
150	0xbd516d34	-0.051129535
151	0x3c98b8aa	0.018642742
152	0xbbcbe6e4	-0.0062225927
153	0x3d4a3e39	0.049375746
154	0x3cc08bd0	0.023504168
155	0x3d5ed27f	0.054399963
156	0xbd6601a5	-0.056153912
157	0x3d8316b5	0.064008154
158	0x3c2cc851	0.010545806
159	0xbd4f041c	-0.05054103
160	0x3d10a806	0.03531649
161	0x3cd5db0b	0.026105424
162	0x3d9da88d	0.07698164
163	0xbdb250ac	-0.08706793
164	0x3d138773	0.036017846
165	0xbcd36e99	-0.025809573
166	0xbd8b4b4e	-0.068014726
167	0x3d731ed7	0.059355583
168	0xbd1d3fde	-0.038390987
169	0x3cfc3574	0.030787207
170	0x3d92b617	0.07163637
171	0xbd61011b	-0.054932695
172	0xbdbc0e72	-0.09182443
173	0x3d8adf21	0.0678084
174	0x3dae1089	0.084992476
175	0xbc3a595b	-0.011373843
176	0x3c174f4d	0.009235215
177	0x3d022697	0.031775083
178	0x3d395975	0.04525133
179	0x3c5bc835	0.013414432
180	0xbdaf2e17	-0.08553713
181	0xbd9b290c	-0.075761884
182	0x3da8f75a	0.082503036
183	0xbb3bc368	-0.0028650407
184	0x3c40c713	0.011766213
185	0x3d3e5f10	0.046477377
186	0x3d68b611	0.056814257
187	0xbd7ee159	-0.062226627
188	0x3c574231	0.01313834
189	0xbd8d029a	-0.06885262
190	0xbccf7849	-0.025325911
191	0xbd06e402	-0.03293229
192	0xbd7de638	-0.06198713
193	0xbdbc4e8d	-0.0919467
194	0xbd9e1c9f	-0.07720303
195	0x3d86e142	0.06585933
196	0x3d0fcc33	0.03510685
197	0xbdb01eba	-0.085996106
198	0xbcd21c1a	-0.025648165
199	0xbd057b85	-0.0325885
200	0xbc868ae8	-0.016423658
201	0x3d6c6565	0.057713885
202	0x3d5c32aa	0.053759255
203	0xbc6a34f4	-0.014294852
204	0xbd086dc7	-0.033307817
205	0xbd9b25bf	-0.07575559
206	0x3c85bea8	0.016326264
207	0xbd8e6587	-0.069529586
208	0xbcb48003	-0.022033697
209	0xbb21f72a	-0.0024713972
210	0x3c419a68	0.0118165985
211	0xbb46521d	-0.0030261346
212	0xbd26add6	-0.040693127
213	0xbd46b17d	-0.04850911
214	0x3d024333	0.031802367
215	0xbd527af8	-0.051386803
216	0x3d6ed528	0.05830875
217	0xbd5b6f3f	-0.05357289
218	0xbd48c6a4	-0.049017563
219	0xbcf26e30	-0.029593557
220	0x3c953e56	0.0182182
221	0xbd46bbc8	-0.048518926
222	0x3d9eb642	0.07749607
223	0x3d4a92fa	0.049456574
224	0x3da625b2	0.081126586
225	0xbd223908	-0.03960517
226	0x3d127c53	0.035763096
227	0x3d030f87	0.03199723
228	0xbc84517e	-0.01615214
229	0xbdad4db9	-0.0846209
230	0x3d70da0d	0.0588017
231	0x3da18297	0.07886236
232	0x3d41e171	0.04733414
233	0x3cfe86bb	0.031070104
234	0xbdb48182	-0.08813764
235	0xbdc13b63	-0.09435155
236	0xbd8611d5	-0.0654637
237	0xbdac3aa3	-0.084096216
238	0xbc9eaf77	-0.019370778
239	0xbd4cdab4	-0.05001326
240	0x3d9b035f	0.07569002
241	0xbd8ba68c	-0.06818876
242	0xbce1a58e	-0.027544763
243	0x3cb6d4e7	0.022318317
244	0x3ce4e678	0.027941927
245	0xbdb63682	-0.08897115
246	0xbc57f3fd	-0.01318073
247	0x3d817992	0.06322016
248	0x3cc093b0	0.023507923
249	0xbb636155	-0.0034695466
250	0x3d432073	0.047638368
251	0x3d1f02f7	0.038821187
252	0xbd8f9f70	-0.07012832
253	0xbd509aad	-0.05092876
254	0x3bb4030b	0.005493527
255	0xbc831662	-0.016001884
